crowd_nav/RGL_our/best_val.pth (torch, 143871 bytes, 33 tensors)

w_a f4 [32, 32]
000000 62 ce 11 bf d9 40 85 be 25 1f 9a 3f a0 9c 63 bf
       -0.5695554 -0.26026037 1.2040755 -0.88910866
000010 97 bc ac 3e db 93 90 bf ea fa f2 3e be c4 08 bf
       0.33737633 -1.1295122 0.47457057 -0.53425205
000020 c2 66 87 3f e7 e4 aa 3e c6 2a 93 bf ef 73 04 3f
       1.0578234 0.33377764 -1.1497428 0.517394
000030 d2 8e 00 c0 b2 19 db bf a8 ce b7 3e 7d f0 c6 be
       -2.008717 -1.7117217 0.35899854 -0.38855353
000040 0c a4 cb be ca ea 9f bf 41 74 59 3f 6d a1 b8 be
       -0.39773595 -1.2493527 0.84943014 -0.36060658
000050 67 3b 4a 3f f0 67 4a 3e 87 8b 49 3f a3 97 83 be
       0.7899689 0.19766212 0.78728527 -0.25701627
000060 32 6d a0 bf 19 36 9b 3d 98 d6 6b be ee b4 e2 bd
       -1.2533324 0.07578678 -0.2303108 -0.11069666
000070 9c 76 61 be f5 c0 51 be 50 de 2f bf 01 d7 ca 3f
       -0.22017902 -0.20483764 -0.68698597 1.5846864
000080 2a a7 0c bd ff 3b 24 3f 78 75 91 bf 73 5d d3 bf
       -0.034339108 0.64154047 -1.1363974 -1.6512893
000090 e6 70 95 3f 7a 50 9b bf 87 26 a3 3f 6e d0 63 3e
       1.1675079 -1.2133934 1.2746133 0.22247478
0000a0 1e db 49 3f de 8a cc be 6c 05 1d 3e 87 1b 4f 3e
       0.7884997 -0.39949697 0.153341 0.20225345
0000b0 fb 42 29 bd 8d 9f 02 c0 83 8c 03 bf 87 0b 28 bf
       -0.041323643 -2.0409882 -0.5138628 -0.6564259
0000c0 91 86 1f 3e d9 97 8f 3e 25 79 5a bf b9 0d 9f bd
       0.15578677 0.28045538 -0.853411 -0.07766289
0000d0 d9 cc 46 3f ec d1 8c bf 68 77 a8 bf ea fc dc bf
       0.7765632 -1.1001563 -1.316144 -1.7264683
0000e0 56 2d 7c 3e f3 d6 41 3f 16 f6 84 bf 58 7c 48 be
       0.2462667 0.7571861 -1.03876 -0.19578683
0000f0 7a c8 87 bf 32 b0 fe 3f 14 04 b1 3f 92 ff 07 3c
       -1.0608056 1.989752 1.382937 0.008300679
000100 fd 36 3c 3d aa fc d6 bf 03 f4 33 bf 74 b6 00 3e
       0.04595088 -1.6795857 -0.7029421 0.125696
000110 5a b4 a8 bf aa 42 d4 bf ef 55 10 bf a9 b4 4d bf
       -1.3180039 -1.6582844 -0.56381124 -0.8035379
000120 e2 6c bc bf e5 16 13 3f 6b 77 b4 3f a3 87 71 bf
       -1.4720728 0.5745681 1.4098943 -0.9434759
000130 8c 79 37 bf 60 e5 36 3e 6e 84 e1 bf d0 a2 cb 3e
       -0.7166984 0.17860937 -1.7618539 0.39772654
000140 37 63 53 bd 1b b3 64 3e 3f 6f cc bf b3 ae 44 3d
       -0.05160829 0.22333948 -1.597145 0.04801817
000150 51 3e e2 be 87 7c 98 bf a8 3f 89 3f 6c 54 49 c0
       -0.4418817 -1.1913003 1.0722551 -3.1457777
000160 a1 ba d9 bf e2 6f 49 3f eb 0b 19 bf a5 fd b7 3f
       -1.701008 0.78686345 -0.5978381 1.4374281
000170 1a 86 3b 3f b9 90 14 3e 9e 0d 34 3e ca 8e 9c bd
       0.732515 0.14508332 0.1758332 -0.07644422
000180 0d bd 81 3e 80 4c 87 3f bb 1f 90 bf c5 73 8c 3e
       0.25339547 1.0570221 -1.1259683 0.27432075
000190 ee 9c c5 bf ce f5 c9 3c 68 ea 2a 3f 6c ec 2b bf
       -1.5438516 0.024653342 0.66763926 -0.67157626
0001a0 5f 94 6f bf e0 bf fe be 75 50 0d bf 75 d4 96 bf
       -0.9358577 -0.49755764 -0.5520089 -1.1783587
0001b0 64 fc 1b 3f fc 3c 6d bf 53 b6 23 be eb 55 bf 3f
       0.6093199 -0.9267118 -0.1598752 1.4948095
0001c0 f2 88 b2 bd da 29 4f bf a5 a8 a2 3e dd df b9 3e
       -0.087175265 -0.80923235 0.3176929 0.36303607
0001d0 4f 65 f6 be d6 fe 1a bf 26 10 42 bf 62 58 e6 3d
       -0.48124167 -0.605451 -0.7580589 0.112473264
0001e0 42 d6 e4 3e 35 38 59 bf 41 e7 20 bf e0 87 fd 3e
       0.44694716 -0.8485139 -0.62852865 0.49517727
0001f0 a2 00 89 bf e7 ef 1d 3f 30 13 11 bf a8 fe 9f 3f
       -1.0703318 0.61694187 -0.566699 1.249959
000200 7d 17 99 3f 5e b0 82 bd bd 6b 18 bf fe a7 9c 3d
       1.1960293 -0.063812956 -0.59539396 0.076492295
000210 dc cc 08 3c ed f3 00 3e 35 37 aa bf 71 cf 88 be
       0.0083496235 0.1259305 -1.3298098 -0.26720765
000220 dc c9 a4 bf b4 7c 9d 3f 9e 4d 19 3f 29 ce 8d bf
       -1.2874103 1.2303681 0.5988406 -1.107854
000230 4e ee 48 bf 82 33 0a 3e 0a 68 90 3e 36 85 0a c0
       -0.78488624 0.13496211 0.28204376 -2.1643806
000240 fd 4c 07 3d 99 39 ac 3e 77 4b 0c bf 8e 06 e2 3e
       0.033032406 0.33637694 -0.5480265 0.44145626
000250 7e fc c0 3e ce 66 83 bf 9d 86 67 bf fa 35 aa 3f
       0.37692636 -1.0265749 -0.9043978 1.3297722
000260 d8 bd bf bf b0 7a 85 3e 03 e4 67 be bf 35 63 bf
       -1.4979811 0.26070166 -0.22645573 -0.88753885
000270 c3 0a ad 3e 9a 4c 7a bf 1d 5e 49 3f dc f4 11 3f
       0.33797273 -0.97773135 0.7865923 0.5701425
000280 70 06 81 3e 73 0d 4d 3f 54 ae 9d bf 88 da af be
       0.25200224 0.80098647 -1.2318826 -0.34346414
000290 bc 51 52 3f 96 fb d5 be bc 83 5d be be 7c ba 3e
       0.82155967 -0.41793507 -0.21632284 0.36423296
0002a0 31 3e 08 40 ea 66 81 3e 36 84 fb 3e a0 6d 9d be
       2.1287959 0.2527383 0.49124306 -0.307477
0002b0 3a b9 f0 bf 2b 53 d7 be 1d ff 67 3e 7b 86 16 3e
       -1.8806527 -0.4205564 0.22655912 0.14699738
0002c0 41 78 00 3e 64 b3 b3 3f 46 7d c4 3f 8d b6 5a bd
       0.12545873 1.4039121 1.535073 -0.05339675
0002d0 ab de 69 be 32 cf 88 3f a1 bb b8 3f 2c 9b b1 bd
       -0.22838847 1.0688231 1.443226 -0.08672175
0002e0 5c bc 86 bc e8 38 e4 3f 87 7a 94 bf 26 9d ff 3d
       -0.016447239 1.7829866 -1.1599892 0.124811456
0002f0 d2 a6 c1 3d 8a 87 69 bf 5f 84 9d 3f 60 32 2c bf
       0.094556466 -0.9122244 1.2306021 -0.67264366
000300 f6 44 17 bd 18 8b 3f bf 84 f6 47 bf 7d 4c 4c 3e
       -0.036931 -0.74821615 -0.7811053 0.19951053
000310 f8 b0 7d bf 1c ca 39 3f 65 47 ac 3e 11 a6 96 3e
       -0.9909816 0.7257402 0.3364822 0.29423574
000320 68 70 b7 3e 67 d6 ce be 8a eb fe be fb 37 44 3f
       0.35827947 -0.4039795 -0.49789077 0.7664792
000330 96 81 26 be ee e7 1b c0 f0 8f 2d 3e 8e f7 56 40
       -0.1626037 -2.4360309 0.16949439 3.3588595
000340 4e 3b a7 bf 17 d6 0f c0 2a ca a8 3f bd 9a 06 bf
       -1.3064973 -2.247442 1.3186696 -0.5257986
000350 f5 dc ba bf 2f e0 d8 3f 65 9a 6d 3f 59 d8 95 bf
       -1.4598681 1.6943415 0.9281371 -1.1706649
000360 7f 56 b1 bc 12 82 2d c0 be 58 85 3e 84 0c e3 be
       -0.02164769 -2.7110639 0.26044267 -0.44345486
000370 97 d8 e4 3e 9c 09 41 3e 42 79 0f c0 a0 40 d3 3e
       0.44696495 0.18851322 -2.241776 0.41260242
000380 4c 59 aa be df 69 90 3f ca 6c 6d bf c8 d8 2a be
       -0.33271253 1.1282309 -0.92744124 -0.16684258
000390 43 43 84 3e 83 30 3c 3f e8 4c dd be 49 6a 9e 3f
       0.25832567 0.73511523 -0.43222737 1.2376186
0003a0 37 5a 48 bf db c2 8c 3f 69 51 d9 bf cb 73 11 be
       -0.78262657 1.0996965 -1.697797 -0.14204328
0003b0 dd b0 09 bf eb d3 8f be 82 a2 47 be c9 3e cf be
       -0.53785497 -0.28091368 -0.19495586 -0.4047759
0003c0 46 47 d4 bd a8 bb 4c bf 8c ad c3 bd 9a 2b bc be
       -0.10365157 -0.7997384 -0.09554586 -0.36752015
0003d0 32 53 41 3d 6c e1 a3 3f 9f 75 c0 bd 73 69 eb bf
       0.04719848 1.2803168 -0.093974344 -1.8391556
0003e0 a6 16 d7 bf dd 03 69 bf 3c 46 9f bf b1 7d 1e 40
       -1.6803787 -0.9102152 -1.2443309 2.4764216
0003f0 e2 8a 89 bf f4 35 ab bd 52 11 04 3f 1c 08 13 40
       -1.0745509 -0.083599 0.5158893 2.29737

w_r.0.weight f4 [64, 9]
000000 31 62 5e 3e 19 21 34 3c 09 a6 d6 3f 67 40 e3 bd
       0.21717145 0.010994219 1.676942 -0.11096268
000010 8e a8 a0 be 60 e2 06 3d 54 11 af be b5 42 6e be
       -0.31378597 0.03293073 -0.34192908 -0.23267634
000020 2b 3e ad bc 42 7f 88 be 78 3b 9e be 4f d7 cb be
       -0.021147808 -0.2665959 -0.30904746 -0.39812705
000030 d6 e6 c3 bd 36 16 52 be db df c6 bd 30 5a 25 bf
       -0.09565513 -0.20516285 -0.09710666 -0.6459074
000040 f0 91 4a bf d3 5f 75 be c8 0d 54 3e d8 56 b7 bd
       -0.7912893 -0.23962335 0.20708382 -0.08952111
000050 0b 8c 81 bf ec 1c b9 3e f0 87 af bd 02 81 a1 be
       -1.0120863 0.36154878 -0.0857085 -0.31543738
000060 73 b2 e6 be c7 02 84 bd 40 dc 6b 3d 68 00 21 be
       -0.4505802 -0.06445842 0.057583094 -0.15722811
000070 a1 90 06 3c c1 97 a0 3e ee da d7 be 2e 78 55 3e
       0.008213193 0.3136578 -0.42159218 0.20846626
000080 db ca 2b be 6b 36 83 be ed 07 48 3d d8 d9 0c 3e
       -0.16776602 -0.25627455 0.048835684 0.13754976
000090 c2 68 0c 3c 57 df 7c bb 0c 68 98 bc 42 c7 6e be
       0.008569898 -0.003858527 -0.0186043 -0.23318198
0000a0 f0 a8 40 be 50 75 1a be b7 03 d5 ba a3 be 93 be
       -0.18814445 -0.15083814 -0.0016251717 -0.28856382
0000b0 26 b8 98 bd 0f b0 61 3c c7 7b 01 3f 24 2d 1a 3c
       -0.074569985 0.013774886 0.50579494 0.009410176
0000c0 a9 1e 4f bb cb f8 53 3d 30 b3 67 3e 0a 4a c5 3e
       -0.0031603968 0.05175094 0.22626948 0.3853305
0000d0 a5 25 24 3e be 26 1a be dc 0c f7 be cd 01 de 3c
       0.16029985 -0.15053841 -0.48251998 0.027100468
0000e0 56 15 19 3d 3c a6 06 3d 9e 7e 63 3e 18 eb 54 be
       0.037373863 0.032873377 0.2221627 -0.20792806
0000f0 6e 41 2b 3e cf 37 95 be 9b b5 60 3e 5d 61 02 bf
       0.16724178 -0.2914414 0.21944277 -0.50929815
000100 31 cc 28 3e 3a f8 8b bf 91 10 f4 be 86 f9 39 be
       0.16484143 -1.0935128 -0.4766889 -0.18161592
000110 00 77 56 3c fe 82 26 bf 75 2f a3 be 2b 7f bb 3d
       0.013089895 -0.6504363 -0.31872144 0.09155115
000120 8c 4a 55 3e f4 9e db be 4e 2f 60 3f 22 16 f0 be
       0.20829219 -0.4289471 0.8757218 -0.46891886
000130 1b 04 8f 3e c6 a7 ee 3d 5a 86 cd be c4 d5 1a bf
       0.2793282 0.11653094 -0.40141565 -0.6048243
000140 7b 59 88 be f5 64 6f 3e 5c 6d 25 bb 90 52 56 3f
       -0.26630768 0.23378356 -0.0025242185 0.8371973
000150 9e 32 c0 3d f0 06 a9 bd de 28 2f 3e 23 7b 73 be
       0.093846545 -0.08253276 0.17105433 -0.23777442
000160 b4 7c 46 bf 6b 86 36 3e e0 26 93 3c bc 76 9c 3b
       -0.7753403 0.17824714 0.017962873 0.0047748964
000170 cb 60 5f be 59 8f f9 3c 38 4c 0f be 2b 77 3b bd
       -0.21814267 0.030463861 -0.13993919 -0.045767944
000180 39 22 c0 3c 0a bf e6 be eb 0a 8d 3c 97 d9 22 3d
       0.023453819 -0.45067626 0.01721712 0.03975829
000190 5e 22 2e bb 6d b0 0e bc da 41 11 be 2a c1 a4 be
       -0.0026570777 -0.008709055 -0.14185277 -0.32178622
0001a0 ea c6 94 3e b3 58 0e be e9 dc 50 bd 23 9b 3f 3e
       0.2905801 -0.13901024 -0.050991926 0.18711524
0001b0 aa e9 56 be 0f f1 1d bf 2a 4e 25 bc 78 ce 89 be
       -0.20987573 -0.6169595 -0.010089437 -0.26915336
0001c0 70 54 96 bd f8 1c 43 be 44 55 36 bf 09 51 67 be
       -0.07340324 -0.1905402 -0.71223855 -0.22589506
0001d0 40 50 5a 3e 06 56 7b be 75 22 24 3e 7b 5c 90 bf
       0.21319675 -0.24544534 0.1602877 -1.1278223
0001e0 5f fd 36 3e 86 2c 09 3e a8 5e 01 be 77 14 e6 be
       0.17870091 0.1339589 -0.12633765 -0.44937488
0001f0 88 79 66 be 0b 24 31 3e dc c1 a0 3e 09 cd 1d 3b
       -0.22507298 0.17298906 0.31397903 0.002407851
000200 eb ec f2 be 64 97 f3 be 1e 72 a4 be 4b 98 62 be
       -0.4744638 -0.4757644 -0.32118315 -0.22128408
000210 31 7a 8e be 41 73 30 bf 20 05 d6 3d 8c 37 b4 3e
       -0.278276 -0.68925864 0.10450196 0.3519863
000220 97 8c ac be ab d2 2f bc e5 6a a9 be 26 db b2 3d
       -0.33701012 -0.0107313795 -0.33089367 0.087332055
000230 8f d6 89 be 46 fc 1e bf 8a 0c 05 bf 66 23 be 3d
       -0.26921508 -0.6210369 -0.5197226 0.092840955
000240 ff 27 1b bf 0c e8 89 3e 8c a9 9a be 35 70 b4 3d
       -0.60607904 0.2693485 -0.3020748 0.08810464
000250 18 42 5a be 56 47 48 bb be 16 2b be 46 a3 8c be
       -0.21314275 -0.0030560098 -0.16707894 -0.27468318
000260 10 ba 40 3e b7 a9 23 bf f7 82 6a 3e 2f 79 63 be
       0.18820977 -0.6393084 0.22901522 -0.22214197
000270 d0 eb 23 3f d8 33 55 3e 00 d7 23 bd 91 ef 92 be
       0.64031696 0.20820558 -0.03999996 -0.286984
000280 2f 30 c0 be 42 1e 99 be 2e bc 29 3f 15 78 a9 3e
       -0.3753676 -0.29905897 0.66302764 0.33099428
000290 84 8a 38 3f 14 c0 57 3f e0 70 63 bd fa 2f 9c be
       0.7208636 0.8427746 -0.055527568 -0.30505353
0002a0 53 81 1a bf fd 55 25 bf 78 ca 6b 3e 6a a2 90 bd
       -0.60353583 -0.6458433 0.23026454 -0.07062228
0002b0 e8 e8 b6 bd bb 53 05 3d 1b b9 5f bf 0a ac 9e be
       -0.08931142 0.032550555 -0.87391824 -0.3099063
0002c0 76 ef 6a 3e 87 00 11 bf f0 12 aa bd eb 6f 86 bc
       0.2294291 -0.5664143 -0.08304393 -0.016410789
0002d0 a0 01 15 bf 20 a0 17 bf 1e bf f1 bc ee 8b db bc
       -0.58205605 -0.59228706 -0.029510077 -0.026800122
0002e0 47 ac 92 3e c0 97 30 bd 8b 70 dc be 2e b1 c4 be
       0.28647062 -0.04311347 -0.43054613 -0.38416427
0002f0 eb 59 87 3c c4 b9 60 3e 13 d5 09 3e 0f be af 3e
       0.016522368 0.21945864 0.13460188 0.3432469
000300 b0 08 e8 3e eb 25 05 be 6b dc 08 3d 22 b8 7d be
       0.45319128 -0.13002746 0.033413332 -0.24777272
000310 4a ef b6 be 3a 94 8c 3e d2 ca f7 3e 24 62 6e bc
       -0.35729438 0.27456838 0.48396927 -0.014549766
000320 b5 96 b5 3d 89 86 00 3e c3 97 26 3e f4 29 a1 3e
       0.08866636 0.12551321 0.1626883 0.3147732
000330 8a cd 50 3d 39 38 93 bd 13 84 12 3e 32 b4 c8 3c
       0.050977267 -0.07188458 0.14308195 0.024499986
000340 ef b7 5c 3a 1d c4 42 bd b7 13 61 3d f6 37 7f bd
       0.0008419742 -0.04755031 0.054950442 -0.062309228
000350 56 ce 2b 3d 0d 03 04 3d 65 76 84 be d0 82 6b 3e
       0.041944824 0.032229472 -0.25871578 0.2299912
000360 fa b8 58 be 25 86 79 3e 49 56 3b 3f cf e2 19 3f
       -0.21164313 0.24367578 0.73178536 0.6011171
000370 03 74 35 be 2b 84 44 bc e0 b3 fb be 6b c3 ed bd
       -0.17720036 -0.011994402 -0.4916067 -0.11609539
000380 d6 cf 9a bc 13 f3 a1 be df 78 99 3c d9 d1 5c bf
       -0.018897932 -0.31630763 0.018734394 -0.862577
000390 dd 9f 3b 3f e4 ed a6 be 28 90 13 be 4d b4 03 bf
       0.73290807 -0.3260337 -0.1441046 -0.5144699
0003a0 bb 76 de be 37 12 80 be c0 e8 82 3e fc 69 85 3d
       -0.4344996 -0.25013897 0.255682 0.065143555
0003b0 b4 56 e5 be 7b 1a b2 3e c0 16 e9 bc 40 db 4b bd
       -0.44792712 0.34785828 -0.02845323 -0.04976964
0003c0 4d 59 58 be b3 fb dc be 96 78 3b bd b1 98 65 be
       -0.21127816 -0.4316078 -0.045769297 -0.22421528
0003d0 97 bd 14 be 69 45 fc 3c 7b b5 f2 bd 04 76 a2 3e
       -0.14525448 0.030794816 -0.11851021 0.31730664
0003e0 00 0f c4 bc b7 f2 5a be ef 81 99 3c 1b 29 86 bd
       -0.023932934 -0.21381651 0.018738715 -0.06550809
0003f0 a1 93 b7 3d a4 23 bd bd 95 ee 5d bf a9 20 ea bd
       0.08963705 -0.092353135 -0.8669217 -0.11432011

w_r.0.bias f4 [64]
000000 24 aa 9f bc ca bb 1b bf 86 22 83 be 07 5f 91 be
       -0.019490309 -0.6083342 -0.25612277 -0.28392813
000010 30 dc 2b bc ca 74 a4 3e 20 dc 8a be 5a 5a f2 be
       -0.0104895085 0.32120353 -0.27121067 -0.47334558
000020 d0 42 af be da a7 89 be 8d 15 9f bd d9 c1 74 bc
       -0.3423066 -0.26885873 -0.07767782 -0.014938795
000030 bf 4d 17 bf 8d f1 a7 be 1d b3 a6 be 95 c8 a2 be
       -0.59103006 -0.32801476 -0.32558528 -0.31793657
000040 5f af 45 be b6 03 15 bf cb 77 08 be 2e ae 06 bf
       -0.1930518 -0.5820879 -0.13326947 -0.5260953
000050 4c e9 d0 be 5a 2e 07 bf 2f d9 b3 be b9 b8 49 be
       -0.4080299 -0.528051 -0.35126635 -0.19699372
000060 1b 25 38 be 70 d7 5b bd 42 8d 18 bf d7 d4 a8 3e
       -0.17982905 -0.053672254 -0.5959054 0.32974884
000070 81 46 89 bd ae 03 d1 bd e5 d2 bc 3d 5b ff db be
       -0.06702901 -0.1020578 0.092199124 -0.42968258
000080 a2 8d 7f be f5 c3 0b bf df 05 8a 3d 2f fd 08 be
       -0.24956372 -0.5459588 0.06739401 -0.13377832
000090 7c 9d 2e bf 66 d5 68 3e 29 63 a6 3c a9 b2 e8 be
       -0.6820905 0.22737655 0.020310955 -0.45448807
0000a0 05 54 39 be 65 d9 62 be 3d b1 8d be 34 d5 e3 be
       -0.18098457 -0.22153242 -0.27674285 -0.444986
0000b0 70 ab d6 bd f5 41 76 be 5f 36 ac be 30 e1 ef be
       -0.10481918 -0.24048598 -0.33635232 -0.46851492
0000c0 94 bc 27 bf e6 51 c3 bd d5 53 19 bf 25 dc 38 bb
       -0.6552212 -0.09537105 -0.5989354 -0.0028207388
0000d0 b8 9d b2 be 5e b3 54 be 7b 64 33 be 99 66 bb be
       -0.34885955 -0.20771548 -0.17518799 -0.36601713
0000e0 76 6d 12 3d 96 5f 14 bf ed 81 8f be 9f ee bd be
       0.03574892 -0.5795835 -0.28028813 -0.37096116
0000f0 1d 28 f7 be 99 ae 09 bf a2 7a d0 be e8 9e 9f be
       -0.48272792 -0.5378204 -0.4071856 -0.31175923

w_r.2.weight f4 [32, 64]
000000 ec e0 1f bd 3a 62 55 bd 4d df 94 bd 2e bf 51 3c
       -0.03903286 -0.05209563 -0.07269154 0.012801928
000010 a1 bc af 3c 81 d0 78 3e f3 7a 40 c0 3a 43 70 bf
       0.02145225 0.24298288 -3.0075042 -0.9385258
000020 b5 54 32 be 44 f3 9b 3e d6 6a 2c 3c 24 da f5 bd
       -0.17415126 0.30459034 0.010523519 -0.12004498
000030 af e3 35 be 0d 51 5c ba 9a c0 1f bd 8b ec d3 bd
       -0.17762636 -0.00084044115 -0.03900204 -0.10347851
000040 f1 a5 c4 be df c4 cc 3d 57 f4 ea be e6 0d 02 bf
       -0.38407853 0.09998488 -0.45889542 -0.5080246
000050 bc e8 a3 be 0b 11 85 3d bc 1f 50 3e e2 d7 de 3d
       -0.320135 0.06497391 0.20324606 0.1088102
000060 bd 8e 5b be 05 a7 8b be 63 45 cf bd 0b 97 d0 b9
       -0.21441169 -0.27275863 -0.10120656 -0.00039785387
000070 34 6d 4b 3d ab 4c ac 3e c2 c9 cb 3c aa cf a8 bc
       0.04966469 0.33652243 0.024876479 -0.020606834
000080 76 4b c0 bd fc 53 8b 3e 0d 2c 0b 3e 11 9b 7e 3e
       -0.09389393 0.27212512 0.13591023 0.2486384
000090 8e ff a2 3e 4a 70 d7 be b9 98 3c bf 7f 6e ab 3d
       0.31835598 -0.42077857 -0.73670536 0.08370685
0000a0 2f 7a 21 3e ea bc 52 be c0 06 50 3c 8e f9 1f bf
       0.15769266 -0.20579877 0.012696922 -0.62490165
0000b0 21 64 6c bf 55 ea 06 bd 6c 17 08 3e 9f 08 38 be
       -0.92340285 -0.03293832 0.13290185 -0.17972039
0000c0 02 03 2c 3e 9f 25 cf 3d ed 0f 27 bd 6e cf 5c be
       0.16798022 0.101145975 -0.040786672 -0.21563503
0000d0 88 5d 4f bd 0a 32 f8 be 09 5d 54 3c 46 ed 4c bf
       -0.050626308 -0.48475677 0.012961634 -0.8004955
0000e0 58 b9 e4 3b c0 da 3e bc 48 48 90 3e 93 45 89 be
       0.0069801025 -0.011648834 0.28180146 -0.26810893
0000f0 94 9c e7 3c 81 6b b9 3c ef 7a 10 c0 78 f1 2c bd
       0.028272904 0.02263427 -2.2575033 -0.04222247
000100 b8 40 e3 be c7 29 d3 3d 00 10 05 3e 97 be f1 bb
       -0.44385314 0.10310703 0.12994385 -0.0073774564
000110 a8 a9 b3 3c 82 cb 1a 3d 97 61 d5 bd 0a 6d 0d 3e
       0.021931484 0.037791736 -0.104190044 0.13811126
000120 dc ea a6 bd d2 66 14 bd af 41 d7 3c 11 a1 f2 b9
       -0.081502646 -0.03623087 0.026276438 -0.0004627784
000130 d0 55 1a be 0b 87 30 3e 0c 8f b5 3d 9d d3 39 3e
       -0.15071797 0.17239015 0.08865175 0.1814713
000140 26 04 33 be 2b 18 38 3e cd 82 d0 bd be 9b 5a be
       -0.17482051 0.1797797 -0.10181198 -0.21348473
000150 52 22 d4 3d a7 89 8a be 9c ae 84 bc 96 71 23 3c
       0.103581086 -0.27058145 -0.016196541 0.0099758115
000160 73 e4 44 be 27 d4 3f 3e 0e 52 25 be 6a 04 10 3d
       -0.19227771 0.18733273 -0.16144583 0.03516046
000170 2b 9c 0b 3e d1 4e 3b 3e 89 21 df 3d 40 81 ca be
       0.13633792 0.18291785 0.10895068 -0.39551735
000180 ab 9c 0b be 31 02 ba 3e 50 e4 67 bc 6c ee 17 3e
       -0.13633983 0.36329797 -0.014153555 0.14837044
000190 a4 02 4c bc c1 02 f9 3b 32 77 b9 bd ae 60 e7 bb
       -0.012451801 0.0075992052 -0.09055938 -0.0070610857
0001a0 8f ff e6 3c 9f d8 c5 bc d9 7b 15 bc 12 7d bd bd
       0.028198032 -0.024151145 -0.009123766 -0.09252371
0001b0 10 0d 6a be 6d 03 4d bd 5e 87 83 be 7b 77 57 bd
       -0.22856545 -0.050052095 -0.25689214 -0.05260418
0001c0 a9 a2 54 bd 86 c4 9c bd 26 31 a9 bd 88 fd ee 3e
       -0.051912937 -0.07654671 -0.082613274 0.46677804
0001d0 ed 68 2d bc 95 6c 1e bc 18 00 97 bd ec 7a 24 c0
       -0.010584098 -0.009669443 -0.07373065 -2.5700026
0001e0 3b 0f 2f bd 8f 06 a1 bd 8c 38 1c 3e d6 63 78 bd
       -0.042739134 -0.07862579 0.15255946 -0.060642086
0001f0 26 91 fe bc 64 d9 37 be 40 e1 fd bd 74 66 e4 3c
       -0.031075072 -0.17954022 -0.12396479 0.027880885
000200 09 92 3f 3e 87 d9 79 3d c9 27 5d be 65 db 22 3a
       0.18708052 0.060998466 -0.21597208 0.0006212502
000210 19 87 22 bd 80 3b 29 bf 5a 26 1f 3e 3e e1 c6 3e
       -0.03967962 -0.66106415 0.15541974 0.3884372
000220 41 1b 34 3c 7e 1d 91 3e be ef d0 bb 8d d3 fc 3c
       0.010992826 0.28342813 -0.0063762357 0.030862594
000230 a8 b4 43 bd b3 9f 50 3d 24 6d fc bd 17 83 1a 3f
       -0.04777971 0.05093355 -0.123255044 0.6035628
000240 00 6f 73 3e 67 38 8a 3e 14 13 34 be 3e c8 2b bc
       0.23772812 0.26996157 -0.17585403 -0.010484753
000250 0b a3 27 3e 48 52 2d bd 91 26 93 bf c2 48 e3 be
       0.1637079 -0.042314798 -1.1496145 -0.44391447
000260 95 d3 17 bd fb fd 39 3e 1a 3c 0c bf 1e 77 3a 3d
       -0.037067015 0.18163292 -0.5477921 0.045523755
000270 83 12 1e be 98 be 8c bd 92 07 82 be 99 5c 84 3f
       -0.15436749 -0.068722904 -0.253964 1.0340759
000280 79 bb 9b bf e1 c3 ca be 19 7c a5 3c 00 1a ce 3d
       -1.2166587 -0.3960257 0.020200776 0.10063553
000290 72 a2 c5 be 23 82 11 ba d9 9c 02 bf 70 ff 36 3e
       -0.38600498 -0.0005550703 -0.5102058 0.17870879
0002a0 28 c4 65 3e f0 34 99 bd 4a e4 a2 bd 2e 30 6b 3c
       0.22438109 -0.074808 -0.07953699 0.014354749
0002b0 8d f4 88 3e a1 df b7 3d a2 6f af be ac 87 2a be
       0.26749077 0.08978201 -0.34264857 -0.16653317
0002c0 68 a4 01 bf 81 07 d1 bd 58 13 01 3e 86 34 ae be
       -0.5064149 -0.102065094 0.12605035 -0.34024447
0002d0 82 9c 6f 3d c9 cb da 3c d8 c6 90 bd 30 13 37 bf
       0.058498867 0.0267085 -0.070691764 -0.7151365
0002e0 d3 61 68 3c 9e 1a ae 3e b9 39 44 3f 9c 65 ea 3d
       0.014183479 0.34004682 0.7665058 0.11445162
0002f0 ca 4d 5a bf 2e b2 0a bf 02 4a 19 bf bb 07 0b bd
       -0.85274947 -0.5417813 -0.5987855 -0.03394292
000300 4d e0 8f bd 3d ce 93 3e 1e 93 3d be b2 50 ac be
       -0.07025204 0.28868285 -0.18513152 -0.33655316
000310 0a ff dd bd 40 6e 3c bd 92 49 ce be f1 c4 07 be
       -0.108396605 -0.04600358 -0.40290505 -0.13258721
000320 dd e9 2d 3e a2 3e 23 be 5b b8 88 3d ed 73 0a be
       0.16983743 -0.15941861 0.06675788 -0.13520785
000330 96 18 22 3d 5f 43 e6 bd 93 a9 60 be 31 fb c6 bd
       0.03957423 -0.11243319 -0.21939687 -0.0971588
000340 2a f2 5c bd 93 34 19 3d 83 10 29 be 59 3e b2 3e
       -0.053941883 0.037403654 -0.16510205 0.34813192
000350 9b 2c ab be 06 97 71 3e da 59 bc be 11 1a be bd
       -0.3343247 0.23592767 -0.367873 -0.092823155
000360 6b 14 fc bd 6c b1 ba bd c1 74 63 bd f2 06 cc bd
       -0.12308582 -0.09115872 -0.055531267 -0.09962262
000370 5b 63 5e 3e 1f 33 8e be b1 3b 91 be 4d a9 7d bc
       0.21717589 -0.27773377 -0.28365853 -0.015482259
000380 69 6d 82 bd 29 a7 b6 be c9 fa dd bd 53 87 7c 3d
       -0.063685246 -0.35674408 -0.10838849 0.061652493
000390 36 7f 35 3d 29 f9 f8 bd 30 98 ed 3d 93 3b f7 3d
       0.04431077 -0.121568985 0.11601293 0.1207191
0003a0 08 99 10 be f9 39 00 be 36 88 2e 3c fe dc 55 be
       -0.14120877 -0.12522115 0.010652592 -0.20885083
0003b0 e5 56 38 be 85 06 c8 3d 87 68 70 3b 1d 8e c9 bd
       -0.18001898 0.097668685 0.0036683397 -0.09841559
0003c0 f5 6c 84 bd 49 c3 0c be d1 00 2b be 02 9b ea be
       -0.064660944 -0.1374637 -0.1669953 -0.45821387
0003d0 78 be 54 be 37 7f 81 be 01 3b 0d 3e 8c 70 88 bc
       -0.20775783 -0.2529237 0.1379204 -0.016655229
0003e0 18 25 09 3d 53 66 30 3e c4 3e 61 be c0 be 80 bb
       0.03348264 0.17226534 -0.219966 -0.003928989
0003f0 91 c4 58 3c 0a 48 8d bd 77 9a 08 3e 3c f7 6d 3d
       0.013230459 -0.06898506 0.13340174 0.05809711

w_r.2.bias f4 [32]
000000 ff 16 0c bf 4e d7 20 3d 62 1b 3c 3e 8f 11 8a bd
       -0.5472259 0.03926783 0.1836982 -0.0674163
000010 09 12 96 3e 57 b1 8c be a3 54 0b 3d 2b f5 af bd
       0.29310635 -0.2747905 0.034016263 -0.08591684
000020 b0 9f 48 bd 3e 07 d3 bd 3e 53 29 3f 42 0e 07 bf
       -0.048980415 -0.10304116 0.6614264 -0.5275613
000030 b0 03 c2 bd 8c 2a 24 bf 7b 64 28 bc c4 4d 05 bf
       -0.094733596 -0.6412742 -0.010277863 -0.52071786
000040 7b 88 36 be 64 ef 1b be 5e e8 99 3e e0 67 81 3e
       -0.178255 -0.15228039 0.30060095 0.25274563
000050 1b 31 04 3d 77 e0 a3 be 67 56 8d bd aa e2 b2 be
       0.032273393 -0.3200719 -0.069012456 -0.34938556
000060 42 7f 27 be 3f 7d 23 3f 98 f6 1b be 0e 61 ad bd
       -0.16357139 0.63862985 -0.15230787 -0.08465777
000070 2e d5 bb 3e b4 fc 49 3e 07 47 28 3d 72 98 4e 3e
       0.3668608 0.19725305 0.041083362 0.20175341

w_h.0.weight f4 [64, 5]
000000 2c 58 d3 3b 6b 81 1d be 9f b3 57 bf d3 f2 4f bf
       0.00644972 -0.153814 -0.84258455 -0.81229895
000010 23 72 de be 2a 2f 27 3e 4f 17 80 3e 4e f7 71 bf
       -0.43446454 0.16326585 0.25017783 -0.9451798
000020 f3 a4 b5 3f af 2a 4e be 6a 1f f1 3c 3a d5 02 bf
       1.4190964 -0.2013347 0.029433925 -0.5110661
000030 66 1b 25 bf 67 e1 cc be 0b 3c a8 be 66 ff a6 bd
       -0.6449493 -0.40015718 -0.3285831 -0.08154182
000040 ea 77 d2 3d aa d8 17 bf e1 d3 52 be 5f f8 ae 3f
       0.10276778 -0.5931498 -0.20588638 1.3669547
000050 ce 44 82 be c5 6f 2e be c4 4f 6e 3f 79 24 bc 3f
       -0.2544312 -0.17034824 0.9309046 1.469863
000060 31 69 be bf 3d f6 56 bc 74 b1 26 be 68 b3 19 be
       -1.4875852 -0.013120231 -0.1627863 -0.15009844
000070 cb 3d bc 3d ff a8 1b 3f c1 65 12 bf 92 96 34 3e
       0.091914736 0.6080474 -0.57186514 0.17635563
000080 85 eb b4 bf 48 d3 18 be c9 61 b2 bf 0a 7f 1b be
       -1.4134375 -0.14924347 -1.3936092 -0.1518518
000090 05 33 26 3d a3 19 0e bf 58 5e 37 bf 87 11 2a bf
       0.040576 -0.5550787 -0.7162833 -0.66432995
0000a0 96 19 04 be a1 93 e5 3d ee f3 99 3d 5f cf d2 be
       -0.12900385 0.112097986 0.07517229 -0.41173837
0000b0 bb c4 8d 3e b6 b1 9a 3a 6c af 11 bc 7d ae 3e 3d
       0.27689156 0.001180223 -0.0088919215 0.046553124
0000c0 2f fd e3 3c c5 31 45 be 4d fc 91 3e 5c 1e 30 be
       0.027830688 -0.19257267 0.28512803 -0.17199081
0000d0 41 1b 41 3e 64 99 48 be 90 62 b0 bf 8a e1 5b be
       0.18858053 -0.19589764 -1.3780079 -0.21472755
0000e0 ba 89 5a 3c 8e 94 60 bf 77 f3 0a bf 67 af 3c be
       0.013338501 -0.87726676 -0.5427775 -0.18426286
0000f0 7c 8e c6 3a 2b ae c7 3b c1 c5 f5 3d d6 9f 7f 3e
       0.0015148665 0.0060937605 0.12000609 0.24963316
000100 af df 94 3e d4 53 37 bc 62 10 92 bc a7 a2 4f 3e
       0.29076907 -0.01118942 -0.017830078 0.2027689
000110 23 0b 3f bd e5 f7 db bf aa 18 6f be 87 ea 77 be
       -0.04664148 -1.7185026 -0.23349252 -0.24210559
000120 e4 69 e5 be 09 fc a2 bd 72 0b 44 c0 c9 11 5b bc
       -0.4480735 -0.07958228 -3.0631986 -0.0133709395
000130 be 7f 19 3c d5 b0 50 3d 56 74 8a be 54 2d ac 3d
       0.009368835 0.05094989 -0.27041882 0.08407083
000140 5c 44 98 be 0e 9b a9 3e 30 43 1f 3b d1 bf 59 3f
       -0.29739654 0.3312611 0.0024301521 0.85058314
000150 88 a5 18 bf 05 f6 26 be f2 e6 78 be ef 39 a5 bf
       -0.5962758 -0.16304787 -0.24306849 -1.2908305
000160 7e c0 36 bf 3b d3 3f 3e 37 6b 2f 3d 73 4c 28 3e
       -0.7138747 0.18732922 0.042826857 0.16435413
000170 98 13 05 3e a0 ad 03 40 c5 d6 f5 3e a0 07 8a be
       0.12995756 2.0574722 0.4801542 -0.26958942
000180 cb 30 a8 bd 9d ea 51 3f b3 51 95 bf 2b 58 f3 be
       -0.082124315 0.81998616 -1.1665558 -0.47528204
000190 e3 9b e1 be d0 77 bd 3e d5 3a 43 bf ff 22 f1 3d
       -0.44064245 0.37005472 -0.76261646 0.11774253
0001a0 a5 01 5c bf ff e9 ce bd 5f e2 3b be 90 48 a2 3e
       -0.8594001 -0.10103225 -0.18348072 0.31695986
0001b0 2b d4 31 3e 38 30 bb bf eb 87 12 3f 95 68 92 3e
       0.17366092 -1.462409 0.57238644 0.28595415
0001c0 f2 15 35 bf b5 fe f9 3e 05 73 28 bf f9 6f a2 be
       -0.7073661 0.4882714 -0.65800506 -0.31726053
0001d0 2d 76 88 be d3 13 a8 3f fb a4 e7 be d9 e0 06 3f
       -0.2665266 1.313105 -0.45243058 0.5268684
0001e0 b4 9e e0 3d 48 82 ed bd b7 e6 a9 3f b5 6f 56 be
       0.1096777 -0.11597115 1.3273534 -0.2094105
0001f0 93 38 e2 be 2f 81 77 ba 9b a3 f4 bb da 9f 8e be
       -0.44183788 -0.0009441552 -0.0074657924 -0.27856332
000200 d5 3d 42 3d b3 32 58 bf 4a 06 6c 39 d7 3a 3c 39
       0.04742225 -0.8445236 0.00022509057 0.00017950997
000210 0c 8e 5b 3d ee 79 06 bc d1 e9 b2 be f7 19 ed be
       0.053602263 -0.008207781 -0.34944013 -0.46308872
000220 9d 61 b1 be be 87 06 bf e3 6e 71 bf f5 c1 5c bf
       -0.34644786 -0.52550876 -0.94309825 -0.86233455
000230 2f c7 83 be da 96 a9 3e 98 37 1f bf b5 e1 b4 be
       -0.25737903 0.33122903 -0.62194204 -0.3532845
000240 04 43 9f bf 63 17 ec bb 75 20 06 bf 9c 9f 0d 3f
       -1.2442327 -0.0072049364 -0.52393275 0.5532167
000250 dc 0e f6 bc 0b e5 30 bf 95 49 11 bd 91 a9 b8 3c
       -0.030036382 -0.6909949 -0.035470564 0.022541793
000260 46 a4 e2 be 41 34 89 bf 96 07 d3 bc 69 5a f4 3d
       -0.44265956 -1.0719072 -0.025760453 0.11931307
000270 40 f5 28 be cd cd ba 3e da b3 8b bf 12 bf 22 3f
       -0.16499805 0.3648514 -1.0914261 0.635728
000280 e6 bb 15 3e 44 86 b6 be 80 f0 36 3f 91 e9 9e bf
       0.14622459 -0.35649312 0.71460724 -1.2415029
000290 5b e8 25 3e 19 36 a7 3e cb 12 19 3e 36 df d8 3f
       0.16201918 0.3265846 0.14948575 1.6943119
0002a0 bb 76 85 3f d6 b8 1b 3f 78 83 2e bf 61 d0 c7 3d
       1.0426859 0.6082891 -0.68169355 0.09756542
0002b0 5c 0c 53 3f 5c 4e 64 bf 02 56 c1 be fd 1d 06 bf
       0.82440734 -0.89182067 -0.3776093 -0.5238951
0002c0 61 cd 10 bd ad a5 c5 3e 67 0e 36 3f f0 df c9 3e
       -0.035352115 0.38602963 0.71115726 0.39428663
0002d0 df 4d bd be fb a9 13 bf 9e 45 7c bf af 6a 8b bd
       -0.36973473 -0.57681245 -0.9854373 -0.06807458
0002e0 5a 50 f8 3e 93 65 ff be be d0 a2 be 3b 19 62 3e
       0.48498803 -0.49882182 -0.31799883 0.22079937
0002f0 e6 47 51 be a7 7c 67 3e 8b 92 9d 3e 82 48 10 be
       -0.20437583 0.22606145 0.30775866 -0.1409016
000300 ae 9b 6e be ba 34 3d 3f 1a dc 74 3f 1c 03 ec bd
       -0.23301575 0.7390858 0.9564835 -0.115240306
000310 b5 7d 03 3d 1b 2b 8c bf 03 60 43 3f a7 a2 38 bf
       0.032102305 -1.0950655 0.7631838 -0.7212319
000320 33 47 d4 3c d6 e5 a6 be 6b 85 02 3f b8 b0 51 3f
       0.025912857 -0.32597226 0.5098483 0.81910276
000330 b3 34 cb 3d 1d 59 cd 3e 74 5e bf 3e 56 81 8a 3f
       0.09922161 0.4010705 0.3737675 1.082072
000340 b3 f6 15 3f 0d d9 00 bf d4 54 fd 3b dc 9a 3a bd
       0.5857956 -0.50331193 0.0077310596 -0.04555784
000350 f7 27 f0 be 38 aa 6d 3e 8e 4d c7 bf bd db 2c 3e
       -0.4690549 0.23209465 -1.5570543 0.16880699
000360 ff 1e 7b 3d 30 38 73 3f 16 da b9 3f f5 15 92 bf
       0.061308857 0.9500761 1.451968 -1.1412951
000370 d0 8d 00 3f 09 d2 4d bd 52 13 aa 3e 79 3b 47 be
       0.5021639 -0.050249133 0.33217865 -0.19456281
000380 56 21 6c bf d6 b6 5d 3e cb 45 64 3e 6e 63 2d 3e
       -0.92238367 0.21651778 0.22292249 0.1693246
000390 f0 28 a2 bf a4 64 0c c0 eb dd d3 bd 6a ef fd 3e
       -1.2668743 -2.1936426 -0.10345062 0.4959672
0003a0 d7 a2 32 3f 5c 43 2a be 8b 82 07 bf f6 d7 47 bd
       0.69779724 -0.16627258 -0.5293357 -0.04878994
0003b0 79 a7 aa 3d 3c be 0e 3f b7 9b bc 3f 80 18 d7 be
       0.08332724 0.55759025 1.473502 -0.4201088
0003c0 8c 0b a4 be 4e 0d 8d bd 72 b2 6d be 91 23 04 3f
       -0.3204006 -0.06887303 -0.23212603 0.5161677
0003d0 d9 b8 b1 bf b1 88 f7 ba e1 aa 05 3c c9 b1 e8 bd
       -1.3884536 -0.0018885342 0.0081584165 -0.11362035
0003e0 3e 07 7a bd 04 8e e3 bd 3e 40 0b 3e a5 7d 91 3e
       -0.061042063 -0.11111072 0.13598725 0.28416172
0003f0 25 6b 3f 3c 0b e9 56 bf 02 0a a8 bf 36 56 ca 3e
       0.01168326 -0.83949345 -1.3128054 0.395189

w_h.0.bias f4 [64]
000000 14 1f 3c be 32 bb bc bf 3b b2 8d bf 8c 7a 54 bf
       -0.1837123 -1.4744627 -1.1070017 -0.8299949
000010 da 62 a4 bf 93 7e 2b 3c 19 bd 03 bf 4a a3 f5 be
       -1.2842667 0.010467189 -0.51460415 -0.47976142
000020 67 f4 51 3c 9d 7c 66 be 0a 5a fc 3d 0a ee 35 be
       0.012814618 -0.22508474 0.12321861 -0.17766586
000030 32 34 17 bf ad 10 2a 3e 55 f4 43 3d 53 e6 dd be
       -0.5906402 0.16607924 0.047840435 -0.43339786
000040 24 52 a0 be 5e bc 6d bf b3 4b 5b bf cf ba 71 bf
       -0.31312668 -0.9286555 -0.8566238 -0.9442567
000050 7c 2d 98 bf 5b 98 10 3f 69 4c 9f bf 24 05 67 bf
       -1.1888881 0.56482476 -1.2445194 -0.9024222
000060 6c b3 47 be e3 f3 44 bd 6c 42 45 3d d7 0b bd be
       -0.19502038 -0.04808415 0.048159048 -0.36923096
000070 f0 5d 8b bf 93 a3 a4 be 0a 80 84 be bc 59 56 3e
       -1.0888042 -0.32156047 -0.25878936 0.20932668
000080 1c 5f 3c bf c7 e6 72 bf 3d 68 19 bf eb 5a a9 bf
       -0.73582625 -0.9488339 -0.5992468 -1.3230871
000090 a2 9e 6d bf 47 51 e4 bf 4c 4d 78 bf 5f af b0 bd
       -0.9282018 -1.7837304 -0.96992946 -0.086271994
0000a0 cb d0 0d bf 29 5a ce bf 67 7f 2c be f2 be 33 3d
       -0.5539672 -1.6121265 -0.16845475 0.04388327
0000b0 be e8 d6 3e 4e 68 3a bf ac 92 8a bf a7 aa 10 bf
       0.41974443 -0.72815406 -1.0826011 -0.56510395
0000c0 4a 62 8c 3d 90 ae 40 be 4f 92 0a bf ef e6 2c bf
       0.06854685 -0.1881659 -0.541295 -0.67539877
0000d0 db d4 4b bf 4b 22 84 bf 58 7c 5f be 79 c3 cf be
       -0.79621667 -1.0322965 -0.21824777 -0.4057882
0000e0 8f 52 19 3f f8 6e 3a bf 2b a6 9b bf 04 7e 01 3f
       0.598916 -0.72825575 -1.2160085 0.5058291
0000f0 ea 2f 00 bf ee 7e ac 3e 19 da de bd 32 20 3b bf
       -0.5007311 0.3369059 -0.108814426 -0.73096

w_h.2.weight f4 [32, 64]
000000 ab f0 ee bc 9d ec 61 be 28 c2 4d bf 73 46 93 bc
       -0.029167494 -0.22062917 -0.80374384 -0.017977929
000010 cc 81 9c be e9 f1 07 3e 48 44 58 3f 3e 85 08 3f
       -0.30567777 0.13275875 0.8447919 0.5332831
000020 06 c7 a8 be 30 b0 25 bd ef 92 e3 3e fb 04 a4 3e
       -0.32964343 -0.04045123 0.4444804 0.3203505
000030 e7 f8 4c bd f7 01 25 3f 69 68 0e 3f bf 80 71 bd
       -0.05004206 0.64456123 0.5562807 -0.058960672
000040 17 7c a5 3e 19 31 b4 be 14 d3 27 be 98 3d b9 be
       0.32321236 -0.3519371 -0.16389114 -0.36179805
000050 06 7b 0e 3f b0 f7 28 3e 6c 5c 29 3e 71 54 b5 bc
       0.5565647 0.16500735 0.16539162 -0.022134991
000060 40 95 9c be 8b c9 24 3d 17 50 81 3d 5b f0 3b 3e
       -0.3058262 0.04023127 0.06314104 0.18353407
000070 94 6e 52 bd f9 e9 aa 3e 93 e3 97 3d f3 a1 fd 3d
       -0.051374987 0.33381632 0.07416453 0.12384405
000080 48 9d 3d 3f dd 21 3a 3e 1e 55 ee bd cc 03 e5 3c
       0.7406812 0.1817698 -0.116373286 0.027955912
000090 df 07 d9 3e 16 d1 51 bf 60 16 09 3e 2f de 0a 3e
       0.42388818 -0.81959665 0.13387442 0.13561319
0000a0 83 b9 21 3e ad d2 2a 3e 72 54 4d be 72 bd aa 3e
       0.15793423 0.16681929 -0.20051745 0.3334766
0000b0 9e c1 f3 3e 8b 17 6a be 6d e3 91 3e 91 c3 15 3d
       0.47608656 -0.22860543 0.28493825 0.03656346
0000c0 5f 07 08 3e f2 3f ad 3d 79 d8 e0 3d 1a f2 31 3f
       0.13284062 0.08459462 0.10978789 0.6951004
0000d0 43 fe 1f 3e fe c4 01 3e 8c f6 3f 3e 80 15 47 bc
       0.15624337 0.12672803 0.18746394 -0.012151122
0000e0 f0 af a0 3e db b7 ca ba 3b a7 02 be 22 6b 96 be
       0.3138423 -0.001546617 -0.12759106 -0.2937861
0000f0 31 3c cf 3d 79 2b 76 3e 97 e3 40 3c 5d 09 89 3e
       0.101189025 0.24040021 0.011773012 0.26764956
000100 23 04 7a 3e f7 e5 7d bf 22 df 31 3f 92 52 8d 3d
       0.2441564 -0.99179024 0.694811 0.06900515
000110 31 c8 b4 bd 6c ee ff 3e f1 8c 34 be 0c ac a1 3e
       -0.08827246 0.4998659 -0.1763189 0.31576574
000120 14 a6 bf be 8e 37 64 3d 6f 68 b2 3e a3 a4 06 bf
       -0.37431395 0.055717044 0.34845302 -0.52594966
000130 96 6b fa be 59 7c 24 be 38 bd 2b c0 e5 70 81 bb
       -0.48910207 -0.1606306 -2.683424 -0.0039502257
000140 4c 41 3d be f3 48 3b bf fb 3f fd 3e 65 77 02 40
       -0.1848194 -0.73158187 0.49462876 2.0385373
000150 59 fc 79 3f e2 9f bc be a2 39 20 bf 6f cc 6b be
       0.97650677 -0.3684073 -0.6258794 -0.23027204
000160 d2 1f c2 3e 17 92 21 be e6 4c c1 bc 90 96 47 3d
       0.37914902 -0.15778385 -0.023596238 0.048727572
000170 ad 52 c6 3e e6 f0 5a be ed 20 35 bf 1c a6 28 bf
       0.38734952 -0.21380958 -0.70753366 -0.6587846
000180 5d 8a 50 bf d9 0f 0d 3f 84 cf cd be 12 bb 36 3f
       -0.81461126 0.55102307 -0.40197384 0.71379197
000190 f7 06 62 3f 73 e7 a9 bf f0 b5 69 3e 40 01 4d 3f
       0.8829188 -1.3273758 0.2282331 0.8008003
0001a0 78 eb 02 be ee 02 13 3e 35 51 1e 3f 4c 63 3f 3f
       -0.12785137 0.14356586 0.6184266 0.7476089
0001b0 83 c7 02 bf f0 cc 9c be 53 41 41 c0 1c ef fb 3d
       -0.5108568 -0.30625105 -3.019612 0.12301466
0001c0 0c 59 4a 3e e2 4d 0c 3e cc a1 e9 bf 0a d3 97 3f
       0.19760531 0.13701585 -1.8252501 1.1861279
0001d0 45 84 1f bf 7d 33 bb bd d0 2f e7 3d 0a 9c c9 bf
       -0.623112 -0.0914068 0.112884164 -1.5750744
0001e0 87 02 4f be 72 fa 0c 3f a9 f1 cd be 7e a6 92 be
       -0.20215808 0.5506965 -0.40223435 -0.28642648
0001f0 c3 c8 60 bd a8 38 1c 3c a8 a3 00 3f 8b 3c a0 3c
       -0.05487896 0.009534992 0.5024972 0.01956012
000200 45 c1 52 c0 fa 0d f5 3f e7 e8 43 bc 3c 96 e2 3d
       -3.2930462 1.914489 -0.011957384 0.11063811
000210 17 b9 08 bf b3 37 f6 bd c9 eb 28 3f 7b 15 8d bf
       -0.53407425 -0.120223425 0.6598478 -1.102218
000220 b6 67 98 3d 80 c4 88 3d 32 4e 15 be f1 67 21 bf
       0.07441656 0.066781044 -0.1458061 -0.63049227
000230 aa 31 2c be 54 97 8f bd 69 9f 79 bf d6 b7 44 3d
       -0.1681582 -0.070112854 -0.97508866 0.048026882
000240 e7 04 b1 bd ba 1a bf bf 94 00 4b 3c e3 34 3a 3e
       -0.08643513 -1.4930031 0.012390275 0.18184237
000250 b1 0b d0 be 6a 74 e0 3e 5c 5b fe bf 94 0b a5 3e
       -0.4063392 0.43838817 -1.9871631 0.32235396
000260 e0 2b 80 3e f8 c8 c0 3e 40 91 0b 3e 69 76 c0 3e
       0.25033474 0.37653327 0.13629627 0.3759034
000270 08 d3 eb 3e e3 5c a4 bd e5 30 39 3f ee e9 66 be
       0.46059442 -0.08025529 0.7234023 -0.22550175
000280 c3 11 83 be 5b 6a 9d 3f 00 fa 85 be f1 14 53 3e
       -0.2559949 1.2298082 -0.26167297 0.20613457
000290 23 c9 ed bd 1d e7 a1 be 0c 95 5f be 16 a2 8c 3c
       -0.116106294 -0.31621638 -0.218342 0.017167132
0002a0 c2 d1 59 3c 2e 4b 74 bf 90 b8 40 3c 90 7f 8d 3f
       0.013294639 -0.95427215 0.011762753 1.1054554
0002b0 8a 32 22 be 45 86 6c bf d1 2e f6 be 48 2b d2 be
       -0.15839592 -0.9239238 -0.48082593 -0.41048646
0002c0 1a 1a 15 bd 08 3b 0b be 0a 0c 21 c0 ea 34 31 bf
       -0.036401846 -0.13596737 -2.5163598 -0.69221365
0002d0 97 7c 09 3c 45 41 37 c0 e3 7b ef 3c 4d be 0d 3f
       0.008391521 -2.8633587 0.029233878 0.553685
0002e0 be 62 01 3f 07 31 31 bf 45 92 a4 be 51 0b 50 bf
       0.50541294 -0.69215435 -0.32142845 -0.8126727
0002f0 4e 6b bd 3c 2c 14 1f bc de a3 7f bf a6 0b 24 3f
       0.023122456 -0.009709399 -0.99859416 0.64080274
000300 bb ac 7e bd 8b 7f 9f 3d 59 60 ec be fe 40 7f 3e
       -0.062176447 0.07787999 -0.46167257 0.24927136
000310 18 ee 82 3f f7 cd 0f bd e9 c1 98 3c db 57 03 3f
       1.022891 -0.035108533 0.018647151 0.5130593
000320 ab dc 37 3e 75 55 80 3d b0 65 b2 be 12 75 14 3f
       0.17955272 0.062663 -0.34843206 0.57991135
000330 88 fc c3 3c e3 7c 79 be 27 45 77 3e 62 46 33 3c
       0.023924127 -0.24364047 0.24147473 0.010942074
000340 26 f7 f0 3e 86 9b 81 bf 72 25 02 3f 60 06 24 3e
       0.4706356 -1.0125587 0.50838387 0.16018057
000350 fe 74 b0 bd e5 4a c1 be a6 d4 58 3f b2 a5 e9 3e
       -0.086160645 -0.37752452 0.84699476 0.45634228
000360 87 f9 0f 3f fa a2 11 3e 4b 86 14 3d f4 bc 03 bf
       0.56240124 0.14222327 0.036260884 -0.51460195
000370 f5 fc cc 3e ef c3 22 bf 75 eb 07 3f e6 67 19 be
       0.4003674 -0.6358022 0.53093654 -0.1498104
000380 d4 b6 55 3f cd cc 1a 3f 85 61 03 3f 28 0b 2b bf
       0.834821 0.6046875 0.5132068 -0.668139
000390 ad 02 a4 bf d2 17 cb bf 2f a2 8d 3e e6 2d 50 3f
       -1.2813317 -1.5866644 0.276628 0.81320035
0003a0 26 ed 65 bf 8d 21 36 3f 31 7d 22 3f cd 0d 8c 3e
       -0.89814985 0.71144944 0.63472277 0.2735428
0003b0 c2 1b 05 bf 71 9b a7 bf 85 88 c4 be 70 90 a8 3e
       -0.5199548 -1.3094312 -0.38385406 0.32922697
0003c0 69 71 a8 be 7c d8 24 be 07 72 32 bd c5 53 2c bf
       -0.32899025 -0.16098207 -0.043565776 -0.6731532
0003d0 9d 11 9e be 5c 97 3d 3f 59 e5 46 3e ff c6 f7 bd
       -0.30872813 0.7405908 0.19423427 -0.12098502
0003e0 94 a3 82 be 5a 63 39 bf 82 ed 2b bf 71 f6 c9 3e
       -0.25515425 -0.72417223 -0.67159283 0.39445832
0003f0 20 9a ee be 5b 59 36 3e 87 dd 2c 3c 6e 34 c1 3e
       -0.46601963 0.17807524 0.010550863 0.37735313

w_h.2.bias f4 [32]
000000 4f b1 1f bf f4 6c 6c 3e 0a 1e 95 bd 7f 41 ce bd
       -0.62379926 0.23088437 -0.0728112 -0.10071086
000010 6d ab 81 bd f2 2f 09 c0 a0 ed 48 bd cc d2 e7 bd
       -0.06331525 -2.1435513 -0.04905474 -0.11319503
000020 05 34 f3 be 3b a5 1d be ba 9b 53 3e 15 98 16 3d
       -0.47500625 -0.15395062 0.20664874 0.03676613
000030 f0 3d dc 3e e1 cc 9e 3e 3d f5 c1 bd e7 bb 29 be
       0.43016005 0.31015685 -0.094706036 -0.16575585
000040 77 27 4a be 24 40 23 3d 68 6e 64 be bf fa ad bc
       -0.19741617 0.03985609 -0.22307742 -0.02123773
000050 8a 6c 8c be 80 83 64 be 56 e1 7c bd 37 1f 89 bd
       -0.2742656 -0.22315788 -0.061738335 -0.06695407
000060 6e fb 5a bd 1a b6 9e 3e 89 ba 64 3e 9c 75 7c 3e
       -0.05346244 0.30998307 0.22336783 0.2465424
000070 83 9b 0f 3e d0 3e 3c be f0 f8 e6 3e b8 40 c6 3e
       0.14024167 -0.18383336 0.451118 0.3872125

Ws.0 f4 [32, 32]
000000 d1 a5 f7 bf 94 49 e9 3e 5d 7b 16 bf 39 82 04 3d
       -1.9347478 0.45563948 -0.5878199 0.032350753
000010 3a ae 4e 3f 17 0a 55 3e da 2a 55 bf bd dd 00 40
       0.807346 0.2080463 -0.8326851 2.0135338
000020 aa 7f ba 3e 63 7a b1 3f 8c 22 a6 bf 7c 70 5d bf
       0.36425525 1.3865474 -1.2979293 -0.8649976
000030 2c 85 0a 3e 76 2a 97 be 96 12 2c 3d ac 6c cb 3e
       0.13527364 -0.29524583 0.042009912 0.39731348
000040 47 4e 70 3e 79 74 86 be 59 33 04 bf ab 3f 9e 3f
       0.2346736 -0.26260737 -0.5164085 1.236318
000050 81 c0 b7 be 19 70 24 3e e7 47 d4 bf d9 ec 85 3e
       -0.35889056 0.16058387 -1.6584443 0.26157263
000060 d3 38 51 be 51 72 de bd 3f 41 33 3f 87 82 65 3f
       -0.20431833 -0.10861648 0.7002143 0.89652294
000070 2b e1 46 3f 3d 2b da bf 38 6b 08 bf 20 25 07 3f
       0.7768733 -1.7044445 -0.532886 0.52791023
000080 eb 28 e9 bf c6 83 43 bc d6 f2 1a 3d a3 77 46 3f
       -1.8215612 -0.011933273 0.037829243 0.775263
000090 60 50 81 bf d4 04 68 3f 76 1f 50 be 2b 8a 9f be
       -1.0102654 0.9063237 -0.20324501 -0.311601
0000a0 25 5f 7a bf 92 e6 ec be c5 a8 27 3e 2a 8e a8 3e
       -0.9780143 -0.4626966 0.16372974 0.32920963
0000b0 1b 84 e9 bf 3a 8d 04 c0 90 1d f8 3e e7 02 9b bf
       -1.824344 -2.0711198 0.48460054 -1.2110261
0000c0 7a 9e 3e bf e6 bf 08 40 e3 63 7c bf b9 e5 c5 3e
       -0.74460566 2.1367126 -0.98589915 0.38651827
0000d0 81 d0 8c bf 30 0c c1 bf 32 62 58 3f 84 a2 06 bd
       -1.100113 -1.5081844 0.84524834 -0.03286983
0000e0 6f ff 5e 3e f3 91 83 3e cc ad 6a 3f dc 45 41 bf
       0.21777128 0.25697288 0.91671443 -0.7549722
0000f0 19 66 b3 be 7b b3 00 c0 77 fa 71 3f ce fd 26 bf
       -0.35038832 -2.0109546 0.94522804 -0.65231025
000100 11 2c 27 3e 00 db b2 bf e0 3f 62 bf 31 ea 11 3f
       0.16325404 -1.3973083 -0.88378716 0.5699797
000110 6d b3 3c bf 70 44 54 3f 49 4f 10 c0 9d 3e 84 bf
       -0.7371128 0.8291693 -2.2548392 -1.0331608
000120 54 ec 3f c0 97 04 b5 3e 3e 78 0a 40 60 e3 83 be
       -2.9987993 0.35355064 2.163589 -0.2575941
000130 01 4b b3 be 9a b0 eb bf d3 8c d0 3c 2d fd bc be
       -0.3501816 -1.841327 0.025457775 -0.36911908
000140 27 50 36 40 fb d9 91 be ff 25 b5 3e 17 77 6a 3e
       2.848642 -0.28486618 0.3538055 0.22896992
000150 fb 45 87 3f 61 46 27 be 1b 25 76 bf 68 75 01 bf
       1.0568231 -0.16335441 -0.9615037 -0.5056977
000160 59 31 79 3f b9 25 a2 bf 44 bd 0a c0 71 51 b4 3e
       0.97340924 -1.2667762 -2.1678019 0.35218385
000170 31 be 6f bf 60 3c 91 3f 6f fd f0 3d 09 57 80 3f
       -0.93649584 1.134655 0.117670886 1.0026561
000180 3d b3 7a bf 51 dd 8f bf d3 cf 79 3e 2b 53 53 c0
       -0.97929746 -1.1239415 0.24395685 -3.3019512
000190 93 66 05 bf 65 8b 7c 3f 7f 39 bd 3f 20 27 ba 3e
       -0.5210964 0.986502 1.4783171 0.36357975
0001a0 96 ba 22 3f 2c 00 75 3f 44 56 4e 3d 1f 08 18 3c
       0.6356596 0.9570339 0.050375238 0.00927928
0001b0 c1 b4 12 3f 96 20 2f 3f b2 d3 c1 3d 83 06 65 3f
       0.5730706 0.684091 0.09464206 0.8946306
0001c0 a2 3b 96 bf 02 ba e2 3e a4 c3 5d 3f d8 d7 e5 3f
       -1.1736948 0.44282538 0.8662665 1.7956495
0001d0 a2 cd 3b 3e 05 57 80 3e d9 4c 16 3e 6d 4f 43 bf
       0.18340161 0.2506639 0.14677753 -0.7629307
0001e0 b4 48 a9 3f c8 29 4f 3e 1f 99 70 3f 2d 89 b3 bf
       1.3225312 0.20230782 0.93983644 -1.4026238
0001f0 7d 27 f9 3d 99 dc a9 bf bd 3a a4 3f 14 00 fe bc
       0.12165735 -1.3270446 1.2830426 -0.031005897
000200 f7 6a 97 3e a0 db 48 bd e7 7d 11 bf b5 12 01 c0
       0.29573795 -0.049037576 -0.56832737 -2.0167668
000210 72 9f 94 bf b4 f1 a5 3e f6 df 6f be 6b ec 1a bf
       -1.1611159 0.32410967 -0.23425278 -0.60516995
000220 f4 85 6a bf 1c a7 53 bf 9d c1 97 3f e9 bc 9a be
       -0.91610646 -0.82676864 1.1855961 -0.30222252
000230 bf eb e3 be 95 69 fb be 49 62 99 3e bf 12 83 3f
       -0.44515797 -0.4910399 0.29957798 1.0240096
000240 55 60 4d 3f 3f 47 f6 be a5 f7 1d bf d7 72 26 bf
       0.80225116 -0.4810123 -0.61706 -0.6501898
000250 76 cc 86 bf 61 d7 36 bb 51 08 24 3f 29 fc b3 3e
       -1.0531147 -0.0027899372 0.6407519 0.3515332
000260 7a f4 23 3f b6 16 41 bf 98 76 5a bf f7 4f a8 bf
       0.64044917 -0.7542528 -0.8533721 -1.3149403
000270 5f c9 da be 48 67 ab 3f 2a b6 12 3f 7e 8e b1 bf
       -0.4273176 1.3390894 0.5730921 -1.387161
000280 ae 08 ef be f8 f1 2d bd b4 e7 04 be 04 d7 93 3f
       -0.4668631 -0.042467088 -0.12979013 1.1549993
000290 35 13 cc be 9e d5 38 bf eb 72 9a bf 98 58 24 3f
       -0.39858404 -0.72200954 -1.206632 0.64197683
0002a0 50 b9 01 3e 2f 1d a7 be 33 f5 4b 3d f4 6e 19 c0
       0.12668347 -0.32639453 0.049794387 -2.397397
0002b0 69 68 b2 bf 02 19 84 3f 30 0f a0 3e 8e af 4f 3f
       -1.3938113 1.0320132 0.31261587 0.8112725
0002c0 ec 3b a7 3e 8f 89 ab bf 0a dc ea bf 18 a9 14 bf
       0.32662904 -1.3401355 -1.83484 -0.58070517
0002d0 a2 ec 94 3e b5 2d 82 c0 31 c0 89 3e 9c f1 19 bf
       0.29086787 -4.0680795 0.26904443 -0.6013429
0002e0 62 b0 d0 3e 59 3b 78 c0 c6 82 b0 be a5 06 43 bf
       0.4075957 -3.8786223 -0.34474772 -0.76182014
0002f0 91 f0 d9 bf dc 14 95 bf 95 0f ef 3e 75 b6 54 c0
       -1.702654 -1.1646991 0.46691576 -3.3236363
000300 f2 2d 99 bf 4b 3b 3a bf 3f 28 89 3f 6f 51 b4 3f
       -1.1967146 -0.72746724 1.0715407 1.4087352
000310 77 d0 d6 bf a7 2f 05 bd 67 10 7e 3f 21 1b d5 3e
       -1.6782368 -0.032516148 0.9924378 0.4162226
000320 1a 4d 00 40 85 7e 0e bf 4d 99 ba bf 79 b0 b0 bf
       2.004706 -0.55661803 -1.4578034 -1.3803855
000330 d5 64 b8 3f 57 13 89 3f 64 ae 5b 3f a6 9a 2f bf
       1.4405771 1.0709027 0.85812974 -0.6859535
000340 35 9d 6c bf 47 d5 e9 3e 73 0c b9 c0 38 f3 73 be
       -0.9242738 0.4567053 -5.7827697 -0.2382325
000350 51 45 b9 be 85 7b e9 be 53 97 9d bf 8f 07 94 bd
       -0.36185697 -0.4560205 -1.2311805 -0.07228004
000360 20 0e 46 3f 54 12 26 c0 6b 89 80 3f 4c 12 0c c0
       0.77365303 -2.5948687 1.0041937 -2.1886168
000370 d9 f9 96 3f 02 8b a2 3f 29 51 26 c0 1a e6 9d 3e
       1.1794997 1.2698672 -2.5987036 0.30839616
000380 6d 85 04 40 30 3d b2 3e e6 18 4a bf 88 3e e6 be
       2.0706437 0.34812307 -0.7894424 -0.44969583
000390 7f 29 b4 bb 6b b3 03 40 0b 5f 7f bf 0f 95 13 3e
       -0.005498111 2.0578258 -0.997544 0.1441233
0003a0 53 e1 52 3f 39 de 00 be 04 a7 2f bd a5 8a fc be
       0.8237507 -0.12584771 -0.042883888 -0.49324527
0003b0 3c 06 40 bf 38 62 d5 bf e9 66 d9 3f 28 09 92 bf
       -0.7500951 -1.6670599 1.6984531 -1.1409044
0003c0 a3 cb 73 3e 88 70 fe 3e fd 28 ca 3e 54 c4 a6 be
       0.2380815 0.4969523 0.39484397 -0.3257166
0003d0 a9 1a cc bd a2 fc 8d 3e 4d 31 77 bf 39 c4 a0 3e
       -0.099660225 0.27731806 -0.965596 0.31399706
0003e0 b7 2c c5 be 7c 98 74 3f c2 04 d4 3f 10 df 80 bf
       -0.38510677 0.9554517 1.6563952 -1.0068073
0003f0 be 3f 6f be 9d 38 90 3f 40 72 00 3f c6 57 fd 3f
       -0.2336416 1.1267277 0.5017433 1.9792411
