crowd_nav/RGL_our/rl_model_7.pth (torch, 143871 bytes, 33 tensors)

w_a f4 [32, 32]
0	0xbe23b825	-0.15988214
1	0xbdef58bd	-0.11686847
2	0x3f6afc06	0.9179081
3	0xbf2444b2	-0.6416732
4	0x3df6f7b1	0.12058962
5	0xbf76c6ce	-0.963971
6	0x3f2a5ff9	0.6655269
7	0xbf08c4be	-0.53425205
8	0x3f56d923	0.83925074
9	0x3eaae4da	0.33377725
10	0xbfade90e	-1.3586748
11	0x3f34840b	0.7051398
12	0xbf88eb5d	-1.0696827
13	0xbf4ad905	-0.79237396
14	0x3ec80719	0.39067915
15	0xbd22d152	-0.039750405
16	0xbecba41a	-0.39773637
17	0x3e10673d	0.14101882
18	0x3f5f1a7e	0.871498
19	0xbe8e8128	-0.27832913
20	0x3f0e2039	0.5551792
21	0xbbfb1e70	-0.0076635405
22	0x3e95c654	0.29252875
23	0x3e26d697	0.16292797
24	0xbfa09043	-1.2544025
25	0xbf2352b6	-0.6379808
26	0xbed4f0da	-0.41590005
27	0xbe16240f	-0.14662193
28	0xbf1e103f	-0.6174354
29	0x3f71d952	0.9447223
30	0xbe3de305	-0.18543632
31	0x3f3304fd	0.69929487
32	0xbe9b690c	-0.30353582
33	0x3f18a39f	0.59624666
34	0xbf738774	-0.9512856
35	0xbfb1a488	-1.3878336
36	0x3fab59de	1.33868
37	0xbf59f287	-0.8513569
38	0x3fa3bb45	1.2791525
39	0x3e63d06e	0.22247478
40	0x3f72f64a	0.9490706
41	0xbecc8ade	-0.39949697
42	0xbdf41028	-0.11917144
43	0x3eb14ed5	0.34630457
44	0xbe9c436b	-0.30520186
45	0xbfeb23d3	-1.8370308
46	0xbedab14e	-0.42713398
47	0xbf4684c4	-0.77546334
48	0x3e1f8691	0.15578677
49	0x3e314c3e	0.1731424
50	0xbf31f0ce	-0.69508064
51	0xbd707c20	-0.058712125
52	0x3f108f47	0.56468624
53	0xbf0e47b5	-0.55578166
54	0xbf690b71	-0.91033083
55	0xbfb0e28b	-1.3819135
56	0x3e7a9d20	0.24474001
57	0x3eec1caa	0.4611562
58	0xbf32ec1a	-0.6989151
59	0xbeef6f24	-0.4676448
60	0xbfb9f2eb	-1.4527258
61	0x3f18568d	0.59507066
62	0x3f9040ee	1.1269815
63	0x3d4c82ac	0.049929306
64	0x3d8e0519	0.06934566
65	0xc009fd74	-2.1560946
66	0xbf275955	-0.65370685
67	0xbe961ee6	-0.2932045
68	0xbfbbd66e	-1.4674814
69	0xc004ea85	-2.076814
70	0xbf9ad52f	-1.2096308
71	0xbf4db4a9	-0.8035379
72	0xbf8b7dd2	-1.0897772
73	0x3f133052	0.57495606
74	0x3fcae656	1.5851543
75	0xbf8237fc	-1.0173335
76	0xbf501dd0	-0.8129549
77	0x3d174f1a	0.03694067
78	0xc0618036	-3.5234504
79	0x3f6bc914	0.92103696
80	0xbd536337	-0.05160829
81	0x3ef6d083	0.48205957
82	0xbfe132e0	-1.7593651
83	0xbf079de3	-0.5297529
84	0xbf0c9d4c	-0.54927516
85	0xbf99ef5e	-1.2026174
86	0x3fb5fbc4	1.4217458
87	0xc0236058	-2.5527554
88	0xbfd9ba8a	-1.7010052
89	0x3f7dfb22	0.99211323
90	0xbf3e28f4	-0.7428124
91	0x3fdb580f	1.7136248
92	0x3dcb7c3e	0.09935807
93	0x3e3289ad	0.17435332
94	0x3e4832c5	0.19550617
95	0x3eb6706d	0.3563265
96	0x3e49489d	0.19656606
97	0x3f2a31df	0.6648235
98	0xbf685f71	-0.9077063
99	0x3e345349	0.17609896
100	0xbfbd6ff0	-1.4799786
101	0xbc7baace	-0.015360547
102	0x3e472ada	0.1944994
103	0xbf2bec6c	-0.67157626
104	0xbf58001d	-0.8437517
105	0xbefec006	-0.49755877
106	0xbe32769f	-0.17428063
107	0xbf9a6708	-1.2062693
108	0x3f6e1845	0.9300578
109	0xbeda5b18	-0.42647624
110	0xbe854a77	-0.26033375
111	0x3fe65f83	1.7997898
112	0xbdb28904	-0.0871754
113	0x3e2aed23	0.16692023
114	0x3e7410f0	0.23834586
115	0x3f5130a2	0.8171483
116	0xbe34b822	-0.17648366
117	0xbf30523b	-0.68875474
118	0xbec00333	-0.3750244
119	0x3f4111de	0.7541789
120	0x3ee4db50	0.44698572
121	0xbf809aea	-1.0047276
122	0x3e339e26	0.17540798
123	0x3f530d86	0.8244251
124	0xbf6576fe	-0.8963469
125	0x3e07f308	0.13276303
126	0xbf5987b5	-0.849727
127	0x3f6b6317	0.91948074
128	0x3f2d8eb4	0.6779587
129	0xbe0c6c39	-0.13713159
130	0xbf106433	-0.5640289
131	0x3d86da68	0.065846264
132	0xbe643feb	-0.22290008
133	0x3f28aaec	0.65885806
134	0xbf140246	-0.5781597
135	0xbe88cf71	-0.26720765
136	0xbf7fad57	-0.9987387
137	0x3f9d7bb1	1.2303373
138	0x3f171448	0.5901532
139	0xbf98b899	-1.1931335
140	0xbf13139b	-0.5745179
141	0x3ea4519f	0.32093522
142	0x3f0354d7	0.5130133
143	0xc0099923	-2.1499717
144	0x3d074d3c	0.03303264
145	0xbe7faf3d	-0.24969192
146	0xbf2aacab	-0.6666972
147	0x3eb2bf1c	0.3491143
148	0x3db7565d	0.08952019
149	0xbf8dfd72	-1.109297
150	0xbf4b469c	-0.79404616
151	0x3fbc8fa4	1.4731336
152	0xbfbfbdb9	-1.4979774
153	0x3ee22973	0.44172248
154	0xbf12e4ea	-0.57380545
155	0xbf1b758f	-0.60726255
156	0x3f3283cc	0.69732356
157	0xbf7fd7c7	-0.99938625
158	0x3f6ecd4b	0.93282
159	0x3e940551	0.28910306
160	0x3f0df20b	0.55447453
161	0x3f5bf824	0.8592551
162	0xbfd17c9b	-1.6366152
163	0xbfeb5a42	-1.838692
164	0x3f8e68cb	1.112573
165	0x3e00e2ed	0.12586565
166	0xbf7d8826	-0.9903587
167	0x3eba7cbe	0.36423296
168	0x401ac43e	2.4182277
169	0x3e8166ea	0.2527383
170	0x3f90cb64	1.131207
171	0xbf870e7c	-1.0551295
172	0xbfb55609	-1.4166881
173	0x3ed212e5	0.4103004
174	0xbf53ec4a	-0.82782423
175	0x3f4a2cd8	0.78974676
176	0x3e007841	0.12545873
177	0x3f9a8629	1.2072192
178	0x3f1cf6b7	0.61313957
179	0x3f95dc40	1.170784
180	0x3f9ad6fd	1.2096859
181	0x3f1de13c	0.61671805
182	0x3f32438b	0.6963431
183	0x3bff40ac	0.007789692
184	0xbc86bc27	-0.01644714
185	0x4080331f	4.0062404
186	0xbfdfc39c	-1.748157
187	0x40627c6b	3.5388439
188	0x3f3d991a	0.7406174
189	0xbe8602d9	-0.26174048
190	0x3f553c73	0.83295363
191	0x3df45276	0.11929791
192	0x3e3d136c	0.1846444
193	0xbfa9635b	-1.3233446
194	0xbf915d90	-1.1356678
195	0xbd9770de	-0.073945746
196	0xbf8b727a	-1.089431
197	0x3f19bc93	0.60053366
198	0x3e41ef3b	0.18938915
199	0x3e96a611	0.29423574
200	0xbe52fe71	-0.20604874
201	0xbecedb25	-0.4040157
202	0xbf219387	-0.63115734
203	0x3f7075fd	0.93930036
204	0x3ea75aa8	0.32686353
205	0xbfe39dea	-1.7782567
206	0xbe434413	-0.19068937
207	0x406b8309	3.6798728
208	0xbfa73b4e	-1.3064973
209	0xbfa2e34c	-1.2725616
210	0x3faefd97	1.367114
211	0xbe4e6fef	-0.20159887
212	0xbfa8ae52	-1.3178198
213	0x4034fdcd	2.8279908
214	0x3f4656fe	0.7747649
215	0xbf287bde	-0.65814006
216	0xbcb05437	-0.021524532
217	0xc03b22d3	-2.9240005
218	0x3f0a843c	0.54108024
219	0x3f82752e	1.019201
220	0x3f244d63	0.6418058
221	0x3ea2ea07	0.31819174
222	0xbfb3c572	-1.404463
223	0x3fa68c86	1.3011634
224	0xbeaa594c	-0.33271253
225	0x3f9069df	1.1282309
226	0xbf6d6cca	-0.92744124
227	0xbe2ad8c8	-0.16684258
228	0x3e844343	0.25832567
229	0x3f3c3083	0.73511523
230	0xbedd4ce8	-0.43222737
231	0x3f9e6a49	1.2376186
232	0xbf485a37	-0.78262657
233	0x3f8cc2db	1.0996965
234	0xbfd95169	-1.697797
235	0xbe1173cb	-0.14204328
236	0xbf09b0dd	-0.53785497
237	0xbe8fd3eb	-0.28091368
238	0xbe47a282	-0.19495586
239	0xbecf3ec9	-0.4047759
240	0xbdd44746	-0.10365157
241	0xbf4cbba8	-0.7997384
242	0xbdc3ad8c	-0.09554586
243	0xbebc2b9a	-0.36752015
244	0x3d415332	0.04719848
245	0x3fa3e16c	1.2803168
246	0xbdc0759f	-0.093974344
247	0xbfeb6973	-1.8391556
248	0xbfd716a6	-1.6803787
249	0xbf6903dd	-0.9102152
250	0xbf9f463c	-1.2443309
251	0x401e7db1	2.4764216
252	0xbf898ae2	-1.0745509
253	0xbdab35f4	-0.083599
254	0x3f041152	0.5158893
255	0x4013081c	2.29737

w_r.0.weight f4 [64, 9]
0	0x3ea5405b	0.32275662
1	0xbe29a085	-0.1656514
2	0x3fd87833	1.6911682
3	0xbefc4d9d	-0.49277964
4	0xbea0a88e	-0.31378597
5	0x3d06e260	0.03293073
6	0xbec30cc6	-0.38095683
7	0xbe8b2942	-0.27179915
8	0xbcad3e2b	-0.021147808
9	0xbe887f42	-0.2665959
10	0xbe9e3b78	-0.30904746
11	0xbecbd74f	-0.39812705
12	0xbdc3e6d6	-0.09565513
13	0xbe521636	-0.20516285
14	0xbdc6dfdb	-0.09710666
15	0xbf255a30	-0.6459074
16	0xbf4a91f0	-0.7912893
17	0xbe755fd3	-0.23962335
18	0x3e540dc8	0.20708382
19	0xbdb756d8	-0.08952111
20	0xbf818c0b	-1.0120863
21	0x3eb91cec	0.36154878
22	0xbdaf87f0	-0.0857085
23	0xbea18102	-0.31543738
24	0xbee6b273	-0.4505802
25	0xbd8402c7	-0.06445842
26	0x3d6bdc40	0.057583094
27	0xbe210068	-0.15722811
28	0x3c0690a1	0.008213193
29	0x3ea097c1	0.3136578
30	0xbed7daee	-0.42159218
31	0x3e55782e	0.20846626
32	0xbe2bcadb	-0.16776602
33	0xbe83366b	-0.25627455
34	0x3d4807ed	0.048835684
35	0x3e0cd9d8	0.13754976
36	0x3c0c68c2	0.008569898
37	0xbb7cdf57	-0.003858527
38	0xbc98680c	-0.0186043
39	0xbe6ec742	-0.23318198
40	0xbe40a8f0	-0.18814445
41	0xbe1a7550	-0.15083814
42	0xbad503b7	-0.0016251717
43	0xbe93bea3	-0.28856382
44	0xbd98b826	-0.074569985
45	0x3dd78aa3	0.1052449
46	0x3ee3a052	0.44458252
47	0x3c8d9ac1	0.017285706
48	0xbb06aab8	-0.0020548534
49	0x3d53f8cb	0.05175094
50	0x3e67b330	0.22626948
51	0x3eb17e34	0.34666598
52	0x3df91836	0.12162821
53	0xbe1a26be	-0.15053841
54	0xbf0407e6	-0.5157455
55	0x3c8efa9c	0.017453484
56	0x3cf7c1bc	0.030243747
57	0x3d16ee62	0.036848433
58	0x3e637e9e	0.2221627
59	0xbe54eb18	-0.20792806
60	0x3e2140b8	0.15747344
61	0xbe9a38a7	-0.30121347
62	0x3e60b59b	0.21944277
63	0xbef4b7a4	-0.47796357
64	0x3e0b2014	0.13586456
65	0xbf882dcb	-1.0638975
66	0xbf00f38c	-0.50371623
67	0xbe39f986	-0.18161592
68	0x3c567700	0.013089895
69	0xbf2e8271	-0.6816779
70	0xbeb26d4f	-0.3484902
71	0x3dbb7f2b	0.09155115
72	0xbd72e295	-0.059298117
73	0xbf1862d5	-0.59525806
74	0x3f335b81	0.700615
75	0xbc99145f	-0.018686472
76	0x3e8f041b	0.2793282
77	0x3deea7c6	0.11653094
78	0xbecaad71	-0.3958545
79	0xbf19dfee	-0.60107315
80	0xbe88597b	-0.26630768
81	0x3e6f64f5	0.23378356
82	0xbb256d5c	-0.0025242185
83	0x3f565290	0.8371973
84	0x3dc0329e	0.093846545
85	0xbda906f0	-0.08253276
86	0x3e2f28de	0.17105433
87	0xbe737b23	-0.23777442
88	0xbf467cb4	-0.7753403
89	0x3e36866b	0.17824714
90	0x3c9326e0	0.017962873
91	0x3b9c76bc	0.0047748964
92	0xbe5f60cb	-0.21814267
93	0x3cf98f59	0.030463861
94	0xbe0f4c38	-0.13993919
95	0xbd3b772b	-0.045767944
96	0x3cc02239	0.023453819
97	0xbee6bf0a	-0.45067626
98	0x3c8d0aeb	0.01721712
99	0x3d22d997	0.03975829
100	0xbb2e225e	-0.0026570777
101	0xbc0eb06d	-0.008709055
102	0xbe1141da	-0.14185277
103	0xbea4c12a	-0.32178622
104	0x3e94c6ea	0.2905801
105	0xbe0e58b3	-0.13901024
106	0xbd50dce9	-0.050991926
107	0x3e3f9b23	0.18711524
108	0xbe761761	-0.24032356
109	0xbf0b4d24	-0.5441458
110	0xbe33bcab	-0.1755244
111	0xbf2eb685	-0.6824725
112	0xbd965470	-0.07340324
113	0xbe431cf8	-0.1905402
114	0xbf498987	-0.78725475
115	0xbe9ea130	-0.3098235
116	0x3e5a5040	0.21319675
117	0xbe5b57cc	-0.2142021
118	0x3e0703ea	0.13185087
119	0xbf8ca009	-1.0986339
120	0x3e1c2dbf	0.15251826
121	0x3e092c86	0.1339589
122	0xbe015ea8	-0.12633765
123	0xbef604d2	-0.48050553
124	0xbe82463b	-0.25444207
125	0x3e31240b	0.17298906
126	0x3ea0c1dc	0.31397903
127	0x3b1dcd09	0.002407851
128	0xbef2eceb	-0.4744638
129	0xbef39764	-0.4757644
130	0xbea4721e	-0.32118315
131	0xbe62984b	-0.22128408
132	0xbe8e7a31	-0.278276
133	0xbf307341	-0.68925864
134	0x3dd60520	0.10450196
135	0x3eb4378c	0.3519863
136	0xbeac8c97	-0.33701012
137	0xbc2fd2ab	-0.0107313795
138	0xbea96ae5	-0.33089367
139	0x3db2db26	0.087332055
140	0xbe89d68f	-0.26921508
141	0xbf1efc46	-0.6210369
142	0xbf050c8a	-0.5197226
143	0x3dbe2366	0.092840955
144	0xbf013e39	-0.5048557
145	0x3e910cab	0.28329977
146	0xbe424938	-0.18973243
147	0x3d0981c3	0.033571016
148	0xbe5a4218	-0.21314275
149	0xbb484756	-0.0030560098
150	0xbd7a7a17	-0.06115159
151	0xbe2cd608	-0.16878521
152	0x3e40ba10	0.18820977
153	0xbf42904b	-0.76001424
154	0x3db477f2	0.0881194
155	0xbea30a1c	-0.3184365
156	0x3f56e54f	0.8394365
157	0x3e5533d8	0.20820558
158	0xbd23d700	-0.03999996
159	0xbeaedc4a	-0.34152442
160	0xbedc2a60	-0.4300108
161	0xbe991e42	-0.29905897
162	0x3f481726	0.7816032
163	0x3e9e9d47	0.30979368
164	0x3fc018dc	1.5007586
165	0x3eb341d6	0.35011166
166	0xbd6370e0	-0.055527568
167	0xbe9c2ffa	-0.30505353
168	0xbf3820c0	-0.7192497
169	0xbf433097	-0.7624602
170	0x3e6bca78	0.23026454
171	0xbd90a26a	-0.07062228
172	0xbdb6e8e8	-0.08931142
173	0x3d0553bb	0.032550555
174	0xbf5fb91b	-0.87391824
175	0xbe9eac0a	-0.3099063
176	0x3e6aef76	0.2294291
177	0xbf110087	-0.5664143
178	0xbdaa12f0	-0.08304393
179	0xbc866feb	-0.016410789
180	0xbf1af5cd	-0.6053131
181	0xbf181701	-0.594101
182	0xbdb4dba3	-0.08830955
183	0xbda7eb40	-0.08199167
184	0x3e92ac47	0.28647062
185	0xbd3097c0	-0.04311347
186	0xbee15aa8	-0.44014478
187	0xbec9ab4c	-0.39388502
188	0x3c8759eb	0.016522368
189	0x3e60b9c4	0.21945864
190	0x3e09d513	0.13460188
191	0x3eafbe0f	0.3432469
192	0x3ee808b0	0.45319128
193	0xbe0525eb	-0.13002746
194	0x3d08dc6b	0.033413332
195	0xbe7db822	-0.24777272
196	0xbeb6ef4a	-0.35729438
197	0x3e8c943a	0.27456838
198	0x3f17f698	0.5936065
199	0xbc9854b8	-0.018595085
200	0x3e53fc71	0.20701768
201	0x3d4b6e47	0.049665716
202	0x3e2697c3	0.1626883
203	0x3ea129f4	0.3147732
204	0x3d50244f	0.050815877
205	0xbd939021	-0.07205225
206	0x3e128413	0.14308195
207	0x3cc8b432	0.024499986
208	0x3a5cb7ef	0.0008419742
209	0xbd42c41d	-0.04755031
210	0x3d6113b7	0.054950442
211	0xbd7f37f6	-0.062309228
212	0x3d2bce56	0.041944824
213	0x3d04030d	0.032229472
214	0xbe847665	-0.25871578
215	0x3e6b82d0	0.2299912
216	0xbe58b8fa	-0.21164313
217	0x3e798625	0.24367578
218	0x3f3b5649	0.73178536
219	0x3f19e2cf	0.6011171
220	0xbe357403	-0.17720036
221	0xbc44842b	-0.011994402
222	0xbefbb3e0	-0.4916067
223	0xbdedc36b	-0.11609539
224	0xbc9acfd6	-0.018897932
225	0xbe9c6b48	-0.305506
226	0x3cf2d548	0.029642716
227	0xbf5a751b	-0.8533494
228	0x3f35c974	0.7101052
229	0xbea6ede4	-0.3260337
230	0xbe139028	-0.1441046
231	0xbf0724e2	-0.52790654
232	0xbee559ea	-0.4479516
233	0xbe801237	-0.25013897
234	0x3e82e8c0	0.255682
235	0x3d8569fc	0.065143555
236	0xbee556b4	-0.44792712
237	0x3eb21a7b	0.34785828
238	0xbce916c0	-0.02845323
239	0xbd4bdb40	-0.04976964
240	0xbe58594d	-0.21127816
241	0xbedcfbb3	-0.4316078
242	0xbd3b7896	-0.045769297
243	0xbe1fd73d	-0.1560945
244	0xbcbddb95	-0.023175994
245	0x3e1cb911	0.15304972
246	0xbd172256	-0.03689798
247	0x3ea27604	0.31730664
248	0xbcc40f00	-0.023932934
249	0xbea00f2e	-0.3126158
250	0xbda3aaa6	-0.07991533
251	0xbd86291b	-0.06550809
252	0x3db793a1	0.08963705
253	0xbdbd23a4	-0.092353135
254	0xbf5dee95	-0.8669217
255	0xbdea20a9	-0.11432011

w_r.0.bias f4 [64]
0	0xbd7011f0	-0.058610857
1	0xbf1bbbca	-0.6083342
2	0xbe832286	-0.25612277
3	0xbe915f07	-0.28392813
4	0xbc2bdc30	-0.0104895085
5	0x3e90a8ca	0.28253776
6	0xbe8fdcf7	-0.2809827
7	0xbf00cc13	-0.5031139
8	0xbead54c1	-0.33853725
9	0xbe89a7da	-0.26885873
10	0xbd9f158d	-0.07767782
11	0xbc74c1d9	-0.014938795
12	0xbf2cca8c	-0.6749656
13	0xbeb6fb07	-0.35738394
14	0xbea6b31d	-0.32558528
15	0xbea2c895	-0.31793657
16	0xbdb27dcd	-0.08715401
17	0xbf23004c	-0.6367233
18	0xbe7fe5bd	-0.24989982
19	0xbf06ae2e	-0.5260953
20	0xbed5e364	-0.41775048
21	0xbf072e5a	-0.528051
22	0xbeb3f0a8	-0.35144544
23	0xbe49b8b9	-0.19699372
24	0xbe38251b	-0.17982905
25	0xbd897898	-0.067124546
26	0xbf188d42	-0.5959054
27	0x3e6ca39e	0.2310929
28	0xbd894681	-0.06702901
29	0xbdbc0165	-0.091799535
30	0x3df400b7	0.11914199
31	0xbedbff5b	-0.42968258
32	0xbe8d8202	-0.2763825
33	0xbf0bc3f5	-0.5459588
34	0x3d8a05df	0.06739401
35	0xbe08fd2f	-0.13377832
36	0xbf1e8056	-0.61914575
37	0x3e63e922	0.22256902
38	0x3d585f86	0.052825473
39	0xbee8fe26	-0.455064
40	0xbe395405	-0.18098457
41	0xbe44be72	-0.19213274
42	0xbe8db13d	-0.27674285
43	0xbf0f8e73	-0.56076735
44	0xbeb966b5	-0.36211172
45	0xbe7641f5	-0.24048598
46	0xbebf9430	-0.37417746
47	0xbeefe130	-0.46851492
48	0xbf48ddad	-0.7846325
49	0xbdeed66d	-0.11661992
50	0xbf1953d5	-0.5989354
51	0x3d73fd74	0.059567884
52	0xbeb29db8	-0.34885955
53	0xbe54b35e	-0.20771548
54	0xbe33647b	-0.17518799
55	0xbef3967c	-0.47575748
56	0x3d126d76	0.03574892
57	0xbf369ade	-0.7133006
58	0xbe9d2e85	-0.30699554
59	0xbebdee9f	-0.37096116
60	0xbef7281d	-0.48272792
61	0xbf09ae99	-0.5378204
62	0xbf0ba656	-0.54550683
63	0xbe9f9ee8	-0.31175923

w_r.2.weight f4 [32, 64]
0	0x3d838fc2	0.06423904
1	0xbd55623a	-0.05209563
2	0xbd94df4d	-0.07269154
3	0x3c51bf2e	0.012801928
4	0x3cafbca1	0.02145225
5	0x3e8ba500	0.27274323
6	0xc07e467b	-3.9730518
7	0xbf70433a	-0.9385258
8	0xbec30f6d	-0.38097706
9	0x3e9bf344	0.30459034
10	0x3c2c6ad6	0.010523519
11	0xbdf5da24	-0.12004498
12	0xbe35e3af	-0.17762636
13	0xba5c510d	-0.00084044115
14	0xbd1fc09a	-0.03900204
15	0xbdd3ec8b	-0.10347851
16	0xbf82980c	-1.0202651
17	0x3dccc4df	0.09998488
18	0xbf5ca026	-0.8618187
19	0xbf020de6	-0.5080246
20	0xbea3e8bc	-0.320135
21	0x3d85110b	0.06497391
22	0x3e91d8a9	0.2848561
23	0x3dded7e2	0.1088102
24	0xbe5b8ebd	-0.21441169
25	0xbe8ba705	-0.27275863
26	0xbdcf4563	-0.10120656
27	0xb9d0970b	-0.00039785387
28	0x3d4b6d34	0.04966469
29	0x3eaec796	0.34136647
30	0xbd811040	-0.063019276
31	0xbca8cfaa	-0.020606834
32	0x3e24da3d	0.16098876
33	0x3e8b53fc	0.27212512
34	0x3e0b2c0d	0.13591023
35	0x3e7e9b11	0.2486384
36	0xbabc84bb	-0.0014382818
37	0xbea5982d	-0.32342663
38	0x3e1a79eb	0.1508557
39	0x3e4e9197	0.20172726
40	0x3e217a2f	0.15769266
41	0xbe724203	-0.23657994
42	0x3c5006c0	0.012696922
43	0xbf1b4425	-0.60650855
44	0xbf72a88f	-0.9478845
45	0xbd06ea55	-0.03293832
46	0xbd9612ad	-0.07327781
47	0xbe38089f	-0.17972039
48	0x3e2c341e	0.16816756
49	0x3e0d3bc8	0.13792336
50	0xbd270fed	-0.040786672
51	0xbe2feb79	-0.1717967
52	0xbd4f5d88	-0.050626308
53	0xbef8320a	-0.48475677
54	0x3c545d09	0.012961634
55	0xbf4ced46	-0.8004955
56	0x3be4b958	0.0069801025
57	0xbc3edac0	-0.011648834
58	0xbf32ef4d	-0.69896394
59	0xbe894593	-0.26810893
60	0x3ce79c94	0.028272904
61	0x3cb96b81	0.02263427
62	0xc0108407	-2.2580583
63	0xbd2cf178	-0.04222247
64	0xbd5785be	-0.05261778
65	0x3dd329c7	0.10310703
66	0x3e051000	0.12994385
67	0xbbf1be97	-0.0073774564
68	0x3cb3a9a8	0.021931484
69	0x3d24b4bd	0.040211428
70	0xbe0f7dde	-0.14012858
71	0x3e0d6d0a	0.13811126
72	0x3c93ee2c	0.018057905
73	0xbd1466d2	-0.03623087
74	0x3cd741af	0.026276438
75	0xb9f2a111	-0.0004627784
76	0xbed5e8b3	-0.41779098
77	0x3e30870b	0.17239015
78	0x3db58f0c	0.08865175
79	0x3e39d39d	0.1814713
80	0xbd954f7f	-0.07290553
81	0xbd548462	-0.051884063
82	0xbe61cbfd	-0.22050472
83	0xbe5a9bbe	-0.21348473
84	0x3e6baac4	0.2301436
85	0xbe8a89a7	-0.27058145
86	0xbddff8bb	-0.109361134
87	0x3c237196	0.0099758115
88	0xbe44e473	-0.19227771
89	0x3e48cdae	0.1960971
90	0xbe25520e	-0.16144583
91	0x3d165c59	0.036709163
92	0x3e0b9c2b	0.13633792
93	0x3dade497	0.08490866
94	0x3d2a6345	0.041598577
95	0xbeca8140	-0.39551735
96	0x3d2b78b2	0.04186315
97	0x3eba0231	0.36329797
98	0xbc67e450	-0.014153555
99	0x3e17ee6c	0.14837044
100	0x3d85fb1e	0.065420374
101	0x3d2abe81	0.041685585
102	0xbaf3cd2c	-0.0018600575
103	0xbe07e76e	-0.13271877
104	0x3ce6ff8f	0.028198032
105	0x3d5efd32	0.054440685
106	0xbc157bd9	-0.009123766
107	0xbdbfc8c7	-0.09364467
108	0x3dd053cc	0.10172233
109	0xbd4d036d	-0.050052095
110	0xbeb2c274	-0.3491398
111	0xbd57777b	-0.05260418
112	0x3eb811f8	0.3595121
113	0xbca7325d	-0.020409757
114	0xbda93126	-0.082613274
115	0x3ed3700b	0.4129642
116	0xbc2d68ed	-0.010584098
117	0xbc1e6c95	-0.009669443
118	0xbd970018	-0.07373065
119	0xbfd83f67	-1.6894349
120	0xbd2f0f3b	-0.042739134
121	0xbe013ab9	-0.12620057
122	0xbe7e634f	-0.2484257
123	0xbd7863d6	-0.060642086
124	0xbcfe9126	-0.031075072
125	0xbe37d964	-0.17954022
126	0x3d83c6bd	0.06434391
127	0x3ce46674	0.027880885
128	0xbca7f82f	-0.020504085
129	0x3d79d987	0.060998466
130	0xbe5d27c9	-0.21597208
131	0x3a22db65	0.0006212502
132	0xbd228719	-0.03967962
133	0xbf2d9976	-0.6781229
134	0x3d16f258	0.03685221
135	0x3ec6e13e	0.3884372
136	0x3d6826ab	0.0566775
137	0x3e911d7e	0.28342813
138	0xbbd0efbe	-0.0063762357
139	0x3cfcd38d	0.030862594
140	0xbda36b48	-0.07979447
141	0x3d509fb3	0.05093355
142	0xbdfc6d24	-0.123255044
143	0x3f1a8317	0.6035628
144	0x3ea5a93c	0.32355678
145	0x3edde5e4	0.43339455
146	0xbe341314	-0.17585403
147	0xbc2bc83e	-0.010484753
148	0x3e229fff	0.15881346
149	0xbd2d5248	-0.042314798
150	0x3d4d903b	0.050186377
151	0xbee348c2	-0.44391447
152	0xbd17d395	-0.037067015
153	0x3e3ab220	0.18232012
154	0xbf0c3c1a	-0.5477921
155	0x3d896f62	0.06710698
156	0xbe1e1283	-0.15436749
157	0x3dd76593	0.105174206
158	0x3c03caf1	0.0080439905
159	0x3f845c99	1.0340759
160	0xbf9bbb79	-1.2166587
161	0xbecac3e1	-0.3960257
162	0x3ca57c19	0.020200776
163	0x3dce1a00	0.10063553
164	0xbec5a272	-0.38600498
165	0xbe85bbc4	-0.26119816
166	0xbf029cd9	-0.5102058
167	0xbf7baa36	-0.98306596
168	0x3e65c428	0.22438109
169	0xbc372ba1	-0.011179836
170	0xbda2e44a	-0.07953699
171	0xbe0d9abe	-0.1382856
172	0xbea21819	-0.3165901
173	0x3db7dfa1	0.08978201
174	0xbeaf6fa2	-0.34264857
175	0xbe2a87ac	-0.16653317
176	0xbf868f8f	-1.0512561
177	0xbf0b5dc5	-0.54439956
178	0x3e011358	0.12605035
179	0xbebbfc00	-0.36715698
180	0x3d6f9c82	0.058498867
181	0x3cdacbc9	0.0267085
182	0xbd90c6d8	-0.070691764
183	0xbf1d535d	-0.6145533
184	0x3c6861d3	0.014183479
185	0x3e6d6f10	0.23186898
186	0x3f182a9f	0.59440035
187	0x3dea659c	0.11445162
188	0xbf5a4dca	-0.85274947
189	0xbf0ab22e	-0.5417813
190	0xbf5f4731	-0.87218004
191	0xbd0b07bb	-0.03394292
192	0xbd8fe04d	-0.07025204
193	0x3e93ce3d	0.28868285
194	0xbe3d931e	-0.18513152
195	0xbeac50b2	-0.33655316
196	0xbdddff0a	-0.108396605
197	0xbd3c6e40	-0.04600358
198	0xbece4992	-0.40290505
199	0xbe07c4f1	-0.13258721
200	0x3e2de9dd	0.16983743
201	0xbe233ea2	-0.15941861
202	0x3d88b85b	0.06675788
203	0xbe0a73ed	-0.13520785
204	0x3d221896	0.03957423
205	0xbde6435f	-0.11243319
206	0xbe60a993	-0.21939687
207	0xbdc6fb31	-0.0971588
208	0xbd5cf22a	-0.053941883
209	0x3d193493	0.037403654
210	0xbe291083	-0.16510205
211	0x3eb23e59	0.34813192
212	0xbeab2c9b	-0.3343247
213	0x3e719706	0.23592767
214	0xbebc59da	-0.367873
215	0xbdbe1a11	-0.092823155
216	0xbdfc146b	-0.12308582
217	0xbdbab16c	-0.09115872
218	0xbd6374c1	-0.055531267
219	0xbdcc06f2	-0.09962262
220	0x3e5e635b	0.21717589
221	0xbe8e331f	-0.27773377
222	0xbe913bb1	-0.28365853
223	0xbc7da94d	-0.015482259
224	0xbd826d69	-0.063685246
225	0xbeb6a729	-0.35674408
226	0xbdddfac9	-0.10838849
227	0x3d7c8753	0.061652493
228	0x3d357f36	0.04431077
229	0xbdf8f929	-0.121568985
230	0x3ded9830	0.11601293
231	0x3df73b93	0.1207191
232	0xbe109908	-0.14120877
233	0xbe0039f9	-0.12522115
234	0x3c2e8836	0.010652592
235	0xbe55dcfe	-0.20885083
236	0xbe3856e5	-0.18001898
237	0x3dc80685	0.097668685
238	0x3b706887	0.0036683397
239	0xbdc98e1d	-0.09841559
240	0xbd846cf5	-0.064660944
241	0xbe0cc349	-0.1374637
242	0xbe2b00d1	-0.1669953
243	0xbeea9b02	-0.45821387
244	0xbe54be78	-0.20775783
245	0xbe817f37	-0.2529237
246	0x3e0d3b01	0.1379204
247	0xbc88708c	-0.016655229
248	0x3d092518	0.03348264
249	0x3e306653	0.17226534
250	0xbe613ec4	-0.219966
251	0xbb80bec0	-0.003928989
252	0x3c58c491	0.013230459
253	0xbd8d480a	-0.06898506
254	0x3e089a77	0.13340174
255	0x3d6df73c	0.05809711

w_r.2.bias f4 [32]
0	0xbf26aa6b	-0.6510379
1	0x3cdedf05	0.027205953
2	0xbd2dac1a	-0.042400457
3	0xbd8a118f	-0.0674163
4	0x3eec1f5e	0.4611768
5	0xbe8cb157	-0.2747905
6	0x3d0b54a3	0.034016263
7	0xbdaff52b	-0.08591684
8	0xbd489fb0	-0.048980415
9	0xbdfe6920	-0.12422395
10	0x3f3c415e	0.7353724
11	0xbf1c07f6	-0.6094965
12	0xbebd52e0	-0.3697729
13	0xbf242a8c	-0.6412742
14	0xbe12887a	-0.14309874
15	0xbf742969	-0.95375687
16	0xbe36887b	-0.178255
17	0xbe2c9904	-0.16855246
18	0x3edca676	0.4309575
19	0x3e9c9daf	0.30589053
20	0xbe7ca806	-0.24673471
21	0xbef868be	-0.48517412
22	0xbd8d5667	-0.069012456
23	0xbebe2e41	-0.37144664
24	0xbe277f42	-0.16357139
25	0x3f4ada63	0.7923948
26	0xbe1bf698	-0.15230787
27	0xbdad610e	-0.08465777
28	0x3ea423c3	0.32058534
29	0x3ea5ad5d	0.32358828
30	0x3d5f7051	0.054550473
31	0x3e778472	0.24171618

w_h.0.weight f4 [64, 5]
0	0x3de5f874	0.11229029
1	0xbe5311d0	-0.20612264
2	0xbf384cfb	-0.7199246
3	0xbf7ff061	-0.99976164
4	0xbe942725	-0.28936115
5	0x3dc44eb7	0.09585326
6	0x3e8a499e	0.2700929
7	0xbf62ae20	-0.88546944
8	0x3fd2c017	1.6464871
9	0xbdd8b3fe	-0.10581206
10	0x3dc63341	0.09677745
11	0xbf2f795d	-0.6854456
12	0xbf410ff9	-0.75415
13	0xbf6ba505	-0.92048675
14	0xbed065ab	-0.40702567
15	0xbd455069	-0.04817239
16	0x3dc91fa0	0.09820485
17	0xbf0ea79f	-0.5572452
18	0xbdd663e0	-0.104682684
19	0x3feb068e	1.8361375
20	0xbeac7f5a	-0.33690912
21	0xbe6a3a22	-0.22873738
22	0x3f86e7e5	1.0539519
23	0x3fcc748f	1.5973071
24	0xc00a5f59	-2.1620696
25	0xbb935ba3	-0.004497008
26	0xbe84ad1b	-0.2591332
27	0xbd83fbc1	-0.064445026
28	0xbcabada9	-0.020956831
29	0x3f09ea62	0.53873265
30	0xbef97956	-0.48725384
31	0x3e165a4d	0.14682885
32	0xbfc804e4	-1.5626493
33	0xbd35bd44	-0.04436995
34	0xbfbaa862	-1.4582636
35	0xbe91ce4e	-0.2847771
36	0x3d8cc699	0.06873817
37	0xbf559847	-0.8343548
38	0xbf896174	-1.0732865
39	0xbf796756	-0.97423303
40	0xbe1339b0	-0.14377475
41	0x3dd300d6	0.10302894
42	0x3e1437dd	0.14474435
43	0xbef5d759	-0.4801586
44	0xbb0295cd	-0.0019925714
45	0x3a9ab1b6	0.001180223
46	0xbc11af6c	-0.0088919215
47	0x3d3eae7d	0.046553124
48	0x3ce3fd2f	0.027830688
49	0xbe4531c5	-0.19257267
50	0x3f14b081	0.58081824
51	0xbe843368	-0.2582047
52	0x3f3365fd	0.70077497
53	0xbe86a093	-0.26294383
54	0xbfeb0914	-1.8362145
55	0xbe4b6b26	-0.19865093
56	0x3c7abce3	0.015303823
57	0xbf50aae2	-0.81510746
58	0xbe9bb5a8	-0.3041203
59	0xbd8207e8	-0.06349164
60	0x3ac68e7c	0.0015148665
61	0x3bc7ae2b	0.0060937605
62	0x3df5c5c1	0.12000609
63	0x3e7f9fd6	0.24963316
64	0x3e94dfaf	0.29076907
65	0xbc3753d4	-0.01118942
66	0xbc921062	-0.017830078
67	0x3e4fa2a7	0.2027689
68	0xbd3f0b23	-0.04664148
69	0xbfdbf7e5	-1.7185026
70	0xbeae2bc7	-0.34017774
71	0xbe8e6f52	-0.27819306
72	0xbf5735d3	-0.84066504
73	0xbe32bf25	-0.17455728
74	0xc085270e	-4.1610174
75	0xbc5b11c9	-0.0133709395
76	0x3c197fbe	0.009368835
77	0x3d50b0d5	0.05094989
78	0xbe8a7456	-0.27041882
79	0x3dac2d54	0.08407083
80	0xbe8122bb	-0.2522181
81	0x3e97ee67	0.29674074
82	0xbe730551	-0.23732497
83	0x3f8050e3	1.0024685
84	0xbee0749b	-0.43838963
85	0xbdf781e6	-0.12085323
86	0xbe8115ee	-0.25212044
87	0xbfaace0d	-1.3344132
88	0xbf6255b5	-0.8841203
89	0x3e5d94f4	0.21638852
90	0x3cb1bdfc	0.021697037
91	0x3e095128	0.13409865
92	0x3d8839d5	0.066516556
93	0x3fe913b0	1.8209133
94	0x3f0dc6d6	0.55381525
95	0xbe998296	-0.29982442
96	0xbe67c1ff	-0.22632597
97	0x3f5b5b5c	0.8568628
98	0xbfbe3737	-1.48606
99	0xbf503571	-0.81331545
100	0xbef7e003	-0.48413095
101	0x3ef155a3	0.47135648
102	0xbf9e52e0	-1.2369041
103	0x3f0a38b2	0.5399276
104	0xbf98955f	-1.1920584
105	0xbdd37047	-0.103241496
106	0xbe49cae2	-0.197063
107	0x3e926e47	0.2859976
108	0x3d97bb62	0.07408787
109	0xbfd7a674	-1.6847672
110	0x3f1ec9ef	0.62026876
111	0x3ea2f83d	0.31830016
112	0xbea96b3f	-0.33089635
113	0x3f2bd7b5	0.6712602
114	0xbef6868d	-0.4814953
115	0xbea09fea	-0.31372005
116	0xbea1e55a	-0.31620294
117	0x3fa14cd7	1.2601575
118	0xbf24389b	-0.64148873
119	0x3f02bdfa	0.5107113
120	0x3dbba3e3	0.09162118
121	0xbd56047c	-0.05225037
122	0x3fa1c873	1.2639297
123	0xbe83d682	-0.25749594
124	0xbf32c6d2	-0.69834626
125	0xba77812f	-0.0009441552
126	0xbbf4a39b	-0.0074657924
127	0xbe8e9fda	-0.27856332
128	0x3d423dd5	0.04742225
129	0xbf5832b3	-0.8445236
130	0x396c064a	0.00022509057
131	0x393c3ad7	0.00017950997
132	0x3d5b8e0c	0.053602263
133	0xbc0679ee	-0.008207781
134	0xbeb2e9d1	-0.34944013
135	0xbee36c4f	-0.4441857
136	0xbeaac80a	-0.33355743
137	0xbf4ebdff	-0.8075866
138	0xbf86a276	-1.0518329
139	0xbf42a271	-0.76029116
140	0xbeb22442	-0.34793288
141	0x3ed7c041	0.42138866
142	0xbf800921	-1.0002786
143	0xbf39f6b4	-0.72642064
144	0xbfd274ef	-1.6441935
145	0xbd5f14dc	-0.054463252
146	0xbf2b4a44	-0.66910195
147	0x3f2b807b	0.6699292
148	0xbeca9203	-0.39564523
149	0xbf9f53fd	-1.2447506
150	0xbd2e72bb	-0.042589884
151	0x3dd1ad67	0.10238152
152	0xbf2668b9	-0.65003544
153	0xbf929b23	-1.1453594
154	0xbec0d066	-0.37658995
155	0x3dff4f49	0.12466294
156	0xbe2ed565	-0.17073591
157	0x3f03fc89	0.51557213
158	0xbf937e07	-1.1522835
159	0x3f1cb02f	0.61206335
160	0x3e183647	0.14864455
161	0xbec8b296	-0.3919875
162	0x3f4f49ec	0.8097217
163	0xbfcc9c99	-1.598529
164	0x3dacdaac	0.08440146
165	0x3e8db911	0.27680257
166	0x3df614af	0.12015664
167	0x3fcfb14c	1.6225982
168	0x3f8216a3	1.0163158
169	0x3f52fa24	0.82412934
170	0xbf324c7c	-0.69647956
171	0x3e087227	0.13324796
172	0x3f421515	0.7581342
173	0xbf806d02	-1.0033267
174	0xbf1c6be8	-0.6110215
175	0xbf2b9990	-0.6703119
176	0xbdee680d	-0.1164094
177	0xbdb9428d	-0.09045897
178	0x3f314336	0.6924318
179	0x3e97cbf5	0.29647794
180	0xbebf752f	-0.3739409
181	0xbf0c46dc	-0.5479562
182	0xbfa20dab	-1.2660421
183	0xbea32083	-0.31860742
184	0x3ead7209	0.33876064
185	0xbf1221f8	-0.5708308
186	0xbea8d280	-0.329731
187	0xbdd4a97b	-0.10383888
188	0xbed20229	-0.41017273
189	0x3efed5b3	0.49772415
190	0x3ec22240	0.37916756
191	0xbe239903	-0.15976338
192	0xbd989a75	-0.07451335
193	0x3f4f2f92	0.8093196
194	0x3f92c8d6	1.146754
195	0xbd758901	-0.05994511
196	0x3c83767a	0.016047705
197	0xbf858d2f	-1.0433711
198	0x3f2b92d9	0.67020947
199	0xbf4fb057	-0.8112845
200	0x3da59350	0.08084738
201	0xbeb5bcac	-0.35495508
202	0x3f135be2	0.5756208
203	0x3f472b17	0.77800125
204	0xbeea2383	-0.45730218
205	0x3ef03142	0.4691258
206	0x3ed3de38	0.41380477
207	0x3fcd491f	1.603794
208	0x3f624772	0.88390267
209	0xbf011477	-0.5042185
210	0xbbe9c415	-0.0071339705
211	0xbd032efe	-0.032027237
212	0xbee69c39	-0.45041063
213	0x3e5c6055	0.21521123
214	0xbfc966be	-1.573448
215	0x3e049175	0.12946112
216	0x3d528c01	0.05140305
217	0x3f804dc2	1.002373
218	0x3fb163ae	1.3858545
219	0xbf9aa3b8	-1.2081213
220	0x3f06221e	0.5239581
221	0xbd234cb2	-0.039868064
222	0x3f2282bc	0.63480735
223	0xbe3b23e4	-0.1827541
224	0xbf873829	-1.0564014
225	0x3ea2974d	0.31756058
226	0x3e92a1ed	0.28639165
227	0x3f105020	0.5637226
228	0xbfb7fc2a	-1.4373829
229	0xc026b1c9	-2.6046011
230	0xbe046065	-0.12927397
231	0x3f0d08c1	0.5509148
232	0x3f39c054	0.72559094
233	0x3e9139be	0.28364366
234	0xbf21f6f4	-0.63267446
235	0xbda07150	-0.07834113
236	0x3d92d7c0	0.07170057
237	0x3f106c0a	0.56414855
238	0x3fd1da48	1.6394739
239	0xbe863c5b	-0.26217923
240	0xbebf7440	-0.3739338
241	0xbdb967fd	-0.09053037
242	0xbef9d26f	-0.4879336
243	0x3f28e014	0.65966916
244	0xbfdcae82	-1.7240756
245	0xbaf788b1	-0.0018885342
246	0x3c05aae1	0.0081584165
247	0xbde8b1c9	-0.11362035
248	0xbd7a073e	-0.061042063
249	0xbde38e04	-0.11111072
250	0x3e97d090	0.29651308
251	0x3ec148e4	0.37750924
252	0x3e94499a	0.28962404
253	0xbf8b8d1e	-1.090244
254	0xbfded369	-1.7408267
255	0x3ecf6c4c	0.4051231

w_h.0.bias f4 [64]
0	0xbebff0a4	-0.37488282
1	0xbfc70800	-1.5549316
2	0xbfb9667c	-1.4484401
3	0xbf80d643	-1.0065387
4	0xbfc097e8	-1.5046358
5	0x3cd8695f	0.026417432
6	0xbeb9edf0	-0.36314344
7	0xbf3f6e25	-0.7477744
8	0x3d64f9ae	0.055902176
9	0xbe667c9d	-0.22508474
10	0xbdff2c13	-0.12459578
11	0xbe5c2a06	-0.21500406
12	0xbf173432	-0.5906402
13	0x3e2a10ad	0.16607924
14	0xbb19703d	-0.0023412846
15	0xbedde653	-0.43339786
16	0xbeada494	-0.33914626
17	0xbf6b9064	-0.920172
18	0xbf505fcf	-0.8139619
19	0xbf650723	-0.89464015
20	0xbfbe4b84	-1.4866796
21	0x3f2a07ca	0.66418135
22	0xbfaf2a90	-1.3684864
23	0xbf61234d	-0.8794449
24	0xbe11f418	-0.1425327
25	0xbd44f3e3	-0.04808415
26	0x3d45426c	0.048159048
27	0xbeb8f908	-0.36127496
28	0xbfc1ea8f	-1.5149707
29	0xbec0e0c6	-0.3767149
30	0xbeb75d37	-0.35813305
31	0x3e717f4f	0.2358372
32	0xbf4568ae	-0.77112854
33	0xbf6ec561	-0.93269926
34	0xbf1a5f96	-0.603021
35	0xbfc7ab1c	-1.5599093
36	0xbf678373	-0.9043495
37	0xc00c2eec	-2.190364
38	0xbf9821bd	-1.1885296
39	0x3cf2af4f	0.02962461
40	0xbec6e3af	-0.38845584
41	0xbfef79e2	-1.8709071
42	0xbe3ef2ff	-0.18647383
43	0x3e054808	0.13015759
44	0x3ee9c50b	0.45658144
45	0xbf8ce926	-1.1008651
46	0xbf9904f6	-1.1954639
47	0xbf337e7a	-0.7011486
48	0x3ce56b28	0.028005198
49	0xbe40ae90	-0.1881659
50	0xbf6e7da8	-0.93160486
51	0xbf51a5fd	-0.81893903
52	0xbf7683c9	-0.9629484
53	0xbf9b3527	-1.2125596
54	0xbe620b73	-0.2207468
55	0xbf294e8d	-0.66135484
56	0x3f2960ea	0.66163504
57	0xbf4c51a9	-0.79812104
58	0xbfb40450	-1.4063816
59	0x3ece129f	0.40248582
60	0xbf002fea	-0.5007311
61	0x3ed4be51	0.4155145
62	0xbe85a72d	-0.26104107
63	0xbf4ce0bf	-0.80030435

w_h.2.weight f4 [32, 64]
0	0x3e279e8a	0.16369072
1	0x3e68cb2b	0.22733752
2	0xbf57ebbd	-0.84344083
3	0xbc1ff070	-0.009761915
4	0xbe0dc2f6	-0.13843903
5	0x3e07180a	0.13192764
6	0x3f3b6f2e	0.7321652
7	0x3f3af2a1	0.7302647
8	0xbe701ed7	-0.23449264
9	0xbd25b030	-0.04045123
10	0x3f95962f	1.1686457
11	0x3ee806ad	0.45317593
12	0xbd4cf8e7	-0.05004206
13	0x3f2501f7	0.64456123
14	0x3fd2256e	1.6417673
15	0xbd7180bf	-0.058960672
16	0x3e4020ad	0.18762465
17	0xbf096051	-0.5366259
18	0xbdc07a1c	-0.093982905
19	0xbe34ffcd	-0.17675705
20	0x3f62a119	0.88527066
21	0xbe086c1a	-0.13322487
22	0x3e5b67ae	0.2142627
23	0x3dd20aef	0.10255992
24	0xbf2b8e5e	-0.6701411
25	0x3d24c98b	0.04023127
26	0x3d815017	0.06314104
27	0x3e27c9f2	0.1638563
28	0x3e914e0b	0.28379855
29	0x3f324395	0.6963437
30	0xbdff5389	-0.12467105
31	0xbe024bba	-0.127242
32	0x3f42b8f4	0.76063466
33	0x3ea55b9a	0.3229645
34	0x3d732d46	0.059369348
35	0xbe99a04e	-0.30005115
36	0x3f223ead	0.63376886
37	0xbff6d211	-1.9282857
38	0x3e162d7a	0.14665785
39	0xbe3141f5	-0.17310317
40	0x3e853acc	0.2602142
41	0x3f029416	0.5100721
42	0xbe4b3385	-0.19843872
43	0x3e9381df	0.2881002
44	0x3f0013da	0.5003029
45	0x3e75936f	0.23982023
46	0x3e082dbe	0.132987
47	0xbd32c04d	-0.043640424
48	0x3efe4b78	0.49666953
49	0x3dad3ff2	0.08459462
50	0xbd3157ee	-0.043296747
51	0x3f394d61	0.72383696
52	0xbd2d51fc	-0.042314515
53	0x3e96a4b7	0.29422542
54	0x3e401167	0.18756638
55	0x3cbb8265	0.022889325
56	0x3eacb47c	0.3373145
57	0xbebf4b2b	-0.37362036
58	0xbf26976b	-0.65074795
59	0xbe65ed17	-0.22453724
60	0x3dcf3c31	0.101189025
61	0x3e991b8a	0.29903823
62	0x3e05fa5b	0.13083784
63	0x3d8f48dd	0.069963194
64	0x3f2508fc	0.64466834
65	0xbfaee7a7	-1.3664445
66	0x3f131142	0.5744821
67	0xbfad5531	-1.3541623
68	0x3e399f32	0.18127134
69	0x3f2c3144	0.67262673
70	0x3e94cc3c	0.29062068
71	0x3f682bdd	0.9069193
72	0xbe9b5343	-0.3033696
73	0x3d64378e	0.055717044
74	0x3e51c400	0.20484924
75	0xbedd2c4b	-0.43197855
76	0xbefa6b96	-0.48910207
77	0xbe247c59	-0.1606306
78	0xc047e01b	-3.1230533
79	0xbb8170e5	-0.0039502257
80	0xbd3f89c8	-0.046762258
81	0xbeb75723	-0.35808668
82	0x3ede0858	0.4336574
83	0x3fb43ac7	1.4080437
84	0x3fbf6393	1.4952263
85	0x3d736736	0.0594246
86	0xbed41c0d	-0.4142765
87	0x3f155191	0.58327585
88	0x3d9742c8	0.073857844
89	0xbe219217	-0.15778385
90	0xbcc14ce6	-0.023596238
91	0xbed6a9e2	-0.41926485
92	0x3cdf08a5	0.027225802
93	0xbe54ee9c	-0.20794147
94	0xbf3a12c0	-0.7268486
95	0xbebdf9b1	-0.37104562
96	0xbf52ec02	-0.8239137
97	0x3e416b69	0.1888863
98	0xbf332584	-0.6997912
99	0x3e78eef1	0.24309899
100	0x3f8b4314	1.0879846
101	0xbf8ed47e	-1.1158597
102	0x3e54b95a	0.20773831
103	0x3f5da270	0.86575985
104	0xbeb3b7c8	-0.3510115
105	0x3f360bdc	0.71111846
106	0x3f1e6843	0.6187784
107	0x3f7d9d84	0.99068475
108	0xbf4f02da	-0.80863726
109	0xbe9ccc9e	-0.3062486
110	0xc0188fec	-2.3837843
111	0x3d706cc9	0.058697496
112	0x3e8d6af2	0.27620655
113	0x3e0c4de2	0.13701585
114	0xbfeae592	-1.8351309
115	0x3f4ad52c	0.79231524
116	0xbf284967	-0.65737003
117	0xbe68b3ed	-0.22724886
118	0x3de72fd0	0.112884164
119	0xc02fd817	-2.747564
120	0x3df08988	0.11744982
121	0xbef80bc2	-0.4844647
122	0xbba3f620	-0.0050037056
123	0xbead28e5	-0.33820263
124	0xbd60c8c3	-0.05487896
125	0xbf201106	-0.62525976
126	0x3f315b24	0.69279695
127	0xbe5a0205	-0.21289833
128	0xc0685a0a	-3.6304955
129	0x3f6c42a5	0.9228919
130	0x3ef84cb0	0.48496008
131	0x3f6603ba	0.89849436
132	0xbe216339	-0.15760507
133	0xbe9c771f	-0.30559632
134	0x3e94a763	0.29033956
135	0xbf15a6c7	-0.5845761
136	0xbe2fbfc7	-0.17163001
137	0x3d88c480	0.066781044
138	0xbe68bee0	-0.22729063
139	0xbefcf158	-0.4940288
140	0xbe2c31aa	-0.1681582
141	0xbd8f9754	-0.070112854
142	0xc0269d69	-2.6033576
143	0x3d44b7d6	0.048026882
144	0x3ddc1277	0.107457094
145	0xc04cfb95	-3.2028553
146	0x3d008495	0.03137644
147	0x3ee32989	0.44367626
148	0xbfb52ae9	-1.415372
149	0x3dc41983	0.095751785
150	0xbfcd7999	-1.6052734
151	0x3e276415	0.16346772
152	0x3e0dd51b	0.13850825
153	0x3ec0c8f8	0.37653327
154	0x3e0b9140	0.13629627
155	0x3ed599e9	0.41718987
156	0x3ea1832e	0.31545395
157	0x3e3980b0	0.18115497
158	0xbd0e33ce	-0.034717374
159	0xbe7e7a93	-0.24851446
160	0xbf27adca	-0.65499556
161	0x3fa506e8	1.2892733
162	0xbe800a53	-0.25007877
163	0x3eea8055	0.45801035
164	0xbedd6408	-0.4324038
165	0xbecbb9be	-0.39790148
166	0x3e450f00	0.19244003
167	0x3d85ada8	0.06527263
168	0xbd2b954b	-0.041890424
169	0x3de6effe	0.112762436
170	0x3c40b890	0.011762753
171	0x3f95f8da	1.1716568
172	0xbdbf88dd	-0.093522765
173	0xc02e8fba	-2.7275224
174	0xbee44bed	-0.44589177
175	0xbf481914	-0.78163266
176	0xbe1e55f0	-0.1546247
177	0xbe0b3b08	-0.13596737
178	0xc02caf9f	-2.698219
179	0xbefef988	-0.49799752
180	0xbc33a0ba	-0.010963613
181	0xc09b6c08	-4.8569374
182	0x3cef7be3	0.029233878
183	0x3f7727b5	0.96544963
184	0x3f59d335	0.850879
185	0xbebc920b	-0.36830172
186	0xbf7ae7cf	-0.9800996
187	0xbf43290d	-0.76234514
188	0x3cbd6b4e	0.023122456
189	0xbcd2132f	-0.025643913
190	0xbf8b6751	-1.0890905
191	0x3f4fd729	0.81187683
192	0xbe9f7a05	-0.3114778
193	0x3e7d4279	0.24732389
194	0xbeb47941	-0.3524876
195	0x3e195e02	0.14977267
196	0x3f91d47d	1.1392971
197	0xbe0d2d42	-0.13786796
198	0x3e456050	0.19275022
199	0x3f01b7ac	0.50670886
200	0x3e25feaf	0.16210435
201	0x3d805575	0.062663
202	0xbed56a97	-0.41682884
203	0x3f2989b4	0.66225743
204	0x3cc3fc88	0.023924127
205	0xbe797ce3	-0.24364047
206	0xbf55805f	-0.83399004
207	0x3c334662	0.010942074
208	0x3f2aaf3c	0.66673636
209	0xbf1e8363	-0.6191923
210	0x3eb21093	0.3477827
211	0x3e43e34d	0.19129677
212	0x3d7922de	0.060824268
213	0xbecad825	-0.3961803
214	0x3f2bc207	0.6709294
215	0x3ef6c39f	0.48196122
216	0x3f23b0a9	0.63941437
217	0x3e11a2fa	0.14222327
218	0x3d14864b	0.036260884
219	0xbebd0a43	-0.36921892
220	0x3e2781a8	0.16358054
221	0xbf6842ff	-0.9072723
222	0x3f54ef78	0.831779
223	0xbd0526ec	-0.032507822
224	0x3f94ff38	1.1640387
225	0x3f0b0795	0.54308444
226	0x3e614cf0	0.22002006
227	0xbf14fc69	-0.5819765
228	0xbfa6abb1	-1.3021146
229	0xbf43d66e	-0.7649907
230	0x3ea53758	0.32268786
231	0x3f8d181f	1.1022986
232	0xbf21c77f	-0.6319503
233	0x3f3e2465	0.74274284
234	0x3f227d31	0.63472277
235	0x3ef71b7d	0.4826316
236	0xbed45b0a	-0.41475707
237	0xbf7fb551	-0.9988604
238	0xbea2c12a	-0.31787997
239	0x3eb31f10	0.34984636
240	0xbe6009cc	-0.21878737
241	0xbe24d87c	-0.16098207
242	0xbe5231de	-0.20526835
243	0xbf8cf071	-1.1010877
244	0xbf130a42	-0.5743753
245	0x3f5af9b8	0.8553729
246	0x3e46c98d	0.19412823
247	0xbe0d0f4d	-0.13775368
248	0xbd167a65	-0.03673782
249	0xbf31c311	-0.6943827
250	0xbdb5c1d2	-0.08874859
251	0x3da6586d	0.08122335
252	0xbeee9a20	-0.46601963
253	0x3eb1dfc9	0.34741047
254	0x3bcda325	0.006275552
255	0x3e47d6e4	0.19515568

w_h.2.bias f4 [32]
0	0xbf123142	-0.5710641
1	0x3ebc804c	0.36816633
2	0xbe022757	-0.1271032
3	0xbdb84c89	-0.08998973
4	0xbdba2b16	-0.09090249
5	0xc014287c	-2.314971
6	0xbd0cf1d5	-0.034410316
7	0xbde7d2cc	-0.11319503
8	0xbeaeb520	-0.34122562
9	0xbe1da53b	-0.15395062
10	0x3e8fd476	0.28091782
11	0x3a7be02b	0.0009608294
12	0x3eac1382	0.33608633
13	0x3eb6fad1	0.35738233
14	0xbde83aaa	-0.11339314
15	0xbe29bbe7	-0.16575585
16	0xbe4af136	-0.19818577
17	0xbe07b9f5	-0.1325453
18	0xbed5a8ee	-0.41730446
19	0xbcadfabf	-0.02123773
20	0xbe402f99	-0.18768157
21	0xbe648380	-0.22315788
22	0xbd9ad838	-0.07560772
23	0xbd891f37	-0.06695407
24	0xbd7509b6	-0.059823714
25	0x3ee377d3	0.44427356
26	0x3e64380f	0.2228701
27	0x3ed1acfe	0.40952295
28	0x3e1181ec	0.14209718
29	0xbe3c3ed0	-0.18383336
30	0x3f2d34e2	0.6765882
31	0x3f1c8a81	0.6114884

Ws.0 f4 [32, 32]
0	0xbfa52d8b	-1.2904524
1	0xbdbfb802	-0.093612686
2	0xbf0aab68	-0.54167795
3	0xbef90298	-0.4863479
4	0x3f61005a	0.8789116
5	0x3e51e6f2	0.20498255
6	0xbf3c54cf	-0.7356691
7	0x3fa140b5	1.2597872
8	0x3e15f9e0	0.14646101
9	0x3f667493	0.9002163
10	0xbf35e6ef	-0.710555
11	0xbe893485	-0.26797882
12	0x3cf08268	0.029359058
13	0xbe428e07	-0.18999492
14	0x3cb209ee	0.02173325
15	0x3eddaabe	0.43294328
16	0xbe26a48d	-0.16273709
17	0x3d1ccc2c	0.03828065
18	0xbed2e233	-0.411882
19	0x3f331495	0.6995328
20	0xbe9f068c	-0.31059682
21	0x3e397253	0.18110017
22	0xbf9b91ca	-1.2153866
23	0xbe2536a3	-0.16134124
24	0xbf000667	-0.5000977
25	0x3c9238fd	0.01784944
26	0x3eef2807	0.46710226
27	0x3f31437a	0.69243586
28	0x3ebf9607	0.3741915
29	0xbfecef37	-1.8510503
30	0xbf710b30	-0.94157696
31	0x3e2f9649	0.17147173
32	0xbff9fc1e	-1.9530065
33	0x3d89bb9b	0.06725236
34	0x3c3896f1	0.011266456
35	0x3e869259	0.2628353
36	0x3e3ecac9	0.18632044
37	0x3f1ead3d	0.6198309
38	0xbeab9959	-0.33515432
39	0x3d7a5b02	0.061121948
40	0xbf84889d	-1.0354191
41	0xbeb5c88a	-0.35504562
42	0x3e0eaca2	0.13933042
43	0x3efed265	0.49769893
44	0xbf27ef40	-0.6559944
45	0xc010eb57	-2.264364
46	0x3e811fc5	0.2521955
47	0xc0d540c6	-6.664157
48	0xbf5512bb	-0.83231705
49	0x3ffd9d75	1.9813677
50	0xbf89b406	-1.0758064
51	0xbfa7ebe2	-1.3118861
52	0xbf07a333	-0.529834
53	0xbfc3f368	-1.5308657
54	0x3f04bc26	0.5184959
55	0xbd2484a8	-0.040165573
56	0x3deec3d5	0.11658446
57	0x3e1ad294	0.15119392
58	0x3f90d6aa	1.131551
59	0xbfa228a2	-1.266865
60	0xbe982013	-0.2971197
61	0xbfee40ca	-1.8613522
62	0x3f6b4d6c	0.9191501
63	0xbf90706c	-1.1284308
64	0xbedfb2a6	-0.43690985
65	0xbfc2c944	-1.5217671
66	0xbf82446c	-1.0177131
67	0x3f87c4e8	1.0606966
68	0xbfd00a55	-1.6253153
69	0x3f769798	0.96325064
70	0xc02d6620	-2.7093582
71	0xbf2f1e3e	-0.6840552
72	0xc00d89fd	-2.2115471
73	0xbe0f077f	-0.13967703
74	0x400175cd	2.022815
75	0xbe82fdf3	-0.25584373
76	0x3f0bea74	0.5465462
77	0xc036ce0c	-2.856326
78	0xbefeb744	-0.49749196
79	0xbde4a815	-0.111648716
80	0x402c41cc	2.691516
81	0xbf76c70b	-0.96397465
82	0xbf30d0fa	-0.6906887
83	0xc00af9e8	-2.171503
84	0x3fb99bdd	1.4500691
85	0xbeb23939	-0.34809282
86	0xbdf84d1c	-0.121240824
87	0x3e36a585	0.17836578
88	0x3ec2794e	0.37983173
89	0xbfb899d5	-1.4421946
90	0xc03f9290	-2.9933205
91	0x3ee3f25e	0.4452085
92	0xbf51174f	-0.8167619
93	0x3f38d4ca	0.7219969
94	0xbe029699	-0.12752761
95	0x3f4e3df4	0.8056328
96	0xbf56829e	-0.83793056
97	0xbf56bc11	-0.83880717
98	0x3eb15e14	0.34642088
99	0xc0268b64	-2.6022577
100	0xbf87451f	-1.0567969
101	0x3fa0993f	1.2546767
102	0x3fb73bcf	1.4315127
103	0x3ea0cc24	0.31405747
104	0x3f75ed89	0.96065575
105	0x3f86334e	1.0484407
106	0xbf06d7ea	-0.5267321
107	0x3e40cc1d	0.18827863
108	0x3f599f11	0.8500834
109	0xbd650370	-0.05591148
110	0x3e248d18	0.16069448
111	0x3f412d9c	0.7546022
112	0xbf6f5055	-0.9348195
113	0x3ed2ce66	0.41173095
114	0x3f0d2cff	0.55146784
115	0x3fc2a023	1.520512
116	0x3f83108f	1.0239428
117	0x3f04da7d	0.51895887
118	0x3f0aa217	0.5415358
119	0xbf8c9a79	-1.0984641
120	0x3fa85f2c	1.3154044
121	0x3e29a253	0.16565828
122	0x3f9577ea	1.167722
123	0xbfd1fa6a	-1.6404545
124	0x3d6e40be	0.05816721
125	0xbf92f3be	-1.1480634
126	0x3fd5729b	1.66756
127	0xbedf4f4c	-0.43615186
128	0x3f6c3713	0.92271537
129	0x3d94da44	0.07268193
130	0xbe9599d7	-0.29218933
131	0xbfa705f2	-1.3048689
132	0xbfb1a431	-1.3878232
133	0x3f2d046f	0.6758489
134	0x3ed19b1c	0.40938652
135	0xbf2d9f4b	-0.67821187
136	0xbf53950d	-0.8264931
137	0xbf4b398e	-0.79384696
138	0x3fa64746	1.2990501
139	0xbe6e1354	-0.2324956
140	0xbd927d77	-0.07152837
141	0xbf2dfcce	-0.67963874
142	0x3e250386	0.16114625
143	0x3f27242b	0.6528956
144	0xbdea7d02	-0.114496246
145	0x3dac7759	0.08421201
146	0xbf64e5f6	-0.8941339
147	0xbf22970f	-0.6351175
148	0xbee1cbfe	-0.44100946
149	0xbf4a199a	-0.78945315
150	0x3ece268c	0.40263784
151	0x3f1ab7d1	0.6043673
152	0x3f24822c	0.64261127
153	0xbf4f2635	-0.80917674
154	0xbf27b9ba	-0.6551777
155	0xbfc6307c	-1.5483546
156	0xbe8870d9	-0.26648596
157	0x3f3066f7	0.6890711
158	0x3fa3bcfc	1.2792048
159	0xbfb9bdce	-1.4511049
160	0xbfa47cde	-1.2850606
161	0xbf0184ce	-0.5059327
162	0x3e08532a	0.13312975
163	0x3fc3a333	1.528418
164	0xbfa44011	-1.2832052
165	0xbf572acc	-0.8404968
166	0x3ebac22d	0.3647627
167	0x3f9ec7cc	1.2404723
168	0x3ef3ea65	0.47639766
169	0x3d295f47	0.04135063
170	0xbf1e47f3	-0.61828536
171	0xc0321701	-2.782654
172	0xbf60b081	-0.87769324
173	0xbe425ff2	-0.18981913
174	0x3e0e3c61	0.1389022
175	0x3ef33f48	0.47509217
176	0x3eb1f661	0.34758285
177	0xc02550f2	-2.5830655
178	0xbc8d8752	-0.01727644
179	0xbe13668b	-0.14394586
180	0xbe4a92a2	-0.19782498
181	0xc0740a14	-3.8131151
182	0xbfa6d958	-1.3035078
183	0x3e0aa0b8	0.13537872
184	0x3eef48b4	0.46735156
185	0xc05b6fce	-3.428699
186	0xbe3fff5f	-0.1874976
187	0xbf05438f	-0.5205621
188	0xc0963d8a	-4.695012
189	0xc035cf81	-2.84079
190	0x3f1bd419	0.6087051
191	0xbf4ed0f8	-0.8078761
192	0xbfa88caf	-1.3167933
193	0x3c241d24	0.010016713
194	0x3f8980ac	1.0742393
195	0x3f3e510f	0.74342436
196	0xc027df29	-2.6229956
197	0xbf1ebe13	-0.6200878
198	0x400286f2	2.0394864
199	0x3e9c10c7	0.3048155
200	0x3fc5c86a	1.5451787
201	0xbfc5fdea	-1.5468113
202	0xc0229447	-2.5403001
203	0xc0076c25	-2.1159756
204	0x3fa199aa	1.262502
205	0x3f981e9a	1.1884339
206	0x3f4cda34	0.8002045
207	0xbfb133a3	-1.3843883
208	0xbf33e4d2	-0.7027103
209	0x3e4d16c1	0.20028211
210	0xc0810dda	-4.032941
211	0x3e942a7a	0.28938657
212	0xbf686667	-0.90781254
213	0xbf813519	-1.0094329
214	0xbf28d599	-0.65950924
215	0x3d9ebb16	0.077505276
216	0x3fbe6717	1.487521
217	0xc03ca41b	-2.9475162
218	0x3f66dd15	0.90181094
219	0xbfb7e5c5	-1.4366995
220	0x3ff6a337	1.9268559
221	0x3f49ce05	0.78829986
222	0xbf678692	-0.90439713
223	0xbf8c73a8	-1.0972795
224	0x4004856d	2.0706437
225	0x3eb23d30	0.34812307
226	0xbf4a18e6	-0.7894424
227	0xbee63e88	-0.44969583
228	0xbbb4297f	-0.005498111
229	0x4003b36b	2.0578258
230	0xbf7f5f0b	-0.997544
231	0x3e13950f	0.1441233
232	0x3f52e153	0.8237507
233	0xbe00de39	-0.12584771
234	0xbd2fa704	-0.042883888
235	0xbefc8aa5	-0.49324527
236	0xbf40063c	-0.7500951
237	0xbfd56238	-1.6670599
238	0x3fd966e9	1.6984531
239	0xbf920928	-1.1409044
240	0x3e73cba3	0.2380815
241	0x3efe7088	0.4969523
242	0x3eca28fd	0.39484397
243	0xbea6c454	-0.3257166
244	0xbdcc1aa9	-0.099660225
245	0x3e8dfca2	0.27731806
246	0xbf77314d	-0.965596
247	0x3ea0c439	0.31399706
248	0xbec52cb7	-0.38510677
249	0x3f74987c	0.9554517
250	0x3fd404c2	1.6563952
251	0xbf80df10	-1.0068073
252	0xbe6f3fbe	-0.2336416
253	0x3f90389d	1.1267277
254	0x3f007240	0.5017433
255	0x3ffd57c6	1.9792411
