crowd_nav/RGL_our/rl_model_0.pth (torch, 143871 bytes, 33 tensors)

w_a f4 [32, 32]
0	0xbf380d72	-0.71895516
1	0x3e681a89	0.22666372
2	0x3ff2fe10	1.8983784
3	0xbff4c7ef	-1.9123515
4	0xbeab5316	-0.33461827
5	0xc01871c8	-2.3819447
6	0x3f808507	1.0040597
7	0xbf08c283	-0.534218
8	0x3f8983ae	1.074331
9	0x3eaa1455	0.33218637
10	0xbf7e4a21	-0.9933186
11	0x3edd7e1e	0.43260282
12	0xbfabc2ba	-1.3418801
13	0xc037f5eb	-2.8743846
14	0x3f47f35a	0.781057
15	0xbf6af733	-0.91783446
16	0xbecba68b	-0.397755
17	0xbff06a0f	-1.8782367
18	0x3f6b0807	0.91809124
19	0x3e8cc273	0.27492103
20	0x3fac6430	1.3468075
21	0x3e91f315	0.2850577
22	0x3fc69b9f	1.5516242
23	0xbf168bab	-0.58806866
24	0xbfa00863	-1.250256
25	0x3f61524d	0.88016206
26	0xbfd26e41	-1.6439897
27	0xbf295f83	-0.66161364
28	0xbf3626c5	-0.7115291
29	0xbee572c3	-0.4481412
30	0xbf564167	-0.83693546
31	0x4011e9f3	2.2799041
32	0x3d8a0258	0.06738728
33	0x3f27b228	0.6550622
34	0xbfa48b66	-1.2855041
35	0xbfdda234	-1.7315125
36	0x3f70eb9b	0.94109505
37	0xbd7e7a6d	-0.062128473
38	0x3f236d2c	0.6383846
39	0x3e63c002	0.22241214
40	0x3caa3fc4	0.020782359
41	0xbec3d65d	-0.38249484
42	0xbf38192a	-0.719134
43	0x3d977595	0.07395474
44	0x3eb0282b	0.34405646
45	0xc016d37d	-2.3566582
46	0xbeafe2bd	-0.34352675
47	0xbf663e93	-0.8993923
48	0x3e1f40f5	0.15552123
49	0x3ecbdcfa	0.3981703
50	0xbf5b4399	-0.8565002
51	0xbe94daa0	-0.29073048
52	0x3f67efe5	0.90600425
53	0xbfa55f67	-1.291974
54	0xbfe155c7	-1.7604302
55	0xbfd0c65b	-1.6310533
56	0x3e81ca59	0.25349692
57	0x3f75496e	0.9581517
58	0xbf9f957e	-1.2467496
59	0xbe72a2fe	-0.23694989
60	0xbdc32eec	-0.09530434
61	0x3fe19241	1.7622758
62	0x3fcf5ee2	1.6200831
63	0xbe1d7b63	-0.153791
64	0xbf53683c	-0.82580924
65	0xbfb50486	-1.4142005
66	0xbf9f9f44	-1.2470479
67	0x3e84b88e	0.25922054
68	0xbf8e9400	-1.1138916
69	0x3fa99515	1.3248621
70	0xbfacae0d	-1.3490616
71	0xbf4db45e	-0.80353343
72	0xbfcba397	-1.5909299
73	0x3f121847	0.57068294
74	0x3f547d4d	0.83003694
75	0xbf4043ef	-0.7510366
76	0xbf09195b	-0.53554314
77	0xbdc0b342	-0.09409191
78	0xbfb513f8	-1.4146719
79	0xbf23a88b	-0.6392905
80	0xbd536a08	-0.05161479
81	0x3dbb7153	0.09152474
82	0xbf8ee2be	-1.1162946
83	0x3e9147aa	0.28374988
84	0xbf02220f	-0.5083322
85	0x3ea68640	0.325243
86	0x3fa41929	1.2820178
87	0xc01b68ef	-2.4282796
88	0xbfd9b9c1	-1.7009813
89	0x3f82f20b	1.0230116
90	0xbf3e8d14	-0.7443402
91	0x3fe048e8	1.7522249
92	0x3f758b89	0.9591604
93	0xbf44eb60	-0.76921654
94	0x3fa696e6	1.30148
95	0xbe99599d	-0.29951182
96	0x3e9b9c11	0.30392507
97	0x3fb61d08	1.422761
98	0xbf326099	-0.69678646
99	0x3e4cf93b	0.20016949
100	0xbf2636ee	-0.64927566
101	0x3f2ba51a	0.670488
102	0x3fb25dfb	1.393493
103	0xbf2bec68	-0.671576
104	0xbb7021e1	-0.0036641287
105	0xbef93bff	-0.48678586
106	0x3e9c4b97	0.3052642
107	0xbf854178	-1.0410604
108	0x3e221dd5	0.15831693
109	0xbf1d5464	-0.61456895
110	0xbead43a6	-0.33840674
111	0x3f1f8aca	0.6232115
112	0xbdb289ea	-0.08717711
113	0x3effcc64	0.49960625
114	0xbdd57518	-0.104227245
115	0x3f8f4229	1.1192065
116	0xbe87324e	-0.26405567
117	0xbec014a0	-0.37515736
118	0xbfa89d09	-1.3172923
119	0x3eda6583	0.42655572
120	0x3ee4d678	0.44694877
121	0xbf47de5e	-0.7807368
122	0xbf5d4d7e	-0.8644637
123	0x3e4d8c61	0.20073082
124	0xbf4fbc94	-0.8114712
125	0x3f8af61c	1.0856357
126	0x3ed92443	0.42410478
127	0x3f1f7f76	0.62303865
128	0x3f95b664	1.1696286
129	0x3e96d92c	0.29462564
130	0xbfc78851	-1.5588475
131	0xbee94a7f	-0.45564649
132	0xbf814eb2	-1.0102141
133	0x3c75d0b5	0.015003373
134	0xbf068762	-0.5255033
135	0xbe88d17f	-0.26722333
136	0xbf0b74e7	-0.54475254
137	0x3f9d0f5a	1.227031
138	0xbdae8b22	-0.08522631
139	0xbe7ba082	-0.24572948
140	0xbfb36578	-1.4015341
141	0x3f970bd6	1.1800487
142	0x3f914ee6	1.1352203
143	0x3eb1d3d0	0.34731913
144	0x3d0747c2	0.033027418
145	0xbe6e9ed7	-0.2330278
146	0xbf6e50d3	-0.9309208
147	0x3efe7369	0.49697426
148	0xbd892d7b	-0.06698128
149	0xbe43f6fe	-0.19137189
150	0xbf47e26d	-0.78079873
151	0x3f3af7ee	0.7303456
152	0xbfbfb919	-1.4978362
153	0x3e2b5720	0.16732454
154	0xbebfeac7	-0.37483808
155	0xbdbcad50	-0.09212744
156	0xbf04ecc5	-0.5192378
157	0xbf9a4b18	-1.2054167
158	0x3e9450ae	0.28967804
159	0xbe29e0bd	-0.16589637
160	0xbe33642b	-0.1751868
161	0x3f64001f	0.89062685
162	0xbf388219	-0.72073513
163	0xbf2d898d	-0.6778801
164	0x3eb6a85d	0.35675326
165	0xbf2751c5	-0.65359145
166	0x3f73810a	0.95118773
167	0x3eba7cbe	0.36423296
168	0x3f2c70b7	0.6735949
169	0x3e8166f0	0.25273848
170	0xbecb341a	-0.39688188
171	0x3f136656	0.5757803
172	0xbfce269d	-1.6105534
173	0xbeb4a6d2	-0.35283524
174	0xbdf3a8e2	-0.11897446
175	0xbdcc2e0c	-0.0996972
176	0x3e007841	0.12545873
177	0x3fa5c9cc	1.2952209
178	0x3e99250d	0.2991108
179	0xbf121b0e	-0.5707253
180	0xbeea5e1d	-0.45774928
181	0x3f2eb40a	0.6824347
182	0x3fcd2562	1.6027033
183	0x3dfcc038	0.1234135
184	0xbc86bc39	-0.016447173
185	0x3f8011e4	1.000546
186	0xbea366d6	-0.31914395
187	0x3f12f353	0.57402533
188	0xbf8015fa	-1.0006707
189	0xbf16f4eb	-0.58967465
190	0x3fc3cedd	1.5297505
191	0x3f0f8035	0.56055003
192	0xbf389f0f	-0.72117704
193	0xbf76cc1f	-0.96405214
194	0xbfddd175	-1.7329546
195	0x3f4252b7	0.7590746
196	0xbf0f0598	-0.5586791
197	0x3f79b7bd	0.9754599
198	0x3e020268	0.1269623
199	0x3e96a657	0.29423782
200	0x3f16857c	0.5879743
201	0xbecec76b	-0.4038652
202	0xbdd1d83e	-0.10246323
203	0x3f6d2266	0.9263061
204	0xbf06828b	-0.5254294
205	0xbfb582cc	-1.4180541
206	0x3f8b95ee	1.090513
207	0x3f8bb9b5	1.0916048
208	0xbfa73b52	-1.3064978
209	0xbec46bc0	-0.38363457
210	0x3e6ffc37	0.23436056
211	0xbe43e9f5	-0.19132216
212	0xbfe27519	-1.7691985
213	0xbdf8f7e1	-0.12156654
214	0x3f4d054b	0.800862
215	0x3f56c21f	0.83889955
216	0xbcae79fd	-0.021298403
217	0xc0435215	-3.051885
218	0xbf363dfd	-0.71188337
219	0xbea49241	-0.32142833
220	0x3ea7be9b	0.32762608
221	0x3f44e832	0.769168
222	0xbff9b59a	-1.9508545
223	0xbfc6de69	-1.5536624
224	0xbeaa5587	-0.33268377
225	0x3f9069ef	1.1282328
226	0xbf6d6c91	-0.92743784
227	0xbe2ad6f9	-0.16683568
228	0x3e844330	0.2583251
229	0x3f3c3083	0.73511523
230	0xbedd4c04	-0.43222058
231	0x3f9e6a49	1.2376186
232	0xbf485a37	-0.78262657
233	0x3f8cc2db	1.0996965
234	0xbfd95163	-1.6977962
235	0xbe1171df	-0.14203595
236	0xbf09b0de	-0.537855
237	0xbe8fd417	-0.280915
238	0xbe47a282	-0.19495586
239	0xbecf3ec9	-0.4047759
240	0xbdd44746	-0.10365157
241	0xbf4cbba8	-0.7997384
242	0xbdc3aa7a	-0.09554
243	0xbebc2b57	-0.36751816
244	0x3d4155de	0.04720103
245	0x3fa3e16c	1.2803168
246	0xbdc070e0	-0.09396529
247	0xbfeb6971	-1.8391553
248	0xbfd716a6	-1.6803787
249	0xbf6903d5	-0.9102147
250	0xbf9f463c	-1.2443309
251	0x401e7db1	2.4764216
252	0xbf898ace	-1.0745485
253	0xbdab35e5	-0.08359889
254	0x3f041162	0.51589024
255	0x4013081c	2.29737

w_r.0.weight f4 [64, 9]
0	0xbe4f1af9	-0.20225133
1	0xbe067a23	-0.13132529
2	0x3f5ea68a	0.8697287
3	0xbf28b0f5	-0.65895015
4	0xbea0a88e	-0.31378597
5	0x3d06e260	0.03293073
6	0xbe0fc804	-0.14041144
7	0xbcfff0c4	-0.031242736
8	0xbcad3e2b	-0.021147808
9	0xbe9ad2dd	-0.30239
10	0xbf057bec	-0.52142215
11	0xbee1b4b1	-0.4408317
12	0xbeb3e8b0	-0.35138464
13	0xbe521636	-0.20516285
14	0xbdc6dfdb	-0.09710666
15	0xbeadd6ee	-0.3395304
16	0xbef83269	-0.4847596
17	0xbe755fd3	-0.23962335
18	0x3e97fd4b	0.29685435
19	0xbd100c98	-0.03516826
20	0xbfa03538	-1.2516241
21	0x3e20575d	0.15658326
22	0xbdaf87f0	-0.0857085
23	0xbea18102	-0.31543738
24	0xbe61be66	-0.22045287
25	0x3e309dd9	0.17247714
26	0x3d6bdc40	0.057583094
27	0xbeaba372	-0.33523136
28	0xbe66e755	-0.22549184
29	0x3eacb292	0.33729988
30	0xbf6ba71d	-0.9205187
31	0x3e55782e	0.20846626
32	0xbe2bcadb	-0.16776602
33	0xbd516f40	-0.051131487
34	0x3e8abc28	0.27096677
35	0x3e0cd9d8	0.13754976
36	0x3c0c68c2	0.008569898
37	0xbb7cdf57	-0.003858527
38	0xbc98680c	-0.0186043
39	0xbe6ec742	-0.23318198
40	0xbe40a8f0	-0.18814445
41	0xbe1a7550	-0.15083814
42	0xbad503b7	-0.0016251717
43	0xbe93bea3	-0.28856382
44	0xbd98b826	-0.074569985
45	0x3e15a0bf	0.14612101
46	0x3ead5a3c	0.33857906
47	0x3ba61c4a	0.0050692903
48	0xbdd1c3d1	-0.10242427
49	0x3d53f8cb	0.05175094
50	0x3e67b330	0.22626948
51	0x3e8d0381	0.27541736
52	0x3d4e5dd6	0.050382458
53	0xbe1a26be	-0.15053841
54	0xbe89f30b	-0.2694324
55	0x3dd145b0	0.1021837
56	0x3ef0d8a8	0.47040296
57	0xbe8e201f	-0.2775888
58	0x3e637e9e	0.2221627
59	0xbe54eb18	-0.20792806
60	0x3e565343	0.209302
61	0xbe7f6334	-0.24940187
62	0x3e60b59b	0.21944277
63	0xbe4f5e64	-0.20250851
64	0x3db9a1ca	0.09064062
65	0xbf86fd73	-1.0546097
66	0xbf1023c1	-0.56304556
67	0xbe39f986	-0.18161592
68	0x3c567700	0.013089895
69	0xbe781e39	-0.24230279
70	0x3dbb7787	0.091536574
71	0x3dbb7f2b	0.09155115
72	0x3e990b50	0.29891443
73	0xbef823c1	-0.48464778
74	0x3e95d642	0.29265028
75	0xbf44e6b7	-0.7691454
76	0x3e8f041b	0.2793282
77	0x3deea7c6	0.11653094
78	0xbe32c7b0	-0.17458987
79	0xbec09832	-0.37616116
80	0xbe88597b	-0.26630768
81	0x3e09bb6e	0.13450405
82	0xbc981609	-0.018565195
83	0x3f2caf5f	0.67455095
84	0x3e7a367d	0.24434848
85	0xbda906f0	-0.08253276
86	0x3e2f28de	0.17105433
87	0x3d86f0a3	0.065888666
88	0xbef22292	-0.47292
89	0x3e36866b	0.17824714
90	0x3c9326e0	0.017962873
91	0x3b9c76bc	0.0047748964
92	0xbe5f60cb	-0.21814267
93	0x3cf98f59	0.030463861
94	0xbe0f4c38	-0.13993919
95	0xbd3b772b	-0.045767944
96	0x3cc02239	0.023453819
97	0xbee6bf0a	-0.45067626
98	0x3c8d0aeb	0.01721712
99	0x3d22d997	0.03975829
100	0xbb2e225e	-0.0026570777
101	0xbc0eb06d	-0.008709055
102	0xbe1141da	-0.14185277
103	0xbea4c12a	-0.32178622
104	0x3e94c6ea	0.2905801
105	0xbe0e58b3	-0.13901024
106	0xbd50dce9	-0.050991926
107	0x3e3f9b23	0.18711524
108	0xbe4c7614	-0.19966918
109	0xbe89e95b	-0.2693585
110	0x3d8d7fb3	0.06909122
111	0xbe0da49c	-0.13832325
112	0xbd965470	-0.07340324
113	0xbe431cf8	-0.1905402
114	0xbeb257e3	-0.34832677
115	0x3e0e321c	0.13886303
116	0x3e5a5040	0.21319675
117	0xbe8c6e0b	-0.27427706
118	0x3dbccd64	0.09218863
119	0xbf6b044d	-0.9180344
120	0x3d71a1bd	0.058992136
121	0x3e092c86	0.1339589
122	0xbe015ea8	-0.12633765
123	0xbeb5d4e4	-0.35513985
124	0xbe07906e	-0.1323869
125	0x3e31240b	0.17298906
126	0x3da7cb5a	0.08193083
127	0xbe0295fe	-0.1275253
128	0xbf18cff3	-0.59692305
129	0xbeb372e2	-0.35048586
130	0xbea4721e	-0.32118315
131	0xbe62984b	-0.22128408
132	0x3d381405	0.044940967
133	0xbebdf2f1	-0.37099412
134	0x3dd60520	0.10450196
135	0x3ea72388	0.32644296
136	0xbe808bfb	-0.25106797
137	0xbf05a728	-0.52208185
138	0xbf40b779	-0.7527996
139	0x3db2db26	0.087332055
140	0xbe89d68f	-0.26921508
141	0xbecae23a	-0.39625722
142	0xbe971f49	-0.29516056
143	0x3dbe2366	0.092840955
144	0xbe2c3008	-0.16815197
145	0x3e1c45b5	0.15260966
146	0x3e6427fd	0.2228088
147	0xbf03aa8b	-0.514321
148	0xbe5a4218	-0.21314275
149	0xbb484756	-0.0030560098
150	0x3d7bd235	0.061479766
151	0xbd3d238f	-0.04617649
152	0x3e40ba10	0.18820977
153	0xbed2e6c5	-0.41191688
154	0x3de06c4e	0.109581575
155	0xbe29df2c	-0.1658904
156	0x3ed62474	0.41824687
157	0x3e5533d8	0.20820558
158	0xbd23d700	-0.03999996
159	0xbdab7c47	-0.083733134
160	0xbe30127e	-0.17194554
161	0xbe991e42	-0.29905897
162	0x3ee1e4b9	0.44119814
163	0x3eee99a2	0.46601588
164	0x3ea11aef	0.3146586
165	0x3ec4db98	0.38448787
166	0xbd6370e0	-0.055527568
167	0xbe9c2ffa	-0.30505353
168	0xbec6a4e9	-0.3879769
169	0xbedbdf08	-0.42943597
170	0x3e6bca78	0.23026454
171	0xbe957f34	-0.2919861
172	0xbe69e634	-0.22841722
173	0xbe078a32	-0.13236311
174	0xbf8ca222	-1.0986979
175	0xbe9eac0a	-0.3099063
176	0x3e6aef76	0.2294291
177	0xbeb9ed0a	-0.3631366
178	0x3def617c	0.116885155
179	0xbc866feb	-0.016410789
180	0xbf288f35	-0.65843517
181	0xbee3b323	-0.44472608
182	0x3d344691	0.04401261
183	0x3dd36304	0.1032162
184	0x3e92ac47	0.28647062
185	0xbd3097c0	-0.04311347
186	0xbe9eef3a	-0.3104189
187	0xbe8730a6	-0.26404303
188	0x3c8759eb	0.016522368
189	0x3e9d8d78	0.30771995
190	0x3ddac3b6	0.1068186
191	0x3ec4fa69	0.38472298
192	0x3efa173a	0.48845845
193	0xbe0525eb	-0.13002746
194	0x3d08dc6b	0.033413332
195	0xbd4e6db1	-0.05039758
196	0xbe2378f0	-0.15964103
197	0x3e8c943a	0.27456838
198	0x3e9b26df	0.30303094
199	0x3da3d81f	0.08000206
200	0x3f06dd83	0.5268175
201	0xbe6e7717	-0.23287617
202	0x3e2697c3	0.1626883
203	0x3ea129f4	0.3147732
204	0x3df556d7	0.11979454
205	0xbb49fdc4	-0.0030821422
206	0x3e128413	0.14308195
207	0x3cc8b432	0.024499986
208	0x3a5cb7ef	0.0008419742
209	0xbd42c41d	-0.04755031
210	0x3d6113b7	0.054950442
211	0xbd7f37f6	-0.062309228
212	0x3d2bce56	0.041944824
213	0x3d04030d	0.032229472
214	0xbe847665	-0.25871578
215	0x3e6b82d0	0.2299912
216	0x3d6c8ee9	0.057753477
217	0x3eb341e9	0.35011223
218	0x3f32cd80	0.6984482
219	0x3f2791b9	0.6545673
220	0xbe357403	-0.17720036
221	0xbc44842b	-0.011994402
222	0xbeb799a1	-0.35859397
223	0x3cf57eaf	0.029967634
224	0xbc9acfd6	-0.018897932
225	0xbea6db0a	-0.3258899
226	0xbe45b1d7	-0.19306122
227	0xbf43a7ca	-0.764279
228	0x3f19170c	0.5980079
229	0xbea6ede4	-0.3260337
230	0xbe139028	-0.1441046
231	0xbeb7ccb0	-0.35898352
232	0xbe8f556b	-0.27994856
233	0xbe801237	-0.25013897
234	0x3f08ff41	0.53514487
235	0xbe09dc1f	-0.13462876
236	0xbf07f1f8	-0.5310359
237	0x3ef2268c	0.47295034
238	0xbce916c0	-0.02845323
239	0xbd4bdb40	-0.04976964
240	0xbd4b0bb3	-0.049571704
241	0xbe8d88b1	-0.2764335
242	0xbd3b7896	-0.045769297
243	0xbe877d92	-0.2646299
244	0xbe8ce21a	-0.27516252
245	0xbf175b69	-0.59123856
246	0x3f0ccf40	0.5500374
247	0x3ea27604	0.31730664
248	0xbcc40f00	-0.023932934
249	0xbe95af1d	-0.29235163
250	0xbd7486ef	-0.059698995
251	0xbd86291b	-0.06550809
252	0x3d737256	0.05943521
253	0xbe160b37	-0.14652716
254	0xbf7132d1	-0.94218165
255	0xbc679cef	-0.014136537

w_r.0.bias f4 [64]
0	0x3e3a4f26	0.18194255
1	0xbe9a862f	-0.301805
2	0xbc9d2eaa	-0.01918729
3	0xbd7d1dd8	-0.06179604
4	0xbc2bdc30	-0.0104895085
5	0x3e585b35	0.21128543
6	0xbe6aaae1	-0.22916748
7	0xbd8132d1	-0.063085206
8	0xbde8b4d3	-0.113626145
9	0x3d0974b1	0.03355855
10	0xbd9f158d	-0.07767782
11	0xbc74c1d9	-0.014938795
12	0xbe67b523	-0.22627692
13	0xbe70f923	-0.23532538
14	0xbbf01158	-0.0073262863
15	0xbdbf3a30	-0.0933727
16	0x3d113f54	0.035460785
17	0xbec1ded3	-0.37865314
18	0x3daa4a4c	0.08314952
19	0xbea6ff49	-0.32616642
20	0xbe9368bc	-0.28790843
21	0xbea9291a	-0.3303917
22	0xbe909ef2	-0.28246266
23	0xbe49b8b9	-0.19699372
24	0xbd0a4e1c	-0.033765897
25	0x3dce9915	0.10087792
26	0xbee1a6e8	-0.44072652
27	0x3e80abcb	0.25131068
28	0x3e0d3671	0.13790299
29	0xbdb08b43	-0.08620312
30	0x3e2f456a	0.17116323
31	0x3d12611c	0.035737142
32	0xbda74d3a	-0.08169027
33	0xbec63742	-0.38714033
34	0x3d8a05df	0.06739401
35	0x3d25a571	0.04044098
36	0xbebecd9f	-0.3726625
37	0x3ea63964	0.3246566
38	0x3e572277	0.21009241
39	0xbeca887c	-0.39557254
40	0xbd9529db	-0.07283374
41	0xbe2ad395	-0.16682275
42	0xbe8db13d	-0.27674285
43	0xbeb92c59	-0.36166647
44	0x3c420948	0.011843033
45	0xbe7641f5	-0.24048598
46	0xbe173eaf	-0.14770006
47	0xbea9bcea	-0.33151942
48	0xbeccc139	-0.39991167
49	0xbc268c28	-0.010165252
50	0xbea7478a	-0.32671767
51	0x3ca19525	0.019724438
52	0xbe1a012e	-0.15039513
53	0xbd76a087	-0.060211685
54	0xbe33647b	-0.17518799
55	0xbdfd53cc	-0.123694986
56	0x3d126d76	0.03574892
57	0xbeb95beb	-0.3620294
58	0xbd0548a7	-0.03253999
59	0xbe30f612	-0.17281368
60	0xbe989d5b	-0.29807553
61	0xbede0202	-0.43360907
62	0xbea67538	-0.32511306
63	0xbe9f9ee8	-0.31175923

w_r.2.weight f4 [32, 64]
0	0x3edc5727	0.43035242
1	0xbd55623a	-0.05209563
2	0xbd79cf6f	-0.06098884
3	0xbdc9c830	-0.09852636
4	0x3cafbca1	0.02145225
5	0x3ea2c7ae	0.3179297
6	0xbf37c432	-0.71783745
7	0xbe8339d8	-0.2563007
8	0xbf753b76	-0.95793855
9	0xbd297074	-0.04136701
10	0x3c2c6ad6	0.010523519
11	0xbdf5da24	-0.12004498
12	0xbe35e3af	-0.17762636
13	0xba5c510d	-0.00084044115
14	0x3d31028e	0.043215327
15	0xbe031fb3	-0.12805061
16	0xbe831cb8	-0.25607848
17	0x3dbb4974	0.091448694
18	0xbe09461f	-0.13405655
19	0xbf01e35c	-0.5073755
20	0xbea3e8bc	-0.320135
21	0x3d614376	0.054995976
22	0x3e9be889	0.30450848
23	0x3dded7e2	0.1088102
24	0x3db38de8	0.08767301
25	0xbe8ba705	-0.27275863
26	0xbe07a0ff	-0.13245009
27	0x3d8e3139	0.06942982
28	0x3e9afbc9	0.30270222
29	0x3dd7b3fa	0.10532375
30	0x3e58425a	0.21119061
31	0xbeb3620a	-0.35035735
32	0xbd8f5435	-0.06998483
33	0x3e1699d4	0.14707118
34	0x3e0b2c0d	0.13591023
35	0xbe3d4f14	-0.18487197
36	0x3da6adab	0.08138593
37	0xbf9d98c8	-1.231225
38	0xbee90a1f	-0.45515534
39	0x3e505c56	0.20347723
40	0xbe0d7c26	-0.1381689
41	0x3d63522b	0.055498283
42	0x3c5006c0	0.012696922
43	0xbe12efbe	-0.14349267
44	0x3eb2e138	0.34937453
45	0xbd06ea55	-0.03293832
46	0xbd9d2647	-0.076733164
47	0xbdee12f4	-0.11624709
48	0xbeb29d12	-0.3488546
49	0xbdf4a504	-0.11945537
50	0xbd270fed	-0.040786672
51	0xbe30e5a0	-0.17275095
52	0xbd0b192c	-0.033959553
53	0xbeac6da7	-0.33677408
54	0x3c545d09	0.012961634
55	0xbf4ced46	-0.8004955
56	0x3be4b958	0.0069801025
57	0x3d9dd3e4	0.077064306
58	0x3e71fad4	0.2363084
59	0x3d8ded25	0.06929997
60	0xbd4cc08f	-0.049988326
61	0x3d29decd	0.041472245
62	0xbfa29f33	-1.2704834
63	0xbd2cf178	-0.04222247
64	0xbd88fd71	-0.06688965
65	0x3e6bc5d6	0.23024687
66	0x3dc69e93	0.096982144
67	0xbd9ede35	-0.077572264
68	0x3cb3a9a8	0.021931484
69	0x3e3823db	0.17982428
70	0xbe194395	-0.14967187
71	0xbd83a4b6	-0.064279005
72	0xbd17fe68	-0.037107855
73	0xbdae2aa3	-0.08504226
74	0x3cd741af	0.026276438
75	0xb9f2a111	-0.0004627784
76	0xbdd710f4	-0.105012804
77	0x3d44e035	0.048065383
78	0xbc80a408	-0.015703216
79	0x3b4bd7d3	0.0031103983
80	0x3ce5a727	0.028033806
81	0x3d873d0a	0.06603439
82	0xbece32c9	-0.4027312
83	0xbe04bb26	-0.12962016
84	0xbc4410bf	-0.011966883
85	0x3c320ae5	0.010866855
86	0x3e10b56d	0.14131708
87	0x3c237196	0.0099758115
88	0x3e5fd7d8	0.21859682
89	0xbc669832	-0.014074372
90	0xbe308451	-0.17237975
91	0xbcd8fe0e	-0.02648833
92	0xbd93ddd6	-0.07220046
93	0x3e21ebeb	0.15812652
94	0x3d5166dc	0.051123485
95	0xbd2b3517	-0.041798677
96	0xbe6a2aa6	-0.22867832
97	0x3e5a9a11	0.21347834
98	0xbc67e450	-0.014153555
99	0x3eb70eac	0.3575338
100	0x3e53aa1f	0.20670365
101	0xbe45fd5c	-0.1933493
102	0x3e2f3368	0.17109454
103	0x3d47f004	0.04881288
104	0xbd38c68a	-0.045111217
105	0x3d833d47	0.06408172
106	0xbc157bd9	-0.009123766
107	0x3d3896b5	0.0450656
108	0x3da8ef38	0.08248752
109	0xbd4d036d	-0.050052095
110	0x3d3a65e8	0.04550734
111	0xbb1cf81f	-0.0023951603
112	0xbd80ab1d	-0.06282637
113	0xbe5a6bb5	-0.2133015
114	0xbca45e2c	-0.020064436
115	0x3e600338	0.21876228
116	0x3d0a8f4f	0.033828076
117	0xbb5b3b39	-0.0033452048
118	0xbd970018	-0.07373065
119	0x3e6c537c	0.23078722
120	0xbd2f0f3b	-0.042739134
121	0xbd290f5a	-0.041274406
122	0x3cfbea38	0.030751333
123	0xbe09c807	-0.1345521
124	0x3e9c4d33	0.30527648
125	0xbe441c20	-0.19151354
126	0xbe91bef9	-0.28466013
127	0x3ce46674	0.027880885
128	0x3e8dd7c1	0.2770367
129	0x3e7e6aeb	0.24845473
130	0xbe76346a	-0.24043432
131	0x3ecb7b48	0.39742494
132	0xbd228719	-0.03967962
133	0xbebf85d2	-0.37406784
134	0xbca01a27	-0.01954372
135	0x3f00c53f	0.50300974
136	0x3e1c24a6	0.15248355
137	0x3e04d7c6	0.12972936
138	0xbbd0efbe	-0.0063762357
139	0x3cfcd38d	0.030862594
140	0x3eba8a04	0.36433423
141	0x3ed86313	0.42263088
142	0x3d994ee9	0.07485754
143	0x3eb42332	0.35183102
144	0xbe216032	-0.15759352
145	0xbe964533	-0.2934967
146	0xbe341314	-0.17585403
147	0xbcad72c4	-0.021172889
148	0xbe33719b	-0.17523806
149	0xbd2d5248	-0.042314798
150	0xbee8f744	-0.4550115
151	0xbee348c2	-0.44391447
152	0xbcd616fa	-0.026134003
153	0x3e7fc96a	0.24979177
154	0xbe87d668	-0.26530766
155	0x3e6fed87	0.23430453
156	0x3e26755c	0.16255707
157	0xbd575ddd	-0.05257975
158	0xbea1fff7	-0.31640598
159	0x3e333b75	0.1750315
160	0xbea9f4d8	-0.33194613
161	0xbf073e6b	-0.5282962
162	0x3ca57c19	0.020200776
163	0x3dce1a00	0.10063553
164	0xbea876e2	-0.329032
165	0x3e3efd55	0.18651326
166	0xbebd57ff	-0.36981198
167	0x3e98f5a8	0.2987492
168	0x3d46e9f8	0.048562974
169	0xbe612e00	-0.21990204
170	0xbda2e44a	-0.07953699
171	0xbe71ccb5	-0.23613246
172	0xbf008ea5	-0.5021766
173	0x3db7dfa1	0.08978201
174	0xbeaf6fa2	-0.34264857
175	0xbe2a87ac	-0.16653317
176	0x3f291ace	0.66056526
177	0xbd6a0b2a	-0.057139553
178	0x3c8e759d	0.017390067
179	0x3eb3dd5c	0.3512982
180	0x3cef9ebb	0.029250493
181	0x3d52021d	0.051271547
182	0xbd90c6d8	-0.070691764
183	0xbf1e6323	-0.6187002
184	0x3c6861d3	0.014183479
185	0x3dd2fa80	0.10301685
186	0x3d87a7ac	0.06623778
187	0xbbf7b819	-0.007559788
188	0xbf91eb2d	-1.1399895
189	0xbf08cd8c	-0.5343864
190	0xbedd42ae	-0.43214935
191	0xbd0b07bb	-0.03394292
192	0xbd8fe04d	-0.07025204
193	0x3e93ce3d	0.28868285
194	0xbe3d931e	-0.18513152
195	0xbeac50b2	-0.33655316
196	0xbdddff0a	-0.108396605
197	0xbd3c6e40	-0.04600358
198	0xbece4992	-0.40290505
199	0xbe07c4f1	-0.13258721
200	0x3e2de9dd	0.16983743
201	0xbe233ea2	-0.15941861
202	0x3d88b85b	0.06675788
203	0xbe0a73ed	-0.13520785
204	0x3d221896	0.03957423
205	0xbde6435f	-0.11243319
206	0xbe60a993	-0.21939687
207	0xbdc6fb31	-0.0971588
208	0xbd5cf22a	-0.053941883
209	0x3d193493	0.037403654
210	0xbe291083	-0.16510205
211	0x3eb23e59	0.34813192
212	0xbeab2c9b	-0.3343247
213	0x3e719706	0.23592767
214	0xbebc59da	-0.367873
215	0xbdbe1a11	-0.092823155
216	0xbdfc146b	-0.12308582
217	0xbdbab16c	-0.09115872
218	0xbd6374c1	-0.055531267
219	0xbdcc06f2	-0.09962262
220	0x3e5e635b	0.21717589
221	0xbe8e331f	-0.27773377
222	0xbe913bb1	-0.28365853
223	0xbc7da94d	-0.015482259
224	0xbd826d69	-0.063685246
225	0xbeb6a729	-0.35674408
226	0xbdddfac9	-0.10838849
227	0x3d7c8753	0.061652493
228	0x3d357f36	0.04431077
229	0xbdf8f929	-0.121568985
230	0x3ded9830	0.11601293
231	0x3df73b93	0.1207191
232	0xbe109908	-0.14120877
233	0xbe0039f9	-0.12522115
234	0x3c2e8836	0.010652592
235	0xbe55dcfe	-0.20885083
236	0xbe3856e5	-0.18001898
237	0x3dc80685	0.097668685
238	0x3b706887	0.0036683397
239	0xbdc98e1d	-0.09841559
240	0xbd846cf5	-0.064660944
241	0xbe0cc349	-0.1374637
242	0xbe2b00d1	-0.1669953
243	0xbeea9b02	-0.45821387
244	0xbe54be78	-0.20775783
245	0xbe817f37	-0.2529237
246	0x3e0d3b01	0.1379204
247	0xbc88708c	-0.016655229
248	0x3d092518	0.03348264
249	0x3e306653	0.17226534
250	0xbe613ec4	-0.219966
251	0xbb80bec0	-0.003928989
252	0x3c58c491	0.013230459
253	0xbd8d480a	-0.06898506
254	0x3e089a77	0.13340174
255	0x3d6df73c	0.05809711

w_r.2.bias f4 [32]
0	0xbeb6749e	-0.35635847
1	0x3e7aad87	0.24480258
2	0x3ddb6b15	0.10713784
3	0xbd8a118f	-0.0674163
4	0xbcc723d8	-0.024309084
5	0xbe3d6c81	-0.18498422
6	0x3d0b54a3	0.034016263
7	0xbdaff52b	-0.08591684
8	0xbd489fb0	-0.048980415
9	0xbd6c3faf	-0.05767792
10	0x3ecadd7f	0.39622113
11	0xbe89dc70	-0.26925993
12	0xbc98ec7b	-0.01866745
13	0xbedaae24	-0.42710984
14	0x3d7c0ecb	0.061537545
15	0xbdf77a7d	-0.1208391
16	0xbe218531	-0.15773465
17	0xbe1bef64	-0.15228039
18	0x3ec56892	0.38556343
19	0x3dfdc719	0.123914905
20	0x3d369697	0.044577207
21	0x3ca2c0d0	0.01986733
22	0xbd1a7d16	-0.037716947
23	0xbe12fa12	-0.14353207
24	0xbe07390d	-0.13205357
25	0x3e8eb3f3	0.27871665
26	0xbe060856	-0.13089117
27	0xbd30c2ea	-0.043154635
28	0x3edc437d	0.4302024
29	0xbd257456	-0.04039415
30	0x3e3f0b31	0.18656613
31	0x3d3cef2a	0.046126522

w_h.0.weight f4 [64, 5]
0	0xbc7fa9bc	-0.015604433
1	0xbdfb8acc	-0.12282333
2	0xbf39d831	-0.72595507
3	0xbf03f226	-0.51541364
4	0xbeb4c9d1	-0.35310224
5	0x3df60363	0.12012365
6	0x3dde0477	0.10840695
7	0xbecf56b4	-0.40495837
8	0x3f150157	0.5820517
9	0xbe6677b9	-0.22506608
10	0xbbea32a0	-0.0071471483
11	0xbe6f070b	-0.2334253
12	0xbe827ee5	-0.25487438
13	0xbcce3d9d	-0.025175864
14	0xbd0386e3	-0.03211106
15	0xbd89e599	-0.067332454
16	0x3d6bc693	0.057562422
17	0xbebab163	-0.3646346
18	0xbeb8c19c	-0.36085212
19	0x3f4c0aad	0.7970379
20	0xbe56bd36	-0.20970616
21	0xbe118188	-0.14209569
22	0x3e8875b7	0.2665231
23	0x3f74376f	0.95397085
24	0xbf1f867c	-0.6231458
25	0xbdaa835d	-0.08325837
26	0xbd8c545c	-0.06852028
27	0xbe8df7d3	-0.27728137
28	0x3e6c0103	0.23047261
29	0x3ed5569c	0.4166764
30	0xbee137d0	-0.43987894
31	0x3e0c78fe	0.1371803
32	0xbf725164	-0.9465544
33	0xbe1ba1fd	-0.15198512
34	0xbf5738eb	-0.84071225
35	0xbe284a2e	-0.16434547
36	0xbd8f3267	-0.06992035
37	0xbe09379a	-0.13400117
38	0xbb9d202e	-0.004795096
39	0xbd323912	-0.043511458
40	0xbe6e184f	-0.2325146
41	0x3d953ef6	0.072873995
42	0x3e5028c3	0.2032805
43	0xbf34c74f	-0.7061662
44	0x3e9ead7a	0.30991727
45	0x3a9ab1b6	0.001180223
46	0xbc11af6c	-0.0088919215
47	0x3d3eae7d	0.046553124
48	0x3ce3fd2f	0.027830688
49	0xbe4531c5	-0.19257267
50	0x3e310517	0.17287098
51	0xbdaae29f	-0.08344006
52	0xbdb35d77	-0.087580614
53	0xbc403ca7	-0.011733211
54	0xbefc1a0d	-0.49238625
55	0xbe58114d	-0.2110035
56	0xbb3717c5	-0.0027937752
57	0xbf0ddb8f	-0.55413145
58	0xbf31b53f	-0.69417185
59	0xbe4b2207	-0.19837199
60	0xbc87e468	-0.016588405
61	0x3deeff9a	0.11669846
62	0x3dfdbcf6	0.12389557
63	0x3e8cb328	0.27480435
64	0x3eb4a80f	0.3528447
65	0xbcac219a	-0.021012116
66	0xbd1685aa	-0.036748566
67	0x3e8877ae	0.26653808
68	0x3d8c32d8	0.06845635
69	0xbfc754ae	-1.5572717
70	0xbdb895a4	-0.09012917
71	0xbe0a8f1f	-0.13531159
72	0xbc6b4671	-0.014360056
73	0xbcc0538d	-0.02347734
74	0xbf37e7fe	-0.71838367
75	0xbe4033b0	-0.18769717
76	0xbda8ab11	-0.08235753
77	0x3d7a489c	0.061104402
78	0xbe99968a	-0.29997665
79	0x3e540662	0.2070556
80	0xbe826105	-0.25464645
81	0x3e9aba6e	0.3022036
82	0x3ed5fb61	0.4179335
83	0x3ecea567	0.40360567
84	0xbe953b25	-0.29146686
85	0xbe1e1d79	-0.1544093
86	0xbe31858f	-0.17336105
87	0xbf672809	-0.90295464
88	0xbee25957	-0.44208786
89	0x3d86e0e5	0.06585864
90	0x3d57fda4	0.052732125
91	0x3dd19fae	0.102355346
92	0xbc93818a	-0.018006105
93	0x3fa0e7e1	1.2570764
94	0x3e2dd282	0.16974834
95	0xbe550242	-0.20801643
96	0xba98b8eb	-0.001165179
97	0x3e7f96b4	0.24959832
98	0xbf0c4e85	-0.5480731
99	0xbd1eb467	-0.038746264
100	0xbec80255	-0.3906428
101	0x3e8923d5	0.2678515
102	0xbe6f833c	-0.23389906
103	0x3ef0f10c	0.47058904
104	0xbf200746	-0.625111
105	0xbd82be68	-0.06383973
106	0xbdb004a0	-0.08594632
107	0x3ef3d2fa	0.476219
108	0x3e51c25a	0.20484295
109	0xbf4deccd	-0.80439454
110	0x3ecd53bf	0.40102956
111	0x3e580afc	0.2109794
112	0xbf4da9f8	-0.80337477
113	0x3ed3b1e2	0.4134665
114	0xbf04f6c4	-0.51939034
115	0xbe71d4dd	-0.23616357
116	0xbdd05cb6	-0.10173933
117	0x3f99c1e5	1.2012297
118	0xbd874b49	-0.066061564
119	0x3f18dd80	0.5971298
120	0x3e48c6b0	0.19607043
121	0xbdaed2de	-0.085363135
122	0x3fa40c5d	1.2816273
123	0xbd723001	-0.05912781
124	0x3c62559e	0.013814358
125	0xba77812f	-0.0009441552
126	0xbbf4a39b	-0.0074657924
127	0xbe8e9fda	-0.27856332
128	0x3d423dd5	0.04742225
129	0xbf5832b3	-0.8445236
130	0x3981ab24	0.00024732307
131	0x393a81ee	0.00017786745
132	0x3d5b8f8b	0.05360369
133	0xbc067a65	-0.008207892
134	0xbeb2e9cb	-0.34943995
135	0xbeb0987b	-0.34491333
136	0xbed7cd0b	-0.42148623
137	0xbe4149dc	-0.18875831
138	0xbf6b50ef	-0.9192037
139	0xbf0474b1	-0.51740557
140	0xbe0d3598	-0.13789976
141	0x3e325135	0.1741379
142	0x3dd872e8	0.10568792
143	0xbe2f5f2d	-0.1712615
144	0xbee45df4	-0.4460293
145	0xbcc71934	-0.02430401
146	0xbe3f5a48	-0.18686783
147	0x3dc3459b	0.095347606
148	0x3cc8164f	0.0244247
149	0xbef7bfc9	-0.48388508
150	0xbd11dc02	-0.035610206
151	0x3d81a8dd	0.06331036
152	0xbdc96452	-0.09833588
153	0xbf21527a	-0.63016474
154	0x3e980a41	0.29695323
155	0x3d991ce7	0.07476216
156	0xbe073fa1	-0.13207866
157	0x3e8039e0	0.25044155
158	0xbf44f79c	-0.7694032
159	0x3eb6a711	0.35674337
160	0x3db61044	0.08889821
161	0xbe0ad53b	-0.13557903
162	0x3e9d4fc5	0.30724922
163	0xbf14304b	-0.5788619
164	0x3e1dd7c9	0.15414347
165	0x3e7078c1	0.23483564
166	0x3db712af	0.089391105
167	0x3f5f3e11	0.8720408
168	0x3f322bb6	0.6959795
169	0x3f0ce336	0.55034196
170	0xbeb392ae	-0.35072845
171	0x3d74c561	0.059758548
172	0x3f853045	1.0405356
173	0xbf743094	-0.95386624
174	0xbdf2c7b3	-0.11854496
175	0xbe7e474e	-0.24831888
176	0xbc86bbeb	-0.016447028
177	0x3ea04fd7	0.31310913
178	0x3f111feb	0.5668933
179	0x3df8b559	0.12143964
180	0xbe9fb6f0	-0.31194258
181	0xbeb73466	-0.35782164
182	0xbf1dcedc	-0.6164377
183	0x3efa6176	0.48902482
184	0x3e4c9aea	0.1998097
185	0xbe8aec90	-0.27133608
186	0xbeba3bbd	-0.36373702
187	0x3e901479	0.2814062
188	0xbd92bf78	-0.07165426
189	0xbd7c99f2	-0.06167025
190	0x3e65dee7	0.22448312
191	0xbd8d081f	-0.068863146
192	0xbef454ef	-0.4772105
193	0x3f0f7a76	0.56046236
194	0x3ec88ac8	0.39168382
195	0xbe12c747	-0.14333831
196	0xbde7b526	-0.11313848
197	0xbf3583fd	-0.70904523
198	0x3f235c74	0.6381295
199	0xbe0ce8f7	-0.13760744
200	0x3d00cbc0	0.03144431
201	0xbe326b79	-0.1742381
202	0x3dd0f717	0.10203379
203	0x3ed04197	0.4067504
204	0x3eb8e4af	0.36111972
205	0x3e647525	0.22310312
206	0x3e8835e1	0.26603606
207	0x3f1d41e6	0.6142868
208	0x3f153eac	0.58298755
209	0xbf430b77	-0.7618937
210	0xbc4665c4	-0.012109224
211	0xbad9d537	-0.0016619329
212	0xbedcb201	-0.43104556
213	0xbd81a941	-0.06331111
214	0xbf75063d	-0.95712644
215	0x3dd4e810	0.10395825
216	0x3db3ffeb	0.08789047
217	0x3f02f1ce	0.51150215
218	0x3f65dd25	0.89790565
219	0xbeeb35e0	-0.4593954
220	0x3e8db14d	0.27674332
221	0xbd17f910	-0.03710276
222	0x3d70c3e7	0.058780577
223	0xbe0e9ce0	-0.1392703
224	0xbf2ddeba	-0.6791798
225	0x3d995407	0.0748673
226	0x3d52fca9	0.051510487
227	0x3de79a8b	0.113087736
228	0xbf221112	-0.633073
229	0xbf864fc5	-1.0493094
230	0xbd29ed40	-0.041486025
231	0x3eb7578a	0.35808975
232	0x3f15bf3d	0.5849493
233	0xbf0cc5d8	-0.54989386
234	0xbeff7403	-0.49893197
235	0xbe2a13bf	-0.16609095
236	0xbcdee015	-0.02720646
237	0x3ea28d3b	0.31748375
238	0x3f364064	0.71192
239	0x3e09d37a	0.13459578
240	0xbe28ca19	-0.16483344
241	0x3d79d745	0.060996313
242	0xbdc0b0b2	-0.09408702
243	0x3f11759f	0.568201
244	0xbf0098e4	-0.5023329
245	0x3c412bcb	0.011790226
246	0xbbd65f45	-0.0065421187
247	0xbdd5c082	-0.104371086
248	0xbd954fd0	-0.07290614
249	0xbdd41dd0	-0.10357249
250	0x3e15717b	0.1459407
251	0x3e4b002d	0.19824286
252	0xbdc6cbad	-0.09706817
253	0xbf2441fa	-0.6416317
254	0xbf3b6889	-0.73206383
255	0x3e97ac14	0.29623473

w_h.0.bias f4 [64]
0	0xbcfcb5c6	-0.030848395
1	0xbf05512e	-0.52076995
2	0xbeea61b2	-0.4577766
3	0xbed21b22	-0.41036326
4	0xbf5d0e58	-0.8635001
5	0x3e12152d	0.1426589
6	0xbef6f7c9	-0.4823592
7	0x3e6a427f	0.22876929
8	0x3e62ce28	0.22148955
9	0xbe667c9d	-0.22508474
10	0x3d61aafd	0.055094708
11	0xbd981c46	-0.07427268
12	0xbee5f36b	-0.44912276
13	0x3e8505f2	0.25981098
14	0xbe08e2ff	-0.13367842
15	0xbe310dc6	-0.1729041
16	0xbee93a35	-0.4555222
17	0xbf10ed8c	-0.5661247
18	0xbf0c46b2	-0.5479537
19	0xbf04762e	-0.5174283
20	0xbf51236f	-0.8169469
21	0x3ecd4da0	0.40098286
22	0xbf49c8d5	-0.7882207
23	0xbf0f77e0	-0.5604229
24	0xbe91b3a1	-0.28457358
25	0xbd44f3e3	-0.04808415
26	0x3d4543ed	0.048160482
27	0xbea3818e	-0.3193478
28	0xbf282874	-0.65686727
29	0x3d8b6a6f	0.0680741
30	0x3dfed37d	0.12442682
31	0x3e726d02	0.23674396
32	0xbec475f1	-0.38371232
33	0xbf298ca9	-0.66230255
34	0xbeb8ebfe	-0.36117548
35	0xbf32970b	-0.69761723
36	0xbf1e3937	-0.6180605
37	0xbf72c565	-0.9483245
38	0xbf0e3405	-0.55548126
39	0xbde181d2	-0.110110894
40	0xbe1639cc	-0.14670485
41	0xbf58c1f8	-0.8467097
42	0x3e18fc5c	0.14940017
43	0x3e005ca8	0.12535346
44	0x3ea23e9c	0.31688392
45	0xbe3a1290	-0.18171144
46	0xbf408903	-0.75209063
47	0xbe76c39e	-0.2409806
48	0x3d10e834	0.035377696
49	0xbe35110a	-0.17682281
50	0xbe974279	-0.29542902
51	0xbeddece9	-0.4334481
52	0xbed3d5b4	-0.4137398
53	0xbf2645ca	-0.6495024
54	0xbe3b07b9	-0.18264665
55	0xbe71725f	-0.23578785
56	0x3f077706	0.5291599
57	0xbe8d23a2	-0.27566248
58	0xbf48aad8	-0.78385687
59	0x3ef7e34e	0.48415607
60	0xbe7b73e3	-0.24555926
61	0x3df968be	0.12178181
62	0xbe1dcd0e	-0.15410253
63	0xbe9d981a	-0.30780107

w_h.2.weight f4 [32, 64]
0	0x3e80519a	0.25062257
1	0x3e382425	0.17982538
2	0xbc39ca2f	-0.011339708
3	0x3df5c1af	0.11999833
4	0xbe32c462	-0.17457727
5	0xbe1f4630	-0.15554118
6	0x3f0a442c	0.5401027
7	0x3e49adf2	0.19695261
8	0xbe4a49d7	-0.1975473
9	0xbd25b030	-0.04045123
10	0x3e791544	0.24324518
11	0x3d0710b2	0.032974906
12	0xbc60e832	-0.013727235
13	0x3f398cb9	0.7248035
14	0x3e6eab45	0.23307522
15	0x3cb8c8d9	0.02255671
16	0x3e3ee77b	0.1864299
17	0x3e49684d	0.19668694
18	0xbdf2855e	-0.11841844
19	0xbea1fa6d	-0.31636372
20	0x3f025128	0.50905085
21	0x3e1ba36f	0.15199064
22	0x3e58cfc9	0.21173014
23	0x3e082ac8	0.1329757
24	0x3e8c8b6b	0.27450117
25	0x3d24c98b	0.04023127
26	0x3d815017	0.06314104
27	0x3ed51256	0.41615552
28	0xbc2e369a	-0.010633135
29	0x3dd95c41	0.10613299
30	0xbe8094a8	-0.25113416
31	0xbd37e172	-0.044892736
32	0xbe40a7a1	-0.18813945
33	0x3d8ef36b	0.06980022
34	0xbc999ea5	-0.018752405
35	0xbc91420f	-0.017731695
36	0x3d949ae3	0.07256105
37	0xbe59ee79	-0.21282376
38	0x3da28e38	0.07937282
39	0x3e236a97	0.1595863
40	0xbcfed1e2	-0.03110594
41	0x3dde504c	0.10855159
42	0xbd221626	-0.039571904
43	0x3e9697e9	0.29412773
44	0x3e780cfe	0.24223706
45	0x3e978692	0.29594857
46	0x3dfc0b9d	0.123069026
47	0x3d83ba09	0.06431968
48	0x3e15d84c	0.14633292
49	0x3dab7b39	0.08373112
50	0xbe999c9b	-0.30002293
51	0x3ea02821	0.31280616
52	0x3dc21158	0.09475964
53	0xbd417180	-0.047227383
54	0x3e0c97b3	0.13729744
55	0x3e620240	0.22071171
56	0x3e98eccf	0.2986817
57	0x3ca3e168	0.020004943
58	0xbbe58034	-0.0070038084
59	0x3b3e363a	0.002902402
60	0x3e082fe9	0.13299526
61	0xbc46d747	-0.012136287
62	0xbdd07a5a	-0.10179587
63	0x3eade3a5	0.33962741
64	0xbe000869	-0.12503208
65	0xbd3c1fb7	-0.045928683
66	0x3e4952f0	0.19660544
67	0xbef748f1	-0.48297837
68	0xbf2ea67e	-0.68222797
69	0x3e404cba	0.18779269
70	0xbd343157	-0.043992367
71	0x3e0049b9	0.12528123
72	0xbe594953	-0.21219377
73	0x3d64378e	0.055717044
74	0x3e183509	0.14863981
75	0xbd5483c8	-0.05188349
76	0xbf1eaa05	-0.6197818
77	0x3e40fe81	0.18847086
78	0xbebe2edd	-0.3714513
79	0x3ce6aa2a	0.028157312
80	0xbdaf1c05	-0.08550266
81	0xbf5d23dc	-0.8638284
82	0x3ef49804	0.4777223
83	0x3e943397	0.2894561
84	0x3e84eeea	0.25963527
85	0xbe8779a7	-0.2646
86	0xbea504d7	-0.32230255
87	0xbf5c6960	-0.8609829
88	0x3defbb37	0.1170563
89	0xbe219217	-0.15778385
90	0xbcc14ce6	-0.023596238
91	0x3e816212	0.25270134
92	0xbe1e08b3	-0.15433006
93	0x3e1e25ad	0.1544406
94	0xbeedf7d3	-0.46478137
95	0xbf38f10b	-0.722428
96	0x3f34d6be	0.7064017
97	0x3e191b1c	0.14951748
98	0x3e80c8c0	0.2515316
99	0x3d06b912	0.03289134
100	0x3ed00cbe	0.40634722
101	0xbf5f3e40	-0.8720436
102	0x3ea45586	0.320965
103	0x3f3090df	0.68971056
104	0x3e90a3ab	0.2824987
105	0x3ed45b5d	0.41475955
106	0xbe3d4f81	-0.1848736
107	0x3e974d43	0.29551134
108	0xbecd177b	-0.40056977
109	0x3d8c475b	0.068495475
110	0xbf2cc80a	-0.67492735
111	0x3ea96e3d	0.33091918
112	0x3e5b6670	0.21425796
113	0x3e1069b6	0.14102826
114	0xbe6df229	-0.23236908
115	0x3e910392	0.28323036
116	0xbd98465e	-0.074352965
117	0x3e1984b9	0.14992036
118	0x3e589123	0.21149115
119	0xbeacc32c	-0.33742654
120	0xbf23b9bf	-0.639553
121	0x3ec58828	0.3858044
122	0x3e33b480	0.17549324
123	0xbf0606b8	-0.52354
124	0x3d9f2d16	0.07772271
125	0x3ea69d93	0.32542095
126	0xbe6d2905	-0.23160179
127	0x3dc07afc	0.093984574
128	0xbf15538d	-0.58330613
129	0xbe3dcf5d	-0.18536134
130	0xbf24ce9e	-0.6437777
131	0x3e2e8105	0.17041405
132	0x3e846dbe	0.25864977
133	0x3e25ac0d	0.16178913
134	0xbcc0a5f4	-0.023516633
135	0x3d91a682	0.07111837
136	0xbd78f90b	-0.06078438
137	0x3d88c480	0.066781044
138	0xbe737f57	-0.23779045
139	0xbed3c0b1	-0.4135795
140	0xbe4e028b	-0.20118158
141	0x3e656422	0.22401479
142	0xbe157b2f	-0.14597772
143	0x3dbe45a4	0.09290627
144	0xbe53a545	-0.20668514
145	0xbf90bb34	-1.130713
146	0x3edce741	0.43145183
147	0x3d8de345	0.06928114
148	0xbe1299ef	-0.14316534
149	0x3ef1553b	0.47135338
150	0xbf0beb6f	-0.5465612
151	0x3e8de0d3	0.2771059
152	0x3db63f04	0.08898738
153	0x3ec0c8f8	0.37653327
154	0x3e0b9140	0.13629627
155	0xbedcc41b	-0.43118367
156	0xbd079940	-0.033105135
157	0xbeb61ae5	-0.35567394
158	0xbeadb106	-0.3392412
159	0xbd0d0b8a	-0.034434833
160	0xbb9c579b	-0.0047711856
161	0x3f1722e3	0.5903761
162	0xbe123b76	-0.14280495
163	0x3e4f5061	0.20245506
164	0xbe904716	-0.28179234
165	0xbcd10349	-0.025514262
166	0xbe5ceeb1	-0.21575429
167	0x3dc43702	0.095808044
168	0xbc5b39bf	-0.013380467
169	0xbbae76a6	-0.0053242026
170	0xbe883231	-0.26600793
171	0x3e814190	0.25245333
172	0xbf21db87	-0.632256
173	0xbf69558c	-0.9114616
174	0x3e9b7927	0.3036587
175	0x3e17e72e	0.14834282
176	0x3e25347b	0.16133301
177	0xbe0b3b08	-0.13596737
178	0xbed002c6	-0.40627116
179	0xbe36b023	-0.17840628
180	0x3db41230	0.087925315
181	0xbf4982eb	-0.7871539
182	0x3d454405	0.04816057
183	0xbeb8f88a	-0.3612712
184	0x3ea3d9dc	0.3200215
185	0x39d685a3	0.00040916828
186	0x3f8abdc4	1.0839162
187	0xbf0b4808	-0.54406786
188	0xbdd8eb0b	-0.10591706
189	0x3e470fb3	0.19439583
190	0xbf152fae	-0.5827588
191	0x3ee84441	0.45364574
192	0xbe500116	-0.20312914
193	0x3e94ac13	0.29037532
194	0xbedf9f96	-0.43676442
195	0x3e7f3998	0.24924314
196	0x3f3bfb76	0.73430574
197	0x3e48bef2	0.1960409
198	0xbde29064	-0.110626966
199	0x3cadedf0	0.021231622
200	0x3e690ccf	0.22758792
201	0x3d805575	0.062663
202	0xbe9c5cc6	-0.3053953
203	0x3e8e8ca5	0.27841678
204	0x3dc8e9f4	0.09810248
205	0xbedfa96f	-0.43683955
206	0xbd21f4bf	-0.03954005
207	0xbdcb9d63	-0.099421285
208	0x3ed3bf73	0.41357002
209	0xbe1344e1	-0.14381744
210	0x3ec59566	0.38590544
211	0xbd301e4f	-0.042997655
212	0xbe1e2d5c	-0.1544699
213	0x3e17adc0	0.14812374
214	0x3f038983	0.513817
215	0xbd814244	-0.06311467
216	0x3edc730d	0.43056527
217	0x3e11a2fa	0.14222327
218	0x3d14864b	0.036260884
219	0xbe9f334e	-0.3109383
220	0xbd49c05a	-0.049255706
221	0xbee1953e	-0.44059175
222	0x3e100e3d	0.14067931
223	0xbe953f0f	-0.29149672
224	0x3ef7721b	0.48329243
225	0x3ed39ef6	0.41332215
226	0x3eb74a10	0.35798693
227	0xbe6b61b5	-0.22986491
228	0xbf4aa175	-0.79152614
229	0xbe9e7220	-0.30946445
230	0x3d0911ae	0.033464126
231	0xbcc8f88e	-0.024532583
232	0xbefc886c	-0.49322832
233	0x3eebde3d	0.46067992
234	0x3e877c97	0.26462242
235	0xbd9d7f56	-0.07690303
236	0xbec4e4d5	-0.38455835
237	0xbe08c29c	-0.13355488
238	0xbd40f657	-0.047109928
239	0x3d01df8a	0.031707324
240	0x3e845ac9	0.25850514
241	0xbe24d859	-0.16098155
242	0xbe37c8ce	-0.17947695
243	0xbe0b9b03	-0.13633351
244	0x3ddc2cd2	0.10750736
245	0x3f247e3f	0.64255136
246	0x3e9476a6	0.28996772
247	0xbdccd2c8	-0.10001141
248	0xbe9f4ef7	-0.31114933
249	0xbf1d77c3	-0.61510867
250	0xbe81328d	-0.2523388
251	0x3f10e33e	0.56596744
252	0xbe690ce9	-0.22758831
253	0xbd89e520	-0.06733155
254	0x3d37f326	0.04490962
255	0x3ee8d8e1	0.45477965

w_h.2.bias f4 [32]
0	0xbe900025	-0.2812511
1	0xbd8a8e0f	-0.06765377
2	0x3b8c7ae5	0.004287111
3	0xbe17f7cb	-0.1484062
4	0x3e425485	0.18977554
5	0xbf7c03ca	-0.9844328
6	0xbc6d68b3	-0.014490294
7	0xbda3cad8	-0.07997674
8	0xbea48aae	-0.32137054
9	0xbe1da53b	-0.15395062
10	0x3dd40ac5	0.103536166
11	0x3e02d4db	0.1277651
12	0x3e92e348	0.28689027
13	0x3e725176	0.23663887
14	0x3e4661f6	0.19373307
15	0xbe140186	-0.14453706
16	0xbe468384	-0.19386107
17	0x3d39e08b	0.045380156
18	0xbd709f65	-0.05874576
19	0xbcadfabf	-0.02123773
20	0xbe1febc4	-0.15617281
21	0xbe648380	-0.22315788
22	0xbd5130e2	-0.05107201
23	0xbd347bcd	-0.044063378
24	0xbd15d978	-0.036584347
25	0x3d2a49c2	0.041574247
26	0x3e0a0b36	0.13480839
27	0x3e4adbf3	0.19810466
28	0x3e58319c	0.21112674
29	0xbe14f891	-0.14547946
30	0x3e856fde	0.2606191
31	0x3e746c0d	0.23869343

Ws.0 f4 [32, 32]
0	0xbf5094e5	-0.81477195
1	0x3e981a69	0.2970765
2	0xbf48081f	-0.7813739
3	0x3e301ec7	0.1719924
4	0x3fac75a9	1.3473407
5	0xbe79872f	-0.24367975
6	0xbf8a9b64	-1.0828671
7	0x401d27b9	2.4555495
8	0x3f0353fc	0.51300025
9	0x3fe65044	1.7993245
10	0xbfcfbc79	-1.6229392
11	0xbf9327dc	-1.1496539
12	0x3ece6b42	0.40316206
13	0x3cf599cf	0.029980568
14	0xbc3116e6	-0.010808682
15	0x3f3cad38	0.7370181
16	0xbdddd429	-0.10831482
17	0x3d9aa343	0.07550671
18	0xbe5dfed5	-0.21679242
19	0x3fe7af2f	1.8100337
20	0xbf890113	-1.0703453
21	0xbee16b36	-0.44027108
22	0xbf5c77ae	-0.86120117
23	0x3ed77a9e	0.42085737
24	0xbe2f03ab	-0.17091243
25	0xbef83a52	-0.48481995
26	0x3f469f45	0.77586776
27	0x3f84f464	1.0387082
28	0x3ea87fb7	0.3290994
29	0xbf6f0505	-0.93367034
30	0xbed62085	-0.41821685
31	0x3f149e33	0.5805389
32	0xbf789632	-0.9710418
33	0xbdf7cbc8	-0.12099415
34	0x3dd6d5c7	0.104899935
35	0x3fa60008	1.296876
36	0xbfedbb5b	-1.8572801
37	0x3f99620f	1.198305
38	0xbeb7e0d2	-0.35913712
39	0xbcebb3f4	-0.028772332
40	0xbf41aa8a	-0.75650847
41	0xbf85fd2b	-1.0467886
42	0xb91add97	-0.00014769133
43	0x3e806789	0.2507899
44	0xbfc1cb3c	-1.5140147
45	0xbf680a3b	-0.9064061
46	0x3f005612	0.5013133
47	0xbf09a060	-0.5376034
48	0xbe8b6553	-0.27225742
49	0x3fe06aa2	1.7532542
50	0xbf4373d2	-0.763486
51	0x3f154ef0	0.58323574
52	0xbf87c691	-1.0607473
53	0xbfbf110c	-1.4927077
54	0x3f0e8fb8	0.5568805
55	0xbb0f5ecc	-0.0021876572
56	0x3f0b2611	0.5435496
57	0x3f97273c	1.1808848
58	0x3f889827	1.0671433
59	0xbf21d2f1	-0.63212496
60	0xbd5eaf16	-0.054366194
61	0xbff4c1a2	-1.9121592
62	0x3f817925	1.0115095
63	0xbe0f122f	-0.1397178
64	0xbeee4564	-0.46537316
65	0xbfeb1081	-1.8364412
66	0xbf6d496e	-0.9269017
67	0x3ec0f4d6	0.37686795
68	0x3dcddda8	0.10052043
69	0x3fbd1b34	1.4773927
70	0xc02987e7	-2.6489198
71	0xbf6c4f13	-0.9230816
72	0xc057758f	-3.3665502
73	0x3f61c4ca	0.881909
74	0x3fa1aa5c	1.2630115
75	0x3f6e3b07	0.9305882
76	0xbfa9ceb9	-1.3266212
77	0xbf943e8c	-1.1581588
78	0x3da8fbb6	0.08251135
79	0xbe539651	-0.2066281
80	0x403a74ad	2.9133713
81	0xbddd4b82	-0.108054176
82	0x3ec3dab2	0.3825279
83	0x3fbfaeb2	1.4975188
84	0x3ecfc124	0.40577042
85	0xbd8d2d28	-0.068933785
86	0xc043277b	-3.0492847
87	0xbee38981	-0.44440845
88	0x3fd485eb	1.6603369
89	0xbf1cf986	-0.6131824
90	0xbf733c69	-0.95014054
91	0xbdd5c0ca	-0.10437162
92	0xbe0bb73d	-0.13644119
93	0x3fda5b1d	1.7059056
94	0x3dc161ce	0.09442483
95	0x3f0c37ae	0.5477246
96	0xbfce2d0b	-1.6107496
97	0xbf1e4c1a	-0.6183487
98	0x3d87ecb4	0.066369444
99	0xc01583fa	-2.3361802
100	0xbf1f828a	-0.6230856
101	0x3f191c87	0.59809154
102	0x3f9d9d2d	1.2313591
103	0x3e507a2b	0.20359103
104	0x3f9ecb76	1.2405841
105	0x3f825cdb	1.0184587
106	0xbe382a79	-0.17984952
107	0xbee1900f	-0.4405522
108	0x3f36bb65	0.7137969
109	0xbe4f68e2	-0.20254853
110	0xbd9ad29e	-0.07559703
111	0x3c9f9ba1	0.01948339
112	0xbf26023d	-0.64847165
113	0xbd8699f3	-0.06572332
114	0x3f8e00aa	1.1093953
115	0x402063fc	2.5061026
116	0x3f8ac6c1	1.0841905
117	0x3ef27890	0.47357607
118	0xbf54a480	-0.8306351
119	0xbf103c89	-0.5634237
120	0x3fa64519	1.2989837
121	0x3f17fe19	0.593721
122	0x3f30dce8	0.69087076
123	0xbedbd39e	-0.4293489
124	0x3e36af86	0.17840394
125	0xbfb5662d	-1.4171807
126	0x3f112e6f	0.5671148
127	0xbd9a9e34	-0.07549706
128	0xbdd14968	-0.10219079
129	0xbdeeb7ca	-0.11656149
130	0xbf0f929c	-0.56083083
131	0xc035b7e5	-2.839349
132	0xbf8a76ba	-1.0817482
133	0x3e2aa2ba	0.16663638
134	0xbfbcbd47	-1.4745263
135	0xbfcb6326	-1.5889633
136	0xbf7b408e	-0.9814538
137	0x3e0fcfb4	0.14044076
138	0x3f9d18f7	1.2273244
139	0x3e1b4758	0.15163934
140	0xbef1d57f	-0.47233197
141	0xbfb02c91	-1.37636
142	0x3f4c50f9	0.79811054
143	0x3f7236a6	0.94614637
144	0x3fac4673	1.3458999
145	0xbf70ff8a	-0.9413992
146	0xbf43f196	-0.76540506
147	0xbf929e9f	-1.1454657
148	0xbedbbd6d	-0.42917958
149	0x3ed213b7	0.41030666
150	0x3f53bc4c	0.82709193
151	0x3f0541a3	0.5205328
152	0x3f0a3ab7	0.5399584
153	0xc018be86	-2.3866286
154	0xbe9e9207	-0.30970785
155	0xbf8f48c0	-1.1194077
156	0xbe1c471a	-0.15261498
157	0x3faf9ef9	1.372039
158	0x3f074fc1	0.5285607
159	0xbea3a1ce	-0.31959385
160	0xbc2f7410	-0.010708824
161	0xbf75f43a	-0.96075785
162	0xbfcb8961	-1.59013
163	0x3f0197b9	0.50622135
164	0xbf07f1cf	-0.53103346
165	0xbe452506	-0.19252405
166	0x3e5b1714	0.21395522
167	0x3f63f9ac	0.89052844
168	0x3f3222a9	0.6958414
169	0xbe49fc69	-0.19725193
170	0xbe1c6dfc	-0.1527633
171	0xbebc310f	-0.3675618
172	0xbe200f83	-0.15630917
173	0x3fbb1166	1.4614685
174	0x3fe1b6c5	1.7633902
175	0x3e8c2a5e	0.27376074
176	0x3f3d6271	0.73978335
177	0xbf0b866f	-0.54502004
178	0xbf345943	-0.704487
179	0xbf82ec05	-1.0228277
180	0x3f23bd20	0.63960457
181	0xc021abf1	-2.5261195
182	0x3f3880c0	0.72071457
183	0xbefd0d56	-0.49424237
184	0x3e87adc3	0.26499757
185	0xbdc49bb1	-0.09600008
186	0xbd6151ea	-0.05500976
187	0xbf91f633	-1.1403259
188	0xbf3ca664	-0.7369139
189	0xbf5835e6	-0.8445724
190	0x3e9cdc62	0.3063689
191	0xbfadfa84	-1.3592076
192	0xbfabc67b	-1.3419946
193	0xbf096111	-0.53663737
194	0x3fb1f127	1.3901719
195	0x3fd39b9e	1.6531866
196	0xbf5c532e	-0.8606442
197	0x3f08e581	0.53475195
198	0x3f966076	1.1748188
199	0x3f14f1c6	0.58181417
200	0x40153a15	2.33167
201	0xbf5acb1b	-0.85466164
202	0xbdb95cf1	-0.0905093
203	0xbfad86c3	-1.3556751
204	0x3f5fa4b3	0.87360686
205	0x3f8337f3	1.0251449
206	0x3e7048e4	0.23465306
207	0x3deea9a7	0.11653452
208	0xbd383825	-0.04497542
209	0xbd3b50ba	-0.045731284
210	0xc03efb24	-2.9840784
211	0x3f3d504c	0.7395065
212	0x3c69efa8	0.01427833
213	0xbf1dd486	-0.6165241
214	0xc00c83c4	-2.1955423
215	0xbeda33e1	-0.42617705
216	0x3e9ac135	0.3022553
217	0xbf444ce3	-0.7667982
218	0x3f3e4c37	0.74335045
219	0xbe42ab47	-0.1901065
220	0x3fdea7ab	1.7394918
221	0x40059381	2.087128
222	0xc011355c	-2.2688818
223	0x3ecb2506	0.39676684
224	0x4004856d	2.0706437
225	0x3eb23d30	0.34812307
226	0xbf4a1781	-0.78942114
227	0xbee63bf8	-0.44967628
228	0xbbb42aa6	-0.005498248
229	0x4003b5e0	2.0579758
230	0xbf7f6169	-0.9975801
231	0x3e139943	0.14413933
232	0x3f52df34	0.8237183
233	0xbe00e05c	-0.12585586
234	0xbd2fa704	-0.042883888
235	0xbefc919f	-0.4932985
236	0xbf4009d1	-0.7501498
237	0xbfd56238	-1.6670599
238	0x3fd968f3	1.6985153
239	0xbf92092a	-1.1409047
240	0x3e73c463	0.23805384
241	0x3efe7c26	0.49704093
242	0x3eca28fd	0.39484397
243	0xbea6c454	-0.3257166
244	0xbdcc1aa9	-0.099660225
245	0x3e8e031e	0.27736753
246	0xbf77314d	-0.965596
247	0x3ea0c7b6	0.31402367
248	0xbec53baa	-0.38522083
249	0x3f74983c	0.9554479
250	0x3fd403ec	1.6563697
251	0xbf80df10	-1.0068073
252	0xbe6f2fb6	-0.23358044
253	0x3f90389d	1.1267277
254	0x3f007240	0.5017433
255	0x3ffd5819	1.979251
