crowd_nav/RGL_our/rl_model_3.pth (torch, 143871 bytes, 33 tensors)

w_a f4 [32, 32]
-0.5201061 -0.160371 1.1948544 -0.88807267 0.56504536 -1.3165548 0.435458 -0.53425205
0.96402323 0.33377764 -1.0616784 0.34340584 -2.2058544 -2.0470574 0.3497758 -0.646467
-0.39773595 -1.2973567 0.96140903 -0.1643912 0.92412406 0.14863771 0.96524185 -0.5063063
-1.2533324 0.65551823 -0.55926174 -0.20321609 -0.27950436 -0.97752243 -0.67567754 2.02678
0.20148 0.627508 -1.1926607 -1.7754681 1.1203566 -1.2597686 0.91218525 0.22247478
0.5456883 -0.39949697 -0.032034796 0.4644744 -0.012439396 -2.1213834 -0.3577484 -0.53646785
0.15578677 0.4036208 -0.8569712 -0.20656593 0.9325894 -1.2970113 -1.7181293 -1.7348865
0.2462667 0.8002789 -1.1486773 -0.15142648 -0.9197275 2.005251 1.4464552 -0.022529017
-0.18499568 -1.4546745 -0.67424625 0.15686251 -1.3294088 -1.344057 -0.5488777 -0.8035379
-1.563865 0.5745681 1.3193643 -1.0342417 -0.68553364 0.006180118 -1.7907035 0.1297815
-0.05160829 0.3115152 -1.5897602 0.21148445 -0.55236095 -0.748571 1.0631818 -3.5137918
-1.701008 0.99245036 -0.5342058 1.6834552 0.6710264 -0.06491489 0.5183898 -0.36303577
0.27464917 0.8258672 -0.93792623 0.2455441 -1.5492578 0.5262221 0.848199 -0.67157626
-0.80863166 -0.49755764 -0.57939464 -1.0794383 0.6825588 -0.9266554 -0.3040125 0.43795288
-0.087175265 -0.73045236 0.31196034 0.002737665 -0.38260424 -0.55405205 -0.9400575 -0.35318342
0.44694716 -0.5979295 -0.9681242 0.31434578 -1.1290334 0.6808811 -0.12349282 1.1116122
0.9800279 0.019370552 -0.7997033 0.083392836 -0.23157962 -0.2866768 -1.2353125 -0.26720765
-1.5665597 1.2303681 0.43220395 -1.0947548 -0.7965397 0.40971074 0.21963888 -1.1268756
0.033032406 -0.060204808 -0.549441 0.40350923 0.3005832 -0.39889655 -1.1341848 1.1990895
-1.4979811 0.15922728 -0.39646712 -0.7028173 0.1538324 -1.2134696 0.54472274 0.42917618
1.0800388 0.9260696 -1.0778315 -0.37176016 0.31143925 -0.00432095 -0.088242315 0.36423296
2.1556895 0.2527383 -0.07160118 -0.439173 -1.9951764 -0.4765797 0.05269103 0.04168922
0.12545873 1.2006686 1.3085358 0.31346473 -0.47474518 1.0373213 1.5336262 -0.2562168
-0.016447239 1.6607212 -0.20960557 -0.064018264 -0.24573876 -0.70249754 1.3084608 -1.1051178
-0.021812167 -0.6781944 -0.900404 0.32943094 -1.2644647 0.9567286 0.30194998 0.29423574
0.62726957 -0.4039795 -0.4767904 0.5484315 0.062084906 -2.3446164 0.4890893 4.826816
-1.3064973 -2.0998523 0.9994119 -0.41240937 -1.5218167 1.7729295 0.68012315 -0.90423375
-0.02164769 -3.3376117 0.02862033 -0.57470083 0.54266316 0.82294214 -2.4466481 0.09157558
-0.33271253 1.1282309 -0.92744124 -0.16684258 0.25832567 0.73511523 -0.43222737 1.2376186
-0.78262657 1.0996965 -1.697797 -0.14204328 -0.53785497 -0.28091368 -0.19495586 -0.4047759
-0.10365157 -0.7997384 -0.09554586 -0.36752015 0.04719848 1.2803168 -0.093974344 -1.8391556
-1.6803787 -0.9102152 -1.2443309 2.4764216 -1.0745509 -0.083599 0.5158893 2.29737
00000000: ac25 05bf 4c38 24be fdf0 983f bb58 63bf
00000010: d0a6 103f de84 a8bf 5af4 de3e bec4 08bf
00000020: 3aca 763f e7e4 aa3e 14e5 87bf e4d2 af3e
00000030: b82c 0dc0 fd02 03c0 d015 b33e dc7e 25bf
00000040: 0ca4 cbbe c90f a6bf e71e 763f 2b56 28be
00000050: 6593 6c3f 7c34 183e 171a 773f 4a9d 01bf
00000060: 326d a0bf 0bd0 273f c72b 0fbf e117 50be
00000070: 321b 8fbe e93e 7abf 34f9 2cbf c3b6 0140
00000080: c650 4e3e 5da4 203f 1ba9 98bf 8a42 e3bf
00000090: d867 8f3f 1940 a1bf f984 693f 6ed0 633e
000000a0: 3ab2 0b3f de8a ccbe eb36 03bd 97cf ed3e
000000b0: 9cce 4bbc bfc4 07c0 cc2a b7be f555 09bf
000000c0: 9186 1f3e 63a7 ce3e 7762 5bbf 0586 53be
000000d0: 2ebe 6e3f 7704 a6bf a9eb dbbf c310 debf
000000e0: 562d 7c3e 14df 4c3f dc07 93bf 8b0f 1bbe
000000f0: 4373 6bbf 0856 0040 7225 b93f c68e b8bc
00000100: 826f 3dbe c632 babf 679b 2cbf 91a0 203e
00000110: 112a aabf 0f0a acbf 4083 0cbf a9b4 4dbf
00000120: ba2c c8bf e516 133f eee0 a83f 0862 84bf
00000130: 227f 2fbf 9682 ca3b c635 e5bf 71e5 043e
00000140: 3763 53bd ec7e 9f3e 437d cbbf 618f 583e
00000150: 8767 0dbf 59a2 3fbf 5716 883f f7e1 60c0
00000160: a1ba d9bf 3a11 7e3f b6c1 08bf 767b d73f
00000170: 63c8 2b3f 19f2 84bd 32b5 043f d3df b9be
00000180: d19e 8c3e 086c 533f ef1b 70bf ea6f 7b3e
00000190: 144e c6bf 7eb6 063f 9223 593f 6cec 2bbf
000001a0: 7c02 4fbf e0bf febe 3553 14bf 092b 8abf
000001b0: 2cbc 2e3f 4a39 6dbf 87a7 9bbe 5c3b e03e
000001c0: f288 b2bd edfe 3abf 44b9 9f3e 666a 333b
000001d0: b4e4 c3be 5bd6 0dbf 9ca7 70bf 75d4 b4be
000001e0: 42d6 e43e e811 19bf fdd6 77bf eef1 a03e
000001f0: 2b84 90bf 394e 2e3f cee9 fcbd 4f49 8e3f
00000200: 1ce3 7a3f feae 9e3c 5bb9 4cbf ddc9 aa3d
00000210: 3523 6dbe 4dc7 92be b81e 9ebf 71cf 88be
00000220: 0785 c8bf b47c 9d3f d649 dd3e ed20 8cbf
00000230: 07ea 4bbf 9bc5 d13e 04e9 603e 763d 90bf
00000240: fd4c 073d 5199 76bd 2aa8 0cbf c398 ce3e
00000250: 0be6 993e 2b3c ccbe f82c 91bf c47b 993f
00000260: d8bd bfbf 7a0c 233e bdfd cabe d6eb 33bf
00000270: 3e86 1d3e f952 9bbf f372 0b3f fbbc db3e
00000280: b63e 8a3f e612 6d3f 62f6 89bf 5957 bebe
00000290: f774 9f3e c196 8dbb 63b8 b4bd be7c ba3e
000002a0: d1f6 0940 ea66 813e a4a3 92bd 49db e0be
000002b0: f161 ffbf 4102 f4be 8dd2 573d 51c2 2a3d
000002c0: 4178 003e 82af 993f 1a7e a73f 737e a03e
000002d0: cd11 f3be f2c6 843f dd4d c43f d92e 83be
000002e0: 5cbc 86bc 8392 d43f d8a2 56be 021c 83bd
000002f0: f1a2 7bbe e1d6 33bf a57b a73f 8074 8dbf
00000300: 6eaf b2bc 269e 2dbf e080 66bf 2cab a83e
00000310: fbd9 a1bf 2aec 743f 3099 9a3e 11a6 963e
00000320: bd94 203f 67d6 cebe df1d f4be 0266 0c3f
00000330: be4c 7e3d 320e 16c0 ea69 fa3e 4775 9a40
00000340: 4e3b a7bf fb63 06c0 75d9 7f3f 5227 d3be
00000350: e4ca c2bf 5bef e23f 8d1c 2e3f dd7b 67bf
00000360: 7f56 b1bc 6e9b 55c0 2f75 ea3c 981f 13bf
00000370: f9eb 0a3f 56ac 523f e295 1cc0 fa8b bb3d
00000380: 4c59 aabe df69 903f ca6c 6dbf c8d8 2abe
00000390: 4343 843e 8330 3c3f e84c ddbe 496a 9e3f
000003a0: 375a 48bf dbc2 8c3f 6951 d9bf cb73 11be
000003b0: ddb0 09bf ebd3 8fbe 82a2 47be c93e cfbe
000003c0: 4647 d4bd a8bb 4cbf 8cad c3bd 9a2b bcbe
000003d0: 3253 413d 6ce1 a33f 9f75 c0bd 7369 ebbf
000003e0: a616 d7bf dd03 69bf 3c46 9fbf b17d 1e40
000003f0: e28a 89bf f435 abbd 5211 043f 1c08 1340

w_r.0.weight f4 [64, 9]
0.21336648 0.025019115 1.51869 -0.17764226 -0.31378597 0.03293073 -0.3108325 -0.20159058
-0.021147808 -0.29833305 -0.34079197 -0.4296977 -0.1272258 -0.20516285 -0.09710666 -0.6141765
-0.7596619 -0.23962335 0.21301933 -0.084387 -1.0459658 0.34769183 -0.0857085 -0.31543738
-0.42436966 -0.031419296 0.057583094 -0.15722811 0.008213193 0.3136578 -0.42159218 0.20846626
-0.16776602 -0.25627455 0.048835684 0.13754976 0.008569898 -0.003858527 -0.0186043 -0.23318198
-0.18814445 -0.15083814 -0.0016251717 -0.28856382 -0.074569985 0.03211112 0.4944907 0.011199806
-0.007933731 0.05175094 0.22626948 0.3786627 0.15363757 -0.15053841 -0.4336396 0.025046974
0.0817462 0.030329796 0.2221627 -0.20792806 0.16477598 -0.29391158 0.21944277 -0.5562256
0.28366697 -1.1762316 -0.48555252 -0.18161592 0.013089895 -0.46786976 -0.13585758 0.09155115
0.27825567 -0.43786916 0.6891863 -0.15093009 0.2793282 0.11653094 -0.37467015 -0.5781457
-0.26630768 0.23378356 -0.0025242185 0.8371973 0.093846545 -0.08253276 0.17105433 -0.23777442
-0.7753403 0.17824714 0.017962873 0.0047748964 -0.21814267 0.030463861 -0.13993919 -0.045767944
0.023453819 -0.45067626 0.01721712 0.03975829 -0.0026570777 -0.008709055 -0.14185277 -0.32178622
0.2905801 -0.13901024 -0.050991926 0.18711524 -0.196015 -0.5701576 0.02519884 -0.018786697
-0.07340324 -0.1905402 -0.62213653 -0.1357437 0.21319675 -0.24544534 0.1602877 -1.1278223
0.17870091 0.1339589 -0.12633765 -0.44937488 -0.22507298 0.17298906 0.36948302 0.052909654
-0.52168864 -0.5031648 -0.32118315 -0.22128408 -0.22324 -0.63825816 0.10450196 0.3519863
-0.33701012 -0.0107313795 -0.33089367 0.087332055 -0.26921508 -0.6210369 -0.5197226 0.092840955
-0.6063015 0.27737996 -0.34293666 0.08504184 -0.21314275 -0.0030560098 -0.17539191 -0.28298467
0.18820977 -0.6532729 0.17199348 -0.2765737 0.30573922 0.20820558 -0.03999996 -0.23077342
-0.3191246 -0.29905897 0.60567623 0.38373172 0.3424985 1.05294 -0.055527568 -0.30505353
-0.57873243 -0.62014973 0.23026454 -0.07062228 -0.08931142 0.032550555 -0.87391824 -0.3099063
0.2294291 -0.5664143 -0.08304393 -0.016410789 -0.62006414 -0.55846775 -0.01657412 0.015504277
0.28647062 -0.04311347 -0.4033374 -0.35696808 0.016522368 0.25134373 0.1019806 0.36871243
0.49136254 -0.13002746 0.033413332 -0.21441604 -0.3235 0.27456838 0.5138309 0.027123878
-0.00013413999 0.075752184 0.1626883 0.3147732 0.06933461 -0.05353129 0.14308195 0.024499986
0.0008419742 -0.04755031 0.054950442 -0.062309228 0.041944824 0.032229472 -0.25871578 0.2299912
-0.21164313 0.24367578 0.73178536 0.6011171 -0.17720036 -0.011994402 -0.4916067 -0.11609539
-0.018897932 -0.31630763 0.018734394 -0.862577 0.73290807 -0.3260337 -0.1441046 -0.5144699
-0.4344996 -0.25013897 0.28471625 0.050118268 -0.44792712 0.36953995 -0.02845323 -0.04976964
-0.18282123 -0.40992615 -0.045769297 -0.25042665 -0.18238284 -0.0232141 -0.083261475 0.31730664
-0.023932934 -0.24199027 -0.009388135 -0.06550809 0.08963705 -0.092353135 -0.8669217 -0.11432011
00000000: be7c 5a3e e3f4 cc3c 6f64 c23f dae7 35be
00000010: 8ea8 a0be 60e2 063d 7025 9fbe c36d 4ebe
00000020: 2b3e adbc 1cbf 98be 497c aebe 5601 dcbe
00000030: 7b47 02be 3616 52be dbdf c6bd ac3a 1dbf
00000040: 3479 42bf d35f 75be bd21 5a3e 17d3 acbd
00000050: 35e2 85bf aa04 b23e f087 afbd 0281 a1be
00000060: fb46 d9be 85b1 00bd 40dc 6b3d 6800 21be
00000070: a190 063c c197 a03e eeda d7be 2e78 553e
00000080: dbca 2bbe 6b36 83be ed07 483d d8d9 0c3e
00000090: c268 0c3c 57df 7cbb 0c68 98bc 42c7 6ebe
000000a0: f0a8 40be 5075 1abe b703 d5ba a3be 93be
000000b0: 26b8 98bd f386 033d e32d fd3e 647f 373c
000000c0: 7bfc 01bc cbf8 533d 30b3 673e 14e0 c13e
000000d0: 2b53 1d3e be26 1abe 0206 debe 502f cd3c
000000e0: 8d6a a73d 3176 f83c 9e7e 633e 18eb 54be
000000f0: 09bb 283e 947b 96be 9bb5 603e cd64 0ebf
00000100: cc3c 913e c28e 96bf 579a f8be 86f9 39be
00000110: 0077 563c a08c efbe 401e 0bbe 2b7f bb3d
00000120: 8777 8e3e 6330 e0be 836e 303f 6b8d 1abe
00000130: 1b04 8f3e c6a7 ee3d c4d4 bfbe 5b01 14bf
00000140: 7b59 88be f564 6f3e 5c6d 25bb 9052 563f
00000150: 9e32 c03d f006 a9bd de28 2f3e 237b 73be
00000160: b47c 46bf 6b86 363e e026 933c bc76 9c3b
00000170: cb60 5fbe 598f f93c 384c 0fbe 2b77 3bbd
00000180: 3922 c03c 0abf e6be eb0a 8d3c 97d9 223d
00000190: 5e22 2ebb 6db0 0ebc da41 11be 2ac1 a4be
000001a0: eac6 943e b358 0ebe e9dc 50bd 239b 3f3e
000001b0: 28b8 48be d9f5 11bf cc6d ce3c 8fe6 99bc
000001c0: 7054 96bd f81c 43be 5744 1fbf 6600 0bbe
000001d0: 4050 5a3e 0656 7bbe 7522 243e 7b5c 90bf
000001e0: 5ffd 363e 862c 093e a85e 01be 7714 e6be
000001f0: 8879 66be 0b24 313e e12c bd3e cbb7 583d
00000200: 638d 05bf 69cf 00bf 1e72 a4be 4b98 62be
00000210: 0799 64be e364 23bf 2005 d63d 8c37 b43e
00000220: 978c acbe abd2 2fbc e56a a9be 26db b23d
00000230: 8fd6 89be 46fc 1ebf 8a0c 05bf 6623 be3d
00000240: 9336 1bbf bf04 8e3e 6595 afbe 6b2a ae3d
00000250: 1842 5abe 5647 48bb f099 33be 5ee3 90be
00000260: 10ba 403e e53c 27bf 0f1f 303e 119b 8dbe
00000270: da89 9c3e d833 553e 00d7 23bd de4f 6cbe
00000280: 4d64 a3be 421e 99be 990d 1b3f 7c78 c43e
00000290: f75b af3e bdc6 863f e070 63bd fa2f 9cbe
000002a0: cf27 14bf 22c2 1ebf 78ca 6b3e 6aa2 90bd
000002b0: e8e8 b6bd bb53 053d 1bb9 5fbf 0aac 9ebe
000002c0: 76ef 6a3e 8700 11bf f012 aabd eb6f 86bc
000002d0: 86bc 1ebf bef7 0ebf 73c6 87bc a705 7e3c
000002e0: 47ac 923e c097 30bd 3d82 cebe 85c4 b6be
000002f0: eb59 873c 20b0 803e 34db d03d e0c7 bc3e
00000300: df93 fb3e eb25 05be 6bdc 083d e18f 5bbe
00000310: cba1 a5be 3a94 8c3e 6c8a 033f e532 de3c
00000320: eea7 0cb9 f623 9b3d c397 263e f429 a13e
00000330: 4eff 8d3d a043 5bbd 1384 123e 32b4 c83c
00000340: efb7 5c3a 1dc4 42bd b713 613d f637 7fbd
00000350: 56ce 2b3d 0d03 043d 6576 84be d082 6b3e
00000360: fab8 58be 2586 793e 4956 3b3f cfe2 193f
00000370: 0374 35be 2b84 44bc e0b3 fbbe 6bc3 edbd
00000380: d6cf 9abc 13f3 a1be df78 993c d9d1 5cbf
00000390: dd9f 3b3f e4ed a6be 2890 13be 4db4 03bf
000003a0: bb76 debe 3712 80be 54c6 913e d048 4d3d
000003b0: b456 e5be 5734 bd3e c016 e9bc 40db 4bbd
000003c0: 7d35 3bbe d7e1 d1be 9678 3bbd ec37 80be
000003d0: 91c2 3abe 7f2b bebc fe84 aabd 0476 a23e
000003e0: 000f c4bc 4ccc 77be b1d0 19bc 1b29 86bd
000003f0: a193 b73d a423 bdbd 95ee 5dbf a920 eabd

w_r.0.bias f4 [64]
0.011595917 -0.57670677 -0.22308391 -0.28392813 -0.0104895085 0.31453648 -0.2736809 -0.29048312
-0.3156277 -0.26885873 -0.07767782 -0.014938795 -0.5008911 -0.32801476 -0.27458468 -0.31793657
-0.20134935 -0.5258389 -0.10757035 -0.5260953 -0.38083372 -0.49425653 -0.3329155 -0.19699372
-0.17982905 -0.053672254 -0.5742238 0.30162254 -0.06702901 -0.098403774 0.11555439 -0.28558788
-0.20372568 -0.5459588 0.06739401 -0.13377832 -0.6485438 0.243382 0.023888934 -0.44717264
-0.18098457 -0.22312845 -0.27674285 -0.4069629 -0.06447966 -0.24048598 -0.30634278 -0.46851492
-0.5731041 -0.095681764 -0.5989354 -0.011513009 -0.34885955 -0.18120912 -0.17518799 -0.3140553
0.03574892 -0.5381789 -0.19690743 -0.37096116 -0.48272792 -0.5378204 -0.45903152 -0.31175923
00000000: cdfc 3d3c 0ea3 13bf 1c70 64be 075f 91be
00000010: 30dc 2bbc ed0a a13e e71f 8cbe 34ba 94be
00000020: f499 a1be daa7 89be 8d15 9fbd d9c1 74bc
00000030: 663a 00bf 8df1 a7be 5d96 8cbe 95c8 a2be
00000040: 862e 4ebe 619d 06bf d84d dcbd 2eae 06bf
00000050: a3fc c2be 310f fdbe e773 aabe b9b8 49be
00000060: 1b25 38be 70d7 5bbd 5500 13bf 456e 9a3e
00000070: 8146 89bd eb87 c9bd c8a7 ec3d 9338 92be
00000080: 779d 50be f5c3 0bbf df05 8a3d 2ffd 08be
00000090: f706 26bf 2239 793e bab2 c33c d0f3 e4be
000000a0: 0554 39be c97b 64be 3db1 8dbe 715d d0be
000000b0: e90d 84bd f541 76be f6d8 9cbe 30e1 efbe
000000c0: f3b6 12bf cdf4 c3bd d553 19bf 0fa1 3cbc
000000d0: b89d b2be e28e 39be 7b64 33be dbcb a0be
000000e0: 766d 123d 18c6 09bf 1aa2 49be 9fee bdbe
000000f0: 1d28 f7be 99ae 09bf 2e06 ebbe e89e 9fbe

w_r.2.weight f4 [32, 64]
0.049951423 -0.05209563 -0.09431057 0.012801928 0.02145225 0.22487657 -1.7333497 -0.9385258
-0.24852751 0.30459034 0.010523519 -0.12004498 -0.17762636 -0.00084044115 -0.05821156 -0.10347851
-0.38265845 0.09998488 -0.08627351 -0.5080246 -0.320135 0.0890964 0.27525407 0.1088102
-0.21441169 -0.27275863 -0.10641877 -0.00039785387 0.04966469 0.29785788 0.049573533 -0.020606834
0.033341415 0.27212512 0.13591023 0.2486384 0.52963024 -0.35184148 -0.70634305 -0.043781333
0.15769266 -0.15182546 0.012696922 -0.39749652 -0.30588204 -0.03293832 0.12884265 -0.17972039
0.17890091 0.14304043 -0.040786672 -0.1599794 -0.050626308 -0.48475677 0.012961634 -0.8004955
0.0069801025 -0.011648834 0.21282665 -0.26810893 0.028272904 0.02263427 -2.2575033 -0.04222247
-0.1366719 0.10310703 0.09819485 -0.0073774564 0.021931484 0.07973986 -0.12931742 0.13385019
-0.05350008 -0.03623087 0.026276438 -0.0004627784 -0.049181063 0.17239015 0.1100318 0.1814713
-0.110861726 -0.08224808 -0.28904992 -0.21348473 0.24795023 -0.2796469 -0.06617605 0.0099758115
-0.19227771 0.18733273 -0.16144583 -0.09210028 0.13633792 0.20021394 0.06740882 -0.34949914
-0.004049568 0.36329797 -0.014153555 0.14837044 -0.28447515 0.03612583 0.0017399888 -0.067710504
0.028198032 0.04208795 -0.009123766 -0.09736807 0.047538877 -0.050052095 -0.3372003 -0.05260418
-0.2738262 -0.0005281733 -0.082613274 0.4382269 -0.010584098 -0.009669443 -0.07373065 -2.1621795
-0.042739134 -0.15385278 0.036324058 -0.060642086 -0.031075072 -0.17954022 -0.057493642 0.027880885
0.4125432 0.092597105 -0.22007112 0.0006212502 -0.03967962 -0.58098453 0.10879093 0.20088273
-0.014249554 0.28342813 -0.0063762357 0.030862594 0.3523795 0.05093355 -0.123255044 0.6035628
0.1819294 0.19876225 -0.17585403 -0.010484753 0.10850939 -0.042314798 -0.5522017 -0.44391447
-0.037067015 0.18163292 -0.5477921 0.02944525 -0.15436749 -0.076130025 -0.10398586 0.97692597
-1.1430736 -0.3960257 0.020200776 0.10063553 -0.38600498 -0.10321036 -0.5102058 0.17870879
0.22438109 -0.27576137 -0.07953699 0.026422983 0.4257741 0.08978201 -0.34264857 -0.16653317
-0.12629071 -0.01681631 0.12605035 -0.34024447 0.058498867 0.0267085 -0.070691764 -0.72839624
0.014183479 0.23991725 0.24402487 0.11445162 -0.85274947 -0.5417813 -0.45967835 -0.03394292
-0.07025204 0.28868285 -0.18513152 -0.33655316 -0.108396605 -0.04600358 -0.40290505 -0.13258721
0.16983743 -0.15941861 0.06675788 -0.13520785 0.03957423 -0.11243319 -0.21939687 -0.0971588
-0.053941883 0.037403654 -0.16510205 0.34813192 -0.3343247 0.23592767 -0.367873 -0.092823155
-0.12308582 -0.09115872 -0.055531267 -0.09962262 0.21717589 -0.27773377 -0.28365853 -0.015482259
-0.063685246 -0.35674408 -0.10838849 0.061652493 0.04431077 -0.121568985 0.11601293 0.1207191
-0.14120877 -0.12522115 0.010652592 -0.20885083 -0.18001898 0.097668685 0.0036683397 -0.09841559
-0.064660944 -0.1374637 -0.1669953 -0.45821387 -0.20775783 -0.2529237 0.1379204 -0.016655229
0.03348264 0.17226534 -0.219966 -0.003928989 0.013230459 -0.06898506 0.13340174 0.05809711
00000000: dd99 4c3d 3a62 55bd e625 c1bd 2ebf 513c
00000010: a1bc af3c 0b46 663e 67de ddbf 3a43 70bf
00000020: ff7d 7ebe 44f3 9b3e d66a 2c3c 24da f5bd
00000030: afe3 35be 0d51 5cba 3f6f 6ebd 8bec d3bd
00000040: cfeb c3be dfc4 cc3d 2ab0 b0bd e60d 02bf
00000050: bce8 a3be 2c78 b63d 1aee 8c3e e2d7 de3d
00000060: bd8e 5bbe 05a7 8bbe 16f2 d9bd 0b97 d0b9
00000070: 346d 4b3d d480 983e 9e0d 4b3d aacf a8bc
00000080: 0291 083d fc53 8b3e 0d2c 0b3e 119b 7e3e
00000090: d995 073f 9124 b4be e6d2 34bf 0e54 33bd
000000a0: 2f7a 213e 2278 1bbe c006 503c aa84 cbbe
000000b0: 929c 9cbe 55ea 06bd 54ef 033e 9f08 38be
000000c0: cd31 373e 3179 123e ed0f 27bd a4d1 23be
000000d0: 885d 4fbd 0a32 f8be 095d 543c 46ed 4cbf
000000e0: 58b9 e43b c0da 3ebc 3bef 593e 9345 89be
000000f0: 949c e73c 816b b93c ef7a 10c0 78f1 2cbd
00000100: b8f3 0bbe c729 d33d 621a c93d 97be f1bb
00000110: a8a9 b33c a74e a33d c96b 04be 0610 093e
00000120: e622 5bbd d266 14bd af41 d73c 11a1 f2b9
00000130: 1572 49bd 0b87 303e 5a58 e13d 9dd3 393e
00000140: 790b e3bd ae71 a8bd 5afe 93be be9b 5abe
00000150: aae6 7d3e e12d 8fbe 4f87 87bd 9671 233c
00000160: 73e4 44be 27d4 3f3e 0e52 25be 129f bcbd
00000170: 2b9c 0b3e e204 4d3e a30d 8a3d 8df1 b2be
00000180: 3db2 84bb 3102 ba3e 50e4 67bc 6cee 173e
00000190: baa6 91be aef8 133d 5610 e43a ceab 8abd
000001a0: 8fff e63c 6a64 2c3d d97b 15bc e968 c7bd
000001b0: 20b8 423d 6d03 4dbd 85a5 acbe 7b77 57bd
000001c0: f332 8cbe 1c75 0aba 2631 a9bd 475f e03e
000001d0: ed68 2dbc 956c 1ebc 1800 97bd 2661 0ac0
000001e0: 3b0f 2fbd 958b 1dbe 89c8 143d d663 78bd
000001f0: 2691 febc 64d9 37be 747e 6bbd 7466 e43c
00000200: dd38 d33e 8da3 bd3d 535a 61be 65db 223a
00000210: 1987 22bd 67bb 14bf c7cd de3d 34b4 4d3e
00000220: f676 69bc 7e1d 913e beef d0bb 8dd3 fc3c
00000230: 166b b43e b39f 503d 246d fcbd 1783 1a3f
00000240: b34b 3a3e 5588 4b3e 1413 34be 3ec8 2bbc
00000250: 2c3a de3d 4852 2dbd 175d 0dbf c248 e3be
00000260: 95d3 17bd fbfd 393e 1a3c 0cbf 2a37 f13c
00000270: 8312 1ebe 0fea 9bbd 8af6 d4bd d217 7a3f
00000280: 3c50 92bf e1c3 cabe 197c a53c 001a ce3d
00000290: 72a2 c5be f45f d3bd d99c 02bf 70ff 363e
000002a0: 28c4 653e 9830 8dbe 4ae4 a2bd 0375 d83c
000002b0: 10ff d93e a1df b73d a26f afbe ac87 2abe
000002c0: 5a52 01be 5cc2 89bc 5813 013e 8634 aebe
000002d0: 829c 6f3d c9cb da3c d8c6 90bd 2d78 3abf
000002e0: d361 683c deac 753e a8e1 793e 9c65 ea3d
000002f0: ca4d 5abf 2eb2 0abf f65a ebbe bb07 0bbd
00000300: 4de0 8fbd 3dce 933e 1e93 3dbe b250 acbe
00000310: 0aff ddbd 406e 3cbd 9249 cebe f1c4 07be
00000320: dde9 2d3e a23e 23be 5bb8 883d ed73 0abe
00000330: 9618 223d 5f43 e6bd 93a9 60be 31fb c6bd
00000340: 2af2 5cbd 9334 193d 8310 29be 593e b23e
00000350: 9b2c abbe 0697 713e da59 bcbe 111a bebd
00000360: 6b14 fcbd 6cb1 babd c174 63bd f206 ccbd
00000370: 5b63 5e3e 1f33 8ebe b13b 91be 4da9 7dbc
00000380: 696d 82bd 29a7 b6be c9fa ddbd 5387 7c3d
00000390: 367f 353d 29f9 f8bd 3098 ed3d 933b f73d
000003a0: 0899 10be f939 00be 3688 2e3c fedc 55be
000003b0: e556 38be 8506 c83d 8768 703b 1d8e c9bd
000003c0: f56c 84bd 49c3 0cbe d100 2bbe 029b eabe
000003d0: 78be 54be 377f 81be 013b 0d3e 8c70 88bc
000003e0: 1825 093d 5366 303e c43e 61be c0be 80bb
000003f0: 91c4 583c 0a48 8dbd 779a 083e 3cf7 6d3d

w_r.2.bias f4 [32]
-0.5265606 0.034752525 0.24037012 -0.0674163 0.19395187 -0.2747905 0.034016263 -0.08591684
-0.048980415 -0.1030411 0.62930185 -0.56242627 -0.06603101 -0.6412742 0.037627276 -0.40597212
-0.178255 -0.15228039 0.30047327 0.16286543 0.0462429 -0.2544562 -0.069012456 -0.33612716
-0.16357139 0.5590867 -0.15230787 -0.08465777 0.33888832 0.102461606 0.013940327 0.19926032
00000000: adcc 06bf aa58 0e3d 9623 763e 8f11 8abd
00000010: 529b 463e 57b1 8cbe a354 0b3d 2bf5 afbd
00000020: b09f 48bd 3607 d3bd ed19 213f 2bfb 0fbf
00000030: 443b 87bd 8c2a 24bf 0f1f 1a3d 94db cfbe
00000040: 7b88 36be 64ef 1bbe a2d7 993e 32c6 263e
00000050: 3269 3d3d 1548 82be 6756 8dbd dc18 acbe
00000060: 427f 27be 4e20 0f3f 98f6 1bbe 0e61 adbd
00000070: c582 ad3e 64d7 d13d f865 643c e60a 4c3e

w_h.0.weight f4 [64, 5]
-0.012337264 -0.1466558 -0.87953967 -0.74664783 -0.5081737 0.1872998 0.22407877 -0.83272296
1.3434483 -0.2446676 -0.018857636 -0.47064608 -0.5828169 -0.20321973 -0.2193401 -0.07569371
0.087184355 -0.46454382 -0.22868955 1.337445 -0.24531268 -0.17893162 0.7990725 1.360943
-1.408805 -0.038547106 -0.14140758 -0.2359194 0.19829276 0.58289284 -0.5929575 0.1759626
-1.337215 -0.15360264 -1.4074193 -0.14038306 0.050543178 -0.38864934 -0.47054952 -0.5230348
-0.15061024 0.10138302 0.08832337 -0.4872712 0.2892274 0.001180223 -0.0088919215 0.046553124
0.027830688 -0.19257267 0.2158093 -0.10977752 0.1285274 -0.14380704 -1.1282536 -0.21624827
-0.001792731 -0.8381537 -0.53850013 -0.20805551 0.0015148665 0.0060937605 0.12000609 0.24963316
0.29076907 -0.01118942 -0.017830078 0.2027689 -0.04664148 -1.7185026 -0.23004122 -0.2335156
-0.37169588 -0.054860655 -2.6018364 -0.0133709395 0.009368835 0.05094989 -0.27041882 0.08407083
-0.29354677 0.33022043 0.08648595 0.75404304 -0.6067289 -0.14408953 -0.21810514 -1.2242097
-0.6497871 0.15787923 0.07626845 0.1680402 0.0999246 2.0095747 0.29259816 -0.26563004
-0.032165095 0.7109837 -1.0431372 -0.447496 -0.42812634 0.34877872 -0.67075133 -0.021481162
-0.8187241 -0.12481009 -0.21066286 0.4067761 0.20957859 -1.2072147 0.5126591 0.2837251
-0.78472805 0.438972 -0.568911 -0.2761329 -0.22317772 1.2609677 -0.37557232 0.6041525
0.15235865 -0.1299005 1.3410285 -0.2094091 -0.4250394 -0.0009441552 -0.0074657924 -0.27856332
0.04742225 -0.8445236 0.00022509057 0.00017950997 0.053602263 -0.008207781 -0.34944013 -0.45663053
-0.33792028 -0.3621831 -0.8622952 -0.8708062 -0.19429952 0.31409296 -0.47202694 -0.43126252
-1.1808177 -0.007430323 -0.46565378 0.48113647 -0.0096422555 -0.70255154 -0.034316123 -0.001043978
-0.36306486 -0.9487285 -0.0041653677 0.097796805 -0.16323726 0.2982105 -1.0324347 0.6483841
0.15665016 -0.32018632 0.7458098 -1.1147317 0.13443196 0.33162364 0.14937869 1.609383
1.0616465 0.5869154 -0.64525497 0.09469877 0.8759287 -0.8215018 -0.29333836 -0.47945437
-0.020935327 0.47074318 0.6946679 0.40526098 -0.3741656 -0.5416782 -0.86994326 0.10645709
0.4188932 -0.44473344 -0.29780808 0.30701116 -0.18088576 0.29205152 0.31159088 -0.13507621
-0.23688622 0.728713 0.76993924 -0.14103939 0.0203611 -1.0764384 0.72649145 -0.60439
0.039306823 -0.26354635 0.4277664 0.6980155 0.24701177 0.35480726 0.3508718 1.1060972
0.3715544 -0.6883663 0.0077310326 -0.04555778 -0.4690549 0.23209465 -1.5570543 0.17604043
0.05902101 0.8753143 1.3618256 -1.0859121 0.44368297 -0.056095578 0.2727361 -0.22079577
-0.88743776 0.18903527 0.18617067 0.14315893 -1.1133515 -2.0780044 -0.08935053 0.46134868
0.64049256 -0.28419873 -0.47508264 -0.04235168 0.08388374 0.50390434 1.3762432 -0.2879726
-0.2515437 -0.063602574 -0.13937336 0.4227534 -1.340525 -0.0018885342 0.0081584165 -0.11362035
-0.061042063 -0.11111072 0.13604493 0.23660034 0.049097355 -0.8146736 -1.1852152 0.3716343
00000000: 3c22 4abc f02c 16be 8329 61bf 5024 3fbf
00000010: ac17 02bf 85cb 3f3e e874 653e 552d 55bf
00000020: 1df6 ab3f 258a 7abe 547b 9abc 86f8 f0be
00000030: 7d33 15bf d518 50be b19a 60be 4e05 9bbd
00000040: b68d b23d b0d8 edbe 982d 6abe 6631 ab3f
00000050: 3f33 7bbe da39 37be 0490 4c3f 6133 ae3f
00000060: b953 b4bf 92e3 1dbd 26cd 10be db94 71be
00000070: 420d 4b3e 7738 153f 10cc 17bf 8a2f 343e
00000080: dc29 abbf 034a 1dbe 5126 b4bf 94c0 0fbe
00000090: 5d06 4f3d 0cfd c6be deeb f0be 9ce5 05bf
000000a0: 9239 1abe e7a1 cf3d e2e2 b43d 9c7b f9be
000000b0: 9d15 943e b6b1 9a3a 6caf 11bc 7dae 3e3d
000000c0: 2ffd e33c c531 45be 1dfd 5c3e 09d3 e0bd
000000d0: b09c 033e 2742 13be 9d6a 90bf 3070 5dbe
000000e0: 12fa eaba 3e91 56bf 25db 09bf 810c 55be
000000f0: 7c8e c63a 2bae c73b c1c5 f53d d69f 7f3e
00000100: afdf 943e d453 37bc 6210 92bc a7a2 4f3e
00000110: 230b 3fbd e5f7 dbbf ed8f 6bbe b71e 6fbe
00000120: ec4e bebe 91b5 60bd 7d84 26c0 c911 5bbc
00000130: be7f 193c d5b0 503d 5674 8abe 542d ac3d
00000140: c34b 96be a712 a93e 8c1f b13d f708 413f
00000150: 9652 1bbf 358c 13be f456 5fbe e7b2 9cbf
00000160: 7358 26bf 18ab 213e a232 9c3d bb12 2c3e
00000170: 45a5 cc3d df9c 0040 6dcf 953e a900 88be
00000180: 8cbf 03bd 0703 363f 8585 85bf 321e e5be
00000190: 6033 dbbe 2093 b23e 5cb6 2bbf 43f9 afbc
000001a0: e797 51bf 6f9c ffbd 01b8 57be f544 d03e
000001b0: c59b 563e 0386 9abf a03d 033f 6b44 913e
000001c0: f0e3 48bf f0c0 e03e 27a4 11bf 4b61 8dbe
000001d0: b388 64be 6467 a13f 044b c0be bda9 1a3f
000001e0: e803 1c3e a304 05be d2a6 ab3f 576f 56be
000001f0: c49e d9be 2f81 77ba 9ba3 f4bb da9f 8ebe
00000200: d53d 423d b332 58bf 4a06 6c39 d73a 3c39
00000210: 0c8e 5b3d ee79 06bc d1e9 b2be 7acb e9be
00000220: e303 adbe 1070 b9be 61bf 5cbf 28ed 5ebf
00000230: 74f6 46be cbd0 a03e 84ad f1be 71ce dcbe
00000240: 0925 97bf 117a f3bb 2c6a eebe 8557 f63e
00000250: 8dfa 1dbc 6bda 33bf 108f 0cbd 17d6 88ba
00000260: a3e3 b9be dfdf 72bf a37d 88bb b149 c83d
00000270: ab27 27be 0caf 983e d226 84bf 80fc 253f
00000280: e668 203e 76ef a3be 64ed 3e3f 87af 8ebf
00000290: 88a8 093e 93ca a93e baf6 183e 4300 ce3f
000002a0: 08e4 873f 1640 163f 6e2f 25bf 6ef1 c13d
000002b0: dd3c 603f f14d 52bf 7230 96be 0b7b f5be
000002c0: 9080 abbc 4005 f13e c1d5 313f 5e7e cf3e
000002d0: a292 bfbe 6cab 0abf 9ab4 5ebf 2d06 da3d
000002e0: 2b79 d63e 1ab4 e3be 4d7a 98be 9130 9d3e
000002f0: 1e3a 39be c787 953e d788 9f3e 6b51 0abe
00000300: 4d92 72be ef8c 3a3f bd1a 453f a16c 10be
00000310: 52cc a63c bcc8 89bf 58fb 393f 4eb9 1abf
00000320: 3100 213d 8cef 86be 3304 db3e 25b1 323f
00000330: a7f0 7c3e 4ca9 b53e 78a5 b33e 9894 8d3f
00000340: 613c be3e c638 30bf 9a54 fd3b cb9a 3abd
00000350: f727 f0be 38aa 6d3e 8e4d c7bf f143 343e
00000360: 04c0 713d 9914 603f 4d50 ae3f 2bff 8abf
00000370: 6a2a e33e 7ac4 65bd 11a4 8b3e 4918 62be
00000380: 1f2f 63bf 7692 413e 86a3 3e3e 4198 123e
00000390: 4d82 8ebf 06fe 04c0 69fd b6bd e535 ec3e
000003a0: 52f7 233f 7f82 91be 083e f3be f578 2dbd
000003b0: 3dcb ab3d e0ff 003f bd28 b03f 2571 93be
000003c0: 56ca 80be 1142 82bd e4b7 0ebe 2273 d83e
000003d0: 5396 abbf b188 f7ba e1aa 053c c9b1 e8bd
000003e0: 3e07 7abd 048e e3bd 5d4f 0b3e 5c47 723e
000003f0: 4f1a 493d 738e 50bf 22b5 97bf da46 be3e

w_h.0.bias f4 [64]
-0.09919092 -1.2888178 -0.9987217 -0.7460312 -1.1398474 0.10621154 -0.5365303 -0.35044912
0.012290111 -0.22508474 0.17709878 -0.1533445 -0.5906402 0.16607924 -0.07037007 -0.43339786
-0.29137704 -0.9384449 -0.8068002 -0.89897114 -1.0867916 0.5140876 -1.1998348 -0.83475864
-0.21005166 -0.04808415 0.048159048 -0.3594129 -0.91978806 -0.20194042 -0.21037954 0.19628823
-0.6821806 -0.9511381 -0.6116688 -1.2130268 -0.8704128 -1.6518979 -0.86836743 -0.1264803
-0.53828204 -1.4307988 -0.16845475 0.029349633 0.43112192 -0.58630085 -1.0054895 -0.58531
0.13537388 -0.1881659 -0.43688834 -0.58919317 -0.7103083 -0.94554484 -0.21824777 -0.31017113
0.5981595 -0.5921528 -1.1561474 0.5312115 -0.5007311 0.30894798 -0.12214493 -0.6668843
00000000: 9c24 cbbd fbf7 a4bf 3aac 7fbf e7fb 3ebf
00000010: 85e6 91bf 7085 d93d 0d5a 09bf 116e b3be
00000020: 765c 493c 9d7c 66be 6259 353e 5706 1dbe
00000030: 3234 17bf ad10 2a3e 2f1e 90bd 53e6 ddbe
00000040: 5f2f 95be ed3d 70bf 758a 4ebf f922 66bf
00000050: fd1b 8bbf 3f9b 033f 3094 99bf beb2 55bf
00000060: c817 57be e3f3 44bd 6c42 453d f804 b8be
00000070: 3b77 6bbf 78c9 4ebe bc6d 57be c8ff 483e
00000080: 63a3 2ebf c97d 73bf 5496 1cbf 7644 9bbf
00000090: 60d3 5ebf 6471 d3bf 544d 5ebf 0d84 01be
000000a0: dacc 09bf 6a24 b7bf 677f 2cbe a46e f03c
000000b0: 03bc dc3e d017 16bf e1b3 80bf e0d6 15bf
000000c0: 739f 0a3e 90ae 40be d4af dfbe 5dd5 16bf
000000d0: c4d6 35bf 3a0f 72bf 587c 5fbe c0ce 9ebe
000000e0: fb20 193f 5397 17bf a3fc 93bf 7afd 073f
000000f0: ea2f 00bf 6e2e 9e3e 1f27 fabd eeb8 2abf

w_h.2.weight f4 [32, 64]
-0.0015701652 -0.10290916 -0.44978717 -0.1341421 -0.33911312 0.060275976 0.8606738 0.37570074
-0.37191892 -0.04045123 0.22494362 0.1816985 -0.05004206 0.64456123 0.12151355 -0.058960672
0.3481942 -0.32972303 -0.10705611 -0.7993014 0.6708424 0.22100028 0.17730933 -0.072908364
-0.23120697 0.04023127 0.06314104 0.29615402 -0.08573982 0.33348817 -0.014578701 0.12444114
0.63597465 0.12588963 -0.17941912 0.15111034 0.27303967 -0.6263103 0.20846422 0.18266372
0.096796565 0.17808288 -0.20051745 0.27438432 0.4162919 -0.27483317 0.22340904 0.13143532
0.07834742 0.08459462 -0.02371433 0.6222797 0.17911066 0.25873858 0.18746394 0.13410138
0.35550258 -0.019797323 -0.09845534 -0.20940802 0.101189025 0.16628529 0.061510753 0.24496472
0.28621373 -0.009906418 0.77602994 -0.09133046 -0.36208966 0.45142245 -0.19985567 0.27466112
-0.53402317 0.055717044 0.26515368 -0.5352547 -0.48910207 -0.1606306 -2.3655317 -0.0039502257
-0.1537599 -0.5579024 0.5413768 1.4934496 0.7232921 -0.31583735 -0.7731352 -0.5265838
0.37201166 -0.15778385 -0.023596238 -0.0057557966 0.6300985 -0.14051597 -0.24489017 -0.7317773
-0.11954704 0.60077184 -0.33337516 0.7695543 0.64377034 -1.3307588 0.39429256 0.75883144
-0.08670115 -0.042883474 0.6184266 0.4762126 -0.5480901 -0.30504438 -2.276406 0.26058513
0.1459212 0.13701585 -1.8084654 1.2382638 -0.5394656 -0.12533225 0.112884164 -1.6061599
-0.21582231 0.51850694 -0.5516321 -0.25318763 -0.05487896 0.30381748 0.23914078 -0.016736334
-2.9698627 1.8595102 -0.059205983 -0.50496566 -0.447629 -0.06695762 0.49452117 -0.66837543
-0.059689462 0.066781044 -0.29225922 -0.43185243 -0.1681582 -0.070112854 -0.42710087 0.048026882
-0.18001361 -1.3415147 0.056807034 0.07509747 0.012544505 0.41391355 -1.713413 0.3035937
0.11641383 0.37653327 0.13629627 0.036923517 0.6302298 -0.3629502 0.31899083 -0.2740087
-0.19252682 1.1503078 -0.11643946 -0.13186552 -0.11933143 -0.13730443 -0.28999105 0.004911268
0.18395823 -0.7462765 0.011762753 0.96748257 -0.20731027 -0.4802776 -0.55722266 -0.1478201
-0.115857944 -0.13596737 -2.350697 -0.5523376 0.0031954013 -2.2287114 0.029233878 0.23868088
0.42457017 -0.6146717 0.5045021 -0.83228666 0.023122456 0.1856641 -1.0736682 0.21643344
-0.08804149 0.08426496 -0.7742322 0.26394826 0.87350065 -0.042808566 0.008142366 0.24169917
0.2795306 0.062663 -0.47135222 0.36166468 0.023924127 -0.24364047 0.29222178 0.010942074
0.44343844 -0.937547 0.5406475 0.15044685 -0.16539758 -0.18841237 0.92079234 0.36903694
0.44457647 0.14222327 0.036260884 -0.5678496 0.29223067 -0.6184963 0.498067 -0.20527284
0.81117827 0.5891177 0.59251946 -0.62772083 -1.2525162 -1.4260827 0.041536517 0.7180015
-0.8446638 0.7954774 0.63472277 0.10588453 -0.48411858 -1.2122573 -0.3454398 0.12401522
-0.28801408 -0.16098207 -0.11376495 -0.31427217 -0.07345513 0.7612724 0.19423427 -0.22926602
-0.30895633 -0.83231014 -0.749044 0.5304704 -0.46601963 0.12633099 0.032084554 0.5091547
00000000: 00ce cdba 0ac2 d2bd 814a e6be 8c5c 09be
00000010: 3ca0 adbe f1e3 763d 1e55 5c3f d95b c03e
00000020: 286c bebe 30b0 25bd 9f57 663e 2c0f 3a3e
00000030: e7f8 4cbd f701 253f 19dc f83d bf80 71bd
00000040: 8346 b23e 75d1 a8be 3c40 dbbd 049f 4cbf
00000050: 54bc 2b3f e64d 623e 9490 353e fb50 95bd
00000060: 85c1 6cbe 8bc9 243d 1750 813d 80a1 973e
00000070: 5c98 afbd f6be aa3e 81db 6ebc ffda fe3d
00000080: 3ccf 223f 36e9 003e a5b9 37be abbc 1a3e
00000090: dbcb 8b3e df55 20bf a577 553e 330c 3b3e
000000a0: 473d c63d 5c5b 363e 7254 4dbe 1a7c 8c3e
000000b0: 3624 d53e efb6 8cbe 57c5 643e fb96 063e
000000c0: 9d74 a03d f23f ad3d 8e44 c2bc b94d 1f3f
000000d0: c968 373e 6279 843e 8cf6 3f3e df51 093e
000000e0: 6f04 b63e ff2d a2bc f4a2 c9bd 0e6f 56be
000000f0: 313c cf3d b146 2a3e b3f2 7b3d 08d8 7a3e
00000100: 9b8a 923e 874e 22bc e6a9 463f 770b bbbd
00000110: d163 b9be d820 e73e f7a6 4cbe 62a0 8c3e
00000120: beb5 08bf 8e37 643d 39c2 873e 7406 09bf
00000130: 966b fabe 597c 24be df64 17c0 e570 81bb
00000140: 3c73 1dbe b1d2 0ebf ac97 0a3f 5b29 bf3f
00000150: ac29 393f 6fb5 a1be 30ec 45bf 32ce 06bf
00000160: 5078 be3e 1792 21be e64c c1bc 1f9b bcbb
00000170: 234e 213f 6be3 0fbe 7dc4 7abe c255 3bbf
00000180: 14d5 f4bd 2fcc 193f 26b0 aabe 8301 453f
00000190: 22ce 243f 4e56 aabf b7e0 c93e c742 423f
000001a0: 5f90 b1bd 95a6 2fbd 3551 1e3f 23d2 f33e
000001b0: a24f 0cbf c72e 9cbe a3b0 11c0 6a6b 853e
000001c0: 5e6c 153e e24d 0c3e cb7b e7bf 6e7f 9e3f
000001d0: 6b1a 0abf 1957 00be d02f e73d a696 cdbf
000001e0: 8600 5dbe dfbc 043f c337 0dbf cfa1 81be
000001f0: c3c8 60bd f78d 9b3e 52e1 743e a31a 89bc
00000200: 3b12 3ec0 6e04 ee3f f981 72bd 6e45 01bf
00000210: a12f e5be 1421 89bd e131 fd3e a71a 2bbf
00000220: f07c 74bd 80c4 883d 00a3 95be c31b ddbe
00000230: aa31 2cbe 5497 8fbd f7ac dabe d6b7 443d
00000240: 7d55 38be c1b6 abbf 7eae 683d b4cc 993d
00000250: 7887 4d3c 7aec d33e 1e51 dbbf a270 9b3e
00000260: 606a ee3d f8c8 c03e 4091 0b3e 1d3d 173d
00000270: bd56 213f 9cd4 b9be c452 a33e de4a 8cbe
00000280: c025 45be 493d 933f d077 eebd c107 07be
00000290: 0964 f4bd 8899 0cbe b579 94be b4ee a03b
000002a0: 8c5f 3c3e fa0b 3fbf 90b8 403c f0ac 773f
000002b0: 2549 54be f2e6 f5be 25a6 0ebf 275e 17be
000002c0: ee46 edbd 083b 0bbe d271 16c0 ff65 0dbf
000002d0: f069 513b 35a3 0ec0 e37b ef3c c368 743e
000002e0: 4361 d93e 205b 1dbf 0d27 013f bd10 55bf
000002f0: 4e6b bd3c bb1e 3e3e f66d 89bf baa0 5d3e
00000300: 194f b4bd 1b93 ac3d 1534 46bf 3a24 873e
00000310: bd9d 5f3f 0958 2fbd 8f67 053c fd7f 773e
00000320: a31e 8f3e 7555 803d 1455 f1be 1d2c b93e
00000330: 88fc c33c e37c 79be 189e 953e 6246 333c
00000340: 5d0a e33e 1503 70bf e067 0a3f bd0e 1a3e
00000350: fc5d 29be 2cef 40be 0cb9 6b3f 69f2 bc3e
00000360: 879f e33e faa2 113e 4b86 143d 975e 11bf
00000370: 429f 953e c655 1ebf a302 ff3e 0b33 52be
00000380: 61a9 4f3f 6bd0 163f 5baf 173f 50b2 20bf
00000390: 7352 a0bf e189 b6bf 3222 2a3d f2ce 373f
000003a0: e33b 58bf 68a4 4b3f 317d 223f fdd9 d83d
000003b0: 64de f7be 3f2b 9bbf 7cdd b0be b1fb fd3d
000003c0: 9576 93be 7cd8 24be 99fd e8bd 48e8 a0be
000003d0: a56f 96bd bfe2 423f 59e5 463e b6c4 6abe
000003e0: 862f 9ebe 4712 55bf 59c1 3fbf e8cc 073f
000003f0: 209a eebe e95c 013e 186b 033d f657 023f

w_h.2.bias f4 [32]
-0.58573085 0.11732845 -0.02961239 -0.13882974 -0.023615304 -2.0033197 -0.044002082 -0.11319503
-0.4883849 -0.15395062 0.14894985 0.021913987 0.44343418 0.27880776 -0.028944967 -0.16575585
-0.19741617 0.043501347 -0.15484452 -0.02123773 -0.22457157 -0.22315788 -0.04657763 -0.06695407
-0.05346244 0.16099906 0.22414495 0.22574806 0.12800147 -0.15064038 0.40993172 0.44282606
00000000: 75f2 15bf e649 f03d af95 f2bc 6229 0ebe
00000010: e274 c1bc 6436 00c0 873b 34bd ccd2 e7bd
00000020: 960d fabe 3ba5 1dbe 4f86 183e f684 b33c
00000030: ce09 e33e e4bf 8e3e ff1d edbc e7bb 29be
00000040: 7727 4abe 782e 323d 908f 1ebe bffa adbc
00000050: 17f6 65be 8083 64be 2fc8 3ebd 371f 89bd
00000060: 6efb 5abd f0dc 243e 4186 653e 802a 673e
00000070: d112 033e 7941 1abe 92e2 d13e 19ba e23e

Ws.0 f4 [32, 32]
-1.5424289 0.0724338 -0.62899834 0.19861402 0.986259 0.1414859 -1.0372304 2.3291025
0.41958362 1.3519012 -1.2890365 -0.9599944 0.11584555 -0.5630527 0.1572434 0.40435824
0.31328478 -0.34526926 -0.47890615 1.6168141 -0.687146 0.12166876 -1.4580624 0.28853658
-0.03974322 -0.07844085 0.5854669 1.1262813 0.7614831 -1.3470877 -0.42140967 0.38138917
-1.5357859 -0.42949155 0.026685 0.89361846 -1.4404277 1.0650781 -0.25189272 -0.41206706
-0.9384315 -0.5240981 0.020053376 0.25863245 -2.7032063 -1.6935503 0.52729297 -0.64233744
-0.5939157 1.9098808 -0.8598157 0.3910524 -1.0329976 -1.4315194 0.97679436 -0.11192953
0.29923692 0.4171108 0.9010673 -0.6399467 -0.29814452 -1.9364511 0.9208891 -0.3525607
-0.24438351 -0.96062934 -0.9106974 0.3589427 -0.84356254 1.017744 -2.1200984 -1.102253
-3.9941676 0.48128128 1.9445739 -0.06612041 -0.3882245 -1.5220723 0.012181512 -0.08130919
2.8047771 -0.10884182 0.34349132 1.056463 0.6391243 -0.2103578 -1.8720767 -0.7723619
1.2145685 -1.463806 -2.2485058 0.18578291 -0.8688667 1.0103554 0.26134026 1.2945457
-0.5043122 -1.3371832 0.11632432 -3.2988284 -0.33148888 0.93441325 1.5744724 0.28321457
0.8731246 0.98816353 -0.12535359 -0.1268397 0.5469203 0.75789666 0.07730636 0.8605857
-1.4945382 0.21251462 0.9543959 2.1185167 0.2337077 0.28834486 -0.032709446 -0.6232686
1.2722365 0.3465805 0.8806394 -1.4226476 0.29156515 -1.5201732 1.1618922 0.16399822
0.14344849 0.08471932 -0.696545 -2.2369998 -0.86284333 0.07224173 -0.6099409 -0.81271905
-0.8623066 -0.5329506 0.8623368 -0.27572843 -0.50428814 -0.5550064 0.28404817 1.0330836
0.742399 -0.5221701 -0.3570642 -0.19721606 -1.107404 0.19344364 0.80491704 0.4868173
0.5285159 -1.0450011 -0.22223262 -1.7597625 -0.25155735 1.1022141 0.4911744 -1.2972491
-0.25014886 -0.21730958 -0.5503966 1.0873091 -0.4323867 -0.6124826 -0.45408535 0.53053945
0.18132824 -0.4222957 -0.38202617 -0.73712605 -1.632749 1.1521006 0.45047018 0.80769515
0.4491608 -0.6958674 -0.71581674 -0.5110887 0.5008184 -4.0452724 0.3237039 -1.0348145
0.20532618 -2.3644767 -0.4683212 -0.6614336 -0.62761 -1.235631 0.2594703 -3.693379
-1.3230681 -0.7197099 1.0622939 1.2771848 -1.4391026 0.099632576 1.1119688 0.43154055
2.0530672 -0.25345075 -1.2735057 -1.2470694 1.3811872 0.9049321 0.75215787 -0.48265564
-0.76211935 0.295374 -6.220131 -0.29025123 -0.51207155 -0.23522334 -2.1568913 -0.24951905
0.6819049 -3.0242858 1.0538627 -1.9293226 1.3808706 1.4102267 -2.1397736 1.0289444
2.0706437 0.34812307 -0.7894424 -0.44969583 -0.005498111 2.0578258 -0.997544 0.1441233
0.8237507 -0.12584771 -0.042883888 -0.49324527 -0.7500951 -1.6670599 1.6984531 -1.1409044
0.2380815 0.4969523 0.39484397 -0.3257166 -0.099660225 0.27731806 -0.965596 0.31399706
-0.38510677 0.9554517 1.6563952 -1.0068073 -0.2336416 1.1267277 0.5017433 1.9792411
00000000: 4f6e c5bf 2c58 943d 0906 21bf 7961 4b3e
00000010: 787b 7c3f aee1 103e f7c3 84bf 0410 1540
00000020: aad3 d63e 190b ad3f 26ff a4bf 31c2 75bf
00000030: 6f40 ed3d 3924 10bf 6a04 213e 0b08 cf3e
00000040: dd66 a03e 22c7 b0be 3033 f5be c4f3 ce3f
00000050: cde8 2fbf 792d f93d caa1 babf 11bb 933e
00000060: c9c9 22bd 99a5 a0bd 29e1 153f fc29 903f
00000070: 8ef0 423f 5f6d acbf 02c3 d7be 7145 c33e
00000080: a294 c4bf 51e6 dbbe 809a da3c 2ec4 643f
00000090: ef5f b8bf 7b54 883f 15f8 80be 74fa d2be
000000a0: 0c3d 70bf 4b2b 06bf fa46 a43c 796b 843e
000000b0: 5501 2dc0 42c6 d8bf acfc 063f 3a70 24bf
000000c0: dc0a 18bf f976 f43f e21c 5cbf 0538 c83e
000000d0: 4439 84bf 073c b7bf 320f 7a3f 4f3b e5bd
000000e0: 9535 993e 8c8f d53e 59ac 663f 8cd3 23bf
000000f0: 66a6 98be a1dd f7bf 63bf 6b3f d682 b4be
00000100: ac3f 7abe ceeb 75bf 7723 69bf 56c7 b73e
00000110: b7f3 57bf 6f45 823f b1af 07c0 a016 8dbf
00000120: 71a0 7fc0 806a f63e cce7 f83f 236a 87bd
00000130: 5dc5 c6be 44d3 c2bf f794 473c 6f85 a6bd
00000140: 7881 3340 76e8 debd 18de af3e 2e3a 873f
00000150: a69d 233f 0968 57be 36a0 efbf 82b9 45bf
00000160: fb76 9b3f ff5d bbbf 85e7 0fc0 e03d 3e3e
00000170: 0c6e 5ebf 5353 813f 64ce 853e acb3 a53f
00000180: 9b1a 01bf d228 abbf 723b ee3d 0120 53c0
00000190: e9b8 a9be b535 6f3f 5088 c93f 8001 913e
000001a0: 1885 5f3f 49f8 7c3f b15c 00be 44e2 01be
000001b0: f802 0c3f 8405 423f cc52 9e3d 584f 5c3f
000001c0: 074d bfbf 6f9d 593e 4a53 743f c795 0740
000001d0: 1251 6f3e f0a1 933e 57fa 05bd 888e 1fbf
000001e0: a5d8 a23f 0073 b13e 9571 613f 5119 b6bf
000001f0: 0748 953e 0995 c2bf e2b8 943f 26ef 273e
00000200: 29e4 123e 5381 ad3d c650 32bf 012b 0fc0
00000210: 4de3 5cbf 79f3 933d 1625 1cbf 5b0e 50bf
00000220: 20c0 5cbf 736f 08bf 1bc2 5c3f 472c 8dbe
00000230: 0719 01bf e614 0ebf c36e 913e 153c 843f
00000240: dc0d 3e3f f1ac 05bf 1ed1 b6be 02f3 49be
00000250: 6abf 8dbf 1716 463e 0b0f 4e3f 1e40 f93e
00000260: d14c 073f 99c2 85bf f390 63be e63f e1bf
00000270: 20cc 80be 5a15 8d3f 367b fb3e 420c a6bf
00000280: 8313 80be 6786 5ebe cbe6 0cbf f22c 8b3f
00000290: ca61 ddbe a9cb 1cbf e07d e8be 6fd1 073f
000002a0: 1cae 393e 2437 d8be ef98 c3be 4bb4 3cbf
000002b0: ebfd d0bf 0878 933f 07a4 e63e 1cc5 4e3f
000002c0: 68f8 e53e 5e24 32bf c43f 37bf b6d6 02bf
000002d0: a235 003f df72 81c0 85bc a53e cd74 84bf
000002e0: 0741 523e 9653 17c0 ccc7 efbe b653 29bf
000002f0: 0dab 20bf 2829 9ebf 4bd9 843e 5260 6cc0
00000300: 4c5a a9bf e83e 38bf 3ff9 873f cb7a a33f
00000310: 8434 b8bf 2a0c cc3d fe54 8e3f e2f2 dc3e
00000320: 7465 0340 4cc4 81be 3c02 a3bf f89f 9fbf
00000330: beca b03f a1a9 673f 6b8d 403f a41e f7be
00000340: 411a 43bf 433b 973e 500b c7c0 cf9b 94be
00000350: 1f17 03bf 63de 70be 820a 0ac0 ec81 7fbe
00000360: 5291 2e3f e68d 41c0 f9e4 863f 0bf4 f6bf
00000370: 5ec0 b03f 4f82 b43f 0df2 08c0 73b4 833f
00000380: 6d85 0440 303d b23e e618 4abf 883e e6be
00000390: 7f29 b4bb 6bb3 0340 0b5f 7fbf 0f95 133e
000003a0: 53e1 523f 39de 00be 04a7 2fbd a58a fcbe
000003b0: 3c06 40bf 3862 d5bf e966 d93f 2809 92bf
000003c0: a3cb 733e 8870 fe3e fd28 ca3e 54c4 a6be
000003d0: a91a ccbd a2fc 8d3e 4d31 77bf 39c4 a03e
000003e0: b72c c5be 7c98 743f c204 d43f 10df 80bf
000003f0: be3f 6fbe 9d38 903f 4072 003f c657 fd3f

Ws.1 f4 [32, 32]
-1.7110274 -0.5966104 -2.019944 1.0063964 0.024694948 2.4229512 0.97629493 1.575574
0.16397296 -0.41250402 -0.00420512 -0.6990416 0.95632553 -0.7501179 -0.8416754 0.39071983
2.5879445 -0.44098482 -2.921219 -2.5304656 -0.8892313 -0.094322704 -0.34016266 -0.28284362
-0.34869665 2.2731154 -4.321775 -0.33205244 -0.45326802 -0.007925884 -0.21914509 0.17687386
0.51407087 -0.94241226 -1.7109153 0.52270854 -0.22643082 -2.1087778 -0.5316003 1.2489513
-0.058190834 0.28098086 1.4185101 -1.2912449 0.09941991 1.0364455 1.0396781 0.23873289
-0.45098957 1.0053939 -0.48128217 -2.8342001 -0.30461907 -0.5959959 0.99608785 -1.9011655
-0.4329409 -0.96510834 0.2681471 1.1451372 -0.10415684 0.4740189 0.61656624 -0.9778108
1.100724 -1.0198497 -0.9046641 -0.25101745 -1.0793383 0.4716737 -2.1878145 -1.882608
0.50463563 -0.23472263 1.046581 -0.41871876 0.65794 -0.22472645 1.7963091 -0.055066172
-0.124240525 0.061204657 -0.772656 -0.05172325 -0.016478455 -1.8268244 -0.5141459 -3.0266285
1.1153957 -2.351081 -0.40465963 0.31062257 1.1676698 -1.2421291 -2.0153074 -0.27974018
-0.28331608 0.9754501 -0.36530647 -1.8360919 -1.2563548 -1.3612146 -0.10397389 -0.11881745
-0.3314933 -0.6706234 -1.5319724 -1.6092571 -0.069118686 0.62382615 -1.1436133 -0.095765695
-0.9224519 -1.1991479 -0.62026304 -1.6990615 1.1605176 -0.9837328 0.82813424 -0.75704724
0.2436538 -0.83993965 0.11108633 -1.3035632 0.55470335 -1.0564234 -1.1719522 -1.2695854
0.8318698 -0.37674785 -1.9298072 -0.6368514 -0.37683848 0.14707221 -0.072262205 0.48086548
-0.81801283 -0.13694564 0.13310722 0.3946785 -0.3144731 0.19744055 -0.54847395 -0.22762387
0.7149476 2.2876155 -1.2459738 0.22295968 0.816055 -1.1629982 0.09784122 -0.6480923
0.57485694 -1.7476819 -0.51230156 0.55882245 1.2017119 0.58660334 -0.82923007 -1.2731383
-1.1334492 0.04880092 1.4259056 1.0283898 1.0815482 -0.75840086 0.5826273 -0.90138865
-0.14366195 -1.337638 0.32831922 0.7295721 -0.3741014 0.49736673 -0.068518355 -1.0995408
-0.06666688 0.39328483 1.4179091 -1.518154 0.96288466 -1.7457838 1.3366759 -0.6604104
-0.8091726 -0.28195012 0.1651778 -1.0581933 1.7594761 -1.6193414 -0.17111285 -0.007016077
-0.21706037 1.0009279 0.0066454723 -0.6321587 0.17579713 0.28251317 -0.003351687 -0.11893076
-1.4709787 0.49225438 1.1527213 -0.1548663 -0.42357177 -0.8010448 0.5029258 0.34112787
-0.43818644 -1.0514991 0.9335828 0.09735471 -0.2389591 -1.5681757 0.23920423 -1.5351549
1.0945321 -1.1235954 0.0021723737 -0.9446364 0.5667182 1.0658125 -0.80923593 -0.66067207
-0.5507556 -1.3870746 1.1982712 -1.6604263 0.30318496 -0.7279325 -1.0008899 -1.8432832
0.50686866 -1.9040098 -0.099344574 -1.3602293 -1.2463747 0.43025312 0.5875155 -0.6908603
0.23457275 -0.16796 -0.50818974 -0.16926824 0.44484314 0.48779905 -2.0316374 0.6554117
0.6540773 0.59082276 0.3900263 -0.78808933 0.08234166 -0.8663122 -0.53109175 1.2030773
00000000: f202 dbbf 76bb 18bf c346 01c0 99d1 803f
00000010: 0f4d ca3c a211 1b40 77ee 793f 69ac c93f
00000020: 87e8 273e ba33 d3be 1acb 89bb 64f4 32bf
00000030: c0d1 743f ba07 40bf 0a78 57bf 6e0c c83e
00000040: e2a0 2540 c3c8 e1be 41f5 3ac0 26f3 21c0
00000050: aaa4 63bf 432c c1bd cd29 aebe e1d0 90be
00000060: 5e88 b2be b97a 1140 fb4b 8ac0 c702 aabe
00000070: bf12 e8be 91db 01bc 9267 60be 6c1e 353e
00000080: 269a 033f ee41 71bf 46ff dabf 3ad0 053f
00000090: 7bdd 67be 37f6 06c0 f516 08bf a3dd 9f3f
000000a0: 8359 6ebd b9dc 8f3e bd91 b53f 8347 a5bf
000000b0: aa9c cb3d 3faa 843f 2c14 853f 6576 743e
000000c0: 1be8 e6be bfb0 803f 9e6a f6be 8963 35c0
000000d0: 08f7 9bbe 3093 18bf 9dff 7e3f 6459 f3bf
000000e0: 6eaa ddbe 5711 77bf 944a 893e db93 923f
000000f0: 2e50 d5bd 9bb2 f23e 49d7 1d3f cf51 7abf
00000100: 86e4 8c3f 6f8a 82bf 1198 67bf 5c85 80be
00000110: c227 8abf 377f f13e 2705 0cc0 4df9 f0bf
00000120: cd2f 013f 215b 70be 5ef6 853f 4e62 d6be
00000130: c16e 283f b11e 66be 75ed e53f 118d 61bd
00000140: d171 febd bcb1 7a3d c9cc 45bf c2db 53bd
00000150: d3fd 86bc 62d5 e9bf 119f 03bf 48b4 41c0
00000160: 49c5 8e3f 1c78 16c0 8c2f cfbe ec09 9f3e
00000170: 3476 953f 16fe 9ebf ccfa 00c0 1b3a 8fbe
00000180: ce0e 91be 19b7 793f 7309 bbbe 0f05 ebbf
00000190: 3cd0 a0bf 483c aebf 43f0 d4bd 9056 f3bd
000001a0: 7db9 a9be faad 2bbf ac17 c4bf 23fc cdbf
000001b0: 198e 8dbd 12b3 1f3f ec61 92bf ce20 c4bd
000001c0: cf25 6cbf ae7d 99bf 8fc9 1ebf d97a d9bf
000001d0: d78b 943f ead5 7bbf 9b00 543f d9cd 41bf
000001e0: 6280 793e 4906 57bf 3b81 e33d 29db a6bf
000001f0: 0a01 0e3f e238 87bf 8802 96bf c681 a2bf
00000200: 6bf5 543f 18e5 c0be ec03 f7bf b108 23bf
00000210: f9f0 c0be 199a 163e 35fe 93bd 0034 f63e
00000220: 4a69 51bf 7a3b 0cbe 424d 083e 4d13 ca3e
00000230: 9e02 a1be db2d 4a3e ca68 0cbf 3b16 69be
00000240: ce06 373f 4b68 1240 127c 9fbf 8b4f 643e
00000250: fbe8 503f 20dd 94bf fa60 c83d 61e9 25bf
00000260: d329 133f 0ab4 dfbf 3226 03bf fd0e 0f3f
00000270: b2d1 993f a32b 163f 6c48 54bf 32f6 a2bf
00000280: dd14 91bf 79e3 473d 1384 b63f 47a2 833f
00000290: 2c70 8a3f 8f26 42bf 1027 153f 68c1 66bf
000002a0: 1e1c 13be b937 abbf 7519 a83e 3dc5 3a3f
000002b0: 388a bfbe daa6 fe3e 5a53 8cbd c1bd 8cbf
000002c0: a588 88bd a15c c93e 0c7e b53f df52 c2bf
000002d0: 9c7f 763f d875 dfbf 3218 ab3f a810 29bf
000002e0: ef25 4fbf c45b 90be 5f24 293e e172 87bf
000002f0: 8336 e13f 9446 cfbf 3538 2fbe 1fe7 e5bb
00000300: 1345 5ebe 681e 803f 43c2 d93b 27d5 21bf
00000310: 2a04 343e 91a5 903e faa7 5bbb f891 f3bd
00000320: 0849 bcbf c408 fc3e 5f8c 933f 4595 1ebe
00000330: 66de d8be 4611 4dbf bfbf 003f 50a8 ae3e
00000340: f959 e0be 8697 86bf 48ff 6e3f e861 c73d
00000350: b2b1 74be fbb9 c8bf f4f1 743e f57f c4bf
00000360: a119 8c3f f9d1 8fbf 625e 0e3b b1d3 71bf
00000370: 7214 113f 8b6c 883f 162a 4fbf ce21 29bf
00000380: 52fe 0cbf a98b b1bf f360 993f d988 d4bf
00000390: 0f3b 9b3e c959 3abf 291d 80bf b4f0 ebbf
000003a0: 25c2 013f 98b6 f3bf 2b75 cbbd fe1b aebf
000003b0: 3589 9fbf 234a dc3e 6a67 163f 38dc 30bf
000003c0: d733 703e b5fd 2bbe b918 02bf a754 2dbe
000003d0: 7bc2 e33e ccc0 f93e 5906 02c0 10c9 273f
000003e0: 9c71 273f 2940 173f 87b1 c73e 39c0 49bf
000003f0: bfa2 a83d a3c6 5dbf a1f5 07bf 70fe 993f
