crowd_nav/RGL_our/rl_model_9.pth (torch, 143871 bytes, 33 tensors)

w_a f4 [32, 32]
-0.1694479 0.11865515 0.6515759 -0.48379093 0.011789875 -0.63527685 0.4281156 -0.53425205
0.55911267 0.33377725 -1.3377753 0.76312244 -0.96108323 -0.67667365 0.6862947 0.16654
-0.39773637 0.13540657 0.8366373 -0.054137256 0.35937604 -0.10100737 0.47167882 0.32639137
-1.2544025 -0.10092113 -0.45527694 -0.008966372 -0.13896464 0.5838953 -0.17076607 0.58955747
-0.3150905 0.4249259 -0.9600583 -1.2846712 1.3555287 -0.6090105 1.0679145 0.22247478
0.6497594 -0.39949697 -0.17378229 0.5334281 -0.29522818 -1.5038375 -0.45092204 -0.6276485
0.15578677 0.39811486 -0.6022939 -0.07878623 0.7305346 -0.7409106 -0.5868796 -1.142641
0.24474001 0.3087027 -1.1318045 -0.5451115 -1.7773955 -0.10486972 0.9403109 -0.09016958
0.065909766 -2.0122907 -0.7241338 -0.3889471 -1.3562852 -2.718097 -1.1826129 -0.8035379
-0.9167276 0.57495606 1.2795173 -1.065384 -0.68705654 0.02556026 -3.7958443 0.307734
-0.05160829 0.36958414 -1.5926185 -0.827662 -0.12554403 -0.8283146 1.2388109 -2.5009987
-1.7010052 1.1822114 -0.85022867 1.9258085 -0.34884566 1.2647352 0.22318311 0.42547724
0.12369587 0.15439256 -1.084612 0.0055995244 -1.086009 -0.19994646 0.05177008 -0.67157626
-0.6257887 -0.49755877 -0.17418468 -1.3142499 0.48155883 -0.28268623 0.15620399 0.39733055
-0.0871754 0.07355235 -0.007268759 1.1099445 -0.15614027 -0.41173038 -0.32448965 0.064079724
0.44698572 -1.3379577 0.36536136 0.90095574 -0.5991553 -0.68315774 -0.9604589 0.8989966
0.5998736 -0.06551026 -0.37158164 0.151074 -0.29053673 0.7860019 -0.15921187 -0.26720765
-0.77067703 1.2303373 0.48119462 -1.2004608 -0.5381123 0.64417064 0.85036445 -2.2825124
0.03303264 -0.57496434 -0.50666404 0.6796701 0.05997178 -1.1029464 -0.74964255 1.4482905
-1.4979774 0.12179557 -0.595879 -0.34217468 0.9058307 -1.0811499 0.8472769 -0.06679406
0.48405656 0.31689602 -2.2731159 -2.3830612 1.8315003 0.03359185 -0.28494203 0.36423296
0.36954588 0.2527383 2.3237653 -1.1853995 -2.0149639 -0.2432855 0.02589519 0.5023961
0.12545873 1.2383578 1.150065 1.5215799 0.6922968 1.7020782 0.4679094 0.80881447
-0.01644714 4.4255886 -1.7609593 5.4997063 1.6747651 -0.41554248 -0.07209195 0.12445965
0.23252119 -0.8803306 -0.47992426 -0.24803746 -0.21581803 1.1057296 0.08251077 0.29423574
0.08014127 -0.4040157 -0.663904 1.2787483 0.30808917 -1.6036637 -0.6264972 3.092907
-1.3064973 -1.8698374 1.304578 -0.038266852 -1.4760864 2.1036475 0.5164078 0.6741241
-0.021524532 -3.4111416 1.2943002 1.4027739 0.7680465 1.7098851 -1.5613245 1.8270652
-0.33271253 1.1282309 -0.92744124 -0.16684258 0.25832567 0.73511523 -0.43222737 1.2376186
-0.78262657 1.0996965 -1.697797 -0.14204328 -0.53785497 -0.28091368 -0.19495586 -0.4047759
-0.10365157 -0.7997384 -0.09554586 -0.36752015 0.04719848 1.2803168 -0.093974344 -1.8391556
-1.6803787 -0.9102152 -1.2443309 2.4764216 -1.0745509 -0.083599 0.5158893 2.29737
00000000: c083 2dbe 7901 f33d aecd 263f 72b3 f7be
00000010: 522a 413c 81a1 22bf f831 db3e bec4 08bf
00000020: 0222 0f3f dae4 aa3e 393c abbf fe5b 433f
00000030: 8d09 76bf 7c3a 2dbf 02b1 2f3f 7689 2a3e
00000040: 1aa4 cbbe 05a8 0a3e dd2d 563f 07bf 5dbd
00000050: 2300 b83e f4dc cebd e37f f13e c51c a73e
00000060: 4390 a0bf bdaf cebd 0f1a e9be b1e7 12bc
00000070: bf4c 0ebe 2a7a 153f 4ddd 2ebe 3ded 163f
00000080: 8b53 a1be e38f d93e 61c6 75bf 1b70 a4bf
00000090: f781 ad3f 1de8 1bbf 6cb1 883f 6ed0 633e
000000a0: a256 263f de8a ccbe fcf3 31be be8e 083f
000000b0: 2628 97be bf7d c0bf 41df e6be 92ad 20bf
000000c0: 9186 1f3e b6d5 cb3e ef2f 1abf ad5a a1bd
000000d0: 5104 3b3f 51ac 3dbf be3d 16bf 0f42 92bf
000000e0: 209d 7a3e 480e 9e3e f8de 90bf 6d8c 0bbf
000000f0: b281 e3bf f0c5 d6bd 37b8 703f d4aa b8bd
00000100: b3fb 863d 5fc9 00c0 d560 39bf 1324 c7be
00000110: c19a adbf 4df5 2dc0 dc5f 97bf a9b4 4dbf
00000120: a9ae 6abf 5230 133f 39c7 a33f 815e 88bf
00000130: f0e2 2fbf c063 d13c 1def 72c0 508f 9d3e
00000140: 3763 53bd 223a bd3e ecda cbbf a8e1 53bf
00000150: 9d8e 00be 6d0c 54bf 5b91 9e3f 5d10 20c0
00000160: 8aba d9bf b452 973f 96a8 59bf e580 f63f
00000170: e69b b2be d8e2 a13f 1d8a 643e 27d8 d93e
00000180: 4354 fd3d 1519 1e3e 91d4 8abf 377c b73b
00000190: 5802 8bbf c4be 4cbe dd0c 543d 6cec 2bbf
000001a0: b033 20bf 06c0 febe 785d 32be 5739 a8bf
000001b0: e18e f63e 40bc 90be f0f3 1f3e e96e cb3e
000001c0: 0489 b2bd 9da2 963d c52e eebb a912 8e3f
000001d0: 3ce3 1fbe 53ce d2be 8223 a6be 3b3c 833d
000001e0: 50db e43e 3342 abbf a510 bb3e 09a5 663f
000001f0: 3e62 19bf 6de3 2ebf a2e0 75bf a424 663f
00000200: 5191 193f 3e2a 86bd f33f bebe 25b3 1a3e
00000210: 3bc1 94be 6c37 493f 7008 23be 71cf 88be
00000220: 174b 45bf b17b 9d3f 245f f63e b3a8 99bf
00000230: bac1 09bf 5ee8 243f 7cb1 593f af14 12c0
00000240: 3c4d 073d dd30 13bf bcb4 01bf dcfe 2d3f
00000250: f8a4 753d 592d 8dbf 93e8 3fbf 9561 b93f
00000260: b9bd bfbf f56f f93d 878b 18bf 8531 afbe
00000270: 85e4 673f 1f63 8abf 24e7 583f 53cb 88bd
00000280: 43d6 f73e 3240 a23e bb7a 11c0 1384 18c0
00000290: 9a6e ea3f 9c97 093d ece3 91be be7c ba3e
000002a0: 1e35 bd3e ea66 813e 92b8 1440 2cbb 97bf
000002b0: 2bf5 00c0 d61f 79be 2622 d43c 089d 003f
000002c0: 4178 003e 8282 9e3f 5435 933f 21c3 c23f
000002d0: 5d3a 313f b3dd d93f d291 ef3e 770e 4f3f
000002e0: 27bc 86bc 6c9e 8d40 1d67 e1bf 98fd af40
000002f0: b45e d63f fcc1 d4be f2a4 93bd b3e4 fe3d
00000300: 091a 6e3e 595d 61bf a2b8 f5be 88fd 7dbe
00000310: 67ff 5cbe 8c88 8d3f 68fb a83d 11a6 963e
00000320: 1b21 a43d 25db cebe 9df5 29bf 06ae a33f
00000330: ddbd 9d3e da44 cdbf 1f62 20bf 30f2 4540
00000340: 4e3b a7bf d556 efbf 69fc a63f b4bd 1cbd
00000350: 66f0 bcbf 29a2 0640 4d33 043f 6693 2c3f
00000360: 3754 b0bc 2550 5ac0 a1ab a53f 188e b33f
00000370: b29e 443f 84dd da3f 7bd9 c7bf 46dd e93f
00000380: 4c59 aabe df69 903f ca6c 6dbf c8d8 2abe
00000390: 4343 843e 8330 3c3f e84c ddbe 496a 9e3f
000003a0: 375a 48bf dbc2 8c3f 6951 d9bf cb73 11be
000003b0: ddb0 09bf ebd3 8fbe 82a2 47be c93e cfbe
000003c0: 4647 d4bd a8bb 4cbf 8cad c3bd 9a2b bcbe
000003d0: 3253 413d 6ce1 a33f 9f75 c0bd 7369 ebbf
000003e0: a616 d7bf dd03 69bf 3c46 9fbf b17d 1e40
000003f0: e28a 89bf f435 abbd 5211 043f 1c08 1340

w_r.0.weight f4 [64, 9]
0.30541328 0.092043996 1.5168111 -0.44119343 -0.31378597 0.03293073 -0.346763 -0.23799507
-0.021147808 -0.2665959 -0.30904746 -0.39812705 -0.09565513 -0.20516285 -0.09710666 -0.6459074
-0.7912893 -0.23962335 0.20708382 -0.08952111 -1.0120863 0.36154878 -0.0857085 -0.31543738
-0.4505802 -0.06445842 0.057583094 -0.15722811 0.008213193 0.3136578 -0.42159218 0.20846626
-0.16776602 -0.25627455 0.048835684 0.13754976 0.008569898 -0.003858527 -0.0186043 -0.23318198
-0.18814445 -0.15083814 -0.0016251717 -0.28856382 -0.074569985 0.10244903 0.4082492 0.015410951
0.0066205803 0.05175094 0.22626948 0.31886342 0.093826875 -0.15053841 -0.49983978 -0.0028381678
0.025802176 -3.7553844e-05 0.2221627 -0.20792806 0.14266956 -0.3160105 0.21944277 -0.47796357
0.13586456 -1.0638975 -0.50371623 -0.18161592 0.013089895 -0.6816779 -0.3484902 0.09155115
-0.11859928 -0.474105 0.5874935 0.16476336 0.2793282 0.11653094 -0.53645545 -0.7404902
-0.26630768 0.23378356 -0.0025242185 0.8371973 0.093846545 -0.08253276 0.17105433 -0.23777442
-0.7753403 0.17824714 0.017962873 0.0047748964 -0.21814267 0.030463861 -0.13993919 -0.045767944
0.023453819 -0.45067626 0.01721712 0.03975829 -0.0026570777 -0.008709055 -0.14185277 -0.32178622
0.2905801 -0.13901024 -0.050991926 0.18711524 -0.24032356 -0.5441458 -0.1755244 -0.6824725
-0.07340324 -0.1905402 -0.78725475 -0.3098235 0.21319675 -0.2142021 0.13185087 -1.0986339
0.15251826 0.1339589 -0.12633765 -0.48050553 -0.25444207 0.17298906 0.31397903 0.002407851
-0.4744638 -0.4757644 -0.32118315 -0.22128408 -0.278276 -0.68925864 0.10450196 0.3519863
-0.33701012 -0.0107313795 -0.33089367 0.087332055 -0.26921508 -0.6210369 -0.5197226 0.092840955
-0.41502318 0.34019992 -0.2786818 0.03576662 -0.21314275 -0.0030560098 -0.046311203 -0.15395764
0.18820977 -0.83888465 0.14913401 -0.27293834 0.6402355 0.20820558 -0.03999996 -0.31407616
-0.4026586 -0.29905897 1.0559511 0.20973782 1.4417129 -0.6691841 -0.055527568 -0.30505353
-0.7555637 -0.79875904 0.23026454 -0.07062228 -0.08931142 0.032550555 -0.87391824 -0.3099063
0.2294291 -0.5664143 -0.08304393 -0.016410789 -0.8244644 -0.2930613 -0.2361539 -0.17555849
0.28647062 -0.04311347 -0.47749898 -0.43149224 0.016522368 0.21945864 0.13460188 0.3432469
0.45319128 -0.13002746 0.033413332 -0.24777272 -0.35729438 0.27456838 0.6181669 -0.03726992
0.20936243 0.0185798 0.1626883 0.3147732 0.034157597 -0.08871191 0.14308195 0.024499986
0.0008419742 -0.04755031 0.054950442 -0.062309228 0.041944824 0.032229472 -0.25871578 0.2299912
-0.1498508 0.24697652 0.743917 0.5412052 -0.17720036 -0.011994402 -0.52556527 -0.15001224
-0.018897932 -0.305506 0.029642716 -0.8533494 0.7101052 -0.3260337 -0.1441046 -0.52790654
-0.4479516 -0.25013897 0.255682 0.065143555 -0.44792712 0.34785828 -0.02845323 -0.04976964
-0.21127816 -0.4316078 -0.045769297 -0.1560945 -0.023175994 0.15304972 -0.03689798 0.31730664
-0.023932934 -0.3126158 -0.07991533 -0.06550809 0.08963705 -0.092353135 -0.8669217 -0.11432011
00000000: 215f 9c3e 9081 bc3d de26 c23f 1be4 e1be
00000010: 8ea8 a0be 60e2 063d ec8a b1be fbb4 73be
00000020: 2b3e adbc 427f 88be 783b 9ebe 4fd7 cbbe
00000030: d6e6 c3bd 3616 52be dbdf c6bd 305a 25bf
00000040: f091 4abf d35f 75be c80d 543e d856 b7bd
00000050: 0b8c 81bf ec1c b93e f087 afbd 0281 a1be
00000060: 73b2 e6be c702 84bd 40dc 6b3d 6800 21be
00000070: a190 063c c197 a03e eeda d7be 2e78 553e
00000080: dbca 2bbe 6b36 83be ed07 483d d8d9 0c3e
00000090: c268 0c3c 57df 7cbb 0c68 98bc 42c7 6ebe
000000a0: f0a8 40be 5075 1abe b703 d5ba a3be 93be
000000b0: 26b8 98bd ccd0 d13d 0a06 d13e 377e 7c3c
000000c0: 74f1 d83b cbf8 533d 30b3 673e 1142 a33e
000000d0: 4e28 c03d be26 1abe 00eb ffbe 8e00 3abb
000000e0: 165f d33c 2283 1db8 9e7e 633e 18eb 54be
000000f0: f817 123e 21cc a1be 9bb5 603e a4b7 f4be
00000100: 1420 0b3e cb2d 88bf 8cf3 00bf 86f9 39be
00000110: 0077 563c 7182 2ebf 4f6d b2be 2b7f bb3d
00000120: 2ee4 f2bd e4bd f2be f965 163f bab7 283e
00000130: 1b04 8f3e c6a7 ee3d 2555 09bf c490 3dbf
00000140: 7b59 88be f564 6f3e 5c6d 25bb 9052 563f
00000150: 9e32 c03d f006 a9bd de28 2f3e 237b 73be
00000160: b47c 46bf 6b86 363e e026 933c bc76 9c3b
00000170: cb60 5fbe 598f f93c 384c 0fbe 2b77 3bbd
00000180: 3922 c03c 0abf e6be eb0a 8d3c 97d9 223d
00000190: 5e22 2ebb 6db0 0ebc da41 11be 2ac1 a4be
000001a0: eac6 943e b358 0ebe e9dc 50bd 239b 3f3e
000001b0: 6117 76be 244d 0bbf abbc 33be 85b6 2ebf
000001c0: 7054 96bd f81c 43be 8789 49bf 30a1 9ebe
000001d0: 4050 5a3e cc57 5bbe ea03 073e 09a0 8cbf
000001e0: bf2d 1c3e 862c 093e a85e 01be d204 f6be
000001f0: 3b46 82be 0b24 313e dcc1 a03e 09cd 1d3b
00000200: ebec f2be 6497 f3be 1e72 a4be 4b98 62be
00000210: 317a 8ebe 4173 30bf 2005 d63d 8c37 b43e
00000220: 978c acbe abd2 2fbc e56a a9be 26db b23d
00000230: 8fd6 89be 46fc 1ebf 8a0c 05bf 6623 be3d
00000240: eb7d d4be af2e ae3e 62af 8ebe 0580 123d
00000250: 1842 5abe 5647 48bb d1b0 3dbd 12a7 1dbe
00000260: 10ba 403e 25c1 56bf 96b6 183e 93be 8bbe
00000270: 79e6 233f d833 553e 00d7 23bd 97ce a0be
00000280: 4529 cebe 421e 99be 6829 873f 83c5 563e
00000290: 0c8a b83f a64f 2bbf e070 63bd fa2f 9cbe
000002a0: 9f6c 41bf 797b 4cbf 78ca 6b3e 6aa2 90bd
000002b0: e8e8 b6bd bb53 053d 1bb9 5fbf 0aac 9ebe
000002c0: 76ef 6a3e 8700 11bf f012 aabd eb6f 86bc
000002d0: 1910 53bf 210c 96be 54d2 71be 9bc5 33be
000002e0: 47ac 923e c097 30bd bf7a f4be 8dec dcbe
000002f0: eb59 873c c4b9 603e 13d5 093e 0fbe af3e
00000300: b008 e83e eb25 05be 6bdc 083d 22b8 7dbe
00000310: 4aef b6be 3a94 8c3e 3040 1e3f 58a8 18bd
00000320: 1b63 563e aa34 983c c397 263e f429 a13e
00000330: d6e8 0b3d 97ae b5bd 1384 123e 32b4 c83c
00000340: efb7 5c3a 1dc4 42bd b713 613d f637 7fbd
00000350: 56ce 2b3d 0d03 043d 6576 84be d082 6b3e
00000360: 7d72 19be 6ae7 7c3e 5871 3e3f 6d8c 0a3f
00000370: 0374 35be 2b84 44bc 728b 06bf cf9c 19be
00000380: d6cf 9abc 486b 9cbe 48d5 f23c 1b75 5abf
00000390: 74c9 353f e4ed a6be 2890 13be e224 07bf
000003a0: ea59 e5be 3712 80be c0e8 823e fc69 853d
000003b0: b456 e5be 7b1a b23e c016 e9bc 40db 4bbd
000003c0: 4d59 58be b3fb dcbe 9678 3bbd 3dd7 1fbe
000003d0: 95db bdbc 11b9 1c3e 5622 17bd 0476 a23e
000003e0: 000f c4bc 2e0f a0be a6aa a3bd 1b29 86bd
000003f0: a193 b73d a423 bdbd 95ee 5dbf a920 eabd

w_r.0.bias f4 [64]
-0.024801692 -0.6083342 -0.25612277 -0.28392813 -0.0104895085 0.25473878 -0.2957799 -0.5031139
-0.47796983 -0.26885873 -0.07767782 -0.014938795 -0.6749656 -0.35738394 -0.32558528 -0.31793657
-0.07232573 -0.6093646 -0.28619993 -0.5260953 -0.45535764 -0.528051 -0.36810526 -0.19699372
-0.21374543 -0.067124546 -0.5959054 0.2310929 -0.06702901 -0.09869365 0.11487969 -0.42968258
-0.31098074 -0.5459588 0.06739401 -0.16526689 -0.5765068 0.22332895 0.09972932 -0.48645693
-0.18098457 -0.19067024 -0.27674285 -0.64751136 -0.36211172 -0.24048598 -0.34235066 -0.46851492
-0.991142 -0.16409461 -0.5989354 0.0867441 -0.34885955 -0.20771548 -0.17518799 -0.49385697
0.03574892 -0.7627525 -0.4608446 -0.37096116 -0.48272792 -0.5378204 -0.6907532 -0.31175923
00000000: eb2c cbbc cabb 1bbf 8622 83be 075f 91be
00000010: 30dc 2bbc 1f6d 823e 7770 97be 13cc 00bf
00000020: 76b8 f4be daa7 89be 8d15 9fbd d9c1 74bc
00000030: 8cca 2cbf 07fb b6be 1db3 a6be 95c8 a2be
00000040: 831f 94bd 52ff 1bbf cc88 92be 2eae 06bf
00000050: a324 e9be 5a2e 07bf 4b78 bcbe b9b8 49be
00000060: 15e0 5abe 9878 89bd 428d 18bf 9ea3 6c3e
00000070: 8146 89bd e51f cabd 0b46 eb3d 5bff dbbe
00000080: de38 9fbe f5c3 0bbf df05 8a3d b93b 29be
00000090: f395 13bf 58b0 643e e33e cc3d e210 f9be
000000a0: 0554 39be 0f3f 43be 3db1 8dbe 4ec3 25bf
000000b0: b566 b9be f541 76be 9648 afbe 30e1 efbe
000000c0: 7bbb 7dbf 6b08 28be d553 19bf e4a6 b13d
000000d0: b89d b2be 5eb3 54be 7b64 33be d2da fcbe
000000e0: 766d 123d bf43 43bf d3f3 ebbe 9fee bdbe
000000f0: 1d28 f7be 99ae 09bf 34d5 30bf e89e 9fbe

w_r.2.weight f4 [32, 64]
-0.11470868 -0.05209563 -0.07269154 0.012801928 0.02145225 0.22558686 -3.676482 -0.9385258
-0.39847478 0.30459034 0.010523519 -0.12004498 -0.17762636 -0.00084044115 -0.03900204 -0.10347851
-1.6122987 0.09998488 -0.69127667 -0.5080246 -0.320135 0.06497391 0.28436843 0.1088102
-0.21441169 -0.27275863 -0.10120656 -0.00039785387 0.04966469 0.33906668 0.010910831 -0.020606834
0.2166063 0.27212512 0.13591023 0.2486384 -0.412141 -0.40979704 0.27327403 0.020697212
0.15769266 -0.2755947 0.012696922 -0.29985794 -0.9478845 -0.03293832 0.12768272 -0.17972039
0.16816756 0.08831552 -0.040786672 0.027621169 -0.050626308 -0.48475677 0.012961634 -0.8004955
0.0069801025 -0.011648834 -0.6591435 -0.26810893 0.028272904 0.02263427 -2.2580583 -0.04222247
-0.051922727 0.10310703 0.12994385 -0.0073774564 0.021931484 0.038549468 -0.11054249 0.13811126
-0.07196506 -0.03623087 0.026276438 -0.0004627784 -0.41779098 0.17239015 0.08865175 0.1814713
-0.36352032 0.25954634 -0.6010129 -0.21348473 -0.113049544 -0.27058145 -0.06126626 0.0099758115
-0.35420683 0.1960971 -0.16144583 0.036709163 0.13633792 0.053456564 -0.067270055 -0.39551735
0.10169693 0.36329797 -0.014153555 0.17206226 -0.09907213 -0.045937322 0.16382672 -0.20592347
0.028198032 0.14023805 -0.009123766 -0.10323457 0.10172233 -0.050052095 -0.32806516 -0.05260418
0.15856291 0.023496963 -0.082613274 0.37126455 -0.010584098 -0.009669443 -0.07373065 -0.510536
-0.042739134 -0.11733494 -1.2836938 -0.060642086 -0.031075072 -0.17954022 -0.85055155 0.027880885
0.22472647 0.060998466 -0.21597208 0.0006212502 -0.03967962 -0.57241154 -0.015182787 0.3884372
0.102830335 0.28342813 -0.0063762357 0.030862594 -0.07979447 0.05093355 -0.123255044 0.6035628
-0.12283887 0.43801916 -0.17585403 -0.010484753 -0.20568451 -0.042314798 0.1038097 -0.44391447
-0.037067015 0.18232012 -0.5477921 0.06710698 -0.15436749 -0.020487357 0.22796032 1.0340759
-1.2166587 -0.3960257 0.020200776 0.10063553 -0.38600498 -0.11224297 -0.5102058 -1.1662008
0.22438109 -0.004457867 -0.07953699 -0.049839243 -0.3165901 0.08978201 -0.36792636 -0.16653317
-1.3468485 -0.9439007 0.12605035 -0.36715698 0.058498867 0.0267085 -0.070691764 -0.38788027
0.014183479 0.15990983 -0.47171405 0.11445162 -0.85274947 -0.5417813 -0.78560627 -0.03394292
-0.07025204 0.28868285 -0.18513152 -0.33655316 -0.108396605 -0.04600358 -0.40290505 -0.13258721
0.16983743 -0.15941861 0.06675788 -0.13520785 0.03957423 -0.11243319 -0.21939687 -0.0971588
-0.053941883 0.037403654 -0.16510205 0.34813192 -0.3343247 0.23592767 -0.367873 -0.092823155
-0.12308582 -0.09115872 -0.055531267 -0.09962262 0.21717589 -0.27773377 -0.28365853 -0.015482259
-0.063685246 -0.35674408 -0.10838849 0.061652493 0.04431077 -0.121568985 0.11601293 0.1207191
-0.14120877 -0.12522115 0.010652592 -0.20885083 -0.18001898 0.097668685 0.0036683397 -0.09841559
-0.064660944 -0.1374637 -0.1669953 -0.45821387 -0.20775783 -0.2529237 0.1379204 -0.016655229
0.03348264 0.17226534 -0.219966 -0.003928989 0.013230459 -0.06898506 0.13340174 0.05809711
00000000: 62ec eabd 3a62 55bd 4ddf 94bd 2ebf 513c
00000010: a1bc af3c 3e00 673e 7b4b 6bc0 3a43 70bf
00000020: e304 ccbe 44f3 9b3e d66a 2c3c 24da f5bd
00000030: afe3 35be 0d51 5cba 9ac0 1fbd 8bec d3bd
00000040: ce5f cebf dfc4 cc3d 82f7 30bf e60d 02bf
00000050: bce8 a3be 0b11 853d bd98 913e e2d7 de3d
00000060: bd8e 5bbe 05a7 8bbe 6345 cfbd 0b97 d0b9
00000070: 346d 4b3d 269a ad3e 58c3 323c aacf a8bc
00000080: 0bce 5d3e fc53 8b3e 0d2c 0b3e 119b 7e3e
00000090: 2504 d3be ebd0 d1be 93ea 8b3e 338d a93c
000000a0: 2f7a 213e c01a 8dbe c006 503c fb86 99be
000000b0: 8fa8 72bf 55ea 06bd 42bf 023e 9f08 38be
000000c0: 1e34 2c3e c4de b43d ed0f 27bd ca45 e23c
000000d0: 885d 4fbd 0a32 f8be 095d 543c 46ed 4cbf
000000e0: 58b9 e43b c0da 3ebc a1bd 28bf 9345 89be
000000f0: 949c e73c 816b b93c 0784 10c0 78f1 2cbd
00000100: edac 54bd c729 d33d 0010 053e 97be f1bb
00000110: a8a9 b33c 0ce6 1d3d 1a64 e2bd 0a6d 0d3e
00000120: 6b62 93bd d266 14bd af41 d73c 11a1 f2b9
00000130: b3e8 d5be 0b87 303e 0c8f b53d 9dd3 393e
00000140: 561f babe 42e3 843e fbdb 19bf be9b 5abe
00000150: 8586 e7bd a789 8abe 54f2 7abd 9671 233c
00000160: 995a b5be aecd 483e 0e52 25be 595c 163d
00000170: 2b9c 0b3e 45f5 5a3d e2c4 89bd 4081 cabe
00000180: 7b46 d03d 3102 ba3e 50e4 67bc 1731 303e
00000190: 54e6 cabd c628 3cbd 31c2 273e 9add 52be
000001a0: 8fff e63c 909a 0f3e d97b 15bc a56c d3bd
000001b0: cc53 d03d 6d03 4dbd 28f8 a7be 7b77 57bd
000001c0: 515e 223e b47c c03c 2631 a9bd 6316 be3e
000001d0: ed68 2dbc 956c 1ebc 1800 97bd 7db2 02bf
000001e0: 3b0f 2fbd 4d4d f0bd 1450 a4bf d663 78bd
000001f0: 2691 febc 64d9 37be bfbd 59bf 7466 e43c
00000200: b21e 663e 87d9 793d c927 5dbe 65db 223a
00000210: 1987 22bd 9089 12bf 39c1 78bc 3ee1 c63e
00000220: b698 d23d 7e1d 913e beef d0bb 8dd3 fc3c
00000230: 486b a3bd b39f 503d 246d fcbd 1783 1a3f
00000240: f292 fbbd 0c44 e03e 1413 34be 3ec8 2bbc
00000250: f69e 52be 4852 2dbd 2e9a d43d c248 e3be
00000260: 95d3 17bd 20b2 3a3e 1a3c 0cbf 626f 893d
00000270: 8312 1ebe 1ad5 a7bc 6e6e 693e 995c 843f
00000280: 79bb 9bbf e1c3 cabe 197c a53c 001a ce3d
00000290: 72a2 c5be a4df e5bd d99c 02bf 1146 95bf
000002a0: 28c4 653e 4c13 92bb 4ae4 a2bd 3c24 4cbd
000002b0: 1918 a2be a1df b73d d860 bcbe ac87 2abe
000002c0: 8865 acbf 7aa3 71bf 5813 013e 00fc bbbe
000002d0: 829c 6f3d c9cb da3c d8c6 90bd 3e98 c6be
000002e0: d361 683c 67bf 233e 8184 f1be 9c65 ea3d
000002f0: ca4d 5abf 2eb2 0abf 7e1d 49bf bb07 0bbd
00000300: 4de0 8fbd 3dce 933e 1e93 3dbe b250 acbe
00000310: 0aff ddbd 406e 3cbd 9249 cebe f1c4 07be
00000320: dde9 2d3e a23e 23be 5bb8 883d ed73 0abe
00000330: 9618 223d 5f43 e6bd 93a9 60be 31fb c6bd
00000340: 2af2 5cbd 9334 193d 8310 29be 593e b23e
00000350: 9b2c abbe 0697 713e da59 bcbe 111a bebd
00000360: 6b14 fcbd 6cb1 babd c174 63bd f206 ccbd
00000370: 5b63 5e3e 1f33 8ebe b13b 91be 4da9 7dbc
00000380: 696d 82bd 29a7 b6be c9fa ddbd 5387 7c3d
00000390: 367f 353d 29f9 f8bd 3098 ed3d 933b f73d
000003a0: 0899 10be f939 00be 3688 2e3c fedc 55be
000003b0: e556 38be 8506 c83d 8768 703b 1d8e c9bd
000003c0: f56c 84bd 49c3 0cbe d100 2bbe 029b eabe
000003d0: 78be 54be 377f 81be 013b 0d3e 8c70 88bc
000003e0: 1825 093d 5366 303e c43e 61be c0be 80bb
000003f0: 91c4 583c 0a48 8dbd 779a 083e 3cf7 6d3d

w_r.2.bias f4 [32]
-0.6463979 -0.004208277 -0.28160143 -0.0674163 0.44524083 -0.2747905 0.034016263 -0.08591684
-0.048980415 -0.12422395 0.7840579 -0.671428 -0.5499818 -0.6412742 -0.10429982 -1.0193923
-0.178255 -0.19319335 0.52595 0.20676781 -0.39533252 -0.49344927 -0.069012456 -0.4383235
-0.16357139 0.7476747 -0.15230787 -0.08465777 0.33605567 0.3782823 0.040377676 0.22593448
00000000: 557a 25bf 96e5 89bb 102e 90be 8f11 8abd
00000010: 9bf6 e33e 57b1 8cbe a354 0b3d 2bf5 afbd
00000020: b09f 48bd 2069 febd 05b8 483f b5e2 2bbf
00000030: 9bcb 0cbf 8c2a 24bf 259b d5bd 727b 82bf
00000040: 7b88 36be 7ad4 45be a9a4 063f f1ba 533e
00000050: 0669 cabe 62a5 fcbe 6756 8dbd f06b e0be
00000060: 427f 27be 9c67 3f3f 98f6 1bbe 0e61 adbd
00000070: 7d0f ac3e 38ae c13e 1063 253d 5e5b 673e

w_h.0.weight f4 [64, 5]
0.060128763 -0.18801539 -0.7793015 -1.0548368 -0.32500845 0.09383394 0.27498934 -0.88316923
1.9157182 -0.31412473 0.14085396 -0.71717805 -0.41901153 -1.207965 -0.1679113 -0.028393883
0.097191274 -0.4715239 -0.07084251 2.1332414 -0.40765232 -0.23776956 0.8980023 1.6951754
-2.6731427 0.013495057 -0.320347 -0.15910654 -0.086763665 0.59924746 -0.3948132 0.13935609
-1.5025051 0.057031866 -1.462272 -0.36009237 0.17615151 -1.0472744 -1.1016287 -1.0178769
-0.23948297 0.15719555 0.18543902 -0.5370272 -0.021536957 0.001180223 -0.0088919215 0.046553124
0.027830688 -0.19257267 0.63673705 -0.26288822 0.880387 -0.27034673 -2.1664221 -0.1817336
0.0010465623 -0.78390294 -0.23823605 -0.006904183 0.0015148665 0.0060937605 0.12000609 0.24963316
0.29076907 -0.01118942 -0.017830078 0.2027689 -0.04664148 -1.7185026 -0.26549372 -0.3331577
-0.85250777 -0.3857664 -4.504841 -0.0133709395 0.009368835 0.05094989 -0.27041882 0.08407083
-0.3017184 0.2840458 -0.3577688 1.1023158 -0.47618628 -0.17371409 -0.24515732 -1.354404
-0.8856503 0.26218617 -0.028193505 0.12840591 0.007434599 1.7942255 0.66626495 -0.34646887
-0.31496215 0.8415329 -1.636168 -0.5196604 -0.50686425 0.49752846 -1.4095678 0.8094884
-1.2399375 -0.07401175 -0.21063429 0.20785083 0.06293418 -1.8076088 0.61181873 0.3530523
-0.15116672 0.8147017 -0.47256604 -0.29761362 -0.27484894 1.2390635 -0.6715476 0.5356943
-0.0031376637 -0.011757274 1.1862983 -0.18487564 -0.8082301 -0.0009441552 -0.0074657924 -0.27856332
0.04742225 -0.8445236 0.00022509057 0.00017950997 0.053602263 -0.008207781 -0.34944013 -0.37399083
-0.20654741 -0.8144155 -1.0522816 -0.688974 -0.37876457 0.4348339 -1.1628349 -0.602689
-1.6832284 -0.09210033 -0.683594 0.6783429 -0.688808 -1.3731295 -0.049530134 0.15542495
-0.7136039 -1.3780096 -0.5456558 0.102757916 -0.15342319 0.5239156 -1.0970929 0.61028385
0.113379225 -0.3696404 0.91902506 -1.8780684 -0.003723517 0.2233325 0.09654138 1.4921845
0.8833689 1.0978053 -0.6673738 0.13750897 0.6381581 -1.2487441 -0.73126596 -0.6425493
-0.12756233 -0.3778586 0.682352 0.48944446 -0.31628183 -0.5582277 -1.3969036 -0.5006989
0.2258101 -0.463515 -0.3541444 -0.46942165 -0.42198917 1.0785965 0.38531768 -0.19860308
0.078411765 0.8313641 1.3133948 -0.06498587 0.020668682 -1.0665973 0.7024752 -0.972477
0.11605276 -0.3501841 0.6152896 0.72850084 -0.7280836 0.49187514 0.4374377 1.8497137
1.1894784 -0.42775714 -0.0071339705 -0.032027237 -0.45041063 0.21521123 -1.573448 0.114850335
-0.055853397 1.0711154 1.2172856 -1.2360225 0.5174754 -0.046113256 0.89971584 -0.25410163
-1.0839779 0.34653354 0.32829434 0.841113 -1.5945888 -2.928523 -0.16937312 0.58488935
0.75452304 0.61714035 -0.7420318 -0.12484047 0.048376534 0.5039237 1.715961 -0.15816756
-0.37559015 -0.15623358 -0.6383638 0.5614835 -2.1050208 -0.0018885342 0.0081584165 -0.11362035
-0.061042063 -0.11111072 0.30224824 0.46310633 0.34105408 -0.9802747 -2.0787716 0.41915616
00000000: 9449 763d 1b87 40be 4e80 47bf e404 87bf
00000010: 8267 a6be 022c c03d 67cb 8c3e 6117 62bf
00000020: 4136 f53f f5d4 a0be 053c 103e fb98 37bf
00000030: ae88 d6be 999e 9abf f1f0 2bbe 4a9a e8bc
00000040: 380c c73d 956b f1be e115 91bd 0787 0840
00000050: ceb7 d0be dd79 73be 7be3 653f 82fb d83f
00000060: c514 2bc0 5f1a 5d3c 8604 a4be d3ec 22be
00000070: 26b1 b1bd 4868 193f f524 cabe 5db3 0e3e
00000080: 1652 c0bf 3f9a 693d bb2b bbbf 075e b8be
00000090: 1061 343e 160d 86bf 2b02 8dbf ca49 82bf
000000a0: 063b 75be dff7 203e bae3 3d3e 9d7a 09bf
000000b0: 466e b0bc b6b1 9a3a 6caf 11bc 7dae 3e3d
000000c0: 2ffd e33c c531 45be 3301 233f 4999 86be
000000d0: 0b61 613f e36a 8abe a9a6 0ac0 5f18 3abe
000000e0: ce2c 893a ddad 48bf 27f4 73be 7c3c e2bb
000000f0: 7c8e c63a 2bae c73b c1c5 f53d d69f 7f3e
00000100: afdf 943e d453 37bc 6210 92bc a7a2 4f3e
00000110: 230b 3fbd e5f7 dbbf cbee 87be a593 aabe
00000120: f33d 5abf 2c83 c5be a827 90c0 c911 5bbc
00000130: be7f 193c d5b0 503d 5674 8abe 542d ac3d
00000140: d67a 9abe 736e 913e 792d b7be af18 8d3f
00000150: b0ce f3be 1be2 31be 850a 7bbe 1c5d adbf
00000160: fab9 62bf 443d 863e 11f6 e6bc d77c 033e
00000170: f09d f33b 2ea9 e53f 5790 2a3f 5e64 b1be
00000180: b842 a1be b36e 573f f46d d1bf 7708 05bf
00000190: dbc1 01bf 0dbc fe3e b86c b4bf a23a 4f3f
000001a0: 46b6 9ebf 7993 97bd 84b0 57be d9d6 543e
000001b0: a3e3 803d ba5f e7bf 27a0 1c3f 45c3 b43e
000001c0: 73cb 1abe 4a90 503f 2df4 f1be d060 98be
000001d0: 00b9 8cbe a299 9e3f 8bea 2bbf 4323 093f
000001e0: 43a1 4dbb 95a1 40bc 9fd8 973f 0a50 3dbe
000001f0: 2be8 4ebf 2f81 77ba 9ba3 f4bb da9f 8ebe
00000200: d53d 423d b332 58bf 4a06 6c39 d73a 3c39
00000210: 0c8e 5b3d ee79 06bc d1e9 b2be ba7b bfbe
00000220: 2a81 53be 897d 50bf 2ab1 86bf 9a60 30bf
00000230: 6eed c1be 8da2 de3e c6d7 94bf d449 1abf
00000240: 0774 d7bf 199f bcbd 0400 2fbf e1a7 2d3f
00000250: b955 30bf b5c2 afbf 1ce0 4abd b827 1f3e
00000260: bfae 36bf 9e62 b0bf 19b0 0bbf be72 d23d
00000270: f81a 1dbe 551f 063f 8a6d 8cbf 903b 1c3f
00000280: 5e33 e83d 8241 bdbe 3a45 6b3f 8c64 f0bf
00000290: 4006 74bb 46b1 643e 7db7 c53d e7ff be3f
000002a0: 7724 623f e284 8c3f 02d9 2abf 27cf 0c3e
000002b0: 545e 233f d9d6 9fbf 3f34 3bbf 1c7e 24bf
000002c0: b39f 02be af76 c1be 9fae 2e3f 7798 fa3e
000002d0: b1ef a1be 03e8 0ebf bdcd b2bf ce2d 00bf
000002e0: c33a 673e d751 edbe 6a52 b5be 0958 f0be
000002f0: f70e d8be 730f 8a3f 5c48 c53e 9b5e 4bbe
00000300: 5996 a03d 47d4 543f 521d a83f 5017 85bd
00000310: 5e51 a93c 4386 88bf 6ad5 333f 41f4 78bf
00000320: 12ad ed3d 554b b3be 9f83 1d3f 087f 3a3f
00000330: b063 3abf 0fd7 fb3e d6f7 df3e 6bc3 ec3f
00000340: d440 983f fc02 dbbe 15c4 e9bb fe2e 03bd
00000350: 399c e6be 5560 5c3e be66 c9bf a736 eb3d
00000360: 88c6 64bd 4f1a 893f 04d0 9b3f fc35 9ebf
00000370: 4579 043f 41e1 3cbd c753 663f 9c19 82be
00000380: cabf 8abf d86c b13e 3216 a83e 2e53 573f
00000390: 7c1b ccbf ec6c 3bc0 2670 2dbe 4fbb 153f
000003a0: 6c28 413f e9fc 1d3f ccf5 3dbf 5cac ffbd
000003b0: 7926 463d 2501 013f 9ca4 db3f adf6 21be
000003c0: 5a4d c0be b2fb 1fbe cf6b 23bf 62bd 0f3f
000003d0: a9b8 06c0 b188 f7ba e1aa 053c c9b1 e8bd
000003e0: 3e07 7abd 048e e3bd 48c0 9a3e 461c ed3e
000003f0: a49e ae3e 48f3 7abf 980a 05c0 a39b d63e

w_h.0.bias f4 [64]
-0.32133052 -1.5785676 -1.5819474 -1.0760713 -1.5397524 -0.0040470166 -0.3016539 -0.9773874
-0.01312575 -0.22508474 -0.1834066 -0.22596744 -0.5906402 0.16607924 0.18546298 -0.43339786
-0.35810655 -0.91355294 -0.859443 -1.0590417 -1.5506521 0.71550244 -1.4421331 -0.8543024
-0.12969789 -0.04808415 0.048159048 -0.24551323 -1.5696914 -0.4026555 -0.3984552 0.19660664
-0.841011 -0.92643684 -0.60972726 -1.6707953 -0.92741495 -2.3913023 -1.3329624 0.08622453
-0.33813053 -2.0368018 -0.18647383 0.18262221 0.4438423 -1.2818695 -1.2487379 -0.81349427
0.09248565 -0.1881659 -1.1189393 -0.8278799 -1.112331 -1.3656105 -0.2207468 -0.82938987
0.6542984 -0.93495095 -1.5789586 0.38814342 -0.5007311 0.37016207 -0.3114272 -0.8708477
00000000: 6f85 a4be 810e cabf 417d cabf b4bc 89bf
00000010: 9b16 c5bf d69c 84bb 6172 9abe 1036 7abf
00000020: 630d 57bc 9d7c 66be f1ce 3bbe 0264 67be
00000030: 3234 17bf ad10 2a3e 02ea 3d3e 53e6 ddbe
00000040: be59 b7be 9bde 69bf 7504 5cbf ae8e 87bf
00000050: c57b c6bf 2b2b 373f d197 b8bf 90b3 5abf
00000060: 86cf 04be e3f3 44bd 6c42 453d d267 7bbe
00000070: a6eb c8bf dd28 cebe 5202 ccbe 4053 493e
00000080: 7f4c 57bf f72a 6dbf 1617 1cbf 9fdc d5bf
00000090: 116b 6dbf 190b 19c0 839e aabf 7d96 b03d
000000a0: 721f adbe f65a 02c0 fff2 3ebe 5101 3b3e
000000b0: 4c3f e33e 4d14 a4bf a5d6 9fbf 2941 50bf
000000c0: 1e69 bd3d 90ae 40be 6739 8fbf f0ef 53bf
000000d0: dd60 8ebf 53cc aebf 730b 62be e552 54bf
000000e0: 1a80 273f f258 6fbf 511b cabf bcba c63e
000000f0: ea2f 00bf e285 bd3e 6373 9fbe e0ef 5ebf

w_h.2.weight f4 [32, 64]
0.23591398 0.34578663 -0.8327434 -0.15394582 -0.029600093 0.077229105 0.5639107 0.4805736
-0.24568462 -0.04045123 1.0918473 0.45981643 -0.05004206 0.64456123 1.1120921 -0.058960672
0.3422701 -0.6024943 0.0959313 -0.42756802 1.0225815 -0.03980354 0.37299886 -0.00392682
-0.6276736 0.04023127 0.06314104 0.18992144 0.41574156 0.87495416 -0.29564074 -0.1435304
0.7571423 0.35764593 0.14599031 -0.41238508 0.7298599 -1.7733734 -0.0578987 -0.34916422
0.29192784 0.8714303 -0.19843872 0.18118176 0.60246515 0.3577796 0.05902578 -0.18543963
0.4969094 0.08459462 -0.016830599 0.53665173 0.062285982 0.18783933 0.18756638 -0.09134267
0.21118419 -0.4454521 -0.8774537 -0.06101603 0.101189025 0.31484208 0.040672775 -0.0960091
0.96933 -2.0787141 0.8006134 -1.6030867 -0.21044202 0.5526774 0.25019735 0.93422836
-0.2563851 0.055717044 -0.013289167 -0.40982616 -0.48910207 -0.1606306 -3.075094 -0.0039502257
0.016935088 -0.6002666 0.5416708 0.9133304 1.5529748 0.20141329 -0.32402825 0.97883916
0.18806948 -0.15778385 -0.023596238 -0.5423629 0.9517966 -0.15291128 -0.63455546 -0.5178616
-0.66304433 0.32715073 -1.0913274 0.31536272 1.1138829 -0.54269433 0.3705402 0.9849895
-0.14883445 1.1512786 0.6187784 1.0407796 -0.7866867 -0.3060705 -2.6557999 -0.28296858
0.0361193 0.13701585 -1.6854111 0.7166131 -1.1808012 -0.2205837 0.112884164 -2.6310992
-0.0037339795 -0.6279733 0.3677833 -0.5364313 -0.05487896 -0.603828 0.59721386 -0.3555077
-4.3403254 0.747601 0.6644827 0.87583125 -0.14718674 -0.3083347 -0.032401048 -0.12890697
-0.5464893 0.066781044 -0.47511947 -0.5264137 -0.1681582 -0.070112854 -2.0244946 0.048026882
0.18525396 -3.7914178 0.059492745 0.30395016 -0.8345731 -0.019949647 -0.8099774 0.11796058
0.12288256 0.37653327 0.13629627 0.14965539 0.29725912 -0.006334426 1.024451 -0.06476376
-0.94814 1.1125462 0.04028823 0.14282209 -0.655666 0.40864414 0.28698933 0.1848208
-0.21126425 0.032105293 0.011762753 1.202088 -0.022211192 -4.043835 -0.4568194 -0.6725368
0.1937996 -0.13596737 -4.596594 -0.30135286 0.11552232 -3.8989701 0.029233878 0.8956373
0.9790094 -0.6743578 -1.7290221 -0.95403486 0.023122456 0.039810665 -0.98804116 0.753962
-0.28347352 0.29181132 -0.37092835 0.0723419 0.9183297 -0.30548972 0.30021295 0.33269942
0.216056 0.062663 -0.7091051 0.63780856 0.023924127 -0.24364047 -1.6614156 0.010942074
0.7817174 -0.39193985 0.3616775 0.15107714 0.062965095 -0.29091313 0.74617636 0.37388974
0.68412 0.14222327 0.036260884 -0.24796484 0.13026868 -0.93428075 0.71835196 -0.016202915
1.1962936 0.6369898 0.21178408 -0.6174409 -1.0378729 -0.48995847 0.46309015 1.2510453
-0.5977824 0.6533632 0.63472277 0.52065134 -0.32523608 -0.91481256 -0.37257537 0.44173756
-0.36573228 -0.16098207 -0.15953915 -1.1912631 -0.68486667 0.7679625 0.19412823 -0.12824857
0.15264319 -0.41659486 0.08873854 0.074779876 -0.46601963 0.44502845 0.07279121 0.12375889
00000000: 6f93 713e f20a b13e ac2e 55bf f9a3 1dbe
00000010: e57b f2bc 4b2a 9e3d 745c 103f be0d f63e
00000020: c094 7bbe 30b0 25bd a7c1 8b3f 0f6d eb3e
00000030: e7f8 4cbd f701 253f 0959 8e3f bf80 71bd
00000040: 073e af3e 113d 1abf a177 c43d 32ea dabe
00000050: f3e3 823f 0909 23bd b5f9 be3e 8eac 80bb
00000060: 38af 20bf 8bc9 243d 1750 813d c47a 423e
00000070: 14dc d43e fffc 5f3f 395e 97be a2f9 12be
00000080: 14d4 413f 5e1d b73e 7c7e 153e 2324 d3be
00000090: 19d8 3a3f e6fd e2bf 3027 6dbd a7c5 b2be
000000a0: 9177 953e 0e16 5f3f 8533 4bbe b687 393e
000000b0: 283b 1a3f e32e b73e 04c5 713d e3e3 3dbe
000000c0: e96a fe3e f23f ad3d 53e0 89bc 0262 093f
000000d0: 961f 7f3d f458 403e 6711 403e de11 bbbd
000000e0: ab40 583e 4c12 e4be cea0 60bf f2eb 79bd
000000f0: 313c cf3d fb32 a13e 7f98 263d 6ba0 c4bd
00000100: 0326 783f a709 05c0 00f5 4c3f f231 cdbf
00000110: 1d7e 57be 447c 0d3f de19 803e 9729 6f3f
00000120: e844 83be 8e37 643d ceba 59bc bcd4 d1be
00000130: 966b fabe 597c 24be 57ce 44c0 e570 81bb
00000140: 74bb 8a3c 12ab 19bf f0aa 0a3f 05d0 693f
00000150: e1c7 c63f 493f 4e3e 08e7 a5be 3495 7a3f
00000160: 4995 403e 1792 21be e64c c1bc 4cd8 0abf
00000170: f1a8 733f c694 1cbe 3a72 22bf 9492 04bf
00000180: 46bd 29bf 4d80 a73e 9eb0 8bbf 3977 a13e
00000190: b793 8e3f 04ee 0abf 72b7 bd3e 4628 7c3f
000001a0: 0f68 18be 195d 933f 4368 1e3f 4438 853f
000001b0: 4d64 49bf 46b5 9cbe a0f8 29c0 42e1 90be
000001c0: d5f1 133d e24d 0c3e 8dbb d7bf f573 373f
000001d0: 7e24 97bf b2e0 61be d02f e73d ee63 28c0
000001e0: c8b5 74bb dcc2 20bf 184e bc3e 9053 09bf
000001f0: c3c8 60bd 7994 1abf 02e3 183f 1b05 b6be
00000200: f2e3 8ac0 c762 3f3f 8a1b 2a3f 7a36 603f
00000210: 1fb8 16be 0cde 9dbe f6b6 04bd 3000 04be
00000220: b9e6 0bbf 80c4 883d dc42 f3be 0cc3 06bf
00000230: aa31 2cbe 5497 8fbd 5291 01c0 d6b7 443d
00000240: 37b3 3d3e 97a6 72c0 aaae 733d 5b9f 9b3e
00000250: 95a6 55bf 716d a3bc ae5a 4fbf 5195 f13d
00000260: daa9 fb3d f8c8 c03e 4091 0b3e 433f 193e
00000270: 5932 983e 0491 cfbb 3621 833f dda2 84bd
00000280: 4eb9 72bf ea67 8e3f 4505 253d f43f 123e
00000290: bad9 27bf ce39 d13e 44f0 923e aa41 3d3e
000002a0: a855 58be d780 033d 90b8 403c 05de 993f
000002b0: 3ff4 b5bc 1967 81c0 3be4 e9be 5f2b 2cbf
000002c0: 6773 463e 083b 0bbe 4c17 93c0 ec4a 9abe
000002d0: f796 ec3d ba88 79c0 e37b ef3c 7c48 653f
000002e0: 5ca0 7a3f b6a2 2cbf 9950 ddbf a13b 74bf
000002f0: 4e6b bd3c 8210 233d 44f0 7cbf a703 413f
00000300: 7123 91be 4b68 953e 52ea bdbe fd27 943d
00000310: a817 6b3f 2669 9cbe 83b5 993e 9457 aa3e
00000320: c93d 5d3e 7555 803d e987 35bf 6c47 233f
00000330: 88fc c33c e37c 79be 44a9 d4bf 6246 333c
00000340: a21e 483f 57ac c8be cb2d b93e f7b3 1a3e
00000350: d8f3 803d 91f2 94be 6a05 3f3f 7a6e bf3e
00000360: 7d22 2f3f faa2 113e 4b86 143d 7fea 7dbe
00000370: 2765 053e 062d 6fbf eae5 373f fabb 84bc
00000380: 2620 993f c311 233f eddd 583e 9b10 1ebf
00000390: 05d9 84bf d6db fabe 271a ed3e 4122 a03f
000003a0: 4408 19bf d042 273f 317d 223f 6849 053f
000003b0: 5885 a6be 2831 6abf 33c2 bebe 6d2b e23e
000003c0: 4341 bbbe 7cd8 24be 3b5e 23be 4f7b 98bf
000003d0: 6c53 2fbf 3199 443f 8dc9 463e 9853 03be
000003e0: 7f4e 1c3e ec4b d5be 8dbc b53d 3126 993d
000003f0: 209a eebe c5da e33e 8f13 953d 4d75 fd3d

w_h.2.bias f4 [32]
-0.5270618 0.41076005 -0.23305926 -0.1851675 -0.0785397 -2.3347526 0.033787526 -0.11319503
-0.45637208 -0.15395062 0.311656 0.05967078 0.3223774 0.40353557 -0.25981992 -0.16575585
-0.19818577 0.026035093 -0.32687113 -0.02123773 -0.21002772 -0.22315788 -0.10346917 -0.06695407
-0.059823714 0.39414075 0.18535008 0.50368863 0.11353799 -0.18383336 0.8866187 0.6928494
00000000: 86ed 06bf 244f d23e 16a7 6ebe 8d9c 3dbe
00000010: 6cd9 a0bd 966c 15c0 ca64 0a3d ccd2 e7bd
00000020: 9aa9 e9be 3ba5 1dbe 6091 9f3e 5969 743d
00000030: a70e a53e 379c ce3e 1e07 85be e7bb 29be
00000040: 36f1 4abe 8c47 d53c a75b a7be bffa adbc
00000050: 8211 57be 8083 64be a5e7 d3bd 371f 89bd
00000060: b609 75bd d1cc c93e 69cc 3d3e bdf1 003f
00000070: 9b86 e83d d03e 3cbe 71f9 623f 945e 313f

Ws.0 f4 [32, 32]
-1.7382672 -0.34777355 -0.7578106 -0.47651476 0.7073319 0.26269844 -0.7711555 1.1209747
0.1476901 0.4627856 -0.50521815 -0.29324144 0.007547746 -0.059585996 -0.10833487 0.59549236
-0.026555985 0.056887984 -0.094818264 0.50164336 -0.28105095 0.27310944 -1.2940243 -0.3127758
-0.78902614 0.42731968 0.24543025 0.7536807 0.080840334 -1.9452093 -0.72653747 0.17463192
-1.7756077 -0.4062839 -0.0029042163 0.043803032 0.2353839 0.4520783 -0.26099098 0.01970762
-1.0489917 -0.41457486 0.45972538 0.5738727 -0.49078637 -2.6326573 0.49958232 -7.9856524
-0.89786917 1.6953075 -1.2635559 -2.8488595 -0.40846437 -1.6300343 0.6757089 0.09107565
0.17378742 0.027007863 0.95867646 -1.2703071 -0.39119992 -1.8948413 1.0945337 -0.7112359
-0.102860115 -1.8889768 -1.036233 1.342818 -1.4631491 0.741188 -2.2880082 -0.29240078
-3.129186 -0.05718072 1.5901542 -0.16820143 0.2964306 -3.3338108 -0.61207867 -0.3761638
2.6116242 -1.2407771 -0.99495083 -2.9948056 1.1929274 -0.52648157 -0.19346845 -0.16271777
0.27578458 -1.8818667 -4.3794246 0.24898933 -0.5680884 1.3083192 -0.35009933 0.543287
-0.6760028 -0.008901145 0.5672222 -2.7515538 -1.2031382 1.03586 1.3621999 0.4442799
1.2272549 1.3461233 -0.8705041 0.043105584 1.0563399 0.18068135 0.21524514 0.8711914
-0.5237346 0.37172002 0.2185707 1.280827 1.156343 0.2457136 0.55755246 -1.2963085
1.2026302 0.20690791 1.237502 -1.281431 0.029156467 -1.0124446 1.8239663 -0.39334098
0.6985348 0.11562888 -0.32369485 -1.5093045 -1.506527 0.7393678 0.728451 -0.16352335
-1.2089367 -0.83622944 1.1942769 -0.3227419 0.048470132 -1.5338918 0.22628182 0.2290827
-0.22194716 0.34964296 -0.903111 -0.41668543 0.057602722 -1.2232109 0.30270338 0.7332016
0.42213646 -0.7617473 -0.7845691 -2.5232868 -0.11654956 0.59723634 1.6434785 -1.9895896
-2.534764 0.27135888 0.16269651 1.4402622 -0.97628754 -1.1337453 0.40217727 0.9032059
0.30276608 -0.23438737 -0.2295258 -0.5773513 -1.7877439 0.37298822 0.025393492 -0.03578974
-0.7221085 -3.4564016 0.036400404 -0.28084585 0.23693116 -2.8780706 -1.9455839 0.031428266
1.139356 -4.216046 -0.08959436 0.18643697 -5.3943963 -2.7543924 0.49430525 -0.32502058
-0.29163983 -0.14273159 0.9715158 1.0885187 -2.102154 -0.74676454 2.0983086 -0.28911448
0.80315757 -1.4768971 -1.3572581 -2.33811 1.5147437 1.1701707 0.41432858 -1.0426015
-1.6280668 -0.045439772 -2.7684162 -0.72797173 -0.56093365 -1.3411375 -0.4351845 -0.04071865
1.966951 -2.4230754 -0.020975519 -0.898883 2.1782732 0.9649085 -1.5271376 -0.8121751
2.0706437 0.34812307 -0.7894424 -0.44969583 -0.005498111 2.0578258 -0.997544 0.1441233
0.8237507 -0.12584771 -0.042883888 -0.49324527 -0.7500951 -1.6670599 1.6984531 -1.1409044
0.2380815 0.4969523 0.39484397 -0.3257166 -0.099660225 0.27731806 -0.965596 0.31399706
-0.38510677 0.9554517 1.6563952 -1.0068073 -0.2336416 1.1267277 0.5017433 1.9792411
00000000: 8a7f debf 600f b2be e0ff 41bf bef9 f3be
00000010: b413 353f 6980 863e 726a 45bf 197c 8f3f
00000020: 133c 173e 3cf2 ec3e fa55 01bf be23 96be
00000030: 1553 f73b 7210 74bd acde ddbd 3072 183f
00000040: f08b d9bc 6003 693d 1430 c2bd b36b 003f
00000050: e9e5 8fbe 00d5 8b3e 97a2 a5bf 2624 a0be
00000060: 9efd 49bf a5c9 da3e 1152 7b3e 38f1 403f
00000070: 9e8f a53d 9efc f8bf 5cfe 39bf b6d2 323e
00000080: 1d47 e3bf 7104 d0be aa54 3ebb cf6a 333d
00000090: 7a08 713e cf76 e73e 9ca0 85be e071 a13c
000000a0: 5c45 86bf 2843 d4be 2061 eb3e 52e9 123f
000000b0: 5a48 fbbe 757d 28c0 41c9 ff3e 778a ffc0
000000c0: c1da 65bf d6ff d83f 33bc a1bf b753 36c0
000000d0: 3e22 d1be f7a4 d0bf 42fb 2c3f df85 ba3d
000000e0: 54f5 313e 983f dd3c d26b 753f 6c99 a2bf
000000f0: 5b4b c8be 298a f2bf ae19 8c3f 8e13 36bf
00000100: 53a8 d2bd fec9 f1bf 48a3 84bf 76e1 ab3f
00000110: 7848 bbbf 7fbe 3d3f ba6e 12c0 8eb5 95be
00000120: 9544 48c0 5536 6abd 2c8a cb3f ff3c 2cbe
00000130: c0c5 973e 285d 55c0 30b1 1cbf 8b98 c0be
00000140: da24 2740 c9d1 9ebf 19b5 7ebf e5aa 3fc0
00000150: d8b1 983f 7fc7 06bf 981c 46be 7d9f 26be
00000160: a333 8d3e 02e1 f0bf 3f24 8cc0 0ff7 7e3e
00000170: 3e6e 11bf 0177 a73f 3840 b3be db14 0b3f
00000180: 850e 2dbf 1cd6 11bc 7935 113f 7519 30c0
00000190: 6f00 9abf 0f97 843f 915c ae3f a878 e33e
000001a0: b016 9d3f c54d ac3f 5bd9 5ebf 7b8f 303d
000001b0: 2536 873f 8804 393e 3969 5c3e 6606 5f3f
000001c0: 7913 06bf 1652 be3e ffd0 5f3e 24f2 a33f
000001d0: 0c03 943f 599c 7b3e c2bb 0e3f 70ed a5bf
000001e0: c9ef 993f abdf 533e 7766 9e3f ee05 a4bf
000001f0: 8bd9 ee3c c997 81bf ba77 e93f fd63 c9be
00000200: 2dd3 323f d6ce ec3d 55bb a5be e430 c1bf
00000210: e0d5 c0bf 3547 3d3f c47b 3a3f aa72 27be
00000220: 70be 9abf 2213 56bf 11de 983f 6d3e a5be
00000230: 9e88 463d 9156 c4bf 6cb6 673e a894 6a3e
00000240: 1e46 63be 6704 b33e 4832 67bf cb57 d5be
00000250: d5f0 6b3d 2d92 9cbf f0fb 9a3e 1ab3 3b3f
00000260: 4522 d83e df01 43bf 85d9 48bf 887d 21c0
00000270: 89b1 eebd 7be4 183f 815d d23f dfaa febf
00000280: 9339 22c0 8def 8a3e ea99 263e 835a b83f
00000290: fbed 79bf 911e 91bf 2eea cd3e 8038 673f
000002a0: 2804 9b3e 3e03 70be d008 6bbe 4bcd 13bf
000002b0: cbd4 e4bf 50f8 be3e 0306 d03c 4398 12bd
000002c0: 1adc 38bf af35 5dc0 9718 153d 07cb 8fbe
000002d0: 159e 723e 4f32 38c0 e508 f9bf edba 003d
000002e0: 6bd6 913f d9e9 86c0 3f7d b7bd 55e9 3e3e
000002f0: e59e acc0 f747 30c0 9415 fd3e 1969 a6be
00000300: d151 95be 3b28 12be 42b5 783f 9554 8b3f
00000310: b189 06c0 f62b 3fbf b04a 0640 d006 94be
00000320: bc9b 4d3f f70a bdbf a2ba adbf 98a3 15c0
00000330: 1fe3 c13f 27c8 953f e022 d43e f773 85bf
00000340: 7e64 d0bf 0e1f 3abd bb2d 31c0 5b5c 3abf
00000350: 5999 0fbf 65aa abbf 81d0 debe 99c8 26bd
00000360: 0dc5 fb3f ab13 1bc0 dad4 abbc 321d 66bf
00000370: d468 0b40 3e04 773f 3f79 c3bf b5ea 4fbf
00000380: 6d85 0440 303d b23e e618 4abf 883e e6be
00000390: 7f29 b4bb 6bb3 0340 0b5f 7fbf 0f95 133e
000003a0: 53e1 523f 39de 00be 04a7 2fbd a58a fcbe
000003b0: 3c06 40bf 3862 d5bf e966 d93f 2809 92bf
000003c0: a3cb 733e 8870 fe3e fd28 ca3e 54c4 a6be
000003d0: a91a ccbd a2fc 8d3e 4d31 77bf 39c4 a03e
000003e0: b72c c5be 7c98 743f c204 d43f 10df 80bf
000003f0: be3f 6fbe 9d38 903f 4072 003f c657 fd3f

Ws.1 f4 [32, 32]
-2.423683 -0.12098712 -0.6416767 0.5618966 0.2691426 1.633459 0.8396268 0.92155606
0.19961143 0.008483168 0.33188403 -0.5557224 1.5741006 -0.70763797 -1.3412842 -1.8359694
3.3106341 -0.6916557 -2.9366777 -2.5332353 -2.1159286 -0.34301385 -0.38900357 -0.38814035
0.25450826 2.0945919 -5.0354037 -0.22124931 0.056531485 0.053520497 -0.21914509 -1.0022255
-0.2751609 -0.6821748 -0.80510277 2.6138618 0.4451763 -4.805756 -0.6459567 0.9462142
-0.027371263 -0.028909715 0.5714687 -0.00053942756 0.050936505 0.7248083 1.6692083 0.098060116
-0.8461363 0.97114575 -0.57077026 -2.87823 1.1102409 -0.7447872 1.7764838 -1.92478
0.094002895 -1.0172797 0.02885242 1.175251 -0.32230338 0.4433981 0.61656624 -1.5887537
0.9116424 -0.68358415 -1.1462088 -0.17988177 -1.4476414 -0.03892876 -2.3457572 -2.3680208
0.40679747 -0.2202297 1.0344875 -0.52959436 0.58228326 -0.33146557 1.9270455 -0.18198083
-0.5900159 -0.39806056 -0.853455 -0.14705364 -0.029454594 -2.0798593 -0.94269234 -3.1218693
1.3586901 -2.4720333 0.03336266 0.03757487 1.077434 -1.2588723 -2.0153074 -0.45207
-0.6185085 0.28030595 0.13451971 -1.6404544 -0.60546327 -0.8913189 -0.22825469 -0.7078084
-0.3666122 -0.9081968 -0.6389718 -1.3301034 0.46345675 0.88588536 -0.5433635 -0.32051173
0.13994691 -2.1862166 -0.70068145 -1.757513 1.5433668 -1.2680954 0.4077527 -0.8352442
-0.5470514 -1.0196168 0.07437954 -0.73414373 0.59068584 -1.0092857 -1.1719522 -1.7741457
0.9602992 -0.19927144 -1.4037138 -0.5717463 -0.67657477 0.34247983 -0.22837903 -0.04760903
-0.72439516 0.07706232 -0.12446595 0.26285666 -0.48268077 -0.42581353 -0.025377672 -0.28835243
0.41221967 1.9382546 -1.252706 -0.029276183 0.7595922 -1.3998091 0.50917 -0.6743345
0.26344985 -1.9022255 -0.8981961 0.93615425 0.5916365 0.6621021 -0.82923007 -0.7341598
-1.3043724 0.45293874 1.3914657 0.9940509 0.057458952 -0.9724645 0.41065875 -1.4312731
-0.24464369 -1.5084019 0.24012934 0.7023195 -0.4149324 0.16280073 -0.33226454 -0.8719778
-0.5603733 0.11445334 1.3118019 -1.4233048 -0.0989944 -1.964362 1.2270877 -0.7771196
-0.97406757 -0.5293978 0.48016453 -1.0199836 1.8018126 -1.6622384 -0.17111285 0.051889054
0.82951653 1.2166848 -0.5916252 0.2407421 0.5927134 0.3041082 -0.19711 -0.56465983
-1.4368808 0.67409587 1.853384 -0.49328744 -0.46426004 -0.7453924 0.35474184 0.5423616
-0.6425058 -0.30518284 0.9357712 -0.051404182 -0.31105417 -1.6287081 -0.60467273 -1.5452499
0.88022584 -1.116249 -0.12521844 -1.5204937 0.10573242 1.2024047 -0.80923593 -0.75836504
-1.155172 -0.9385852 0.20670414 -1.8577081 -0.09831484 -0.5113513 -1.1915079 -2.2466784
0.7729508 -1.3795471 -0.5136456 -1.1042479 -0.86307704 0.28919664 0.62482244 -0.55606526
0.2591869 0.508871 -0.54183716 -0.22522864 -0.092462875 0.2508303 -1.5989171 0.53595126
0.864934 0.5116419 0.89931184 -0.4804346 0.2148527 -0.70685273 -0.53109175 0.89906186
00000000: 9f1d 1bc0 18c8 f7bd ed44 24bf 75d8 0f3f
00000010: 0fcd 893e 2f15 d13f c8f1 563f 19eb 6b3f
00000020: f066 4c3e fcfc 0a3c b4ec a93e d343 0ebf
00000030: 217c c93f c327 35bf 33af abbf 0c01 ebbf
00000040: 6ee1 5340 5910 31bf 87f2 3bc0 8720 22c0
00000050: 606b 07c0 839f afbe 7a2b c7be 55ba c6be
00000060: e84e 823e cb0d 0640 0722 a1c0 2e8f 62be
00000070: 8f8d 673d 4f38 5b3d 9267 60be ed48 80bf
00000080: e4e1 8cbe 02a3 2ebf 371b 4ebf 8349 2740
00000090: 26ee e33e c1c8 99c0 6b5d 25bf 183b 723f
000000a0: b339 e0bc 11d4 ecbc c64b 123f 5f68 0dba
000000b0: cca2 503d 098d 393f 9ea8 d53f bed3 c83d
000000c0: 639c 58bf 029d 783f 001e 12bf ec34 38c0
000000d0: 601c 8e3f 60aa 3ebf d263 e33f 315f f6bf
000000e0: 9784 c03d 3936 82bf e95b ec3c a06e 963f
000000f0: f304 a5be 1305 e33e 49d7 1d3f 485c cbbf
00000100: 6561 693f 5fff 2ebf f8b6 92bf ed32 38be
00000110: 504c b9bf c373 1fbd e320 16c0 a78d 17c0
00000120: c247 d03e e583 61be 166a 843f 7f93 07bf
00000130: 8410 153f dbb5 a9be 6da9 f63f 2f59 3abe
00000140: 480b 17bf 98ce cbbe 077c 5abf 3b95 16be
00000150: c34a f1bc 6a1c 05c0 4954 71bf b5cc 47c0
00000160: 8fe9 ad3f cb35 1ec0 49a7 083d 1be8 193d
00000170: 5be9 893f ba22 a1bf ccfa 00c0 b875 e7be
00000180: 9356 1ebf 4384 8f3e 89bf 093e 69fa d1bf
00000190: a4ff 1abf 7a2d 64bf 99bb 69be ee32 35bf
000001a0: 98b4 bbbe 967f 68bf a893 23bf d440 aabf
000001b0: 344a ed3e 62c9 623f df19 0bbf 1d1a a4be
000001c0: 3e4e 0f3e f9ea 0bc0 dc5f 33bf 30f6 e0bf
000001d0: 0b8d c53f f350 a2bf f6c4 d03e 90d2 55bf
000001e0: 900b 0cbf ce82 82bf 4d54 983d d8f0 3bbf
000001f0: 3037 173f 4630 81bf 8802 96bf 3517 e3bf
00000200: 2bd6 753f d00d 4cbe e5ac b3bf f75d 12bf
00000210: 0134 2dbf 8459 af3e 31dc 69be b001 43bd
00000220: f671 39bf dad2 9d3d 01e8 febd 2695 863e
00000230: ef21 f7be 3b04 dabe d6e4 cfbc eea2 93be
00000240: 750e d33e ba18 f83f ac58 a0bf 9bd4 efbc
00000250: a274 423f f22c b3bf f758 023f 30a1 2cbf
00000260: e6e2 863e 207c f3bf 2ef0 65bf cea7 6f3f
00000270: 7d75 173f 867f 293f 6c48 54bf e6f1 3bbf
00000280: adf5 a6bf 96e7 e73e 8c1b b23f 1f7a 7e3f
00000290: 145a 6b3d 6ff3 78bf dd41 d23e f533 b7bf
000002a0: e083 7abe 5013 c1bf 77e4 753e 36cb 333f
000002b0: 0572 d4be 3cb5 263e 941e aabe f039 5fbf
000002c0: a074 0fbf 8366 ea3d 20e9 a73f da2e b6bf
000002d0: 93bd cabd 3770 fbbf 3611 9d3f 4ff1 46bf
000002e0: 7e5c 79bf 9d86 07bf 20d8 f53e d38e 82bf
000002f0: cca1 e63f 3ac4 d4bf 3538 2fbe 9e89 543d
00000300: 325b 543f 54bc 9b3f c074 17bf 1985 763e
00000310: 11bc 173f 12b4 9b3e 34d7 49be 8c8d 10bf
00000320: b6eb b7bf 8c91 2c3f b03b ed3f 2c90 fcbe
00000330: 7eb3 edbe 09d2 3ebf b9a0 b53e 36d8 0a3f
00000340: 437b 24bf ed40 9cbe b48e 6f3f 318d 52bd
00000350: 7e42 9fbe 8279 d0bf d5cb 1abf c0ca c5bf
00000360: 7b56 613f 3fe1 8ebf 4339 00be 8a9f c2bf
00000370: 3d8a d83d 66e8 993f 162a 4fbf 3624 42bf
00000380: addc 93bf 1f47 70bf 40aa 533e 61c9 edbf
00000390: 4a59 c9bd ebe7 02bf 5583 98bf 94c9 0fc0
000003a0: 1be0 453f 0095 b0bf 477e 03bf ff57 8dbf
000003b0: 9ef2 5cbf 9511 943e 5df4 1f3f 4b5a 0ebf
000003c0: 25b4 843e 5f45 023f d7b5 0abf 56a2 66be
000003d0: 2d5d bdbd d46c 803e 51a9 ccbf 1a34 093f
000003e0: 516c 5d3f f7fa 023f 4d39 663f 86fb f5be
000003f0: 5902 5c3e 4df4 34bf a1f5 07bf eb28 663f
