crowd_nav/RGL_our/rl_model_6.pth (torch, 143871 bytes, 33 tensors)

w_a f4 [32, 32]
-0.31775686 -0.1955159 1.0251126 -0.70206326 0.12782863 -0.96716624 0.6489562 -0.53425205
1.0705913 0.33377725 -1.2778533 0.66778547 -1.3833405 -0.97977096 0.38253766 -0.27014187
-0.39773595 -0.47692454 0.9047738 -0.3995286 0.64815533 -0.029392757 0.43947616 0.075938426
-1.2544025 -0.6353005 -0.3719392 -0.106262036 -0.39015865 0.89219856 -0.30317184 0.93588454
-0.24308679 0.5964333 -1.048723 -1.3868212 1.3213906 -0.9830813 1.4640623 0.22247478
0.92183864 -0.39949697 -0.029186996 0.12163258 -0.2255527 -1.9430275 -0.4932042 -0.77954817
0.15578677 0.13755043 -0.69617736 -0.0033948892 0.5641868 -0.65287995 -0.96471703 -1.5288719
0.24474001 0.42859545 -0.6386618 -0.2838045 -1.329024 1.178715 1.2754725 0.14646561
0.043346047 -2.219239 -0.6450625 -0.08382791 -1.5909499 -1.4306388 -1.1833986 -0.8035379
-1.1745039 0.57495606 1.7671713 -1.0087532 -0.8567568 0.22921897 -2.818511 0.71819514
-0.05160829 0.14462215 -1.7748027 -0.36368123 -0.6296804 -1.4869603 1.5295414 -2.692588
-1.7010052 0.92585504 -0.7868009 1.5663841 0.25790554 -0.0018164965 0.098342374 0.1999824
0.2853478 0.7156477 -0.9633508 0.23915689 -1.4820843 -0.052586608 0.21293874 -0.67157626
-0.9773315 -0.49755877 -0.16392742 -1.229214 1.0402416 -0.5842455 -0.2774599 2.071829
-0.087175265 -0.25903526 0.23569433 0.63590425 -0.2851528 -0.5749176 -0.48444536 0.59637135
0.44698572 -0.9536809 -0.03477633 0.70716053 -0.7921412 0.4451935 -0.92782664 1.0293322
0.85794675 -0.21132407 -0.6589241 0.061140742 -0.08450003 0.4356159 -0.85713613 -0.26720765
-1.1242634 1.2303373 0.5246119 -1.2059772 -0.61005706 0.13113531 0.5130267 -2.0459943
0.033032406 0.035156995 -0.58938736 0.33906263 0.19475338 -1.1450372 -0.85286164 1.4244636
-1.4979774 0.4611693 -0.49256575 -0.6320909 0.69533455 -0.9472187 0.84016705 0.53483534
0.93869275 0.7210188 -1.3928369 -1.6352938 1.2056528 -0.23292221 -0.41539985 0.36423296
3.017429 0.2527383 0.26870036 -1.1348826 -1.5649469 0.20044364 -1.0282472 0.42529985
0.12545873 1.3256776 0.45469096 0.30919144 1.2194587 0.4397545 1.7175872 -0.101774655
-0.01644714 3.1446145 -0.86269724 2.0798197 -0.07909284 -0.53799945 0.43384093 -1.2888099
0.16865416 -1.1186627 -0.55611837 -0.0683398 -1.0460677 0.5136983 0.2986656 0.29423574
0.1547922 -0.4040157 -0.696694 0.9946225 0.052251715 -2.0098865 -0.17687395 3.7589586
-1.3064973 -1.3086445 1.3145298 -0.2450167 -1.2649949 1.4918748 0.8725808 -0.9336579
-0.021524532 -2.5533853 0.49882534 0.6721112 0.689471 0.08737811 -1.5876689 1.0735838
-0.33271253 1.1282309 -0.92744124 -0.16684258 0.25832567 0.73511523 -0.43222737 1.2376186
-0.78262657 1.0996965 -1.697797 -0.14204328 -0.53785497 -0.28091368 -0.19495586 -0.4047759
-0.10365157 -0.7997384 -0.09554586 -0.36752015 0.04719848 1.2803168 -0.093974344 -1.8391556
-1.6803787 -0.9102152 -1.2443309 2.4764216 -1.0745509 -0.083599 0.5158893 2.29737
00000000: 07b1 a2be 5235 48be e436 833f 6bba 33bf
00000010: 82e5 023e 3598 77bf fe21 263f bec4 08bf
00000020: 2309 893f dae4 aa3e b290 a3bf fdf3 2a3f
00000030: 4d11 b1bf 45d2 7abf fadb c33e 0950 8abe
00000040: 0ca4 cbbe 742f f4be 419f 673f 038f ccbe
00000050: 82ed 253f 14c9 f0bc 0503 e13e 9b85 9b3d
00000060: 4390 a0bf 0ea3 22bf d16e bebe e99f d9bd
00000070: e0c2 c7be 2067 643f 5739 9bbe 2196 6f3f
00000080: beeb 78be daaf 183f 8e3c 86bf 5b83 b1bf
00000090: 5423 a93f 37ab 7bbf 6566 bb3f 6ed0 633e
000000a0: 9efd 6b3f de8a ccbe 9119 efbc 811a f93d
000000b0: 49f7 66be 20b5 f8bf 4385 fcbe 7890 47bf
000000c0: 9186 1f3e 05da 0c3e ae38 32bf ca7c 5ebb
000000d0: 8c6e 103f 2423 27bf b2f7 76bf 13b2 c3bf
000000e0: 209d 7a3e dd70 db3e 577f 23bf d34e 91be
000000f0: 751d aabf 22e0 963f af42 a33f 15fb 153e
00000100: a08b 313d 0308 0ec0 d122 25bf f8ad abbd
00000110: 3fa4 cbbf 2c1f b7bf 9b79 97bf a9b4 4dbf
00000120: 2556 96bf 5230 133f ab32 e23f d31e 81bf
00000130: 6a54 5bbf 61b8 6a3e 7c62 34c0 a3db 373f
00000140: 3763 53bd d417 143e bc2c e3bf 6d34 babe
00000150: bc32 21bf b754 bebf 03c8 c33f 5d53 2cc0
00000160: 8aba d9bf d604 6d3f c96b 49bf 467f c83f
00000170: 320c 843e 8217 eeba ba67 c93d 30c8 4c3e
00000180: 1b19 923e b034 373f 289e 76bf 8be5 743e
00000190: f0b4 bdbf 0e65 57bd 9d0c 5a3e 6cec 2bbf
000001a0: 6632 7abf 06c0 febe 97dc 27be e256 9dbf
000001b0: a326 853f 1d91 15bf 390f 8ebe d998 0440
000001c0: f288 b2bd 45a0 84be db59 713e 9fca 223f
000001d0: 8cff 91be cd2d 13bf 3909 f8be cbab 183f
000001e0: 50db e43e 6e24 74bf a071 0ebd 7908 353f
000001f0: c4c9 4abf 67f0 e33e 0c86 6dbf 28c1 833f
00000200: 66a2 5b3f 5665 58be 40af 28bf b76e 7a3d
00000210: 5a0e adbd 0c09 df3e 466d 5bbf 71cf 88be
00000220: dde7 8fbf b17b 9d3f f74c 063f 765d 9abf
00000230: b32c 1cbf 5648 063e b855 033f 92f1 02c0
00000240: fd4c 073d c800 103d 17e2 16bf 9e99 ad3e
00000250: 6e6d 473e 9490 92bf 2455 5abf d354 b63f
00000260: b9bd bfbf 621e ec3e 9431 fcbe b6d0 21bf
00000270: 7201 323f ed7c 72bf 3015 573f f8ea 083f
00000280: 2b4e 703f b094 383f 7b48 b2bf 4f51 d1bf
00000290: d552 9a3f 2983 6ebe 4aaf d4be be7c ba3e
000002a0: 8f1d 4140 ea66 813e 1893 893e d543 91bf
000002b0: 2e50 c8bf 1941 4d3e 9b9d 83bf e7c0 d93e
000002c0: 4178 003e ceaf a93f 41cd e83e 574e 9e3e
000002d0: 3917 9c3f 8027 e13e e6d9 db3f 3b6f d0bd
000002e0: 27bc 86bc 5d41 4940 bad9 5cbf c41b 0540
000002f0: 6dfb a1bd 55ba 09bf 6620 de3e b9f7 a4bf
00000300: adb3 2c3e 5730 8fbf c65d 0ebf bdf5 8bbd
00000310: 8ce5 85bf bb81 033f b3ea 983e 11a6 963e
00000320: d981 1e3e 25db cebe 8a5a 32bf 959f 7e3f
00000330: e505 563d fba1 00c0 721e 35be c792 7040
00000340: 4e3b a7bf aa81 a7bf 8342 a83f a8e5 7abe
00000350: 5aeb a1bf c1f5 be3f 7561 5f3f 3404 6fbf
00000360: 3754 b0bc aa6a 23c0 0966 ff3e 7b0f 2c3f
00000370: 2c81 303f 4bf3 b23d bc38 cbbf 326b 893f
00000380: 4c59 aabe df69 903f ca6c 6dbf c8d8 2abe
00000390: 4343 843e 8330 3c3f e84c ddbe 496a 9e3f
000003a0: 375a 48bf dbc2 8c3f 6951 d9bf cb73 11be
000003b0: ddb0 09bf ebd3 8fbe 82a2 47be c93e cfbe
000003c0: 4647 d4bd a8bb 4cbf 8cad c3bd 9a2b bcbe
000003d0: 3253 413d 6ce1 a33f 9f75 c0bd 7369 ebbf
000003e0: a616 d7bf dd03 69bf 3c46 9fbf b17d 1e40
000003f0: e28a 89bf f435 abbd 5211 043f 1c08 1340

w_r.0.weight f4 [64, 9]
0.27822235 0.094183214 1.7795588 0.10636394 -0.31378597 0.03293073 -0.37148216 -0.2622038
-0.021147808 -0.2665959 -0.30904746 -0.39812705 -0.09565513 -0.20516285 -0.09710666 -0.6459074
-0.7912893 -0.23962335 0.20708382 -0.08952111 -1.0120863 0.36154878 -0.0857085 -0.31543738
-0.4505802 -0.06445842 0.057583094 -0.15722811 0.008213193 0.3136578 -0.42159218 0.20846626
-0.16776602 -0.25627455 0.048835684 0.13754976 0.008569898 -0.003858527 -0.0186043 -0.23318198
-0.18814445 -0.15083814 -0.0016251717 -0.28856382 -0.074569985 0.084096216 0.4749454 0.012183745
-0.006937794 0.05175094 0.22626948 0.36261308 0.13757887 -0.15053841 -0.54431593 0.023905734
0.01839436 0.073041774 0.2221627 -0.20792806 0.15335079 -0.30533555 0.21944277 -0.47796357
0.13586456 -1.0638975 -0.50371623 -0.18161592 0.013089895 -0.6816779 -0.3484902 0.09155115
0.052083615 -0.52944165 0.8494319 0.00267577 0.2793282 0.11653094 -0.4044596 -0.6090643
-0.26630768 0.23378356 -0.0025242185 0.8371973 0.093846545 -0.08253276 0.17105433 -0.23777442
-0.7753403 0.17824714 0.017962873 0.0047748964 -0.21814267 0.030463861 -0.13993919 -0.045767944
0.023453819 -0.45067626 0.01721712 0.03975829 -0.0026570777 -0.008709055 -0.14185277 -0.32178622
0.2905801 -0.13901024 -0.050991926 0.18711524 -0.24032356 -0.5441458 -0.1755244 -0.6824725
-0.07340324 -0.1905402 -0.78725475 -0.3098235 0.21319675 -0.2142021 0.13185087 -1.0986339
0.15251826 0.1339589 -0.12633765 -0.48050553 -0.25444207 0.17298906 0.31397903 0.002407851
-0.4744638 -0.4757644 -0.32118315 -0.22128408 -0.278276 -0.68925864 0.10450196 0.3519863
-0.33701012 -0.0107313795 -0.33089367 0.087332055 -0.26921508 -0.6210369 -0.5197226 0.092840955
-0.5514935 0.27086598 -0.25110084 0.08744966 -0.21314275 -0.0030560098 -0.10025149 -0.2078691
0.18820977 -0.73226935 0.11473931 -0.16703877 0.83489853 0.20820558 -0.03999996 -0.33210728
-0.42057034 -0.29905897 0.70469296 0.248296 1.3344009 0.77199286 -0.055527568 -0.30505353
-0.6700554 -0.7128719 0.23026454 -0.07062228 -0.08931142 0.032550555 -0.87391824 -0.3099063
0.2294291 -0.5664143 -0.08304393 -0.016410789 -0.5521513 -0.60427356 0.035511535 -0.09392522
0.28647062 -0.04311347 -0.4347294 -0.3884258 0.016522368 0.21945864 0.13460188 0.3432469
0.45319128 -0.13002746 0.033413332 -0.24777272 -0.35729438 0.27456838 0.60973406 -0.025889048
0.16766639 0.07111582 0.1626883 0.3147732 0.041979037 -0.08088596 0.14308195 0.024499986
0.0008419742 -0.04755031 0.054950442 -0.062309228 0.041944824 0.032229472 -0.25871578 0.2299912
-0.21164313 0.24367578 0.73178536 0.6011171 -0.17720036 -0.011994402 -0.4916067 -0.11609539
-0.018897932 -0.305506 0.029642716 -0.8533494 0.7101052 -0.3260337 -0.1441046 -0.52790654
-0.4479516 -0.25013897 0.255682 0.065143555 -0.44792712 0.34785828 -0.02845323 -0.04976964
-0.21127816 -0.4316078 -0.045769297 -0.1560945 -0.023175994 0.15304972 -0.03689798 0.31730664
-0.023932934 -0.3126158 -0.07991533 -0.06550809 0.08963705 -0.092353135 -0.8669217 -0.11432011
00000000: 2973 8e3e 21e3 c03d 95c8 e33f 56d5 d93d
00000010: 8ea8 a0be 60e2 063d e932 bebe 943f 86be
00000020: 2b3e adbc 427f 88be 783b 9ebe 4fd7 cbbe
00000030: d6e6 c3bd 3616 52be dbdf c6bd 305a 25bf
00000040: f091 4abf d35f 75be c80d 543e d856 b7bd
00000050: 0b8c 81bf ec1c b93e f087 afbd 0281 a1be
00000060: 73b2 e6be c702 84bd 40dc 6b3d 6800 21be
00000070: a190 063c c197 a03e eeda d7be 2e78 553e
00000080: dbca 2bbe 6b36 83be ed07 483d d8d9 0c3e
00000090: c268 0c3c 57df 7cbb 0c68 98bc 42c7 6ebe
000000a0: f0a8 40be 5075 1abe b703 d5ba a3be 93be
000000b0: 26b8 98bd a33a ac3d 0b2c f33e 559e 473c
000000c0: 6f56 e3bb cbf8 533d 30b3 673e 6ca8 b93e
000000d0: 7ae1 0c3e be26 1abe 4a58 0bbf f5d5 c33c
000000e0: c5af 963c ed96 953d 9e7e 633e 18eb 54be
000000f0: fd07 1d3e f154 9cbe 9bb5 603e a4b7 f4be
00000100: 1420 0b3e cb2d 88bf 8cf3 00bf 86f9 39be
00000110: 0077 563c 7182 2ebf 4f6d b2be 2b7f bb3d
00000120: a155 553d 7d89 07bf 5e74 593f f95b 2f3b
00000130: 1b04 8f3e c6a7 ee3d 5415 cfbe a3eb 1bbf
00000140: 7b59 88be f564 6f3e 5c6d 25bb 9052 563f
00000150: 9e32 c03d f006 a9bd de28 2f3e 237b 73be
00000160: b47c 46bf 6b86 363e e026 933c bc76 9c3b
00000170: cb60 5fbe 598f f93c 384c 0fbe 2b77 3bbd
00000180: 3922 c03c 0abf e6be eb0a 8d3c 97d9 223d
00000190: 5e22 2ebb 6db0 0ebc da41 11be 2ac1 a4be
000001a0: eac6 943e b358 0ebe e9dc 50bd 239b 3f3e
000001b0: 6117 76be 244d 0bbf abbc 33be 85b6 2ebf
000001c0: 7054 96bd f81c 43be 8789 49bf 30a1 9ebe
000001d0: 4050 5a3e cc57 5bbe ea03 073e 09a0 8cbf
000001e0: bf2d 1c3e 862c 093e a85e 01be d204 f6be
000001f0: 3b46 82be 0b24 313e dcc1 a03e 09cd 1d3b
00000200: ebec f2be 6497 f3be 1e72 a4be 4b98 62be
00000210: 317a 8ebe 4173 30bf 2005 d63d 8c37 b43e
00000220: 978c acbe abd2 2fbc e56a a9be 26db b23d
00000230: 8fd6 89be 46fc 1ebf 8a0c 05bf 6623 be3d
00000240: ae2e 0dbf f2ae 8a3e 4a90 80be cf18 b33d
00000250: 1842 5abe 5647 48bb a750 cdbd a3db 54be
00000260: 10ba 403e 0176 3bbf 72fc ea3d 360c 2bbe
00000270: e9bb 553f d833 553e 00d7 23bd f709 aabe
00000280: ff54 d7be 421e 99be c266 343f 4e41 7e3e
00000290: a6cd aa3f 53a1 453f e070 63bd fa2f 9cbe
000002a0: c088 2bbf c67e 36bf 78ca 6b3e 6aa2 90bd
000002b0: e8e8 b6bd bb53 053d 1bb9 5fbf 0aac 9ebe
000002c0: 76ef 6a3e 8700 11bf f012 aabd eb6f 86bc
000002d0: ca59 0dbf acb1 1abf 8b74 113d de5b c0bd
000002e0: 47ac 923e c097 30bd da94 debe bfdf c6be
000002f0: eb59 873c c4b9 603e 13d5 093e 0fbe af3e
00000300: b008 e83e eb25 05be 6bdc 083d 22b8 7dbe
00000310: 4aef b6be 3a94 8c3e 8817 1c3f 4515 d4bc
00000320: bdb0 2b3e 2ca5 913d c397 263e f429 a13e
00000330: 36f2 2b3d 8aa7 a5bd 1384 123e 32b4 c83c
00000340: efb7 5c3a 1dc4 42bd b713 613d f637 7fbd
00000350: 56ce 2b3d 0d03 043d 6576 84be d082 6b3e
00000360: fab8 58be 2586 793e 4956 3b3f cfe2 193f
00000370: 0374 35be 2b84 44bc e0b3 fbbe 6bc3 edbd
00000380: d6cf 9abc 486b 9cbe 48d5 f23c 1b75 5abf
00000390: 74c9 353f e4ed a6be 2890 13be e224 07bf
000003a0: ea59 e5be 3712 80be c0e8 823e fc69 853d
000003b0: b456 e5be 7b1a b23e c016 e9bc 40db 4bbd
000003c0: 4d59 58be b3fb dcbe 9678 3bbd 3dd7 1fbe
000003d0: 95db bdbc 11b9 1c3e 5622 17bd 0476 a23e
000003e0: 000f c4bc 2e0f a0be a6aa a3bd 1b29 86bd
000003f0: a193 b73d a423 bdbd 95ee 5dbf a920 eabd

w_r.0.bias f4 [64]
-0.049015846 -0.6083342 -0.25612277 -0.28392813 -0.0104895085 0.2984832 -0.28510493 -0.5031139
-0.34652954 -0.26885873 -0.07767782 -0.014938795 -0.6749656 -0.35738394 -0.32558528 -0.31793657
-0.12623952 -0.6272839 -0.20031168 -0.5260953 -0.41229114 -0.528051 -0.36027908 -0.19699372
-0.17982905 -0.067124546 -0.5959054 0.2310929 -0.06702901 -0.09843781 0.10783402 -0.42968258
-0.25995344 -0.5459588 0.06739401 -0.13377832 -0.6467201 0.21059379 0.034526564 -0.44695008
-0.18098457 -0.20088089 -0.27674285 -0.5174226 -0.28434092 -0.24048598 -0.35904735 -0.46851492
-0.751349 -0.082805194 -0.5989354 0.032970898 -0.34885955 -0.20771548 -0.17518799 -0.4548836
0.03574892 -0.67253786 -0.2916317 -0.37096116 -0.48272792 -0.5378204 -0.50851053 -0.31175923
00000000: d7c4 48bd cabb 1bbf 8622 83be 075f 91be
00000010: 30dc 2bbc cad2 983e 46f9 91be 13cc 00bf
00000020: 526c b1be daa7 89be 8d15 9fbd d9c1 74bc
00000030: 8cca 2cbf 07fb b6be 1db3 a6be 95c8 a2be
00000040: ef44 01be ad95 20bf 811e 4dbe 2eae 06bf
00000050: d317 d3be 5a2e 07bf 8076 b8be b9b8 49be
00000060: 1b25 38be 9878 89bd 428d 18bf 9ea3 6c3e
00000070: 8146 89bd c399 c9bd 15d8 dc3d 5bff dbbe
00000080: 9e18 85be f5c3 0bbf df05 8a3d 2ffd 08be
00000090: 738f 25bf e6a5 573e ba6b 0d3d a4d6 e4be
000000a0: 0554 39be b8b3 4dbe 3db1 8dbe cf75 04bf
000000b0: 2295 91be f541 76be 0ed5 b7be 30e1 efbe
000000c0: 6858 40bf c595 a9bd d553 19bf 7e0c 073d
000000d0: b89d b2be 5eb3 54be 7b64 33be 81e6 e8be
000000e0: 766d 123d 712b 2cbf c050 95be 9fee bdbe
000000f0: 1d28 f7be 99ae 09bf bf2d 02bf e89e 9fbe

w_r.2.weight f4 [32, 64]
0.21075378 -0.05209563 -0.07269154 0.012801928 0.02145225 0.24680652 -3.0237439 -0.9385258
-0.35962936 0.30459034 0.010523519 -0.12004498 -0.17762636 -0.00084044115 -0.03900204 -0.10347851
-0.53104705 0.09998488 -0.74771374 -0.5080246 -0.320135 0.06497391 0.21182655 0.1088102
-0.21441169 -0.27275863 -0.10120656 -0.00039785387 0.04966469 0.3655547 -0.07936471 -0.020606834
0.056803886 0.27212512 0.13591023 0.2486384 0.22092323 -0.35180372 -0.06877314 0.10126724
0.15769266 -0.26962852 0.012696922 -0.56986654 -0.9478845 -0.03293832 -0.031359248 -0.17972039
0.16816756 0.12820788 -0.040786672 -0.18810739 -0.050626308 -0.48475677 0.012961634 -0.8004955
0.0069801025 -0.011648834 -0.6225663 -0.26810893 0.028272904 0.02263427 -2.2580583 -0.04222247
-0.21395893 0.10310703 0.12994385 -0.0073774564 0.021931484 0.012715996 -0.114958934 0.13811126
-0.02521875 -0.03623087 0.026276438 -0.0004627784 -0.41779098 0.17239015 0.08865175 0.1814713
-0.10221699 -0.05106986 0.2316667 -0.21348473 0.13063918 -0.27058145 -0.08572686 0.0099758115
-0.19227771 0.1960971 -0.16144583 0.036709163 0.13633792 0.103004806 0.070564605 -0.39551735
-0.0179402 0.36329797 -0.014153555 0.14837044 0.09468089 0.017131606 -0.10267552 -0.012653119
0.028198032 0.032903004 -0.009123766 -0.093987554 -0.21418078 -0.050052095 -0.3081995 -0.05260418
-0.0025248362 -0.034053653 -0.082613274 0.5037943 -0.010584098 -0.009669443 -0.07373065 -1.4112523
-0.042739134 -0.06593848 -0.2330336 -0.060642086 -0.031075072 -0.17954022 -0.4149785 0.027880885
0.28548023 0.060998466 -0.21597208 0.0006212502 -0.03967962 -0.58537483 0.033603255 0.3884372
0.051633634 0.28342813 -0.0063762357 0.030862594 -0.07979447 0.05093355 -0.123255044 0.6035628
0.24522077 0.23175196 -0.17585403 -0.010484753 0.100416176 -0.042314798 -0.16782959 -0.44391447
-0.037067015 0.18232012 -0.5477921 0.06710698 -0.15436749 0.027046189 -0.1922727 1.0340759
-1.2166587 -0.3960257 0.020200776 0.10063553 -0.38600498 -0.15189114 -0.5102058 -0.36077726
0.22438109 0.07713766 -0.07953699 -0.026170447 -0.49318406 0.08978201 -0.34264857 -0.16653317
-0.5710304 -0.14786251 0.12605035 -0.36715698 0.058498867 0.0267085 -0.070691764 -0.9566022
0.014183479 0.33946726 0.36827675 0.11445162 -0.85274947 -0.5417813 -0.901228 -0.03394292
-0.07025204 0.28868285 -0.18513152 -0.33655316 -0.108396605 -0.04600358 -0.40290505 -0.13258721
0.16983743 -0.15941861 0.06675788 -0.13520785 0.03957423 -0.11243319 -0.21939687 -0.0971588
-0.053941883 0.037403654 -0.16510205 0.34813192 -0.3343247 0.23592767 -0.367873 -0.092823155
-0.12308582 -0.09115872 -0.055531267 -0.09962262 0.21717589 -0.27773377 -0.28365853 -0.015482259
-0.063685246 -0.35674408 -0.10838849 0.061652493 0.04431077 -0.121568985 0.11601293 0.1207191
-0.14120877 -0.12522115 0.010652592 -0.20885083 -0.18001898 0.097668685 0.0036683397 -0.09841559
-0.064660944 -0.1374637 -0.1669953 -0.45821387 -0.20775783 -0.2529237 0.1379204 -0.016655229
0.03348264 0.17226534 -0.219966 -0.003928989 0.013230459 -0.06898506 0.13340174 0.05809711
00000000: d7cf 573e 3a62 55bd 4ddf 94bd 2ebf 513c
00000010: a1bc af3c d9ba 7c3e 0585 41c0 3a43 70bf
00000020: 5721 b8be 44f3 9b3e d66a 2c3c 24da f5bd
00000030: afe3 35be 0d51 5cba 9ac0 1fbd 8bec d3bd
00000040: b3f2 07bf dfc4 cc3d 2b6a 3fbf e60d 02bf
00000050: bce8 a3be 0b11 853d 0fe9 583e e2d7 de3d
00000060: bd8e 5bbe 05a7 8bbe 6345 cfbd 0b97 d0b9
00000070: 346d 4b3d fc29 bb3e f789 a2bd aacf a8bc
00000080: 31ab 683d fc53 8b3e 0d2c 0b3e 119b 7e3e
00000090: b339 623e 9e1f b4be efd8 8cbd 3365 cf3d
000000a0: 2f7a 213e c00c 8abe c006 503c c6e2 11bf
000000b0: 8fa8 72bf 55ea 06bd 8e72 00bd 9f08 38be
000000c0: 1e34 2c3e ed48 033e ed0f 27bd 399f 40be
000000d0: 885d 4fbd 0a32 f8be 095d 543c 46ed 4cbf
000000e0: 58b9 e43b c0da 3ebc 8160 1fbf 9345 89be
000000f0: 949c e73c 816b b93c 0784 10c0 78f1 2cbd
00000100: 0d18 5bbe c729 d33d 0010 053e 97be f1bb
00000110: a8a9 b33c c156 503c 976f ebbd 0a6d 0d3e
00000120: 8d97 cebc d266 14bd af41 d73c 11a1 f2b9
00000130: b3e8 d5be 0b87 303e 0c8f b53d 9dd3 393e
00000140: 2457 d1bd a12e 51bd 093a 6d3e be9b 5abe
00000150: 47c6 053e a789 8abe 9091 afbd 9671 233c
00000160: 73e4 44be aecd 483e 0e52 25be 595c 163d
00000170: 2b9c 0b3e 2ff4 d23d 2d84 903d 4081 cabe
00000180: 54f7 92bc 3102 ba3e 50e4 67bc 6cee 173e
00000190: 0ee8 c13d 9557 8c3c 8b47 d2bd 074f 4fbc
000001a0: 8fff e63c 4dc5 063d d97b 15bc 8c7c c0bd
000001b0: 3552 5bbe 6d03 4dbd 53cc 9dbe 7b77 57bd
000001c0: b977 25bb d87b 0bbd 2631 a9bd aaf8 003f
000001d0: ed68 2dbc 956c 1ebc 1800 97bd eaa3 b4bf
000001e0: 3b0f 2fbd c10a 87bd 5ca0 6ebe d663 78bd
000001f0: 2691 febc 64d9 37be 1078 d4be 7466 e43c
00000200: 772a 923e 87d9 793d c927 5dbe 65db 223a
00000210: 1987 22bd 20db 15bf 91a3 093d 3ee1 c63e
00000220: ca7d 533d 7e1d 913e beef d0bb 8dd3 fc3c
00000230: 486b a3bd b39f 503d 246d fcbd 1783 1a3f
00000240: 271b 7b3e 6350 6d3e 1413 34be 3ec8 2bbc
00000250: ffa6 cd3d 4852 2dbd 85db 2bbe c248 e3be
00000260: 95d3 17bd 20b2 3a3e 1a3c 0cbf 626f 893d
00000270: 8312 1ebe f88f dd3c 22e3 44be 995c 843f
00000280: 79bb 9bbf e1c3 cabe 197c a53c 001a ce3d
00000290: 72a2 c5be 5a89 1bbe d99c 02bf ccb7 b8be
000002a0: 28c4 653e 59fa 9d3d 4ae4 a2bd 6863 d6bc
000002b0: 9f82 fcbe a1df b73d a26f afbe ac87 2abe
000002c0: 0c2f 12bf 4569 17be 5813 013e 00fc bbbe
000002d0: 829c 6f3d c9cb da3c d8c6 90bd e2e3 74bf
000002e0: d361 683c a7ce ad3e c58e bc3e 9c65 ea3d
000002f0: ca4d 5abf 2eb2 0abf e1b6 66bf bb07 0bbd
00000300: 4de0 8fbd 3dce 933e 1e93 3dbe b250 acbe
00000310: 0aff ddbd 406e 3cbd 9249 cebe f1c4 07be
00000320: dde9 2d3e a23e 23be 5bb8 883d ed73 0abe
00000330: 9618 223d 5f43 e6bd 93a9 60be 31fb c6bd
00000340: 2af2 5cbd 9334 193d 8310 29be 593e b23e
00000350: 9b2c abbe 0697 713e da59 bcbe 111a bebd
00000360: 6b14 fcbd 6cb1 babd c174 63bd f206 ccbd
00000370: 5b63 5e3e 1f33 8ebe b13b 91be 4da9 7dbc
00000380: 696d 82bd 29a7 b6be c9fa ddbd 5387 7c3d
00000390: 367f 353d 29f9 f8bd 3098 ed3d 933b f73d
000003a0: 0899 10be f939 00be 3688 2e3c fedc 55be
000003b0: e556 38be 8506 c83d 8768 703b 1d8e c9bd
000003c0: f56c 84bd 49c3 0cbe d100 2bbe 029b eabe
000003d0: 78be 54be 377f 81be 013b 0d3e 8c70 88bc
000003e0: 1825 093d 5366 303e c43e 61be c0be 80bb
000003f0: 91c4 583c 0a48 8dbd 779a 083e 3cf7 6d3d

w_r.2.bias f4 [32]
-0.6042573 0.043859996 0.04078752 -0.0674163 0.42100623 -0.2747905 0.034016263 -0.08591684
-0.048980415 -0.12422395 0.7128755 -0.56668013 -0.3011517 -0.6412742 -0.12095232 -0.84917253
-0.178255 -0.16855246 0.37488276 0.31203017 -0.13869148 -0.43064263 -0.069012456 -0.36510694
-0.16357139 0.73911864 -0.15230787 -0.08465777 0.34213284 0.31200993 0.056125455 0.20961557
00000000: 9bb0 1abf 8aa6 333d d110 273d 8f11 8abd
00000010: 218e d73e 57b1 8cbe a354 0b3d 2bf5 afbd
00000020: b09f 48bd 2069 febd 027f 363f f311 11bf
00000030: 8e30 9abe 8c2a 24bf dab5 f7bd 5f63 59bf
00000040: 7b88 36be 0499 2cbe a2f0 bf3e 6bc2 9f3e
00000050: 2405 0ebe 317d dcbe 6756 8dbd 4cef babe
00000060: 427f 27be e136 3d3f 98f6 1bbe 0e61 adbd
00000070: 092c af3e c4bf 9f3e cee3 653d 77a5 563e

w_h.0.weight f4 [64, 5]
0.10577973 -0.21501596 -0.7465926 -0.9633144 -0.35151148 0.120951444 0.26134935 -0.8888633
1.5815636 -0.039132066 0.08503823 -0.6463084 -0.7743849 -0.7448116 -0.46435377 -0.072890066
0.10349779 -0.61124 -0.15201941 1.6453927 -0.30978063 -0.23323 1.031622 1.5745046
-1.850178 0.023129905 -0.24693587 -0.010556022 0.013794085 0.5628976 -0.52005875 0.14556064
-1.5134708 -0.07308129 -1.4489007 -0.24176104 0.05128167 -0.7855852 -0.9597971 -0.99837476
-0.12979078 0.10254058 0.13599578 -0.43695155 0.08225296 0.001180223 -0.0088919215 0.046553124
0.027830688 -0.19257267 0.47589368 -0.23632263 0.56342775 -0.22575307 -1.6528101 -0.21448337
0.008724333 -0.8516964 -0.4352797 -0.14455876 0.0015148665 0.0060937605 0.12000609 0.24963316
0.29076907 -0.01118942 -0.017830078 0.2027689 -0.04664148 -1.7185026 -0.2906379 -0.25440732
-0.6963234 -0.1381807 -3.797028 -0.0133709395 0.009368835 0.05094989 -0.27041882 0.08407083
-0.256838 0.31498024 -0.1436824 0.96988046 -0.53360146 -0.1352101 -0.2431725 -1.320884
-0.82974434 0.24205479 0.02065325 0.14174397 0.06598277 1.8904864 0.5660952 -0.29247987
-0.13823043 0.77526903 -1.3935827 -0.73751307 -0.47820595 0.44755068 -1.0791903 0.34521654
-1.078622 -0.10703974 -0.20155786 0.3187604 0.10936429 -1.619915 0.6160139 0.30627868
-0.4628934 0.60653985 -0.5678372 -0.3216388 -0.319472 1.2656581 -0.61033475 0.5308817
0.09307209 -0.08801552 1.2848455 -0.2300594 -0.623869 -0.0009441552 -0.0074657924 -0.27856332
0.04742225 -0.8445236 0.00022509057 0.00017950997 0.053602263 -0.008207781 -0.34944013 -0.45083576
-0.34637672 -0.71371335 -1.0249273 -0.79737276 -0.3201147 0.3937913 -0.9361264 -0.5650515
-1.5837533 -0.053835925 -0.6349579 0.6233043 -0.31198105 -1.0922033 -0.061422125 0.090809464
-0.60703915 -1.1237338 -0.21814618 0.120938145 -0.17587985 0.4596135 -1.1901442 0.64121455
0.1647431 -0.3730607 0.79044837 -1.4380699 0.15732178 0.2984614 0.14276701 1.6798311
1.0667366 0.6697202 -0.69616485 0.13089314 0.7670929 -0.97283185 -0.54565656 -0.61642635
-0.09400333 0.069954135 0.7300615 0.27671802 -0.3754114 -0.55515623 -1.1799147 -0.23746964
0.3939393 -0.56767875 -0.31971237 -0.021835808 -0.34876034 0.3328786 0.33833104 -0.14903995
-0.15202278 0.7694216 1.1546893 -0.07544581 0.028326008 -1.0648087 0.7353712 -0.7802177
0.05776548 -0.34221104 0.5699228 0.83725226 -0.20861435 0.4634635 0.40258896 1.4486896
0.75628185 -0.5226654 -0.0071339705 -0.032027237 -0.45041063 0.21521123 -1.573448 0.15441237
0.04574366 1.0140195 1.4672465 -1.1675152 0.51010346 -0.034006245 0.4952256 -0.14828682
-1.0588622 0.28178704 0.27099323 0.4703026 -1.4404593 -2.428138 -0.123850726 0.5236331
0.73582894 0.14233072 -0.56212944 -0.055325665 0.07418914 0.6089525 1.5806978 -0.23712918
-0.36756194 -0.08242121 -0.42401627 0.665376 -1.5696265 -0.0018885342 0.0081584165 -0.11362035
-0.061042063 -0.11111072 0.23755854 0.33153382 0.14877866 -1.018081 -1.6164808 0.40128085
00000000: 0ba3 d83d 252d 5cbe b120 3fbf c69b 76bf
00000010: 50f9 b3be 64b5 f73d 95cf 853e 8c8c 63bf
00000020: ad70 ca3f f248 20bd 8628 ae3d 7874 25bf
00000030: 173e 46bf f9ab 3ebf c7bf edbe 6347 95bd
00000040: a6f6 d33d 3a7a 1cbf faaa 1bbe 3a9c d23f
00000050: 919b 9ebe d8d3 6ebe 310c 843f 5e89 c93f
00000060: a2d2 ecbf ed7a bd3c c2dc 7cbe 2af3 2cbc
00000070: 9600 623c 0f1a 103f 9222 05bf d90d 153e
00000080: 69b9 c1bf a5ab 95bd 9475 b9bf 3590 77be
00000090: ba0c 523d 1d1c 49bf 43b5 75bf 7d95 7fbf
000000a0: e0e7 04be cc00 d23d 7a42 0b3e 1db8 dfbe
000000b0: 3d74 a83d b6b1 9a3a 6caf 11bc 7dae 3e3d
000000c0: 2ffd e33c c531 45be 56a8 f33e 8ffe 71be
000000d0: cd3c 103f d02b 67be 488f d3bf 87a1 5bbe
000000e0: 81f0 0e3c c608 5abf fbdc debe 3607 14be
000000f0: 7c8e c63a 2bae c73b c1c5 f53d d69f 7f3e
00000100: afdf 943e d453 37bc 6210 92bc a7a2 4f3e
00000110: 230b 3fbd e5f7 dbbf 7ece 94be ad41 82be
00000120: 4042 32bf 3e7f 0dbe 8202 73c0 c911 5bbc
00000130: be7f 193c d5b0 503d 5674 8abe 542d ac3d
00000140: 4580 83be 1745 a13e 7b21 13be 164a 783f
00000150: 1b9a 08bf 8474 0abe 3602 79be ba12 a9bf
00000160: 206a 54bf 36dd 773e 0131 a93c 5525 113e
00000170: f921 873d 75fb f13f 9deb 103f ecbf 95be
00000180: 478c 0dbe 0878 463f eb60 b2bf a8cd 3cbf
00000190: 69d7 f4be 5d25 e53e e822 8abf 39c0 b03e
000001a0: 4910 8abf a737 dbbd 2f65 4ebe 9034 a33e
000001b0: 63fa df3d 6059 cfbf 16b3 1d3f 8fd0 9c3e
000001c0: 5d00 edbe 3246 1b3f c75d 11bf d7ad a4be
000001d0: d591 a3be 1601 a23f e63e 1cbf dde7 073f
000001e0: 949c be3d 7b41 b4bd d175 a43f b194 6bbe
000001f0: e1b5 1fbf 2f81 77ba 9ba3 f4bb da9f 8ebe
00000200: d53d 423d b332 58bf 4a06 6c39 d73a 3c39
00000210: 0c8e 5b3d ee79 06bc d1e9 b2be f2d3 e6be
00000220: 4a58 b1be ebb5 36bf d130 83bf 9f20 4cbf
00000230: 13e6 a3be 039f c93e fba5 6fbf 37a7 10bf
00000240: 6eb8 cabf 0f83 5cbd 9a8c 22bf df90 1f3f
00000250: fbbb 9fbe 51cd 8bbf c495 7bbd 50fa b93d
00000260: eb66 1bbf 82d6 8fbf b661 5fbe 6bae f73d
00000270: d919 34be 7652 eb3e a556 98bf a326 243f
00000280: 6ab2 283e d001 bfbe d35a 4a3f ad12 b8bf
00000290: f618 213e efcf 983e 8431 123e b504 d73f
000002a0: d38a 883f c872 2b3f dc37 32bf da08 063e
000002b0: 3360 443f 820b 79bf 26b0 0bbf 1ece 1dbf
000002c0: d184 c0bd 1d44 8f3d 4fe5 3a3f fcad 8d3e
000002d0: ec35 c0be b81e 0ebf 7207 97bf 3e2b 73be
000002e0: 69b2 c93e 6553 11bf 57b1 a3be 02e1 b2bc
000002f0: b790 b2be 106f aa3e ba39 ad3e ee9d 18be
00000300: dcab 1bbe d0f8 443f dccc 933f 5583 9abd
00000310: f20b e83c a74b 88bf 4941 3c3f 59bc 47bf
00000320: 7f9b 6c3d 4936 afbe 76e6 113f 2a56 563f
00000330: 009f 55be 164b ed3e 2420 ce3e a96e b93f
00000340: b09b 413f 66cd 05bf 15c4 e9bb fe2e 03bd
00000350: 399c e6be 5560 5c3e be66 c9bf 471e 1e3e
00000360: b45d 3b3d 64cb 813f bcce bb3f 2371 95bf
00000370: 2496 023f 224a 0bbd 368e fd3e 80d8 17be
00000380: cc88 87bf 6446 903e a0bf 8a3e 81cb f03e
00000390: f860 b8bf 9d66 1bc0 73a5 fdbd d20c 063f
000003a0: 495f 3c3f 25bf 113e b7e7 0fbf 2a9d 62bd
000003b0: 7af0 973d 50e4 1b3f 4e54 ca3f fed1 72be
000003c0: 1431 bcbe 74cc a8bd a918 d9be 1556 2a3f
000003d0: 85e9 c8bf b188 f7ba e1aa 053c c9b1 e8bd
000003e0: 3e07 7abd 048e e3bd 8c42 733e cdbe a93e
000003f0: 6f59 183e 7a50 82bf d8e8 cebf af74 cd3e

w_h.0.bias f4 [64]
-0.3626752 -1.5458671 -1.3227824 -0.92691976 -1.4930911 0.048563413 -0.40329343 -0.61858255
0.033696987 -0.22508474 -0.012638224 -0.20188913 -0.5906402 0.16607924 0.03253707 -0.43339786
-0.31324387 -0.9050293 -0.8321148 -0.938874 -1.4103547 0.63620657 -1.3216474 -0.88131547
-0.14732343 -0.04808415 0.048159048 -0.36401588 -1.3864948 -0.3694146 -0.30497542 0.22017609
-0.77088356 -0.8956704 -0.6100969 -1.4682066 -0.92060727 -2.0611749 -1.1295933 -0.03685865
-0.4838033 -1.7985095 -0.18647383 0.07374211 0.4460144 -0.9699152 -1.1651183 -0.6652059
0.010954729 -0.1881659 -0.7733663 -0.82813483 -0.90661514 -1.1465775 -0.2207468 -0.60456383
0.6449258 -0.7854532 -1.339137 0.4115354 -0.5007311 0.39822608 -0.26856115 -0.79370016
00000000: 90b0 b9be f9de c5bf ef50 a9bf 9d4a 6dbf
00000010: 9c1d bfbf 6eea 463d 7a7c cebe 6d5b 1ebf
00000020: da05 0a3d 9d7c 66be 8e10 4fbc 06bc 4ebe
00000030: 3234 17bf ad10 2a3e 9745 053d 53e6 ddbe
00000040: 8061 a0be 00b0 67bf 7a05 55bf 0c5a 70bf
00000050: 8186 b4bf 6fde 223f be2b a9bf e49d 61bf
00000060: f4db 16be e3f3 44bd 6c42 453d 4a60 babe
00000070: a978 b1bf e923 bdbe bd25 9cbe d775 613e
00000080: a058 45bf a84a 65bf 4f2f 1cbf 32ee bbbf
00000090: ebac 6bbf 4aea 03c0 8396 90bf 19f9 16bd
000000a0: 11b5 f7be 8f35 e6bf fff2 3ebe 1a06 973d
000000b0: 005c e43e 5d4c 78bf 9922 95bf ef4a 2abf
000000c0: 777b 333c 90ae 40be 55fb 45bf a500 54bf
000000d0: ee17 68bf 0dc3 92bf 730b 62be b2c4 1abf
000000e0: db19 253f 7613 49bf d768 abbf c5b4 d23e
000000f0: ea2f 00bf 4ae4 cb3e d980 89be ef2f 4bbf

w_h.2.weight f4 [32, 64]
0.12782508 0.015576132 -0.8000169 0.076074034 -0.1990443 0.17974624 0.7875561 0.7114717
-0.2567128 -0.04045123 0.94750917 0.38921395 -0.05004206 0.64456123 1.2059209 -0.058960672
0.21828264 -0.5288424 -0.19981991 -0.122315906 0.74429184 -0.09053067 0.17689003 0.041709285
-0.5394107 0.04023127 0.06314104 0.18679303 0.17024341 0.52890515 -0.0009043811 -0.00013807148
0.78188217 0.29919 0.010941636 -0.22590378 0.55840176 -1.3601834 0.15426691 -0.028325444
0.19070746 0.39110014 -0.19843872 0.34124467 0.46037826 -0.03777642 0.19255418 0.034386415
0.40951756 0.08459462 0.033170223 0.7430515 0.09625036 0.27976713 0.18756638 0.03503755
0.3071493 -0.40073147 -0.37976134 -0.32658017 0.101189025 0.27007186 0.11825317 0.2192509
0.58634573 -1.1824747 0.38530704 -0.89441013 0.26064584 0.6470314 0.2248822 0.10128321
-0.24002175 0.055717044 0.14518994 -0.5511775 -0.48910207 -0.1606306 -2.885343 -0.0039502257
-0.1686555 -0.43106973 0.5328053 0.86348945 1.4773425 -0.08223206 -0.50143397 0.32509947
0.10078357 -0.15778385 -0.023596238 -0.29324707 -0.08014139 -0.21011144 -0.83641076 -0.42398736
-0.85614693 0.33466345 -0.6708999 0.370449 1.1451443 -1.0117621 0.255875 0.85909545
-0.41438684 0.67458016 0.6187784 0.8961691 -0.734885 -0.3062486 -2.5567315 0.036995545
0.3086702 0.13701585 -1.8323557 0.98908186 -0.65611166 -0.13344298 0.112884164 -2.2506368
0.08240611 -0.06290909 -0.28197312 -0.3010866 -0.05487896 -0.48362273 0.6493664 -0.115171745
-3.5122144 1.188833 0.40987033 0.36984557 -0.4150605 -0.25525925 0.42613775 -1.0454032
-0.18276961 0.066781044 -0.19656835 -0.69600123 -0.1681582 -0.070112854 -1.7643026 0.048026882
0.08032551 -3.3469815 -0.032308266 0.4145247 -1.3145437 0.12520392 -1.8841555 0.27514625
0.10280407 0.37653327 0.13629627 0.4758951 0.31503367 0.17020597 -0.13481225 -0.20067117
-0.6348802 1.2529931 -0.26986614 0.5052879 -0.31307563 -0.522676 0.063941576 -0.01062819
-0.0067436276 -0.05714441 0.011762753 1.1872133 -0.109575644 -2.2864327 -0.41743675 -0.7754659
-0.11141969 -0.13596737 -3.222362 -0.51485145 -0.0814048 -4.4085855 0.029233878 1.0092072
0.73615 -0.25628713 -1.2909377 -0.63442403 0.023122456 -0.07346303 -1.0479667 0.7308513
-0.2549622 0.123378254 -0.5634747 0.18575266 1.1184088 -0.062602505 0.08388614 0.7817511
0.13991849 0.062663 -0.2530501 0.74115187 0.023924127 -0.24364047 -0.6399821 0.010942074
0.5651979 -0.7732368 0.35561043 0.19256605 0.069219746 -0.33742562 0.6983741 0.54940146
0.598049 0.14222327 0.036260884 -0.3621776 0.3103794 -0.80617255 0.7159349 -0.07838213
1.0610851 0.522712 0.31946626 -0.62044907 -1.2888957 -1.2427038 0.33269393 0.9893187
-0.7530399 0.74360776 0.63472277 0.4350961 -0.5045677 -1.2267504 -0.32767576 0.36513284
-0.2514015 -0.16098207 -0.15155835 -1.0477774 -0.5532398 0.8289147 0.19412823 -0.13947508
-0.11207996 -0.66445726 -0.28178322 0.18191987 -0.46601963 0.27655697 0.003947522 0.24920844
00000000: 94e4 023e 0833 7f3c e8cd 4cbf b4cc 9b3d
00000010: 45d2 4bbe 660f 383e 479d 493f 0223 363f
00000020: dc6f 83be 30b0 25bd f68f 723f 0d47 c73e
00000030: e7f8 4cbd f701 253f 9e5b 9a3f bf80 71bd
00000040: 7c85 5f3e 3762 07bf 979d 4cbe c380 fabd
00000050: e989 3e3f 2568 b9bd a922 353e 5bd7 2a3d
00000060: d216 0abf 8bc9 243d 1750 813d ac46 3f3e
00000070: 4a54 2e3e 5466 073f fd13 6dba 48c7 10b9
00000080: 6e29 483f 6f2f 993e 8c44 333c 5253 67be
00000090: 6bf3 0e3f 7d1a aebf 25f8 1d3e c30a e8bc
000000a0: d148 433e 473e c83e 8533 4bbe 9fb7 ae3e
000000b0: b3b6 eb3e 73bb 1abd ec2c 453e c5d8 0c3d
000000c0: 49ac d13e f23f ad3d 80dd 073d a038 3e3f
000000d0: e91e c53d a33d 8f3e 6711 403e 8983 0f3d
000000e0: ac42 9d3e ad2c cdbe 1470 c2be 8435 a7be
000000f0: 313c cf3d dc46 8a3e b82e f23d 4f83 603e
00000100: c11a 163f 555b 97bf f746 c53e 10f8 64bf
00000110: 5f73 853e daa3 253f 8547 663e 926d cf3d
00000120: 43c8 75be 8e37 643d acac 143e f819 0dbf
00000130: 966b fabe 597c 24be 76a9 38c0 e570 81bb
00000140: 07b4 2cbe 2cb5 dcbe ee65 083f a50d 5d3f
00000150: 8f19 bd3f 4869 a8bd fa5d 00bf 7073 a63e
00000160: 9e67 ce3d 1792 21be e64c c1bc 7b24 96be
00000170: 2b21 a4bd 7427 57be 041f 56bf df14 d9be
00000180: 722c 5bbf 0259 ab3e 19c0 2bbf 7eab bd3e
00000190: 1794 923f 6c81 81bf 0c02 833e aeed 5b3f
000001a0: 832a d4be 49b1 2c3f 4368 1e3f 576b 653f
000001b0: 6c21 3cbf 9ecc 9cbe 7da1 23c0 a488 173d
000001c0: 050a 9e3e e24d 0c3e a28a eabf 7834 7d3f
000001d0: eff6 27bf 47a5 08be d02f e73d 6f0a 10c0
000001e0: 89c4 a83d 7bd6 80bd c85e 90be 0628 9abe
000001f0: c3c8 60bd 669d f7be e03c 263f 2adf ebbd
00000200: 1fc8 60c0 ae2b 983f 86da d13e 665c bd3e
00000210: cf82 d4be 57b1 82be ba2e da3e c6cf 85bf
00000220: f527 3bbe 80c4 883d 3749 49be 232d 32bf
00000230: aa31 2cbe 5497 8fbd abd4 e1bf d6b7 443d
00000240: b381 a43d f234 56c0 ac55 04bd 953c d43e
00000250: f842 a8bf 7535 003e 022c f1bf f8df 8c3e
00000260: f18a d23d f8c8 c03e 4091 0b3e 86a8 f33e
00000270: 184c a13e 794a 2e3e 390c 0abe be7c 4dbe
00000280: 8287 22bf 1462 a03f e52b 8abe 8c5a 013f
00000290: 734b a0be 18ce 05bf cdf3 823d dc21 2ebc
000002a0: a6f9 dcbb 4210 6abd 90b8 403c 9bf6 973f
000002b0: 3269 e0bd ea54 12c0 45ba d5be ef84 46bf
000002c0: 0230 e4bd 083b 0bbe 2e3b 4ec0 4ecd 03bf
000002d0: 8fb7 a6bd 2213 8dc0 e37b ef3c b42d 813f
000002e0: 5474 3c3f 1138 83be 723d a5bf 9d69 22bf
000002f0: 4e6b bd3c c973 96bd c623 86bf 1219 3b3f
00000300: 688a 82be bdad fc3d e13f 10bf f235 3e3e
00000310: 0528 8f3f be35 80bd 7fcc ab3d d720 483f
00000320: cb46 0f3e 7555 803d c88f 81be 21bc 3d3f
00000330: 88fc c33c e37c 79be ded5 23bf 6246 333c
00000340: cfb0 103f d9f2 45bf 9212 b63e 0930 453e
00000350: 15c3 8d3d 0dc3 acbe a5c8 323f 93a5 0c3f
00000360: bd19 193f faa2 113e 4b86 143d 586f b9be
00000370: 0cea 9e3e 5361 4ebf 8247 373f cf86 a0bd
00000380: a3d1 873f 74d0 053f 1591 a33e c0d5 1ebf
00000390: 89fa a4bf eb10 9fbf dc56 aa3e fe43 7d3f
000003a0: 39c7 40bf 145d 3e3f 317d 223f ebc4 de3e
000003b0: 592b 01bf 2806 9dbf 1ec5 a7be b1f2 ba3e
000003c0: b3b7 80be 7cd8 24be 1d32 1bbe 921d 86bf
000003d0: 20a1 0dbf c133 543f 8dc9 463e 8ed2 0ebe
000003e0: 2e8a e5bd df19 2abf e445 90be 3449 3a3e
000003f0: 209a eebe e098 8d3e 375a 813b 7f30 7f3e

w_h.2.bias f4 [32]
-0.60145223 0.26772368 -0.08599601 -0.06693984 -0.06186389 -2.2850056 -0.014472771 -0.11319503
-0.3870874 -0.15395062 0.25177568 0.004900613 0.36858836 0.32867318 -0.09214618 -0.16575585
-0.19741003 -0.11838883 -0.31572303 -0.02123773 -0.2167765 -0.22315788 -0.06902374 -0.06695407
-0.059823714 0.43721116 0.2527738 0.33113155 0.16853236 -0.18383336 0.57072663 0.52757895
00000000: c6f8 19bf 1413 893e ad1e b0bd c117 89bd
00000010: fe64 7dbd 883d 12c0 341f 6dbc ccd2 e7bd
00000020: 5230 c6be 3ba5 1dbe bee8 803e 5295 a03b
00000030: 9db7 bc3e da47 a83e 23b7 bcbd e7bb 29be
00000040: db25 4abe d875 f2bd 73a6 a1be bffa adbc
00000050: a9fa 5dbe 8083 64be 525c 8dbd 371f 89bd
00000060: b609 75bd 24da df3e 916b 813e 138a a93e
00000070: bf93 2c3e d03e 3cbe 241b 123f 6a0f 073f

Ws.0 f4 [32, 32]
-1.3455075 0.2825205 -0.53638226 -0.3737208 0.7959274 0.29795325 -0.8349298 1.4707117
0.1613358 1.0703115 -0.8708589 -0.38155758 0.097949296 -0.16476925 -0.014131307 0.37740943
-0.098582216 -0.09412113 -0.46724176 0.9218242 -0.037075654 0.24610624 -1.2762706 0.034146745
-0.45574853 -0.07250637 0.6277678 0.71538264 0.48934883 -2.015781 -0.8199508 0.48201546
-1.5770981 0.27091196 0.0042875623 0.2598258 -0.13157532 0.76305723 -0.25614837 -0.031094173
-1.3128363 -0.46142498 0.13627961 0.46700338 -0.38376966 -2.2080216 0.3374329 -4.707417
-0.8395316 2.169708 -1.0909367 -0.4837108 -0.5634902 -1.5446187 0.569524 0.047296897
0.17565517 0.2136692 1.1874317 -1.8937789 -0.39931616 -1.7839382 0.9164127 -1.1333909
0.11530402 -1.5268688 -0.9358916 0.9464001 -1.4849671 0.8006403 -2.589969 -0.7881051
-1.7074933 -0.032687288 1.95631 -0.3494926 0.386153 -2.575659 -0.3345339 -0.33399022
2.8135617 -0.84010607 -0.07542304 -1.4730225 1.256988 -0.23179922 -0.36252683 -0.069238976
0.44715512 -1.2827374 -2.3847032 -0.020206762 -0.9125667 0.6672389 -0.10709646 0.6754224
-0.69327986 -1.0202345 0.28894794 -3.023141 -0.71171886 1.2169731 1.3407687 0.20794497
0.79443526 1.0628558 0.039841413 0.030193778 0.7798516 0.15653259 0.0668932 0.67472
-0.999609 0.47774503 0.73575586 1.497369 0.6036953 0.30896354 0.5609036 -0.8557549
1.2503909 0.08734045 1.0333607 -1.6427293 0.0124574555 -1.1983732 1.7009493 -0.30125055
0.87868065 0.113763005 -0.37585986 -1.4446912 -1.3337579 0.6249295 0.25881857 -0.46645755
-0.67885154 -0.61778075 1.4398216 -0.33286616 -0.18192537 -0.4370128 0.19456576 0.83508235
0.17163846 -0.20174114 -1.308267 -0.6592139 -0.8925695 -0.5313226 0.45679072 0.49597964
0.60029763 -0.9703027 -0.9420633 -1.603262 -0.33010507 0.81783146 1.096327 -1.3097471
-0.58245295 -0.29530093 0.104790576 1.3389767 -1.1415175 -0.59318626 0.20421757 1.0631411
0.4490766 -0.13565913 0.11175324 -3.4735625 -1.2264618 -0.16209707 0.18349753 0.73255444
0.44794253 -2.346355 0.09926538 -0.043535203 -0.1811817 -4.037021 -0.7905768 -0.039680548
0.5444942 -4.1361475 -0.3359934 -0.70869434 -3.6221962 -2.9962616 0.46476898 -1.6738324
-0.97678185 -0.30148882 1.1858053 0.759026 -2.3474877 -0.5047952 1.5131191 0.3946412
1.7725072 -1.395004 -2.9759862 -1.5879225 1.2890127 1.1029091 0.87942433 -0.9349084
-0.6617187 0.20401016 -4.396792 -0.024974493 -0.7734575 -0.8372918 -0.2826548 0.08612634
1.2661495 -2.7901149 1.0926752 -1.2118797 1.7548366 0.7775773 -1.7285657 -0.7362786
2.0706437 0.34812307 -0.7894424 -0.44969583 -0.005498111 2.0578258 -0.997544 0.1441233
0.8237507 -0.12584771 -0.042883888 -0.49324527 -0.7500951 -1.6670599 1.6984531 -1.1409044
0.2380815 0.4969523 0.39484397 -0.3257166 -0.099660225 0.27731806 -0.965596 0.31399706
-0.38510677 0.9554517 1.6563952 -1.0068073 -0.2336416 1.1267277 0.5017433 1.9792411
00000000: 9739 acbf 87a6 903e 5950 09bf 5558 bfbe
00000010: e6c1 4b3f 548d 983e f6bd 55bf 4840 bc3f
00000020: 3635 253e f8ff 883f 9cf0 5ebf 845b c3be
00000030: a499 c83d 45b9 28be ff86 67bc cf3b c13e
00000040: 79e5 c9bd 94c2 c0bd 503a efbe acfc 6b3f
00000050: a4dc 17bd 4603 7c3e d65c a3bf 75dd 0b3d
00000060: df57 e9be 387e 94bd 64b5 203f 5123 373f
00000070: ee8b fa3e 8e02 01c0 4ce8 51bf bbca f63e
00000080: 5ade c9bf f9b4 8a3e ae7e 8c3b e307 853e
00000090: aebb 06be b857 433f e125 83be 35b9 febc
000000a0: 050b a8bf e53f ecbe e28c 0b3e 111b ef3e
000000b0: 757d c4be 3a50 0dc0 01c4 ac3e 29a3 96c0
000000c0: 8beb 56bf 7fdc 0a40 d0a3 8bbf f1a8 f7be
000000d0: e540 10bf 11b6 c5bf 53cc 113f 64ba 413d
000000e0: f3de 333e 19cc 5a3e c3fd 973f 5967 f2bf
000000f0: 2b73 ccbe 1658 e4bf 069a 6a3f f412 91bf
00000100: 8424 ec3d 7070 c3bf 9896 6fbf 4747 723f
00000110: 6713 bebf c3f6 4c3f 0dc2 25c0 41c1 49bf
00000120: 248f dabf 1be3 05bd 5e68 fa3f b2f0 b2be
00000130: d9b5 c53e 99d7 24c0 0748 abbe c400 abbe
00000140: 6511 3440 3111 57bf 6577 9abd 008c bcbf
00000150: fce4 a03f c65c 6dbe 1e9d b9be 2acd 8dbd
00000160: 84f1 e43e bd30 a4bf fa9e 18c0 a788 a5bc
00000170: f99d 69bf 2bd0 2a3f 6455 dbbd 7be8 2c3f
00000180: ca7a 31bf 0b97 82bf fcf0 933e 247b 41c0
00000190: 3533 36bf c6c5 9b3f 4f9e ab3f 87ef 543e
000001a0: 1c60 4b3f a90b 883f c030 233d f158 f73c
000001b0: 5ba4 473f 144a 203e 4dff 883d 73ba 2c3f
000001c0: 60e6 7fbf ff9a f43e 7f5a 3c3f caa9 bf3f
000001d0: c68b 1a3f 7830 9e3e 6197 0f3f c112 5bbf
000001e0: cf0c a03f 8ddf b23d 2a45 843f f444 d2bf
000001f0: 5b1a 4c3c 4b64 99bf b5b8 d93f 833d 9abe
00000200: 37f1 603f 94fc e83d b470 c0be a4eb b8bf
00000210: 94b8 aabf 61fb 1f3f de83 843e 86d3 eebe
00000220: 37c9 2dbf e126 1ebf 134c b83f 6f6d aabe
00000230: a54a 3abe 24c0 dfbe 3f3c 473e f5c7 553f
00000240: fec1 2f3e 3b95 4ebe 4b75 a7bf 3ec2 28bf
00000250: 6f7f 64bf c204 08bf 79e0 e93e 0bf1 fd3e
00000260: 1bad 193f c265 78bf 0f2b 71bf b037 cdbf
00000270: 8803 a9be 675d 513f 7154 8c3f cba5 a7bf
00000280: a31b 15bf af31 97be 719c d63d 9763 ab3f
00000290: 3f1d 92bf 0edb 17bf 691e 513e 0215 883f
000002a0: 5eed e53e 3aea 0abe e2de e43d d94e 5ec0
000002b0: b3fc 9cbf c6fc 25be c7e6 3b3e b088 3b3f
000002c0: b958 e53e ae2a 16c0 a64b cb3d f851 32bd
000002d0: b287 39be 472f 81c0 3e63 4abf 1288 22bd
000002e0: f963 0b3f 525b 84c0 5407 acbe fe6c 35bf
000002f0: 10d2 67c0 c0c2 3fc0 33f6 ed3e 2440 d6bf
00000300: 600e 7abf be5c 9abe 78c8 973f 874f 423f
00000310: 3d3d 16c0 423a 01bf e3ad c13f 690e ca3e
00000320: 84e1 e23f 7e8f b2bf 8f76 3ec0 0b41 cbbf
00000330: 5efe a43f 202c 8d3f f421 613f 2856 6fbf
00000340: 6666 29bf 0ae8 503e 85b2 8cc0 4f97 ccbc
00000350: 5001 46bf c158 56bf 21b8 90be 0263 b03d
00000360: 3011 a23f 3e91 32c0 c8dc 8b3f e01e 9bbf
00000370: 7c9e e03f 4e0f 473f a441 ddbf c17c 3cbf
00000380: 6d85 0440 303d b23e e618 4abf 883e e6be
00000390: 7f29 b4bb 6bb3 0340 0b5f 7fbf 0f95 133e
000003a0: 53e1 523f 39de 00be 04a7 2fbd a58a fcbe
000003b0: 3c06 40bf 3862 d5bf e966 d93f 2809 92bf
000003c0: a3cb 733e 8870 fe3e fd28 ca3e 54c4 a6be
000003d0: a91a ccbd a2fc 8d3e 4d31 77bf 39c4 a03e
000003e0: b72c c5be 7c98 743f c204 d43f 10df 80bf
000003f0: be3f 6fbe 9d38 903f 4072 003f c657 fd3f

Ws.1 f4 [32, 32]
-2.2425418 -0.35549217 -1.7340585 0.7653415 0.65169847 2.2187219 0.9300821 1.1743015
0.12315057 -0.23318759 0.47072828 -0.36615077 1.6122277 -0.37579495 -1.1662643 -0.52138186
2.844033 -0.9174037 -2.9393961 -2.5332353 -1.2985226 -0.094322704 0.56241506 -0.2828432
-0.06292482 2.2724152 -4.0338573 -0.4108176 -0.1462824 -0.007925884 -0.21914509 0.10454448
0.67105836 -0.3345801 -1.6482496 1.8707067 0.067178935 -3.1971056 -0.59744006 0.9147134
-0.09117093 -0.43793854 1.2622739 -0.1693598 0.026882617 0.9180801 1.8606766 -0.05795797
-0.65896064 0.83288527 -0.5379579 -2.87823 0.5827153 -0.5959959 0.78952336 -1.9011655
-0.46462253 -0.9657523 0.013449223 1.0637128 -0.34273884 0.4740189 0.61656624 -1.5269419
0.81584835 -0.9775433 -1.0014272 -0.28421554 -1.769723 0.07063053 -2.2792432 -2.1191921
0.5503093 -0.06537819 1.1296393 -0.117983945 0.6059402 -0.38544565 1.9986362 -0.23635046
-0.08053902 -0.19624501 -0.8346835 -0.14705364 -0.15500905 -1.8268244 -0.5888372 -3.007993
1.243317 -2.3323975 -0.39485344 0.29147875 1.1519059 -1.2421291 -2.0153074 -0.40999725
-0.69559187 0.9505108 -0.3416456 -1.5310739 -0.60618967 -1.0440755 -0.16087653 -0.56789833
-0.35534948 -0.53836876 -1.0315812 -1.3688803 0.1578096 0.66644746 -0.7141187 -0.30994534
-0.47192436 -1.8239683 -0.6730554 -1.757513 1.0851618 -0.9837328 0.98669696 -0.8651149
-0.42244348 -0.8954464 -0.04307268 -1.0460593 0.6626793 -1.0564234 -1.1719522 -1.6125025
1.1707293 -0.09715942 -1.4864382 -0.58542156 -0.48696348 0.51829416 -0.16529942 0.16136923
-0.70709836 0.25416368 -0.19053625 0.39998132 -0.81032234 -0.08778608 -0.34235656 -0.22901383
0.45403692 2.4248104 -1.2573197 -0.029276183 1.0944576 -1.1629982 0.65501 -0.63218653
0.37330645 -1.7529931 -0.68382347 1.0743537 1.033287 0.58660334 -0.82923007 -1.1147255
-1.1921806 0.35233405 1.43081 1.1858487 0.62623936 -1.1496711 0.4622858 -1.2220033
-0.13918458 -1.4002992 0.27532756 0.6728866 -0.5190391 0.46522632 -0.049916036 -0.95248306
-0.31890085 0.19772924 1.3693784 -1.4233048 0.28717473 -1.7457838 1.0669322 -0.7615171
-0.81465447 -0.35537055 0.16545951 -1.0255694 1.7726048 -1.6193414 -0.17111285 0.05422268
0.293136 1.1533993 -0.30037987 -0.51910126 0.30498618 0.36423752 -0.095306344 -0.4961853
-1.2873342 0.9903503 1.3196775 -0.062374216 -0.30418086 -0.5601947 0.13552563 0.49336067
-0.3891103 -0.86085445 0.93380904 -0.051404182 -0.0035579316 -1.5681757 -0.021856192 -1.528883
1.169571 -1.1181508 0.028072266 -1.5129427 0.27255884 1.0658125 -0.80923593 -1.012414
-0.9558305 -0.86306804 0.85785973 -1.9463788 -0.06884896 -0.5033505 -1.1143044 -2.165887
0.4778541 -1.774666 -0.32263106 -1.2442077 -0.94560134 0.43584278 0.37914082 -0.8948435
0.38041532 0.27132088 -0.54130065 -0.22522864 0.36417142 0.48779905 -2.1668365 0.64942133
0.84644645 0.62582654 0.6147186 -0.64706457 0.16971135 -0.8663122 -0.53109175 0.88453066
00000000: ce85 0fc0 1203 b6be a1f5 ddbf 6ced 433f
00000010: b6d5 263f 8aff 0d40 dc19 6e3f 834f 963f
00000020: 5e36 fc3d bac8 6ebe 4c03 f13e 1d78 bbbe
00000030: 7a5d ce3f 3268 c0be 2648 95bf 4879 05bf
00000040: a304 3640 f8da 6abf 111f 3cc0 8720 22c0
00000050: fd35 a6bf 432c c1bd 6ffa 0f3f d3d0 90be
00000060: bade 80bd 406f 1140 5c15 81c0 af56 d2be
00000070: 0ecb 15be 91db 01bc 9267 60be 6b1b d63d
00000080: 7bca 2b3f 154e abbe d8f9 d2bf 5173 ef3f
00000090: 1c95 893d 619d 4cc0 d5f1 18bf a82a 6a3f
000000a0: d3b7 babd 7b39 e0be 3192 a13f a86c 2dbe
000000b0: ef38 dc3c 4c07 6b3f a72a ee3f 5665 6dbd
000000c0: a5b1 28bf f837 553f 9cb7 09bf ec34 38c0
000000d0: d42c 153f 3093 18bf 341e 4a3f 6459 f3bf
000000e0: 01e3 edbe 8b3b 77bf 215a 5c3c be27 883f
000000f0: 777b afbe 9bb2 f23e 49d7 1d3f d572 c3bf
00000100: 70db 503f 4740 7abf c42e 80bf b384 91be
00000110: 4986 e2bf bda6 903d 1fdf 11c0 d8a0 07c0
00000120: 12e1 0c3f 00e5 85bd 0598 903f 91a1 f1bd
00000130: e61e 1b3f 2259 c5be 50d3 ff3f db05 72be
00000140: a4f1 a4bd 74f4 48be d1ad 55bf 3b95 16be
00000150: b1ba 1ebe 62d5 e9bf 09be 16bf f582 40c0
00000160: 0325 9f3f 0046 15c0 3b2a cabe b43c 953e
00000170: a771 933f 16fe 9ebf ccfa 00c0 29eb d1be
00000180: 4f12 32bf ad54 733f 2cec aebe 3bfa c3bf
00000190: 3f2f 1bbf 44a4 85bf d1bc 24be c961 11bf
000001a0: 5ef0 b5be 89d2 09bf da0a 84bf 7837 afbf
000001b0: d798 213e 4d9c 2a3f 7cd0 36bf 28b1 9ebe
000001c0: 12a0 f1be cb77 e9bf 5c4d 2cbf 30f6 e0bf
000001d0: 95e6 8a3f ead5 7bbf 2c98 7c3f 2c78 5dbf
000001e0: 834a d8be fa3b 65bf fa6c 30bd 45e5 85bf
000001f0: 5aa5 293f e238 87bf 8802 96bf 7b66 cebf
00000200: 75da 953f 85fb c6bd 9b43 bebf 30de 15bf
00000210: 4753 f9be edae 043f 4044 29be fa3d 253e
00000220: 6604 35bf be21 823e ef1b 43be 5aca cc3e
00000230: 4971 4fbf 30c9 b3bd 5c49 afbe 9a82 6abe
00000240: 8777 e83e 1830 1b40 daef a0bf 9bd4 efbc
00000250: 3017 8c3f 20dd 94bf bcae 273f fad6 21bf
00000260: 0622 bf3e 1462 e0bf 0e0f 2fbf 6c84 893f
00000270: c042 843f a32b 163f 6c48 54bf 53af 8ebf
00000280: 6099 98bf 2165 b43e c824 b73f e4c9 973f
00000290: 3951 203f 6c28 93bf b9b0 ec3e 9b6a 9cbf
000002a0: 6786 0ebe 013d b3bf bcf7 8c3e 4c42 2c3f
000002b0: bfdf 04bf 2532 ee3e c274 4cbd eed5 73bf
000002c0: f946 a3be 8979 4a3e cb47 af3f da2e b6bf
000002d0: 9108 933e d875 dfbf 3c91 883f c9f2 42bf
000002e0: 328d 50bf 21f3 b5be 386e 293e dc45 83bf
000002f0: b7e4 e23f 9446 cfbf 3538 2fbe 9a18 5e3d
00000300: ec15 963e 97a2 933f 64cb 99be d2e3 04bf
00000310: 2627 9c3e 577d ba3e f92f c3bd 000c febe
00000320: 5ec7 a4bf 9987 7d3f 31eb a83f 1b7c 7fbd
00000330: 98bd 9bbe eb68 0fbf 3bc7 0a3e c599 fc3e
00000340: 7739 c7be f560 5cbf 1c0e 6f3f 318d 52bd
00000350: 302c 69bb fbb9 c8bf c20b b3bc 70b2 c3bf
00000360: 81b4 953f 911f 8fbf cff7 e53c 1ba8 c1bf
00000370: d58c 8b3e 8b6c 883f 162a 4fbf c896 81bf
00000380: 4fb1 74bf 07f2 5cbf b29c 5b3f f122 f9bf
00000390: af00 8dbd 94db 00bf 87a1 8ebf e59d 0ac0
000003a0: 4ba9 f43e 4128 e3bf e62f a5be 3342 9fbf
000003b0: ee12 72bf c926 df3e bf1e c23e 7714 65bf
000003c0: ccc5 c23e 92ea 8a3e ae92 0abf 56a2 66be
000003d0: ad74 ba3e ccc0 f93e 73ad 0ac0 7a40 263f
000003e0: b7b0 583f 2b36 203f 335e 1d3f 06a6 25bf
000003f0: d0c8 2d3e a3c6 5dbf a1f5 07bf 9a70 623f
