crowd_nav/RGL_our/rl_model_5.pth (torch, 143871 bytes, 33 tensors)

w_a f4 [32, 32]
-0.47641775 -0.23344885 1.1002457 -0.78066456 0.32039958 -1.0503018 0.6099382 -0.53425205
1.2735316 0.33377725 -1.1825534 0.69339615 -1.721278 -1.2823462 0.302515 -0.39026666
-0.39773595 -0.7045244 0.9166705 -0.49398214 0.7212348 0.08114712 0.5319993 -0.010574738
-1.2544025 -0.28706348 -0.18844928 -0.15535875 -0.30390552 0.90770566 -0.39375284 1.1986845
-0.17037503 0.6659604 -1.1306547 -1.5049368 1.2342488 -0.99897563 1.464365 0.22247478
0.8888331 -0.39949697 0.14704609 0.029270768 -0.071186155 -2.0137992 -0.5931056 -0.5414393
0.15578677 0.09881497 -0.722846 -0.014411809 0.660997 -0.86098075 -0.99690723 -1.5504228
0.24474001 0.55768204 -0.79904354 -0.21701212 -1.2232267 1.5796138 1.2892126 0.14419357
-0.0170388 -1.9923707 -0.56477934 0.116313696 -1.4531736 -1.6813956 -0.7846017 -0.8035379
-1.3198478 0.57495606 1.7074456 -0.96597654 -0.65696627 0.30570695 -2.2374082 0.6600072
-0.05160829 0.30698138 -1.6138314 -0.19928892 -0.5346414 -1.3545594 1.3569068 -2.9124556
-1.7010052 0.59584624 -0.6244269 1.6468569 0.61154926 0.40182602 -0.07085375 0.01893429
0.33285353 0.90854794 -1.149128 0.252798 -1.3355842 -0.0863736 0.38523114 -0.67157626
-0.9318145 -0.49755877 -0.29418406 -1.2625427 0.8011541 -0.68413275 -0.3356356 2.117983
-0.087175265 -0.47444144 0.27939156 0.46141154 -0.49048433 -0.61835647 -0.60208553 0.30847466
0.44698572 -0.886566 -0.36904973 0.46274304 -0.8980168 0.482083 -0.7276797 1.088589
1.08633 -0.25657997 -0.5773901 -0.017296381 0.040995546 0.29488337 -1.1989199 -0.26720765
-1.1764064 1.2303373 0.63866675 -1.1259876 -0.7148825 0.17102878 0.44625983 -2.1430328
0.033032406 0.20104666 -0.5631308 0.38488898 0.283651 -1.3526226 -0.8926802 1.3297968
-1.4979774 0.47394642 -0.23834188 -0.7628967 0.5780093 -1.0034022 0.7236183 0.5867334
0.8337821 0.9462136 -1.5121235 -1.3338039 1.4655728 -0.18743724 -0.0012137191 0.36423296
1.828116 0.2527383 0.20493028 -0.5130537 -1.847547 0.03763851 -0.47988936 0.33367524
0.12545873 1.5403914 0.9536159 -0.036471333 0.7032183 0.55087596 2.0428338 0.14800575
-0.01644714 2.3005383 -1.4020075 0.18389636 -0.10688775 -0.8583001 0.531665 -1.1632282
0.09294421 -1.1664637 -0.6968627 0.060280036 -0.9099765 0.50324917 0.27138308 0.29423574
0.16470717 -0.4040157 -0.60101736 0.9082167 -0.06078025 -2.303626 0.065066054 3.349773
-1.3064973 -1.6132869 1.2845607 -0.40337536 -1.2874073 1.5821699 1.0048956 -1.0771551
-0.021524532 -2.5641673 0.5666608 0.031923 0.43316373 0.004945501 -1.9620385 0.65515924
-0.33271253 1.1282309 -0.92744124 -0.16684258 0.25832567 0.73511523 -0.43222737 1.2376186
-0.78262657 1.0996965 -1.697797 -0.14204328 -0.53785497 -0.28091368 -0.19495586 -0.4047759
-0.10365157 -0.7997384 -0.09554586 -0.36752015 0.04719848 1.2803168 -0.093974344 -1.8391556
-1.6803787 -0.9102152 -1.2443309 2.4764216 -1.0745509 -0.083599 0.5158893 2.29737
00000000: 07ed f3be 370d 6fbe dad4 8c3f a2d9 47bf
00000010: 6a0b a43e 4a70 86bf e924 1c3f bec4 08bf
00000020: 1503 a33f dae4 aa3e e95d 97bf 6982 313f
00000030: d652 dcbf ec23 a4bf 3fe3 9a3e 08d1 c7be
00000040: 0ca4 cbbe b65b 34bf ebaa 6a3f 3aeb fcbe
00000050: d8a2 383f 7630 a63d 1b31 083f aa41 2dbc
00000060: 4390 a0bf fcf9 92be d9f8 40be 5d16 1fbe
00000070: 8199 9bbe 665f 683f f999 c9be 7e6e 993f
00000080: cb76 2ebe 617c 2a3f 4bb9 90bf c5a1 c0bf
00000090: ddfb 9d3f debc 7fbf 5070 bb3f 6ed0 633e
000000a0: 918a 633f de8a ccbe 4093 163e 40c9 ef3c
000000b0: 0cca 91bd 16e2 00c0 c5d5 17bf c49b 0abf
000000c0: 9186 1f3e 815f ca3d 6f0c 39bf 821f 6cbc
000000d0: 1937 293f 3c69 5cbf 5035 7fbf 4174 c6bf
000000e0: 209d 7a3e 40c4 0e3f 1e8e 4cbf 6d38 5ebe
000000f0: b192 9cbf c930 ca3f eb04 a53f 7ba7 133e
00000100: f494 8bbc 0106 ffbf 6195 10bf e035 ee3d
00000110: 9801 babf f937 d7bf a8db 48bf a9b4 4dbf
00000120: c6f0 a8bf 5230 133f 948d da3f 3d4a 77bf
00000130: f12e 28bf 9f85 9c3e b231 0fc0 3bf6 283f
00000140: 3763 53bd aa2c 9d3e 0792 cebf 6512 4cbe
00000150: 42de 08bf 3462 adbf 1faf ad3f ac65 3ac0
00000160: 8aba d9bf 6189 183f 71da 1fbf 35cc d23f
00000170: 7e8e 1c3f 24bc cd3e c51b 91bd 161c 9b3c
00000180: c76b aa3e 9996 683f a016 93bf bd6e 813e
00000190: 6cf4 aabf a4e4 b0bd 043d c53e 6cec 2bbf
000001a0: 658b 6ebf 06c0 febe 4b9f 96be 009b a1bf
000001b0: 6f18 4d3f 5323 2fbf 6ed8 abbe 098d 0740
000001c0: f288 b2bd fde9 f2be 690c 8f3e 223e ec3e
000001d0: c320 fbbe 9c4c 1ebf 4722 1abf 64f0 9d3e
000001e0: 50db e43e fdf5 62bf 16f4 bcbe a8ec ec3e
000001f0: 6ee4 65bf 95d3 f63e 3849 3abf e256 8b3f
00000200: dd0c 8b3f 735e 83be d6cf 13bf 24b1 8dbc
00000210: f2ea 273d f4fa 963e 3576 99bf 71cf 88be
00000220: 7c94 96bf b17b 9d3f aa7f 233f 5d20 90bf
00000230: 8a02 37bf 2b22 2f3e 2b7c e43e 7327 09c0
00000240: fd4c 073d 2ddf 4d3e 5729 10bf 2b10 c53e
00000250: b43a 913e bd22 adbf b186 64bf c836 aa3f
00000260: b9bd bfbf 1ba9 f23e e50f 74be 334d 43bf
00000270: 6bf8 133f 7c6f 80bf 0d3f 393f 2934 163f
00000280: be72 553f 0e3b 723f 438d c1bf 16ba aabf
00000290: e497 bb3f 8cef 3fbe a815 9fba be7c ba3e
000002a0: b5ff e93f ea66 813e 3ed9 513e 7d57 03bf
000002b0: 6c7c ecbf d72a 1a3d 0fb4 f5be 7bd7 aa3e
000002c0: 4178 003e 8c2b c53f 2c20 743f f762 15bd
000002d0: 1d06 343f 3506 0d3f cabd 0240 d28e 173e
000002e0: 27bc 86bc 053c 1340 fb74 b3bf 544f 3c3e
000002f0: f7e7 dabd 8eb9 5bbf 331b 083f a9e4 94bf
00000300: 8959 be3d af4e 95bf 9865 32bf 33e8 763d
00000310: 38f4 68bf f0d4 003f b9f2 8a3e 11a6 963e
00000320: ffa8 283e 25db cebe 46dc 19bf e480 683f
00000330: b6f4 78bd 9c6e 13c0 5a41 853d ae62 5640
00000340: 4e3b a7bf 2f80 cebf 7c6c a43f 3787 cebe
00000350: c3c9 a4bf 8b84 ca3f 6ba0 803f 38e0 89bf
00000360: 3754 b0bc 511b 24c0 af10 113f b1c1 023d
00000370: a3c7 dd3e df0d a23b 1424 fbbf 84b8 273f
00000380: 4c59 aabe df69 903f ca6c 6dbf c8d8 2abe
00000390: 4343 843e 8330 3c3f e84c ddbe 496a 9e3f
000003a0: 375a 48bf dbc2 8c3f 6951 d9bf cb73 11be
000003b0: ddb0 09bf ebd3 8fbe 82a2 47be c93e cfbe
000003c0: 4647 d4bd a8bb 4cbf 8cad c3bd 9a2b bcbe
000003d0: 3253 413d 6ce1 a33f 9f75 c0bd 7369 ebbf
000003e0: a616 d7bf dd03 69bf 3c46 9fbf b17d 1e40
000003f0: e28a 89bf f435 abbd 5211 043f 1c08 1340

w_r.0.weight f4 [64, 9]
0.28588867 0.027068555 1.7477624 -0.011915808 -0.31378597 0.03293073 -0.3745824 -0.26528957
-0.021147808 -0.2665959 -0.30904746 -0.39812705 -0.09565513 -0.20516285 -0.09710666 -0.6459074
-0.7912893 -0.23962335 0.20708382 -0.08952111 -1.0120863 0.36154878 -0.0857085 -0.31543738
-0.4505802 -0.06445842 0.057583094 -0.15722811 0.008213193 0.3136578 -0.42159218 0.20846626
-0.16776602 -0.25627455 0.048835684 0.13754976 0.008569898 -0.003858527 -0.0186043 -0.23318198
-0.18814445 -0.15083814 -0.0016251717 -0.28856382 -0.074569985 0.042617977 0.49141076 0.0067822514
-0.0018715453 0.05175094 0.22626948 0.3741878 0.14915377 -0.15053841 -0.51537293 0.025271827
0.032916084 0.05491823 0.2221627 -0.20792806 0.16109832 -0.2975863 0.21944277 -0.47796357
0.13586456 -1.0638975 -0.50371623 -0.18161592 0.013089895 -0.6816779 -0.3484902 0.09155115
0.22939378 -0.49092436 0.89190227 0.073146835 0.2793282 0.11653094 -0.38674393 -0.5907993
-0.26630768 0.23378356 -0.0025242185 0.8371973 0.093846545 -0.08253276 0.17105433 -0.23777442
-0.7753403 0.17824714 0.017962873 0.0047748964 -0.21814267 0.030463861 -0.13993919 -0.045767944
0.023453819 -0.45067626 0.01721712 0.03975829 -0.0026570777 -0.008709055 -0.14185277 -0.32178622
0.2905801 -0.13901024 -0.050991926 0.18711524 -0.20831469 -0.5288827 -0.14694688 -0.6776145
-0.07340324 -0.1905402 -0.79079074 -0.3051407 0.21319675 -0.2142021 0.13185087 -1.0986339
0.15251826 0.1339589 -0.12633765 -0.48050553 -0.25444207 0.17298906 0.31397903 0.002407851
-0.4744638 -0.4757644 -0.32118315 -0.22128408 -0.278276 -0.68925864 0.10450196 0.3519863
-0.33701012 -0.0107313795 -0.33089367 0.087332055 -0.26921508 -0.6210369 -0.5197226 0.092840955
-0.60968333 0.28846845 -0.32778427 0.089957155 -0.21314275 -0.0030560098 -0.14862007 -0.25622576
0.18820977 -0.70484585 0.124604434 -0.19195388 0.6405589 0.20820558 -0.03999996 -0.2898693
-0.37830305 -0.29905897 0.6523633 0.32155007 1.1001832 0.82094014 -0.055527568 -0.30505353
-0.67810327 -0.7206592 0.23026454 -0.07062228 -0.08931142 0.032550555 -0.87391824 -0.3099063
0.2294291 -0.5664143 -0.08304393 -0.016410789 -0.5163812 -0.61848944 0.03560064 -0.047787108
0.28647062 -0.04311347 -0.43937525 -0.39300913 0.016522368 0.21945864 0.13460188 0.3432469
0.45319128 -0.13002746 0.033413332 -0.24777272 -0.35729438 0.27456838 0.5612872 -0.014856699
0.16913807 0.104052104 0.1626883 0.3147732 0.04866686 -0.07419594 0.14308195 0.024499986
0.0008419742 -0.04755031 0.054950442 -0.062309228 0.041944824 0.032229472 -0.25871578 0.2299912
-0.21164313 0.24367578 0.73178536 0.6011171 -0.17720036 -0.011994402 -0.4916067 -0.11609539
-0.018897932 -0.305506 0.029642716 -0.8533494 0.7101052 -0.3260337 -0.1441046 -0.52790654
-0.4479516 -0.25013897 0.255682 0.065143555 -0.44792712 0.34785828 -0.02845323 -0.04976964
-0.21127816 -0.4316078 -0.045769297 -0.1560945 -0.023175994 0.15304972 -0.03689798 0.31730664
-0.023932934 -0.3126158 -0.07991533 -0.06550809 0.08963705 -0.092353135 -0.8669217 -0.11432011
00000000: 0060 923e e0be dd3c aeb6 df3f 853a 43bc
00000010: 8ea8 a0be 60e2 063d 44c9 bfbe 09d4 87be
00000020: 2b3e adbc 427f 88be 783b 9ebe 4fd7 cbbe
00000030: d6e6 c3bd 3616 52be dbdf c6bd 305a 25bf
00000040: f091 4abf d35f 75be c80d 543e d856 b7bd
00000050: 0b8c 81bf ec1c b93e f087 afbd 0281 a1be
00000060: 73b2 e6be c702 84bd 40dc 6b3d 6800 21be
00000070: a190 063c c197 a03e eeda d7be 2e78 553e
00000080: dbca 2bbe 6b36 83be ed07 483d d8d9 0c3e
00000090: c268 0c3c 57df 7cbb 0c68 98bc 42c7 6ebe
000000a0: f0a8 40be 5075 1abe b703 d5ba a3be 93be
000000b0: 26b8 98bd 3090 2e3d 319a fb3e a63d de3b
000000c0: a44e f5ba cbf8 533d 30b3 673e 8b95 bf3e
000000d0: c4bb 183e be26 1abe 7bef 03bf dd06 cf3c
000000e0: 04d3 063d f0f1 603d 9e7e 633e 18eb 54be
000000f0: f5f6 243e 3b5d 98be 9bb5 603e a4b7 f4be
00000100: 1420 0b3e cb2d 88bf 8cf3 00bf 86f9 39be
00000110: 0077 563c 7182 2ebf 4f6d b2be 2b7f bb3d
00000120: 34e6 6a3e 705a fbbe b553 643f 02ce 953d
00000130: 1b04 8f3e c6a7 ee3d 4d03 c6be 9f3e 17bf
00000140: 7b59 88be f564 6f3e 5c6d 25bb 9052 563f
00000150: 9e32 c03d f006 a9bd de28 2f3e 237b 73be
00000160: b47c 46bf 6b86 363e e026 933c bc76 9c3b
00000170: cb60 5fbe 598f f93c 384c 0fbe 2b77 3bbd
00000180: 3922 c03c 0abf e6be eb0a 8d3c 97d9 223d
00000190: 5e22 2ebb 6db0 0ebc da41 11be 2ac1 a4be
000001a0: eac6 943e b358 0ebe e9dc 50bd 239b 3f3e
000001b0: 7250 55be db64 07bf 3e79 16be 2578 2dbf
000001c0: 7054 96bd f81c 43be 4371 4abf 673b 9cbe
000001d0: 4050 5a3e cc57 5bbe ea03 073e 09a0 8cbf
000001e0: bf2d 1c3e 862c 093e a85e 01be d204 f6be
000001f0: 3b46 82be 0b24 313e dcc1 a03e 09cd 1d3b
00000200: ebec f2be 6497 f3be 1e72 a4be 4b98 62be
00000210: 317a 8ebe 4173 30bf 2005 d63d 8c37 b43e
00000220: 978c acbe abd2 2fbc e56a a9be 26db b23d
00000230: 8fd6 89be 46fc 1ebf 8a0c 05bf 6623 be3d
00000240: 3514 1cbf 23b2 933e 57d3 a7be 753b b83d
00000250: 1842 5abe 5647 48bb dc2f 18be 0630 83be
00000260: 10ba 403e c770 34bf 9c30 ff3d 8f8f 44be
00000270: abfb 233f d833 553e 00d7 23bd c069 94be
00000280: f0b0 c1be 421e 99be 4801 273f 36a2 a43e
00000290: ced2 8c3f 2229 523f e070 63bd fa2f 9cbe
000002a0: 2d98 2dbf 1f7d 38bf 78ca 6b3e 6aa2 90bd
000002b0: e8e8 b6bd bb53 053d 1bb9 5fbf 0aac 9ebe
000002c0: 76ef 6a3e 8700 11bf f012 aabd eb6f 86bc
000002d0: 8f31 04bf 5355 1ebf fad1 113d 6abc 43bd
000002e0: 47ac 923e c097 30bd cbf5 e0be 7e38 c9be
000002f0: eb59 873c c4b9 603e 13d5 093e 0fbe af3e
00000300: b008 e83e eb25 05be 6bdc 083d 22b8 7dbe
00000310: 4aef b6be 3a94 8c3e 85b0 0f3f 8369 73bc
00000320: 8832 2d3e 4519 d53d c397 263e f429 a13e
00000330: e756 473d 0af4 97bd 1384 123e 32b4 c83c
00000340: efb7 5c3a 1dc4 42bd b713 613d f637 7fbd
00000350: 56ce 2b3d 0d03 043d 6576 84be d082 6b3e
00000360: fab8 58be 2586 793e 4956 3b3f cfe2 193f
00000370: 0374 35be 2b84 44bc e0b3 fbbe 6bc3 edbd
00000380: d6cf 9abc 486b 9cbe 48d5 f23c 1b75 5abf
00000390: 74c9 353f e4ed a6be 2890 13be e224 07bf
000003a0: ea59 e5be 3712 80be c0e8 823e fc69 853d
000003b0: b456 e5be 7b1a b23e c016 e9bc 40db 4bbd
000003c0: 4d59 58be b3fb dcbe 9678 3bbd 3dd7 1fbe
000003d0: 95db bdbc 11b9 1c3e 5622 17bd 0476 a23e
000003e0: 000f c4bc 2e0f a0be a6aa a3bd 1b29 86bd
000003f0: a193 b73d a423 bdbd 95ee 5dbf a920 eabd

w_r.0.bias f4 [64]
-0.052104086 -0.6083342 -0.25612277 -0.28392813 -0.0104895085 0.31005988 -0.27735594 -0.5031139
-0.32827884 -0.26885873 -0.07767782 -0.014938795 -0.6702821 -0.35738394 -0.32558528 -0.31793657
-0.1745943 -0.5850195 -0.20809272 -0.5260953 -0.41687468 -0.528051 -0.3535832 -0.19699372
-0.17982905 -0.067124546 -0.5959054 0.2310929 -0.06702901 -0.09903113 0.09800896 -0.42968258
-0.26274535 -0.5459588 0.06739401 -0.13377832 -0.6674453 0.22086461 0.027528582 -0.44978464
-0.18098457 -0.21856256 -0.27674285 -0.4929092 -0.169343 -0.24048598 -0.34778187 -0.46851492
-0.6969342 -0.08756132 -0.5989354 0.012884731 -0.34885955 -0.20771548 -0.17518799 -0.42091092
0.03574892 -0.6246767 -0.27895403 -0.37096116 -0.48272792 -0.5378204 -0.44702324 -0.31175923
00000000: 186b 55bd cabb 1bbf 8622 83be 075f 91be
00000010: 30dc 2bbc 2bc0 9e3e 9901 8ebe 13cc 00bf
00000020: 2a14 a8be daa7 89be 8d15 9fbd d9c1 74bc
00000030: 9c97 2bbf 07fb b6be 1db3 a6be 95c8 a2be
00000040: d9c8 32be d7c3 15bf 4216 55be 2eae 06bf
00000050: 9970 d5be 5a2e 07bf db08 b5be b9b8 49be
00000060: 1b25 38be 9878 89bd 428d 18bf 9ea3 6c3e
00000070: 8146 89bd d5d0 cabd ecb8 c83d 5bff dbbe
00000080: 8f86 86be f5c3 0bbf df05 8a3d 2ffd 08be
00000090: b2dd 2abf 552a 623e 9f83 e13c 2c4a e6be
000000a0: 0554 39be ddce 5fbe 3db1 8dbe 985e fcbe
000000b0: 4068 2dbe f541 76be 7710 b2be 30e1 efbe
000000c0: 486a 32bf 5953 b3bd d553 19bf 7b1a 533c
000000d0: b89d b2be 5eb3 54be 7b64 33be a381 d7be
000000e0: 766d 123d d0ea 1fbf 10d3 8ebe 9fee bdbe
000000f0: 1d28 f7be 99ae 09bf 3be0 e4be e89e 9fbe

w_r.2.weight f4 [32, 64]
0.18169948 -0.05209563 -0.07269154 0.012801928 0.02145225 0.22874977 -2.9271135 -0.9385258
-0.13429482 0.30459034 0.010523519 -0.12004498 -0.17762636 -0.00084044115 -0.03900204 -0.10347851
-0.40315226 0.09998488 -0.63849574 -0.5080246 -0.320135 0.06497391 0.20510598 0.1088102
-0.21441169 -0.27275863 -0.10120656 -0.00039785387 0.04966469 0.35546294 -0.1318972 -0.020606834
0.17291766 0.27212512 0.13591023 0.2486384 0.093708254 -0.32015312 -0.27368063 0.053038348
0.15769266 -0.20951925 0.012696922 -0.93127453 -0.9478845 -0.03293832 0.06998121 -0.17972039
0.16798022 0.16148219 -0.040786672 -0.19052969 -0.050626308 -0.48475677 0.012961634 -0.8004955
0.0069801025 -0.011648834 0.37478563 -0.26810893 0.028272904 0.02263427 -2.2575033 -0.04222247
-0.40948167 0.10310703 0.12994385 -0.0073774564 0.021931484 0.012423711 -0.11047371 0.13811126
-0.05151979 -0.03623087 0.026276438 -0.0004627784 -0.38049698 0.17239015 0.08865175 0.1814713
-0.19139512 0.15358008 0.6131208 -0.21348473 0.1369749 -0.27058145 -0.046036582 0.0099758115
-0.19227771 0.1960971 -0.16144583 0.036709163 0.13633792 0.124913774 0.10108746 -0.39551735
-0.17707402 0.36329797 -0.014153555 0.14837044 0.22620133 0.045747183 -0.14318766 0.039689727
0.028198032 -0.0034965216 -0.009123766 -0.08465669 -0.2818711 -0.050052095 -0.37003595 -0.05260418
-0.01550741 -0.044321056 -0.082613274 0.5084316 -0.010584098 -0.009669443 -0.07373065 -2.985106
-0.042739134 -0.0784914 -0.14810398 -0.060642086 -0.031075072 -0.17954022 -0.1978734 0.027880885
0.31245857 0.060998466 -0.21597208 0.0006212502 -0.03967962 -0.61549914 0.11722181 0.3884372
0.008414734 0.28342813 -0.0063762357 0.030862594 -0.054985806 0.05093355 -0.123255044 0.6035628
0.2593468 0.22155963 -0.17585403 -0.010484753 0.119680844 -0.042314798 -0.49460074 -0.44391447
-0.037067015 0.18232012 -0.5477921 0.06710698 -0.15436749 -0.038701694 -0.19113737 1.0340759
-1.2166587 -0.3960257 0.020200776 0.10063553 -0.38600498 -0.123355396 -0.5102058 0.14639619
0.22438109 0.06891433 -0.07953699 0.0041747205 0.07241257 0.08978201 -0.34264857 -0.16653317
-0.5021229 -0.030836629 0.12605035 -0.34024447 0.058498867 0.0267085 -0.070691764 -0.6505266
0.014183479 0.27918807 0.91525483 0.11445162 -0.85274947 -0.5417813 -0.79294187 -0.03394292
-0.07025204 0.28868285 -0.18513152 -0.33655316 -0.108396605 -0.04600358 -0.40290505 -0.13258721
0.16983743 -0.15941861 0.06675788 -0.13520785 0.03957423 -0.11243319 -0.21939687 -0.0971588
-0.053941883 0.037403654 -0.16510205 0.34813192 -0.3343247 0.23592767 -0.367873 -0.092823155
-0.12308582 -0.09115872 -0.055531267 -0.09962262 0.21717589 -0.27773377 -0.28365853 -0.015482259
-0.063685246 -0.35674408 -0.10838849 0.061652493 0.04431077 -0.121568985 0.11601293 0.1207191
-0.14120877 -0.12522115 0.010652592 -0.20885083 -0.18001898 0.097668685 0.0036683397 -0.09841559
-0.064660944 -0.1374637 -0.1669953 -0.45821387 -0.20775783 -0.2529237 0.1379204 -0.016655229
0.03348264 0.17226534 -0.219966 -0.003928989 0.013230459 -0.06898506 0.13340174 0.05809711
00000000: 6e0f 3a3e 3a62 55bd 4ddf 94bd 2ebf 513c
00000010: a1bc af3c 613d 6a3e d455 3bc0 3a43 70bf
00000020: 9584 09be 44f3 9b3e d66a 2c3c 24da f5bd
00000030: afe3 35be 0d51 5cba 9ac0 1fbd 8bec d3bd
00000040: f969 cebe dfc4 cc3d 7574 23bf e60d 02bf
00000050: bce8 a3be 0b11 853d 4d07 523e e2d7 de3d
00000060: bd8e 5bbe 05a7 8bbe 6345 cfbd 0b97 d0b9
00000070: 346d 4b3d 3dff b53e 0f10 07be aacf a8bc
00000080: 5411 313e fc53 8b3e 0d2c 0b3e 119b 7e3e
00000090: 1dea bf3d 1ceb a3be de1f 8cbe bd3e 593d
000000a0: 2f7a 213e 378c 56be c006 503c 0268 6ebf
000000b0: 8fa8 72bf 55ea 06bd 4f52 8f3d 9f08 38be
000000c0: 0203 2c3e 965b 253e ed0f 27bd 371a 43be
000000d0: 885d 4fbd 0a32 f8be 095d 543c 46ed 4cbf
000000e0: 58b9 e43b c0da 3ebc e7e3 bf3e 9345 89be
000000f0: 949c e73c 816b b93c ef7a 10c0 78f1 2cbd
00000100: 95a7 d1be c729 d33d 0010 053e 97be f1bb
00000110: a8a9 b33c d28c 4b3c 0a40 e2bd 0a6d 0d3e
00000120: 6a06 53bd d266 14bd af41 d73c 11a1 f2b9
00000130: 80d0 c2be 0b87 303e 0c8f b53d 9dd3 393e
00000140: 15fd 43be 1944 1d3e 7cf5 1c3f be9b 5abe
00000150: 2643 0c3e a789 8abe db90 3cbd 9671 233c
00000160: 73e4 44be aecd 483e 0e52 25be 595c 163d
00000170: 2b9c 0b3e cbd2 ff3d f106 cf3d 4081 cabe
00000180: e452 35be 3102 ba3e 50e4 67bc 6cee 173e
00000190: 52a1 673e 6661 3b3d c99f 12be b291 223d
000001a0: 8fff e63c e625 65bb d97b 15bc 7d60 adbd
000001b0: 6951 90be 6d03 4dbd 5a75 bdbe 7b77 57bd
000001c0: cb12 7ebc ff89 35bd 2631 a9bd 9328 023f
000001d0: ed68 2dbc 956c 1ebc 1800 97bd fa0b 3fc0
000001e0: 3b0f 2fbd 19c0 a0bd 92a8 17be d663 78bd
000001f0: 2691 febc 64d9 37be 539f 4abe 7466 e43c
00000200: 92fa 9f3e 87d9 793d c927 5dbe 65db 223a
00000210: 1987 22bd 5a91 1dbf fd11 f03d 3ee1 c63e
00000220: f4dd 093c 7e1d 913e beef d0bb 8dd3 fc3c
00000230: cc38 61bd b39f 503d 246d fcbd 1783 1a3f
00000240: 1bc9 843e 87e0 623e 1413 34be 3ec8 2bbc
00000250: 3b1b f53d 4852 2dbd 4f3c fdbe c248 e3be
00000260: 95d3 17bd 20b2 3a3e 1a3c 0cbf 626f 893d
00000270: 8312 1ebe ab85 1ebd 84b9 43be 995c 843f
00000280: 79bb 9bbf e1c3 cabe 197c a53c 001a ce3d
00000290: 72a2 c5be c1a1 fcbd d99c 02bf e2e8 153e
000002a0: 28c4 653e f522 8d3d 4ae4 a2bd 18cc 883b
000002b0: 0b4d 943d a1df b73d a26f afbe ac87 2abe
000002c0: 208b 00bf 199d fcbc 5813 013e 8634 aebe
000002d0: 829c 6f3d c9cb da3c d8c6 90bd e988 26bf
000002e0: d361 683c bdf1 8e3e 244e 6a3f 9c65 ea3d
000002f0: ca4d 5abf 2eb2 0abf 3dfe 4abf bb07 0bbd
00000300: 4de0 8fbd 3dce 933e 1e93 3dbe b250 acbe
00000310: 0aff ddbd 406e 3cbd 9249 cebe f1c4 07be
00000320: dde9 2d3e a23e 23be 5bb8 883d ed73 0abe
00000330: 9618 223d 5f43 e6bd 93a9 60be 31fb c6bd
00000340: 2af2 5cbd 9334 193d 8310 29be 593e b23e
00000350: 9b2c abbe 0697 713e da59 bcbe 111a bebd
00000360: 6b14 fcbd 6cb1 babd c174 63bd f206 ccbd
00000370: 5b63 5e3e 1f33 8ebe b13b 91be 4da9 7dbc
00000380: 696d 82bd 29a7 b6be c9fa ddbd 5387 7c3d
00000390: 367f 353d 29f9 f8bd 3098 ed3d 933b f73d
000003a0: 0899 10be f939 00be 3688 2e3c fedc 55be
000003b0: e556 38be 8506 c83d 8768 703b 1d8e c9bd
000003c0: f56c 84bd 49c3 0cbe d100 2bbe 029b eabe
000003d0: 78be 54be 377f 81be 013b 0d3e 8c70 88bc
000003e0: 1825 093d 5366 303e c43e 61be c0be 80bb
000003f0: 91c4 583c 0a48 8dbd 779a 083e 3cf7 6d3d

w_r.2.bias f4 [32]
-0.5483861 0.046118017 0.113714635 -0.0674163 0.36488292 -0.2747905 0.034016263 -0.08591684
-0.048980415 -0.12422395 0.6834852 -0.5588921 -0.15711167 -0.6412742 -0.07116021 -0.6991561
-0.178255 -0.15228039 0.32551846 0.29433167 -0.022830099 -0.37504855 -0.069012456 -0.37026703
-0.16357139 0.6911034 -0.15230787 -0.08465777 0.3831107 0.27303064 0.043608107 0.2052996
00000000: 0863 0cbf 3fe6 3c3d 38e3 e83d 8f11 8abd
00000010: efd1 ba3e 57b1 8cbe a354 0b3d 2bf5 afbd
00000020: b09f 48bd 2069 febd e3f8 2e3f 8d13 0fbf
00000030: e2e1 20be 8c2a 24bf 72bc 91bd e5fb 32bf
00000040: 7b88 36be 64ef 1bbe 5baa a63e a4b2 963e
00000050: 3006 bbbc 5d06 c0be 6756 8dbd a493 bdbe
00000060: 427f 27be 27ec 303f 98f6 1bbe 0e61 adbd
00000070: 1627 c43e acca 8b3e 6a9e 323d 0f3a 523e

w_h.0.weight f4 [64, 5]
0.076816134 -0.18083878 -0.7880623 -0.89254683 -0.3989756 0.14106159 0.25736162 -0.9086435
1.5200814 -0.09601972 0.054035682 -0.57860434 -0.74273276 -0.5332897 -0.48093396 -0.0794684
0.10511233 -0.6040026 -0.17491859 1.486847 -0.28142655 -0.23203735 0.9970746 1.5393678
-1.6562542 0.020054458 -0.20883809 -0.039917275 0.062434793 0.58330494 -0.53237486 0.16371995
-1.4741243 -0.13597569 -1.3826439 -0.18126987 0.042871926 -0.7010059 -0.8305792 -0.8614652
-0.13060462 0.1173247 0.060301617 -0.40903175 0.19428062 0.001180223 -0.0088919215 0.046553124
0.027830688 -0.19257267 0.39615044 -0.21508792 0.35600594 -0.16492997 -1.5778893 -0.21696901
0.009761205 -0.82948667 -0.501687 -0.1360364 0.0015148665 0.0060937605 0.12000609 0.24963316
0.29076907 -0.01118942 -0.017830078 0.2027689 -0.04664148 -1.7185026 -0.24582094 -0.2269702
-0.5385916 -0.19415508 -3.4141617 -0.0133709395 0.009368835 0.05094989 -0.27041882 0.08407083
-0.27839875 0.32267702 -0.06841181 0.9307456 -0.55013674 -0.16602722 -0.24233684 -1.3077443
-0.70157546 0.26017523 0.041852433 0.14830156 0.097896405 1.972159 0.60510087 -0.28808564
-0.10890661 0.83661836 -1.2991253 -0.657092 -0.47399417 0.40790564 -0.9014402 0.2299213
-1.026287 -0.10620432 -0.18237272 0.32028395 0.15860207 -1.5780455 0.61355615 0.30677542
-0.6067006 0.5889281 -0.6787718 -0.325999 -0.27960727 1.3280551 -0.52331907 0.5438048
0.11377141 -0.087299414 1.3010678 -0.14555521 -0.54502547 -0.0009441552 -0.0074657924 -0.27856332
0.04742225 -0.8445236 0.00022509057 0.00017950997 0.053602263 -0.008207781 -0.34944013 -0.44225836
-0.35118765 -0.62444943 -0.9615189 -0.8196086 -0.29182982 0.35576984 -0.7472373 -0.47243923
-1.407743 -0.030809501 -0.5584784 0.61950904 -0.14942917 -0.8539499 -0.03670399 0.072500266
-0.49924406 -1.0623788 -0.16755936 0.13507676 -0.17866893 0.42021623 -1.1749893 0.6531286
0.16053928 -0.36672845 0.7610584 -1.3196596 0.17293721 0.3288429 0.15195054 1.7108468
1.0579091 0.6327663 -0.692416 0.11470747 0.7748128 -0.9396915 -0.47204933 -0.58448696
-0.079110004 0.24026702 0.751498 0.34906778 -0.37748525 -0.5636837 -1.0670091 -0.15774064
0.41924033 -0.5366948 -0.33042243 0.08234501 -0.27206975 0.2881289 0.31209642 -0.1416685
-0.22914208 0.7602799 1.0534698 -0.09792334 0.04502246 -1.1123927 0.78892535 -0.7854449
0.029568378 -0.33376253 0.5381996 0.8547049 0.04643952 0.43424574 0.38103145 1.2729564
0.652101 -0.480138 0.007562217 -0.04533494 -0.4690164 0.23204303 -1.5570737 0.16496104
0.050026353 1.0120997 1.4928035 -1.195846 0.5348551 -0.04371493 0.41548383 -0.1720541
-0.9566905 0.23775323 0.24709627 0.30317116 -1.3684694 -2.2717786 -0.113032974 0.519488
0.7323186 -0.013669763 -0.5125648 -0.060425315 0.08524111 0.5796875 1.5432162 -0.36167103
-0.36273345 -0.08120992 -0.34350193 0.5901939 -1.4612427 -0.0018885342 0.0081584165 -0.11362035
-0.061042063 -0.11111072 0.20896585 0.29899246 0.063150376 -0.9456981 -1.4674493 0.4030405
00000000: c751 9d3d cd2d 39be 73be 49bf f37d 64bf
00000010: 8846 ccbe 7372 103e e7c4 833e dc9c 68bf
00000020: 0792 c23f fda5 c4bd 8554 5d3d 6a1f 14bf
00000030: bc23 3ebf ac85 08bf fa3c f6be 54c0 a2bd
00000040: 2245 d73d ea9f 1abf dc1d 33be 0151 be3f
00000050: 2417 90be 339b 6dbe 4840 7f3f 010a c53f
00000060: 2300 d4bf 3f49 a43c a7d9 55be 4c80 23bd
00000070: a0bb 7f3d 7953 153f b849 08bf 34a6 273e
00000080: 1bb0 bcbf 363d 0bbe 7afa b0bf cf9e 39be
00000090: 799a 2f3d 1f75 33bf d7a0 54bf fc88 5cbf
000000a0: 38bd 05be ef47 f03d d4fe 763d 9c6c d1be
000000b0: 80f1 463e b6b1 9a3a 6caf 11bc 7dae 3e3d
000000c0: 2ffd e33c c531 45be 3bd4 ca3e 0240 5cbe
000000d0: 6946 b63e 67e3 28be 47f8 c9bf 202d 5ebe
000000e0: 76ed 1f3c 3d59 54bf 8f6e 00bf 204d 0bbe
000000f0: 7c8e c63a 2bae c73b c1c5 f53d d69f 7f3e
00000100: afdf 943e d453 37bc 6210 92bc a7a2 4f3e
00000110: 230b 3fbd e5f7 dbbf 7cb8 7bbe e06a 68be
00000120: 24e1 09bf 97d0 46be a081 5ac0 c911 5bbc
00000130: be7f 193c d5b0 503d 5674 8abe 542d ac3d
00000140: 488a 8ebe ec35 a53e 7e1b 8cbd 5845 6e3f
00000150: c3d5 0cbf 0a03 2abe 2627 78be 2a64 a7bf
00000160: 739a 33bf b035 853e 756d 2b3d 5ddc 173e
00000170: e97d c83d b56f fc3f e4e7 1a3f f67f 93be
00000180: 6e0a dfbd 9f2c 563f bd49 a6bf 2e37 28bf
00000190: 5daf f2be 02d9 d03e c9c4 66bf 7d70 6b3e
000001a0: 5f5d 83bf a781 d9bd eabf 3abe 42fc a33e
000001b0: 9568 223e 65fd c9bf 0412 1d3f ab11 9d3e
000001c0: bb50 1bbf fec3 163f fdc3 2dbf 57e9 a6be
000001d0: af28 8fbe b6fd a93f 3df8 05bf cb36 0b3f
000001e0: fc00 e93d 09ca b2bd 6489 a63f 6d0c 15be
000001f0: ca86 0bbf 2f81 77ba 9ba3 f4bb da9f 8ebe
00000200: d53d 423d b332 58bf 4a06 6c39 d73a 3c39
00000210: 0c8e 5b3d ee79 06bc d1e9 b2be b06f e2be
00000220: dece b3be ebdb 1fbf 1a26 76bf dfd1 51bf
00000230: b86a 95be 7727 b63e f24a 3fbf 8ee3 f1be
00000240: ec30 b4bf 3564 fcbc 71f8 0ebf 2598 1e3f
00000250: f603 19be 769c 5abf ec56 16bd 057b 943d
00000260: eb9c ffbe 07fc 87bf ae94 2bbe 9051 0a3e
00000270: fdf4 36be 9526 d73e 0d66 96bf 7033 273f
00000280: 6964 243e d5c3 bbbe b9d4 423f 9bea a8bf
00000290: 7416 313e 195e a83e ec98 1b3e 07fd da3f
000002a0: 9169 873f f9fc 213f 2d42 31bf c0eb ea3d
000002b0: 225a 463f 9f8f 70bf 73b0 f1be f0a0 15bf
000002c0: 6d04 a2bd 8f08 763e 2c62 403f 03b9 b23e
000002d0: bf45 c1be 934d 10bf c193 88bf c386 21be
000002e0: aba6 d63e d564 09bf 212d a9be 80a4 a83d
000002f0: ba4c 8bbe a285 933e 1acb 9f3e 8c11 11be
00000300: 39a4 6abe b4a1 423f 19d8 863f 088c c8bd
00000310: 7969 383d e262 8ebf 03f7 493f eb12 49bf
00000320: 6239 f23c ece2 aabe 73c7 093f f1cd 5a3f
00000330: 5e37 3e3d 7555 de3e 8e16 c33e 3cf0 a23f
00000340: 17f0 263f a6d4 f5be 79cc f73b 21b1 39bd
00000350: eb22 f0be b09c 6d3e 314e c7bf 8ceb 283e
00000360: 6fe8 4c3d 7c8c 813f 2f14 bf3f 7b11 99bf
00000370: 44ec 083f 6d0e 33bd 4cba d43e f32e 30be
00000380: abe9 74bf 9575 733e ce06 7d3e 4039 9b3e
00000390: 012a afbf d264 11c0 d57d e7bd 2afd 043f
000003a0: 3b79 3b3f 24f7 5fbc 7237 03bf 8980 77bd
000003b0: e492 ae3d 6666 143f 1c88 c53f f22c b9be
000003c0: 33b8 b9be 6351 a6bd 7cdf afbe f316 173f
000003d0: 000a bbbf b188 f7ba e1aa 053c c9b1 e8bd
000003e0: 3e07 7abd 048e e3bd 25fb 553e 8a15 993e
000003f0: fc54 813d 4519 72bf 61d5 bbbf 535b ce3e

w_h.0.bias f4 [64]
-0.2741676 -1.5460353 -1.1883444 -0.8703508 -1.4290434 0.016432647 -0.45717737 -0.5541875
0.042254157 -0.22508474 0.04622108 -0.18043415 -0.5906402 0.16607924 0.12226549 -0.43339786
-0.32111025 -0.9249755 -0.87400174 -0.9410711 -1.3218062 0.60600936 -1.2672931 -0.8903109
-0.18167175 -0.04808415 0.048159048 -0.3662366 -1.2543503 -0.3643205 -0.23953155 0.21640666
-0.75426644 -0.9414951 -0.5810217 -1.4057378 -0.8970399 -1.9393663 -1.0498272 -0.0741321
-0.5671738 -1.703733 -0.16851911 0.056547824 0.42194608 -0.8821548 -1.159873 -0.60640395
0.016331868 -0.1881659 -0.6753953 -0.7752033 -0.8661432 -1.0981381 -0.21824777 -0.5096165
0.6158165 -0.78367865 -1.2668201 0.47578052 -0.5007311 0.36382595 -0.18036298 -0.7748854
00000000: b25f 8cbe 7ce4 c5bf ab1b 98bf 4fcf 5ebf
00000010: e5ea b6bf c29d 863c 2713 eabe 3bdf 0dbf
00000020: b212 2d3d 9d7c 66be 5152 3d3d bbc3 38be
00000030: 3234 17bf ad10 2a3e 5466 fa3d 53e6 ddbe
00000040: 9068 a4be 32cb 6cbf 94be 5fbf 09ea 70bf
00000050: f230 a9bf 6e23 1b3f a936 a2bf 6aeb 63bf
00000060: 2908 3abe e3f3 44bd 6c42 453d 5d83 bbbe
00000070: 8d8e a0bf 3788 babe c247 75be b599 5d3e
00000080: 9b17 41bf d305 71bf d7bd 14bf 37ef b3bf
00000090: 68a4 65bf 283d f8bf bd60 86bf 92d2 97bd
000000a0: 4d32 11bf ec13 dabf 4690 2cbe b19e 673d
000000b0: 5109 d83e e6d4 61bf b876 94bf 4a3d 1bbf
000000c0: 69ca 853c 90ae 40be b5e6 2cbf b973 46bf
000000d0: 90bb 5dbf ca8f 8cbf 587c 5fbe 3a76 02bf
000000e0: 26a6 1d3f 2a9f 48bf 2927 a2bf 8199 f33e
000000f0: ea2f 00bf 6547 ba3e 13b1 38be e45e 46bf

w_h.2.weight f4 [32, 64]
0.016803332 -0.151911 -0.87720674 0.09484661 -0.39873773 0.19130583 0.7956384 0.62884396
-0.2842722 -0.04045123 0.70308936 0.35787058 -0.05004206 0.64456123 0.92689675 -0.058960672
0.31961167 -0.40442964 -0.23469466 -0.06467847 0.62034976 0.043179445 0.15784563 -0.010344643
-0.47622848 0.04023127 0.06314104 0.18928854 0.0026314314 0.39001173 0.09287005 0.06533485
0.8279469 0.28345054 -0.05830042 -0.08960773 0.5445241 -1.0440496 0.083676934 0.08721573
0.19469197 0.30018267 -0.20051786 0.35606006 0.4673318 -0.17601569 0.26132476 0.02798085
0.24981746 0.08459462 0.16029051 0.719958 0.17308591 0.248007 0.18746394 -0.015475196
0.28518957 -0.14082587 -0.27615032 -0.3535717 0.101189025 0.2620373 0.02066848 0.23958462
0.4580301 -1.1153336 0.49145827 -0.45308188 0.11984985 0.5538262 -0.0032103385 0.12421825
-0.29978988 0.055717044 0.31474945 -0.5376418 -0.48910207 -0.1606306 -2.74919 -0.0039502257
-0.23680042 -0.6535029 0.5047993 2.21558 1.2894101 -0.27788284 -0.67389625 -0.0007094145
0.25627646 -0.15778385 -0.023596238 -0.12330147 0.22833379 -0.24444485 -0.65158343 -0.4137152
-0.85806745 0.42602956 -0.63175976 0.72071534 1.0766119 -1.1920274 0.29725006 0.8577276
-0.26489156 0.4824937 0.6184255 0.8800188 -0.66268116 -0.3062486 -3.3084178 0.06032675
0.1981199 0.13701585 -1.8174455 1.0588046 -0.60895634 -0.09305446 0.112884164 -1.9193985
-0.066105664 0.2081637 -0.39451933 -0.304534 -0.05487896 -0.26792967 0.55804 -0.040613405
-3.3635354 1.7584627 0.3677312 0.15200032 -0.39565602 -0.122660734 0.6522827 -1.3390617
-0.09233558 0.066781044 -0.15900579 -0.686142 -0.1681582 -0.070112854 -1.386523 0.048026882
2.2058797e-05 -2.7499208 -0.0006776349 0.16827129 -0.97910845 0.3107553 -2.0882373 0.2973187
0.13337113 0.37653327 0.13629627 0.60349464 0.21086086 0.04222812 0.38854107 -0.1026783
-0.4846092 1.2503737 -0.25278097 0.35927632 -0.24057217 -0.4161839 -0.07929476 0.018101074
-0.03405364 -0.23479345 0.011762753 1.2010415 -0.18120284 -1.055108 -0.35489738 -0.64947516
-0.055379048 -0.13596737 -2.9413347 -0.6556751 -0.08340455 -3.3121567 0.029233878 0.8349594
0.5992748 -0.56350684 -1.4384474 -0.72954357 0.023122456 -0.08169711 -1.0377421 0.7105076
-0.11107952 -0.036034074 -0.74462885 0.20625691 1.0932156 -0.0046328115 0.06454483 0.85226387
0.14140731 0.062663 -0.20569456 0.65630764 0.023924127 -0.24364047 -0.18487751 0.010942074
0.49439323 -0.95123434 0.4389576 0.26269525 0.050587 -0.33508983 0.74829644 0.56483227
0.58389366 0.14222327 0.036260884 -0.36871704 0.36500055 -0.73492193 0.622439 -0.102598175
0.9725563 0.58417773 0.40695223 -0.5978452 -1.2498422 -1.5740495 0.30060473 0.90947735
-0.87551785 0.78587365 0.63472277 0.37508994 -0.5474498 -1.2950695 -0.3706195 0.39118862
-0.31762022 -0.16098207 -0.12640327 -0.8622425 -0.4989801 0.8171339 0.19423427 -0.08514929
-0.20562772 -0.72172755 -0.5235283 0.27222854 -0.46601963 0.20963179 -0.0049707564 0.30283734
00000000: 24a7 893c 8f8e 1bbe 9f90 60bf f13e c23d
00000010: 5a27 ccbe ade5 433e f5ae 4b3f ebfb 203f
00000020: 208c 91be 30b0 25bd aafd 333f d03a b73e
00000030: e7f8 4cbd f701 253f 1b49 6d3f bf80 71bd
00000040: 24a4 a33e 6711 cfbe cc53 70be 2576 84bd
00000050: 3ecf 1e3f eedc 303d 49a2 213e 947c 29bc
00000060: 38d4 f3be 8bc9 243d 1750 813d dbd4 413e
00000070: 1874 2c3b 9eaf c73e a732 be3d 47ce 853d
00000080: 54f4 533f 6e20 913e 6ccc 6ebd 4284 b7bd
00000090: ee65 0b3f 6ba3 85bf d05e ab3d 299e b23d
000000a0: 555d 473e 8bb1 993e 8e54 4dbe 814d b63e
000000b0: 1d46 ef3e 753d 34be 5ccc 853e 1838 e53c
000000c0: 26d0 7f3e f23f ad3d 3223 243e 2b4f 383f
000000d0: 6f3d 313e 8cf5 7d3e 8cf6 3f3e ad8b 7dbc
000000e0: 5e04 923e a834 10be 9363 8dbe 5a07 b5be
000000f0: 313c cf3d c129 863e f250 a93c ac55 753e
00000100: ec82 ea3e 40c3 8ebf 6ba0 fb3e 59fa e7be
00000110: d773 f53d 8ec7 0d3f 8b64 52bb 2366 fe3d
00000120: 0f7e 99be 8e37 643d d726 a13e e5a2 09bf
00000130: 966b fabe 597c 24be bbf2 2fc0 e570 81bb
00000140: cf7b 72be f74b 27bf 873a 013f 10cc 0d40
00000150: 640b a53f a946 8ebe 7784 2cbf 00f8 39ba
00000160: ab36 833e 1792 21be e64c c1bc 7b85 fcbd
00000170: 55d0 693e c04f 7abe 2cce 26bf 7bd2 d3be
00000180: 4faa 5bbf 8c20 da3e 02bb 21bf cd80 383f
00000190: 6bce 893f 5b94 98bf 2931 983e 0994 5b3f
000001a0: de9f 87be 6a09 f73e 2251 1e3f e948 613f
000001b0: 79a5 29bf 9ecc 9cbe 1ebd 53c0 2f19 773d
000001c0: f1df 4a3e e24d 0c3e 0ea2 e8bf e986 873f
000001d0: 90e4 1bbf 5693 bebd d02f e73d daae f5bf
000001e0: 6862 87bd dd28 553e 70fe c9be e1eb 9bbe
000001f0: c3c8 60bd 142e 89be b6db 0e3f 3e5a 26bd
00000200: 2a44 57c0 4e15 e13f 4447 bc3e f9a5 1b3e
00000210: 6d93 cabe 8d35 fbbd 00fc 263f 6066 abbf
00000220: 701a bdbd 80c4 883d 6ad2 22be 01a7 2fbf
00000230: aa31 2cbe 5497 8fbd 9679 b1bf d6b7 443d
00000240: e80a b937 b4fe 2fc0 4fa3 31ba 4f4f 2c3e
00000250: daa6 7abf 521b 9f3e aea5 05c0 283a 983e
00000260: 7192 083e f8c8 c03e 4091 0b3e a07e 1a3f
00000270: e9eb 573e 65f7 2c3d dbee c63e 0049 d2bd
00000280: b21e f8be 3f0c a03f 826c 81be 11f3 b73e
00000290: 8d58 76be 0e16 d5be 4b65 a2bd b448 943c
000002a0: d47b 0bbd b26d 70be 90b8 403c babb 993f
000002b0: 3d8d 39be c70d 87bf 1cb5 b5be 0144 26bf
000002c0: 24d5 62bd 083b 0bbe d43e 3cc0 53da 27bf
000002d0: 01d0 aabd 60fa 53c0 e37b ef3c e6bf 553f
000002e0: 136a 193f fc41 10bf 0b1f b8bf 5ec3 3abf
000002f0: 4e6b bd3c d050 a7bd bcd4 84bf d3e3 353f
00000300: a97d e3bd 7798 13bd ff9f 3ebf 0335 533e
00000310: 7dee 8b3f d7ce 97bb 1430 843d f72d 5a3f
00000320: 14cd 103e 7555 803d 98a1 52be c703 283f
00000330: 88fc c33c e37c 79be 8850 3dbe 6246 333c
00000340: 1c21 fd3e 1884 73bf 0dbf e03e fe7f 863e
00000350: 5034 4f3d e590 abbe 5b90 3f3f d998 103f
00000360: 0e7a 153f faa2 113e 4b86 143d 7bc8 bcbe
00000370: 5ae1 ba3e d823 3cbf 2a58 1f3f fe1e d2bd
00000380: 73f9 783f ac8c 153f 0b5c d03e 620c 19bf
00000390: d4fa 9fbf 747a c9bf dde8 993e 82d3 683f
000003a0: f021 60bf 042f 493f 317d 223f ca0b c03e
000003b0: ac25 0cbf d6c4 a5bf d7c1 bdbe e049 c83e
000003c0: 1e9f a2be 7cd8 24be dc6f 01be edbb 5cbf
000003d0: 527a ffbe b02f 513f 59e5 463e c062 aebd
000003e0: 1390 52be 23c3 38bf f305 06bf 8a61 8b3e
000003f0: 209a eebe b7a9 563e bae1 a2bb 7f0d 9b3e

w_h.2.bias f4 [32]
-0.63130736 0.263562 -0.13542992 -0.072156295 -0.045150496 -2.2399127 -0.039068222 -0.11319503
-0.42056152 -0.15395062 0.19942605 0.03399452 0.4106754 0.33837903 -0.078817196 -0.16575585
-0.19741003 0.010737858 -0.27293023 -0.02123773 -0.2681019 -0.22315788 -0.065509684 -0.06695407
-0.059823714 0.39682445 0.26044133 0.27133614 0.17784917 -0.18383336 0.4821694 0.4373058
00000000: 5c9d 21bf 99f1 863e 24ae 0abe aec6 93bd
00000010: baef 38bd bb5a 0fc0 0006 20bd ccd2 e7bd
00000020: d753 d7be 3ba5 1dbe 5836 4c3e d63d 0b3d
00000030: 0c44 d23e 0440 ad3e e96a a1bd e7bb 29be
00000040: db25 4abe d7ed 2f3c 83bd 8bbe bffa adbc
00000050: a744 89be 8083 64be f129 86bd 371f 89bd
00000060: b609 75bd 932c cb3e 9158 853e 92ec 8a3e
00000070: 181e 363e d03e 3cbe e8de f63e 8ce6 df3e

Ws.0 f4 [32, 32]
-1.5157121 0.39441955 -0.5410041 -0.13296127 0.8252535 0.2973488 -0.8378398 1.7862564
0.23634017 1.2627903 -1.2583407 -0.6726835 0.09142322 -0.16271444 0.02729188 0.438525
0.124209255 -0.1739908 -0.50686914 0.96065474 -0.26442313 0.13833599 -1.315291 0.10466916
-0.3918822 -0.21897282 0.71433264 0.72017586 0.59029716 -1.6581469 -0.58481795 0.53323704
-1.8749284 0.35877472 -0.041490544 0.34462106 -0.43806848 0.8019355 -0.30347356 -0.21723585
-1.2448636 -0.3599117 0.27660492 0.4124824 -0.35797983 -2.3048553 0.38279715 -2.5745502
-0.8102582 2.2107182 -1.148529 -0.49913973 -0.9902465 -1.5657153 0.7381088 -1.9277191e-05
0.12455249 0.23542765 1.0774896 -1.2659508 -0.462474 -1.9218985 0.8996625 -0.86994964
0.8018257 -1.5300689 -0.9043049 0.8232823 -0.9857703 0.7298656 -2.4593449 -0.78943086
-2.0211198 0.067595646 1.8891932 -0.30301923 0.14131553 -2.3349946 -0.14913629 -0.47856745
2.8203611 -0.590893 0.19350511 -0.5577326 1.2112195 -0.07353258 -0.6553244 -0.18405919
0.62990326 -1.2618339 -2.106116 0.18478586 -0.9345759 0.6930659 -0.07336806 0.7741714
-0.5216706 -0.79090667 0.36410418 -3.1436844 -0.46692443 1.0873767 1.4011389 0.3029178
0.7532548 1.0259722 0.109487705 0.057085097 0.79367036 0.47604704 0.10365524 0.6318233
-0.9484126 0.49231425 0.9030234 1.683189 0.21764211 0.23689811 0.3753894 -0.69969404
1.3472184 0.11050244 0.9580544 -2.0684538 0.1040299 -1.326055 1.4810718 -0.156919
0.77821946 0.16027437 -0.4537033 -1.613481 -1.2248601 0.53815687 0.12222701 -0.45623922
-0.7955763 -0.5212402 1.4838161 -0.3138004 -0.135487 -0.3745428 0.20947717 1.0403914
0.39568645 -0.3863884 -1.0681462 -0.93289065 -0.9545067 -0.2651309 0.58288914 0.38502967
0.62507296 -0.90837777 -0.9286171 -1.8449031 -0.36285356 1.1766341 0.85528207 -1.313568
-0.37740216 -0.48101693 0.063593104 1.2371476 -0.5513092 -0.63370574 -0.2968725 0.8908908
0.35698342 -0.20494816 0.43041375 -3.4561567 -0.98941875 0.29416108 0.3638407 0.71880734
0.40771642 -1.7885112 -0.6340382 -0.1309725 0.026797269 -3.6469848 -0.4211834 -0.32225233
0.4453044 -3.5300066 -0.29136628 -0.8391295 -2.6379051 -2.3379645 0.31983703 -2.0437043
-0.70433325 -0.49125218 1.1373365 0.9320913 -2.1808848 -0.25468633 1.0719808 0.49825045
1.9128897 -1.1546528 -2.5852048 -1.4448574 1.3651769 0.9892803 0.83761114 -0.71200037
-0.61010945 0.3103189 -5.609383 -0.62314117 -0.66866684 -0.7597698 -0.5542728 -0.03193648
1.0401361 -2.530006 1.2361763 -1.2601329 1.4754486 0.8398213 -2.3286123 -0.25184214
2.0706437 0.34812307 -0.7894424 -0.44969583 -0.005498111 2.0578258 -0.997544 0.1441233
0.8237507 -0.12584771 -0.042883888 -0.49324527 -0.7500951 -1.6670599 1.6984531 -1.1409044
0.2380815 0.4969523 0.39484397 -0.3257166 -0.099660225 0.27731806 -0.965596 0.31399706
-0.38510677 0.9554517 1.6563952 -1.0068073 -0.2336416 1.1267277 0.5017433 1.9792411
00000000: db02 c2bf 5cf1 c93e 3f7f 0abf 0027 08be
00000010: d043 533f 1a3e 983e ab7c 56bf 0da4 e43f
00000020: 2803 723e 1da3 a13f 4f11 a1bf fc34 2cbf
00000030: 193c bb3d 9d9e 26be 3993 df3c 5986 e03e
00000040: 6c61 fe3d a52a 32be 2dc2 01bf 78ed 753f
00000050: 7862 87be f3a7 0d3e 755b a8bf c95c d63d
00000060: c9a4 c8be 693a 60be 81de 363f 725d 383f
00000070: b71d 173f 283e d4bf a1b6 15bf 3982 083f
00000080: a7fd efbf 52b1 b73e fdf1 29bd 2c72 b03e
00000090: 834a e0be a54b 4d3f e360 9bbe 1373 5ebe
000000a0: b157 9fbf 5946 b8be 299f 8d3e e530 d33e
000000b0: 2249 b7be c082 13c0 fdfd c33e 6ec5 24c0
000000c0: 156d 4fbf 687c 0d40 0003 93bf 3e8f ffbe
000000d0: cb80 7dbf 5c69 c8bf b3f4 3c3f 74b5 a1b7
000000e0: 6015 ff3d f213 713e 2eeb 893f ad0a a2bf
000000f0: 64c9 ecbe c500 f6bf 4850 663f 05b5 5ebf
00000100: 7344 4d3f 4cd9 c3bf 8780 67bf a1c2 523f
00000110: 715b 7cbf 79d8 3a3f e865 1dc0 2418 4abf
00000120: 075a 01c0 966f 8a3d 15d1 f13f 5625 9bbe
00000130: 05b5 103e 8d70 15c0 2fb7 18be cb06 f5be
00000140: cc80 3440 c344 17bf 3426 463e 90c7 0ebf
00000150: 3e09 9b3f 4098 96bd 57c3 27bf 037a 3cbe
00000160: 5741 213f c683 a1bf 9bca 06c0 8138 3d3e
00000170: 5e40 6fbf c46c 313f fe41 96bd 1930 463f
00000180: 348c 05bf dc78 4abf dd6b ba3e 2032 49c0
00000190: b810 efbe 292f 8b3f 8558 b33f 0b18 9b3e
000001a0: 4ed5 403f 0f53 833f 173b e03d 10d2 693d
000001b0: fb2d 4b3f 70bc f33e 3349 d43d 2cbf 213f
000001c0: 2bcb 72bf 9d10 fc3e 8b2c 673f bd72 d73f
000001d0: 93dd 5e3e 6b95 723e 0a33 c03e 261f 33bf
000001e0: a771 ac3f 1a4f e23d 0e43 753f 8c61 04c0
000001f0: a10d d53d 2cbc a9bf c393 bd3f 60af 20be
00000200: 6439 473f f71e 243e cd4b e8be 8c86 cebf
00000210: 37c8 9cbf a6c4 093f 2852 fa3d 3098 e9be
00000220: e3aa 4bbf ff6f 05bf b0ed bd3f 72aa a0be
00000230: 1bbd 0abe 13c4 bfbe 2f81 563e 8c2b 853f
00000240: 6a97 ca3e b3d4 c5be 04b9 88bf ecd1 6ebf
00000250: 8d5a 74bf 3dbf 87be 3938 153f 9c22 c53e
00000260: c804 203f 728b 68bf dab9 6dbf c925 ecbf
00000270: f1c7 b9be f29b 963f c4f3 5a3f ff22 a8bf
00000280: db3a c1be da47 f6be 1a3d 823d da5a 9e3f
00000290: 9a22 0dbf 8a3a 22bf acff 97be 6b11 643f
000002a0: 88c6 b63e eedd 51be 315f dc3e ac31 5dc0
000002b0: 8c4a 7dbf 489c 963e 5449 ba3e c203 383f
000002c0: 35c0 d03e efed e4bf 5450 22bf a81d 06be
000002d0: f285 db3c 3368 69c0 5aa5 d7be 42fe a4be
000002e0: f0fe e33e a1eb 61c0 f62d 95be 31d1 56bf
000002f0: 70d3 28c0 36a1 15c0 aec1 a33e 0dcc 02c0
00000300: 2f4f 34bf 6885 fbbe 3e94 913f 899d 6e3f
00000310: 9e93 0bc0 3f66 82be ab36 893f af1a ff3e
00000320: 92d9 f43f aacb 93bf ff73 25c0 16f1 b8bf
00000330: 1ebe ae3f 7941 7d3f af6d 563f a845 36bf
00000340: 2230 1cbf 1ee2 9e3e 1180 b3c0 2e86 1fbf
00000350: c02d 2bbf 4680 42bf d2e4 0dbf d4cf 02bd
00000360: 2e23 853f 9eeb 21c0 063b 9e3f 094c a1bf
00000370: 80db bc3f 87fe 563f fc07 15c0 74f1 80be
00000380: 6d85 0440 303d b23e e618 4abf 883e e6be
00000390: 7f29 b4bb 6bb3 0340 0b5f 7fbf 0f95 133e
000003a0: 53e1 523f 39de 00be 04a7 2fbd a58a fcbe
000003b0: 3c06 40bf 3862 d5bf e966 d93f 2809 92bf
000003c0: a3cb 733e 8870 fe3e fd28 ca3e 54c4 a6be
000003d0: a91a ccbd a2fc 8d3e 4d31 77bf 39c4 a03e
000003e0: b72c c5be 7c98 743f c204 d43f 10df 80bf
000003f0: be3f 6fbe 9d38 903f 4072 003f c657 fd3f

Ws.1 f4 [32, 32]
-1.9835405 -0.54349595 -2.1252544 1.2309898 0.3305971 2.4266028 0.941882 1.2994691
0.20002866 -0.16826734 0.14519225 0.16686715 1.4137132 -0.3697367 -0.97758245 -0.103759244
2.5206714 -0.78904355 -2.9382234 -2.5240328 -1.157309 -0.094322704 0.6594352 -0.2828432
-0.07534246 2.2731154 -4.02191 -0.51265585 -0.093219906 -0.007925884 -0.21914509 0.19581711
0.27147576 -0.40980202 -2.0770972 1.3851526 0.11917056 -2.9791188 -0.58271396 1.0101717
-0.15267822 0.43118197 1.4339678 -0.44778842 -0.016222112 1.2053708 1.6832906 0.2472256
-0.5593038 0.6596356 -0.4901173 -2.8621264 0.13275054 -0.5959959 0.58665496 -1.9011655
-0.52123797 -0.9656374 0.30112234 0.9774534 -0.29970554 0.4740189 0.61656624 -1.3049532
0.8693364 -1.0349824 -0.9957811 -0.2765234 -1.6253307 0.20778902 -2.273231 -2.085097
0.49407125 -0.13016334 1.0939113 -0.15492071 0.6288471 -0.35054722 1.9714636 -0.23362945
-0.040278483 -0.118843436 -0.78229743 -0.11844002 -0.04577483 -1.8268244 -0.3575266 -3.007993
1.1789101 -2.331315 -0.39870027 0.2967839 1.1695154 -1.2421291 -2.0153074 -0.39244792
-0.69500446 1.0046167 -0.50974923 -1.6383624 -0.6285608 -1.0846293 -0.14842364 -0.45876276
-0.38540518 -0.61109877 -1.2850852 -1.3783369 0.12831743 0.6569587 -0.83382565 -0.24107666
-0.66394025 -1.378026 -0.6310436 -1.7387226 1.050813 -0.9837328 1.2097073 -0.8651149
-0.13527954 -0.89503086 0.08383217 -1.1441334 0.6211505 -1.0564234 -1.1719522 -1.3993958
1.0916125 -0.1224911 -1.502613 -0.6262177 -0.5560108 0.49797058 -0.15277255 0.27057725
-0.6473208 0.03620083 0.0066809836 0.14529729 -0.77389795 0.12740362 -0.39515194 -0.30075002
0.5812555 2.2932334 -1.249636 -0.0055264984 1.0993452 -1.1629982 0.36108312 -0.63218653
0.36711156 -1.7517966 -0.36891273 0.97246444 1.0550832 0.58660334 -0.82923007 -1.1683829
-1.1293567 0.31743455 1.4288421 1.151544 0.7490789 -0.96116745 0.4772949 -1.1081583
-0.18259303 -1.197559 0.3037975 0.7161877 -0.42329645 0.50027025 -0.09818416 -1.0000107
-0.20827529 0.2075445 1.4294243 -1.4048707 0.5848344 -1.7457838 1.1886386 -0.7615171
-0.81236255 -0.35550126 0.16996895 -1.0848072 1.772175 -1.6193414 -0.17111285 0.05300241
0.080406465 1.1282139 -0.17114985 -0.5314271 0.3393164 0.5255281 -0.081549205 -0.37579688
-1.4577552 0.6425199 1.3111047 -0.17622238 -0.28609756 -0.63842756 0.049530707 0.53036153
-0.45435256 -1.1313204 0.93380904 -0.024860501 0.056542967 -1.5681757 0.35359725 -1.528883
1.2253591 -1.1121365 0.027044298 -1.2759609 0.35186538 1.0658125 -0.80923593 -0.91457874
-0.84156716 -0.8407742 0.92762226 -1.905441 0.12908855 -0.5148008 -1.1029994 -2.0486357
0.45513517 -1.7935052 -0.16992667 -1.3955796 -0.86482036 0.4473263 0.48886994 -0.82846963
0.3500609 0.16512325 -0.5143139 -0.19700244 0.3585722 0.48779905 -1.9075487 0.64942133
0.8112544 0.6275588 0.6122366 -0.6718315 0.110299386 -0.8663122 -0.53109175 0.94162077
00000000: a8e4 fdbf 8d22 0bbf 2b04 08c0 1391 9d3f
00000010: 0644 a93e 764d 1b40 2e1f 713f 0155 a63f
00000020: 50d4 4c3e 464e 2cbe 47ad 143e 39df 2a3e
00000030: 8ef4 b43f 214e bdbe d842 7abf ba7f d4bd
00000040: ae52 2140 c2fe 49bf da0b 3cc0 c189 21c0
00000050: b422 94bf 432c c1bd bfd0 283f d3d0 90be
00000060: 264d 9abd b97a 1140 7db3 80c0 6a3d 03bf
00000070: 14ea bebd 91db 01bc 9267 60be 4884 483e
00000080: dffe 8a3e 92d1 d1be 29ef 04c0 ae4c b13f
00000090: b20f f43d e2a9 3ec0 be2c 15bf 4e4d 813f
000000a0: ae57 1cbe e2c3 dc3e 428c b73f 8644 e5be
000000b0: 3ce4 84bc 9749 9a3f 1176 d73f b528 7d3e
000000c0: 892e 0fbf e1dd 283f a8f0 fabe 142d 37c0
000000d0: c2ef 073e 3093 18bf 052f 163f 6459 f3bf
000000e0: da6f 05bf 0334 77bf b52c 9a3e 633a 7a3f
000000f0: 0173 99be 9bb2 f23e 49d7 1d3f b508 a7bf
00000100: d58c 5e3f 4e7a 84bf 83eb 7ebf 7a94 8dbe
00000110: d60a d0bf a5c6 543e 9e7c 11c0 3b72 05c0
00000120: e8f6 fc3e 8a49 05be 4905 8c3f 89a3 1ebe
00000130: 20fc 203f ed7a b3be eb58 fc3f 8f3c 6fbe
00000140: 0dfb 24bd 3064 f3bd a544 48bf ae90 f2bd
00000150: 637e 3bbd 62d5 e9bf ba0d b7be f582 40c0
00000160: 87e6 963f 4434 15c0 7122 ccbe 0ff4 973e
00000170: aeb2 953f 16fe 9ebf ccfa 00c0 efee c8be
00000180: d0eb 31bf 4897 803f ed7e 02bf dcb5 d1bf
00000190: 5ce9 20bf 22d5 8abf 5efc 17be f4e2 eabe
000001a0: d453 c5be f870 1cbf ac7d a4bf 586d b0bf
000001b0: a565 033e 722e 283f 9975 55bf cddc 76be
000001c0: fdf7 29bf 2863 b0bf 138c 21bf 768e debf
000001d0: 0a81 863f ead5 7bbf b0d7 9a3f 2c78 5dbf
000001e0: b886 0abe be20 65bf 33b0 ab3d f772 92bf
000001f0: b803 1f3f e238 87bf 8802 96bf 671f b3bf
00000200: f5b9 8b3f 9ddc fabd 9f55 c0bf ce4f 20bf
00000210: b956 0ebf 00f6 fe3e 6870 1cbe 1a89 8a3e
00000220: d1b6 25bf 5247 143d 27ec da3b d0c8 143e
00000230: 2d1e 46bf 1876 023e 5b51 cabe e8fb 99be
00000240: 29cd 143f 56c4 1240 13f4 9fbf a117 b5bb
00000250: 58b7 8c3f 20dd 94bf e3df b83e fad6 21bf
00000260: 0cf6 bb3e df3a e0bf 21e2 bcbe 6ef3 783f
00000270: f70c 873f a32b 163f 6c48 54bf 928d 95bf
00000280: c38e 90bf c886 a23e 4ce4 b63f cb65 933f
00000290: a3c3 3f3f 120f 76bf ff5f f43e 22d8 8dbf
000002a0: abf9 3abe 9d49 99bf 598b 9b3e 1458 373f
000002b0: 50ba d8be b611 003f c714 c9bd 5a00 80bf
000002c0: 1e46 55be 8c86 543e 60f7 b63f ced2 b3bf
000002d0: b5b7 153f d875 dfbf 4f25 983f c9f2 42bf
000002e0: fef6 4fbf 4304 b6be 570c 2e3e f6da 8abf
000002f0: a1d6 e23f 9446 cfbf 3538 2fbe 0e19 593d
00000300: 25ac a43d 5069 903f e841 2fbe 9b0b 08bf
00000310: e1ba ad3e 0289 063f 4503 a7bd 7368 c0be
00000320: b997 babf 2f7c 243f 47d2 a73f a473 34be
00000330: 617b 92be fd6f 23bf b6e0 4a3d c6c5 073f
00000340: e6a0 e8be 1bcf 90bf 1c0e 6f3f 40a8 cbbc
00000350: 9999 673d fbb9 c8bf b30a b53e 70b2 c3bf
00000360: 91d8 9c3f 7d5a 8ebf 018c dd3c b052 a3bf
00000370: b327 b43e 8b6c 883f 162a 4fbf d521 6abf
00000380: f270 57bf fa3c 57bf a778 6d3f 7ee5 f3bf
00000390: ca2f 043e fcc9 03bf 162f 8dbf d91c 03c0
000003a0: 7a07 e93e 9491 e5bf 4201 2ebe 5aa2 b2bf
000003b0: de64 5dbf f407 e53e 294d fa3e 9616 54bf
000003c0: 2f3b b33e 1216 293e 13aa 03bf 02bb 49be
000003d0: c796 b73e ccc0 f93e 8e2a f4bf 7a40 263f
000003e0: 5eae 4f3f b2a7 203f 8abb 1c3f 26fd 2bbf
000003f0: a5e4 e13d a3c6 5dbf a1f5 07bf 0f0e 713f
