cadrl_output/il_model.pth (torch, 112975 bytes, 7 tensors)

value_network.0.weight f4 [150, 14]
-0.035149537 0.01876686 0.17650399 -0.20105337 -0.25158846 0.026403325 -0.06281114 0.024726849
-0.016955968 -0.25809273 -0.25583228 -0.07139783 -0.15749696 -0.16449623 -0.10736233 -0.24435286
-0.26720473 -0.2856591 -0.039764322 0.05687276 -0.20920315 -0.12364727 -0.21568218 -0.060368944
-0.57288563 0.18356946 -0.03337173 -0.22143976 -0.20633401 0.26449215 -0.25701612 0.2618337
-0.03983373 0.19882968 0.042281207 0.25396207 0.23408145 0.6015398 0.2957327 0.02834871
-0.16084209 -0.008214462 0.106420815 -0.048667006 -0.059788994 0.25985485 0.26751924 -0.34294525
-0.40694883 0.2502002 0.20389102 0.9686381 0.05771744 -0.084304206 -0.23025063 0.050460495
0.25292 -0.2544077 0.17812642 -0.23414813 0.13895398 -0.22026734 0.19748163 -0.18705723
-0.031294473 -0.06487287 -0.15294915 -0.0117685795 0.04508927 -0.15455374 0.026986953 -0.08670615
-0.13300511 -0.3967809 -0.25156 -0.1451713 0.6279713 0.048090126 -0.27439058 -0.62713057
-0.1550378 0.15548803 -0.043419518 0.002987851 0.16897473 -0.25932685 0.13714857 -0.024836013
-0.4568369 0.20832376 -0.09975895 -0.031186508 -0.02415733 -0.0947941 0.051217128 0.043280754
0.18036403 -0.252467 -0.04764186 -0.017870735 -0.10582431 -0.23505749 -0.1094625 -0.53996104
0.11625515 0.27048978 0.15862127 0.31889984 -0.17988 0.01257458 -0.20481923 -0.27274758
-0.06379186 -0.11520658 -0.26609293 0.1648265 0.20850286 -0.22445357 -0.5230245 -0.3562478
0.27878273 -0.17813359 -0.10138827 -0.11943301 0.056477536 0.17522441 -0.16508442 -0.34564924
-0.12334617 -0.30215225 -0.37335652 -0.3772848 0.09209255 -0.16764727 0.28008598 0.8155923
-0.46372446 0.09444761 -0.079812676 -0.024600018 -0.23913796 -0.016068336 0.0072527747 0.13225013
0.05411168 0.20117246 -0.020187797 -0.12658304 -0.4269988 -0.4408331 0.13546668 0.058320303
0.19492662 -0.20668353 -0.07231037 -0.17885193 0.25733218 0.124086194 -0.074922346 0.10642957
-0.2725486 -0.28815886 0.15537179 0.592187 -0.26769415 0.22144887 -0.1043661 -0.23411368
-0.18525872 -0.22817297 0.18462236 0.012100739 -0.24488688 -0.09188164 -0.17146069 -0.2503276
0.18359181 -0.18339393 0.17627154 -0.022718795 -0.2583991 -0.2533575 0.12185889 -0.20498346
0.22968747 -0.22913954 -0.3469184 -0.3447827 -0.1645397 0.2509042 0.024421925 0.5542199
0.23553315 -0.12164268 -0.07127165 -0.081665084 -0.23261832 0.33303794 0.18532746 0.20016773
0.22760935 -0.4503566 0.14016426 0.07095771 -0.002857918 0.39479893 0.047067203 0.14290838
0.0831232 0.026284596 -0.030902037 -0.12134807 0.033630677 0.090068094 -0.14322615 0.11247492
0.49519038 0.3495369 0.11784592 0.16516934 -0.34413528 -0.14984588 -0.23746072 0.024346687
-0.020710386 -0.26014 -0.026957339 -0.12930651 0.084399834 -0.26696596 -0.115543 -0.19419076
-0.13082998 -0.19500045 0.21652229 -0.21357453 -0.22560826 0.14042217 0.03319881 -0.1029131
0.059223704 -0.18568307 -0.099701926 -0.19795223 -0.49147472 -0.14233129 0.37462965 0.5264383
-0.07282191 -0.35245058 -0.124035925 -0.12870412 -0.13849826 -0.0028352 -0.16083474 -0.0015852929
00000000: f6f8 0fbd f5bc 993c 76bd 343e efe0 4dbe
00000010: 34d0 80be c94b d83c 21a3 80bd f68f ca3c
00000020: 3ee7 8abc bb24 84be 73fc 82be 0739 92bd
00000030: e246 21be b371 28be c8e0 dbbd a337 7abe
00000040: 0fcf 88be e941 92be eadf 22bd 69f3 683d
00000050: 5a39 56be c83a fdbd cadb 5cbe 6d45 77bd
00000060: a2a8 12bf a2f9 3b3e ccb0 08bd 1bc1 62be
00000070: 3949 53be 846b 873e 9e97 83be 110f 863e
00000080: b128 23bd 029a 4b3e 0f2f 2d3d 5107 823e
00000090: 0cb3 6f3e 83fe 193f 476a 973e 8e3b e83c
000000a0: cab3 24be f395 06bc 28f3 d93d 0e57 47bd
000000b0: 4ee5 74bd b20b 853e 48f8 883e 8596 afbe
000000c0: 995b d0be 3e1a 803e cfc8 503e abf8 773f
000000d0: 1f69 6c3d afa7 acbd d2c6 6bbe aaaf 4e3d
000000e0: bb7e 813e ba41 82be c666 363e 87c4 6fbe
000000f0: f449 0e3e c38d 61be a038 4a3e ee8b 3fbe
00000100: a22e 00bd 11dc 84bd b49e 1cbe 00d1 40bc
00000110: 87af 383d 5643 1ebe be13 dd3c fe92 b1bd
00000120: 7e32 08be de26 cbbe 79cc 80be c9a7 14be
00000130: bac2 203f 27fa 443d ec7c 8cbe a18b 20bf
00000140: 3bc2 1ebe 4138 1f3e aad8 31bd d2cf 433b
00000150: b607 2d3e 7dc6 84be ad70 0c3e e574 cbbc
00000160: 87e6 e9be d352 553e 6c4e ccbd d97a ffbc
00000170: 98e5 c5bc 6923 c2bd 0dc9 513d 2947 313d
00000180: 59b1 383e 5b43 81be 1c24 43bd a665 92bc
00000190: 6aba d8bd e9b2 70be e02d e0bd e33a 0abf
000001a0: 2e17 ee3d a37d 8a3e 9d6d 223e d746 a33e
000001b0: 7632 38be 9c05 4e3c 22bc 51be 92a5 8bbe
000001c0: 4fa5 82bd 6df1 ebbd 553d 88be 47c8 283e
000001d0: c681 553e 28d7 65be efe4 05bf 1d66 b6be
000001e0: 9cbc 8e3e a768 36be a7a4 cfbd 4b99 f4bd
000001f0: fd54 673d 076e 333e e40b 29be f0f8 b0be
00000200: eb9c fcbd b3b3 9abe 9628 bfbe 792b c1be
00000210: 059b bc3d baab 2bbe 6e67 8f3e a8ca 503f
00000220: 4b6d edbe c06d c13d d474 a3bd fa85 c9bc
00000230: 95e0 74be bea1 83bc afa8 ed3b 946c 073e
00000240: 35a4 5d3d 2700 4e3e e160 a5bc fc9e 01be
00000250: 969f dabe e0b4 e1be c7b7 0a3e 45e1 6e3d
00000260: d89a 473e d9a4 53be 7617 94bd f624 37be
00000270: 0bc1 833e e720 fe3d e370 99bd bff7 d93d
00000280: 7d8b 8bbe 8f89 93be c819 1f3e 9199 173f
00000290: 350f 89be 7ec3 623e e5bd d5bd 7fbb 6fbe
000002a0: 76b4 3dbe 2da6 69be a50d 3d3e 2e42 463c
000002b0: a0c3 7abe 712c bcbd 6493 2fbe f02a 80be
000002c0: 7eff 3b3e 9ecb 3bbe 8780 343e c41c babc
000002d0: e34c 84be 13b8 81be 2791 f93d 2fe7 51be
000002e0: 3133 6b3e 8ea3 6abe 4a9f b1be 5c87 b0be
000002f0: 187d 28be 8476 803e 7d10 c83c 5be1 0d3f
00000300: 9a2f 713e cc1f f9bd dff6 91bd 0640 a7bd
00000310: 7f33 6ebe f383 aa3e 7bc6 3d3e c5f8 4c3e
00000320: 6d12 693e 2495 e6be 3887 0f3e 4752 913d
00000330: e84b 3bbb 1623 ca3e 8ac9 403d 9356 123e
00000340: 7f3c aa3d cb52 d73c 4526 fdbc 5685 f8bd
00000350: 52c0 093d 9f75 b83d e0a9 12be 4059 e63d
00000360: 9889 fd3e 80f6 b23e 3459 f13d 2722 293e
00000370: 8032 b0be 3371 19be e728 73be b472 c73c
00000380: d4a8 a9bc 1231 85be a3d5 dcbc ed68 04be
00000390: d2d9 ac3d c3af 88be cfa1 ecbd f1d9 46be
000003a0: 4bf8 05be 33ae 47be 05b8 5d3e 48b3 5abe
000003b0: da05 67be d4ca 0f3e 7afb 073d 1ac4 d2bd
000003c0: 8e94 723d b423 3ebe 8630 ccbd fdb3 4abe
000003d0: 93a2 fbbe 4bbf 11be 75cf bf3e a9c4 063f
000003e0: a723 95bd 6774 b4be 8c06 febd 03cb 03be
000003f0: 7dd2 0dbe c3ce 39bb ddb1 24be 9ac9 cfba

value_network.0.bias f4 [150]
-0.016547458 -0.08880683 0.17917219 0.035186928 -0.2751046 -0.34234372 -0.35148242 -0.22851564
0.25166348 0.044058226 0.18485622 0.035358563 -0.18068601 -0.43522567 0.11594666 -0.20291671
0.20405737 -0.16955134 0.21296802 -0.33465278 0.029766096 0.069332674 -0.25428328 0.029476663
-0.090688035 -0.28060105 -0.13853335 0.078622274 0.2563324 0.06296898 -0.18014897 -0.01825459
-0.21109979 -0.22274607 0.31900847 -0.20241685 0.023726795 -0.2291629 0.017467089 -0.1327615
-0.37357843 0.34579757 0.0939053 0.14629272 -0.19587465 -0.02711809 -0.07946712 0.115973875
-0.056068648 -0.1174106 0.03222692 -0.123120524 0.060806364 0.40124366 -0.26477697 -0.2863174
-0.24049221 -0.14091176 -0.12461879 -0.2369628 -0.32859853 0.24877949 -0.25563538 -0.22803661
0.25803238 -0.16463135 -0.19528328 -0.057287075 0.2613576 0.024664458 -0.042706974 0.03903168
-0.32532534 0.21523239 -0.29899317 0.039044082 -0.21590401 0.24161103 -0.41228986 0.037172146
-0.17857723 0.11034219 -0.3195482 0.08604957 -0.04812063 0.11450968 0.11859901 -0.4563451
-0.059565667 0.3725937 -0.03208068 0.00097137137 -0.22925763 0.056129765 0.31777006 -0.2029554
-0.2312532 -0.07974631 0.17398949 -0.19522741 -0.37942278 0.3420011 0.25928313 -0.24728763
-0.13608053 0.18519537 0.004288682 -0.11233627 0.2914921 -0.20329396 -0.06525396 0.28429455
0.16481066 0.04261041 -0.1521925 0.15802597 0.08346232 0.29390126 -0.17576991 -0.123047285
-0.15906145 0.24330953 -0.17644073 -0.077010915 0.11426979 0.11320545 0.2693016 0.044256434
-0.2902518 -0.15426753 0.03098849 -0.13863416 0.1749452 0.2879639 0.18965805 -0.17665191
-0.0323994 -0.2240839 -0.030630149 -0.12127513 0.13762869 0.12520128 0.0720688 -0.22261293
-0.39186877 0.03299064 0.3460585 -0.23534381 0.24848169 -0.08436683
00000000: 898e 87bc 5be0 b5bd ea78 373e 2b20 103d
00000010: 83da 8cbe ad47 afbe 81f5 b3be 0100 6abe
00000020: 09da 803e 6676 343d f34a 3d3e 24d4 103d
00000030: c105 39be e6d5 debe 7175 ed3d 66c9 4fbe
00000040: 6af4 503e de9e 2dbe 4a14 5a3e 9c57 abbe
00000050: 07d8 f33c 4afe 8d3d 6b31 82be 0b79 f13c
00000060: a6ba b9bd f1aa 8fbe b0db 0dbe b704 a13d
00000070: 003e 833e e1f5 803d f978 38be a68a 95bc
00000080: 8b2a 58be 8c17 64be 1455 a33e 5d46 4fbe
00000090: b25e c23c aea9 6abe 2417 8f3c a1f2 07be
000000a0: ac45 bfbe 610c b13e 6c51 c03d c2cd 153e
000000b0: 5d93 48be c226 debc a8bf a2bd b683 ed3d
000000c0: 3da8 65bd f874 f0bd 6000 043d 9d26 fcbd
000000d0: 1810 793d cf6f cd3e d990 87be 3298 92be
000000e0: 9743 76be 2c4b 10be 2338 ffbd 60a6 72be
000000f0: 113e a8be 0dc0 7e3e a4e2 82be 6e82 69be
00000100: d21c 843e 1f95 28be 57f8 47be daa5 6abd
00000110: aad0 853e 1e0d ca3c 82ed 2ebd afdf 1f3d
00000120: 0b91 a6be e165 5c3e a215 99be b0ec 1f3d
00000130: f115 5dbe e268 773e a817 d3be d241 183d
00000140: f3dc 36be 16fb e13d d29b a3be c23a b03d
00000150: 231a 45bd 0d84 ea3d 0ae4 f23d 11a6 e9be
00000160: 21fb 73bd 9ac4 be3e 0867 03bd a1a3 7e3a
00000170: 83c2 6abe 53e8 653d c2b2 a23e 8ad3 4fbe
00000180: a4cd 6cbe 0952 a3bd 4d2a 323e b2e9 47be
00000190: b443 c2be c51a af3e c2c0 843e f838 7dbe
000001a0: b258 0bbe dba3 3d3e 1288 8c3b 8f10 e6bd
000001b0: 743e 953e 4b2c 50be dea3 85bd 0e8f 913e
000001c0: 20c4 283e 4188 2e3d 5ad8 1bbe 8fd1 213e
000001d0: 4bee aa3d 3a7a 963e 07fd 33be 3700 fcbd
000001e0: 01e1 22be 2226 793e e1ac 34be e6b7 9dbd
000001f0: 4806 ea3d 42d8 e73d e6e1 893e 3c46 353d
00000200: e29b 94be 4ff8 1dbe 93db fd3c 1df6 0dbe
00000210: d624 333e 0170 933e b835 423e 3de4 34be
00000220: 3cb5 04bd 4076 65be 14ec fabc 185f f8bd
00000230: 89ee 0c3e c434 003e cf98 933d a5f4 63be
00000240: 06a3 c8be 3121 073d 942e b13e f8fd 70be
00000250: fc71 7e3e 84c8 acbd

value_network.2.weight f4 [100, 150]
-0.06634253 0.04519454 0.07020923 -0.045536812 -1.1532053 -0.048461463 -0.120157294 -0.32887635
-0.13481003 -0.089306414 -0.32096168 -0.39740175 -0.041300185 0.3685638 0.05354576 -0.033876896
-0.044611063 -0.40210754 -0.21000578 -0.11767617 0.05471164 0.056066327 0.09425995 -0.026344923
0.087177366 0.026054997 -0.2812804 0.23939459 -0.072288774 -0.041988242 0.016343221 0.098641776
-0.21585007 -0.08331372 0.24566305 0.063982375 -0.011643879 0.07296197 -0.08575841 -0.024446117
-0.18158564 0.020452645 0.12852974 0.02252408 -0.16736852 0.06965349 -0.017962927 -0.48274562
0.070560046 0.027896315 -0.05248145 0.00026657962 -0.07425044 -0.07887556 -0.1907435 0.017552216
-0.041526 0.028796306 -0.019468924 -0.037611302 -0.444966 0.045708902 -0.011150729 -0.4038528
0.06633301 -0.12663385 0.03379229 0.010989652 -0.039085828 -0.12836409 0.039487362 0.14916247
-0.22499558 0.11579714 -0.62098897 -0.2507687 0.06487518 0.05625225 -0.14107712 0.1880537
-0.45030287 -0.26286522 -0.053097855 0.017166408 -0.3487394 0.05700424 0.026313704 -0.076059245
-0.13102831 0.09511825 -0.107525215 -0.06612173 0.03809402 0.06475208 0.054767124 0.61526394
-0.063775904 0.026069574 0.0057435753 0.37564084 -0.073813245 0.06017345 0.069381244 -0.09825029
-0.24022385 -0.12777638 0.06431191 0.0077840085 -0.016231123 -0.017730609 7.695811e-06 0.0045796703
0.048474308 -0.19515891 -0.5350741 0.038732484 0.00082238636 -0.0020848373 -0.15784684 0.093293704
-0.05794321 -0.08187896 -0.07138735 -0.030725475 0.16192216 -0.17455249 -0.05894933 0.10386005
-0.022415595 -0.20615318 -0.3041914 -0.2439342 -0.13513729 0.14098005 -0.08345297 0.0934796
-0.17349702 -0.07939983 0.09594797 -0.018212728 -0.17090277 0.019859605 -0.028265446 -0.3334521
-0.09685717 0.019830028 0.0116836615 -0.3331553 -0.12322829 0.23804596 0.044497855 -0.04057721
-0.036783505 0.044833712 0.008352202 0.032524243 -0.044768658 -0.04895223 -0.040204175 -0.07789953
0.027148359 -0.06313276 -0.06210522 -0.08361332 0.019565172 -0.07289258 -0.025213804 -0.010873634
0.021708308 -0.10399644 -0.054474603 -0.029815128 -0.09501004 -0.060002692 0.021030262 -0.010852475
-0.09300068 0.027757114 -0.09582083 0.041843288 -0.006862743 -0.026578024 -0.043979447 -0.06632436
-0.06871378 -0.053598948 0.06485778 0.05456459 0.061836485 -0.075939134 0.015665974 -0.053827032
0.005533678 0.023583459 -0.015079224 -0.07831894 -0.026943631 0.016470876 -0.06862111 -0.009794435
0.051240407 0.043602012 -0.011149734 -0.060030706 -0.07995684 -0.10153941 -0.082283065 0.024429478
-0.02738981 -0.018640412 -0.08575173 0.030849265 -0.0852218 0.032403637 0.043644857 -0.086671464
0.0701803 -0.021123894 0.025633143 -0.0515976 -0.007677018 0.0405243 0.030758884 0.0659506
0.05967972 -0.04923919 0.048728388 0.009927488 -0.024480572 0.0599165 -0.017249713 -0.05010276
0.020260334 -0.032420643 0.0046976637 0.06097801 -0.02284652 0.0104500465 0.072623916 -0.00869702
0.05926837 0.0080352025 0.047766045 -0.08613514 -0.0700012 -0.03312481 0.070119455 -0.037711922
-0.042357054 0.050703727 -0.015192403 0.024617666 0.023782833 -0.028473986 -0.017990947 0.023335466
00000000: 98de 87bd e91d 393d dbc9 8f3d cf84 3abd
00000010: 3b9c 93bf 877f 46bd 0715 f6bd 7b62 a8be
00000020: a40b 0abe 48e6 b6bd 1755 a4be 3e78 cbbe
00000030: 622a 29bd 65b4 bc3e cd52 5b3d 80c2 0abd
00000040: 17ba 36bd 0ae1 cdbe c10b 57be 3400 f1bd
00000050: 5019 603d cea5 653d 5c0b c13d 4fd1 d7bc
00000060: 0c8a b23d 4a71 d53c fc03 90be db23 753e
00000070: 230c 94bd ddfb 2bbd 38e2 853c b304 ca3d
00000080: cd07 5dbe 62a0 aabd 188f 7b3e 3109 833d
00000090: f8c5 3ebc 166d 953d 1ba2 afbd 3943 c8bc
000000a0: 96f1 39be 4e8c a73c 4d9d 033e 6b84 b83c
000000b0: a762 2bbe 7da6 8e3d fd26 93bc 6f2a f7be
000000c0: c981 903d d086 e43c caf6 56bd b6c3 8b39
000000d0: 9d10 98bd 8289 a1bd 4452 43be aac9 8f3c
000000e0: 2b17 2abd 3be6 eb3c 4b7d 9fbc 4f0e 1abd
000000f0: 95d2 e3be 4239 3b3d 8cb1 36bc cbc5 cebe
00000100: 9ad9 873d 4eac 01be c969 0a3d f10d 343c
00000110: 7618 20bd e071 03be 80bd 213d 0cbe 183e
00000120: 3e65 66be 0d27 ed3d 22f9 1ebf c164 80be
00000130: 47dd 843d c268 663d 8576 10be 2691 403e
00000140: 198e e6be 4596 86be 237d 59bd 91a0 8c3c
00000150: f88d b2be 477d 693d d68f d73c f3c4 9bbd
00000160: 492c 06be 5bcd c23d 2e36 dcbd d46a 87bd
00000170: 7a08 1c3d bd9c 843d 7e53 603d f081 1d3f
00000180: f19c 82bd dc8f d53c 9a34 bc3b ff53 c03e
00000190: 662b 97bd 6f78 763d c117 8e3d 7337 c9bd
000001a0: 3efd 75be d0d7 02be f6b5 833d ff10 ff3b
000001b0: 22f7 84bc c83f 91bc 421d 0137 0f11 963b
000001c0: ff8c 463d bdd7 47be 9efa 08bf f4a5 1e3d
000001d0: 6a95 573a c4a1 08bb 9aa2 21be c510 bf3d
000001e0: dc55 6dbd 28b0 a7bd 8833 92bd feb3 fbbc
000001f0: ecce 253e e3bd 32be da74 71bd 94b4 d43d
00000200: e9a0 b7bc d219 53be fabe 9bbe e3c9 79be
00000210: 6e61 0abe 135d 103e 64e9 aabd 3c72 bf3d
00000220: 34a9 31be 619c a2bd 5f80 c43d dc32 95bc
00000230: 2301 2fbe 9cb0 a23c f08c e7bc 3cba aabe
00000240: 0d5d c6bd 9572 a23c d46c 3f3c 5593 aabe
00000250: 1d5f fcbd 52c2 733e 6243 363d 4a34 26bd
00000260: 4daa 16bd 8ea3 373d add7 083c 2438 053d
00000270: 575f 37bd 2282 48bd 22ad 24bd ca89 9fbd
00000280: 3c66 de3c c04b 81bd 0b62 7ebd 763d abbd
00000290: 2447 a03c b448 95bd 2e8d cebc 5427 32bc
000002a0: 9fd5 b13c 16fc d4bd c320 5fbd db3e f4bc
000002b0: a094 c2bd 62c5 75bd a847 ac3c 94ce 31bc
000002c0: 2477 bebd e362 e33c b63d c4bd de63 2b3d
000002d0: dce0 e0bb 28ba d9bc cb23 34bd 11d5 87bd
000002e0: cfb9 8cbd 928a 5bbd 28d4 843d 1f7f 5f3d
000002f0: 4148 7d3d fa85 9bbd ee55 803c bc79 5cbd
00000300: db53 b53b 1932 c13c d90e 77bc ae65 a0bd
00000310: e4b8 dcbc eeed 863c 3989 8cbd d778 20bc
00000320: 76e1 513d 0698 323d 60ad 36bc c2e2 75bd
00000330: 69c0 a3bd e5f3 cfbd 0684 a8bd 5420 c83c
00000340: 9860 e0bc c7b3 98bc 9a9e afbd 99b7 fc3c
00000350: c488 aebd adb9 043d f3c4 323d cf80 b1bd
00000360: b0ba 8f3d 040c adbc 99fc d13c 0158 53bd
00000370: 7f8f fbbb cffc 253d 0efa fb3c 1c11 873d
00000380: b972 743d 08af 49bd 6b97 473d e7a6 223c
00000390: 7b8b c8bc 016b 753d 454f 8dbc 8d38 4dbd
000003a0: 00f9 a53c 82cb 04bd dcee 993b 14c4 793d
000003b0: a028 bbbc ac36 2b3c d9bb 943d f27d 0ebc
000003c0: 64c3 723d 15a6 033c 54a6 433d 9f67 b0bd
000003d0: ca5c 8fbd e1ad 07bd ca9a 8f3d d177 1abd
000003e0: 977e 2dbd b6ae 4f3d 8fe9 78bc fdaa c93c
000003f0: 37d4 c23c 4742 e9bc c061 93bc 052a bf3c

value_network.2.bias f4 [100]
0.0097406525 -0.017395634 -0.054799177 0.09190673 0.017602975 -0.045934666 -0.048507135 0.020072112
0.06364685 -0.025081405 0.015501003 0.0574776 0.017878795 0.09927436 0.02981129 -0.06510233
0.23050189 -0.018096944 -0.07310259 0.01637812 0.03721688 0.08127249 0.0003517582 0.2571344
-0.17703801 -0.054301832 -0.0077357446 -0.05769819 0.07737173 -0.022105508 0.07127107 -0.058985528
-0.10702863 0.01867782 0.019001981 -0.01886153 -0.08156346 -0.118907735 -0.06891863 0.020843793
-0.040459443 0.028758584 -0.025123851 -0.096093744 -0.026997017 -0.08808188 0.018042522 -0.12714982
-0.07852507 0.12645438 0.06464923 -0.059196945 0.03807747 0.08935302 -0.057324864 -0.016648151
0.06275409 -0.010085335 -0.074559286 -0.036773305 0.08441845 -0.09546916 -0.19638436 -0.11666345
-0.105044 0.07890732 -0.17455956 0.11096446 -0.008731504 -0.047418922 -0.004995538 -0.0475382
-0.098673016 -0.086343184 -0.06512593 -0.022656983 0.07134901 0.014473064 -0.1071472 -0.09634232
-0.060676783 -0.0139441835 -0.03646961 0.008350295 -0.044623986 -0.04911213 -0.021193333 -0.09590296
-0.086394146 0.0022988324 0.20800863 -0.032024395 -0.11472985 0.16205998 -0.006649612 0.08566368
0.018658869 -0.06032707 0.07281311 -0.01170547
00000000: 4297 1f3c 4a81 8ebc 1a75 60bd 9839 bc3d
00000010: 1d34 903c fd25 3cbd 6baf 46bd 456e a43c
00000020: 4859 823d 8577 cdbc ebf7 7d3c a26d 6b3d
00000030: 8d76 923c 5b50 cb3d ce36 f43c 5f54 85bd
00000040: b008 6c3e 0b40 94bc d0b6 95bd 682b 863c
00000050: ba70 183d 3172 a63d 306c b839 1fa7 833e
00000060: 7449 35be 996b 5ebd 217c fdbb f054 6cbd
00000070: 1275 9e3d 9c16 b5bc 91f6 913d cf9a 71bd
00000080: d431 dbbd 3a02 993c 0baa 9b3c 7f83 9abc
00000090: be0a a7bd e685 f3bd 3625 8dbd 9ac0 aa3c
000000a0: cdb8 25bd 1f97 eb3c 89d0 cdbc cccc c4bd
000000b0: d928 ddbc 4664 b4bd e9cd 933c 9033 02be
000000c0: c0d1 a0bd 427d 013e d166 843d 7f78 72bd
000000d0: 1ff7 1b3d b7fe b63d 7acd 6abd b461 88bc
000000e0: 3785 803d f63c 25bc 8ab2 98bd 9b9f 16bd
000000f0: 95e3 ac3d 5685 c3bd fb18 49be 3fed eebd
00000100: 4f21 d7bd 299a a13d bebf 32be 5641 e33d
00000110: 950e 0fbc 583a 42bd 9cb1 a3bb 6ab7 42bd
00000120: 1415 cabd b2d4 b0bd be60 85bd 239b b9bc
00000130: 6e1f 923d 6e20 6d3c fe6f dbbd 1f4f c5bd
00000140: 3888 78bd 2576 64bc 2861 15bd adcf 083c
00000150: a4c7 36bd cd29 49bd a49d adbc c568 c4bd
00000160: 6aef b0bd 02a8 163b 3700 553e 032c 03bd
00000170: 7cf7 eabd 0df3 253e fde4 d9bb 7170 af3d
00000180: 7cda 983c 8519 77bd 0a1f 953d 4dc8 3fbc

value_network.4.weight f4 [100, 100]
0.04065664 -0.055391986 -0.007071663 0.07326824 0.034028567 0.084360555 -0.06278106 -0.08172588
0.009862997 -0.08368892 0.045591142 -0.028578069 -0.10342998 0.03791485 0.074927084 -0.093429714
0.0075336564 -0.07555529 -0.0029197016 -0.04229536 -0.106647976 -0.12204892 0.015426494 -0.07366419
0.04080722 0.014371372 -0.05383581 0.06413157 0.012808198 0.016464371 -0.039726056 -0.08898643
-0.056888487 -0.0018561628 -0.023819037 0.012341306 -0.13425785 -0.045180965 -0.0667989 -0.045599416
-0.106045686 -0.0640667 -0.041881826 0.028529111 -0.049911935 -0.071292415 -0.027499659 -0.05795863
-0.077405535 -0.131313 -0.051168047 0.034639783 -0.04450269 -0.117135584 -0.030951558 -0.027189264
-0.060164984 -0.087556526 -0.040192984 -0.063904196 0.04630434 0.082518786 -0.002340217 0.06190833
-0.08962339 -0.041996934 0.016337726 0.053461272 -0.056130756 0.035443895 -0.09685659 -0.036539193
0.0845138 0.09087211 0.033296753 -0.00673833 -0.04235001 0.018674994 0.066688135 0.06422352
-0.11310702 -0.018666936 0.013417109 0.068660095 0.021357834 -0.0052516586 -0.027314536 0.05149546
-0.022058224 0.018280832 -0.15772326 -0.09129896 -0.059245706 -0.037029747 0.08443779 -0.12714328
0.059577577 -0.07700174 0.080461025 0.052527826 -0.023767952 -0.08537374 0.012635016 -0.11390409
0.098515205 0.09960336 -0.04077437 0.115601294 -0.0871862 0.05917799 0.0612798 -0.051112145
-0.0038756656 -0.19932632 -0.0010906105 -0.00070886425 -0.070449844 -0.04198192 -0.07043012 0.036606118
-0.075146295 0.08316132 0.05832307 -0.017827664 0.035775337 -0.032575183 0.109304465 0.047091898
0.08829538 -0.0673824 0.039050087 -0.1205454 0.08097864 -0.06657015 0.061249606 -0.05618777
-0.063678555 -0.027447833 0.06299972 -0.051908664 0.03530224 0.099454254 0.13492955 -0.16159631
-0.0038386253 -0.075058274 0.008043884 -0.05717844 0.038282998 -0.108441785 0.056435965 0.060071036
0.03502474 0.06022267 0.12996796 -0.016109534 0.05151912 -0.06295834 0.06423491 -0.03558646
-0.04019893 -0.09114506 -0.14259675 -0.019467853 0.114894904 -0.19584548 -0.187561 -0.017349532
0.05775528 -0.06824792 0.06580279 -0.22666875 -0.041380383 -0.051919647 -0.04960794 -0.14527008
0.35490957 0.09469803 -0.061548244 0.06623731 -0.11116716 0.034702018 0.07912635 0.048354004
-0.11033413 -0.007813327 -0.005730948 0.029565552 0.26609194 -0.17217754 0.086880796 -0.0530637
0.10074728 0.04161524 0.050227728 0.029654931 0.022031382 0.03396379 -0.0963911 -0.09296273
-0.047613543 0.058075197 -0.02931916 0.017247237 0.19333842 0.03955919 -0.03824572 0.07028662
0.054564033 0.027494473 0.022306273 -0.01859483 0.016588112 -0.16558184 0.010940614 0.040443573
-0.041637894 -0.06651888 0.06546583 0.03899092 -0.044726063 0.008393611 0.0024473371 0.030159583
0.09624303 -0.059748802 0.08074201 -0.063489504 0.04992933 0.08582097 -0.077559136 0.0024804967
0.050355107 0.06315631 -0.09239454 -0.02082062 -0.0065718135 -0.019901162 0.08265539 -0.06810853
-0.040057603 -0.07408703 0.0049393233 -0.026029618 -0.04322191 -0.079662025 -0.076039046 -0.0038848496
0.06452155 0.01751046 -0.044592597 -0.071535 0.008953687 0.1067595 0.14464302 0.011519705
00000000: 9487 263d b5e2 62bd 69b9 e7bb a90d 963d
00000010: 8a61 0b3d 3ac5 ac3d 5b93 80bd e65f a7bd
00000020: 6898 213c 1965 abbd c7bd 3a3d 8e1c eabc
00000030: 19d3 d3bd 9a4c 1b3d 5f73 993d 1458 bfbd
00000040: e4dc f63b bbbc 9abd 7758 3fbb e63d 2dbd
00000050: 416a dabd c9f4 f9bd 68bf 7c3c 40dd 96bd
00000060: 7925 273d e775 6b3c f082 5cbd 6a57 833d
00000070: 7ad9 513c 4ae0 863c cab7 22bd 843e b6bd
00000080: e703 69bd 7d4a f3ba 2420 c3bc 3033 4a3c
00000090: e47a 09be ad0f 39bd ddcd 88bd 74c6 3abd
000000a0: 7b2e d9bd 6735 83bd 478c 2bbd e2b5 e93c
000000b0: 7570 4cbd c201 92bd f746 e1bc 0766 6dbd
000000c0: cb86 9ebd ea76 06be 9695 51bd 72e2 0d3d
000000d0: 7448 36bd c8e4 efbd 1f8e fdbc 05bc debc
000000e0: 8f6f 76bd d650 b3bd 66a1 24bd 34e0 82bd
000000f0: 9fa9 3d3d 9cff a83d 535e 19bb 9793 7d3d
00000100: 788c b7bd fa04 2cbd b2d6 853c 35fa 5a3d
00000110: 5de9 65bd 9e2d 113d bf5c c6bd 1faa 15bd
00000120: 9215 ad3d 281b ba3d 2d62 083d 35cd dcbb
00000130: 3477 2dbd 4dfc 983c ca93 883d 9f87 833d
00000140: a7a4 e7bd 67eb 98bc 6fd3 5b3c aa9d 8c3d
00000150: a0f6 ae3c 1b16 acbb bcc2 dfbc e7ec 523d
00000160: 73b3 b4bc afc1 953c 3582 21be f3fa babd
00000170: a0ab 72bd 81ac 17bd b8ed ac3d d931 02be
00000180: 9e07 743d 17b3 9dbd c0c8 a43d 6b27 573d
00000190: 02b5 c2bc 6dd8 aebd 1903 4f3c 8c46 e9bd
000001a0: 57c2 c93d d9fc cb3d 0703 27bd 5fc0 ec3d
000001b0: ae8e b2bd 9f64 723d 8700 7b3d f85a 51bd
000001c0: e1fe 7dbb 331c 4cbe d1f2 8eba 13d3 39ba
000001d0: 0248 90bd 3cf5 2bbd ab3d 90bd 4cf0 153d
000001e0: 4de6 99bd 7b50 aa3d 2ce4 6e3d 520b 92bc
000001f0: 2989 123d 8e6d 05bd 05db df3d 6fe3 403d
00000200: 35d4 b43d c9ff 89bd fcf2 1f3d 82e0 f6bd
00000210: 21d8 a53d ee55 88bd dee0 7a3d 2625 66bd
00000220: e769 82bd 47da e0bc ff05 813d 2e9e 54bd
00000230: 1599 103d acae cb3d f92a 0a3e 8179 25be
00000240: 7291 7bbb 27b8 99bd 7fca 033c f133 6abd
00000250: a2ce 1c3d ba16 debd 6629 673d 0c0d 763d
00000260: 1a76 0f3d 0cac 763d 5216 053e 24f8 83bc
00000270: b605 533d 4df0 80bd 988d 833d 1cc3 11bd
00000280: a2a7 24bd 43aa babd e204 12be 0c7b 9fbc
00000290: 054e eb3d b88b 48be fe0f 40be 9b20 8ebc
000002a0: cd90 6c3d 91c5 8bbd 9dc3 863d da1b 68be
000002b0: 7a7e 29bd b2a9 54bd b231 4bbd aec1 14be
000002c0: b5b6 b53e 0af1 c13d 031a 7cbd 6da7 873d
000002d0: 9cab e3bd b423 0e3d ff0c a23d d90e 463d
000002e0: dcf6 e1bd 7803 00bc adca bbbb 7533 f23c
000002f0: 343d 883e 4f4f 30be 8fee b13d 5359 59bd
00000300: 9754 ce3d be74 2a3d 97bb 4d3d e6ee f23c
00000310: 287b b43c 9d1d 0b3d b268 c5bd 3e63 bebd
00000320: 6b06 43bd 42e0 6d3d bc2e f0bc 144a 8d3c
00000330: 82fa 453e d108 223d 8ba7 1cbd 6ef2 8f3d
00000340: 897e 5f3d 173c e13c a5bb b63c 2f54 98bc
00000350: cbe3 873c 498e 29be 4340 333c 29a8 253d
00000360: 7f8c 2abd 0d3b 88bd f312 863d f1b4 1f3d
00000370: ad32 37bd 5b85 093c 8163 203b 3b11 f73c
00000380: 111b c53d 29bb 74bd 115c a53d c906 82bd
00000390: b282 4c3d e8c2 af3d 53d7 9ebd d48f 223b
000003a0: 2841 4e3d 1858 813d 5939 bdbd 0190 aabc
000003b0: 5e58 d7bb c307 a3bc 3b47 a93d 7c7c 8bbd
000003c0: 7113 24bd f1ba 97bd 0cda a13b 113c d5bc
000003d0: 7509 31bd d825 a3bd 5cba 9bbd f698 7ebb
000003e0: e023 843d 1972 8f3c baa6 36bd f180 92bd
000003f0: 7cb2 123c baa4 da3d 4d1d 143e 25bd 3c3c

value_network.4.bias f4 [100]
-0.076000474 0.12002584 0.055085883 -0.06328462 -0.019470511 -0.24085592 0.14869006 -0.27091655
-0.032664903 0.055680607 -0.13628861 -0.06055789 -0.09474488 -0.122125454 0.033861313 -0.13798624
0.2532074 -0.0013611665 -0.019447975 0.17627513 -0.08713256 -0.05329692 -0.09510551 -0.09171177
0.13514085 -0.1335959 0.09374005 0.011137005 0.006718253 0.2047636 -0.1498235 -0.022828495
-0.12882423 0.11034669 0.26511046 -0.07049493 -0.17311983 0.22193107 0.18832491 0.08317415
-0.043146156 -0.023710627 -0.02801284 0.0026381393 0.1727066 -0.023139743 0.17384972 -0.14502475
0.27120292 -0.14815778 -0.08020587 0.06336859 0.15228547 -0.09510349 0.13983378 -0.042412475
-0.15378784 0.09764405 -0.18610683 0.23667414 -0.055837996 -0.1274398 -0.0029520732 -0.035888568
-0.16677211 0.23885337 -0.12905355 -0.04045451 0.18311052 -0.0074646897 0.17500997 0.022069896
-0.059663467 -0.24090327 0.19870311 -0.016241323 -0.14230862 0.0031529595 -0.04968925 -0.1386574
-0.12087132 -0.30250037 -0.28237078 -0.29448202 0.010249739 0.21997876 -0.015853748 0.253151
0.04028187 0.15640898 0.122463964 0.07597738 -0.06993584 0.32439488 0.06143125 -0.0111068385
0.20655513 0.11531918 -0.2854067 0.2028502
00000000: 23a6 9bbd 1cd0 f53d bca1 613d 5e9b 81bd
00000010: 9f80 9fbc efa2 76be 3542 183e 93b5 8abe
00000020: a2cb 05bd 5911 643d 3e8f 0bbe 8d0b 78bd
00000030: 9b09 c2bd e91c fabd 29b2 0a3d 444c 0dbe
00000040: 66a4 813e 2b69 b2ba 5c51 9fbc 7881 343e
00000050: 8e72 b2bd df4d 5abd adc6 c2bd 61d3 bbbd
00000060: 5d62 0a3e 5dcd 08be c9fa bf3d fc77 363c
00000070: ca24 dc3b 8dad 513e 556b 19be d302 bbbc
00000080: 80ea 03be 72fd e13d 8fbc 873e a55f 90bd
00000090: 5346 31be e641 633e 3fd8 403e 3557 aa3d
000000a0: 06ba 30bd ca3c c2bc 2f7b e5bc a2e4 2c3b
000000b0: 00da 303e 8f8f bdbc a905 323e 5e81 14be
000000c0: 1cdb 8a3e acb6 17be fa42 a4bd 64c7 813d
000000d0: b9f0 1b3e 9ec5 c2bd 9630 0f3e b4b8 2dbd
000000e0: 8f7a 1dbe 9bf9 c73d ca92 3ebe b55a 723e
000000f0: 62b6 64bd 947f 02be 9277 41bb e4ff 12bd
00000100: 4fc6 2abe fa95 743e 9d26 04be a1b3 25bd
00000110: 5381 3b3e 5b9a f4bb d035 333e edcb b43c
00000120: ae61 74bd 59af 76be d478 4b3e 860c 85bc
00000130: 5ab9 11be e2a1 4e3b f486 4bbd 35fc 0dbe
00000140: 628b f7bd 54e1 9abe e792 90be 59c6 96be
00000150: 85ee 273c 1d42 613e b8df 81bc 029d 813e
00000160: 9afe 243d ad29 203e 63ce fa3d 079a 9b3d
00000170: 863a 8fbd 1617 a63e 569f 7b3d 75f9 35bc
00000180: 3083 533e 762c ec3d d420 92be f6b7 4f3e

value_network.6.weight f4 [1, 100]
-0.0013365649 0.008708859 0.009310268 -0.04522196 -0.000548893 0.0065732445 -0.082991354 0.026629392
-0.0014328923 -0.02891455 0.105372004 0.23369296 -0.040178996 0.012174628 0.0020859116 0.0068942527
0.10102262 -0.00029367072 -0.0158132 0.039599884 -0.014668132 -0.027125824 -0.045970082 -0.009953465
-0.13779582 -0.0107068 0.023297591 0.022146111 -0.0078082783 -0.07386567 -0.08156053 0.0017028226
-0.035121463 -0.047677446 -0.099916086 -0.05927777 -0.0419941 0.042588565 0.03688549 -0.15131171
0.010538598 -0.010336632 -0.037757557 0.019818474 0.0125544295 0.010141201 -0.09704276 -0.027192773
0.08589777 0.017829925 0.0050434647 -0.033902023 0.043177098 0.0054166717 0.013214576 -0.032891694
-0.049381886 0.0013998518 0.012270059 -0.113483585 0.01594911 0.066628285 -0.020678498 0.0148608135
-0.026915481 0.06135252 0.014047831 0.009331876 0.031907547 -0.0011967005 0.036640745 -0.0054987012
0.01678038 0.013049044 0.01868782 0.10611578 0.01487332 0.026050016 -0.033085033 -0.010703486
0.0071333456 -0.030259505 -0.012832675 -0.031333525 0.011007451 -0.13816243 0.00012546412 0.08409742
-0.049505007 0.06819948 -0.046551544 0.046646938 0.017134622 -0.15281385 0.028877934 0.04577121
0.044076677 -0.1539249 -0.021612475 0.075092085
00000000: ad2f afba 9aaf 0e3c 188a 183c a93a 39bd
00000010: 96e3 0fba 5f64 d73b 5ff7 a9bd e225 da3c
00000020: e3cf bbba 35de ecbc 47cd d73d 354d 6f3e
00000030: bb92 24bd 1778 473c cab3 083b 2fe9 e13b
00000040: f3e4 ce3d d1f7 99b9 af8a 81bc 7d33 223d
00000050: 9b52 70bc fa36 debc 204b 3cbd dc13 23bc
00000060: 591a 0dbe 936b 2fbc 97da be3c c36b b53c
00000070: 96dc ffbb e246 97bd 3509 a7bd 3f31 df3a
00000080: 86db 0fbd 6d49 43bd cea0 ccbd 3fcd 72bd
00000090: 0102 2cbd 5971 2e3d 3d15 173d 75f1 1abe
000000a0: 15aa 2c3c fa5a 29bc aba7 1abd 5a5a a23c
000000b0: 18b1 4d3c 4827 263c 5bbe c6bd 61c3 debc
000000c0: 2ceb af3d 1010 923c a643 a53b d9dc 0abd
000000d0: 78da 303d 567e b13b f381 583c 71b9 06bd
000000e0: a944 4abd 3b7b b73a 5c08 493c 156a e8bd
000000f0: b5a7 823c 6974 883d f465 a9bc c57a 733c
00000100: db7d dcbc c84c 7b3d e028 663c bae4 183c
00000110: 7db1 023d 9bda 9cba 9b14 163d 732e b4bb
00000120: 0277 893c a8cb 553c 3317 993c 3b53 d93d
00000130: 3aaf 733c d866 d53c 2c84 07bd ad5d 2fbc
00000140: d7be e93b c8e2 f7bc 2440 52bc 9557 00bd
00000150: 9958 343c 747a 0dbe 058f 0339 453b ac3d
00000160: c3c5 4abd 2bac 8b3d d5ac 3ebd dc10 3f3d
00000170: e85d 8c3c 3c7b 1cbe 6b91 ec3c 987a 3b3d
00000180: bf89 343d 7d9e 1dbe a50c b1bc e1c9 993d
