crowd_nav/our_circle/best_val.pth (torch, 143871 bytes, 33 tensors)

w_a f4 [32, 32]
-0.5144326 -0.3519587 1.8934715 -2.045092 -0.2718928 -1.7369609 1.4140414 -0.42243394
1.2395514 0.37334988 -1.2385182 0.14817019 -0.51834303 -1.7755977 -0.028322754 -0.727969
-0.8034648 -1.080306 0.9152404 -0.19185397 2.7878556 -0.28272027 0.56707805 -0.20733473
-0.3935613 0.14359878 -0.69400316 -0.6698227 -1.1838583 -0.6449181 -1.7637537 0.59093076
-0.32342273 0.70238185 -0.95651275 -1.3967297 0.6124142 0.054929074 0.23933285 0.043012075
0.35922316 -0.37152514 -0.7926063 0.44283372 0.5724109 -2.1209023 -0.8155774 -0.96300447
0.3224336 0.4416031 -1.2932801 -0.30811682 1.2000399 -1.1708571 -1.5425906 -1.8373194
0.3999108 0.80023533 -0.7613592 -0.4314405 0.13080506 1.0607922 1.6448848 -0.3909022
-0.47953442 -0.9610046 -0.9153347 0.4040025 -0.40930596 -0.3899046 -0.5236878 -0.8535822
-1.3190196 0.52640724 0.59136975 -0.47978848 -0.7565246 0.4420887 -1.0569625 0.25404567
-0.4157313 -0.06553999 -1.8987184 0.9210068 0.084066354 0.2741195 1.1611137 -1.7881609
-1.5422026 0.79995424 -0.67647445 1.3375046 -0.25672325 -0.085897066 2.3494442 -1.2744021
0.14595838 1.3390489 -0.5444099 0.122442044 -0.63092875 1.2294568 1.4591728 0.5641055
1.110662 -0.4760198 -0.5899314 -0.5013238 0.853287 -0.23816845 0.013739979 -0.6834539
-0.09838147 0.3106706 -0.18040282 -0.7794387 -0.54268473 -0.53831697 -1.8861083 0.28999934
0.67891496 -0.31267428 -1.4396058 1.3225412 -1.2440518 -0.4484223 -0.630354 0.3985717
1.1999995 -0.3135437 -1.5988764 -1.187664 -0.5026234 -0.9831232 0.68376815 -0.60330594
-0.58133495 1.221021 0.059290662 -1.0013176 -1.9577185 1.1998644 0.62965316 1.2920403
-0.5092413 0.08237715 -0.7841709 0.22891615 -1.7511472 -0.3193357 -0.6838056 0.80801463
-1.3126007 0.4512892 0.1864022 0.45705727 -0.6680296 -1.5655738 -0.32034695 0.32923165
0.58128744 0.95620656 -1.0851916 0.18921408 -0.48783654 -0.7964559 1.8531381 0.9666667
0.19583479 0.16118285 -0.5340535 0.8561267 -1.5448941 -0.06462018 -0.60311943 -0.3502472
-0.28506237 0.9397313 -0.38380983 -0.1789934 -1.1688244 0.025998417 1.7998397 0.058757428
0.028236613 -0.8183928 0.31031775 0.72752744 -1.6409042 -1.9866834 2.05325 0.506964
-1.076554 -1.0917722 -0.59226614 0.19183095 0.47958064 1.0713114 -1.3277649 -0.63569856
0.69891995 -0.3930654 0.37775388 -0.43030474 -0.3836346 0.3357515 -0.07164359 -0.5804493
-0.6289705 -0.8798298 1.0072836 -1.2062079 -0.86507326 0.5320335 -1.2165614 0.43132097
-0.36728746 -2.0217354 -0.73769593 0.07924491 -0.109351255 0.38081524 0.92130136 -0.9309834
0.1385242 0.8477478 -0.7610996 -0.21836366 0.5250046 0.9134871 -1.148827 0.49305174
-1.2986544 1.1061674 -0.8618693 -1.141812 -0.10680524 0.2964574 -0.75774723 -0.34701154
1.9738935 -1.2016045 -0.54498565 -0.45556396 -0.121361755 0.06828092 0.7206797 -2.5194852
-1.8595585 -0.4420507 -1.040478 2.4135787 -1.1193628 -0.53334796 1.389346 2.1134038
00000000: dbb1 03bf ee33 b4be 465d f23f cae2 02c0
00000010: 8835 8bbe bc54 debf 4fff b43f 4349 d8be
00000020: 9fa9 9e3f b727 bf3e c487 9ebf edb9 173e
00000030: 21b2 04bf c946 e3bf 1f05 e8bc 2d5c 3abf
00000040: deaf 4dbf 7847 8abf 324d 6a3f 5e75 44be
00000050: 3a6c 3240 b6c0 90be 072c 113f 8e4f 54be
00000060: de80 c9be 8f0b 133e 31aa 31bf 8079 2bbf
00000070: ab88 97bf 5a19 25bf aec2 e1bf 3d47 173f
00000080: aa97 a5be 4ccf 333f 05de 74bf 0ac8 b2bf
00000090: 2dc7 1c3f 4ffd 603d ac13 753e 6e2d 303d
000000a0: 19ec b73e 8b38 bebe 3fe8 4abf 1abb e23e
000000b0: 8589 123f ddbc 07c0 aec9 50bf 7687 76bf
000000c0: 0416 a53e cd19 e23e 348a a5bf 7dc1 9dbe
000000d0: e89a 993f a5de 95bf 9c73 c5bf 482d ebbf
000000e0: 1cc1 cc3e 39dc 4c3f 70e8 42bf c5e5 dcbe
000000f0: c3f1 053e 0ac8 873f 968b d23f 5524 c8be
00000100: 8985 f5be 6604 76bf 6053 6abf 6ad9 ce3e
00000110: 8d90 d1be 93a1 c7be 6710 06bf 5d84 5abf
00000120: a2d5 a8bf a0c2 063f 0264 173f d6a6 f5be
00000130: 99ab 41bf 7359 e23e 8c4a 87bf 4612 823e
00000140: bcda d4be d539 86bd 3409 f3bf 1ac7 6b3f
00000150: fb2a ac3d 6459 8c3e 609f 943f 75e2 e4bf
00000160: e566 c5bf cdc9 4c3f 6e2d 2dbf 5a33 ab3f
00000170: 3b71 83be cdea afbd 4b5d 1640 9c1f a3bf
00000180: 1d76 153e f465 ab3f 725e 0bbf e5c2 fa3d
00000190: 8c84 21bf d75e 9d3f 2dc6 ba3f 3869 103f
000001a0: 2c2a 8e3f deb8 f3be bf05 17bf c256 00bf
000001b0: 0471 5a3f 6ee2 73be a61d 613c d6f6 2ebf
000001c0: 397c c9bd 3810 9f3e 84bb 38be 4b89 47bf
000001d0: 63ed 0abf 24cf 09bf ff6b f1bf cb7a 943e
000001e0: 5fcd 2d3f d816 a0be 0145 b8bf 0849 a93f
000001f0: 173d 9fbf 9c97 e5be e15e 21bf 9711 cc3e
00000200: 9599 993f cd88 a0be fba7 ccbf 6005 98bf
00000210: edab 00bf f6ad 7bbf 6e0b 2f3f 4272 1abf
00000220: 5ed2 14bf 6b4a 9c3f c4da 723d 2d2b 80bf
00000230: 8596 fabf 2895 993f f330 213f 9461 a53f
00000240: a35d 02bf 5ab5 a83d 6dbf 48bf ff68 6a3e
00000250: 9725 e0bf f87f a3be e20d 2fbf 0cda 4e3f
00000260: 4d03 a8bf 610f e73e 38e0 3e3e 6903 ea3e
00000270: fd03 2bbf b964 c8bf 8404 a4be 0d91 a83e
00000280: 41cf 143f f4c9 743f 8fe7 8abf 56c1 413e
00000290: b6c5 f9be 89e4 4bbf a133 ed3f 7877 773f
000002a0: ea88 483e 1e0d 253e bbb7 08bf 1f2b 5b3f
000002b0: 17bf c5bf 9657 84bd 0966 1abf 9a53 b3be
000002c0: b2f3 91be 3b92 703f b982 c4be 0c4a 37be
000002d0: 0a9c 95bf a2fa d43c 2661 e63f a1ab 703d
000002e0: 7850 e73c 3182 51bf f8e1 9e3e 3d3f 3a3f
000002f0: 2609 d2bf a44b febf 7368 0340 65c8 013f
00000300: 85cc 89bf 31bf 8bbf c19e 17bf 556f 443e
00000310: 988b f53e bb20 893f 33f4 a9bf 24bd 22bf
00000320: 6bec 323f de3f c9be f568 c13e e750 dcbe
00000330: c16b c4be 9fe7 ab3e e0b9 92bd 5398 14bf
00000340: 3604 21bf 873c 61bf abee 803f 0565 9abf
00000350: 7175 5dbf 5933 083f 49b8 9bbf 1ad6 dc3e
00000360: 1a0d bcbe 1d64 01c0 a4d9 3cbf 284b a23d
00000370: 8df3 dfbd 37fa c23e 68da 6b3f ee54 6ebf
00000380: 4ad9 0d3e 0006 593f 6cd7 42bf b99a 5fbe
00000390: b466 063f 4ada 693f c30c 93bf 4771 fc3e
000003a0: 4f3a a6bf e596 8d3f 77a3 5cbf e526 92bf
000003b0: b5bc dabd 44c9 973e b9fb 41bf 7fab b1be
000003c0: 8ba8 fc3f 2dce 99bf 2e84 0bbf ae3f e9be
000003d0: 838c f8bd ded6 8b3d 777e 383f 3f3f 21c0
000003e0: 0306 eebf 7854 e2be 622e 85bf 1378 1a40
000003f0: 4847 8fbf 7e89 08bf 17d6 b13f 0242 0740

w_r.0.weight f4 [64, 9]
-0.20617583 0.32581586 0.4027676 -0.18567193 -0.31378597 0.03293073 -0.38126633 -0.27207232
-0.021147808 -0.38894823 -0.24654977 -0.5505387 -0.6910916 -0.20516285 -0.09710666 -0.14487071
-0.29009894 -0.23962335 0.31049624 0.068539396 -1.1001133 0.25698683 -0.0857085 -0.31543738
-0.43799105 -0.0450212 0.057583094 -0.29534528 -0.29966113 -0.53278804 -0.66221863 0.20846626
-0.16776602 -0.09369359 0.22841066 0.13754976 0.22338662 0.157368 -0.4174006 -0.25707358
-0.18814445 -0.15083814 0.021225955 -0.26572743 -0.074569985 0.18342099 0.21631706 -0.2666916
-0.1645059 0.05175094 0.22626948 0.18743724 -0.037596367 -0.15053841 -0.16970962 0.011820536
0.79732907 -0.6019309 0.2221627 -0.20792806 0.24618056 -0.21252379 0.21944277 -0.29882792
-0.10834945 -0.8521935 -0.74051166 -0.18161592 0.013089895 -0.24738698 0.08646899 0.09155115
-0.24251004 -0.35576248 -0.053565163 -0.990445 0.2793282 0.11653094 -0.21390429 -0.4154788
-0.26630768 0.35604924 0.07580375 0.3625735 0.3498899 -0.08253276 0.17105433 0.019889718
-0.5189166 0.17824714 -0.11063885 0.24156943 -0.17786886 0.17436819 -0.13993919 -0.045767944
0.22261432 -0.25153586 0.01721712 0.017287536 -0.00104147 -0.18149954 -0.20269546 -0.32178622
0.2905801 -0.11208356 -0.024081096 0.18711524 -0.4294921 0.106267944 -0.61983186 -0.22819647
-0.07340324 -0.1905402 -0.55176204 -0.061149675 0.21319675 0.19923902 -0.34439287 -1.0321027
-0.20560512 0.1339589 -0.12633765 -0.31742784 -0.09478459 0.17298906 0.017733155 0.22645256
-0.064407215 -0.650834 -0.32118315 -0.22128408 -0.1563952 -0.5722013 0.10450196 0.3384306
-0.31898117 -0.82761973 0.057552002 0.087332055 -0.26921508 -0.4308208 -0.32967496 0.092840955
0.042872757 0.07811467 -0.078056596 -0.4849688 -0.21314275 -0.0030560098 0.0548007 -0.05285306
0.18820977 -0.21323796 0.00998728 -0.7092103 0.7654624 0.20820558 -0.03999996 -0.06633616
-0.15463814 -0.29905897 0.46382916 0.2967444 -0.3055374 0.037584044 -0.055527568 -0.30505353
-0.3105862 -0.35205913 0.23026454 0.14735638 -0.37385753 0.3460068 -1.0101488 -0.3099063
0.2294291 -0.29343933 0.18663983 -0.016410789 -0.6519679 -0.3666116 0.5107486 0.241265
0.28647062 -0.04311347 -0.28958967 -0.24321748 0.016522368 0.22247663 -0.019747755 0.77307016
0.8688316 -0.13002746 0.033413332 -0.068904325 -0.17814359 0.27456838 0.39291832 -0.18178113
0.39684492 -0.28636366 0.1626883 0.3147732 0.024196563 -0.0986769 0.14308195 0.28845537
0.26760995 0.42331335 -0.12552112 -0.062309228 0.041944824 -0.012792485 -0.30374253 0.2299912
0.09928393 0.20338741 0.6018677 0.8029459 -0.17720036 -0.011994402 -0.28831694 0.10024556
-0.018897932 -0.4156975 0.2715088 -0.20577072 0.14086363 -0.3260337 -0.1441046 -0.2648739
-0.18584614 -0.25013897 0.48491368 -0.30443668 -0.7607725 0.25002846 -0.02845323 -0.04976964
-0.11618851 -0.34305677 -0.045769297 -0.25312707 -0.35336757 -0.5188379 1.0213145 0.31730664
-0.023932934 -0.42634395 -0.19369248 -0.06550809 -0.24662693 -0.13735811 -1.1485624 -0.28775084
00000000: c21f 53be 56d1 a63e 8e37 ce3e c820 3ebe
00000010: 8ea8 a0be 60e2 063d 5735 c3be 104d 8bbe
00000020: 2b3e adbc 3924 c7be 8b77 7cbe 1bf0 0cbf
00000030: 61eb 30bf 3616 52be dbdf c6bd fd58 14be
00000040: d987 94be d35f 75be 5df9 9e3e 625e 8c3d
00000050: 83d0 8cbf c793 833e f087 afbd 0281 a1be
00000060: 5d40 e0be 2668 38bd 40dc 6b3d 7f37 97be
00000070: 2f6d 99be cc64 08bf 2987 29bf 2e78 553e
00000080: dbca 2bbe 6de2 bfbd 7ce4 693e d8d9 0c3e
00000090: 76bf 643e 1425 213e 88b5 d5be 269f 83be
000000a0: f0a8 40be 5075 1abe 0ee2 ad3c 6d0d 88be
000000b0: 26b8 98bd b6d2 3b3e 3882 5d3e cd8b 88be
000000c0: 3c74 28be cbf8 533d 30b3 673e 8cef 3f3e
000000d0: a6fe 19bd be26 1abe 5cc8 2dbe ecaa 413c
000000e0: c21d 4c3f 2518 1abf 9e7e 633e 18eb 54be
000000f0: c216 7c3e d69f 59be 9bb5 603e f9ff 98be
00000100: 51e6 ddbd 5a29 5abf 2c92 3dbf 86f9 39be
00000110: 0077 563c 0353 7dbe a716 b13d 2b7f bb3d
00000120: 8d54 78be 8026 b6be 2567 5bbd ce8d 7dbf
00000130: 1b04 8f3e c6a7 ee3d ba09 5bbe a3b9 d4be
00000140: 7b59 88be 164c b63e ff3e 9b3d 3ca3 b93e
00000150: c524 b33e f006 a9bd de28 2f3e c3ef a23c
00000160: b8d7 04bf 6b86 363e 9f96 e2bd fa5d 773e
00000170: 4123 36be 938d 323e 384c 0fbe 2b77 3bbd
00000180: 02f5 633e 4fc9 80be eb0a 8d3c 979e 8d3c
00000190: ef81 88ba 04db 39be 668f 4fbe 2ac1 a4be
000001a0: eac6 943e 118c e5bd b845 c5bc 239b 3f3e
000001b0: 63e6 dbbe 02a3 d93d 4dad 1ebf 56ac 69be
000001c0: 7054 96bd f81c 43be 4740 0dbf 1578 7abd
000001d0: 4050 5a3e 5005 4c3e 4354 b0be f11b 84bf
000001e0: 268a 52be 862c 093e a85e 01be e785 a2be
000001f0: 6c1e c2bd 0b24 313e 1f45 913c 2ee3 673e
00000200: eee7 83bd 0f9d 26bf 1e72 a4be 4b98 62be
00000210: 1026 20be c97b 12bf 2005 d63d c746 ad3e
00000220: 8051 a3be e3de 53bf a6bb 6b3d 26db b23d
00000230: 8fd6 89be 8b94 dcbe 28cb a8be 6623 be3d
00000240: 589b 2f3d 96fa 9f3d 23dc 9fbd d54d f8be
00000250: 1842 5abe 5647 48bb b376 603d 737c 58bd
00000260: 10ba 403e 0d5b 5abe b0a1 233c ce8e 35bf
00000270: 58f5 433f d833 553e 00d7 23bd 41db 87bd
00000280: 7659 1ebe 421e 99be 047b ed3e e2ee 973e
00000290: 666f 9cbe baf1 193d e070 63bd fa2f 9cbe
000002a0: 2805 9fbe 1841 b4be 78ca 6b3e 97e4 163e
000002b0: 416a bfbe ce27 b13e 8e4c 81bf 0aac 9ebe
000002c0: 76ef 6a3e ae3d 96be 831e 3f3e eb6f 86bc
000002d0: 5ee7 26bf 84b4 bbbe 6cc0 023f 2c0e 773e
000002e0: 47ac 923e c097 30bd 1945 94be 010e 79be
000002f0: eb59 873c ead0 633e 0bc6 a1bc ede7 453f
00000300: bf6b 5e3f eb25 05be 6bdc 083d b61d 8dbd
00000310: 466b 36be 3a94 8c3e 972c c93e d524 3abe
00000320: 422f cb3e 429e 92be c397 263e f429 a13e
00000330: df37 c63c 1d17 cabd 1384 123e 6cb0 933e
00000340: 2c04 893e 87bc d83e 9c88 00be f637 7fbd
00000350: 56ce 2b3d 9297 51bc 2484 9bbe d082 6b3e
00000360: 6055 cb3d ca44 503e 0014 1a3f dd8d 4d3f
00000370: 0374 35be 2b84 44bc 479e 93be 8b4d cd3d
00000380: d6cf 9abc 4dd6 d4be 3403 8b3e 8fb5 52be
00000390: 8e3e 103e e4ed a6be 2890 13be 8d9d 87be
000003a0: 734e 3ebe 3712 80be 9b46 f83e 20df 9bbe
000003b0: fdc1 42bf bb03 803e c016 e9bc 40db 4bbd
000003c0: 3ef4 edbd 23a5 afbe 9678 3bbd df99 81be
000003d0: 98ec b4be 90d2 04bf 6fba 823f 0476 a23e
000003e0: 000f c4bc c149 dabe 5257 46be 1b29 86bd
000003f0: c58b 7cbe 9ba7 0cbe 1804 93bf 1454 93be

w_r.0.bias f4 [64]
-0.058887944 -0.10714448 -0.23668642 -0.104355276 0.012349523 0.12330715 -0.19229066 -0.06815449
-0.15294258 -0.012439618 0.121460274 0.011969715 -0.4262931 -0.197719 -0.20852993 -0.1278826
0.02878319 -0.36134008 0.1605351 -0.25641093 -0.2670859 -0.34889662 -0.37806368 -0.24201971
0.036511686 0.19498412 -0.50734794 0.11731799 -0.015586789 -0.25711322 0.121061 -0.09382149
-0.11503109 -0.3055385 0.010989295 0.01647362 -0.17560567 0.2646443 0.16183133 -0.38830107
-0.18151881 -0.08424757 -0.24872264 -0.3748364 0.15225169 -0.25333786 -0.13327539 -0.35904846
-0.53805506 -0.0508905 -0.18490534 0.04040896 -0.13627638 0.0011501675 -0.33114728 -0.1074401
0.0680207 -0.45311558 -0.13614143 -0.07543931 -0.23738153 -0.47219074 -0.31492624 -0.2800175
00000000: 7c34 71bd 916e dbbd ed5d 72be 38b8 d5bd
00000010: a755 4a3c 7688 fc3d d8e7 44be 9594 8bbd
00000020: fb9c 1cbe 8acf 4bbc 2ac0 f83d a01c 443c
00000030: 1743 dabe d976 4abe df88 55be a8f3 02be
00000040: b9ca eb3c 9101 b9be 5063 243e 4b48 83be
00000050: 7cbf 88be 94a2 b2be 9091 c1be 04d4 77be
00000060: 478d 153d eba9 473e 8ee1 01bf 6a44 f03d
00000070: bb5f 7fbc 58a4 83be d4ee f73d 7b25 c0bd
00000080: 6c95 ebbd 8b6f 9cbe 720c 343c aff3 863c
00000090: f9d1 33be 757f 873e 1db7 253e 66cf c6be
000000a0: 11e0 39be fd89 acbd 26b1 7ebe 8eea bfbe
000000b0: dee7 1b3e 80b5 81be 5879 08be 33d5 b7be
000000c0: fabd 09bf 8f72 50bd d357 3dbe de83 253d
000000d0: 098c 0bbe 38c1 963a 238c a9be 8e09 dcbd
000000e0: 704e 8b3d c4fe e7be a968 0bbe ed7f 9abd
000000f0: 2514 73be fcc2 f1be 033e a1be 745e 8fbe

w_r.2.weight f4 [32, 64]
-0.025538433 0.074986406 -0.49501768 -0.24788256 -0.028104095 0.04355478 -0.07469733 0.31358114
-0.84847003 0.14927933 -0.047629647 -0.08056074 0.6190098 0.3532127 -0.107238054 -0.10620321
-0.09951509 0.19563805 0.1886314 0.19096586 -0.14290622 0.26361775 0.102972515 -0.23878346
-0.008884377 0.031608682 -0.29435155 0.02817999 0.42365974 0.10458279 -0.39651585 0.078522846
0.16074166 -0.011955369 0.10320531 0.37236777 -0.24881887 0.040704716 -0.06303707 0.009180567
0.008775623 0.18772598 0.0027488205 0.07708977 -0.19313614 -0.8983915 0.031831842 0.27066976
0.11589656 -0.04079254 0.5345285 -0.6584022 0.17787625 -1.1034194 0.8140185 -0.00016690115
0.11161097 -0.7259628 0.01650983 -0.3635677 -0.123584494 0.27167425 0.30205283 -0.04222247
0.16411188 -0.024024585 0.22141375 0.0638517 0.1314907 0.11324412 0.084022164 0.0010137545
0.1423674 0.04631396 0.17431517 -0.08032494 -0.2970507 0.044783708 -0.18421192 -0.10174292
0.14122517 0.30796248 -0.22445208 -0.21257916 -0.09262437 -0.06536251 -0.07156885 0.24757186
-0.41580665 0.17950061 0.049503773 0.113340035 0.059778187 0.040609546 0.14037691 0.15348583
-0.01750417 0.12290047 -0.09552782 -0.13936457 -0.030428745 0.048703354 -0.05754003 -0.08676843
0.0043898993 0.03981471 0.044265386 -0.09060016 0.012546162 0.14236186 -0.2689071 -0.2122672
-0.12344003 -0.22869846 -0.01807708 0.052562933 0.08503788 -0.013149388 -0.004388955 -0.25702584
-0.07934468 -0.07685605 0.05283305 0.0020134684 0.04611587 -0.22653797 0.012047747 -0.0038824677
0.0244618 -0.000871395 0.59561706 -0.17895123 -0.25676507 0.29772407 -0.10182575 0.07770903
0.027842175 -0.06735375 0.25613403 0.0236634 -0.56382215 -0.12211034 0.2468159 -0.0806424
0.060917404 0.27674586 -0.41592297 -0.22098482 -0.03733824 0.09269829 0.093710564 -0.2940276
-0.10661071 -0.021737276 0.00091997907 0.15595722 -0.28632522 -0.08568711 0.08660255 0.26728785
-0.016349006 -0.043643042 0.028000675 0.019973041 0.06103456 -0.05782047 -0.06784193 -0.2258723
0.031524125 -0.100633025 0.051832523 -0.12099359 -0.053875446 0.08500329 -0.20292091 -0.120389804
0.037911974 0.07253089 0.055175766 0.2881896 0.18911536 -0.07660245 -0.3730632 -0.15747005
-0.030986574 -0.28118622 -0.009898977 0.11403781 -0.0020998497 0.17193124 0.031150103 -0.06570196
0.14065266 0.123850025 -0.029381586 -0.068105586 0.076993205 0.18042223 -0.51849115 0.37424064
0.45010045 -3.9415483 0.1607383 -0.067455046 -0.19358979 -0.667436 0.111818165 -0.06894648
-0.24583675 0.09542874 -3.918789 -0.32238096 -0.33890602 -6.718145 -0.85366875 -0.9868762
-0.18755601 0.089464396 -0.14218792 0.03043332 0.5646659 -0.43859625 -0.36692652 -0.9321626
-0.28151074 -0.3415543 -0.042973693 -0.032622688 0.015638787 0.0032348977 0.16192052 0.27764928
-0.69872683 -0.27255675 -0.0011385856 -0.04861965 -0.053901494 0.18664011 -0.1904546 -0.1855939
0.017881047 -0.27345824 0.18587929 -1.0650903 -0.1946016 -0.136991 0.08338301 0.083754495
0.0012454641 0.054776635 -0.021702567 -0.6863333 -0.96629035 -0.74567926 0.25780973 0.05809711
00000000: fa35 d1bc 7992 993d f572 fdbe edd4 7dbe
00000010: 8f3a e6bc 7f66 323d eafa 98bd b58d a03e
00000020: 5535 59bf aedc 183e 4e17 43bd 07fd a4bd
00000030: 6d77 1e3f 4cd8 b43e a09f dbbd 1281 d9bd
00000040: 91ce cbbd 5755 483e 9728 413e 8e8c 433e
00000050: 0256 12be e8f8 863e 41e3 d23d a783 74be
00000060: c78f 11bc 1b78 013d 3fb5 96be b9d9 e63c
00000070: eee9 d83e 802f d63d 2004 cbbe 96d0 a03d
00000080: 7699 243e 74e0 43bc 4e5d d33d fda6 be3e
00000090: 60ca 7ebe fdb9 263d 9419 81bd 176a 163c
000000a0: a1c7 0f3c 3d3b 403e 8e25 343b 3ee1 9d3d
000000b0: 7bc5 45be fcfc 65bf 1b62 023d 3a95 8a3e
000000c0: 2d5b ed3d 1416 27bd dcd6 083f 0c8d 28bf
000000d0: 3125 363e d93c 8dbf 8463 503f 3002 2fb9
000000e0: 4b94 e43d b3d8 39bf 9f3f 873c 8c25 babe
000000f0: de19 fdbd e318 8b3e aba6 9a3e 78f1 2cbd
00000100: f20c 283e 35cf c4bc 49ba 623e aec4 823d
00000110: 80a5 063e 88ec e73d d013 ac3d f5df 843a
00000120: c2c8 113e b5b3 3d3d ad7f 323e 6781 a4bd
00000130: 0817 98be 1f6f 373d 0da2 3cbe 985e d0bd
00000140: 559d 103e 42ad 9d3e c4d6 65be 5aae 59be
00000150: d8b1 bdbd c8dc 85bd b092 92bd 7a83 7d3e
00000160: 9ce4 d4be 02cf 373e 78c4 4a3d d21e e83d
00000170: f9d9 743d 3256 263d f7be 0f3e 642b 1d3e
00000180: e864 8fbc 3eb3 fb3d 17a4 c3bd 96b5 0ebe
00000190: b445 f9bc 2b7d 473d 18af 6bbd a6b3 b1bd
000001a0: 25d9 8f3b c014 233d 9f4f 353d 948c b9bd
000001b0: 6b8e 4d3c 4fc7 113e 31ae 89be 935c 59be
000001c0: 20ce fcbd ee2f 6abe 6216 94bc 3b4c 573d
000001d0: 5728 ae3d 8870 57bc 39d1 8fbb e498 83be
000001e0: 777f a2bd b466 9dbd 7867 583d 65f4 033b
000001f0: ffe3 3c3d 92f9 67be ea63 453c 0071 7ebb
00000200: 1d64 c83c 546e 64ba 5c7a 183f fe3e 37be
00000210: b676 83be 4a6f 983e 058a d0bd e925 9f3d
00000220: 4615 e43c c3f0 89bd 0024 833e bfd9 c13c
00000230: a656 10bf fc14 fabd 4fbd 7c3e d827 a5bd
00000240: 8784 793d a2b1 8d3e dbf3 d4be d849 62be
00000250: fbef 18bd 9ad8 bd3d 53eb bf3d c98a 96be
00000260: b756 dabd 5f12 b2bc c02a 713a 40b3 1f3e
00000270: 3899 92be b97c afbd ae5c b13d f4d9 883e
00000280: 5aee 85bc 0cc3 32bd ac61 e53c 819e a33c
00000290: 60ff 793d 28d5 6cbd b6f0 8abd 114b 67be
000002a0: 711f 013d b018 cebd 574e 543d 7dcb f7bd
000002b0: 80ac 5cbd 3416 ae3d 80ca 4fbe ee8e f6bd
000002c0: 9649 1b3d 138b 943d fcff 613d 968d 933e
000002d0: 75a7 413e bfe1 9cbd 2402 bfbe d43f 21be
000002e0: 8ed7 fdbc a4f7 8fbe 522f 22bc a88c e93d
000002f0: a29d 09bb be0e 303e 802e ff3c c08e 86bd
00000300: 4007 103e 15a5 fd3d a7b1 f0bc f17a 8bbd
00000310: 9dae 9d3d 9bc0 383e d6bb 04bf 789c bf3e
00000320: 9173 e63e 5442 7cc0 9598 243e df25 8abd
00000330: 673c 46be 16dd 2abf ec00 e53d d033 8dbd
00000340: a1bc 7bbe 2570 c33d 70cd 7ac0 1e0f a5be
00000350: 1785 adbe 0bfb d6c0 098a 5abf eba3 7cbf
00000360: af0e 40be 1c39 b73d b699 11be 4c4f f93c
00000370: f28d 103f b08f e0be cbdd bbbe 35a2 6ebf
00000380: 2d22 90be 35e0 aebe 2f05 30bd 5e9f 05bd
00000390: ea1c 803c 9400 543b 7ece 253e 0c28 8e3e
000003a0: c3df 32bf 8f8c 8bbe 983c 95ba 6625 47bd
000003b0: d0c7 5cbd 961e 3f3e 8806 43be 540c 3ebe
000003c0: 467b 923c b802 8cbe 2457 3e3e e154 88bf
000003d0: a445 47be 5e47 0cbe b6c4 aa3d 7a87 ab3d
000003e0: d73e a33a 775d 603d 95c9 b1bc 8ab3 2fbf
000003f0: ce5e 77bf d6e4 3ebf a3ff 833e 3cf7 6d3d

w_r.2.bias f4 [32]
-0.054811537 0.3090976 0.26200324 -0.15864083 0.2821599 -0.36225134 0.012971415 -0.086882144
-0.013385418 -0.08626084 0.2368408 -0.19972853 -0.14540994 0.0016167824 -0.0020396255 -0.109754495
-0.20270672 -0.10452613 0.25162935 -0.08062912 -0.23730052 0.12106415 0.005926278 0.23432252
-0.16042547 0.457735 0.21647675 -0.039471246 0.19368084 -0.04532474 0.20586745 0.0891203
00000000: 1082 60bd 0a42 9e3e 4a25 863e be72 22be
00000010: 4377 903e 0279 b9be 0f86 543c 44ef b1bd
00000020: 834e 5bbc 86a9 b0bd 6586 723e a385 4cbe
00000030: 58e6 14be 37ea d33a 3dab 05bb f7c6 e0bd
00000040: 5a92 4fbe cc11 d6bd 90d5 803e e120 a5bd
00000050: e8fe 72be 7bf0 f73d 3931 c23b 3ef2 6f3e
00000060: 9346 24be 3e5c ea3e 15ac 5d3e 9aac 21bd
00000070: 4554 463e 6fa6 39bd ebce 523e b484 b63d

w_h.0.weight f4 [64, 5]
-0.019247232 -0.122907296 -1.1365271 -0.72181565 -0.57556325 0.19302265 0.10281415 -0.24457143
0.5386147 -0.26247248 0.0026240717 -0.0019520307 -0.047154218 0.104582876 -0.075242266 -0.1300907
0.14374982 -0.7716948 -0.8547707 -0.3136932 0.08416024 0.11142376 -0.71479094 0.603105
-0.4696264 -0.024396459 0.017532533 0.037343528 0.4149505 -0.34603587 -0.35266906 0.025740873
-1.1378348 0.031242643 -0.16646837 0.0034400073 -0.012964419 -0.39114854 -0.20527618 -0.44807035
-0.11473214 0.18491924 0.28516158 -0.28831285 0.47018138 -0.043076646 -0.21289162 -0.6235273
-0.76497704 -0.7241404 0.3337901 -0.33735335 -0.10302175 -0.8111548 -0.5358589 -0.17830327
0.08113326 -0.75675154 -0.9124975 -0.020494794 0.065252684 0.2049784 -0.14707716 0.18505639
0.40855655 0.030779893 -0.078896046 -0.13251105 0.22548959 -0.93624276 0.308516 -0.0816691
0.5078099 -0.37185302 -0.47102818 -0.16619624 -0.08666833 -0.079559706 -0.7839313 0.04848367
-0.17759159 0.3416555 0.5639466 0.4246295 -0.06458888 -0.09478265 -0.073762655 -0.74750185
-0.8851795 0.7153469 0.12964214 0.22311716 -0.10510383 0.5916567 0.38788557 -0.3585953
0.04388362 0.5286148 -0.22208883 0.4972532 -0.15018499 0.11504701 -0.28844935 -0.267976
0.11551284 -0.13043922 -0.044541523 0.5449918 -0.10651565 -1.1451882 0.3190036 0.1778068
-0.8141792 -0.17840649 -0.29001942 -0.056475155 -0.38313666 0.7659825 -0.41352955 0.22036323
0.15052944 -0.18565321 0.9726559 -0.7139832 -0.49699476 0.067349054 0.19924103 -0.6836865
0.027880888 -0.89027816 -0.17813472 0.056942478 0.047050335 -0.35990748 -0.63551366 -0.2338369
-0.15777639 -0.7732745 -0.66646457 -0.58829373 -0.34386075 -0.20100166 -0.34652486 -1.0306264
-0.023816584 -0.10848802 -0.15379192 -0.10119217 -0.0970404 -0.3801091 -0.026788816 0.102011696
-0.4934567 -0.6582928 0.3585458 0.019631127 -0.09183304 0.6162999 -0.594241 0.3437794
0.080617554 0.04590065 0.22524461 -0.56120247 0.62623566 0.1453541 -0.078524716 0.6166082
0.22596388 0.3948132 -0.21536157 0.032283556 0.42283878 -0.115921006 0.26165596 -0.08591969
-0.2065745 -0.39466646 0.26733553 -0.08664795 -0.18067774 -0.21548101 -0.27881503 0.6277032
0.26327473 -0.26959547 -0.28177217 -0.41671497 0.6479786 -0.8249497 0.28878298 -0.14684105
-0.15709189 0.49696097 0.42558244 -0.040297743 -0.11600486 -0.6136332 0.20244396 -0.5530679
0.0017636507 -0.014128949 -0.07826162 -0.015049492 -0.10602304 -0.03941842 0.0055549596 1.0457975
0.6155099 -0.7065349 0.004844747 0.0064433636 0.011529282 -0.17196637 -0.41099527 0.14653808
0.15516777 0.4224983 0.547652 -0.21356854 0.15220289 0.16508256 0.031565886 -0.60680306
-0.26527533 0.11874998 0.23541752 -0.48899114 -0.8569097 -0.62253535 -0.10903452 0.36898944
0.39277393 -0.67301685 -0.032474477 -0.091420956 0.14885357 0.102506205 0.60514987 -0.27873018
-0.23199831 0.19232045 0.11516129 0.59948516 0.08142333 -0.01052787 -0.00058766425 -0.08597467
-0.1638263 0.046801113 0.15748337 0.15732388 -0.37932184 -0.16712442 -0.4103654 0.31185728
00000000: 5fac 9dbc d2b6 fbbd b879 91bf e9c8 38bf
00000010: 1d58 13bf bba7 453e 3a90 d23d ef70 7abe
00000020: a7e2 093f cb62 86be 9ef8 2b3b 48db ffba
00000030: c824 41bd 8c2f d63d 9e18 9abd 7f36 05be
00000040: 2733 133e ca8d 45bf 41d2 5abf 659c a0be
00000050: 345c ac3d 2432 e43d 8afc 36bf 1765 1a3f
00000060: df72 f0be 15db c7bc 63a0 8f3c 87f5 183d
00000070: 6474 d43e 9d2b b1be 0a91 b4be 86de d23c
00000080: 92a4 91bf 92f0 ff3c af76 2abe bf71 613b
00000090: b768 54bc 9f44 c8be eb33 52be 7a69 e5be
000000a0: aff8 eabd 785b 3d3e b300 923e be9d 93be
000000b0: 9dbb f03e 2371 30bd 4300 5abe 7c9f 1fbf
000000c0: 89d5 43bf 4461 39bf 89e6 aa3e 94b9 acbe
000000d0: 11fd d2bd d7a7 4fbf 0d2e 09bf 2295 36be
000000e0: 3229 a63d 78ba 41bf 7099 69bf b3e4 a7bc
000000f0: 33a3 853d dce5 513e 659b 16be 6c7f 3d3e
00000100: 532e d13e 1d26 fc3c 4094 a1bd fab0 07be
00000110: bee6 663e 9bad 6fbf cff5 9d3e 2142 a7bd
00000120: d4ff 013f 8563 bebe 9b2a f1be 592f 2abe
00000130: 2a7f b1bd 33f0 a2bd b9af 48bf d096 463d
00000140: 92da 35be 78ed ae3e ce5e 103f 0a69 d93e
00000150: 2d47 84bd 681d c2bd e010 97bd 485c 3fbf
00000160: 209b 62bf f920 373f e9c0 043e d378 643e
00000170: ad40 d7bd d076 173f f098 c63e ce99 b7be
00000180: 50bf 333d 4d53 073f 416b 63be f997 fe3e
00000190: 18ca 19be c49d eb3d a2af 93be 2634 89be
000001a0: ff91 ec3d dc91 05be 2c71 36bd 9584 0b3f
000001b0: e124 dabd 8795 92bf 7154 a33e fc12 363e
000001c0: 0c6e 50bf 31b0 36be 6d7d 94be 7e52 67bd
000001d0: 7d2a c4be 6e17 443f 25ba d3be e6a6 613e
000001e0: 6424 1a3e e01b 3ebe faff 783f 9ac7 36bf
000001f0: 1976 febe 4dee 893d d705 4c3e 1406 2fbf
00000200: 7666 e43c 45e9 63bf f368 36be 843c 693d
00000210: dab7 403d cb45 b8be 06b1 22bf f172 6fbe
00000220: 2290 21be 51f5 45bf 6c9d 2abf 6b9a 16bf
00000230: 840e b0be 61d3 4dbe b56b b1be 91eb 83bf
00000240: ff1a c3bc f82e debd a17b 1dbe d73d cfbd
00000250: 1ebd c6bd a99d c2be 3874 dbbc 82eb d03d
00000260: 5ba6 fcbe e085 28bf 5193 b73e 75d1 a03c
00000270: f612 bcbd d5c5 1d3f 2e20 18bf db03 b03e
00000280: d11a a53d 5202 3c3d 86a6 663e f7aa 0fbf
00000290: fb50 203f b5d7 143e 91d1 a0bd 09da 1d3f
000002a0: 1363 673e f524 ca3e be87 5cbe c33b 043d
000002b0: 537e d83e fe67 edbd c5f7 853e aaf6 afbd
000002c0: 4488 53be b911 cabe 34e0 883e 7b74 b1bd
000002d0: 9603 39be 0ea7 5cbe d8c0 8ebe 28b1 203f
000002e0: f2cb 863e 6b08 8abe 7144 90be aa5b d5be
000002f0: ede1 253f e72f 53bf 5ddb 933e 805d 16be
00000300: b2dc 20be ab71 fe3e f1e5 d93e 3f0f 25bd
00000310: f593 edbd 1117 1dbf 784d 4f3e dc95 0dbf
00000320: 4c2a e73a 1b7d 67bc a147 a0bd 2592 76bc
00000330: 9c22 d9bd 3675 21bd 6106 b63b b1dc 853f
00000340: 0f92 1d3f 79df 34bf afc0 9e3b da22 d33b
00000350: 50e5 3c3c f417 30be f96d d2be 140e 163e
00000360: 4de4 1e3e b251 d83e ec32 0c3f b6b1 5abe
00000370: 13db 1b3e 670b 293e 3b4b 013d 7257 1bbf
00000380: 2bd2 87be 3133 f33d 4a11 713e 0c5d fabe
00000390: 6f5e 5bbf 7a5e 1fbf 7e4d dfbd 2fec bc3e
000003a0: aa19 c93e d54a 2cbf f503 05bd e93a bbbd
000003b0: 126d 183e c6ee d13d 1aeb 1a3f b9b5 8ebe
000003c0: f790 6dbe a7ef 443e afd9 eb3d dc77 193f
000003d0: 46c1 a63d 167d 2cbc 7b0d 1aba 7d13 b0bd
000003e0: 15c2 27be 86b2 3f3d 5243 213e 8319 213e
000003f0: 7936 c2be aa22 2bbe 6a1b d2be c2ab 9f3e

w_h.0.bias f4 [64]
-0.39634457 -0.26945776 -0.110799775 -0.6138528 -0.62470824 -0.10252152 -0.5131321 0.098565176
-0.12189883 -0.5299259 0.024026075 0.30667102 -0.38343105 0.2892727 -0.08375092 0.198837
-0.48445678 -0.19034202 -0.20210735 -0.5738199 -0.39534748 0.07496062 -0.8651472 -1.0122558
-0.5294418 -0.085536055 0.13414137 -0.0095197605 -0.6276047 0.026509061 0.45930487 -0.08234597
0.041244138 -0.51207095 -0.1607722 -0.94518155 -0.2044032 -0.7787718 -0.55016905 -0.3221164
-0.23994899 -0.59228307 -0.024153205 0.0044411654 0.36344087 0.032844476 -0.42847124 -0.20581688
0.009202477 -0.37736848 -0.14008127 -1.1090224 -0.8196459 -0.89098084 0.12570587 -0.66858256
-0.022730557 -0.0789295 -0.21516731 0.3316638 -0.2632324 -0.20688134 -0.4266693 -0.30727938
00000000: aded cabe 5ef6 89be feea e2bd 7525 1dbf
00000010: e1ec 1fbf cdf6 d1bd a05c 03bf 8adc c93d
00000020: 18a6 f9bd 39a9 07bf 55d2 c43c fc03 9d3e
00000030: 1351 c4be 8d1b 943e 9a85 abbd ed9b 4b3e
00000040: b80a f8be 05e9 42be 3bf5 4ebe dce5 12bf
00000050: fc6a cabe f484 993d 497a 5dbf 9991 81bf
00000060: 7f89 07bf 872d afbd 5b5c 093e c5f8 1bbc
00000070: b4aa 20bf 8829 d93c 022a eb3e 01a5 a8bd
00000080: 9def 283d 1517 03bf 78a1 24be 6bf7 71bf
00000090: 134f 51be 975d 47bf e1d7 0cbf 71ec a4be
000000a0: 30b5 75be dd9f 17bf f1dc c5bc 3287 913b
000000b0: ec14 ba3e ee87 063d 9560 dbbe a9c1 52be
000000c0: fcc5 163c 7136 c1be 7771 0fbe 72f4 8dbf
000000d0: 50d4 51bf 5217 64bf 0ab9 003e 3a28 2bbf
000000e0: 6f35 babc caa5 a1bd d254 5cbe d6cf a93e
000000f0: 66c6 86be b4d8 53be 6674 dabe b953 9dbe

w_h.2.weight f4 [32, 64]
0.08757437 0.0785347 0.034041174 -0.5118676 0.008678263 0.11957385 0.5490423 0.105150804
0.37294707 -0.009635333 0.12543748 -0.022436786 0.07539746 0.01269755 0.0939807 0.08118466
-0.19520897 -0.1365603 -0.17590174 -0.15090019 0.40335763 0.17553806 0.2329704 -0.04723323
-0.14225507 -0.14364302 -0.106681146 0.24228224 0.22857408 0.05831676 0.11870939 -0.08235652
-0.094964 -0.22502406 0.13892192 -0.053698882 -0.020629881 -0.40990555 -0.12455699 0.12528862
-0.0020948686 0.35138503 -0.019764788 0.19669385 0.026918603 0.08200796 -0.38797787 3.385199e-05
0.43762016 -0.013355444 -0.10628125 0.363764 -0.1496235 -0.38692918 0.13354704 0.6076443
0.10283402 0.17979278 -0.20388062 0.07646001 -0.14876722 0.31777504 0.1843707 0.20173275
0.10706058 -0.25444737 -0.1585969 -0.3563554 -0.35849616 0.029969838 0.15940353 -0.20369679
-0.0044802018 0.24173667 0.30128303 -0.6073379 -0.29692656 -0.2449364 0.18829846 -0.00329537
0.22373618 -0.040885262 -0.01013445 0.30028877 -0.3254308 -0.036994096 0.06096754 0.5520564
0.41477624 0.10798278 -0.33432236 0.08205206 0.20098984 -0.075196944 0.22391307 0.32591626
0.21343936 -0.2982932 0.16489367 -0.22710133 -0.25428763 -0.13422625 -0.21079026 -0.4433935
-0.09785762 -0.14098492 0.18168417 -0.12834081 0.5685715 0.16050993 -0.081842184 0.26504955
-5.5024706e-05 0.17417182 0.37839594 0.5066766 0.56481177 0.31822193 0.00844193 -0.2140765
0.16373964 -0.29848754 0.13697182 0.12186134 0.049621884 0.23313378 0.11043208 0.34221482
-0.090425335 -0.023954118 -0.021892527 0.08824001 0.082260594 0.00707053 -0.10536955 0.07870593
-0.1987896 0.041314915 0.0006028928 -0.11774455 -0.14970155 -0.08283258 -0.104557745 0.034719974
-0.010608337 -0.04316425 -0.039496627 0.06637443 -0.039314974 -0.14935715 -0.05915521 -0.06718593
0.01670803 0.008546087 0.060669422 -0.0909534 0.04999089 -0.06527472 -0.051189616 -0.080320284
0.07001102 -0.08747224 -0.03982905 -0.08086866 0.057985157 0.045533367 -0.16474162 -0.0034186933
-0.11962922 0.053506795 -0.13040537 0.07823974 -0.0027525248 0.038585275 -0.039454296 -0.0007608743
-0.15926395 -0.17573689 -0.059777655 -0.024470184 -0.002340603 -0.115528435 0.05901197 0.04223692
0.018514175 0.04076104 0.06325269 0.00567728 -0.08763544 0.09817909 -0.1011175 -0.008587289
-0.21114235 0.13593216 0.19891523 0.3098029 -0.008654577 0.15799241 0.34608614 -0.013960169
-0.29203132 0.3875152 -0.42945448 0.3066864 0.10454747 0.14000183 -0.33287647 -0.43571055
0.022322033 0.2895545 0.2644764 -0.6398274 -0.2546744 -0.0654973 -0.09554695 0.3567459
-0.13114432 -0.046458416 -0.26024383 -0.12218867 0.6450129 -0.30103073 0.28229496 -0.30529758
-0.31468573 -0.045205656 -0.79507494 -0.28696784 0.36107767 -0.4937282 0.019112423 0.03180827
0.046788316 -0.42617425 -0.06724328 -0.092128254 -0.20530725 -0.07026751 0.0047685225 0.20504065
0.14304306 0.21896008 -0.14497063 0.2016233 0.3848822 -0.59261245 0.21462536 0.12852272
-0.123668104 0.10260033 -0.08347878 0.014166681 -0.35302633 -0.49449527 0.22590843 0.52012575
00000000: 315a b33d cdd6 a03d c26e 0b3d c109 03bf
00000010: 462f 0e3c 22e3 f43d 098e 0c3f 4e59 d73d
00000020: ebf2 be3e 84dd 1dbc af72 003e 5acd b7bc
00000030: fc69 9a3d 6209 503c f478 c03d 2544 a63d
00000040: dce4 47be 77d6 0bbe 961f 34be 9485 1abe
00000050: e484 ce3e 40c0 333e cb8f 6e3e a277 41bd
00000060: 50ab 11be 2817 13be a57b dabd d618 783e
00000070: 530f 6a3e 8edd 6e3d e91d f33d 89aa a8bd
00000080: 7c7c c2bd b56c 66be 8c41 0e3e 5cf3 5bbd
00000090: ffff a8bc 24df d1be bc17 ffbd a94b 003e
000000a0: 104a 09bb bde8 b33e c4e9 a1bc 1d6a 493e
000000b0: 6784 dc3c caf3 a73d 09a5 c6be 4cfc 0d38
000000c0: c00f e03e cbd0 5abc fca9 d9bd 463f ba3e
000000d0: e736 19be 951b c6be 8ec0 083e 948e 1b3f
000000e0: a59a d23d 991b 383e 15c6 50be 1197 9c3d
000000f0: 6f56 18be 69b3 a23e accb 3c3e 0893 4e3e
00000100: 9442 db3d ed46 82be 3a67 22be 3774 b6be
00000110: cf8c b7be 4e83 f53c ae3a 233e e495 50be
00000120: a8ce 92bb d189 773e c541 9a3e 7f7a 1bbf
00000130: c206 98be 9cd0 7abe 50d1 403e 22f7 57bb
00000140: 191b 653e 4e77 27bd f70a 26bc 73bf 993e
00000150: de9e a6be 1f87 17bd 19b9 793d 9153 0d3f
00000160: 8d5d d43e 1326 dd3d 4d2c abbe e90a a83d
00000170: 48d0 4d3e db00 9abd 7849 653e 7fde a63e
00000180: d98f 5a3e e3b9 98be e3d9 283e 408d 68be
00000190: fd31 82be 9b72 09be 67d9 57be 7904 e3be
000001a0: 9369 c8bd 5a5e 10be 6a0b 3a3e c66b 03be
000001b0: e78d 113f b75c 243e e09c a7bd 93b4 873e
000001c0: 54ca 66b8 195a 323e 1dbd c13e 8fb5 013f
000001d0: 8197 103f fced a23e 0550 0a3c df36 5bbe
000001e0: 5dab 273e 5cd3 98be 5742 0c3e 7092 f93d
000001f0: 5140 4b3d 9fba 6e3e 372a e23d c836 af3e
00000200: eb30 b9bd 6d3b c4bc f557 b3bc 2eb7 b43d
00000210: 3e78 a83d e8af e73b fecb d7bd 9330 a13d
00000220: 808f 4bbe d439 293d 730b 1e3a 0e24 f1bd
00000230: 5d4b 19be 21a4 a9bd 5f22 d6bd 8836 0e3d
00000240: 97ce 2dbc ffcc 30bd 37c7 21bd 51ef 873d
00000250: bd08 21bd 15f1 18be bc4c 72bd c798 89bd
00000260: 47df 883c e304 0c3c 8080 783d c745 babd
00000270: 3fc3 4c3d c1ae 85bd 34ac 51bd f67e a4bd
00000280: f061 8f3d a524 b3bd c923 23bd 789e a5bd
00000290: d881 6d3d 3281 3a3d 07b2 28be 280c 60bb
000002a0: 2a00 f5bd f129 5b3d fc88 05be 283c a03d
000002b0: b463 34bb 980b 1e3d d49a 21bd 6975 47ba
000002c0: 1716 23be 5ff4 33be 6ad9 74bd b275 c8bc
000002d0: cd64 19bb 2c9a ecbd 89b6 713d 9f00 2d3d
000002e0: 0aab 973c 0cf5 263d a08a 813d 7a08 ba3b
000002f0: 367a b3bd 1e12 c93d b116 cfbd b3b1 0cbc
00000300: b335 58be cd31 0b3e 6fb0 4b3e 7c9e 9e3e
00000310: edcb 0dbc c3c8 213e 3432 b13e 31b9 64bc
00000320: 2185 95be 6468 c63e 75e1 dbbe 0006 9d3e
00000330: fc1c d63d a45c 0f3e c96e aabe 7415 dfbe
00000340: b2dc b63c 7d40 943e 7369 873e bacb 23bf
00000350: af64 82be 7323 86bd 1fae c3bd 66a7 b63e
00000360: b24a 06be 2e4b 3ebd ae3e 85be 0e3e fabd
00000370: 911f 253f b320 9abe f788 903e f74f 9cbe
00000380: 7d1e a1be 9129 39bd 088a 4bbf 73ed 92be
00000390: 2cdf b83e f1c9 fcbe a891 9c3c 6349 023d
000003a0: 1ba5 3f3d 8333 dabe d8b6 89bd bdad bcbd
000003b0: 103c 52be 6ae8 8fbd 4441 9c3b 2df6 513e
000003c0: e179 123e 1237 603e 2e73 14be 5776 4e3e
000003d0: 480f c53e 73b5 17bf c0c6 5b3e 769b 033e
000003e0: b445 fdbd 1f20 d23d ecf6 aabd 5e1b 683c
000003f0: debf b4be 7c2e fdbe 8a54 673e f626 053f

w_h.2.bias f4 [32]
0.07213976 -0.03907871 -0.118857965 0.38678896 -0.10206641 -0.27723166 0.17090137 0.1830926
-0.2941142 -0.18340425 -0.060617838 0.17690478 0.1730403 0.10621259 0.0021967308 -0.20079024
-0.3346053 -0.1332753 0.20691265 -0.027263448 -0.2528019 -0.21681139 -0.19915599 -0.057470873
0.22884741 0.003680476 -0.013627214 0.26435158 0.026767103 -0.12688498 -0.16672392 -0.23972909
00000000: 03be 933d ff10 20bd ce6b f3bd 3409 c63e
00000010: 3208 d1bd 4ff1 8dbe c500 2f3e a07c 3b3e
00000020: 2396 96be 53ce 3bbe 694a 78bd 8726 353e
00000030: 7a31 313e fd85 d93d 07f7 0f3b f59b 4dbe
00000040: 6351 abbe 5279 08be e9e0 533e 9857 dfbc
00000050: 406f 81be ce03 5ebe 8cef 4bbe 9466 6bbd
00000060: fa56 6a3e 2434 713b ae44 5fbc 1759 873e
00000070: af46 db3c 23ee 01be adb9 2abe 8b7b 75be

Ws.0 f4 [32, 32]
-0.9972953 1.1444961 -0.88103104 0.017316926 0.98594517 -0.46917596 -0.19000517 1.8944263
-0.005969969 1.5302778 -1.6912714 -0.41792893 0.5072634 0.11804862 0.23327011 -0.020379469
-0.13691966 -0.41704014 0.43604976 2.2609847 -1.1189055 -0.5618943 -0.7511454 0.10991586
-0.033952348 -0.35467955 0.9081195 1.58866 0.011516292 -0.8970362 -0.32397285 -0.1901199
-1.2068759 -0.618889 0.30131674 1.6894976 -1.8186082 0.8134895 0.3280557 0.004351236
0.43166023 -1.065549 -0.071033664 0.020702764 -0.016268084 -0.7816842 0.70052624 -0.97830254
-0.17558575 1.6960382 -0.9008054 0.81748873 -2.259237 -1.4156039 0.8524894 -0.1966365
0.097120166 1.4067628 1.1183555 0.0067541953 -0.30636463 -2.2991157 0.9668485 0.29887232
1.2941945 -4.092224 -0.6390731 0.1298496 -1.1686883 1.237497 -0.8884314 -0.66081053
-3.472182 0.90145195 1.3351161 0.6623264 -2.4160264 -0.57939756 0.556337 -1.7618862
2.5834641 0.2697693 0.25484437 1.6277351 -0.3168154 0.2801156 -1.1694092 -0.51077205
2.3814359 -0.78502536 -1.0265511 -1.331301 0.52998257 1.0219064 -0.038818557 0.51180893
-3.4660945 -0.3019936 0.0074276417 -3.0188935 0.07307307 1.4424843 1.2014772 -0.22807899
0.47598884 0.978947 -0.60125935 0.13559078 0.18045118 0.47429022 0.3288243 0.6332015
-0.45264357 0.30388063 1.2386913 2.227512 1.7557629 0.13102502 -2.4837053 -1.0042294
1.7214172 -0.75318366 0.50888157 -0.24641767 -0.013542257 -0.99147767 0.7924473 -0.8571708
0.25054026 -0.4176456 -0.4085086 -3.0843573 -0.27267864 0.35979432 -3.0085905 -2.2403557
-0.8762276 0.5186918 1.8553374 0.5599443 -0.61023754 -0.22124524 1.0933694 -0.99972343
1.3792827 -1.5615405 -1.7826333 -0.85697085 -1.5825042 0.12060702 0.6937199 0.83577454
0.5882662 -3.2252986 -0.47665522 -4.9385047 0.1672397 0.5897287 -0.4440813 -0.28903282
-0.0815404 -1.7159771 -1.1555678 -0.17585273 0.39792827 -1.374897 -0.13261232 1.4326887
0.7798514 0.28301692 -0.3228966 0.14889026 0.049349457 0.5474251 0.39788592 -0.6765453
-0.16421428 -0.7298745 -2.2736096 0.014585538 1.256136 -0.28748372 0.8365975 -0.6131598
-0.5966852 -0.08107649 0.7651659 -3.1081355 -0.3406493 -0.1770157 -0.016930416 -0.70172685
-0.5424896 0.038099844 1.0104278 2.1826663 -0.2146179 -0.25612316 0.7028876 1.3793414
2.67017 -0.30154634 -1.6827203 -1.3404398 0.5456477 0.78473324 0.48134625 -1.0241394
-0.90833586 -0.04303566 -2.1704218 1.2474108 0.09168131 0.052181125 -2.8975382 -0.546941
-0.5343596 -1.0992308 0.0846677 0.62860197 1.3807311 2.4592905 -0.9991022 0.8767443
1.5340494 0.2954992 -0.33501625 0.5721421 -0.121273786 1.4170223 -1.6434095 0.079652935
1.0531037 -0.0042402856 0.17708103 -1.0364046 -0.6771112 -2.6426811 1.2928337 -2.4501739
-0.6337561 0.46681833 0.45122454 -0.045208324 0.9366272 -0.24836959 -0.4855619 -1.0438777
-1.3416375 0.047642615 0.02083725 -0.59098446 -0.8685666 0.9927327 -0.49611247 1.9499602
00000000: bf4e 7fbf d97e 923f 408b 61bf 3adc 8d3c
00000010: e766 7c3f d537 f0be b790 42be 907c f23f
00000020: bb9f c3bb 25e0 c33f 957b d8bf c8fa d5be
00000030: 04dc 013f 7ac3 f13d 5cde 6e3e d8f2 a6bc
00000040: ab34 0cbe 4986 d5be ea41 df3e f9b3 1040
00000050: 4c38 8fbf 4ed8 0fbf 114b 40bf 911b e13d
00000060: 9e11 0bbd 8f98 b5be 857a 683f 3659 cb3f
00000070: d4ae 3c3c 2aa4 65bf c5df a5be cbae 42be
00000080: e97a 9abf 826f 1ebf 3046 9a3e 7541 d83f
00000090: 27c8 e8bf d940 503f ebf6 a73e d094 8e3b
000000a0: 9202 dd3e e963 88bf 197a 91bd d898 a93c
000000b0: a544 85bc 751c 48bf b055 333f 0972 7abf
000000c0: c0cc 33be c817 d93f 2f9b 66bf f146 513f
000000d0: 5797 10c0 8232 b5bf bf3c 5a3f 145b 49be
000000e0: f0e6 c63d ce10 b43f 4626 8f3f 4c52 dd3b
000000f0: d3db 9cbe b624 13c0 6283 773f cb05 993e
00000100: 2aa8 a53f 80f3 82c0 4b9a 23bf 4bf7 043e
00000110: 9497 95bf 4d66 9e3f 3d70 63bf e12a 29bf
00000120: 3b38 5ec0 8ec5 663f 16e5 aa3f 398e 293f
00000130: 2da0 1ac0 6653 14bf 1a6c 0e3f 7d85 e1bf
00000140: 7a57 2540 341f 8a3e f67a 823e a059 d03f
00000150: a135 a2be 506b 8f3e 33af 95bf f5c1 02bf
00000160: 7269 1840 6cf7 48bf 0766 83bf 1268 aabf
00000170: f0ac 073f d4cd 823f 3500 1fbd e905 033f
00000180: 7ed4 5dc0 e89e 9abe 9363 f33b 8d35 41c0
00000190: 55a7 953d 53a3 b83f 01ca 993f 8a8d 69be
000001a0: cfb4 f33e 459c 7a3f 22ec 19bf 4fd8 0a3e
000001b0: 32c8 383e 2bd6 f23e a95b a83e 7e19 223f
000001c0: e6c0 e7be 3e96 9b3e 708d 9e3f 8e8f 0e40
000001d0: d7bc e03f 6c2b 063e 07f5 1ec0 978a 80bf
000001e0: 6657 dc3f a5d0 40bf 1046 023f ea54 7cbe
000001f0: 58e0 5dbc 7bd1 7dbf d4dd 4a3f 8c6f 5bbf
00000200: d046 803e a5d5 d5be 0a28 d1be 1c66 45c0
00000210: 899c 8bbe f636 b83e bf8c 40c0 fd61 0fc0
00000220: 7450 60bf fcc8 043f b27b ed3f 8258 0f3f
00000230: 8738 1cbf 1d8e 62be 87f3 8b3f e0ed 7fbf
00000240: 568c b03f 8fe0 c7bf 542d e4bf 7162 5bbf
00000250: 7f8f cabf d000 f73d a197 313f 52f5 553f
00000260: 9d98 163f 4b6b 4ec0 270c f4be 3b08 9ec0
00000270: e240 2b3e 76f8 163f a05e e3be 1cfc 93be
00000280: a7fe a6bd 23a5 dbbf a5e9 93bf bd12 34be
00000290: 41bd cb3e a0fc afbf 86cb 07be 5862 b73f
000002a0: 57a4 473f 98e7 903e b452 a5be b076 183e
000002b0: a822 4a3d 0d24 0c3f b4b7 cb3e 1332 2dbf
000002c0: ca27 28be 0ed9 3abf d282 11c0 2ef8 6e3c
000002d0: 10c9 a03f 1131 93be 412b 563f 0af8 1cbf
000002e0: 5cc0 18bf 6e0b a6bd eae1 433f b1eb 46c0
000002f0: 9669 aebe 9b43 35be a8b1 8abc 5fa4 33bf
00000300: 99e0 0abf 950e 1c3d b355 813f ceb0 0b40
00000310: cbc4 5bbe 9322 83be 71f0 333f 428e b03f
00000320: 11e4 2a40 4864 9abe 6163 d7bf 8893 abbf
00000330: 91af 0b3f 47e4 483f 0473 f63e 0017 83bf
00000340: b388 68bf 2946 30bd 31e8 0ac0 28ab 9f3f
00000350: 69c3 bb3d e0bb 553d 4471 39c0 5304 0cbf
00000360: cacb 08bf 98b3 8cbf 4266 ad3d 0fec 203f
00000370: ccbb b03f 0465 1d40 29c5 7fbf 5072 603f
00000380: bb5b c43f ac4b 973e 4087 abbe e877 123f
00000390: 645e f8bd fd60 b53f 3e5b d2bf 1421 a33d
000003a0: 1acc 863f 18f2 8abb bb54 353e e8a8 84bf
000003b0: 2957 2dbf b021 29c0 937b a53f a6cf 1cc0
000003c0: d73d 22bf d002 ef3e e706 e73e 5d2c 39bd
000003d0: cdc6 6f3f 9954 7ebe 929b f8be c99d 85bf
000003e0: c7ba abbf e724 433d e1b2 aa3c c24a 17bf
000003f0: 615a 5ebf bb23 7e3f 7402 febe 4c98 f93f

Ws.1 f4 [32, 32]
-0.8920335 -1.1461753 -1.7828549 0.11702538 -0.145957 1.2650273 1.0021214 -0.3459579
-0.8331881 0.52766347 -2.263214 -0.17789102 0.26272324 -0.61240166 -1.2109481 1.1719009
2.103076 -0.869575 -2.472652 -1.3742428 -1.6942309 0.43127933 -0.7119799 -0.52923805
0.9976341 2.6727958 -2.1292243 -2.3790762 -1.0948583 -0.030328702 1.086676 -0.87135684
2.1312468 -0.9616511 -1.290802 1.0205121 -0.042083163 -0.7987302 0.6336954 1.0979513
0.43541062 0.74559623 2.5339358 -1.2604454 0.7203628 0.27408582 0.0798121 -0.62672067
-0.5460433 0.23207206 0.45073977 -2.606369 -0.4368981 -0.097043864 0.6278666 -1.2434964
0.12224524 -0.7909445 0.27584705 0.815825 0.13528949 0.4700636 1.9283392 -0.8597468
1.3912263 -0.9757463 -0.8077953 -0.31618062 -1.1500586 0.480886 -0.98090935 -2.1739588
0.44128826 -0.034554284 0.94349176 -0.53574556 0.7826125 -0.30278906 1.9657722 -0.38192463
-0.063357785 -0.13838623 -0.46923566 0.13687178 -0.631333 -1.2864287 -0.1582178 -1.9542122
0.9175103 -2.4046588 -0.2723591 0.12512016 1.1542233 -1.235599 -0.93864644 0.08301548
-0.80720913 1.2733166 -0.16234 -1.4614687 -1.2846872 -0.87192935 0.35418105 -0.04107503
0.2705289 -0.32447672 -2.0796924 -1.3991274 0.095863946 1.1536583 -0.5523343 0.27178317
-0.73633325 -2.0885715 -1.0843992 -0.25099397 0.8015748 -0.07864259 0.3120833 -0.22160181
0.040736046 0.34923366 0.12262187 -0.21344154 0.66080713 -1.0586274 -0.689542 -0.46988416
1.6370672 0.0072920946 -1.7295685 -0.27006355 -0.84448445 -0.41867942 0.12538718 0.0976801
-1.0005403 0.18765107 0.7158283 1.4796939 -0.19149609 0.28168115 -1.0130334 -0.2197435
-0.5405062 1.7524173 -0.89322793 0.5539599 -0.36581647 -1.2946163 1.1019088 -2.0518682
1.5753325 -0.77109396 -1.0895519 -0.1490416 2.1310475 0.58600885 -0.6148125 -0.5371812
-1.1462011 0.14910097 1.4307821 1.1195463 0.73639184 -0.4017021 1.057222 -0.8035601
-0.31712124 -1.6408668 0.430361 0.8748903 -0.7230859 0.3550234 0.081308395 -0.47419098
-0.31630394 0.19133796 1.76624 0.5087222 0.90008897 -0.9069184 0.96617305 -2.2142806
-0.48407465 -0.46002474 -0.11062809 -1.1774529 1.814579 -1.6224495 -0.07800754 0.12673725
-0.01590939 0.81596303 -0.7193183 -0.1723507 1.1188462 -0.03791042 -0.083635524 0.40277538
-2.2284412 0.40175694 0.51220214 0.68902075 -0.34572232 0.3340785 1.2393842 0.5383313
-1.991323 -0.73954386 -0.051799614 -0.10551869 0.31273356 -0.33221483 -0.10532512 -2.530516
0.78832334 -1.2622254 -0.49145782 -0.8878203 0.63858044 1.0656683 -0.77513736 -0.13282418
-0.079520926 -1.3003327 1.1360949 -1.6031933 0.4636179 -0.5578513 -0.9658558 -1.5123594
0.41347656 -1.1194911 -0.8984882 -1.1313744 -1.4717144 0.3833067 0.35702634 -0.70260185
0.41949856 -1.3575332 0.21516383 -0.3880698 0.53219664 0.8378644 -1.3868318 1.0902606
1.0458996 1.1865519 0.03658342 -0.46669838 0.15646726 -0.8668972 -0.34938842 0.7552317
00000000: 4f5c 64bf dfb5 92bf 9734 e4bf 01ab ef3d
00000010: c075 15be 6aec a13f 8445 803f 6521 b1be
00000020: d14b 55bf f414 073f 80d8 10c0 1029 36be
00000030: a983 863e 5bc6 1cbf 5900 9bbf d900 963f
00000040: cc98 0640 789c 5ebf ee3f 1ec0 30e7 afbf
00000050: 8fdc d8bf a5d0 dc3e 5144 36bf 257c 07bf
00000060: f364 7f3f 160f 2b40 3645 08c0 c942 18c0
00000070: 5124 8cbf e673 f8bc 3318 8b3f 3e11 5fbf
00000080: 5966 0840 c42e 76bf 0039 a5bf 24a0 823f
00000090: 655f 2cbd 9579 4cbf dd39 223f ab89 8c3f
000000a0: 24ee de3e 65df 3e3f 012c 2240 4656 a1bf
000000b0: b269 383f fa54 8c3e 8774 a33d c470 20bf
000000c0: 7ec9 0bbf 4ca4 6d3e 5dc7 e63e c0ce 26c0
000000d0: 1cb1 dfbe efbe c6bd debb 203f e42a 9fbf
000000e0: b65b fa3d 577b 4abf d33b 8d3e e8d9 503f
000000f0: 5489 0a3e 2dac f03e d2d3 f63f 5e18 5cbf
00000100: b413 b23f 82ca 79bf accb 4ebf 6de2 a1be
00000110: 1f35 93bf b136 f63e e01c 7bbf 2422 0bc0
00000120: 89f0 e13e cb88 0dbd ad88 713f 9f26 09bf
00000130: 4b59 483f 2b07 9bbe 6c9e fb3f a08b c3be
00000140: bac1 81bd 1fb5 0dbe a83f f0be 1e28 0c3e
00000150: 0a9f 21bf b2a9 a4bf d903 22be a023 fabf
00000160: f4e1 6a3f eee5 19c0 a772 8bbe 801f 003e
00000170: 97bd 933f 1c28 9ebf 224b 70bf 0504 aa3d
00000180: 42a5 4ebf 0afc a23f 753c 26be 6811 bbbf
00000190: a170 a4bf c336 5fbf 3857 b53e 4a3e 28bd
000001a0: c482 8a3e d021 a6be ae19 05c0 9b16 b3bf
000001b0: 5154 c43d 13ab 933f c865 0dbf 2a27 8b3e
000001c0: 5680 3cbf 28ab 05c0 98cd 8abf 4882 80be
000001d0: 0234 4d3f 5e0f a1bd 62c9 9f3e 96eb 62be
000001e0: d7da 263d c1ce b23e 2d21 fb3d 6b90 5abe
000001f0: a82a 293f 1a81 87bf d385 30bf a894 f0be
00000200: 6b8b d13f 86f2 ee3b 8062 ddbf c545 8abe
00000210: 2230 58bf 265d d6be 7f65 003e 810c c83d
00000220: b411 80bf 9a27 403e 8640 373f 9c66 bd3f
00000230: 8d17 44be 8338 903e 14ab 81bf 7104 61be
00000240: 9d5e 0abf 364f e03f 96aa 64bf 51d0 0d3f
00000250: 4c4c bbbe fdb5 a5bf 590b 8d3f cf51 03c0
00000260: 7fa4 c93f 6a66 45bf 7076 8bbf 5c9e 18be
00000270: 1563 0840 ad04 163f 5a64 1dbf b584 09bf
00000280: b8b6 92bf edad 183e de23 b73f 4b4d 8f3f
00000290: 2d84 3c3f e6ab cdbe 0d53 873f 1db6 4dbf
000002a0: b75d a2be ec07 d2bf 4758 dc3e d0f8 5f3f
000002b0: 281c 39bf a1c5 b53e 0485 a63d 29c9 f2be
000002c0: 97f2 a1be 19ee 433e 2714 e23f 9e3b 023f
000002d0: 3b6c 663f ce2b 68bf 1e57 773f c6b6 0dc0
000002e0: a2d8 f7be 5d88 ebbe fb90 e2bd c7b6 96bf
000002f0: 2044 e83f 6dac cfbf 6bc2 9fbd 69c7 013e
00000300: 6954 82bc f4e2 503f 3e25 38bf b47c 30be
00000310: 5a36 8f3f f547 1bbd 1a49 abbd 9338 ce3e
00000320: c89e 0ec0 16b3 cd3e ae1f 033f aa63 303f
00000330: 8402 b1be 560c ab3e 24a4 9e3f 14d0 093f
00000340: ace3 febf bf52 3dbf d52b 54bd 2f1a d8bd
00000350: 9d1e a03e 1018 aabe b2b4 d7bd f9f3 21c0
00000360: 8fcf 493f 9a90 a1bf 5ca0 fbbe 3148 63bf
00000370: 027a 233f d267 883f 676f 46bf 1003 08be
00000380: dedb a2bd 4d71 a6bf 8f6b 913f 7035 cdbf
00000390: 535f ed3e 58cf 0ebf 5342 77bf fe94 c1bf
000003a0: 33b3 d33e 7c4b 8fbf 5303 66bf e0d0 90bf
000003b0: 2361 bcbf c740 c43e 28cc b63e b7dd 33bf
000003c0: 84c8 d63e a6c3 adbf e853 5c3e 16b1 c6be
000003d0: 0a3e 083f 487e 563f b483 b1bf a98d 8b3f
000003e0: 0ae0 853f efe0 973f 7fd8 153d 17f3 eebe
000003f0: f438 203e faec 5dbf 0ae3 b2be dd56 413f
