crowd_nav/our_circle/il_model.pth (torch, 143871 bytes, 33 tensors)

w_a f4 [32, 32]
0	0xbf1fc8a7	-0.62415546
1	0xbf071334	-0.52763677
2	0x3ff0b666	1.8805664
3	0xc00abdda	-2.1678376
4	0xbe5de84a	-0.21670642
5	0xc0117e06	-2.2733169
6	0x3fac6be5	1.3470427
7	0xbeefee0d	-0.46861306
8	0x3f9740a7	1.1816605
9	0x3ebbd4bd	0.36685744
10	0xbfc58072	-1.5429823
11	0xbd549ed7	-0.051909294
12	0xbf4fbc8f	-0.8114709
13	0xc016feff	-2.3593137
14	0xbd8bf31e	-0.0683348
15	0xbf3a5c36	-0.7279695
16	0xbf3b1c52	-0.7309009
17	0xbfb9012c	-1.4453483
18	0x3f59589a	0.8490082
19	0xbe935286	-0.28773898
20	0x401ac53a	2.4182878
21	0xbe9645e1	-0.29350188
22	0x3f9be7f5	1.2180163
23	0xbf084ea3	-0.5324499
24	0xbf4e03d7	-0.8047461
25	0x3ea8d73e	0.32976717
26	0xbf720070	-0.9453192
27	0xbf363f96	-0.71190774
28	0xbfd5a12b	-1.668981
29	0xbf5ab6a5	-0.85434943
30	0xbff9769a	-1.9489319
31	0x3f85bb28	1.044774
32	0xbeb79e65	-0.35863033
33	0x3f2affd4	0.6679661
34	0xbf85973f	-1.0436782
35	0xbfa66d4c	-1.3002105
36	0x3eed1c0e	0.46310467
37	0x3d2de1b0	0.04245156
38	0x3e38682c	0.18008488
39	0x3e05c843	0.13064675
40	0x3e1aa80e	0.1510317
41	0xbec70192	-0.38868386
42	0xbf565ab6	-0.83732164
43	0x3eed4d45	0.46348014
44	0x3ec66036	0.38745278
45	0xc01cbecf	-2.449146
46	0xbf69842a	-0.9121729
47	0xbf76b015	-0.9636243
48	0x3e51c767	0.20486222
49	0x3ed0ef95	0.40807787
50	0xbfa33a5a	-1.2752182
51	0xbea37f5f	-0.31933114
52	0x3f8ec494	1.1153741
53	0xbfa0aa43	-1.255196
54	0xbfe6f66c	-1.8043952
55	0xbfe2c0c9	-1.7715083
56	0x3ec278d2	0.37982804
57	0x3f70c36c	0.9404819
58	0xbf512870	-0.8170233
59	0xbed3df5a	-0.4138134
60	0xbb888c88	-0.0041671433
61	0x3fab21bb	1.3369669
62	0x3fcf985c	1.6218371
63	0xbe7ac5a6	-0.2448946
64	0xbee97cfc	-0.45603168
65	0xbf7fe0aa	-0.99952185
66	0xbf868a58	-1.0510969
67	0x3ee4746d	0.44620076
68	0xbf5722d6	-0.8403753
69	0x3e96d5f6	0.29460114
70	0xbf324e42	-0.6965066
71	0xbfa8068c	-1.3126998
72	0xbff14964	-1.8850522
73	0x3f06d0c6	0.52662313
74	0x3f30d31e	0.6907214
75	0xbed66769	-0.4187577
76	0xbf64f7cf	-0.89440626
77	0x3c300255	0.0107427435
78	0xbfa70e44	-1.3051229
79	0x3e820244	0.25392354
80	0xbed32ca0	-0.41244984
81	0x3cb06a2e	0.021535005
82	0xbfe9be72	-1.8261244
83	0x3f5674c5	0.83771926
84	0xbdc3868d	-0.09547148
85	0x3e993b40	0.29928017
86	0x3fb904b5	1.4454561
87	0xbfd97110	-1.6987629
88	0xbfdd7793	-1.7302116
89	0x3f2a0d41	0.66426474
90	0xbf33a144	-0.70167947
91	0x3fc126cd	1.5089966
92	0xbec58850	-0.3858056
93	0xbe42e095	-0.19030984
94	0x401aab04	2.416688
95	0xbf652822	-0.8951436
96	0x3dc15640	0.09440279
97	0x3fe3149c	1.7740664
98	0xbee504d6	-0.44730252
99	0x3e8b317f	0.271862
100	0xbf810ae8	-1.0081453
101	0x3f7861b5	0.9702409
102	0x3fb545c6	1.4161918
103	0x3e9310f5	0.28723875
104	0x3f4b04ba	0.7930409
105	0xbef8c7bd	-0.48589888
106	0xbf29326b	-0.66092557
107	0xbf0c423a	-0.54788554
108	0x3f2549d1	0.6456576
109	0xbdee915c	-0.11648819
110	0x3ec28592	0.3799253
111	0xbf2f0f2a	-0.68382514
112	0xbdb3236f	-0.08746993
113	0x3e9d1ac2	0.30684477
114	0xbe904a1a	-0.28181535
115	0xbd174bd1	-0.03693754
116	0xbf70bca1	-0.94037825
117	0xbee6dff3	-0.45092735
118	0xbfb5d9f1	-1.4207135
119	0x3efa5707	0.48894522
120	0x3f18cb83	0.59685534
121	0xbf559284	-0.8342669
122	0xbfb13469	-1.3844119
123	0x3fa3ca2f	1.2796077
124	0xbfb23337	-1.392188
125	0xbda1f18b	-0.07907399
126	0xbf2e5649	-0.6810041
127	0x3eccc41b	0.39993367
128	0x3fa7996a	1.3093693
129	0xbd8b5f85	-0.06805328
130	0xbfda8348	-1.7071314
131	0xbfec9f21	-1.8486062
132	0xbf2fb253	-0.68631476
133	0xbf52b598	-0.8230834
134	0x3f17b05e	0.5925349
135	0xbf1e97a4	-0.61950135
136	0xbf35ea2f	-0.7106046
137	0x3f9c3e5a	1.2206528
138	0x3b9971ca	0.004682754
139	0xbf78f208	-0.9724431
140	0xc007e817	-2.1235406
141	0x3fb72224	1.4307294
142	0x3f2cbc16	0.67474496
143	0x3fa56193	1.2920402
144	0xbe9d3c37	-0.30710003
145	0xbe1fda1b	-0.15610544
146	0xbf509fab	-0.81493634
147	0x3e8fde82	0.28099447
148	0xbf7393cc	-0.95147395
149	0x3ce02cd8	0.027365133
150	0xbf193ef0	-0.5986166
151	0x3f64fdbd	0.89449674
152	0xbfdf16a8	-1.7428789
153	0x3f316c23	0.6930563
154	0xbcbd6640	-0.023120046
155	0x3e55f4a2	0.20894101
156	0xbf5d85ab	-0.86532086
157	0xbfaf909c	-1.3716006
158	0xbe45f06d	-0.19329996
159	0x3da04c11	0.078270085
160	0x3ea062fb	0.31325516
161	0x3f654aef	0.89567465
162	0xbfdb93e6	-1.715451
163	0xbf558d8b	-0.834191
164	0xbf293721	-0.66099745
165	0xbe2ee663	-0.17080073
166	0x3fd60a10	1.6721821
167	0x3fadf74e	1.3591096
168	0x3e10e0f4	0.14148313
169	0x3e25061d	0.16115613
170	0xbefaf6f0	-0.49016523
171	0x3f20ba21	0.6278401
172	0xbfba9a6f	-1.4578379
173	0xbf60a4d0	-0.87751484
174	0xbe9b3f6d	-0.30321828
175	0xbeb3538a	-0.35024673
176	0xbf6171b7	-0.8806414
177	0x3f381851	0.71912104
178	0xbf95f9c3	-1.1716846
179	0x3e5dd168	0.21661913
180	0xbf8605b5	-1.0470492
181	0x3ed092a9	0.40736893
182	0x3fa6ca55	1.3030497
183	0x3f0dbe28	0.5536828
184	0x3e7d1a2a	0.24717012
185	0xbe5cf89a	-0.21579209
186	0x3ecb99ca	0.3976577
187	0x3f19aae6	0.60026395
188	0xbf6bc64e	-0.92099464
189	0xbf65ba31	-0.8973723
190	0x4029b667	2.651758
191	0xbe536447	-0.20643722
192	0xbf4bdad4	-0.7963078
193	0xbf95eac6	-1.1712272
194	0xbf573395	-0.8406308
195	0x3e071642	0.13192084
196	0x3ea1d909	0.31610897
197	0x3f8d89c1	1.1057664
198	0xbf7e66cc	-0.99375606
199	0xbe1aec7f	-0.15129279
200	0x3f324859	0.69641644
201	0xbec91d7c	-0.39280307
202	0x3f70652b	0.9390437
203	0xbe154bb6	-0.14579663
204	0xbee6c3b6	-0.4507119
205	0x3ec07341	0.37587932
206	0xbdf770a1	-0.12082029
207	0xbf149853	-0.5804493
208	0xbf9617c2	-1.1726
209	0xbf3d6968	-0.7398896
210	0x3f3f73af	0.74785894
211	0xbfaef29f	-1.3667792
212	0xbfad6402	-1.3546145
213	0x3e3dcdf9	0.18535604
214	0xbf390e60	-0.7228756
215	0x3ea8b489	0.32950237
216	0xbe4893fb	-0.195877
217	0xc011ed45	-2.2801068
218	0xbf47f0a4	-0.78101563
219	0x3d369ecf	0.044585045
220	0xbeb486a9	-0.35258988
221	0xbdc88b04	-0.0979214
222	0x3f0dcc7f	0.5539016
223	0xbfa4d0de	-1.2876241
224	0xbd643e80	-0.055723667
225	0x3f64b3f7	0.89337105
226	0xbf4b1110	-0.7932291
227	0xbf0a58cc	-0.54041743
228	0x3f2aac45	0.6666911
229	0x3f8a62b8	1.0811377
230	0xbf9243c6	-1.1426933
231	0x3f2849db	0.65737695
232	0xbf92c501	-1.1466371
233	0x3f8d8c9a	1.1058533
234	0xbf81dc21	-1.0145303
235	0xbf8231cd	-1.0171448
236	0xbe722983	-0.23648648
237	0x3e23fbfc	0.16014093
238	0xbf4bd8f3	-0.79627913
239	0xbeb1ab7f	-0.34701154
240	0x3f82ec61	1.0228387
241	0xbf97443e	-1.1817701
242	0x3ad06c2d	0.001590138
243	0xbf1c9b0d	-0.6117409
244	0x3ef80250	0.48439264
245	0x3f30dcf1	0.6908713
246	0x3f2b2909	0.6685949
247	0xc00e5948	-2.2241993
248	0xbff29713	-1.8952354
249	0xbf03b32f	-0.5144529
250	0xbf5d6cbc	-0.8649404
251	0x401695a9	2.3528845
252	0xbf944504	-1.1583562
253	0xbe9909cf	-0.29890296
254	0x3fcd3873	1.6032852
255	0x401558ea	2.333552

w_r.0.weight f4 [64, 9]
0	0xbe0d5ddc	-0.13805336
1	0x3e766051	0.2406018
2	0x3eb99fea	0.36254817
3	0xbdbe29c2	-0.092853084
4	0xbea0a88e	-0.31378597
5	0x3d06e260	0.03293073
6	0xbe9bba90	-0.30415773
7	0xbe47a46a	-0.19496313
8	0xbcad3e2b	-0.021147808
9	0xbeabe161	-0.33570388
10	0xbe90e3ec	-0.2829889
11	0xbf0e6e8d	-0.5563744
12	0xbf1c6f40	-0.61107254
13	0xbe521636	-0.20516285
14	0xbdc6dfdb	-0.09710666
15	0xbe1eec96	-0.15519938
16	0xbe99d238	-0.30043197
17	0xbe755fd3	-0.23962335
18	0x3e748bad	0.23881407
19	0xbda458d3	-0.080247544
20	0xbf57245a	-0.84039843
21	0x3dc50ced	0.09621606
22	0xbdaf87f0	-0.0857085
23	0xbea18102	-0.31543738
24	0xbea5426c	-0.32277238
25	0x3d8fb619	0.07017154
26	0x3d6bdc40	0.057583094
27	0xbe60e028	-0.21960509
28	0xbe625bb1	-0.2210529
29	0xbf389347	-0.7209973
30	0xbeefb8b8	-0.46820617
31	0x3e55782e	0.20846626
32	0xbe2bcadb	-0.16776602
33	0xbd993be9	-0.0748213
34	0x3e7d37a0	0.2472825
35	0x3e0cd9d8	0.13754976
36	0x3da1467e	0.078747734
37	0x3dda9a72	0.10673989
38	0xbed80028	-0.4218762
39	0xbee39c45	-0.44455162
40	0xbe40a8f0	-0.18814445
41	0xbe1a7550	-0.15083814
42	0x3d9acb4f	0.07558309
43	0xbe5870e0	-0.21136808
44	0xbd98b826	-0.074569985
45	0x3e1fe4c0	0.15614605
46	0x3e531c62	0.20616296
47	0xbe9ce7d8	-0.30645633
48	0xbe4bddc7	-0.1990882
49	0x3d53f8cb	0.05175094
50	0x3e67b330	0.22626948
51	0x3e3943be	0.18092248
52	0xbd34ae7d	-0.044111717
53	0xbe1a26be	-0.15053841
54	0xbe08258d	-0.13295574
55	0x3cdb6341	0.026780726
56	0x3f1c3b57	0.61028045
57	0xbef3e861	-0.4763823
58	0x3e637e9e	0.2221627
59	0xbe54eb18	-0.20792806
60	0x3e5ebaf3	0.21751003
61	0xbe76fb0a	-0.24119201
62	0x3e60b59b	0.21944277
63	0xbe8746b9	-0.26421145
64	0xbd85b76b	-0.06529125
65	0xbf14b176	-0.58083284
66	0xbf270a76	-0.6525034
67	0xbe39f986	-0.18161592
68	0x3c567700	0.013089895
69	0xbe5081a5	-0.20361955
70	0x3e055c18	0.13023412
71	0x3dbb7f2b	0.09155115
72	0xbe3ace10	-0.18242669
73	0xbeac4375	-0.33645216
74	0xbe6ceb63	-0.23136668
75	0xbedf3e38	-0.43602157
76	0x3e8f041b	0.2793282
77	0x3deea7c6	0.11653094
78	0xbe115a82	-0.14194682
79	0xbeafe1a3	-0.34351835
80	0xbe88597b	-0.26630768
81	0x3e9ac65b	0.30229458
82	0xbca56f25	-0.0201946
83	0x3e61e420	0.22059679
84	0x3e3e573c	0.18587965
85	0xbda906f0	-0.08253276
86	0x3e2f28de	0.17105433
87	0x3d3d2928	0.046181828
88	0xbefc39c3	-0.4926282
89	0x3e36866b	0.17824714
90	0xbcc45b90	-0.023969442
91	0x3e1ec849	0.1550609
92	0xbeace4ba	-0.33768255
93	0x3dda4390	0.10657418
94	0xbe0f4c38	-0.13993919
95	0xbd3b772b	-0.045767944
96	0x3e40212e	0.18762657
97	0xbe92b320	-0.28652287
98	0x3c8d0aeb	0.01721712
99	0x3c8d9e97	0.017287536
100	0xba8881ef	-0.00104147
101	0xbe39db04	-0.18149954
102	0xbe4f8f66	-0.20269546
103	0xbea4c12a	-0.32178622
104	0x3e94c6ea	0.2905801
105	0xbde58c11	-0.11208356
106	0xbcc545b8	-0.024081096
107	0x3e3f9b23	0.18711524
108	0xbeaface4	-0.34311593
109	0x3d385397	0.045001592
110	0xbe90b0bf	-0.28259847
111	0xbceea521	-0.029131474
112	0xbd965470	-0.07340324
113	0xbe431cf8	-0.1905402
114	0xbedde86e	-0.43341392
115	0x3d6a3dc3	0.057187807
116	0x3e5a5040	0.21319675
117	0xbca3c6cf	-0.01999226
118	0xbe94592b	-0.2897428
119	0xbf255e15	-0.6459668
120	0xbd64a673	-0.0558228
121	0x3e092c86	0.1339589
122	0xbe015ea8	-0.12633765
123	0xbe90657a	-0.2820242
124	0xbd7327e8	-0.05936423
125	0x3e31240b	0.17298906
126	0xbc1f07eb	-0.009706478
127	0xbe0f3a5e	-0.13987109
128	0xbe0b3d11	-0.13597514
129	0xbe997b60	-0.2997694
130	0xbea4721e	-0.32118315
131	0xbe62984b	-0.22128408
132	0x3db8e8f5	0.09028808
133	0xbea6bb87	-0.32564947
134	0x3dd60520	0.10450196
135	0x3e1767c9	0.14785685
136	0xbe17422f	-0.14771341
137	0xbe268a90	-0.16263795
138	0x3e6ca114	0.23108321
139	0x3db2db26	0.087332055
140	0xbe89d68f	-0.26921508
141	0xbe8aa518	-0.27079082
142	0xbe2dae1b	-0.16960947
143	0x3dbe2366	0.092840955
144	0x3c7da965	0.015482281
145	0x3dfbc680	0.1229372
146	0x3ce1d270	0.027566165
147	0xbeeb9381	-0.46010974
148	0xbe5a4218	-0.21314275
149	0xbb484756	-0.0030560098
150	0x3de536e2	0.11192109
151	0x3b8bd210	0.0042669848
152	0x3e40ba10	0.18820977
153	0xbe6e6c99	-0.23283614
154	0x3bbfbca1	0.0058513437
155	0xbf0cc253	-0.54984015
156	0x3f0d254f	0.55135053
157	0x3e5533d8	0.20820558
158	0xbd23d700	-0.03999996
159	0xbd531398	-0.051532358
160	0xbe0f3024	-0.13983208
161	0xbe991e42	-0.29905897
162	0x3ec623d4	0.3869921
163	0x3e83ae2f	0.2571883
164	0xbea62009	-0.32446316
165	0x3e2951d2	0.16535118
166	0xbd6370e0	-0.055527568
167	0xbe9c2ffa	-0.30505353
168	0xbe978304	-0.29592144
169	0xbeacbe46	-0.33738917
170	0x3e6bca78	0.23026454
171	0x3dae0375	0.08496753
172	0xbe9e25cb	-0.3088821
173	0x3ec729a8	0.3889897
174	0xbf566175	-0.8374246
175	0xbe9eac0a	-0.3099063
176	0x3e6aef76	0.2294291
177	0xbe87d3d3	-0.26528797
178	0x3e5bf281	0.21479227
179	0xbc866feb	-0.016410789
180	0xbf066870	-0.5250311
181	0xbe8a7dee	-0.27049202
182	0x3eedfe11	0.464829
183	0x3d93667b	0.07197281
184	0x3e92ac47	0.28647062
185	0xbd3097c0	-0.04311347
186	0xbe53c2cb	-0.20679776
187	0xbe24474b	-0.16042821
188	0x3c8759eb	0.016522368
189	0x3e63a41e	0.22230574
190	0x3c21998b	0.009863268
191	0x3f11178b	0.5667655
192	0x3f0f269e	0.559183
193	0xbe0525eb	-0.13002746
194	0x3d08dc6b	0.033413332
195	0xbd411cd9	-0.047146652
196	0xbe2023de	-0.15638682
197	0x3e8c943a	0.27456838
198	0x3e9d1184	0.30677426
199	0xbdee1911	-0.11625875
200	0x3ea49c38	0.32150435
201	0xbf036fa3	-0.5134222
202	0x3e2697c3	0.1626883
203	0x3ea129f4	0.3147732
204	0x3dcced81	0.10006238
205	0xbcbae23d	-0.022812957
206	0x3e128413	0.14308195
207	0x3e1e84f7	0.1548041
208	0x3e15871e	0.14602324
209	0x3e385c70	0.18004012
210	0xbe79c576	-0.24391732
211	0xbd7f37f6	-0.062309228
212	0x3d2bce56	0.041944824
213	0x3d8b527a	0.068028405
214	0xbe644640	-0.22292423
215	0x3e6b82d0	0.2299912
216	0x3e27b73a	0.16378489
217	0x3e99aa11	0.30012563
218	0x3f297fc6	0.6621059
219	0x3e96a929	0.29425934
220	0xbe357403	-0.17720036
221	0xbc44842b	-0.011994402
222	0xbe825d1a	-0.25461656
223	0x3e092921	0.13394596
224	0xbc9acfd6	-0.018897932
225	0xbeaf110c	-0.34192693
226	0x3e5a5921	0.21323062
227	0xbe14bb2b	-0.14524524
228	0x3d9a5f9a	0.07537766
229	0xbea6ede4	-0.3260337
230	0xbe139028	-0.1441046
231	0xbe746b82	-0.23869136
232	0xbe237edc	-0.15966362
233	0xbe801237	-0.25013897
234	0x3ea22118	0.31665874
235	0xbe83dc12	-0.25753838
236	0xbf44e48b	-0.7691123
237	0x3e16b6f8	0.14718235
238	0xbce916c0	-0.02845323
239	0xbd4bdb40	-0.04976964
240	0xbd09d46b	-0.033649843
241	0xbe8562cd	-0.26051942
242	0xbd3b7896	-0.045769297
243	0xbe58fb89	-0.21189703
244	0xbe854bab	-0.26034293
245	0xbf01676f	-0.5054845
246	0x3f766da1	0.9626103
247	0x3ea27604	0.31730664
248	0xbcc40f00	-0.023932934
249	0xbec19f08	-0.37816644
250	0xbe150317	-0.1455196
251	0xbd86291b	-0.06550809
252	0xbe081e43	-0.13292794
253	0xbd4fc615	-0.050726015
254	0xbf559297	-0.83426803
255	0xbe6e66f1	-0.23281457

w_r.0.bias f4 [64]
0	0x3c9543e3	0.018220847
1	0xbdf0965b	-0.11747428
2	0xbdf8d0a5	-0.12149171
3	0xbdaf1216	-0.085483715
4	0x3d889de2	0.06670739
5	0x3def309d	0.11679194
6	0xbe624303	-0.22095875
7	0xbcc7c7f3	-0.024387335
8	0xbda5d910	-0.08098042
9	0x3c62f5db	0.013852562
10	0x3db11914	0.086473614
11	0x3c441ca0	0.011969715
12	0xbe9dabe2	-0.307952
13	0xbe26325f	-0.16230153
14	0x3d1bbaba	0.038019873
15	0x3d03d00b	0.032180827
16	0x3dafee3c	0.085903615
17	0xbeb16cea	-0.34653407
18	0x3e3368ad	0.175204
19	0xbe69bb97	-0.22825466
20	0xbe3cb898	-0.18429792
21	0xbea77ed6	-0.32713956
22	0xbe9ab995	-0.30219713
23	0xbe251239	-0.16120233
24	0x3d8fca3c	0.07020995
25	0x3e62797a	0.22116652
26	0xbed98102	-0.42481238
27	0x3e29766f	0.16549085
28	0x3d9859f0	0.07439029
29	0xbe332dc0	-0.17497921
30	0x3df4873b	0.11939856
31	0xbb30eb2b	-0.002699564
32	0xbdd73cf6	-0.10509674
33	0xbe9c6f8b	-0.3055385
34	0x3e15f4d6	0.14644179
35	0x3dd69a2f	0.10478627
36	0xbe4205ea	-0.18947569
37	0x3e877f75	0.2646443
38	0x3e72c986	0.23709688
39	0xbec960ea	-0.39331752
40	0xbde79d6c	-0.11309323
41	0xbd5022c3	-0.0508144
42	0xbe7eb126	-0.24872264
43	0xbeae1a7f	-0.3400459
44	0x3e0ddf9a	0.13854828
45	0xbe0a5433	-0.13508682
46	0xbdb08bf1	-0.08620442
47	0xbeac4af2	-0.3365093
48	0xbef70950	-0.48249292
49	0x3d1e2377	0.03860804
50	0xbe1282c5	-0.14307697
51	0x3d87abfb	0.066245995
52	0xbddc48da	-0.10756083
53	0x3cac0256	0.020997208
54	0xbe452feb	-0.1925656
55	0xbd92b631	-0.071636565
56	0x3e192dc9	0.14958872
57	0xbeaed74b	-0.3414863
58	0xbe0b68a9	-0.13614143
59	0xbd78349c	-0.060597047
60	0xbe6556c7	-0.22396384
61	0xbeccc11d	-0.39991084
62	0xbe6250c8	-0.22101128
63	0xbe8f5e74	-0.2800175

w_r.2.weight f4 [32, 64]
0	0xbe0ad163	-0.13556437
1	0xbd210a44	-0.03931643
2	0x3e85be5d	0.26121798
3	0xbd1409ec	-0.036142275
4	0xbe3793b8	-0.17927444
5	0x3d2461c3	0.040132295
6	0x3d69920f	0.057024058
7	0x3eaf74c7	0.34268782
8	0xbe8f710c	-0.28015935
9	0x3d9b30fe	0.07577704
10	0xbd36a750	-0.044593155
11	0xbda4fd07	-0.08056074
12	0x3e891f26	0.26781577
13	0x3ea8d7cf	0.3297715
14	0xbd688145	-0.056763906
15	0x3e5078ff	0.20358656
16	0x3d3095f1	0.043111745
17	0x3e5289a1	0.20560314
18	0x3d192e3e	0.037397616
19	0x3e7a0771	0.24416901
20	0xbe95a3c1	-0.29226497
21	0x3e6ef2aa	0.23334756
22	0x3d089db0	0.033353508
23	0xbd9fe26c	-0.078068584
24	0x3d13666c	0.03598635
25	0xbd082d4b	-0.03324632
26	0xbe58c6e9	-0.21169628
27	0xbe2b918c	-0.1675474
28	0x3e4e0bb4	0.20121652
29	0x3e2611a0	0.16217661
30	0xbed1ea28	-0.4099896
31	0xbe2d4bc9	-0.16923441
32	0x3e148dac	0.14507169
33	0xbc43e074	-0.011955369
34	0x3df8b695	0.121442
35	0x3dc2dacf	0.09514391
36	0xbd76bb92	-0.060237475
37	0x3d26b9fd	0.040704716
38	0xbbb52fa6	-0.005529362
39	0x3de041d6	0.10950057
40	0x3dfc9c78	0.123345315
41	0x3dc4cfd7	0.09609955
42	0x3b34258e	0.0027488205
43	0x3e157a3e	0.14597413
44	0xbd07c550	-0.033147156
45	0xbc5d4a8a	-0.013506541
46	0x3e1ae336	0.15125737
47	0x3d903b9d	0.0704262
48	0x3df8b443	0.12143757
49	0x3e808e68	0.25108647
50	0x3d85745f	0.06516337
51	0xbe87cc04	-0.2652284
52	0x3b33449c	0.0027354127
53	0xbd1e9f9c	-0.038726434
54	0x3ef9b8cf	0.4877381
55	0x3d348ffe	0.044082634
56	0x3e1c341b	0.15254252
57	0x3db8e55f	0.09028124
58	0x3c873f9f	0.01650983
59	0xbee4c69e	-0.44682783
60	0xbdac2fc9	-0.08407552
61	0xbca84ee2	-0.020545427
62	0x3e6713b2	0.22566107
63	0xbd2cf178	-0.04222247
64	0x3d9dd497	0.07706564
65	0xbd9f2231	-0.07770193
66	0xbdd7e324	-0.105413705
67	0x3dd3c6fa	0.10340686
68	0x3df6ae4e	0.12044965
69	0x3dc1395c	0.094347686
70	0x3e0675f3	0.13130932
71	0xbbcd85b6	-0.006272043
72	0x3db579fc	0.08861157
73	0xbdb83124	-0.08993748
74	0x3e71386e	0.23556682
75	0xbda48167	-0.08032494
76	0xbea67c68	-0.3251679
77	0xbe8cd8b2	-0.27509075
78	0x3d899394	0.067176014
79	0x3d2ad335	0.04170533
80	0xbd10a985	-0.035317916
81	0x3e685388	0.22688115
82	0xbe394df6	-0.18096146
83	0xbddf0262	-0.10889126
84	0xbcafcee7	-0.021460963
85	0x3da2d528	0.079508126
86	0x3d60b916	0.05486401
87	0x3de8d9fe	0.11369704
88	0xbdf11db1	-0.11773241
89	0x3ddd6194	0.10809627
90	0x3c7b6621	0.015344174
91	0xbdd5ec2a	-0.10445435
92	0x3d22b03e	0.03971886
93	0x3c42f611	0.011899487
94	0xbc0621b9	-0.008186751
95	0x3e688fbb	0.22711079
96	0xbc8f64e8	-0.01750417
97	0x3dfbb33e	0.12290047
98	0x3cf792df	0.0302214
99	0xbe4cda5d	-0.20005174
100	0x3caa1a3a	0.020764459
101	0x3d477d2b	0.048703354
102	0xbd97e7db	-0.0741727
103	0xbdd37a33	-0.10326042
104	0x3c58cf4a	0.013233015
105	0x3d8f2f44	0.06991437
106	0x3d354f9f	0.044265386
107	0xbe0da64c	-0.13832968
108	0xbd3c398f	-0.04595333
109	0x3da13499	0.0787136
110	0xbe9ed780	-0.31023788
111	0xbe2b394a	-0.16721073
112	0xbd8fd6b5	-0.07023374
113	0xbe0b0ebd	-0.13579841
114	0xbd8dfd42	-0.06933071
115	0x3e8b4b86	0.27206057
116	0x3e26e471	0.16298081
117	0xbcab9299	-0.020943927
118	0xbeb33846	-0.3500387
119	0xbdfd23ff	-0.12360381
120	0x3dc2688d	0.09492598
121	0xbdd05f44	-0.101744205
122	0x3d586778	0.05283305
123	0x3d71777d	0.058951844
124	0x3ddc4fee	0.10757433
125	0xbe2bc372	-0.16773775
126	0xbe72d2c4	-0.23713213
127	0xbb7e7100	-0.0038824677
128	0xbcd1c37a	-0.025605906
129	0xbd65a393	-0.0560642
130	0x3edff1a2	0.4373904
131	0xbd2923e5	-0.041293997
132	0xbdf5e314	-0.12006202
133	0x3e145b78	0.14488018
134	0x3c156be8	0.009119965
135	0x3d73a261	0.05948103
136	0xbeaa01f1	-0.33204606
137	0xbd11dd53	-0.03561146
138	0x3e2a48cd	0.16629334
139	0x3cc1d9bf	0.0236634
140	0xbf28ae2f	-0.65890783
141	0xbe02929c	-0.1275124
142	0xbdd1a3ab	-0.10236295
143	0xbe55a0ee	-0.20862171
144	0x3d9eb94e	0.07750188
145	0x3e1d224c	0.15345114
146	0xbe9ab6da	-0.3021763
147	0x3d926f36	0.07150118
148	0x3c2469bb	0.010034974
149	0x3dbe6aac	0.0929769
150	0x3c0259a9	0.007955947
151	0xbe41c98b	-0.18924539
152	0xbdde4298	-0.108525455
153	0x3d262634	0.040563777
154	0xbdc54ed0	-0.09634173
155	0x3dcea6a6	0.100903794
156	0xbd0e45b0	-0.034734428
157	0xbd12a8ae	-0.035805397
158	0xbe215c88	-0.15757954
159	0x3eb6f20b	0.3573154
160	0xbc85ee5a	-0.016349006
161	0xbd32c30c	-0.043643042
162	0x3dc0a91b	0.09407254
163	0x3d818389	0.063239165
164	0x3e0ed488	0.13948262
165	0xbd6cd528	-0.05782047
166	0x390c89fe	0.00013402847
167	0xbe797f9c	-0.24365085
168	0xbe1628a1	-0.14663936
169	0xbd95fc0f	-0.07323467
170	0x3d544e57	0.051832523
171	0xbd0944c0	-0.03351283
172	0xbd498106	-0.049195312
173	0x3d7a1171	0.06105179
174	0xbe2528d8	-0.16128862
175	0xbe60a9ef	-0.21939825
176	0x3c23d317	0.009999058
177	0x3e0c464e	0.13698694
178	0x3c5d113e	0.01349288
179	0x3d5dddf8	0.054166764
180	0x3e3c934b	0.18415563
181	0x3d5a6938	0.053323
182	0xbeb22801	-0.34796146
183	0xbd77eeb0	-0.060530365
184	0x3e238516	0.15968737
185	0x3e7e22e3	0.24817996
186	0xbc222f52	-0.009898977
187	0x3de7b77b	0.11314293
188	0xbe074511	-0.1320994
189	0xbdfc9c7b	-0.12334534
190	0xbe28a7cd	-0.16470261
191	0xbd868ec0	-0.06570196
192	0x3dbc5e63	0.0919769
193	0x3e2e2a9a	0.17008439
194	0xbcf0b1a7	-0.029381586
195	0xbd1b61a1	-0.037934903
196	0x3e5a7b90	0.21336198
197	0x3def177b	0.116744004
198	0xbe9d9efd	-0.3078536
199	0x3e5d592b	0.21616046
200	0x3e88ff3d	0.2675723
201	0xbebc67b5	-0.36797872
202	0x3dfe50a3	0.12417724
203	0xbd8a25df	-0.067455046
204	0xbdd11137	-0.102083616
205	0xbe4c4709	-0.19948973
206	0xbda42f42	-0.08016826
207	0xbd8d33d0	-0.06894648
208	0x3dc239f4	0.0948371
209	0x3dd02b99	0.101645656
210	0xbef5bacd	-0.4799408
211	0xbea16234	-0.31520236
212	0xbe316011	-0.17321803
213	0x3deab7bf	0.11460828
214	0xbf256f45	-0.6462291
215	0xbf300028	-0.6875024
216	0xbe954997	-0.29157707
217	0x3e21535a	0.15754452
218	0xbdc8ddc3	-0.09807923
219	0x3d3d89f8	0.046274155
220	0x3ed1876b	0.40923628
221	0xbebc9828	-0.36834836
222	0xbeb8ed10	-0.36118364
223	0xbef4b9cc	-0.47798002
224	0xbe90222d	-0.28151074
225	0xbeaee035	-0.3415543
226	0xbe4d5251	-0.20050932
227	0x3da03d8c	0.07824239
228	0x3c5bd354	0.013417084
229	0x3b540094	0.0032348977
230	0x3d855cdf	0.065118544
231	0x3e685468	0.22688448
232	0xbdeb99f9	-0.11503977
233	0xbe0529d8	-0.13004243
234	0xba953c98	-0.0011385856
235	0xbd472566	-0.04861965
236	0x3ce0bdff	0.027434347
237	0x3e49971a	0.19686547
238	0xbf95827f	-1.1680449
239	0xbd1b7859	-0.03795657
240	0x3c16ec50	0.009211615
241	0x3d4bea70	0.049784124
242	0xbdc80501	-0.097665794
243	0xbf42a35a	-0.76030505
244	0xbe87aea5	-0.2650043
245	0xbe41d6c7	-0.18929587
246	0x3daac4b6	0.08338301
247	0xbc20a871	-0.009805785
248	0xbc2ae849	-0.010431358
249	0xbd8d09c6	-0.0688663
250	0xbcb1c995	-0.021702567
251	0xbdf4ee7e	-0.11959551
252	0xbf21a77c	-0.63146186
253	0xbf87d891	-1.0612966
254	0x3e9db0fe	0.30799097
255	0x3d6df73c	0.05809711

w_r.2.bias f4 [32]
0	0xbe08eedd	-0.13372369
1	0x3e86f9fa	0.26362592
2	0x3e7044e3	0.23463778
3	0xbdca7ce1	-0.098871
4	0x3de1db0d	0.11028109
5	0xbea6f03c	-0.3260516
6	0x3c54860f	0.012971415
7	0xbd757c69	-0.0599331
8	0x3c7a92fa	0.015293831
9	0xbd9c41ab	-0.07629713
10	0x3e0acb9c	0.13554233
11	0xbe069164	-0.131414
12	0xbe0b7108	-0.13617337
13	0x3cf8130d	0.030282522
14	0x3bb421d8	0.0054971986
15	0xbda46677	-0.08027356
16	0xbdea74df	-0.11448073
17	0xbd98f31a	-0.07468243
18	0x3e618c86	0.22026262
19	0xbda57055	-0.08078066
20	0x3da2479f	0.07923817
21	0x3dc6119f	0.0967133
22	0x3d0df6eb	0.034659307
23	0x3dcbf7b6	0.099593565
24	0xbe0551ef	-0.13019536
25	0x3e811f5b	0.25219235
26	0x3e1fd07e	0.15606877
27	0xbd21ac9a	-0.039471246
28	0x3e290645	0.16506298
29	0xbde75c49	-0.11296899
30	0x3db45d6c	0.08806881
31	0x3db90da8	0.09035808

w_h.0.weight f4 [64, 5]
0	0xbd410c43	-0.047130834
1	0xbe367c5e	-0.1782088
2	0xbf74562f	-0.95444006
3	0xbf5a7751	-0.8533831
4	0xbee4fe4d	-0.44725266
5	0x3e6bde10	0.23033929
6	0x3e115703	0.14193349
7	0xbeb899c9	-0.3605483
8	0x3efb926b	0.49135146
9	0xbe67fcc7	-0.2265502
10	0xbdaa58ec	-0.08317742
11	0xbe0cd18b	-0.1375181
12	0xbe4ac43b	-0.19801418
13	0x3e87e5a0	0.26542377
14	0x3e34fa12	0.17673519
15	0xbdba5c1c	-0.090996
16	0x3e25d8a4	0.16195923
17	0xbf0214a6	-0.50812757
18	0xbf495c67	-0.7865662
19	0xbde892f2	-0.113561526
20	0x3d8088b7	0.06276076
21	0x3d9ce3fd	0.07660673
22	0xbef214b6	-0.47281426
23	0x3edb1d7a	0.42795926
24	0xbea31954	-0.3185526
25	0xbc4eef07	-0.012630231
26	0xbd924ce7	-0.07143574
27	0xbe7f0f63	-0.24908213
28	0x3ea3e15f	0.32007882
29	0xbd6e8c17	-0.05823907
30	0xbec8bc6d	-0.39206257
31	0x3c04fa93	0.008116382
32	0xbf7a4fda	-0.97778094
33	0xbce1fe3c	-0.027587049
34	0xbe837e5a	-0.25682336
35	0xbe121c53	-0.14268617
36	0xbdbe4cf9	-0.09292025
37	0xbec8a405	-0.39187637
38	0xbea65be1	-0.32491973
39	0xbe606dfa	-0.21916953
40	0xbe2af78c	-0.16695994
41	0x3e7f9f46	0.24963102
42	0x3e9fecf9	0.31235483
43	0xbef27194	-0.47352278
44	0x3ec396ff	0.38201138
45	0xbd8ee2ca	-0.0697685
46	0xbe1387c3	-0.14407258
47	0xbe9a0a3a	-0.30085927
48	0xbf19c1b3	-0.60061187
49	0xbecf3d02	-0.40476233
50	0x3ea41c6b	0.3205293
51	0xbea3b99b	-0.31977543
52	0xbe15e9f2	-0.14640024
53	0xbf272a41	-0.6529885
54	0xbea8d553	-0.32975253
55	0xbe691b2e	-0.22764274
56	0x3d70f79d	0.058829892
57	0xbf34008e	-0.70313346
58	0xbf7df1c9	-0.9919706
59	0xbde5334d	-0.111914255
60	0x3d0958aa	0.033531822
61	0x3e9418a5	0.28925052
62	0xbe514771	-0.20437409
63	0x3e305bda	0.17222539
64	0x3e7b1d5f	0.24522923
65	0x3cba1038	0.022712812
66	0xbdcaa7cc	-0.09895286
67	0xbe62ec77	-0.22160517
68	0x3e29a95c	0.16568512
69	0xbf1d7e18	-0.6152053
70	0x3e93baa8	0.28853345
71	0xbca0b377	-0.019616826
72	0x3f045024	0.51684785
73	0xbea0dab8	-0.3141687
74	0xbea608e0	-0.32428646
75	0xbe5e5b70	-0.21714568
76	0xbe134b36	-0.1438416
77	0x3d7798c2	0.060448416
78	0xbf4fe606	-0.8121036
79	0x3e0d7780	0.13815117
80	0xbe0969c8	-0.13419259
81	0x3ea06420	0.3132639
82	0x3f165a3e	0.5873145
83	0x3ecde693	0.40214977
84	0xbd88f23b	-0.06686827
85	0xbdcbbf70	-0.09948623
86	0xbd862998	-0.06550902
87	0xbf2d2897	-0.6764006
88	0xbf7215a8	-0.94564295
89	0x3f29993e	0.66249454
90	0x3e16427c	0.146738
91	0x3e81fd16	0.25388402
92	0xbe4807eb	-0.1953427
93	0x3f1a7a3a	0.6034275
94	0x3e849a20	0.25898838
95	0xbeac9386	-0.337063
96	0x3da7b1ad	0.08188186
97	0x3f122504	0.5708773
98	0xbe8674f8	-0.26261115
99	0x3ed33574	0.4125172
100	0xbe839be2	-0.25704867
101	0x3e0ff331	0.14057614
102	0xbe95a77b	-0.2922934
103	0xbe54be19	-0.20775642
104	0xbbb1e403	-0.0054287924
105	0xbdcef121	-0.101045854
106	0x3d26e166	0.0407423
107	0x3f103666	0.56333005
108	0xbdbce90e	-0.09224139
109	0xbf46dfad	-0.7768505
110	0x3e9a5b3f	0.3014774
111	0x3e09c171	0.13452698
112	0xbf3a4f48	-0.72777224
113	0xbe5db5ac	-0.21651334
114	0xbe5801f3	-0.21094494
115	0xbc20f481	-0.009823919
116	0xbe5e1a01	-0.21689607
117	0x3f1d5f31	0.61473376
118	0xbe59444d	-0.21217461
119	0x3e516ed7	0.20452438
120	0x3e07fc09	0.13279738
121	0xbe1da583	-0.15395169
122	0x3f4cb6d5	0.7996648
123	0xbf4d42a2	-0.801798
124	0xbe963c58	-0.29342914
125	0x3da0ae39	0.0784573
126	0x3e8ba165	0.27271572
127	0xbf1d47d3	-0.6143772
128	0xbd0894e9	-0.033345137
129	0xbf19883f	-0.5997352
130	0xbe16eb5a	-0.14738217
131	0x3ddf1d82	0.108943
132	0xbdc909d7	-0.0981633
133	0xbeea0e85	-0.45714203
134	0xbefec39c	-0.49758613
135	0xbe8342e0	-0.2563696
136	0xbe40c196	-0.18823847
137	0xbf2c2ebe	-0.6725882
138	0xbf3ab5a8	-0.72933435
139	0xbeca8a33	-0.39558563
140	0xbe8e7b30	-0.2782836
141	0xbdeb9aa1	-0.115041025
142	0xbe64a5b3	-0.22328834
143	0xbf46e897	-0.77698654
144	0xbe037421	-0.12837268
145	0xbe34485b	-0.17605726
146	0xbe59a0ad	-0.21252699
147	0xbd5227ef	-0.051307615
148	0xbdc0d083	-0.094147705
149	0xbe6fc5c0	-0.2341528
150	0xbd44b4ac	-0.048023865
151	0x3e21b9b5	0.15793498
152	0xbf0e45ce	-0.55575264
153	0xbf11851e	-0.56843746
154	0x3e94a92a	0.29035312
155	0xbc02d242	-0.0079847
156	0xbd450376	-0.048099004
157	0x3f0b9e5f	0.5453853
158	0xbefe6f66	-0.49694365
159	0x3ea8c6df	0.32964227
160	0x3d084899	0.03327236
161	0x3d6fdfa4	0.05856289
162	0x3e0ba347	0.13636504
163	0xbf1dcd20	-0.6164112
164	0x3eec68e6	0.4617378
165	0x3e1a601e	0.15075728
166	0xbd722ce0	-0.059124827
167	0x3f06e8a6	0.52698743
168	0x3e5b0536	0.21388707
169	0x3eaa37b1	0.33245614
170	0xbe809f3a	-0.2512148
171	0x3d790ea4	0.060804978
172	0x3f0ddc2e	0.5541409
173	0xbe215c34	-0.15757829
174	0x3e8bf071	0.2733188
175	0xbe062847	-0.13101302
176	0xbe9413a5	-0.28921238
177	0xbe20166e	-0.15633556
178	0x3e9bc056	0.30420178
179	0xbd46a7dd	-0.04849993
180	0xbe86f7a1	-0.263608
181	0xbea214f7	-0.3165662
182	0xbea836a8	-0.328542
183	0x3f2f675f	0.68517107
184	0x3ea0103f	0.31262395
185	0xbe69dac6	-0.22837362
186	0xbe531c5b	-0.20616286
187	0xbe976482	-0.2956887
188	0x3ebfeff5	0.3748776
189	0xbf39fd79	-0.72652394
190	0x3ea7b7f8	0.32757545
191	0xbdabe74b	-0.08393725
192	0xbe34975a	-0.17635861
193	0x3eee8089	0.4658244
194	0x3ed0b1bd	0.40760604
195	0xbc81a69f	-0.015826521
196	0xbd305cc9	-0.043057237
197	0xbf322331	-0.6958495
198	0x3e380eb1	0.17974354
199	0xbed5e016	-0.41772527
200	0x3d04a256	0.032381378
201	0xbdf97760	-0.12180972
202	0xbdf9405e	-0.1217048
203	0x3e13cc22	0.14433339
204	0x3de2bc97	0.11071127
205	0xbd00677b	-0.031348687
206	0xb98f318d	-0.00027312004
207	0x3f5181a4	0.8183844
208	0x3f0d3ef0	0.5517416
209	0xbf0824dd	-0.5318125
210	0x3d5cd722	0.053916104
211	0x3e0f4d5d	0.13994355
212	0xbe13e876	-0.14444146
213	0xbf098c0c	-0.5372932
214	0xbd8699fe	-0.065723404
215	0x3e3d6cfa	0.18498603
216	0x3e318550	0.17336011
217	0x3ed11f30	0.40844107
218	0x3f1a95b7	0.60384697
219	0xbe4b135c	-0.19831604
220	0x3e1e00b2	0.15429953
221	0x3dbb8a91	0.09157289
222	0x3d90403c	0.07043502
223	0xbf0b95e2	-0.5452558
224	0xbe3483be	-0.1762838
225	0x3df57d08	0.119867384
226	0x3e8651c5	0.2623426
227	0xbee24c42	-0.44198805
228	0xbf680a18	-0.906404
229	0xbefc8026	-0.4931652
230	0xbdea41ce	-0.114383325
231	0x3edcab7c	0.43099582
232	0x3efd4c78	0.49472404
233	0xbf4d67a5	-0.80236274
234	0xbe121150	-0.14264417
235	0xbdb8cdaa	-0.09023602
236	0x3e1e1610	0.15438104
237	0x3d65d104	0.056107536
238	0x3f018b9c	0.5060365
239	0xbe23d0d7	-0.15997635
240	0xbe831586	-0.2560236
241	0x3e53362a	0.2062613
242	0x3db19d82	0.0867262
243	0x3f076bbe	0.52898777
244	0x3c9cf446	0.019159447
245	0x3c0fcc16	0.008776685
246	0xbb89dd69	-0.0042073024
247	0x3c86ac22	0.016439501
248	0x3d8719bd	0.06596706
249	0x3e9f403e	0.311037
250	0x3e605ad0	0.21909642
251	0x3ddd0c3d	0.1079335
252	0xbed9bcea	-0.42526942
253	0xbdfdd7cf	-0.12394678
254	0xbea4add4	-0.3216387
255	0x3e81840d	0.2529606

w_h.0.bias f4 [64]
0	0xbea5fa7f	-0.32417676
1	0xbe85dabb	-0.2614344
2	0x3d270804	0.04077913
3	0xbec9fae4	-0.39449227
4	0xbee1d466	-0.4410736
5	0x3e7d9daa	0.24767175
6	0xbee84d47	-0.45371458
7	0x3e623664	0.22091061
8	0xbd566d5c	-0.052350387
9	0xbead7e58	-0.33885455
10	0xbc5d2f67	-0.013500071
11	0x3ea310ff	0.31848904
12	0xbeb63576	-0.35587662
13	0x3e8186e6	0.25298232
14	0xbdd5f204	-0.104465514
15	0x3e5a1d01	0.21300127
16	0xbed71724	-0.42009842
17	0xbe003bd5	-0.12522824
18	0xbe47da6a	-0.19516912
19	0xbf0228cc	-0.508435
20	0xbecdfa26	-0.4022991
21	0xbc25c01e	-0.010116605
22	0xbf41e2a6	-0.75736463
23	0xbf494fc9	-0.7863737
24	0xbed74728	-0.42046475
25	0xbe26e2e0	-0.16297483
26	0x3e923b42	0.28560835
27	0x3c12bfe6	0.008956885
28	0xbee2f640	-0.443285
29	0x3d984a5b	0.07436057
30	0x3f0d46a2	0.551859
31	0xbd0680a6	-0.032837532
32	0x3e3ea90d	0.18619175
33	0xbecf4b5e	-0.40487188
34	0xbe19904d	-0.14996453
35	0xbf1fb6d3	-0.6238834
36	0xbe3bbe73	-0.1833437
37	0xbf1f4e22	-0.62228596
38	0xbf068a03	-0.5255434
39	0xbdfc19fd	-0.12309644
40	0xbd9dc538	-0.07703632
41	0xbf0580e6	-0.5214981
42	0x3e9196d4	0.28435385
43	0x3d82dc50	0.063896775
44	0x3e91a4dd	0.28446093
45	0xbb8ee9d6	-0.0043613715
46	0xbed84585	-0.4224054
47	0xbe20eacb	-0.15714566
48	0x3d334248	0.043764383
49	0xbdf2ce93	-0.11855807
50	0xbda9fad5	-0.082997955
51	0xbf545fc2	-0.82958615
52	0xbef8f25d	-0.48622409
53	0xbf220baf	-0.6329908
54	0x3e20b415	0.15693696
55	0xbf1a4b99	-0.602716
56	0x3d04df0e	0.032439284
57	0x3e3f72a1	0.18696071
58	0xbe01307f	-0.12616156
59	0x3ec23f20	0.37938786
60	0xbe8b057a	-0.27152616
61	0xbe31ffa2	-0.17382672
62	0xbeb51f9e	-0.35375684
63	0xbe8bc65b	-0.2729977

w_h.2.weight f4 [32, 64]
0	0x3e6c4600	0.23073578
1	0x3e0f84bc	0.14015478
2	0xbd0865e1	-0.033300284
3	0xbeb3f166	-0.3514511
4	0xbdf8befb	-0.12145802
5	0xbcbadb55	-0.022809664
6	0x3ee968d7	0.455878
7	0x3e3b8c41	0.18315221
8	0x3e90d29c	0.28285682
9	0x3e87e442	0.26541334
10	0x3d204d25	0.03913607
11	0x3d2d3c8e	0.042294078
12	0x3c2d0fc0	0.010562837
13	0xbcecd898	-0.028911874
14	0xbd3ba4ba	-0.045811392
15	0x3d63f02d	0.05564897
16	0xbde99d5e	-0.114069685
17	0xbd8dda5b	-0.069264136
18	0xbbd05228	-0.00635745
19	0xbe76de57	-0.24108253
20	0x3d30daa3	0.04317726
21	0x3e1fde46	0.15612134
22	0x3e1f1dc1	0.15538694
23	0xbd9a6b8c	-0.07540044
24	0x3d1897c9	0.03725413
25	0xbdd9dd3a	-0.10637899
26	0x3dace877	0.08442777
27	0x3dec182c	0.11528048
28	0x3dafb096	0.08578603
29	0x3d947581	0.072489746
30	0x3d2db8f3	0.04241271
31	0x3d6fced1	0.058546845
32	0xbd804af0	-0.06264293
33	0xbea345e0	-0.31889248
34	0x3da93f7b	0.08264061
35	0xbe4ae04d	-0.19812126
36	0x3dc835ab	0.09775861
37	0xbe8cd32d	-0.27504864
38	0xbd048bd4	-0.032359913
39	0x3ccc655b	0.024950674
40	0xbcae55c3	-0.021281129
41	0x3e6cd7ea	0.2312924
42	0xbc519b64	-0.012793396
43	0x3e18b0bf	0.14911173
44	0x3d9b4009	0.07580573
45	0x3c91e3a4	0.017808743
46	0xbed7840b	-0.42092928
47	0x3e82b9e3	0.25532445
48	0x3e827abd	0.25484267
49	0x3d25ae2f	0.040449318
50	0xbd49f9ff	-0.04931068
51	0x3e5b81f1	0.21436287
52	0xbd0190c9	-0.03163222
53	0xbdba0cf9	-0.090845056
54	0x3d8895da	0.06669207
55	0x3ebd0a3d	0.36921874
56	0x3dcd60a5	0.10028199
57	0x3deeca2f	0.11659657
58	0xbe31fdc0	-0.17381954
59	0x3e75d5dd	0.24007364
60	0x3a9be8c1	0.0011894928
61	0x3cd1df26	0.0256191
62	0x3e46f720	0.19430208
63	0x3e2f8034	0.1713875
64	0x3e87fe89	0.26561382
65	0xbe4dfe02	-0.20116428
66	0xbd8139d4	-0.06309858
67	0xbe0edc65	-0.13951261
68	0xbeb96470	-0.3620944
69	0xbd0b6ae5	-0.03403749
70	0x3e201e16	0.15636477
71	0xbe8aa591	-0.27079442
72	0x3c68798b	0.014189134
73	0x3e6dc951	0.23221327
74	0x3e97c58a	0.29642898
75	0xbe5b1434	-0.21394426
76	0xbe0e646a	-0.13905492
77	0xbdbfd8fc	-0.09367558
78	0x3e5bc037	0.21460043
79	0x3d398865	0.04529609
80	0x3d3b4d22	0.045727856
81	0x3da38f6b	0.07986339
82	0x3d7dacfb	0.061932545
83	0x3e9de247	0.30836698
84	0xbe135fa0	-0.14391947
85	0xbe42f966	-0.1904045
86	0x3d49346a	0.04912225
87	0x3e8f2ef4	0.2796551
88	0x3e208f8a	0.15679756
89	0xbd494c86	-0.049145244
90	0xbea75103	-0.32678995
91	0x3e27fa00	0.16403961
92	0x3edebca1	0.43503287
93	0xbdc4bbf9	-0.096061654
94	0x3e0c33ef	0.13691686
95	0x3e83b66f	0.25725123
96	0x3dbe985c	0.09306404
97	0xbe3e614c	-0.18591803
98	0x3dd5a077	0.10430997
99	0x3e067901	0.13132097
100	0xbe31af33	-0.1735199
101	0x3e4f42c5	0.20240314
102	0xbe0eec42	-0.13957313
103	0xbed46fa2	-0.4149142
104	0xbdaa2982	-0.08308698
105	0xbdeed930	-0.11662519
106	0x3e68ca93	0.22733526
107	0xbdddcc5f	-0.10829996
108	0x3e95cbbc	0.29257
109	0x3ca2ed99	0.019888686
110	0x3c6c1a17	0.014410517
111	0x3d902394	0.07038036
112	0x3ca852ae	0.020547237
113	0x3d0c739a	0.034289934
114	0x3e2d22fb	0.16907875
115	0x3deb1acc	0.114797205
116	0x3ed71bb9	0.42013338
117	0x3e49653a	0.19667521
118	0x3e00533f	0.12531756
119	0xbdd94846	-0.10609488
120	0x3e0d84d5	0.13820203
121	0x3defa37b	0.11701103
122	0x3e09d837	0.13461386
123	0x3d44519a	0.047929384
124	0x3d71516f	0.05891555
125	0x3e3c2d40	0.18376637
126	0xbc7d1240	-0.015446246
127	0x3e93f7d3	0.28900012
128	0xbdb930eb	-0.090425335
129	0x3b3c685a	0.0028748722
130	0xbcb357f5	-0.021892527
131	0x3db4b72e	0.08824001
132	0x3dd3e50d	0.10346422
133	0x3be7afe8	0.00707053
134	0xbdd7cbfe	-0.10536955
135	0x3da13093	0.07870593
136	0xbe4b8f80	-0.1987896
137	0x3d2939d4	0.041314915
138	0x3a1e0b73	0.0006028928
139	0xbdf1240e	-0.11774455
140	0xbdffdc49	-0.12493188
141	0xbda964af	-0.08271157
142	0xbdabf445	-0.083962
143	0x3d0e3688	0.034719974
144	0xbc2dce97	-0.010608337
145	0xbd30ccff	-0.04316425
146	0xbc520916	-0.012819549
147	0x3d87ef51	0.06637443
148	0xbd2108bd	-0.039314974
149	0xbe18f115	-0.14935715
150	0xbd085aeb	-0.03328983
151	0xbd8998c7	-0.06718593
152	0x3c88df47	0.01670803
153	0x3d0fc629	0.03510109
154	0x3d788080	0.060669422
155	0xbdba45c7	-0.0909534
156	0x3d4cc33f	0.04999089
157	0xbd85aec1	-0.06527472
158	0xbcca7ef5	-0.024718741
159	0xbda47ef6	-0.080320284
160	0x3dba78dc	0.09105083
161	0xbdb324a5	-0.08747224
162	0xbd2323c9	-0.03982905
163	0xbda59e78	-0.08086866
164	0x3d6d81d8	0.057985157
165	0x3d3a8132	0.045533367
166	0xbe13cefc	-0.14434427
167	0xbb600c28	-0.0034186933
168	0xbdf5002a	-0.11962922
169	0x3d5b29f1	0.053506795
170	0xbde7c372	-0.11316575
171	0x3dd4a2c6	0.10382609
172	0x3cc74fcd	0.024330044
173	0x3d854b4b	0.065085016
174	0xbd219ad4	-0.039454296
175	0xba477569	-0.0007608743
176	0xbe231617	-0.15926395
177	0xbe33f45f	-0.17573689
178	0xbd0aa371	-0.033847276
179	0xbcc875b2	-0.024470184
180	0xbb1964cd	-0.002340603
181	0xbdcfb4c8	-0.10141903
182	0x3dad4f44	0.08462384
183	0x3d87a24e	0.06622754
184	0x3c97ab0a	0.018514175
185	0x3d26f50c	0.04076104
186	0x3d818aa0	0.06325269
187	0x3bba087a	0.00567728
188	0xbdb37a36	-0.08763544
189	0x3dc9121e	0.09817909
190	0xbdcf16b1	-0.1011175
191	0x3c728e8c	0.014804494
192	0xbeaaf2bb	-0.33388314
193	0x3e0749a9	0.13211693
194	0x3e92d9f7	0.2868192
195	0x3e857453	0.2606531
196	0x3e7ff9e5	0.24997671
197	0x3e836ca7	0.25668833
198	0x3e483b44	0.19553858
199	0x3c875751	0.016521128
200	0xbe3a4c85	-0.18193252
201	0x3eb7a6cd	0.35869446
202	0xbeb97478	-0.3622167
203	0x3e73636d	0.23768397
204	0x3da49ef9	0.08038134
205	0x3e266f90	0.16253495
206	0xbe865908	-0.262398
207	0xbee08971	-0.4385486
208	0x3dce1497	0.10062521
209	0x3eae14c2	0.34000212
210	0x3e727179	0.23676099
211	0xbe93707c	-0.28796756
212	0xbe8fc599	-0.28080443
213	0x3e8de7f3	0.27716026
214	0xbe3d343a	-0.18476954
215	0xbe379b6f	-0.17930387
216	0x3e266b21	0.16251804
217	0xbca3c7fc	-0.01999282
218	0xbe73b8d8	-0.23800981
219	0xbc3cf2b0	-0.011532471
220	0x3f0d727a	0.552528
221	0xbe2755be	-0.16341302
222	0x3e44e2d8	0.19227159
223	0xbdcc7f09	-0.099851675
224	0xbdcf9e25	-0.101375856
225	0xbdf3c2d9	-0.119023986
226	0xbf0bca63	-0.5460569
227	0xbb807953	-0.003920713
228	0x3e4f966b	0.20272224
229	0xbed30e93	-0.41222057
230	0xbddc67c5	-0.1076198
231	0x3e6eb85f	0.2331252
232	0xbd0ae7d3	-0.03391249
233	0xbe9b7338	-0.30361342
234	0x391f8f09	0.00015216706
235	0x3ca2cf01	0.019874098
236	0xbda56439	-0.080757566
237	0xbd8e4046	-0.06945853
238	0xbd9266ae	-0.07148491
239	0x3bdc8cfe	0.0067306748
240	0x3e341ca2	0.17589048
241	0x3db7f20a	0.08981712
242	0xbce08232	-0.027405832
243	0xbe9eb741	-0.30999187
244	0x3d66b81f	0.056327935
245	0xbb9a26b6	-0.0047043217
246	0x3d61464c	0.05499868
247	0x3de1c155	0.11023203
248	0xbea55de5	-0.32298198
249	0xbd910b8c	-0.070822805
250	0xbd6f9427	-0.0584909
251	0x3e4cb1b8	0.1998967
252	0xbe86827c	-0.26271427
253	0xbeecfbf1	-0.46285966
254	0x3d95849f	0.07300686
255	0x3ebb14ff	0.36539456

w_h.2.bias f4 [32]
0	0x3d3bc35b	0.045840602
1	0x3d3fd750	0.046836197
2	0xbdbc550c	-0.09195909
3	0x3e7183bb	0.23585407
4	0xbdf516d2	-0.11967243
5	0xbe348bfc	-0.17631525
6	0x3e305cd4	0.17222911
7	0x3e2c5c8c	0.16832179
8	0xbe3d1e90	-0.1846869
9	0xbe2a0b23	-0.16605811
10	0x3ce0c675	0.027438382
11	0x3e0a848d	0.13527127
12	0x3e248b64	0.16068798
13	0x3dd3c714	0.103407055
14	0x3db8de87	0.09026819
15	0xbe4d9cea	-0.20079389
16	0xbe8afb8d	-0.27145043
17	0x3d22385d	0.039604533
18	0x3e1aa48b	0.1510183
19	0xbcdf5798	-0.027263448
20	0xbe317cb6	-0.1733273
21	0xbe1449da	-0.14481297
22	0xbe191356	-0.14948782
23	0xbd6b6694	-0.057470873
24	0x3e19d81c	0.15023845
25	0x3d086111	0.033295695
26	0xbe2407c1	-0.16018583
27	0x3dee2555	0.11628214
28	0x3c93b412	0.0180302
29	0xbe01ee23	-0.12688498
30	0xbe26359e	-0.16231391
31	0xbe022357	-0.12708794

Ws.0 f4 [32, 32]
0	0xbf61c240	-0.88187027
1	0x3f936c62	1.1517451
2	0xbf621feb	-0.8832995
3	0x3edb909f	0.42883775
4	0x3fab0c76	1.3363178
5	0xbecfd14a	-0.40589362
6	0xbed4c019	-0.4155281
7	0x400ebf34	2.23042
8	0x3e24846c	0.1606614
9	0x3fdde7b5	1.7336336
10	0xc00173c8	-2.0226917
11	0xbf4f1247	-0.80887264
12	0x3eeb5ebc	0.45970714
13	0x3ef117ce	0.47088474
14	0x3e7c3fa0	0.24633646
15	0x3e6fd804	0.23422247
16	0xbe774ac3	-0.24149613
17	0xbef65c9e	-0.48117536
18	0x3e9c2459	0.3049648
19	0x401e22e6	2.47088
20	0xbf8efdb9	-1.117118
21	0xbf191d51	-0.5981036
22	0xbf2b2b79	-0.6686321
23	0x3ed3c394	0.41360152
24	0x3e099ae1	0.13437988
25	0xbf29ac5a	-0.6627861
26	0x3f4e29c7	0.805325
27	0x3f906847	1.1281823
28	0x3e093c76	0.1340197
29	0xbf691010	-0.91040134
30	0xbf071d48	-0.52779055
31	0x3e3696a8	0.17830908
32	0xbfa6688c	-1.3000655
33	0xbeaa6283	-0.33278283
34	0x3ebc6489	0.36795452
35	0x3fdbcf19	1.7172576
36	0xbff33844	-1.9001546
37	0x3f70fb88	0.94133806
38	0x3e0590de	0.13043544
39	0x3d59428b	0.053041976
40	0x3e630323	0.22169165
41	0xbf84d6db	-1.0378069
42	0x3b42c0fc	0.0029717078
43	0x3df9fb06	0.12206082
44	0xbe7d0911	-0.2471049
45	0xbf31d43e	-0.6946448
46	0x3f4314a7	0.7620339
47	0xbf5b86ac	-0.8575237
48	0xbea8510a	-0.32874328
49	0x3fe38fdc	1.7778277
50	0xbf48dd94	-0.784631
51	0x3f8697df	1.0515097
52	0xc01765f7	-2.3655984
53	0xbfc5352d	-1.5406853
54	0x3f914834	1.135016
55	0x3dcae693	0.0990726
56	0x3d5a0ad0	0.053232968
57	0x3fb6668a	1.4250042
58	0x3fa39578	1.2779989
59	0x3dfe8e58	0.12429494
60	0xbd6d4397	-0.057925787
61	0xc027dbd3	-2.622792
62	0x3f81ea85	1.0149695
63	0x3e7668a3	0.24063353
64	0x3e8de2e3	0.27712163
65	0xc04b0b58	-3.1725674
66	0xbf356536	-0.7085756
67	0x3e349421	0.17634632
68	0xbe12c8b5	-0.14334376
69	0x3fa13b85	1.2596289
70	0xbf9e5e53	-1.2372535
71	0xbf606416	-0.8765272
72	0xc0450f88	-3.079073
73	0x3f781122	0.9690114
74	0x3fc23005	1.5170904
75	0x3ef1e4ff	0.47245023
76	0xbf8c7dea	-1.0975926
77	0xbf47c6e1	-0.7803784
78	0x3f01a5cf	0.5064363
79	0xbf052429	-0.520083
80	0x4020e66b	2.5140636
81	0x3e2e6e6d	0.17034312
82	0x3de70e39	0.1128201
83	0x3fd11de6	1.6337249
84	0xbdf6d011	-0.12051404
85	0x3dbbfb38	0.091787755
86	0xbf9beb2e	-1.2181146
87	0xbf0e7c3a	-0.55658305
88	0x4012da11	2.2945597
89	0xbf301510	-0.6878214
90	0xbf8fe2b1	-1.1241056
91	0xbf727a5e	-0.9471797
92	0x3ec2d28f	0.38051268
93	0x3fa3c7b1	1.2795316
94	0xbe5f14e5	-0.21785314
95	0x3e84770f	0.25872084
96	0xc036e66b	-2.8578136
97	0xbecdbc13	-0.40182552
98	0xbe145536	-0.1448563
99	0xc029d928	-2.6538792
100	0xbe2e312e	-0.17010948
101	0x3f9e9b56	1.2391155
102	0x3f8a9398	1.0826292
103	0x3d73e3f6	0.059543572
104	0x3f25fc65	0.6483825
105	0x3f720fc8	0.9455533
106	0xbe2c43fb	-0.16822807
107	0xbed1bdc3	-0.4096509
108	0xbf1fbbcc	-0.6239593
109	0x3eb0285e	0.34405798
110	0x3ecace45	0.39610496
111	0x3f70786b	0.93933743
112	0xbecb2d90	-0.396832
113	0x3ea592b4	0.32338488
114	0x3f843b1a	1.0330536
115	0x400bb9f3	2.1832244
116	0x3ff20e0a	1.8910534
117	0x3e6bdc85	0.2303334
118	0xc0020159	-2.0313323
119	0xbf4a14b1	-0.7893782
120	0x3fe5b3f2	1.794554
121	0xbef24c6f	-0.4732394
122	0x3ee711c6	0.45130748
123	0xbe56948b	-0.20955102
124	0xbd090a94	-0.033457354
125	0xbf693d02	-0.91108716
126	0x3f253b8d	0.6454399
127	0xbf54aa38	-0.83072233
128	0x3e7b574a	0.24545017
129	0x3d1ac710	0.037787497
130	0xbf0a2c10	-0.53973484
131	0xc0447d32	-3.0701413
132	0xbf82e89a	-1.0227234
133	0x3e721308	0.23640072
134	0xc041fd68	-3.0310917
135	0xc0049901	-2.0718386
136	0xbf8b5258	-1.0884504
137	0x3e5ca60c	0.21547717
138	0x40049ce2	2.0720754
139	0x3e8b32db	0.27187237
140	0xbeab728e	-0.33485836
141	0xbf88baa6	-1.068196
142	0x3f9873a5	1.1910292
143	0xbe95bddf	-0.29246423
144	0x3fadc658	1.3576155
145	0xbfb20cdb	-1.3910173
146	0xbff7779f	-1.933338
147	0xbf9b6f3b	-1.214332
148	0xbf711353	-0.9417011
149	0x3e8b4269	0.27199104
150	0x3f2abd30	0.6669493
151	0x3f1d945f	0.6155452
152	0x3f0603ee	0.52349746
153	0xc04aacf5	-3.1668065
154	0xbdf60013	-0.12011733
155	0xc05bea63	-3.4361808
156	0x3e94dffe	0.29077142
157	0x3f4cbece	0.79978645
158	0xbe01b311	-0.12665965
159	0xbeced6ad	-0.4039816
160	0x3e60bb52	0.21946457
161	0xbf9e70f2	-1.2378218
162	0xbfabc7b7	-1.3420323
163	0x3e3be302	0.18348315
164	0x3ea430d5	0.32068506
165	0xbfaa5fc6	-1.3310478
166	0x3e02e6c4	0.12783343
167	0x3fa88ecb	1.3168577
168	0x3f23e093	0.6401455
169	0x3e488729	0.1958281
170	0xbeb9547f	-0.36197278
171	0x3d252c39	0.040325377
172	0xbe9d0df7	-0.30674717
173	0x3f5eacfa	0.8698269
174	0x3f981f4e	1.1884553
175	0xbd850ae8	-0.06496221
176	0xbeb20097	-0.34766075
177	0xbf173562	-0.5906583
178	0xbff5850a	-1.9181225
179	0xbea03524	-0.31290543
180	0x3f54da3a	0.8314549
181	0xbd2ed666	-0.042684935
182	0x3f0c4560	0.5479336
183	0x3eba62fb	0.3640364
184	0xbf15be04	-0.58493066
185	0xbdf8670a	-0.12129028
186	0x3f53764e	0.82602394
187	0xbfec8654	-1.8478494
188	0x3e0ccc26	0.13749751
189	0xbd4fb5ca	-0.050710477
190	0xbcfd5a8b	-0.030926963
191	0xbf37610d	-0.7163246
192	0xbf2e4a7a	-0.6808239
193	0x3e1770b9	0.14789094
194	0x3f96c3f0	1.1778545
195	0x4020e567	2.5140016
196	0xbef03e33	-0.46922454
197	0x3dbd1645	0.09232763
198	0x3f3fd3c0	0.7493248
199	0x3fba4a4e	1.4553926
200	0x402dcc9a	2.715613
201	0xbe2c66cf	-0.16836093
202	0xbf88eda9	-1.0697528
203	0xc008ab17	-2.1354425
204	0x3efe8e5b	0.49717984
205	0x3f048744	0.517689
206	0x3ed70c22	0.42001444
207	0xbfb7402a	-1.4316456
208	0xbf62c5ee	-0.88583267
209	0x3d81cc42	0.06337787
210	0xc010cb94	-2.2624254
211	0x3fb7bcec	1.4354529
212	0xbe62523a	-0.2210168
213	0x3d00aa9f	0.031412717
214	0xc013d5b5	-2.3099186
215	0xbd236705	-0.03989317
216	0xbf09825c	-0.5371454
217	0xbf116e94	-0.56809354
218	0x3e2e4417	0.17018162
219	0x3f00f1b9	0.5036884
220	0x3fc8f81d	1.5700718
221	0x4017199c	2.360938
222	0xbf5fa9f2	-0.8736869
223	0x3f2f7df8	0.6855159
224	0x3fff7b2c	1.9959464
225	0x3e9303b8	0.28713775
226	0xbf2badde	-0.67062175
227	0x3f0155b7	0.50521415
228	0x3da7fa1b	0.08202001
229	0x3fd134b7	1.6344212
230	0xbfb76313	-1.432711
231	0x3e58ae91	0.21160342
232	0x3fa17436	1.261359
233	0x3bfe6cef	0.0077644507
234	0xbe6d077c	-0.23147386
235	0xbf7bbd20	-0.98335457
236	0xbf80de08	-1.0067759
237	0xc0136a5e	-2.3033671
238	0x3fa4b2a5	1.2867018
239	0xbfdb4a2b	-1.7132009
240	0xbeaa9c3e	-0.33322328
241	0x3f1cde7f	0.61277
242	0x3ee4f14c	0.44715345
243	0xbe9b04e3	-0.30277166
244	0x3f88f1f3	1.0698837
245	0x3d4328b3	0.047646236
246	0xbf05930e	-0.5217751
247	0xbf603c5e	-0.87592113
248	0xbf969e27	-1.1767014
249	0x3f3b0326	0.7305168
250	0x3f62f1bc	0.8865011
251	0xbf437424	-0.7634909
252	0xbef96ec4	-0.4871732
253	0x3f9410c3	1.1567615
254	0xbdbc7736	-0.09202425
255	0x40063fae	2.0976367
