crowd_nav/our_circle/rl_model_6.pth (torch, 143871 bytes, 33 tensors)

w_a f4 [32, 32]
0.25180104 -0.13753672 0.7973633 -1.7795144 -1.0265036 0.15857829 0.15444791 0.12098605
1.9514933 0.37522098 0.19623421 -0.3459135 -0.47064903 -0.3798267 0.12761377 -0.72796947
-0.50116974 -0.40303487 -0.0765955 1.1460539 1.4191514 -0.24189647 0.24392411 0.40552866
-0.26422742 -0.31119883 0.21205136 -0.8328514 -0.3297357 -1.9214786 -1.1621635 -2.6157496
-0.1925462 0.4650059 -0.49223545 -1.3836313 0.6145926 0.06951657 -0.07099327 0.451825
-0.09227857 -0.3490588 -0.13787791 0.60619354 0.19633336 -1.5233736 -0.8524922 -0.96223277
0.37603912 0.2795463 -0.84217685 0.24864703 1.0570439 -0.8634908 -1.1931299 -1.4647965
0.37106988 0.7693989 -0.44344962 0.21178411 0.22029622 1.053337 1.5357412 -0.416963
-0.35032162 -0.743312 -0.101277 0.058372367 0.062180005 -0.18894066 0.28176028 -0.9530182
0.39292938 0.5254682 0.6628393 -0.18742794 -0.5972163 1.0928781 -0.7170432 0.25453994
-0.70369357 -0.036321808 -1.6240635 0.28346336 0.46826166 0.059617367 1.0293121 -1.7906759
-1.1326237 0.4234486 -0.5506557 1.2980679 -0.2927038 -1.0469671 2.235521 -1.1865858
-0.1423978 1.1088356 -0.23729658 0.40850997 0.84612054 -1.2716489 1.0449603 -0.90744793
0.42760363 -0.47612324 -0.5296246 -0.30632076 0.44075412 0.20557235 0.56061023 -0.6834539
0.36453643 0.8149676 0.31108758 0.22027789 -0.65479195 -0.64621454 -1.991224 -0.24188337
-0.19690892 0.44667345 -2.95064 1.2404255 -0.78456616 4.0145555 -0.24370365 0.12697242
0.08884364 -0.60069466 -0.43523884 -1.0692815 -0.8686068 -0.13039039 0.08220813 -0.019742256
0.0018657458 1.2202309 0.21613173 -0.048330057 -0.7758849 1.0728021 1.3855242 1.2920369
-1.033511 0.1105127 0.04091932 0.63961804 -0.46664283 -1.0738438 -0.86766326 1.2138181
-1.128202 -0.26556563 0.9354873 -0.29173496 -1.2465389 -1.0891945 -1.2506634 0.61216444
-0.24229057 0.57392675 -0.6070706 -0.91252637 1.6586496 -0.04114262 1.3306142 1.1570113
0.31228492 0.16117881 -0.033473108 1.5718446 -0.5067843 -0.49353293 -0.91696215 -0.3502472
0.0383058 -5.337513 -0.25530362 -0.17604204 -0.079747975 0.09062783 -0.8584727 -0.21392837
-1.3835614 -1.1442578 0.018765494 0.28007323 -0.5145054 -1.3200954 0.63434803 -0.93637127
-0.6905506 -0.5064418 -0.0709018 -0.2571506 0.28432062 0.92464465 -1.2166104 0.23302549
-1.0564106 -0.39187813 -0.6035256 -0.2988612 -0.32462758 0.51316786 -0.24710357 -0.5804493
1.0587659 -0.8225301 0.69865537 -2.1625118 -0.47400212 0.45512798 -0.49971196 -0.061072458
-0.37586537 -2.2645128 -0.34764662 -0.26057246 0.26670513 -0.50551003 -1.3596426 0.6711639
0.3654417 -0.2630729 -0.50691676 0.5184346 0.5630161 -0.34034532 0.42130592 -1.1157819
-2.0157254 1.1060222 -1.1260021 -1.7228166 0.70347095 -1.6496745 -1.1777463 -0.34701154
-0.14267904 -0.9246372 1.2486881 1.247896 -2.3375685 0.37807065 -1.1701702 -2.3118374
-1.3260353 0.59264076 -0.41505742 1.4790242 -1.788127 -1.8046764 -1.080545 0.47703058
00000000: 11ec 803e 6dd6 0cbe 0020 4c3f 21c7 e3bf
00000010: 7864 83bf 5962 223e 9827 1e3e 89c7 f73d
00000020: 88ca f93f f71c c03e 9ff1 483e 931b b1be
00000030: e9f8 f0be a578 c2be 2fad 023e 355c 3abf
00000040: a94c 00bf 965a cebe 1ade 9cbd e5b1 923f
00000050: c1a6 b53f b5b3 77be 3ec7 793e 74a1 cf3e
00000060: d148 87be 7455 9fbe fe23 593e c035 55bf
00000070: 1ed3 a8be 03f3 f5bf c6c1 94bf 7168 27c0
00000080: d52a 45be 4115 ee3e 4906 fcbe d51a b1bf
00000090: f155 1d3f b45e 8e3d eb64 91bd 9b55 e73e
000000a0: 8cfc bcbd d6b7 b2be de2f 0dbe 802f 1b3f
000000b0: 9d0b 493e e8fd c2bf ee3c 5abf e354 76bf
000000c0: 3388 c03e b120 8f3e e798 57bf 549d 7e3e
000000d0: 374d 873f bc0d 5dbf 7bb8 98bf 747e bbbf
000000e0: dffc bd3e 54f7 443f d40b e3be efdd 583e
000000f0: 5595 613e bfd3 863f 2b93 c43f 2d7c d5be
00000100: 5b5d b3be b249 3ebf 516a cfbd dd17 6f3d
00000110: 76b0 7e3d a979 41be e242 903e 00f9 73bf
00000120: 0a2e c93e 1585 063f d6af 293f 1ced 3fbe
00000130: 2be3 18bf 6ee3 8b3f 2590 37bf 0f53 823e
00000140: 4325 34bf 2dc6 14bd 50e1 cfbf 1c22 913e
00000150: febf ef3e 5731 743d 80c0 833f de34 e5bf
00000160: d0f9 90bf 41ce d83e c6f7 0cbf 1727 a63f
00000170: 46dd 95be 0503 86bf c712 0f40 0be2 97bf
00000180: bbd0 11be 53ee 8d3f e0fd 72be 3828 d13e
00000190: 5b9b 583f 64c5 a2bf 42c1 853f 824e 68bf
000001a0: ddee da3e 6dc6 f3be 7a95 07bf 13d6 9cbe
000001b0: 86aa e13e 8f81 523e 2784 0f3f d6f6 2ebf
000001c0: 85a4 ba3e b7a1 503f df46 9f3e 8790 613e
000001d0: 72a0 27bf 516e 25bf 6ee0 febf 46b0 77be
000001e0: 7ea2 49be 62b2 e43e 49d7 3cc0 43c6 9e3f
000001f0: 54d9 48bf 3d77 8040 738d 79be 0f05 023e
00000200: a8f3 b53d 20c7 19bf a0d7 debe 37de 88bf
00000210: 045d 5ebf 0f85 05be bc5c a83d 83ba a1bc
00000220: 0a8c f43a 8730 9c3f a351 5d3e bdf5 45bd
00000230: 65a0 46bf 9451 893f db58 b13f 7761 a53f
00000240: 174a 84bf 7c54 e23d 049b 273d 02be 233f
00000250: cfeb eebe b773 89bf 2e1f 5ebf 645e 9b3f
00000260: ec68 90bf 38f8 87be 187c 6f3f 495e 95be
00000270: 968e 9fbf ba6a 8bbf bd15 a0bf cfb6 1c3f
00000280: 051b 78be ddec 123f fb68 1bbf 549b 69bf
00000290: a14e d43f 2a85 28bd 9151 aa3f f218 943f
000002a0: cfe3 9f3e 0f0c 253e 191b 09bd 3432 c93f
000002b0: 9ebc 01bf 59b0 fcbe 08be 6abf 9a53 b3be
000002c0: 8be6 1c3d e8cc aac0 28b7 82be 5d44 34be
000002d0: e852 a3bd 159b b93d dec4 5bbf 0a10 5bbe
000002e0: 8a18 b1bf 0a77 92bf 18ba 993c c265 8f3e
000002f0: a0b6 03bf e3f8 a8bf a264 223f 07b6 6fbf
00000300: edc7 30bf 2ba6 01bf f734 91bd 3ea9 83be
00000310: 7992 913e 83b5 6c3f e4b9 9bbf 3c9e 6e3e
00000320: 7638 87bf 40a4 c8be a780 1abf 5604 99be
00000330: 9635 a6be f85e 033f b808 7dbe 5398 14bf
00000340: a485 873f 5591 52bf 14db 323f 9866 0ac0
00000350: 68b0 f2be 8906 e93e 3fda ffbe 1d27 7abd
00000360: 6d71 c0be c7ed 10c0 bdfe b1be c169 85be
00000370: 938d 883e 1b69 01bf c508 aebf 66d1 2b3f
00000380: 2d1b bb3e 7eb1 86be 4cc5 01bf 21b8 043f
00000390: d321 103f be41 aebe 69b5 d73e f1d1 8ebf
000003a0: a501 01c0 2392 8d3f d620 90bf 4185 dcbf
000003b0: ac16 343f 8928 d3bf 64c0 96bf 7fab b1be
000003c0: 741a 12be 06b5 6cbf 03d5 9f3f 0ebb 9f3f
000003d0: b99a 15c0 7a92 c13e 23c8 95bf 25f5 13c0
000003e0: 86bb a9bf 4eb7 173f 6882 d4be aa50 bd3f
000003f0: 58e1 e4bf a3ff e6bf 4c4f 8abf 5a3d f43e

w_r.0.weight f4 [64, 9]
0.6871839 0.3014977 0.26285675 -0.21337797 -0.31378597 0.03293073 -0.52353305 -0.4226815
-0.021147808 -0.073523395 -0.54136086 0.12281472 -0.23591813 -0.20516285 -0.09710666 -0.3511159
-0.4979391 -0.23962335 0.4062666 0.29196185 -1.1664909 0.2172773 -0.0857085 -0.31543738
-0.58340675 -0.2006048 0.057583094 -0.50164473 -0.13324265 0.043213665 -0.032035984 0.20846626
-0.16776602 -0.14595799 0.1761473 0.13754976 -0.11712598 0.77513117 -0.017712176 -0.017409494
-0.18814445 -0.15083814 -0.18658414 -0.4734684 -0.074569985 0.38919255 0.25038096 0.062459797
0.049172673 0.05175094 0.22626948 0.21693133 -0.008101264 -0.15053841 -0.15748648 0.09141489
1.0485518 0.5613583 0.2221627 -0.20792806 -0.020252138 -0.47901407 0.21944277 -0.22560525
0.2141453 -1.0497972 -0.038363583 -0.18161592 0.013089895 -0.18192013 0.15190783 0.09155115
-0.8821204 0.175374 -0.10140003 0.08259863 0.2793282 0.11653094 -0.21260767 -0.41432574
-0.26630768 0.3361612 0.1520236 0.68245226 0.30952093 -0.08253276 0.17105433 -0.04219219
-0.5811552 0.17824714 -0.22806846 0.48244002 -0.048358306 0.04568017 -0.13993919 -0.045767944
0.32912564 -0.1450367 0.01721712 0.017287536 -0.00104147 -0.18149954 -0.20269546 -0.32178622
0.2905801 -0.11208356 -0.024081096 0.18711524 -0.45796123 0.10740475 -0.86169285 -0.46196386
-0.07340324 -0.1905402 -0.582235 -0.09526838 0.21319675 0.74436647 -0.16223165 -0.15472186
0.3007431 0.1339589 -0.12633765 -0.38799608 -0.16898336 0.17298906 0.08780301 0.18361562
-0.7022773 -0.88412094 -0.32118315 -0.22128408 -0.30316314 -0.7179634 0.10450196 0.59216374
-0.106432356 -1.0528721 0.69987285 0.087332055 -0.26921508 -0.89033514 -0.78897953 0.092840955
0.09613739 0.21412265 0.20588733 -0.08899598 -0.21314275 -0.0030560098 -0.25265875 -0.3707757
0.18820977 -0.36972585 0.20691414 -1.2997056 0.8029036 0.20820558 -0.03999996 -0.24446861
-0.33293974 -0.29905897 1.0974766 0.20700668 0.07732177 0.050219357 -0.055527568 -0.30505353
-0.40863666 -0.45009285 0.23026454 0.1527954 -0.2084434 0.49056143 -0.55527306 -0.3099063
0.2294291 -0.54789174 -0.06709861 -0.016410789 -0.77736205 -0.5255146 -0.26615825 -0.10319175
0.28647062 -0.04311347 -0.35844377 -0.31211323 0.016522368 0.41868445 0.08931207 0.9049741
1.4381632 -0.13002746 0.033413332 -0.31517565 -0.42488337 0.27456838 0.61927354 -0.37706476
0.12445759 0.02301313 0.1626883 0.3147732 -0.0989879 -0.22185318 0.14308195 0.37272832
0.4926021 0.06554627 -0.0015519598 -0.062309228 0.041944824 -0.02688181 -0.31786692 0.2299912
0.0370401 0.15993269 0.54969037 0.8759371 -0.17720036 -0.011994402 -0.4532841 -0.06330153
-0.018897932 -1.1170483 0.31175426 0.0130494535 0.04384979 -0.3260337 -0.1441046 -0.44212437
-0.36308226 -0.25013897 0.84580266 0.15811269 -0.04273045 0.019059516 -0.02845323 -0.04976964
-0.07480992 -0.30185565 -0.045769297 -0.04393794 -0.2150969 -0.60601765 0.68824095 0.31730664
-0.023932934 -0.6524759 -0.41884032 -0.06550809 -0.7852922 0.21423382 -1.1735234 0.13621612
00000000: 49eb 2f3f e85d 9a3e 2995 863e c17f 5abe
00000010: 8ea8 a0be 60e2 063d 4306 06bf b669 d8be
00000020: 2b3e adbc 6f93 96bd a096 0abf 4986 fb3d
00000030: 8694 71be 3616 52be dbdf c6bd 77c5 b3be
00000040: e0f1 febe d35f 75be 2d02 d03e 067c 953e
00000050: 934f 95bf f17d 5e3e f087 afbd 0281 a1be
00000060: 255a 15bf 586b 4dbe 40dc 6b3d ca6b 00bf
00000070: c370 08be d000 313d 2a38 03bd 2e78 553e
00000080: dbca 2bbe 0376 15be f55f 343e d8d9 0c3e
00000090: bfdf efbd ff6e 463f 2019 91bc 5b9e 8ebc
000000a0: f0a8 40be 5075 1abe ea0f 3fbe 736a f2be
000000b0: 26b8 98bd 3f44 c73e ef31 803e d8d5 7f3d
000000c0: 4969 493d cbf8 533d 30b3 673e 3f23 5e3e
000000d0: 2abb 04bc be26 1abe 2344 21be bb37 bb3d
000000e0: f236 863f 2db5 0f3f 9e7e 633e 18eb 54be
000000f0: d0e7 a5bc 5541 f5be 9bb5 603e 1005 67be
00000100: e848 5b3e c15f 86bf 2223 1dbd 86f9 39be
00000110: 0077 563c 4549 3abe ba8d 1b3e 2b7f bb3d
00000120: a4d2 61bf 3e95 333e d2aa cfbd 7829 a93d
00000130: 1b04 8f3e c6a7 ee3d d3b5 59be 8122 d4be
00000140: 7b59 88be 521d ac3e 13ac 1b3e 31b5 2e3f
00000150: 8779 9e3e f006 a9bd de28 2f3e b8d1 2cbd
00000160: 96c6 14bf 6b86 363e c78a 69be 6102 f73e
00000170: 5c13 46bd 211b 3b3d 384c 0fbe 2b77 3bbd
00000180: 2883 a83e 8084 14be eb0a 8d3c 979e 8d3c
00000190: ef81 88ba 04db 39be 668f 4fbe 2ac1 a4be
000001a0: eac6 943e 118c e5bd b845 c5bc 239b 3f3e
000001b0: e579 eabe 06f7 db3d e797 5cbf 8786 ecbe
000001c0: 7054 96bd f81c 43be 5a0d 15bf 121c c3bd
000001d0: 4050 5a3e cd8e 3e3f 0e20 26be 686f 1ebe
000001e0: 00fb 993e 862c 093e a85e 01be 6ca7 c6be
000001f0: f909 2dbe 0b24 313e 11d2 b33d bc05 3c3e
00000200: 72c8 33bf c055 62bf 1e72 a4be 4b98 62be
00000210: 3338 9bbe 73cc 37bf 2005 d63d 0b98 173f
00000220: 35f9 d9bd 83c4 86bf de2a 333f 26db b23d
00000230: 8fd6 89be 01ed 63bf 90fa 49bf 6623 be3d
00000240: aee3 c43d f842 5b3e 21d4 523e 8643 b6bd
00000250: 1842 5abe 5647 48bb 7d5c 81be 50d6 bdbe
00000260: 10ba 403e b54c bdbe 4de1 533e c15c a6bf
00000270: 178b 4d3f d833 553e 00d7 23bd fb55 7abe
00000280: 1477 aabe 421e 99be 1d7a 8c3f 8ff9 533e
00000290: e05a 9e3d d0b2 4d3d e070 63bd fa2f 9cbe
000002a0: d338 d1be 9272 e6be 78ca 6b3e 6676 1c3e
000002b0: 3072 55be de2a fb3e 6026 0ebf 0aac 9ebe
000002c0: 76ef 6a3e a242 0cbf ff6a 89bd eb6f 86bc
000002d0: 3301 47bf 2088 06bf e545 88be 3256 d3bd
000002e0: 47ac 923e c097 30bd f185 b7be 4ecd 9fbe
000002f0: eb59 873c cf5d d63e 3fe9 b63d 62ac 673f
00000300: bb15 b83f eb25 05be 6bdc 083d b45e a1be
00000310: 508a d9be 3a94 8c3e b688 1e3f a20e c1be
00000320: 9fe3 fe3d 0886 bc3c c397 263e f429 a13e
00000330: 2bba cabd 7b2d 63be 1384 123e 3fd6 be3e
00000340: 5836 fc3e 1f3d 863d 216b cbba f637 7fbd
00000350: 56ce 2b3d 3e37 dcbc 74bf a2be d082 6b3e
00000360: 5cb7 173d 65c5 233e 82b8 0c3f 6a3d 603f
00000370: 0374 35be 2b84 44bc db14 e8be 3ca4 81bd
00000380: d6cf 9abc 70fb 8ebf 419e 9f3e 60cd 553c
00000390: d69b 333d e4ed a6be 2890 13be 205e e2be
000003a0: ebe5 b9be 3712 80be 8686 583f 4be8 213e
000003b0: 2006 2fbd b422 9c3c c016 e9bc 40db 4bbd
000003c0: f135 99bd d38c 9abe 9678 3bbd 45f8 33bd
000003d0: 5d42 5cbe f923 1bbf 8f30 303f 0476 a23e
000003e0: 000f c4bc a908 27bf 3d72 d6be 1b29 86bd
000003f0: e908 49bf 1c60 5b3e 0436 96bf 3d7c 0b3e

w_r.0.bias f4 [64]
-0.20949575 -0.31499547 -0.39227137 -0.15662137 -0.19540247 0.15280218 -0.45877674 -0.0027174698
-0.15179071 -0.07468551 0.2279611 0.011969715 -0.4604084 -0.27190718 -0.35429832 -0.58718824
-0.28914192 -0.53963053 0.06248721 -0.5101541 -0.3359833 -0.59563255 -0.5012255 -0.25614122
-0.1270355 0.017748691 -0.46615148 -0.10783343 -0.29132718 -0.42131105 -0.28577456 -0.45893052
-0.11503109 -0.3055385 0.010989295 -0.05591318 -0.3711359 0.2646443 0.026510129 -0.2822432
-0.41243857 -0.35361686 -0.24872264 -0.49193418 0.06714703 -0.46627823 -0.23004764 -0.50094014
-0.5681729 -0.19166502 -0.42639405 -0.13382557 -0.41228646 -0.38231438 -0.48519015 -0.3399533
0.0123931095 -0.8637011 -0.13614143 -0.18806574 -0.39247093 -0.6081403 -0.45881778 -0.31092685
00000000: 0e86 56be 1647 a1be cbd7 c8be 5a61 20be
00000010: 9617 48be 2d78 1c3e c9e4 eabe 9417 32bb
00000020: 066f 1bbe b7f4 98bd a26e 693e a01c 443c
00000030: a6ba ebbe 6b37 8bbe 9766 b5be f851 16bf
00000040: 690a 94be 3a25 0abf 97f2 7f3d 7699 02bf
00000050: 0106 acbe 607b 18bf 5050 00bf f124 83be
00000060: 9815 02be b465 913c 68ab eebe c6d7 dcbd
00000070: d628 95be 15b6 d7be 0b51 92be f1f8 eabe
00000080: 6c95 ebbd 8b6f 9cbe 720c 343c 3805 65bd
00000090: 8605 bebe 757f 873e c52b d93c 2e82 90be
000000a0: 262b d3be 450d b5be 26b1 7ebe ccde fbbe
000000b0: 6284 893d 05bc eebe 9c91 6bbe 9d3d 00bf
000000c0: c773 11bf d643 44be 5250 dabe 9209 09be
000000d0: 3617 d3be b6be c3be d86a f8be 5c0e aebe
000000e0: 780c 4b3c 841b 5dbf a968 0bbe 4e94 40be
000000f0: f3f1 c8be 15af 1bbf 2aea eabe ce31 9fbe

w_r.2.weight f4 [32, 64]
0.2031786 0.08613949 -0.28199545 -0.579838 -0.23263867 0.058694776 -0.0032412135 0.32959324
-0.9092376 0.16723806 -0.14237013 -0.08056074 0.49687585 -0.23940645 -0.317679 -0.06504798
-0.21748473 0.0910469 -0.75627995 0.103854865 0.030244442 0.0954396 -0.43066987 -1.0091527
0.14446725 -0.34099528 -0.14231153 -0.47670618 0.43603143 -0.40309784 -0.033035353 0.11393416
0.16074166 -0.011955369 0.10320531 0.27841267 -0.8459916 0.040704716 0.0686376 -0.19634657
-0.71001655 -0.040517807 0.0027488205 0.15684292 -1.2464176 -0.846232 0.049568914 0.49458826
0.11589656 0.024386901 0.46128973 -0.90500194 0.09822817 -1.7796879 0.7702531 0.032583952
0.07936076 -0.24010935 0.01650983 -0.29475787 -0.1274418 0.38769794 0.40321568 -0.04222247
0.77396107 -0.16614024 -0.20923816 0.12053019 -0.36829013 -0.29150972 -0.17033379 -0.042192195
0.09224347 0.21336749 0.1456864 -0.08032494 -0.21610174 -0.19287714 -0.3060555 -0.53829414
0.19299173 0.05798783 0.033549424 0.05544649 -0.033182222 0.05069466 0.263131 0.28918934
-0.22373289 0.35474658 0.013094646 -0.09831925 0.121004276 0.0036213286 0.39587805 -0.23444183
-0.01750417 0.12290047 -0.09552782 -0.036063276 -0.09388528 0.048703354 0.013778163 0.05140534
-0.10489831 0.09915121 0.044265386 -0.11819089 0.030337278 0.22564666 -0.15104812 0.020133467
-0.12344003 -0.19385298 0.3042156 0.102570094 -0.06397511 -0.064946905 -0.47429192 0.4288285
-0.10872347 -0.07580608 0.05283305 -0.086402684 0.093574464 -0.11173285 0.061423615 -0.0038824677
-0.08021621 0.047845207 0.87637866 -0.08868579 -0.34503713 0.43884498 -0.18921046 0.17807177
-0.089095145 -0.040133283 0.4922479 0.0236634 -0.2645771 0.08168254 0.19102697 -0.22061396
0.06618293 -0.043027114 -0.45634446 0.034027886 -0.12356933 -0.34891775 -0.027407702 -0.3635102
0.054503784 -0.32039788 -0.17935696 0.094974056 -0.43944347 0.0095047075 -0.37549025 0.3816584
-0.016349006 -0.043643042 0.028000675 0.31122825 -0.09258862 -0.05782047 -0.15422846 -0.06665912
0.17163467 0.07175442 0.051832523 -0.17053258 0.05335791 0.277399 -0.162374 0.2741569
0.06930495 -0.08812655 -0.13044111 -0.021139711 -0.06912282 -0.28502628 -0.71677107 0.46207696
0.0013254662 -0.104038484 -0.009898977 0.06648831 0.07207528 -0.07592789 0.033368703 -0.034546763
0.14613 -0.100071274 -0.029381586 -0.4208542 -2.0942304 -0.31750783 0.34442458 -0.4665445
0.005542744 -3.4987268 0.4752456 -0.067455046 -0.10220589 -1.945864 0.13728677 -0.06894648
-0.78805035 0.18195733 -4.7279263 -0.59788805 -0.6489881 -4.1804647 -0.85366875 -1.3158313
-0.011345562 0.43219355 -0.04876965 -0.24486564 0.2457527 -0.3891488 1.2029264 -0.85266864
-0.28151074 -0.3415543 -0.042973693 -1.6123631 -0.0388615 0.0032348977 0.15533134 0.074141674
-1.2420664 -0.07266104 -0.0011385856 -0.04861965 0.17492683 0.0996604 -0.025511632 0.04238624
0.017881047 -0.7023268 0.5347553 -2.3133755 -1.2119168 0.13400127 0.08338301 0.382578
0.0056688082 -0.07732609 -0.021702567 0.08670126 -0.979034 -0.7426246 0.30884257 0.05809711
00000000: 0d0e 503e e769 b03d b561 90be 4370 14bf
00000010: d538 6ebe ef69 703d 8a6a 54bb 72c0 a83e
00000020: ccc3 68bf 7440 2b3e 7ac9 11be 07fd a4bd
00000030: 8366 fe3e f726 75be d2a6 a2be e037 85bd
00000040: 51b4 5ebe cc76 ba3d 909b 41bf dcb1 d43d
00000050: 31c3 f73c d675 c33d c380 dcbe ea2b 81bf
00000060: 39ef 133e ef96 aebe 1dba 11be d512 f4be
00000070: 833f df3e d762 cebe 1450 07bd 5056 e93d
00000080: 7699 243e 74e0 43bc 4e5d d33d 1b8c 8e3e
00000090: e892 58bf fdb9 263d df91 8c3d 130f 49be
000000a0: a5c3 35bf 00f6 25bd 8e25 343b 6e9b 203e
000000b0: 9d8a 9fbf a9a2 58bf c608 4b3d ac3a fd3e
000000c0: 2d5b ed3d 0ac7 c73c 2b2e ec3e 35ae 67bf
000000d0: da2b c93d d0cc e3bf 4f2f 453f c076 053d
000000e0: e587 a23d 3adf 75be 9f3f 873c 81ea 96be
000000f0: 1a80 02be 5880 c63e 4972 ce3e 78f1 2cbd
00000100: 5022 463f ab20 2abe 8742 56be 88d8 f63d
00000110: 8690 bcbe c340 95be fb6b 2ebe b9d1 2cbd
00000120: 25ea bc3d 027d 5a3e d12e 153e 6781 a4bd
00000130: c649 5dbe 9681 45be 4eb3 9cbe a5cd 09bf
00000140: a09f 453e a684 6d3d 1f6b 093d dc1b 633d
00000150: 15ea 07bd 34a5 4f3d 1bb9 863e a010 943e
00000160: 3c1a 65be 58a1 b53e ed8a 563c 9a5b c9bd
00000170: 17d1 f73d d053 6d3b 87b0 ca3e 8511 70be
00000180: e864 8fbc 3eb3 fb3d 17a4 c3bd 16b7 13bd
00000190: ed46 c0bd 2b7d 473d cebd 613c 688e 523d
000001a0: edd4 d6bd ca0f cb3d 9f4f 353d 110e f2bd
000001b0: e285 f83c eb0f 673e 5cac 1abe f1ee a43c
000001c0: 20ce fcbd 6581 46be 26c2 9b3e 4510 d23d
000001d0: 6205 83bd e202 85bd 64d6 f2be 698f db3e
000001e0: 69aa debd 3840 9bbd 7867 583d e4f3 b0bd
000001f0: f8a3 bf3d 31d4 e4bd 5497 7b3d 0071 7ebb
00000200: 6548 a4bd 56f9 433d 5a5a 603f e5a0 b5bd
00000210: b5a8 b0be 4ab0 e03e 63c0 41be 7258 363e
00000220: 8477 b6bd cc62 24bd eb07 fc3e bfd9 c13c
00000230: a676 87be 2d49 a73d 939c 433e a0e8 61be
00000240: ea8a 873d 333d 30bd fba5 e9be d360 0b3d
00000250: eb11 fdbd 59a5 b2be 1e86 e0bc 021e babe
00000260: 5c3f 5f3d 310b a4be 5aa9 37be c281 c23d
00000270: bcfe e0be a2b9 1b3c 4240 c0be bb68 c33e
00000280: 5aee 85bc 0cc3 32bd ac61 e53c 4f59 9f3e
00000290: 1a9f bdbd 28d5 6cbd 11ee 1dbe 9484 88bd
000002a0: 00c1 2f3e fbf3 923d 574e 543d 18a0 2ebe
000002b0: d38d 5a3d 3e07 8e3e 5f45 26be 4b5e 8c3e
000002c0: c1ef 8d3d b17b b4bd 5b92 05be 302d adbc
000002d0: 4490 8dbd f7ee 91be 4f7e 37bf 5a95 ec3e
000002e0: 44bb ad3a 2112 d5bd 522f 22bc 062b 883d
000002f0: 349c 933d 1580 9bbd 9fad 083d e880 0dbd
00000300: 1aa3 153e 2bf2 ccbd a7b1 f0bc 347a d7be
00000310: df07 06c0 6390 a2be 6b58 b03e ecde eebe
00000320: e89f b53b 24eb 5fc0 6453 f33e df25 8abd
00000330: 5251 d1bd 1212 f9bf e794 0c3e d033 8dbd
00000340: abbd 49bf 0653 3a3e 2c4b 97c0 310f 19bf
00000350: 1624 26bf 5ec6 85c0 098a 5abf 296d a8bf
00000360: bce2 39bc 7948 dd3e afc2 47bd 0fbe 7abe
00000370: 99a6 7b3e 833e c7be 7ef9 993f 7e48 5abf
00000380: 2d22 90be 35e0 aebe 2f05 30bd ea61 cebf
00000390: 3c2d 1fbd 9400 543b 2e0f 1f3e 97d7 973d
000003a0: 08fc 9ebf 50cf 94bd 983c 95ba 6625 47bd
000003b0: 0520 333e c01a cc3d c5fd d0bc 329d 2d3d
000003c0: 467b 923c b0cb 33bf b9e5 083f 580e 14c0
000003d0: 1720 9bbf a137 093e b6c4 aa3d 43e1 c33e
000003e0: 69c1 b93b 245d 9ebd 95c9 b1bc 6e90 b13d
000003f0: f9a1 7abf a51c 3ebf 9d20 9e3e 3cf7 6d3d

w_r.2.bias f4 [32]
-0.121039025 0.2579087 0.12674035 -0.32978168 0.0018689218 -0.36225134 -0.004447536 -0.086882144
-0.046975005 -0.11851893 0.28599095 -0.59800524 -0.7088211 -0.024216741 -0.636256 -0.109754495
-0.23059973 -0.11829307 0.25970578 -0.030089607 -0.5082545 0.117808454 -0.0573387 0.46408963
-0.26867026 0.8556438 -0.51225674 -0.039471246 0.3672403 -0.18987563 -0.21070349 0.2208988
00000000: 4fe3 f7bd 9c0c 843e 39c8 013e 25d9 a8be
00000010: 9cf6 f43a 0279 b9be a3bc 91bb 44ef b1bd
00000020: dd68 40bd 0eba f2bd 686d 923e df16 19bf
00000030: 4d75 35bf 3062 c6bc ace1 22bf f7c6 e0bd
00000040: 5622 6cbe a343 f2bd 28f8 843e 7b7e f6bc
00000050: f81c 02bf 8f45 f13d fcdb 6abd 289d ed3e
00000060: 268f 89be 790b 5b3f 4223 03bf 9aac 21bd
00000070: ec06 bc3e c26e 42be a8c2 57be 4c33 623e

w_h.0.weight f4 [64, 5]
0.19040911 -0.26687145 -1.5373393 -1.0502973 -0.89724505 0.1799712 0.07258338 -0.53485215
1.409358 -1.0701863 0.0026240717 -0.0019520307 -0.047154218 0.104582876 -0.075242266 -0.19203174
0.45106828 -1.5854254 -0.45617592 -0.42573753 0.07181258 0.37576437 -1.1423582 1.6346948
-0.545153 0.016278334 -0.02310095 -0.036671367 0.27718702 -0.5848506 -0.2669753 0.14011128
-1.2624807 0.010119932 0.5041691 -2.6020307e-05 0.0040697604 -0.16283809 -0.19077712 -0.6644405
-0.089972384 0.39198318 0.29875025 0.36238652 0.3351205 0.19070576 -0.41257083 -0.38995618
-1.9729942 -0.7219243 0.2654946 -0.42838788 0.049903408 -1.5862055 -0.0990107 -0.12348113
0.062372807 -0.8594515 -0.62332076 -0.23306072 0.29119086 0.3062421 0.56227064 0.7509047
0.49894452 0.13421853 -0.3038192 -0.3254266 0.43724027 -1.2134947 0.38871714 -0.1036791
1.1873205 -0.49079403 -0.856245 -0.23489352 0.028502334 -0.2766409 -1.0231041 -0.22998264
-0.4069513 0.34382585 0.46459344 1.0054553 0.029172115 -0.041831415 -0.064066656 -0.4866988
-0.52114 0.7604375 0.21596894 0.18690541 0.025170984 1.0979455 0.67313933 -0.5253522
0.14466205 0.3854012 0.13536 0.20235333 -0.24598311 0.6163667 -0.86986774 0.21622565
-0.1805952 -0.2438083 -0.13113351 1.0590532 -0.9582176 -1.8847108 0.43490502 0.39051598
-0.047556814 -0.8909406 -0.16654085 -0.14186642 -0.60585654 0.9922355 -1.4253535 0.071769275
0.34276593 -0.110922806 1.7168561 -0.47086212 -0.6198874 0.14793125 0.4688499 -1.1512446
0.49838024 -1.3343186 -0.35684854 0.22385012 -0.42283326 -1.2334946 -1.6223015 -0.13177183
-0.04008403 -0.87634933 -1.1545941 -1.4408973 -0.38077167 -0.22064018 -0.9204157 -1.2678554
-0.17118222 -0.15560557 -0.34076187 -0.17634451 -0.65823555 -0.29824254 -0.07934458 0.08537004
-0.5962968 -0.4378698 0.12415062 0.07572551 -0.19722104 0.79851156 -1.0235734 0.065252155
0.0049599 0.07288368 -0.035033435 -0.58121645 1.0742122 0.13433996 -0.13605917 0.9415137
0.6499185 0.09295431 -0.3413466 0.16573852 0.15531619 0.32104284 -0.09912975 -0.032686334
-0.5540361 0.24169707 -0.6016437 -0.75577474 -0.1662312 -0.1654632 -0.47786573 0.9257914
0.040075973 -0.39640832 -0.4396978 -0.9203738 0.108323835 -0.65512645 0.24425946 -0.09285737
0.1751901 0.34643605 0.95839906 0.19929203 0.17502071 -1.4312708 0.5917004 -0.7794026
0.0017636507 -0.014128949 -0.07826162 -0.015049492 -0.10602304 0.015404783 -0.13856523 1.573936
0.4920793 -0.6852997 -0.00025483995 -0.00027684117 0.009866991 -0.15961541 -0.41987026 0.24150188
0.14057526 0.8359234 0.8285095 -0.23706889 0.07567503 0.0666227 0.22512275 -0.65145534
-0.797177 0.30727875 0.5587777 -0.7648398 -0.93418425 -0.7655888 -0.21707997 0.66163385
0.05654282 -0.40193203 -0.45020416 -0.14568566 0.1484048 0.11813083 1.5832927 -0.8058919
-0.17140892 0.22876026 -0.011324046 1.3949578 -0.31063935 -0.01052787 -0.00058766425 -0.08597467
-0.1638263 0.046801113 0.42996836 0.33987015 -0.6067279 0.22502525 -0.55663997 0.56086016
00000000: 9bfa 423e 60a3 88be 89c7 c4bf 2470 86bf
00000010: dab1 65bf 5f4a 383e 98a6 943d 12ec 08bf
00000020: d865 b43f ddfb 88bf 9ef8 2b3b 48db ffba
00000030: c824 41bd 8c2f d63d 9e18 9abd f8a3 44be
00000040: 6cf2 e63e 38ef cabf e48f e9be 45fa d9be
00000050: 7912 933d 3064 c03e cb38 92bf ae3d d13f
00000060: 268f 0bbf 245a 853c 343e bdbc b734 16bd
00000070: 75eb 8d3e c5b8 15bf fdb0 88be 5579 0f3e
00000080: f898 a1bf 12ce 253c 3a11 013f 2f46 dab7
00000090: a05b 853b 07bf 26be 145b 43be c618 2abf
000000a0: 7143 b8bd 05b2 c83e cbf5 983e ba8a b93e
000000b0: ea94 ab3e 5f48 433e 7c3c d3be 56a8 c7be
000000c0: 138b fcbf 08d0 38bf e9ee 873e a855 dbbe
000000d0: 8467 4c3d c808 cbbf 1fc6 cabd ade3 fcbd
000000e0: a17a 7f3d 0305 5cbf f391 1fbf 78a7 6ebe
000000f0: f816 953e c4cb 9c3e f8f0 0f3f 4a3b 403f
00000100: a875 ff3e 9570 093e 318e 9bbe 519e a6be
00000110: f5dd df3e cb53 9bbf ef05 c73e b555 d4bd
00000120: 1efa 973f 5b49 fbbe df32 5bbf ed87 70be
00000130: ba7d e93c e0a3 8dbe 13f5 82bf 9280 6bbe
00000140: ec5b d0be f109 b03e 31df ed3e c2b2 803f
00000150: 5cfa ee3c 6b57 2bbd 6135 83bd 9630 f9be
00000160: 6e69 05bf 08ac 423f f626 5d3e 2264 3f3e
00000170: 6133 ce3c 7a89 8c3f dc52 2c3f 7b7d 06bf
00000180: 4a22 143e 4e53 c53e d09b 0a3e b635 4f3e
00000190: ffe2 7bbe 35ca 1d3f a7af 5ebf 426a 5d3e
000001a0: f3ed 38be e2a8 79be dd47 06be 0e8f 873f
000001b0: c04d 75bf 343e f1bf dfab de3e b6f1 c73e
000001c0: efca 42bd af14 64bf af89 2abe 6e45 11be
000001d0: 6a19 1bbf 2503 7e3f fc71 b6bf c5fb 923d
000001e0: 047f af3e 7f2b e3bd f1c1 db3f d714 f1be
000001f0: f1b0 1ebf 4a7b 173e 180d f03e fc5b 93bf
00000200: b22b ff3e f4ca aabf dab4 b6be f738 653e
00000210: 9a7d d8be 27e3 9dbf 93a7 cfbf 32ef 06be
00000220: 272f 24bd 6e58 60bf bdc9 93bf 536f b8bf
00000230: 81f4 c2be 80ef 61be 5da0 6bbf 1649 a2bf
00000240: 644a 2fbe 1157 1fbe 5778 aebe a893 34be
00000250: 2082 28bf 3fb3 98be 697f a2bd 7dd6 ae3d
00000260: e8a6 18bf 7830 e0be ae42 fe3d fa15 9b3d
00000270: 50f4 49be 416b 4c3f 7404 83bf eca2 853d
00000280: a886 a23b 0a44 953d 387f 0fbd 9aca 14bf
00000290: c97f 893f 6a90 093e 1853 0bbe 0b07 713f
000002a0: 0f61 263f d45e be3d fbc4 aebe 5cb7 293e
000002b0: 350b 1f3e ba5f a43e 8a04 cbbd 1be2 05bd
000002c0: 4fd5 0dbf 707f 773e 5205 1abf 747a 41bf
000002d0: 8338 2abe 2f6f 29be d1aa f4be aa00 6d3f
000002e0: b426 243d 08f6 cabe 1220 e1be 9e9d 6bbf
000002f0: e3d8 dd3d 5eb6 27bf 271f 7a3e 012c bebd
00000300: 0965 333e 1160 b13e a459 753f 3613 4c3e
00000310: a138 333e e233 b7bf ad79 173f ee86 47bf
00000320: 4c2a e73a 1b7d 67bc a147 a0bd 2592 76bc
00000330: 9c22 d9bd 5864 7c3c 0be4 0dbe bc76 c93f
00000340: d1f1 fb3e cd6f 2fbf 0a9c 85b9 fe24 91b9
00000350: 29a9 213c 3972 23be 3cf9 d6be 454c 773e
00000360: f6f2 0f3e 13ff 553f 3319 543f 30c2 72be
00000370: 83fb 9a3d 7b71 883d 9486 663e c7c5 26bf
00000380: cb13 4cbf a453 9d3e 0e0c 0f3f 8bcc 43bf
00000390: b326 6fbf a1fd 43bf 364a 5ebe d660 293f
000003a0: 7299 673d 09ca cdbe 2981 e6be 9f2e 15be
000003b0: 6ef7 173e 94ee f13d 56a9 ca3f ee4e 4ebf
000003c0: d285 2fbe 2140 6a3e 7e88 39bc fa8d b23f
000003d0: 1f0c 9fbe 167d 2cbc 7b0d 1aba 7d13 b0bd
000003e0: 15c2 27be 86b2 3f3d d024 dc3e 7603 ae3e
000003f0: 8552 1bbf 056d 663e f57f 0ebf 8894 0f3f

w_h.0.bias f4 [64]
-1.0811313 -0.7435727 -0.110799775 -1.1493156 -0.7741948 -0.29362035 -0.8201248 -0.081604
-0.15009779 -1.2579083 -0.2319634 0.18173473 -0.9960472 0.25381365 -0.04305186 0.18197802
-1.23212 -0.2666215 -0.41743928 -0.7866767 -0.75138474 -0.49037796 -1.6042787 -1.4661419
-1.0461785 -0.12802616 -0.18954246 -0.2626345 -0.534009 -0.27555647 0.3950745 0.008197924
-0.28456107 -0.65770113 0.0013219222 -1.6735699 -0.08662785 -1.5166053 -0.64776784 -0.98578125
-0.23994899 -0.93662107 -0.03438204 -0.13266316 0.43247503 -0.21661438 -0.5303406 -0.38274541
0.028868934 -0.37736848 -0.5002988 -1.6550206 -1.4197564 -1.3639499 -0.10067901 -1.289182
-0.17831351 -0.75540787 -0.7116587 0.16561928 -0.6070469 -0.79928553 -0.93318266 0.003041977
00000000: 8362 8abf c85a 3ebf feea e2bd c61c 93bf
00000010: a131 46bf 6855 96be b3f3 51bf ff1f a7bd
00000020: 3cb3 19be 2403 a1bf d087 6dbe ab18 3a3e
00000030: f3fc 7ebf ddf3 813e 2657 30bd 7258 3a3e
00000040: 1cb6 9dbf 9d82 88be 9aba d5be a563 49bf
00000050: c05a 40bf d212 fbbe 0159 cdbf 8aaa bbbf
00000060: 2de9 85bf 4a19 03be 6b17 42be 0778 86be
00000070: d0b4 08bf bd15 8dbe 3447 ca3e 9650 063c
00000080: fdb1 91be 1a5f 28bf 5944 ad3a 8a37 d6bf
00000090: f169 b1bd 1f20 c2bf 1dd4 25bf 295c 7cbf
000000a0: 30b5 75be 66c6 6fbf 2fd4 0cbd dad8 07be
000000b0: 5e6d dd3e 29d0 5dbe 67c4 07bf 35f7 c3be
000000c0: 8b7e ec3c 7136 c1be 9513 00bf b7d7 d3bf
000000d0: 94ba b5bf e995 aebf cc30 cebd ea03 a5bf
000000e0: d197 36be 6962 41bf 442f 36bf 1a98 293e
000000f0: 6d67 1bbf fa9d 4cbf 0fe5 6ebf e85b 473b

w_h.2.weight f4 [32, 64]
-0.010252071 0.17706837 0.034041174 -0.5136574 0.36533862 0.0686924 -0.15313716 0.08895788
0.40342724 1.0160294 0.13238648 -0.02867573 0.9821606 0.094121054 0.41881543 0.24048129
0.068111315 -0.1570024 -0.29345632 -0.12456029 0.5933447 -0.099732555 -1.0565445 -0.022398496
1.1786612 -0.30783808 -0.19061005 -0.028984003 0.37412077 0.0724395 0.32210088 -0.8319007
-0.24421792 -0.16487768 0.13389486 -0.10821768 -0.0185565 0.29939288 0.03567004 -0.40373155
-0.0020948686 0.677537 -0.03044482 -0.3092903 0.18790735 0.48215023 0.03743854 -0.043304045
0.3293577 -0.013355444 0.13852827 0.23430099 0.98737067 -0.20543195 -0.53219175 0.49324855
-0.6100704 1.8650626 0.57323897 -0.19708134 -0.2371916 0.28278077 -0.31133682 0.38395077
0.3277736 0.20857537 -0.1585969 -0.757463 -0.2775064 0.04584656 0.64498824 -0.047716793
0.17256476 0.7214584 0.52230066 -0.6541451 -0.44074833 -0.3589845 0.07361988 -0.121470384
0.04885608 -0.030893281 -0.31369624 0.33706695 -0.36943614 0.26283565 -0.29285753 0.539715
0.41935226 -0.65726006 -0.95670104 1.305273 -0.28901258 -0.3346732 0.03919306 0.38087788
-0.089418605 -0.39943486 -0.28809062 0.60243315 -0.4909287 -0.14384773 -0.0010710736 -0.64333296
-0.09785762 -0.31785423 0.17368808 -0.43403527 0.7667689 0.42734632 0.11522647 0.054125603
0.28207555 0.17417182 0.15107903 -0.7382368 0.8134157 0.60159254 -0.048708517 0.6247182
0.43001163 0.8309669 -0.033628207 -0.045224708 -0.11221776 -0.31000456 0.1784033 0.800725
-0.090425335 -0.023954118 -0.021892527 0.08819503 0.082260594 0.00707053 -0.120314896 0.07870593
-0.1987896 0.041314915 0.0006028928 -0.1373858 -0.14970155 -0.08734631 -0.104557745 0.012910065
-0.010608337 -0.059571557 -0.039496627 0.04238398 -0.05984393 -0.15572114 -0.05915521 -0.08154577
0.01670803 0.008546087 0.04826162 -0.09099335 0.02458467 -0.08585223 -0.06890796 -0.08158384
0.07001102 -0.08747224 -0.060349368 -0.08087479 0.034355745 0.024206622 -0.16474162 -0.0034186933
-0.11962922 0.053506795 -0.13040537 0.07823974 -0.0027525248 0.038585275 -0.039455064 -0.0007608743
-0.17413326 -0.17573689 -0.059777655 -0.024470184 -0.022864839 -0.115528435 0.05901197 0.04223692
0.018514175 0.018395716 0.06325269 -0.011733586 -0.099378884 0.07201332 -0.1011175 -0.008589692
0.029386243 -0.030462932 0.19891523 0.28941986 0.57101446 0.107491545 1.0998384 0.036009796
0.16210651 -0.054944675 -0.52150095 0.3833793 -0.17432739 0.15298504 -0.38667578 -0.13324367
-0.7440365 0.116011836 0.13653733 -2.6054308 0.26346934 0.7636234 0.21030734 0.094455756
-0.472204 -0.1596157 0.30592427 0.2788761 0.46779075 -0.79981655 0.4044774 -0.4350067
-0.17761229 -0.16894007 -0.60429096 1.478055 0.1595665 -0.5536516 -0.19259083 -0.20587763
0.046788316 -0.6218329 -0.074420534 -0.10001226 -0.08877327 -0.119067416 -0.82711554 0.29203576
0.39497402 0.21896008 0.117075786 0.19012362 0.83507293 0.38623637 0.034097027 0.23656262
0.081321195 -0.61361235 -0.54134136 -0.042593323 0.001932409 -0.48359185 0.6103582 0.31651193
00000000: 4df8 27bc 6951 353e c26e 0b3d 0d7f 03bf
00000010: aa0d bb3e 9aae 8c3d fdcf 1cbe 8d2f b63d
00000020: 048e ce3e 400d 823f 5290 073e 5de9 eabc
00000030: e16e 7b3f 8ac2 c03d fa6e d63e ba40 763e
00000040: f27d 8b3d 3dc5 20be e83f 96be 7719 ffbd
00000050: 70e5 173f 9540 ccbd da3c 87bf 0d7d b7bc
00000060: 5fde 963f f49c 9dbe 482f 43be dc6f edbc
00000070: c28c bf3e 295b 943d 68ea a43e 72f7 54bf
00000080: 4314 7abe b2d5 28be bc1b 093e 3ba1 ddbd
00000090: cd03 98bc 064a 993e bf1a 123d e7b5 cebe
000000a0: 104a 09bb 1173 2d3f 6a67 f9bc 4c5b 9ebe
000000b0: c96a 403e 65dc f63e 2859 193d 955f 31bd
000000c0: 93a1 a83e cbd0 5abc 5bda 0d3e 99ec 6f3e
000000d0: 53c4 7c3f c15c 52be b83d 08bf 138b fc3e
000000e0: 932d 1cbf 5fba ee3f cabf 123f b1cf 49be
000000f0: 5be2 72be a4c8 903e 8a67 9fbe 3295 c43e
00000100: f1d1 a73e c894 553e 3a67 22be 18e9 41bf
00000110: 5215 8ebe 9ac9 3b3d f31d 253f af72 43bd
00000120: d1b4 303e 7fb1 383f 7fb5 053f 0e76 27bf
00000130: c4a9 e1be d1cc b7be 05c6 963d 77c5 f8bd
00000140: 501d 483d e813 fdbc cb9c a0be 0a94 ac3e
00000150: bc26 bdbe 6592 863e 6cf1 95be c32a 0a3f
00000160: 57b5 d63e 3242 28bf 5cea 74bf 3013 a73f
00000170: 75f9 93be 495a abbe e788 203d 6d02 c33e
00000180: 1a21 b7bd ba82 ccbe 9d80 93be 0f39 1a3f
00000190: 025b fbbe d24c 13be 4463 8cba 78b1 24bf
000001a0: 9369 c8bd cabd a2be 4adb 313e df39 debe
000001b0: f74a 443f 23cd da3e dbfb eb3d cfb2 5d3d
000001c0: 356c 903e 195a 323e 76b4 1a3e 16fd 3cbf
000001d0: 033c 503f f801 1a3f 9582 47bd 88ed 1f3f
000001e0: 7c2a dc3e 3fba 543f bbbd 09bd 8b3d 39bd
000001f0: 6dd2 e5bd ebb8 9ebe 5baf 363e 50fc 4c3f
00000200: eb30 b9bd 6d3b c4bc f557 b3bc 999f b43d
00000210: 3e78 a83d e8af e73b a867 f6bd 9330 a13d
00000220: 808f 4bbe d439 293d 730b 1e3a ddae 0cbe
00000230: 5d4b 19be 9fe2 b2bd 5f22 d6bd bd84 533c
00000240: 97ce 2dbc 4e01 74bd 37c7 21bd d39a 2d3d
00000250: e91e 75bd 5d75 1fbe bc4c 72bd 7801 a7bd
00000260: 47df 883c e304 0c3c faad 453d b95a babd
00000270: ca65 c93c 4bd3 afbd 9e1f 8dbd 6e15 a7bd
00000280: f061 8f3d a524 b3bd e630 77bd afa1 a5bd
00000290: 9cb8 0c3d f74c c63c 07b2 28be 280c 60bb
000002a0: 2a00 f5bd f129 5b3d fc88 05be 283c a03d
000002b0: b463 34bb 980b 1e3d a29b 21bd 6975 47ba
000002c0: fd4f 32be 5ff4 33be 6ad9 74bd b275 c8bc
000002d0: 0b4f bbbc 2c9a ecbd 89b6 713d 9f00 2d3d
000002e0: 0aab 973c 9db2 963c a08a 813d 3a3e 40bc
000002f0: 2887 cbbd b87b 933d b116 cfbd c8bb 0cbc
00000300: 6bbb f03c 668d f9bc 6fb0 4b3e d72e 943e
00000310: 012e 123f 8724 dc3d 81c7 8c3f 027f 133d
00000320: 40ff 253e ab0d 61bd 1681 05bf 4b4a c43e
00000330: e182 32be 1ca8 1c3e 5efa c5be 0771 08be
00000340: 2d79 3ebf 9d97 ed3d 71d0 0b3e 61bf 26c0
00000350: 74e5 863e d37c 433f cf5a 573e 0572 c13d
00000360: b9c4 f1be 4c72 23be 1ba2 9c3e d9c8 8e3e
00000370: 4582 ef3e c7c0 4cbf a917 cf3e 33b9 debe
00000380: ffdf 35be a0fe 2cbe d0b2 1abf e830 bd3f
00000390: 6765 233e 1cbc 0dbf 8836 45be 96d1 52be
000003a0: 1ba5 3f3d 7130 1fbf cb69 98bd 3ad3 ccbd
000003b0: c3ce b5bd 9ed9 f3bd d8bd 53bf b685 953e
000003c0: 093a ca3e 1237 603e 6ec5 ef3d c4af 423e
000003d0: 57c7 553f c6c0 c53e 53a9 0b3d 793d 723e
000003e0: ba8b a63d b315 1dbf 5995 0abf 5676 2ebd
000003f0: e348 fd3a 5a99 f7be 6f40 1c3f da0d a23e

w_h.2.bias f4 [32]
-0.060204003 0.25257358 -0.14247186 0.37761277 -0.08147164 -0.9233677 0.39814308 0.7311364
0.2494085 -0.21845563 -0.4132249 -0.35739854 0.49784532 0.35329768 -0.5254434 -0.21129417
-0.18811809 -0.1471322 0.16933194 -0.027263448 -0.40151253 -0.15943992 -0.35632867 -0.057470873
0.56915206 0.003680476 -0.12572168 0.14549571 -0.09894087 -0.13774014 -0.90788645 -0.25406513
00000000: 7998 76bd 5351 813e 25e4 11be 7656 c13e
00000010: 9ada a6bd d361 6cbf 69d9 cb3e c12b 3b3f
00000020: f164 7f3e d5b2 5fbe 3792 d3be f1fc b6be
00000030: 95e5 fe3e 6fe3 b43e 7583 06bf 805d 58be
00000040: 07a2 40be d3a9 16be 5a65 2d3e 9857 dfbc
00000050: 0d93 cdbe 3844 23be b670 b6be 9466 6bbd
00000060: f3b3 113f 2434 713b 2fbd 00be d4fc 143e
00000070: 83a1 cabd c00b 0dbe 3f6b 68bf d314 82be

Ws.0 f4 [32, 32]
-2.9559975 0.77261746 -1.4243288 -0.83319074 -0.37045553 -0.5720741 0.0360034 0.5587366
-1.1076554 1.0188497 -2.1868594 -0.121398985 -0.19477378 -0.8392153 0.66245323 -0.007928077
-0.06464299 -0.20176896 0.9962251 1.9809378 -1.1584837 -0.68288314 -1.0179373 -0.8789127
-0.76256275 0.1882028 0.70758617 1.4231851 -0.08017477 -1.1416166 -0.042615093 -1.0367936
-2.315022 -1.4026797 0.4013012 1.4670136 -1.7285943 0.8156649 0.162706 -0.27387255
0.777956 -1.1384469 -0.40673947 -0.2770571 0.7094955 -0.6678528 0.45459887 -0.9964786
-0.037084147 1.4661747 -1.2887601 -0.52819234 -0.7602354 -1.5596131 0.54064584 -0.37176383
0.13528736 0.7923568 0.7202011 0.035274018 -0.12216955 -1.4290949 0.6534775 0.51849633
0.08430055 -2.1246853 -0.23600936 1.0935812 -1.5357633 1.1974822 -0.36260444 -0.4653347
-4.413292 0.31537032 0.71297514 0.48098558 -1.8841313 -1.9846126 0.8513776 -2.356706
2.7830071 0.5737269 0.61143816 -0.06329718 0.9403113 0.54434824 -1.8481023 -1.5651674
2.0985458 -0.19537707 0.38953993 -0.24133731 0.8865714 0.9102531 1.2647955 0.6497857
-1.6494553 0.5540746 0.3455425 -3.0368176 1.059641 1.011977 1.5412157 0.48034483
0.9961457 0.31575507 -1.6757807 0.88110816 0.20391612 0.55022 -0.21587756 0.65252364
0.011300394 0.016742868 1.1638621 2.1274488 1.9006206 0.29930207 -1.9592134 0.20619716
1.1960984 -1.9677383 0.7267973 -0.28461942 -0.5416767 -1.431745 0.6321682 -0.20379595
0.39580542 -0.705162 -0.12239839 -4.179445 0.22622095 0.369773 -1.9478642 -1.2487675
-0.61296093 1.0450243 1.7624595 -0.007002989 -4.4955683 0.044785183 1.1061769 -0.8044709
0.25599486 -1.458153 0.0013800295 -0.24897796 -1.9442587 0.17347427 -0.12551962 0.025369968
-0.7006972 -1.7083774 -0.67172146 -3.617483 -0.23309185 1.1278734 0.3996136 -1.0110877
-3.1016433 -1.0605483 -0.48940948 0.77054185 -0.020636423 -0.37742266 -0.11439376 1.1828444
0.9510507 -0.7386517 -0.44617394 0.33432078 1.3067847 0.59655017 -0.507858 -2.866796
-1.059444 0.35597146 -1.8864311 -0.31389493 1.6772243 -1.2678927 0.8390586 -1.979443
0.1708457 -0.38828436 -0.13791908 -3.3766077 -0.7858098 -1.5504433 0.41226563 1.0790238
-1.2503978 0.12129524 0.77870697 1.7090888 -0.009175916 -1.1461028 0.2796844 1.5797306
2.2566814 -0.053226653 -1.1393446 -1.4493362 0.26333797 -0.2969876 0.7331056 -0.9722433
-0.82328385 -0.08194739 -1.6366091 0.28483066 0.74103796 -0.40208426 -0.7803796 -1.3397223
-0.5714718 -1.380998 -0.48033684 0.49079865 0.5598697 0.39933014 -1.3633446 0.0018213448
-0.7667712 -0.063230604 -0.19130369 -0.9696482 0.27618885 -0.48325995 -0.9743457 -0.5042845
0.8760463 -0.44936875 0.46541822 -0.73720664 1.4595314 -3.919728 1.6900553 0.15245849
-0.76411796 0.39537847 -0.5172535 0.07733613 1.4322388 0.1601705 -1.2434938 -2.1554837
-2.0833378 0.19307578 0.4350071 -0.061852805 -0.31482318 0.9573106 -1.1756927 0.9502533
00000000: 102f 3dc0 42ca 453f 6850 b6bf fd4b 55bf
00000010: 59ac bdbe 7373 12bf 4d78 133d 5d09 0f3f
00000020: a7c7 8dbf ab69 823f 81f5 0bc0 08a0 f8bd
00000030: c772 47be d0d6 56bf 8996 293f c4e4 01bc
00000040: 8b63 84bd 869c 4ebe 9c08 7f3f 5f8f fd3f
00000050: 3249 94bf 6ed1 2ebf c54b 82bf 6c00 61bf
00000060: 5037 43bf 3cb8 403e 5e24 353f ee2a b63f
00000070: ab32 a4bd 7e20 92bf 2a8d 2ebd a7b5 84bf
00000080: 5229 14c0 028b b3bf 5a77 cd3e 1ac7 bb3f
00000090: 9442 ddbf 6acf 503f 679c 263e 0639 8cbe
000000a0: 2028 473f a1b8 91bf 2840 d0be 6eda 8dbe
000000b0: 7fa1 353f 67f8 2abf 2fc1 e83e 3919 7fbf
000000c0: 8ce5 17bd 9dab bb3f 17f6 a4bf 9d37 07bf
000000d0: ca9e 42bf 67a1 c7bf c467 0a3f d457 bebe
000000e0: c588 0a3e e5d7 4a3f 195f 383f 7d7b 103d
000000f0: 0734 fabd 95ec b6bf 4d4a 273f 2dbc 043f
00000100: c4a5 ac3d d8fa 07c0 70ac 71be 78fa 8b3f
00000110: e493 c4bf 1947 993f 4aa7 b9be 5a40 eebe
00000120: b039 8dc0 3878 a13e 8a85 363f be43 f63e
00000130: 372b f1bf c907 febf e2f3 593f 45d4 16c0
00000140: ca1c 3240 c4df 123f 3687 1c3f f4a1 81bd
00000150: 3eb8 703f 685a 0b3f 9e8e ecbf 6857 c8bf
00000160: 934e 0640 ed10 48be c771 c73e 2121 77be
00000170: 58f6 623f 5906 693f d2e4 a13f 5b58 263f
00000180: 5a21 d3bf d5d7 0d3f f2ea b03e 385b 42c0
00000190: 51a2 873f 7688 813f 8e46 c53f c2ef f53e
000001a0: 6803 7f3f a6aa a13e fb7f d6bf 4e90 613f
000001b0: 63cf 503e 38db 0c3f 020f 5dbe ca0b 273f
000001c0: 4a25 393c 5728 893c 6ff9 943f 1f28 0840
000001d0: 8947 f33f 1f3e 993e 81c7 fabf 5925 533e
000001e0: c119 993f d9de fbbf 630f 3a3f a3b9 91be
000001f0: 53ab 0abf 6c43 b7bf c6d5 213f e3af 50be
00000200: 02a7 ca3e 7f85 34bf 02ac fabd 03be 85c0
00000210: 77a6 673e e352 bd3e 9d53 f9bf 9dd7 9fbf
00000220: 02eb 1cbf 5bc3 853f 4698 e13f 5479 e5bb
00000230: b2db 8fc0 ab70 373d 3497 8d3f cef1 4dbf
00000240: c211 833e c2a4 babf 1be2 b43a 14f4 7ebe
00000250: 78dd f8bf 3da3 313e 3788 00be aed4 cf3c
00000260: e460 33bf 1cac dabf f0f5 2bbf d784 67c0
00000270: a1af 6ebe 285e 903f 279a cc3e 526b 81bf
00000280: 5381 46c0 0cc0 87bf e193 fabe 3b42 453f
00000290: b70d a9bc 8b3d c1be 4747 eabd 7267 973f
000002a0: 0f78 733f 4718 3dbf e970 e4be 182c ab3e
000002b0: b944 a73f 83b7 183f fb02 02bf 9679 37c0
000002c0: dc9b 87bf e441 b63e 9376 f1bf d6b6 a0be
000002d0: 49af d63f 4f4a a2bf 8bcc 563f 635e fdbf
000002e0: 2df2 2e3e 35cd c6be a93a 0dbe 571a 58c0
000002f0: d52a 49bf ed74 c6bf 7b14 d33e 741d 8a3f
00000300: 090d a0bf a469 f83d 5759 473f 6cc3 da3f
00000310: 9556 16bc 7fb3 92bf cb32 8f3e 9d34 ca3f
00000320: 786d 1040 3104 5abd 0bd6 91bf d983 b9bf
00000330: 3cd4 863e c20e 98be cfac 3b3f f0e4 78bf
00000340: bbc2 52bf 09d4 a7bd 687c d1bf 53d5 913e
00000350: aab4 3d3f fddd cdbe f5c6 47bf 057c abbf
00000360: fa4b 12bf 8bc4 b0bf b6ee f5be f649 fb3e
00000370: 9f53 0f3f 0075 cc3e 1382 aebf 31ba ee3a
00000380: 1e4b 44bf 0c7f 81bd 1de5 43be dd3a 78bf
00000390: a068 8d3e d96d f7be b86e 79bf ca18 01bf
000003a0: 9244 603f a913 e6be 4c4b ee3e 93b9 3cbf
000003b0: edd1 ba3f d3dc 7ac0 bb53 d83f 141e 1c3e
000003c0: 3c9d 43bf 0c6f ca3e ba6a 04bf 6862 9e3d
000003d0: 9a53 b73f bc03 243e ce2a 9fbf 72f3 09c0
000003e0: 6855 05c0 a8b5 453e 40b9 de3e 5e59 7dbd
000003f0: 8130 a1be 4f12 753f 197d 96bf cd43 733f

Ws.1 f4 [32, 32]
-0.58672696 -0.08370242 -1.8125646 0.24470414 -0.84286755 0.45590803 -0.13916409 -0.5255841
-0.59848785 0.6683735 -3.3085847 -0.58614707 -0.8670552 -2.4469109 -0.92939335 1.3123765
1.3905876 -1.3375006 -2.698336 -0.35576227 -1.2683486 2.0526872 0.50855327 -0.8795401
0.41673258 2.4463995 -1.1862267 -2.284656 -0.74893403 -0.052533206 1.3972292 -0.76324946
2.3482707 -1.6643527 -1.4695897 0.18030018 -0.5232579 -0.60352314 1.1995275 0.59800625
0.35500824 1.1243013 1.4236944 -0.4713391 -1.58596 0.0064931237 -0.36787927 -0.70021075
-0.22771241 -0.39007804 -0.5210949 -1.233168 -0.77769643 -0.17505614 0.80340284 -1.3962939
0.35555097 -0.8093514 -0.4899355 1.4032956 0.16565995 0.45275244 1.2589098 -0.48563758
1.2024138 -0.94533885 -1.0092613 -0.49684066 -1.081004 0.20148844 -1.5001916 -1.9159752
0.4309748 0.010101539 0.474517 -0.60107833 0.35696444 -0.5380197 1.0885652 -0.948725
0.16425948 0.24909492 -0.5063454 -1.101169 -0.5365159 -1.8244079 -0.4538373 -1.9521165
1.1733382 -2.873757 -0.15197755 0.32715106 1.0862402 -1.221624 -1.3053991 0.060815774
-1.315638 0.7484611 -0.27198368 -1.2138599 -1.379324 -0.6297843 0.38553286 -0.06798636
0.24371906 -2.2369213 -1.7367322 -0.7826452 -1.854214 0.4712376 -0.9427637 -0.08053081
-2.3877883 -1.9265625 -0.7771507 -0.6992253 0.53661263 -0.44926816 -0.9783226 -0.14626369
-0.21195243 0.23356178 -0.6171575 -0.66792876 0.5822212 -0.98574245 -0.7888693 -0.6951409
1.2364327 -0.65951955 -1.8205429 0.5276397 -1.2086984 -0.83020777 -0.28306705 0.0067000873
-1.3605652 -2.2540028 0.38876244 0.5163969 -0.66026074 -0.4241721 -1.4909396 -0.29473913
0.3397425 1.0146152 -0.52975774 0.8254847 -0.034442768 -1.0425644 0.9727238 -3.009166
1.232599 -1.1445601 -1.4796264 -0.26915634 1.4753094 0.44007224 -0.3184326 0.6720291
-0.88023937 -0.05456388 1.2095377 0.79198676 0.41926602 -0.29374626 1.4021376 -1.3433989
-0.24376704 -1.1054268 0.08046283 0.39898112 -0.93664753 0.26789322 0.14670329 0.25069526
-1.0453771 -0.21977167 1.2502526 0.04597481 0.19397128 0.90102005 1.1553149 -3.5127628
-0.380031 -0.47934207 -1.5970788 -0.88473153 1.6869707 -1.6657165 0.6384958 -1.2989218
-0.79817975 0.92542535 -0.85138154 -0.2507129 1.2874626 0.0432309 -0.7313422 1.2184983
-1.2616562 -1.7903978 0.097694114 0.60549176 -0.0703202 0.6810396 1.4570373 0.58538926
0.30457112 -1.2816963 -0.5585856 -0.3356672 1.011697 0.688874 -0.3919408 -3.2174618
0.6197752 -1.4574066 0.7731372 -0.036286615 0.036038447 1.0099379 -0.34711933 -1.2403399
-0.3107051 -0.17073192 0.9661497 -2.0584736 0.13779786 -0.3884411 -1.9911203 -1.956665
0.38186854 -2.3362792 -1.2548277 -2.991333 -2.5369756 1.0415608 -0.27362356 -1.2389033
-0.33677176 -2.0431397 1.1332103 0.5657304 0.18344748 0.43651244 -1.475319 1.0204476
1.3333203 0.78764015 0.20919196 -0.66024333 -0.14228433 -0.88513714 0.8111644 0.764277
00000000: bd33 16bf 2d6c abbd 1e02 e8bf b993 7a3e
00000010: 2bc6 57bf c76c e93e 0881 0ebe ae8c 06bf
00000020: 8036 19bf 871a 2b3f dabf 53c0 bc0d 16bf
00000030: 54f7 5dbf 309a 1cc0 b9ec 6dbf f4fb a73f
00000040: c6fe b13f 3833 abbf 89b1 2cc0 7926 b6be
00000050: 3f59 a2bf 3a5f 0340 8c30 023f 8a29 61bf
00000060: f95d d53e cf91 1c40 47d6 97bf ce37 12c0
00000070: 24ba 3fbf 0f2d 57bd 68d8 b23f 5164 43bf
00000080: 114a 1640 8209 d5bf 841b bcbf 9ca0 383e
00000090: 3bf4 05bf 7e80 1abf 1e8a 993f f016 193f
000000a0: a4c3 b53e 1be9 8f3f 9e3b b63f 5c53 f1be
000000b0: bd00 cbbf 45c4 d43b ac5a bcbe 0341 33bf
000000c0: 712d 69be 4fb8 c7be 7a66 05bf 73d8 9dbf
000000d0: 1d17 47bf eb41 33be cfab 4d3f c2b9 b2bf
000000e0: c70a b63e a731 4fbf d3d8 fabe 319f b33f
000000f0: c3a2 293e 2bcf e73e f523 a13f 7da5 f8be
00000100: b2e8 993f ba01 72bf 792f 81bf e661 febe
00000110: 575e 8abf fc52 4e3e 4706 c0bf ad3e f5bf
00000120: bba8 dc3e ed80 253c e4f3 f23e 45e0 19bf
00000130: 0bc4 b63e a9bb 09bf 1b56 8b3f a4df 72bf
00000140: a333 283e bd12 7f3e da9f 01bf 1bf3 8cbf
00000150: 1b59 09bf 3386 e9bf 5d5d e8be f4de f9bf
00000160: f22f 963f a2eb 37c0 01a0 1bbe 5880 a73e
00000170: eb09 8b3f 2d5e 9cbf 5117 a7bf f619 793d
00000180: d366 a8bf 269b 3f3f 7241 8bbe c35f 9bbf
00000190: b08d b0bf 8b39 21bf 9064 c53e 6f3c 8bbd
000001a0: 7d91 793e b829 0fc0 3e4d debf 705b 48bf
000001b0: e256 edbf 0e46 f13e f658 71bf 56ed a4bd
000001c0: 86d1 18c0 9a99 f6bf 59f3 46bf 6e00 33bf
000001d0: 725f 093f 7a06 e6be 5a73 7abf 26c6 15be
000001e0: 0f0a 59be d22a 6f3e 09fe 1dbf 61fd 2abf
000001f0: 730c 153f 9e59 7cbf 57f3 49bf c1f4 31bf
00000200: 6d43 9e3f 46d6 28bf 8d07 e9bf 6513 073f
00000210: a1b6 9abf 7f88 54bf 2aee 90be 688c db3b
00000220: 0027 aebf 9541 10c0 df0b c73e 9632 043f
00000230: d906 29bf 162d d9be 1cd7 bebf 0ce8 96be
00000240: bbf2 ad3e e9de 813f 349e 07bf f752 533f
00000250: dc13 0dbd c072 85bf 6d04 793f 2d96 40c0
00000260: cec5 9d3f f280 92bf 6664 bdbf dcce 89be
00000270: f0d6 bc3f 2651 e13e 9909 a3be 190a 2c3f
00000280: 5e57 61bf 607e 5fbd 22d2 9a3f a5bf 4a3f
00000290: 09aa d63e e965 96be 3f79 b33f 7ff4 abbf
000002a0: 119e 79be a07e 8dbf b2c9 a43d 4147 cc3e
000002b0: 22c8 6fbf 4d29 893e 6339 163e 215b 803e
000002c0: ebce 85bf d30b 61be 4708 a03f 1550 3c3d
000002d0: 68a0 463e 40a9 663f 5ce1 933f 1bd1 60c0
000002e0: 6c93 c2be 536c f5be 146d ccbf c47d 62bf
000002f0: a8ee d73f 3336 d5bf 7674 233f 1243 a6bf
00000300: 8255 4cbf ade8 6c3f 24f4 59bf 715d 80be
00000310: 93cb a43f e212 313d 3e39 3bbf c1f7 9b3f
00000320: f37d a1bf c12b e5bf da13 c83d 8201 1b3f
00000330: 0904 90bd 9c58 2e3f 3380 ba3f 12dc 153f
00000340: bff0 9b3e a00e a4bf 77ff 0ebf 92dc abbe
00000350: 4a7f 813f 0c5a 303f 77ac c8be e5ea 4dc0
00000360: 96a9 1e3f 4d8c babf 52ec 453f 46a1 14bd
00000370: 0d9d 133d a545 813f a0b9 b1be 75c3 9ebf
00000380: bd14 9fbe 59d4 2ebe 9655 773f 08be 03c0
00000390: e21a 0d3e c0e1 c6be 08dd febf 0074 fabf
000003a0: 4684 c33e 9985 15c0 329e a0bf 0072 3fc0
000003b0: cf5d 22c0 dd51 853f 6318 8cbe 6294 9ebf
000003c0: 596d acbe cdc2 02c0 090d 913f b5d3 103f
000003d0: a8d9 3b3e 8f7e df3e 41d7 bcbf 079e 823f
000003e0: 3daa aa3f c9a2 493f 6b36 563e b505 29bf
000003f0: fcb2 11be 5998 62bf 78a8 4f3f a8a7 433f
