crowd_nav/our_circle/rl_model_4.pth (torch, 143871 bytes, 33 tensors)

w_a f4 [32, 32]
-0.12014458 -0.34759527 1.1126469 -1.4921598 -1.2966771 -0.19226253 0.41074044 0.15760927
2.226461 0.37522098 -0.60518676 0.2951646 -0.39029697 -0.021257833 -0.05105358 -0.72796947
-0.80189407 -0.49705803 0.21617204 0.9294054 1.6396037 -0.5331174 0.58796084 -0.25724483
-0.5604076 -0.04488579 0.1490237 -0.6907434 -0.9416358 -0.9650151 -1.8530853 -1.4069422
-0.44256404 0.58317053 -0.59439903 -1.4932438 0.6693025 -0.025345998 -0.1715983 0.10980048
0.13526517 -0.3490588 -0.34339485 0.7389627 0.3367331 -1.7060596 -0.90689695 -0.96223277
0.41506284 0.22677536 -1.0823038 0.39291668 0.9972029 -0.9972435 -1.4608432 -1.6499537
0.44742233 0.83225656 -0.32628122 0.25789955 0.3550013 1.1142012 1.6562201 0.018188735
-0.3554568 -0.86510235 -0.22844853 0.12989788 0.08035427 -0.48784822 0.19991413 -0.67836654
0.2818025 0.5254682 0.6845587 -0.20570649 -0.72673815 1.1482416 -0.67744255 0.25453994
-0.43883842 -0.08304589 -1.6711249 0.18153377 0.37469187 0.003390885 0.9978249 -1.7024238
-1.364492 0.6143756 -0.31272346 1.2155267 -0.203319 -1.2591394 2.1617787 -1.3878537
-0.18732569 1.1705674 -0.3997305 0.37566087 0.751201 -0.79152954 1.067453 -0.13422476
0.46767673 -0.47612324 -0.55012846 -0.4560689 0.5553962 0.20232488 0.66946095 -0.6834539
0.3176099 0.8835412 0.44898686 0.29945597 -0.48114464 -0.4353678 -2.5640156 0.006279928
0.102504164 0.49654055 -2.8827183 1.1705706 -0.95804244 1.7045438 -0.5673501 -0.4062625
0.15732208 -0.44364184 -0.44128034 -1.0395068 -1.2688792 -0.60748565 0.23042147 0.35374677
0.058809757 1.2202309 0.10844413 0.07749743 -1.3923188 1.4047006 1.3734283 1.2920369
-0.49630916 0.18184066 0.16079287 0.7342642 -0.808755 -0.8376251 -0.7257365 1.103939
-0.99377084 -0.17520769 0.79074866 -0.086963266 -1.2232165 -1.0682138 -0.5691786 0.47874844
0.096369594 0.76327723 -1.0569957 -0.0041812984 1.233888 -0.77448094 1.7295264 -0.41063473
-1.3723445 0.16117881 0.42550606 1.3141366 -0.8431074 -1.2697123 -0.6304709 -0.3502472
-0.73842764 -4.59424 -0.33075884 -0.29401314 -0.69882655 -0.022259 -1.8452618 -0.08499099
-1.6890143 -0.80698466 0.1297832 0.6593804 -2.0246747 -1.5386515 -0.3668516 -1.0720994
-0.8243011 -0.46688524 -0.2914752 0.08268314 0.15441298 1.4481684 -1.6281124 -0.39836702
-1.2504464 -0.39187813 -0.4443986 -1.0740248 -0.1854026 0.6692907 -0.09090451 -0.5804493
0.4969037 -0.54848444 0.80053186 -1.7838216 -1.0974241 0.51935536 -1.0117619 -0.26724058
-0.29338303 -2.4323323 -0.50106364 -0.2935866 0.36784 0.25510627 -0.75704294 0.06738765
0.0736827 -0.2928137 -0.14889474 0.023601608 1.0316714 0.43704394 0.080021985 -1.9187242
-2.0896893 1.1060222 -1.4422088 -1.7275504 0.35396773 -1.5059177 -0.97378606 -0.34701154
0.5217071 -0.89748794 0.7504763 0.5779928 -3.0141988 0.17189455 -1.8416163 -2.3106747
-1.527236 -0.060186263 -0.31227958 1.4802247 -1.3683488 -2.4669693 -0.7135186 0.42636335
00000000: 5d0e f6bd 02f8 b1be 376b 8e3f 18ff bebf
00000010: 84f9 a5bf 78e0 44be 924c d23e 5364 213e
00000020: 567e 0e40 f71c c03e 85ed 1abf d01f 973e
00000030: 01d5 c7be e824 aebc 8f1d 51bd 355c 3abf
00000040: ee48 4dbf 647e febe 345c 5d3e 83ed 6d3f
00000050: 89de d13f 627a 08bf 9a84 163f 98b5 83be
00000060: df76 0fbf 2ada 37bd ab99 183e 8fd4 30bf
00000070: 0b0f 71bf 3b0b 77bf e631 edbf af16 b4bf
00000080: c197 e2be aa4a 153f 892a 18bf 9d22 bfbf
00000090: 6957 2b3f 69a2 cfbc 77b7 2fbe 13df e03d
000000a0: f482 0a3e d6b7 b2be 73d1 afbe a92c 3d3f
000000b0: 4868 ac3e 2960 dabf 662a 68bf e354 76bf
000000c0: 1e83 d43e cd37 683e ee88 8abf 602c c93e
000000d0: b048 7f3f 5a4b 7fbf e9fc babf af31 d3bf
000000e0: 8a14 e53e c40e 553f 550e a7be 690b 843e
000000f0: bbc2 b53e 259e 8e3f 05ff d33f 8b00 953c
00000100: 6ffe b5be 5977 5dbf 69ee 69be f303 053e
00000110: c890 a43d 3ec7 f9be 4ab6 4c3e 6ea9 2dbf
00000120: 6b48 903e 1585 063f 3d3f 2f3f b9a4 52be
00000130: 830b 3abf 95f9 923f e06c 2dbf 0f53 823e
00000140: 6eaf e0be f713 aabd 6ce7 d5bf fde3 393e
00000150: 9dd7 bf3e 9c39 5e3b 7471 7f3f 06e9 d9bf
00000160: ada7 aebf b847 1d3f 4a1d a0be 6196 9b3f
00000170: db32 50be 7b2b a1bf 955a 0a40 31a5 b1bf
00000180: 4ed2 3fbe 27d5 953f 7aa9 ccbe 9f56 c03e
00000190: b54e 403f aea1 4abf 4da2 883f 3772 09be
000001a0: 5373 ef3e 6dc6 f3be 38d5 0cbf dd81 e9be
000001b0: 722e 0e3f 412e 4f3e cb61 2b3f d6f6 2ebf
000001c0: c49d a23e c22f 623f 9be1 e53e 4b52 993e
000001d0: 9758 f6be 87e8 debe d518 24c0 dbc7 cd3b
000001e0: b4ed d13d 903a fe3e 757e 38c0 42d5 953f
000001f0: 4542 75bf 7e2e da3f db3d 11bf a301 d0be
00000200: 0a19 213e 0625 e3be 7fef e1be 8f0e 85bf
00000210: a26a a2bf 2e84 1bbf 9bf3 6b3e 4c1e b53e
00000220: 80e2 703d 8730 9c3f f517 de3d f9b6 9e3d
00000230: 8137 b2bf 3bcd b33f 80cc af3f 7761 a53f
00000240: 3c1c febe 7034 3a3e e3a6 243e bdf8 3b3f
00000250: 910a 4fbf 996e 56bf dec9 39bf e04d 8d3f
00000260: c467 7ebf a569 33be 816e 4a3f cc19 b2bd
00000270: 5c92 9cbf 3bbb 88bf b0b5 11bf 841e f53e
00000280: 6c5d c53d 2366 433f a34b 87bf 4603 89bb
00000290: 0bf0 9d3f 6244 46bf 1f61 dd3f b73e d2be
000002a0: fca8 afbf 0f0c 253e eedb d93e a135 a83f
000002b0: e3d5 57bf ef85 a2bf 8a66 21bf 9a53 b3be
000002c0: 9809 3dbf 0404 93c0 3959 a9be e488 96be
000002d0: 4ce6 32bf 8258 b6bc 8a31 ecbf c20f aebd
000002e0: 9f31 d8bf 8c96 4ebf e3e5 043e 27cd 283f
000002f0: 4594 01c0 88f2 c4bf f9d3 bbbe 8e3a 89bf
00000300: 6605 53bf 950b efbe 3d3c 95be c755 a93d
00000310: 701e 1e3e 955d b93f fd65 d0bf c3f6 cbbe
00000320: a10e a0bf 40a4 c8be 3788 e3be a579 89bf
00000330: 2eda 3dbe a356 2b3f 252c babd 5398 14bf
00000340: 296a fe3e 7a69 0cbf a8ef 4c3f 4454 e4bf
00000350: 6578 8cbf 79f4 043f 6a81 81bf c2d3 88be
00000360: 4d36 96be 55ab 1bc0 b545 00bf fc50 96be
00000370: 8655 bc3e 4a9d 823e 91cd 41bf 8902 8a3d
00000380: f5e6 963d adeb 95be dd77 18be 2958 c13c
00000390: cf0d 843f 39c4 df3e 91e2 a33d c198 f5bf
000003a0: 78bd 05c0 2392 8d3f 4c9a b8bf 5f20 ddbf
000003b0: 423b b53e e9c1 c0bf 0b4a 79bf 7fab b1be
000003c0: 998e 053f c5c1 65bf 371f 403f 56f7 133f
000003d0: a2e8 40c0 2005 303e 15ba ebbf 18e2 13c0
000003e0: 787c c3bf df85 76bd 1ce3 9fbe 0178 bd3f
000003f0: 0e26 afbf d3e2 1dc0 28a9 36bf 4c4c da3e

w_r.0.weight f4 [64, 9]
-0.069343306 0.3417818 0.52714586 -0.20863804 -0.31378597 0.03293073 -0.4329321 -0.3236804
-0.021147808 -0.21944669 -0.39280123 -0.03988287 -0.13754894 -0.20516285 -0.09710666 -0.27957052
-0.4255652 -0.23962335 0.354389 0.27414307 -1.185505 0.40630755 -0.0857085 -0.31543738
-0.47833267 -0.09582671 0.057583094 -0.5200943 -0.23205544 -0.010110691 -0.13935718 0.20846626
-0.16776602 -0.17256999 0.14952964 0.13754976 0.034198336 0.64374834 -0.0052120625 -0.0276799
-0.18814445 -0.15083814 -0.19298476 -0.4798676 -0.074569985 0.33253378 0.32058412 0.01648054
0.0015734895 0.05175094 0.22626948 0.2570314 0.03199903 -0.15053841 -0.15556349 0.12595329
0.91897386 0.29527634 0.2221627 -0.20792806 0.04518354 -0.41354868 0.21944277 -0.33375108
0.20756409 -1.0326122 -0.3157973 -0.18161592 0.013089895 -0.23456809 0.09926827 0.09155115
-0.76005787 0.10634346 -0.1374998 -0.0024301333 0.2793282 0.11653094 -0.17067443 -0.3723998
-0.26630768 0.30681342 0.113092676 0.555665 0.20498912 -0.08253276 0.17105433 0.015254321
-0.5236562 0.17824714 -0.2692713 0.50192237 -0.03508404 0.008018593 -0.13993919 -0.045767944
0.3412685 -0.13288863 0.01721712 0.017287536 -0.00104147 -0.18149954 -0.20269546 -0.32178622
0.2905801 -0.11208356 -0.024081096 0.18711524 -0.45061365 0.12392786 -0.7586596 -0.46871817
-0.07340324 -0.1905402 -0.6017675 -0.111187615 0.21319675 0.44088486 -0.20234086 -0.7790716
-0.22351845 0.1339589 -0.12633765 -0.36607015 -0.14653862 0.17298906 0.08780301 0.18361562
-0.7022773 -0.88412094 -0.32118315 -0.22128408 -0.30316314 -0.7179634 0.10450196 0.59216374
-0.106432356 -1.0528721 0.69987285 0.087332055 -0.26921508 -0.89033514 -0.78897953 0.092840955
0.07108841 0.09941616 -0.13073575 -0.4098483 -0.21314275 -0.0030560098 -0.12662937 -0.23765187
0.18820977 -0.3601542 0.11671207 -1.3486964 0.5201081 0.20820558 -0.03999996 -0.1689325
-0.25736797 -0.29905897 1.0260764 0.2634159 -0.013260661 0.034865394 -0.055527568 -0.30505353
-0.37848905 -0.4199376 0.23026454 0.1527954 -0.2084434 0.49056143 -0.55527306 -0.3099063
0.2294291 -0.54789174 -0.06709861 -0.016410789 -0.76038074 -0.5221362 -0.03868581 -0.069014505
0.28647062 -0.04311347 -0.36511597 -0.31878632 0.016522368 0.18860833 0.028917698 0.9931877
1.2982435 -0.13002746 0.033413332 -0.20019181 -0.3097723 0.27456838 0.544675 -0.28612936
0.039695773 0.04567508 0.1626883 0.3147732 -0.060884032 -0.18375753 0.14308195 0.36158162
0.5431634 0.06408187 -0.04241095 -0.062309228 0.041944824 -0.011548403 -0.30251974 0.2299912
-0.10525653 0.16147898 0.6054371 0.8759297 -0.17720036 -0.011994402 -0.43734226 -0.047743097
-0.018897932 -1.020692 0.3843922 -0.04533196 -0.010738259 -0.3260337 -0.1441046 -0.42461905
-0.34557563 -0.25013897 0.69074917 0.10672889 -0.10215419 0.054662626 -0.02845323 -0.04976964
-0.053394064 -0.28043637 -0.045769297 -0.101092026 -0.27518854 -0.69905853 0.7358944 0.31730664
-0.023932934 -0.592608 -0.35938627 -0.06550809 -0.6672876 0.13976811 -1.1749829 -0.22705382
00000000: dd03 8ebd 06fe ae3e 08f3 063f 36a5 55be
00000010: 8ea8 a0be 60e2 063d 47a9 ddbe 70b9 a5be
00000020: 2b3e adbc a2b6 60be 3e1d c9be 385c 23bd
00000030: a1d9 0cbe 3616 52be dbdf c6bd de23 8fbe
00000040: afe3 d9be d35f 75be 7a72 b53e 7b5c 8c3e
00000050: a1be 97bf 8b07 d03e f087 afbd 0281 a1be
00000060: 05e8 f4be cb40 c4bd 40dc 6b3d e624 05bf
00000070: f19f 6dbe 50a7 25bc a6b3 0ebe 2e78 553e
00000080: dbca 2bbe 30b6 30be 4c1e 193e d8d9 0c3e
00000090: 8e13 0c3d b1cc 243f f3c9 aabb f5c0 e2bc
000000a0: f0a8 40be 5075 1abe cc9d 45be 35b1 f5be
000000b0: 26b8 98bd de41 aa3e 9a23 a43e 3302 873c
000000c0: 8c3d ce3a cbf8 533d 30b3 673e 9f99 833e
000000d0: 6a11 033d be26 1abe 094c 1fbe e6f9 003e
000000e0: df41 6b3f 762e 973e 9e7e 633e 18eb 54be
000000f0: 6012 393d a7bc d3be 9bb5 603e 6ce1 aabe
00000100: ae8b 543e a32c 84bf 2fb0 a1be 86f9 39be
00000110: 0077 563c 9e32 70be 2a4d cb3d 2b7f bb3d
00000120: 2793 42bf 9aca d93d bfcc 0cbe df42 1fbb
00000130: 1b04 8f3e c6a7 ee3d 47c5 2ebe 30ab bebe
00000140: 7b59 88be a616 9d3e 229d e73d 1040 0e3f
00000150: abe8 513e f006 a9bd de28 2f3e 42ed 793c
00000160: 550e 06bf 6b86 363e eedd 89be fc7d 003f
00000170: 48b4 0fbd 6b60 033c 384c 0fbe 2b77 3bbd
00000180: bfba ae3e f513 08be eb0a 8d3c 979e 8d3c
00000190: ef81 88ba 04db 39be 668f 4fbe 2ac1 a4be
000001a0: eac6 943e 118c e5bd b845 c5bc 239b 3f3e
000001b0: d5b6 e6be e4cd fd3d 8437 42bf d4fb efbe
000001c0: 7054 96bd f81c 43be 6f0d 1abf 55b6 e3bd
000001d0: 4050 5a3e a9bb e13e 7132 4fbe 3d71 47bf
000001e0: 05e2 64be 862c 093e a85e 01be 8c6d bbbe
000001f0: 380e 16be 0b24 313e 11d2 b33d bc05 3c3e
00000200: 72c8 33bf c055 62bf 1e72 a4be 4b98 62be
00000210: 3338 9bbe 73cc 37bf 2005 d63d 0b98 173f
00000220: 35f9 d9bd 83c4 86bf de2a 333f 26db b23d
00000230: 8fd6 89be 01ed 63bf 90fa 49bf 6623 be3d
00000240: cd96 913d b39a cb3d 98df 05be a3d7 d1be
00000250: 1842 5abe 5647 48bb 21ab 01be 035b 73be
00000260: 10ba 403e 2266 b8be bd06 ef3d 15a2 acbf
00000270: ce25 053f d833 553e 00d7 23bd a4fc 2cbe
00000280: bcc5 83be 421e 99be 7956 833f 73de 863e
00000290: 3e43 59bc 04cf 0e3d e070 63bd fa2f 9cbe
000002a0: 51c9 c1be 1002 d7be 78ca 6b3e 6676 1c3e
000002b0: 3072 55be de2a fb3e 6026 0ebf 0aac 9ebe
000002c0: 76ef 6a3e a242 0cbf ff6a 89bd eb6f 86bc
000002d0: 50a8 42bf b8aa 05bf 0375 1ebd 7a57 8dbd
000002e0: 47ac 923e c097 30bd 7bf0 babe f637 a3be
000002f0: eb59 873c 8b22 413e cfe4 ec3c 8d41 7e3f
00000300: d82c a63f eb25 05be 6bdc 083d 15ff 4cbe
00000310: 7a9a 9ebe 3a94 8c3e d26f 0b3f 8c7f 92be
00000320: 0998 223d cb15 3b3d c397 263e f429 a13e
00000330: 8961 79bd ef2a 3cbe 1384 123e 3a21 b93e
00000340: c20c 0b3f 5b3d 833d 1bb7 2dbd f637 7fbd
00000350: 56ce 2b3d 8335 3dbc dee3 9abe d082 6b3e
00000360: bc90 d7bd bf5a 253e edfd 1a3f ee3c 603f
00000370: 0374 35be 2b84 44bc 53eb dfbe 448e 43bd
00000380: d6cf 9abc 09a6 82bf 0ecf c43e 01ae 39bd
00000390: 86ef 2fbc e4ed a6be 2890 13be ab67 d9be
000003a0: 4aef b0be 3712 80be f0d4 303f ad94 da3d
000003b0: 3736 d1bd ebe5 5f3d c016 e9bc 40db 4bbd
000003c0: bcb3 5abd 5b95 8fbe 9678 3bbd 5609 cfbd
000003d0: 83e5 8cbe 80f5 32bf 9363 3c3f 0476 a23e
000003e0: 000f c4bc 28b5 17bf 7a01 b8be 1b29 86bd
000003f0: 5cd3 2abf 5f1f 0f3e d765 96bf cc80 68be

w_r.0.bias f4 [64]
-0.11049645 -0.24261108 -0.2874958 -0.18323895 -0.20180048 0.19290058 -0.39331147 -0.055356603
-0.10986428 -0.017178984 0.24010906 0.011969715 -0.47632846 -0.24946769 -0.35429832 -0.58718824
-0.15601614 -0.46406746 0.092642516 -0.5101541 -0.34265622 -0.48052448 -0.46313402 -0.24079406
-0.11147721 0.035259582 -0.4447327 -0.048379 -0.20973262 -0.4051073 -0.04738031 -0.3092733
-0.11503109 -0.3055385 0.010989295 -0.009980145 -0.38332596 0.2646443 0.026510129 -0.3012562
-0.2664786 -0.27415413 -0.24872264 -0.48242518 0.053456116 -0.4414368 -0.23004764 -0.55281276
-0.53805506 -0.16194764 -0.39075172 -0.105196536 -0.33388704 -0.3182331 -0.48519015 -0.25015268
0.0123931095 -0.698502 -0.13614143 -0.17199285 -0.39247093 -0.5821713 -0.4413406 -0.2800175
00000000: f64b e2bd 0a6f 78be a632 93be fea2 3bbe
00000010: c9a4 4ebe bb87 453e 1f60 c9be 9bbd 62bd
00000020: 8600 e1bd f1ba 8cbc 26df 753e a01c 443c
00000030: 53e1 f3be 7574 7fbe 9766 b5be f851 16bf
00000040: b2c2 1fbe 409a edbe 5cbb bd3d 7699 02bf
00000050: a370 afbe 4e07 f6be e71f edbe b892 76be
00000060: 2a4e e4bd 5a6c 103d 01b4 e3be 0f29 46bd
00000070: 26c4 56be 396a cfbe db11 42bd 1259 9ebe
00000080: 6c95 ebbd 8b6f 9cbe 720c 343c c383 23bc
00000090: 4d43 c4be 757f 873e c52b d93c 413e 9abe
000000a0: e26f 88be ee5d 8cbe 26b1 7ebe 6f00 f7be
000000b0: cdf4 5a3d 0104 e2be 9c91 6bbe 2385 0dbf
000000c0: fabd 09bf 9ad5 25be 9c10 c8be 4871 d7bd
000000d0: 3ef3 aabe 73ef a2be d86a f8be 0314 80be
000000e0: 780c 4b3c 07d1 32bf a968 0bbe e51e 30be
000000f0: f3f1 c8be 2e09 15bf 65f7 e1be 745e 8fbe

w_r.2.weight f4 [32, 64]
0.2031786 0.08613949 -0.28199545 -0.5782529 -0.23263867 0.058694776 -0.0032412135 0.32959324
-0.9092376 0.16723806 -0.14237013 -0.08056074 0.49687585 -0.23940645 -0.317679 -0.06504798
-0.21748473 0.0910469 -0.75627995 0.103854865 0.05347839 0.0954396 -0.42417467 -1.0091527
0.14446725 -0.34099528 -0.14231153 -0.47670618 0.43603143 -0.40309784 -0.033035353 0.11393416
0.16074166 -0.011955369 0.10320531 0.27841267 -0.8459916 0.040704716 0.0686376 -0.19634657
-0.71001655 -0.029303059 0.0027488205 0.18421851 -1.2464176 -0.846232 0.049568914 0.49458826
0.11589656 0.024386901 0.46128973 -0.90500194 0.09822817 -1.7796879 0.7702531 0.032583952
0.07936076 -0.24010935 0.01650983 -0.29475787 -0.1274418 0.38769794 0.40321568 -0.04222247
0.08721976 -0.05525998 -0.1786924 -0.018809501 -0.16982839 -0.17246802 -0.016082073 0.087844685
-0.022331925 0.05950651 0.19123042 -0.08032494 -0.11935602 0.052856136 -0.3060555 -0.53829414
-0.07566316 0.21265931 -0.17829807 0.05544649 0.014685613 0.08604195 0.07178818 0.41220436
-0.25292417 0.3175854 0.10137347 -0.07956925 0.24032192 -0.024511255 -0.004038013 0.0013877531
-0.01750417 0.12290047 -0.09552782 -0.2289884 -0.115676105 0.048703354 0.013778163 0.11393994
-0.065044515 0.0031759115 0.044265386 -0.10542775 0.013385845 0.21548 -0.15104812 -0.010392681
-0.12344003 -0.19385298 0.2709043 0.12899846 -0.031795766 0.115307346 -0.47429192 -0.075422615
-0.10872347 -0.07484504 0.05283305 -0.0721665 0.093574464 -0.14368835 -0.014517284 -0.0038824677
-0.0733776 0.11553234 0.7339005 -0.00600275 -0.27166185 0.43816397 -0.099063896 0.15998223
0.034601383 0.018993184 0.40616444 0.0236634 -0.2842507 0.028015764 0.19102697 -0.22061396
-0.05441615 0.08564248 -0.48600057 0.034027886 -0.10117511 -0.16271287 0.017938321 -0.29088813
0.02337704 -0.29605463 -0.16866584 0.14457272 -0.38009813 0.07531866 -0.050571326 0.0800681
-0.016349006 -0.043643042 0.028000675 0.394806 -0.1398701 -0.05782047 -0.15422846 -0.17963345
-0.04280635 0.05826379 0.051832523 -0.16171561 -0.0037454264 0.277399 -0.162374 0.16139342
0.037911974 -0.085939266 -0.061801657 0.008018332 -0.025517266 -0.34999672 -0.71677107 0.07261839
0.0013254662 -0.09930994 -0.009898977 0.1906349 0.07207528 -0.045208275 -0.0391061 -0.06570196
0.14613 -0.100071274 -0.029381586 -0.30225796 -1.2416627 -0.26962262 -0.0026750474 -0.26705143
-0.2633924 -3.965869 0.50915927 -0.067455046 -0.094365135 -1.945864 0.13728677 -0.06894648
-0.7335747 0.032556474 -4.7279263 -0.59788805 -0.67835736 -4.491648 -0.85366875 -1.2402459
-0.011345562 0.72483563 -0.20543215 -0.24486564 -0.16629755 -0.80307096 -0.10012329 -0.6223781
-0.28151074 -0.3415543 -0.042973693 -1.2550625 -0.25557053 0.0032348977 0.15533134 0.03157781
-1.1478951 -0.1852264 -0.0011385856 -0.04861965 -0.26862353 0.0996604 -0.025511632 0.04238624
0.017881047 -0.7023268 0.6210359 -2.3133755 -0.38276204 0.06931124 0.08338301 0.0067882068
0.0056688082 -0.07732609 -0.021702567 0.13336127 -0.979034 -0.7426246 0.35654047 0.05809711
00000000: 0d0e 503e e769 b03d b561 90be 6208 14bf
00000010: d538 6ebe ef69 703d 8a6a 54bb 72c0 a83e
00000020: ccc3 68bf 7440 2b3e 7ac9 11be 07fd a4bd
00000030: 8366 fe3e f726 75be d2a6 a2be e037 85bd
00000040: 51b4 5ebe cc76 ba3d 909b 41bf dcb1 d43d
00000050: 280c 5b3d d675 c33d 6c2d d9be ea2b 81bf
00000060: 39ef 133e ef96 aebe 1dba 11be d512 f4be
00000070: 833f df3e d762 cebe 1450 07bd 5056 e93d
00000080: 7699 243e 74e0 43bc 4e5d d33d 1b8c 8e3e
00000090: e892 58bf fdb9 263d df91 8c3d 130f 49be
000000a0: a5c3 35bf f80c f0bc 8e25 343b c7a3 3c3e
000000b0: 9d8a 9fbf a9a2 58bf c608 4b3d ac3a fd3e
000000c0: 2d5b ed3d 0ac7 c73c 2b2e ec3e 35ae 67bf
000000d0: da2b c93d d0cc e3bf 4f2f 453f c076 053d
000000e0: e587 a23d 3adf 75be 9f3f 873c 81ea 96be
000000f0: 1a80 02be 5880 c63e 4972 ce3e 78f1 2cbd
00000100: 46a0 b23d 4a58 62bd 24fb 36be 6216 9abc
00000110: 7ee7 2dbe 759b 30be 8dbe 83bc eae7 b33d
00000120: 71f1 b6bc 19bd 733d e8d1 433e 6781 a4bd
00000130: ee70 f4bd ad7f 583d 4eb3 9cbe a5cd 09bf
00000140: 49f5 9abd 5dc3 593e c593 36be dc1b 633d
00000150: ed9b 703c c336 b03d ae05 933d 730c d33e
00000160: 477f 81be 8e9a a23e e59c cf3d 34f5 a2bd
00000170: f316 763e d4cb c8bc 4f51 84bb 44e5 b53a
00000180: e864 8fbc 3eb3 fb3d 17a4 c3bd ef7b 6abe
00000190: 98e7 ecbd 2b7d 473d cebd 613c 5859 e93d
000001a0: 0f36 85bd f422 503b 9f4f 353d 81ea d7bd
000001b0: 4e50 5b3c caa6 5c3e 5cac 1abe 1046 2abc
000001c0: 20ce fcbd 6581 46be f8b3 8a3e 2c18 043e
000001d0: 473c 02bd 4226 ec3d 64d6 f2be 2c77 9abd
000001e0: 69aa debd 5b48 99bd 7867 583d 08cc 93bd
000001f0: f8a3 bf3d 0a23 13be e7d9 6dbc 0071 7ebb
00000200: ff46 96bd 389c ec3d e7e0 3b3f b7b2 c4bb
00000210: 4317 8bbe 0757 e03e 03e2 cabd 62d2 233e
00000220: 2eba 0d3d 9897 9b3c c9f4 cf3e bfd9 c13c
00000230: 4f89 91be 5181 e53c 939c 433e a0e8 61be
00000240: 78e3 5ebd 5365 af3d 11d5 f8be d360 0b3d
00000250: e534 cfbd 349e 26be 63f3 923c 4aef 94be
00000260: 3581 bf3c 7994 97be bdb6 2cbe df0a 143e
00000270: 399c c2be ab40 9a3d e123 4fbd befa a33d
00000280: 5aee 85bc 0cc3 32bd ac61 e53c 0324 ca3e
00000290: 1c3a 0fbe 28d5 6cbd 11ee 1dbe d5f1 37be
000002a0: b655 2fbd 03a6 6e3d 574e 543d c798 25be
000002b0: d475 75bb 3e07 8e3e 5f45 26be 5144 253e
000002c0: 9649 1b3d ed00 b0bd bc23 7dbd 525f 033c
000002d0: 9609 d1bc c532 b3be 4f7e 37bf f3b8 943d
000002e0: 44bb ad3a 0363 cbbd 522f 22bc cc35 433e
000002f0: 349c 933d 502c 39bd b82d 20bd c08e 86bd
00000300: 1aa3 153e 2bf2 ccbd a7b1 f0bc 8ec1 9abe
00000310: ceee 9ebf fa0b 8abe d94f 2fbb f7ba 88be
00000320: 5edb 86be ccd0 7dc0 4358 023f df25 8abd
00000330: 8242 c1bd 1212 f9bf e794 0c3e d033 8dbd
00000340: 8dcb 3bbf f059 053d 2c4b 97c0 310f 19bf
00000350: d4a8 2dbf 95bb 8fc0 098a 5abf 61c0 9ebf
00000360: bce2 39bc d48e 393f ce5c 52be 0fbe 7abe
00000370: e849 2abe 0f96 4dbf 710d cdbd 2c54 1fbf
00000380: 2d22 90be 35e0 aebe 2f05 30bd e3a5 a0bf
00000390: 24da 82be 9400 543b 2e0f 1f3e bc57 013d
000003a0: 3aee 92bf fdab 3dbe 983c 95ba 6625 47bd
000003b0: 0689 89be c01a cc3d c5fd d0bc 329d 2d3d
000003c0: 467b 923c b0cb 33bf 35fc 1e3f 580e 14c0
000003d0: 63f9 c3be 0df3 8d3d b6c4 aa3d 9b6f de3b
000003e0: 69c1 b93b 245d 9ebd 95c9 b1bc db8f 083e
000003f0: f9a1 7abf a51c 3ebf 798c b63e 3cf7 6d3d

w_r.2.bias f4 [32]
-0.09171593 0.33607092 0.117042944 -0.28928798 0.07247223 -0.36225134 -0.004447536 -0.086882144
-0.046975005 -0.11851893 0.23195255 -0.61307824 -0.557104 0.03266676 -0.3839005 -0.109754495
-0.20270672 -0.11829307 0.19810587 -0.040988524 -0.5485686 0.06952138 -0.0573387 0.48449272
-0.21060233 0.77886105 -0.28756714 -0.039471246 0.4389955 -0.0923034 -0.0576569 0.07705424
00000000: 90d5 bbbd 7d11 ac3e 36b4 ef3d 8e1d 94be
00000010: 526c 943d 0279 b9be a3bc 91bb 44ef b1bd
00000020: dd68 40bd 0eba f2bd f884 6d3e b2f2 1cbf
00000030: 5e9e 0ebf 95cd 053d 9b8e c4be f7c6 e0bd
00000040: 5a92 4fbe a343 f2bd 44dc 4a3e 95e3 27bd
00000050: fe6e 0cbf 3a61 8e3d fcdb 6abd 6e0f f83e
00000060: 23a8 57be 7063 473f 003c 93be 9aac 21bd
00000070: 05c4 e03e 9109 bdbd a429 6cbd 9dce 9d3d

w_h.0.weight f4 [64, 5]
0.1493871 -0.21764454 -1.4044019 -0.7666329 -0.75360346 0.242241 0.12574635 -0.5110191
1.1045223 -0.90225667 0.0026240717 -0.0019520307 -0.047154218 0.104582876 -0.075242266 -0.18044166
0.36589938 -1.4016503 -0.76584584 -0.50295925 0.07916005 0.3135898 -1.03598 1.4352896
-0.5683597 0.016278334 -0.02310095 -0.036671367 0.27718702 -0.5848506 -0.30945322 0.16995382
-1.2541595 -0.061581686 0.30309817 -2.6020307e-05 0.0040697604 -0.16283809 -0.19077712 -0.6644405
-0.08712787 0.28468463 0.20670268 0.101666905 0.5108919 0.15849696 -0.35968518 -0.4434367
-1.5919285 -0.827768 0.2437851 -0.42483887 -0.1088253 -1.4311272 -0.26249465 -0.11321839
0.07196765 -0.66811216 -0.48820978 -0.16553172 0.346907 0.45062396 0.49258626 0.86934
-0.11014556 0.07063199 -0.21290612 -0.25376245 0.31801584 -1.2035732 0.41654795 -0.09651225
1.102341 -0.504285 -0.8535488 -0.20216826 -0.009973033 -0.20962854 -0.8198231 -0.16365463
-0.31115544 0.3130176 0.69251513 0.85832685 -0.145822 -0.05034466 -0.024577025 -0.6068326
-0.5227789 0.5068283 0.18072322 0.18245114 -0.10790196 1.088977 0.4361733 -0.41477904
0.123555794 0.4001458 0.06517824 0.38457343 -0.3417511 0.5718133 -0.78258353 0.04788952
-0.3492858 -0.18270345 -0.08812607 0.9346897 -0.6857762 -1.9627217 0.4044654 0.3502163
-0.32070267 -0.6319535 -0.24594933 -0.13630046 -0.564326 0.995205 -1.0971493 0.0891876
0.3771897 -0.06721263 1.5356987 -0.4035837 -0.7829754 0.14281683 0.41040662 -1.0167098
0.28539464 -1.2003416 -0.25960976 0.117971286 -0.18827915 -1.0455881 -1.5319326 -0.045239493
-0.011952638 -0.7626192 -0.9002679 -1.1253929 -0.40293014 -0.26097426 -0.8559293 -1.2956579
-0.074500635 -0.19140379 -0.37636113 -0.15219462 -0.5075141 -0.4890016 -0.039835952 0.048507977
-0.4981859 -0.3706623 0.16935796 0.0732093 -0.18048325 0.7295014 -0.8532376 0.21438274
0.032605413 0.05933253 0.051834803 -0.43395084 0.8810812 0.15568337 -0.081016496 0.90489155
0.6644811 0.16262111 -0.27265513 0.10072936 0.23619798 0.22359186 -0.063038155 -0.023113383
-0.51058567 -0.34141818 -0.5462242 -0.68296045 -0.20001271 -0.19368185 -0.47687292 0.9544248
0.11137845 -0.38808036 -0.42087936 -0.8903319 0.2980482 -0.68458104 0.2615225 -0.09446774
0.043488562 0.30889955 0.6632149 0.13949165 0.20493568 -1.2148416 0.52332586 -0.65628976
0.0017636507 -0.014128949 -0.07826162 -0.015049492 -0.10602304 0.0061019794 -0.11563089 1.3745682
0.512313 -0.7972404 -0.00025483995 -0.00027684117 0.009866991 -0.15961541 -0.41987026 0.25528967
0.14349045 0.76147467 0.7793696 -0.1915239 0.13950697 0.120676585 0.28257212 -0.61683756
-0.54515326 0.27590933 0.4664384 -0.79214084 -0.8608493 -0.6723912 -0.25435767 0.5330927
0.13758795 -0.5116978 -0.3772268 -0.15746504 0.15388821 0.14980376 1.4542242 -0.7777656
-0.2151235 0.22522245 0.01232043 1.3468088 -0.26588807 -0.01052787 -0.00058766425 -0.08597467
-0.1638263 0.046801113 0.43705034 0.33675194 -0.55174327 -0.030333905 -0.60153556 0.47600007
00000000: eff8 183e 36de 5ebe 71c3 b3bf 0e42 44bf
00000010: 28ec 40bf 060e 783e a7c3 003e 26d2 02bf
00000020: fd60 8d3f 4bfa 66bf 9ef8 2b3b 48db ffba
00000030: c824 41bd 8c2f d63d 9e18 9abd b3c5 38be
00000040: 2a57 bb3e 4769 b3bf 790e 44bf f0c1 00bf
00000050: aa1e a23d d88e a03e fe9a 84bf 92b7 b73f
00000060: 0580 11bf 245a 853c 343e bdbc b734 16bd
00000070: 75eb 8d3e c5b8 15bf a770 9ebe 6008 2e3e
00000080: 4c88 a0bf 143d 7cbd af2f 9b3e 2f46 dab7
00000090: a05b 853b 07bf 26be 145b 43be c618 2abf
000000a0: 1970 b2bd 2fc2 913e dea9 533e bd36 d03d
000000b0: d0c9 023f 074d 223e a828 b8be 230a e3be
000000c0: 50c4 cbbf 9be8 53bf cda2 793e 7b84 d9be
000000d0: cddf debd 2d2f b7bf b365 86be 0bdf e7bd
000000e0: c663 933d 6609 2bbf a2f6 f9be 2681 29be
000000f0: cb9d b13e 2fb8 e63e 4434 fc3e 118d 5e3f
00000100: ff93 e1bd 81a7 903d 1004 5abe 27ed 81be
00000110: f9d2 a23e b00e 9abf c645 d53e 37a8 c5bd
00000120: 8319 8d3f d218 01bf 2d82 5abf 3205 4fbe
00000130: ef65 23bc dda8 56be eddf 51bf 1495 27be
00000140: c44f 9fbe d843 a03e ac48 313f 4fbb 5b3f
00000150: 5d52 15be 3436 4ebd c255 c9bc 6259 1bbf
00000160: d7d4 05bf 80bf 013f 820f 393e 79d4 3a3e
00000170: b4fb dcbd 9963 8b3f 1b52 df3e eb5d d4be
00000180: d20a fd3d e9df cc3e 2b7c 853d cfe6 c43e
00000190: 00fa aebe 5b62 123f 6557 48bf cd27 443d
000001a0: 97d5 b2be 9d16 3bbe 717b b4bd d347 6f3f
000001b0: 078f 2fbf 773a fbbf 1716 cf3e 8d4f b33e
000001c0: 2433 a4be b4c7 21bf 24da 7bbe 5992 0bbe
000001d0: ab77 10bf c1c5 7e3f 636f 8cbf fda7 b63d
000001e0: 021f c13e c6a6 89bd c691 c43f 86a2 cebe
000001f0: 1371 48bf 933e 123e d120 d23e 8c23 82bf
00000200: 3f1f 923e cba4 99bf 92eb 84be ee9a f13d
00000210: 40cc 40be d5d5 85bf 5e16 c4bf 0c4d 39bd
00000220: ffd4 43bc 033b 43bf f577 66bf e00c 90bf
00000230: dc4c cebe 6b9e 85be 2f1e 5bbf 1ed8 a5bf
00000240: ca93 98bd 5bff 43be 68b2 c0be e8d8 1bbe
00000250: 72ec 01bf 6b5e fabe 062b 23bd 4db0 463d
00000260: 3912 ffbe 73c7 bdbe 2c6c 2d3e c2ee 953d
00000270: 9ad0 38be 9bc0 3a3f c86d 5abf 2687 5b3e
00000280: 418d 053d ab06 733d bb50 543d ce2e debe
00000290: 8a8e 613f 766b 1f3e faeb a5bd f9a6 673f
000002a0: 6f1b 2a3f 2686 263e 7499 8bbe 324b ce3d
000002b0: e2dd 713e 44f5 643e 261a 81bd 4758 bdbc
000002c0: beb5 02bf 5dce aebe 59d5 0bbf 7fd6 2ebf
000002d0: 22d0 4cbe 8954 46be b028 f4be 2f55 743f
000002e0: 631a e43d 78b2 c6be 807d d7be cbec 63bf
000002f0: c699 983e b440 2fbf 47e6 853e 4d78 c1bd
00000300: 1021 323d 1528 9e3e 74c8 293f e6d6 0e3e
00000310: a9da 513e ee7f 9bbf aff8 053f 9b02 28bf
00000320: 4c2a e73a 1b7d 67bc a147 a0bd 2592 76bc
00000330: 9c22 d9bd 1df3 c73b e3cf ecbd daf1 af3f
00000340: f226 033f f217 4cbf 0a9c 85b9 fe24 91b9
00000350: 29a9 213c 3972 23be 3cf9 d6be 54b5 823e
00000360: 29ef 123e 01f0 423f c484 473f d71e 44be
00000370: eada 0e3e 4925 f73d 4bad 903e 11e9 1dbf
00000380: 2a8f 0bbf fd43 8d3e 04d1 ee3e bec9 4abf
00000390: 9f60 5cbf d421 2cbf 2b3b 82be c378 083f
000003a0: dbe3 0c3e a1fe 02bf df23 c1be 843e 21be
000003b0: df94 1d3e 2866 193e 0524 ba3f a51b 47bf
000003c0: 5649 5cbe b7a0 663e a1db 493c 3b64 ac3f
000003d0: 7b22 88be 167d 2cbc 7b0d 1aba 7d13 b0bd
000003e0: 15c2 27be 86b2 3f3d 10c5 df3e c06a ac3e
000003f0: 0c3f 0dbf cf7e f8bc 3cfe 19bf 48b6 f33e

w_h.0.bias f4 [64]
-0.92254823 -0.6066603 -0.110799775 -1.0000014 -0.7826939 -0.29362035 -0.86852187 -0.081604
-0.18169291 -1.1352046 -0.1628852 0.20923801 -1.0169971 0.32847893 -0.07388643 0.16129698
-1.0124627 -0.16791801 -0.40601707 -0.61950135 -0.71307385 -0.25141257 -1.4508823 -1.3496335
-0.9251984 -0.12155214 -0.013033897 -0.2909566 -0.62809914 -0.30735877 0.32014805 -0.04788181
-0.19762187 -0.6556294 -0.018329635 -1.5003061 -0.14899218 -1.3372116 -0.56082267 -0.7953457
-0.23994899 -0.76292926 -0.03438204 -0.16284864 0.3818576 -0.18570888 -0.42991215 -0.38145036
0.0061507733 -0.37736848 -0.2711201 -1.5738913 -1.1771392 -1.4284619 -0.021689583 -1.1250074
-0.16367345 -0.60407394 -0.48205677 0.14483531 -0.5213063 -0.76235265 -0.72740215 -0.06754733
00000000: 1f2c 6cbf 174e 1bbf feea e2bd 0c00 80bf
00000010: a15e 48bf 6855 96be 7357 5ebf ff1f a7bd
00000020: b50d 3abe 624e 91bf 61cb 26be 7d42 563e
00000030: f62c 82bf 642e a83e c551 97bd 092b 253e
00000040: 6198 81bf b3f2 2bbe 78e1 cfbe a497 1ebf
00000050: 028c 36bf 26b9 80be 83b6 b9bf cac0 acbf
00000060: cdd9 6cbf 54f0 f8bd 208c 55bc 43f8 94be
00000070: 1bcb 20bf 215e 9dbe 72ea a33e b81f 44bd
00000080: 635d 4abe 54d7 27bf 0828 96bc 080a c0bf
00000090: 6891 18be c029 abbf 1392 0fbf c79b 4bbf
000000a0: 30b5 75be 554f 43bf 2fd4 0cbd cbc1 26be
000000b0: d782 c33e 782a 3ebe 721d dcbe 764d c3be
000000c0: 6d8c c93b 7136 c1be 41d0 8abe 4575 c9bf
000000d0: 7fac 96bf d7d7 b6bf 5aae b1bc 3e00 90bf
000000e0: 039a 27be 97a4 1abf 25d0 f6be b54f 143e
000000f0: 5474 05bf 8b29 43bf 0737 3abf 4156 8abd

w_h.2.weight f4 [32, 64]
-0.1975824 -0.26868358 0.034041174 -0.70684165 0.097341746 0.0686924 0.04048403 0.08895788
0.43015403 1.363395 0.2730187 -0.009287317 1.1149397 0.079513416 0.22638164 0.18206498
0.00993703 -0.22373755 -0.21947202 -0.18800083 0.8361204 0.20227239 -0.4971195 0.030019281
0.64217883 -0.6250699 -0.10846569 -0.044176336 0.2680825 0.105904594 0.20625871 -0.37617293
-0.27532423 0.14208904 0.112904236 -0.44701907 -0.23982058 -0.0021576467 0.097210094 -0.2991139
-0.0020948686 0.37191463 -0.03044482 -0.2791509 0.06371778 0.48089796 -0.22825536 0.013012292
0.42200306 -0.013355444 0.2437641 0.21025921 0.5509881 -0.48675337 -0.41060966 0.38579923
-0.45557624 1.6556919 0.12096671 -0.13964643 -0.26644254 0.48681784 -0.07112087 0.40933225
0.11570578 -0.17564213 -0.1585969 -0.9553638 -0.5909491 0.04584656 0.55295193 -0.047716793
-0.048083723 0.6049074 0.4023776 -0.6875193 -0.64114064 -0.089600444 0.042758167 -0.099892795
0.039944064 0.15119894 -0.08602388 0.4853572 -0.4198315 0.14960523 -0.31035018 0.29667872
0.42145708 -0.8089313 -0.73196405 1.106229 -0.10873833 -0.20888448 0.05859437 0.2517404
0.21718287 -0.5287582 -0.16844079 0.7657515 -0.46715525 -0.078024685 -0.21954271 -0.2763391
-0.09785762 -0.21654181 0.17368808 -0.15115611 0.65018785 0.51801515 -0.0154732885 0.3440274
0.19614337 0.17417182 0.24140422 -0.38116592 0.9450759 1.2461957 -0.25734052 0.5077939
0.4454345 -0.44939157 0.36863127 -0.025265161 -0.033722173 -0.23392117 0.045808822 0.67451096
-0.090425335 -0.023954118 -0.021892527 0.08819503 0.082260594 0.00707053 -0.120314896 0.07870593
-0.1987896 0.041314915 0.0006028928 -0.1373858 -0.14970155 -0.08734631 -0.104557745 0.012910065
-0.010608337 -0.059571557 -0.039496627 0.04238398 -0.05984393 -0.15572114 -0.05915521 -0.08154577
0.01670803 0.008546087 0.04826162 -0.09099335 0.02458467 -0.08585223 -0.06890796 -0.08158384
0.07001102 -0.08747224 -0.060349368 -0.08087479 0.034355745 0.024206622 -0.16474162 -0.0034186933
-0.11962922 0.053506795 -0.13040537 0.07823974 -0.0027525248 0.038585275 -0.039455064 -0.0007608743
-0.17413326 -0.17573689 -0.059777655 -0.024470184 -0.022864839 -0.115528435 0.05901197 0.04223692
0.018514175 0.018395716 0.06325269 -0.011733586 -0.099378884 0.07201332 -0.1011175 -0.008589692
-0.09920574 -0.01919997 0.19891523 0.43507323 0.5897486 0.107491545 0.91855395 0.036009796
-0.07711242 -0.6922111 -0.5311191 0.35860923 0.12654014 0.06338143 -0.34781018 -0.061137278
-0.59939456 0.19315477 0.051678672 -2.0124328 0.1924377 1.205167 -0.09003248 0.3967855
-0.11808372 -0.0102228625 0.1990606 0.02664842 0.7231386 -0.7190611 0.3830456 -0.44427702
-0.39403677 -0.43318897 -0.95621085 0.90801346 0.2717068 -0.6403009 -0.13372368 -0.16340804
0.046788316 -0.43255636 -0.074420534 -0.033480085 -0.2709183 -0.061330575 -0.80915874 0.42796043
0.32590958 0.21896008 0.104397714 0.24867481 0.5985342 -0.5132565 0.11201043 0.32032913
0.42887762 -0.5307988 -0.55042654 -0.027698781 -0.13101795 -0.6675557 0.541585 0.39599806
00000000: 0a53 4abe e590 89be c26e 0b3d 93f3 34bf
00000010: 1c5b c73d 9aae 8c3d 95d2 253d 8d2f b63d
00000020: 263d dc3e ba83 ae3f 1bc9 8b3e d529 18bc
00000030: 58b6 8e3f eed7 a23d 97d0 673e 3e6f 3a3e
00000040: edce 223c 751b 65be 46bd 60be 4a83 40be
00000050: fd0b 563f 7e20 4f3e 7286 febe ffea f53c
00000060: d565 243f 9504 20bf 4223 debd 3ff2 34bd
00000070: 1c42 893e 82e4 d83d 7c35 533e bd99 c0be
00000080: 4cf7 8cbe ca7f 113e 563a e73d afdf e4be
00000090: 8793 75be 4e67 0dbb 1616 c73d 7525 99be
000000a0: 104a 09bb 986b be3e 6a67 f9bc deec 8ebe
000000b0: 787e 823d 4238 f63e c6bb 69be 8231 553c
000000c0: c910 d83e cbd0 5abc 4c9d 793e 314e 573e
000000d0: 8e0d 0d3f bd37 f9be 6e3b d2be 7a87 c53e
000000e0: 4a41 e9be b6ed d33f 65bd f73d 79ff 0ebe
000000f0: 286b 88be 3040 f93e d2a7 91bd ff93 d13e
00000100: 27f7 ec3d 88db 33be 3a67 22be b992 74bf
00000110: 7148 17bf 9ac9 3b3d 428e 0d3f af72 43bd
00000120: 70f3 44bd 36db 1a3f 7004 ce3e 4401 30bf
00000130: cb21 24bf 7080 b7bd 3023 2f3d 9894 ccbd
00000140: 639c 233d e5d3 1a3e 4a2d b0bd bd80 f83e
00000150: 28f4 d6be 1d32 193e 38e6 9ebe 46e6 973e
00000160: 39c9 d73e 1f16 4fbf ff61 3bbf e998 8d3f
00000170: 34b2 debd d0e5 55be a600 703d 1ee4 803e
00000180: 3065 5e3e b35c 07bf be7b 2cbe 4a08 443f
00000190: f92e efbe 68cb 9fbd cecf 60be 527c 8dbe
000001a0: 9369 c8bd 23bd 5dbe 4adb 313e abc8 1abe
000001b0: b672 263f a49c 043f ad83 7dbc 5c24 b03e
000001c0: cfd9 483e 195a 323e ab32 773e 2e28 c3be
000001d0: 7ff0 713f 5783 9f3f 23c2 83be c8fe 013f
000001e0: fe0f e43e a716 e6be 3dbd bc3e e2f8 cebc
000001f0: 4320 0abd 0889 6fbe 08a2 3b3d c0ac 2c3f
00000200: eb30 b9bd 6d3b c4bc f557 b3bc 999f b43d
00000210: 3e78 a83d e8af e73b a867 f6bd 9330 a13d
00000220: 808f 4bbe d439 293d 730b 1e3a ddae 0cbe
00000230: 5d4b 19be 9fe2 b2bd 5f22 d6bd bd84 533c
00000240: 97ce 2dbc 4e01 74bd 37c7 21bd d39a 2d3d
00000250: e91e 75bd 5d75 1fbe bc4c 72bd 7801 a7bd
00000260: 47df 883c e304 0c3c faad 453d b95a babd
00000270: ca65 c93c 4bd3 afbd 9e1f 8dbd 6e15 a7bd
00000280: f061 8f3d a524 b3bd e630 77bd afa1 a5bd
00000290: 9cb8 0c3d f74c c63c 07b2 28be 280c 60bb
000002a0: 2a00 f5bd f129 5b3d fc88 05be 283c a03d
000002b0: b463 34bb 980b 1e3d a29b 21bd 6975 47ba
000002c0: fd4f 32be 5ff4 33be 6ad9 74bd b275 c8bc
000002d0: 0b4f bbbc 2c9a ecbd 89b6 713d 9f00 2d3d
000002e0: 0aab 973c 9db2 963c a08a 813d 3a3e 40bc
000002f0: 2887 cbbd b87b 933d b116 cfbd c8bb 0cbc
00000300: 612c cbbd 4149 9dbc 6fb0 4b3e ebc1 de3e
00000310: c4f9 163f 8724 dc3d 5a26 6b3f 027f 133d
00000320: 1eed 9dbd bf34 31bf 6cf7 07bf a19b b73e
00000330: bd93 013e 20ce 813d 2d14 b2be 156b 7abd
00000340: ec71 19bf 5dca 453e 04ad 533d b3cb 00c0
00000350: 630e 453e ea42 9a3f f362 b8bd 7827 cb3e
00000360: e1d5 f1bd cb7d 27bc 8bd6 4b3e ca4d da3c
00000370: 9c1f 393f 6314 38bf 8e1e c43e 4778 e3be
00000380: 30bf c9be f2ca ddbe 3cca 74bf 9273 683f
00000390: 271d 8b3e c3ea 23bf dcee 08be 7054 27be
000003a0: 1ba5 3f3d 0778 ddbe cb69 98bd 6a22 09bd
000003b0: ceb5 8abe c535 7bbd 0725 4fbf a11d db3e
000003c0: 9fdd a63e 1237 603e 78ce d53d 9ca4 7e3e
000003d0: 8a39 193f c764 03bf b965 e53d 2e02 a43e
000003e0: d995 db3e 6ee2 07bf c1e8 0cbf 8ee8 e2bc
000003f0: 9229 06be eee4 2abf 51a5 0a3f 42c0 ca3e

w_h.2.bias f4 [32]
0.011749952 0.12922634 -0.14247186 0.41932204 -0.07184949 -0.6336707 0.30210966 0.5908805
0.04934856 -0.18671848 -0.27439785 -0.2784962 0.35915172 0.3091338 -0.42552483 -0.21129417
-0.19064187 -0.15722765 0.20505084 -0.027263448 -0.3902595 -0.13398524 -0.3257766 -0.057470873
0.42644796 0.003680476 -0.08759026 0.26367995 -0.16206901 -0.13774014 -0.4952956 -0.1503798
00000000: df82 403c e953 043e 25e4 11be 61b1 d63e
00000010: d325 93bd 3e38 22bf 1eae 9a3e f243 173f
00000020: b721 4a3d 2133 3fbe e07d 8cbe 0e97 8ebe
00000030: bce2 b73e c946 9e3e 64de d9be 805d 58be
00000040: 9f37 43be 4900 21be d9f8 513e 9857 dfbc
00000050: 18d0 c7be 6d33 09be 31cc a6be 9466 6bbd
00000060: 6357 da3e 2434 713b 8662 b3bd 0f01 873e
00000070: 6bf5 25be c00b 0dbe 6397 fdbe 2afd 19be

Ws.0 f4 [32, 32]
-2.2847974 0.9276862 -1.1736196 -0.6291933 0.24384044 -0.6063521 0.05484092 1.0970381
-0.9431094 1.2218432 -2.1800895 -0.2646007 -0.17489418 -0.7868304 0.50248164 0.09853938
0.13653997 -0.2917916 1.3576164 2.0787 -0.69498193 -0.40326887 -0.8185685 -0.5206634
-0.22349015 0.3460132 0.69629765 1.6419353 -0.10158474 -1.2373978 -0.361071 -0.76694673
-1.9518734 -1.492117 0.3767503 1.6394452 -1.7162182 0.7837775 0.32021374 -0.44707766
0.9561296 -1.4646856 -0.24000193 -0.08145589 1.0342988 -0.88677806 0.6115868 -1.3148047
-0.038369007 1.3970343 -1.122757 -0.23630604 -1.8605895 -1.4113246 0.80611265 -0.29997516
0.42132947 0.6318079 0.75659233 0.09167409 -0.28014562 -2.0736375 0.5725172 0.35916978
0.72474617 -3.036023 -0.39852518 0.48548913 -1.1088492 1.1466622 -0.6616094 -0.6922637
-4.0856676 0.8234912 0.8454148 0.930805 -3.7041402 -1.4304713 0.69245166 -2.1304512
2.4264202 0.54238623 0.80009246 0.5584563 1.3294743 0.3358787 -0.7495865 -1.2446616
2.2167628 -0.56452614 0.04635489 -0.40444782 0.6676061 1.1503303 1.0200742 0.6528434
-2.673507 0.34395322 0.22851881 -3.1199841 0.8403632 1.0731204 1.3536611 0.06795241
0.7428876 0.549364 -1.6465168 0.8758774 0.6491888 0.44718137 -0.1977259 0.7235001
0.38437217 -0.054539118 1.3276229 2.168817 1.5103049 0.2886256 -1.644722 0.03837088
1.3348944 -1.20887 0.7855322 -0.8105129 -0.26643032 -1.5027038 0.87809014 -0.7364099
0.244705 -0.82637066 -0.5149901 -3.9324186 0.40246204 0.50618076 -2.2640226 -1.3725488
-0.85340303 1.2475781 1.8511275 -0.10350808 -2.0811567 0.042897556 1.2047989 -1.4502
0.46465683 -1.1529429 -0.33315897 -0.15350328 -1.6105254 -0.123762965 0.03917322 0.44314945
-0.38377854 -1.4659033 -0.7175791 -4.16486 -0.28259334 1.1565615 0.06536828 -0.85494673
-1.092147 -2.4601831 -0.4586591 -0.090940125 0.44624615 -1.0929569 -0.32347113 1.1789557
0.62368697 -0.025533462 -0.42197585 -0.17135629 1.77371 0.36043608 -0.95705825 -3.3138447
-0.9679327 -0.1892569 -3.4121943 -0.048668142 1.3814192 -1.0286926 0.8595729 -0.45790341
-0.1277237 -0.29525632 0.7439149 -2.7656474 -0.32313755 -0.3088416 0.44306344 0.8720783
-0.9330678 0.24168663 0.92099714 1.9244565 -0.20575687 -1.1196355 0.20236443 1.7084326
2.6138911 -0.14163229 -1.1110069 -1.2847432 0.14523415 -0.24348353 0.9641737 -0.9168872
-1.0560446 0.02167435 -1.9440132 0.5474961 1.2670403 -0.62306297 -1.5862298 -0.644037
-0.16246071 -1.6440428 -0.7562847 0.44770664 0.8040443 1.0283425 -1.2898079 0.07780218
0.38718235 0.24871188 -0.22721416 -0.30967748 0.015599678 -0.5485713 -1.0458246 -0.519685
1.0259768 0.15898427 0.4653904 -1.2462236 1.2341334 -3.300066 1.5397274 -0.37424418
-0.73901415 0.47869155 -0.9596688 0.13194974 1.7979382 0.39350834 -0.5628023 -2.5553503
-1.6769587 0.2954128 0.122385524 -0.08140277 -0.49290323 1.6618897 -0.42240876 1.5129359
00000000: 1f3a 12c0 d87c 6d3f 2b39 96bf d012 21bf
00000010: 4fb1 793e e439 1bbf dfa0 603d bf6b 8c3f
00000020: 9e6f 71bf 5c65 9c3f 9686 0bc0 be79 87be
00000030: 7617 33be b86d 49bf a3a2 003f 04cf c93d
00000040: 22d1 0b3e b565 95be 60c6 ad3f 6c09 0540
00000050: 56ea 31bf 4279 cebe b58d 51bf 324a 05bf
00000060: 9ada 64be a428 b13e 9040 323f f02a d23f
00000070: a90b d0bd 0d63 9ebf 4cde b8be 9f56 44bf
00000080: fdd6 f9bf b1fd bebf 6ae5 c03e 57d9 d13f
00000090: 0aad dbbf a4a5 483f 0ef3 a33e 5de7 e4be
000000a0: e9c4 743f d17a bbbf 11c3 75be 58d2 a6bd
000000b0: e763 843f e303 63bf f490 1c3f 854b a8bf
000000c0: d228 1dbd 05d2 b23f 80b6 8fbf 36fa 71be
000000d0: cc27 eebf 49a6 b4bf 665d 4e3f 5896 99be
000000e0: 7fb8 d73e 2abe 213f 09b0 413f a0bf bb3d
000000f0: 3f6f 8fbe 7ab6 04c0 7d90 123f 1ae5 b73e
00000100: f788 393f 334e 42c0 7e0b ccbe 0892 f83e
00000110: c5ee 8dbf d4c5 923f 3c5f 29bf 3238 31bf
00000120: cabd 82c0 52d0 523f 1b6d 583f 3d49 6e3f
00000130: a210 6dc0 af19 b7bf 8344 313f 5059 08c0
00000140: 784a 1b40 d3d9 0a3f dcd2 4c3f fef6 0e3f
00000150: 372c aa3f 4bf8 ab3e e7e4 3fbf 1251 9fbf
00000160: 71df 0d40 c984 10bf a0de 3d3d c913 cfbe
00000170: 3ce8 2a3f 063e 933f cb91 823f bf20 273f
00000180: bd1a 2bc0 a31a b03e d600 6a3e d2ad 47c0
00000190: 0b22 573f 025c 893f c444 ad3f a22a 8b3d
000001a0: e22d 3e3f 1ea3 0c3f 10c1 d2bf 8039 603f
000001b0: 3d31 263f f5f4 e43e a978 4abe 4d37 393f
000001c0: 6ecc c43e 6964 5fbd 8cef a93f e6cd 0a40
000001d0: ac51 c13f bcc6 933e 4086 d2bf c92a 1d3d
000001e0: d2dd aa3f 41bc 9abf a318 493f c67d 4fbf
000001f0: 8e69 88be 9958 c0bf 84ca 603f 5c85 3cbf
00000200: f393 7a3e 078d 53bf 64d6 03bf bfac 7bc0
00000210: 810f ce3e 1095 013f bfe5 10c0 aeaf afbf
00000220: 9f78 5abf a4b0 9f3f bff1 ec3f 0bfc d3bd
00000230: ac31 05c0 59b5 2f3d da36 9a3f 27a0 b9bf
00000240: 80e7 ed3e a293 93bf d093 aabe f72f 1dbe
00000250: b225 cebf 7077 fdbd 1974 203d 7ce4 e23e
00000260: 9f7e c4be b8a2 bbbf 44b3 37bf 8846 85c0
00000270: 13b0 90be 350a 943f cedf 853d cadd 5abf
00000280: 79cb 8bbf a473 1dc0 5ed5 eabe d13e babd
00000290: 607a e43e 03e6 8bbf 029e a5be 05e8 963f
000002a0: f3a9 1f3f 8d2b d1bc 380d d8be 0678 2fbe
000002b0: ee08 e33f 148b b83e c501 75bf 0816 54c0
000002c0: 70ca 77bf 90cc 41be 6461 5ac0 3f58 47bd
000002d0: 58d2 b03f 33ac 83bf f80c 5c3f 5172 eabe
000002e0: 00ca 02be d62b 97be 3571 3e3f 5e00 31c0
000002f0: 4972 a5be 7c20 9ebe 36d9 e23e 8640 5f3f
00000300: 88dd 6ebf b37c 773e 78c6 6b3f 9754 f63f
00000310: eeb1 52be 3750 8fbf 9f38 4f3e ebad da3f
00000320: fe49 2740 0e08 11be 7935 8ebf 7772 a4bf
00000330: 43b8 143e bf53 79be 16d4 763f 1fb9 6abf
00000340: 782c 87bf 688e b13c 6dd5 f8bf b428 0c3f
00000350: 602e a23f 0e81 1fbf 9409 cbbf 9cdf 24bf
00000360: 1a5c 26be ff6f d2bf e09b 41bf ce39 e53e
00000370: d9d5 4d3f baa0 833f 6d18 a5bf c056 9f3d
00000380: c43c c63e 54ae 7e3e d4aa 68be 0c8e 9ebe
00000390: cb95 7f3c 2b6f 0cbf 95dd 85bf 130a 05bf
000003a0: 3553 833f c6cc 223e a747 ee3e 4184 9fbf
000003b0: 15f8 9d3f 4834 53c0 ca15 c53f ef9c bfbe
000003c0: 0830 3dbf 0f17 f53e dbac 75bf d51d 073e
000003d0: d722 e63f ed79 c93e d013 10bf dc8a 23c0
000003e0: 95a6 d6bf 5940 973e 43a5 fa3d 7fb6 a6bd
000003f0: d05d fcbe cdb8 d43f f645 d8be e2a7 c13f

Ws.1 f4 [32, 32]
-0.5969812 -0.67683107 -1.7828549 0.07968675 -0.15233357 0.72498375 -0.30713853 -0.7080896
-0.95143837 0.6780472 -3.3079035 -0.173757 -0.44454804 -1.8124472 -1.3200302 1.0343214
1.090646 -1.2934028 -2.874385 -1.0581632 -0.95849323 1.3834926 0.009709567 -0.866829
0.995058 2.4736104 -1.079838 -2.529924 -0.92185307 0.0014279124 1.3630651 -1.2232466
2.1598725 -1.2240905 -1.3169229 0.4148577 -0.323547 -0.80442494 1.0093119 1.1175041
0.46972823 1.3100647 1.4740448 -0.61678284 -0.686371 0.13164923 -0.6917034 -0.31475097
-0.30318192 -0.37265012 -0.26785088 -1.3435204 -0.6949386 -0.45700848 0.41422823 -1.3635893
0.3231998 -0.79172105 0.5532527 1.2610795 0.12617645 0.49022764 1.6506835 -0.97687167
1.2067908 -1.0760335 -0.83842367 -0.5719015 -0.9108303 0.28463608 -1.258721 -1.4956104
0.41289648 0.1150255 0.5336271 -0.7296141 0.6392538 -0.47251594 1.1954063 -0.8559812
0.02951713 0.3063811 -0.5163088 -0.8100105 -0.59213746 -1.1938429 -0.51887834 -1.8857476
1.0694023 -2.8441527 -0.24020171 0.24104509 1.0716043 -1.2038825 -1.1588342 0.13089237
-1.0209702 0.80606174 -0.19351605 -1.4280452 -1.5434778 -0.67074096 0.25250366 0.09479727
0.23937458 -1.6755974 -1.6890782 -1.4165345 -0.8898059 0.63107884 -1.0055244 0.089605466
-1.7548653 -1.8849065 -1.0594558 -1.5469352 0.6738338 -0.42403278 -1.1468152 -0.124039665
-0.0643934 0.23390958 -0.7676241 -0.3396577 0.5203508 -1.026918 -1.1291711 -1.2251264
1.2568734 -0.10609274 -1.7295685 0.26384965 -1.4601002 -0.73933053 0.026498977 -0.012092922
-1.4351926 -1.9363676 0.38951805 0.68889594 -1.1532377 -0.16528279 -0.9449818 -0.38463342
0.1599428 1.1570554 -0.6547763 0.61275303 -0.12013073 -1.2389002 1.1494762 -2.9207022
1.241297 -1.1429714 -1.4561211 -0.27061152 1.7438979 0.6176926 -0.60921246 0.072865866
-1.0960902 -0.047548722 1.4020358 1.0140296 0.6711114 -0.2952687 1.521834 -1.3191948
-0.2531219 -1.2679228 0.14001837 0.5373274 -0.83127534 0.3302508 -0.21663441 -0.4464321
-0.92139566 -0.21977167 1.2754468 0.35379332 0.6271338 0.32102013 1.0000424 -3.431026
-0.12505679 -0.48435336 -1.4791119 -1.056337 1.6784494 -1.5907207 0.3036527 -0.83093834
-0.36087257 1.0024141 -0.7193183 -0.4241695 1.1998557 0.08610655 -0.3314838 0.9526399
-1.3735198 -1.5827037 0.11485798 0.09884137 -0.42826468 0.3162462 1.2854369 0.16675878
-0.16339016 -1.2159219 -1.0256479 0.00025940075 0.80618745 0.5392053 -0.69233483 -3.1003866
0.62155294 -1.4332122 0.4009816 -0.23759937 0.18440537 1.0974206 -0.76646256 -0.5489837
-0.42175487 -0.648556 1.1048695 -1.7828318 -0.09146861 -0.5225188 -1.8319236 -1.388594
0.57874185 -1.8125322 -1.2548152 -2.2418783 -2.171427 1.0400854 -0.054463163 -1.0059283
0.089312024 -1.9238827 0.8487512 -0.5595096 0.5386973 0.67843485 -1.3909951 1.046139
1.0963153 0.7876211 -0.005754509 -0.66885096 -0.021386264 -0.83638877 -0.2424491 0.68099725
00000000: c3d3 18bf cd44 2dbf 9734 e4bf cf32 a33d
00000010: 55fd 1bbe 8998 393f 4341 9dbe 5c45 35bf
00000020: 7791 73bf 8094 2d3f b1b4 53c0 5bed 31be
00000030: cd9b e3be 45fe e7bf c0f6 a8bf a564 843f
00000040: 4a9a 8b3f 398e a5bf edf5 37c0 e471 87bf
00000050: d05f 75bf 4916 b13f e014 1f3c 81e8 5dbf
00000060: 1fbc 7e3f a24f 1e40 2238 8abf 46ea 21c0
00000070: 90fe 6bbf ca28 bb3a eb78 ae3f 5893 9cbf
00000080: 5a3b 0a40 ffae 9cbf ee90 a8bf 3a68 d43e
00000090: f4a7 a5be cbee 4dbf 2231 813f 600a 8f3f
000000a0: 3880 f03e 33b0 a73f 80ad bc3f 7be5 1dbf
000000b0: 03b6 2fbf 0ecf 063e 7913 31bf 0a27 a1be
000000c0: a93a 9bbe ffcb bebe c023 89be 7af8 abbf
000000d0: 7fe7 31bf 04fd e9be b915 d43e 188a aebf
000000e0: 727a a53e 3bae 4abf f8a1 0d3f 0e6b a13f
000000f0: 6634 013e 1eff fa3e 9949 d33f 4314 7abf
00000100: 1f78 9a3f 77bb 89bf efa2 56bf 2368 12bf
00000110: 2d2c 69bf d2bb 913e c51d a1bf 2970 bfbf
00000120: 2b67 d33e 7d92 eb3d c99b 083f fdc7 3abf
00000130: 23a6 233f 9ced f1be 1303 993f 9521 5bbf
00000140: e9cd f13c fcdd 9c3e d02c 04bf d95c 4fbf
00000150: 5296 17bf d8cf 98bf 36d5 04bf 2d60 f1bf
00000160: 2de2 883f 9906 36c0 70f7 75be 86d4 763e
00000170: 542a 893f d218 9abf ae54 94bf a608 063e
00000180: 27af 82bf 105a 4e3f 1229 46be 2fca b6bf
00000190: ae90 c5bf aeb5 2bbf 2948 813e 1225 c23d
000001a0: 9c1e 753e fa79 d6bf b733 d8bf 0151 b5bf
000001b0: 52ca 63bf 628e 213f 06b5 80bf 1283 b73d
000001c0: 6d9f e0bf 9e44 f1bf 3f9c 87bf f901 c6bf
000001d0: 5f80 2c3f d31a d9be d7ca 92bf 8208 febd
000001e0: b0e0 83bd fe85 6f3e 0383 44bf 9de7 adbe
000001f0: b635 053f 0d72 83bf ae88 90bf f1d0 9cbf
00000200: 3ae1 a03f 2747 d9bd 8062 ddbf 4d17 873e
00000210: 90e4 babf c444 3dbf 6214 d93c 6421 46bc
00000220: 64b4 b7bf e5da f7bf e96e c73e 7c5b 303f
00000230: 4b9d 93bf e43f 29be 54ea 71bf acee c4be
00000240: 0cc8 233e 641a 943f 6b9f 27bf 62dd 1c3f
00000250: 1a07 f6bd 4894 9ebf 0922 933f c9ec 3ac0
00000260: d2e2 9e3f e34c 92bf 2d62 babf 988d 8abe
00000270: 0c38 df3f 1a21 1e3f 59f5 1bbf b33a 953d
00000280: af4c 8cbf 73c2 42bd e975 b33f b9cb 813f
00000290: f5cd 2b3f 762d 97be 75cb c23f 60db a8bf
000002a0: 3299 81be 4b4b a2bf fa60 0f3e 4a8e 093f
000002b0: 76ce 54bf a216 a93e 69d5 5dbe c092 e4be
000002c0: 96e0 6bbf d30b 61be d741 a33f 6624 b53e
000002d0: d78b 203f c05c a43e 6401 803f ee95 5bc0
000002e0: e30e 00be 2afd f7be 8a53 bdbf 0d36 87bf
000002f0: 6ed7 d63f bc9c cbbf 5e78 9b3e 60b8 54bf
00000300: 4ac4 b8be 1b4f 803f 3e25 38bf bf2c d9be
00000310: df94 993f a258 b03d 3fb8 a9be 35e0 733f
00000320: 7fcf afbf 0996 cabf a93a eb3d 586d ca3d
00000330: 8245 dbbe 06eb a13e 3289 a43f d0c2 2a3e
00000340: c04f 27be 54a3 9bbf 6e48 83bf 2e00 8839
00000350: 4d62 4e3f 5c09 0a3f db3c 31bf bc6c 46c0
00000360: 181e 1f3f 7f73 b7bf 764d cd3e 404d 73be
00000370: c3d4 3c3e 4778 8c3f e436 44bf 328a 0cbf
00000380: 41f0 d7be c407 26bf 5d6c 8d3f d533 e4bf
00000390: e553 bbbd cbc3 05bf 797c eabf 73bd b1bf
000003a0: 6d28 143f 0e01 e8bf c99d a0bf ef7a 0fc0
000003b0: a9f8 0ac0 8521 853f c414 5fbd 42c2 80bf
000003c0: 39e9 b63d ca41 f6bf c247 593f 053c 0fbf
000003d0: 11e8 093f e8ad 2d3f 210c b2bf e2e7 853f
000003e0: 0f54 8c3f 89a1 493f 5290 bcbb d139 2bbf
000003f0: 3f32 afbc 931d 56bf 9444 78be d655 2e3f
