crowd_nav/our_circle/rl_model_3.pth (torch, 143871 bytes, 33 tensors)

w_a f4 [32, 32]
00000000: 6a3e e5be 5b58 98be 2b86 913f 240c d9bf
00000010: db6e 9cbf 423d 04be ac59 473f 4260 ad3d
00000020: d1e9 2340 f71c c03e 97d2 6cbf 717e 9a3e
00000030: 5163 a1be 6f62 eebe e5bb efbc 355c 3abf
00000040: d457 74bf a1a7 dfbe b4d9 533f 44b8 4f3f
00000050: 9359 0440 94fd 45bf c6f8 923e b006 0bbf
00000060: 0081 3abf 961f 14be a845 dfbb a336 b1be
00000070: ed33 8bbf 1361 dabe 3e64 09c0 3ebb 12bf
00000080: 2ee5 d1be 4129 f73e 60da 28bf 3f58 babf
00000090: eae7 1c3f c22f 37bc 6fee 67bd 44de b8bc
000000a0: 2bed 1a3e e2b3 b2be f635 05bf 05e6 233f
000000b0: 7858 c33e 9847 ebbf 6e70 51bf e354 76bf
000000c0: 7b28 3c3e 4f61 373e a469 95bf 6020 2b3e
000000d0: c566 993f 528d 8dbf 51ea c4bf 6220 dcbf
000000e0: b8ba 043f 4ad6 473f 5aab 98be d530 9b3c
000000f0: dee0 f83e a60b 933f fcf8 cd3f 3465 bcbd
00000100: 729c 03bf f4aa 4fbf fd26 6fbe a325 7b3e
00000110: 19e7 813d dc47 d7be 6972 e53d 77b6 bcbe
00000120: 031c a63e a687 063f e26d 413f f27c 91be
00000130: 9592 3bbf ec10 933f 9cb8 2bbf 0f53 823e
00000140: 5827 d7be 98d0 0ebe ae7c cebf eeb9 e83e
00000150: 6bad a43e 1621 843b 160c 823f 580c d0bf
00000160: e4a2 bcbf a77f 1c3f 260a 73be 1e44 a13f
00000170: de16 43be 1a69 88bf f2aa 0640 805f b6bf
00000180: b45b 28be 8cfb 9d3f cd92 ebbe 7032 a43e
00000190: 45c9 fe3e 2d87 82be fa1a a63f 5b75 24be
000001a0: a2c0 d53e 53c6 f3be 1f76 0dbf a035 cfbe
000001b0: 96f7 253f 8171 5a3e b45b 173f d6f6 2ebf
000001c0: 92b4 113e 6bbc c83e 0d43 cd3e 9017 ddbe
000001d0: 9942 9bbe 1771 30bf 766e 3dc0 9e78 6d3e
000001e0: eb90 663e a2b7 d23e f398 2bc0 0ba9 943f
000001f0: 16fc 58bf b8cb 883f 57b3 4bbf 9fa2 a9be
00000200: 8aaf 073f 46d8 b2be a051 0dbf 269e 59bf
00000210: 25e3 9fbf fbc5 7cbf ac16 963e ddd5 213f
00000220: c73a 503e 8730 9c3f cb70 8ebc f1e9 a43e
00000230: 1995 c6bf 9560 bd3f 3d36 a63f 7761 a53f
00000240: e9a9 a0bd d331 403e 4129 203e a807 3b3f
00000250: b7b6 87bf 15f8 3ebf c7fd 2dbf d21d 7b3f
00000260: a5b9 77bf 4cf3 813d 9da1 1f3f b7db a13c
00000270: 194d abbf 09ae 99bf 06f9 0cbe bb90 2e3f
00000280: 0c2a 563e 4a7f 043f cb4e b4bf 57d8 9cbe
00000290: 15f2 433f 6565 97bf dd0c 0340 c41c 253e
000002a0: 678c f2bf 0f0c 253e 4714 333d 7b26 823f
000002b0: 6cf3 64bf c720 c2bf 0b75 07bf 9a53 b3be
000002c0: ab17 14bf c4b6 dabf 7fcb 36bf c8c1 90bf
000002d0: f344 8bbf b529 b03e b470 eabf cdf8 cebe
000002e0: 0e3d d7bf 95b6 6bbf 85d5 063e 1715 153f
000002f0: efa6 f3bf 1991 edbf 8c9c ebbe bf10 91bf
00000300: b29b 71bf 91b9 97be da04 23bf 1310 8e3e
00000310: e7b8 463e 9454 b33f 4f50 e5bf 3e54 9dbf
00000320: d983 21bf 40a4 c8be 8fa0 83be 0c5c b6bf
00000330: c246 39be 717a 083f 94ef 98bd 5398 14bf
00000340: 77cc 97be 0279 05bf a3ef 103f e507 a1bf
00000350: 7478 c0bf 9996 263f 9b35 babf cebc 5abe
00000360: 7da9 ffbe c87b 16c0 233a ffbe 8a55 dabd
00000370: ca81 073f ae77 36bc 8552 2abe 2fb3 ffbe
00000380: 7470 b33e 2cd0 c53d 2179 00bf 0d3d 2cbe
00000390: 8300 ac3f c772 a53e adf8 29bf 7a29 fbbf
000003a0: 0061 efbf 2392 8d3f 5db8 abbf ee12 b5bf
000003b0: a09b f73d ce6f b6bf 6da9 9abf 7fab b1be
000003c0: 7395 a43f 5360 92bf de47 083f 7af3 313f
000003d0: e47d 1ec0 0173 cd3b c159 d0bf 2444 0cc0
000003e0: 3e9c a8bf 26f4 373e bae4 c3be d6ce fc3f
000003f0: 63dc 95bf 5d7d 03c0 93fb 293f e8d5 963e
-0.4477418 -0.2975491 1.136907 -1.695683 -1.222133 -0.12913993 0.77871203 0.08465625
2.561146 0.37522098 -0.92508835 0.30174592 -0.31521085 -0.46559474 -0.0292644 -0.72796947
-0.95446515 -0.43682578 0.82754064 0.8114054 2.0679672 -0.77340055 0.28705424 -0.5430708
-0.7285309 -0.14465174 -0.0068137236 -0.34611997 -1.0875221 -0.42652187 -2.1467433 -0.5731696
-0.40995163 0.48273662 -0.65958214 -1.455818 0.6129137 -0.01118082 -0.056623872 -0.022566922
0.15129535 -0.34902865 -0.5203546 0.64022857 0.38153434 -1.8381224 -0.8181218 -0.96223277
0.18374817 0.17908214 -1.1672864 0.16711569 1.1984488 -1.1058753 -1.5384008 -1.7197382
0.5184741 0.78061354 -0.2981823 0.018944183 0.4860906 1.148793 1.6091609 -0.091989905
-0.5141059 -0.8112023 -0.23354717 0.24526076 0.063429065 -0.42047012 0.11203463 -0.3685796
0.32443246 0.52550733 0.7555829 -0.28415638 -0.7327054 1.1489539 -0.67078567 0.25453994
-0.42022204 -0.1394676 -1.6131799 0.45454353 0.32163557 0.0040322645 1.0159938 -1.6253767
-1.473721 0.6113228 -0.2373434 1.2598913 -0.19051692 -1.0657074 2.1041837 -1.4247894
-0.16441232 1.2342391 -0.46010438 0.3206973 0.4976293 -0.25493756 1.2976983 -0.16060393
0.4174853 -0.47612247 -0.55258363 -0.404706 0.6483091 0.21332361 0.591243 -0.6834539
0.14229038 0.39206252 0.40090218 -0.4318204 -0.30324247 -0.6892256 -2.959867 0.23190543
0.2251622 0.41155726 -2.6812103 1.1614088 -0.8475965 1.068717 -0.79570526 -0.33131883
0.53002226 -0.3493063 -0.55202675 -0.8500694 -1.2491194 -0.98739594 0.29314172 0.63216954
0.20334922 1.2202309 -0.017387768 0.32209733 -1.5514251 1.47951 1.2985302 1.2920369
-0.07844908 0.18769006 0.15640737 0.7305856 -1.0602635 -0.74597293 -0.6796536 0.9809238
-0.96767646 0.06345233 0.6235598 0.019758089 -1.3382903 -1.2006236 -0.1376687 0.6818959
0.20914477 0.5175673 -1.4086546 -0.30633804 0.7654126 -1.1827818 2.04766 0.16124254
-1.8949097 0.16117881 0.04372051 1.0167993 -0.8943393 -1.5166253 -0.5291297 -0.3502472
-0.57848614 -1.7087026 -0.7140426 -1.1309137 -1.0880417 0.3440682 -1.8315644 -0.40424195
-1.6815507 -0.92075473 0.13167389 0.58235306 -1.9035319 -1.8559905 -0.46017873 -1.1333236
-0.943782 -0.29633763 -0.6367928 0.2774664 0.19406472 1.4010186 -1.7915133 -1.2291334
-0.6309181 -0.39187813 -0.25708434 -1.424684 -0.18093398 0.5331183 -0.07467571 -0.5804493
-0.29648182 -0.5213777 0.56615657 -1.2580534 -1.5036759 0.65073544 -1.4547609 -0.21361086
-0.49933997 -2.351305 -0.49849042 -0.106608465 0.5293242 -0.011136932 -0.16633041 -0.49941394
0.35046732 0.09658846 -0.5018483 -0.16820164 1.3437656 0.3231413 -0.66395074 -1.9622033
-1.8701477 1.1060222 -1.3415638 -1.4146402 0.1209023 -1.425287 -1.2082955 -0.34701154
1.2858108 -1.1435646 0.5323466 0.6951214 -2.4764338 0.006269813 -1.6277391 -2.191659
-1.3172681 0.17964229 -0.38260442 1.9750621 -1.1707882 -2.0545266 0.66399497 0.29460073

w_r.0.weight f4 [64, 9]
00000000: dd03 8ebd 06fe ae3e 08f3 063f 36a5 55be
00000010: 8ea8 a0be 60e2 063d 47a9 ddbe 70b9 a5be
00000020: 2b3e adbc bb4e 56be 541b a9be 9707 03be
00000030: 5cbd c2be 3616 52be dbdf c6bd ee8b 74be
00000040: d5d9 c4be d35f 75be a350 9e3e 4509 083e
00000050: 048a 92bf 657a fa3e f087 afbd 0281 a1be
00000060: df5d eebe efca 94bd 40dc 6b3d dea1 07bf
00000070: d543 a0be 9423 393d 682e 2fbe 2e78 553e
00000080: dbca 2bbe 7561 61be 66e9 d03d d8d9 0c3e
00000090: 9bbb a03c 5f10 153f 6a75 cc3c 1316 55bc
000000a0: f0a8 40be 5075 1abe 292e 44be f2f9 f4be
000000b0: 26b8 98bd a99e af3e eac8 a53e 7307 893c
000000c0: 6d28 e3bc cbf8 533d 30b3 673e 6b58 853e
000000d0: ef08 113d be26 1abe 94fc 12be 8183 c33d
000000e0: 7efe 633f 4b59 993e 9e7e 633e 18eb 54be
000000f0: 69cc 0e3d 5b03 d9be 9bb5 603e 0275 bdbe
00000100: 3031 0c3e 7af6 99bf 2303 d6be 86f9 39be
00000110: 0077 563c 90a6 91be fa72 4a3d 2b7f bb3d
00000120: 8deb 3bbf 01c3 b43d 7799 86bd 851b 84bd
00000130: 1b04 8f3e c6a7 ee3d cb66 21be 79fb b7be
00000140: 7b59 88be 69b0 953e 17fc 5a3e cfcf 3c3f
00000150: 9805 2e3e f006 a9bd de28 2f3e a22c d73c
00000160: fb3b 03bf 6b86 363e a7e1 8ebe 34f1 f93e
00000170: f792 9dbc 0b69 263d 384c 0fbe 2b77 3bbd
00000180: 09d6 a93e 31dd 11be eb0a 8d3c 979e 8d3c
00000190: ef81 88ba 04db 39be 668f 4fbe 2ac1 a4be
000001a0: eac6 943e 118c e5bd b845 c5bc 239b 3f3e
000001b0: d5b6 e6be e4cd fd3d 8437 42bf d4fb efbe
000001c0: 7054 96bd f81c 43be 6f0d 1abf 55b6 e3bd
000001d0: 4050 5a3e f123 b63e c6e7 81be 67c7 3dbf
000001e0: 2a11 363e 862c 093e a85e 01be 2d0d c5be
000001f0: 1ad5 27be 0b24 313e 11d2 b33d bc05 3c3e
00000200: 72c8 33bf c055 62bf 1e72 a4be 4b98 62be
00000210: 3338 9bbe 73cc 37bf 2005 d63d e854 303f
00000220: fe97 5abe 4145 9bbf 4ec6 623f 26db b23d
00000230: 8fd6 89be 26e4 42bf 0a28 29bf 6623 be3d
00000240: 7fd2 c33d 0cd1 c23d eae3 7bbd 1649 d1be
00000250: 1842 5abe 5647 48bb 836c f9bd 5fcb 6abe
00000260: 10ba 403e 4967 c5be f7d7 be3d 15db a5bf
00000270: f1b7 443f d833 553e 00d7 23bd 98de 58be
00000280: c9b0 99be 421e 99be cfdf 6a3f fd2b 813e
00000290: 5406 e6bc 7c7b 13bb e070 63bd fa2f 9cbe
000002a0: c67e b3be e9b8 c8be 78ca 6b3e 6676 1c3e
000002b0: 3072 55be de2a fb3e 6026 0ebf 0aac 9ebe
000002c0: 76ef 6a3e a242 0cbf ff6a 89bd eb6f 86bc
000002d0: c852 2bbf 39b9 06bf 7d6a 8dbd cb7d 363d
000002e0: 47ac 923e c097 30bd 3cf1 b9be 3e36 a2be
000002f0: eb59 873c 4e9b 1c3e 53b4 3b3b 311c 5a3f
00000300: 7325 a73f eb25 05be 6bdc 083d 19d1 47be
00000310: 58f5 9bbe 3a94 8c3e 6423 fe3e 547b 6ebe
00000320: be5b ff3c fd55 86bc c397 263e f429 a13e
00000330: baa9 d9bc 930a 19be 1384 123e 23c8 b03e
00000340: 5a0a fc3e 7997 213c f02b 8b3c f637 7fbd
00000350: 56ce 2b3d d931 20bd 4bfe a8be d082 6b3e
00000360: bc90 d7bd bf5a 253e edfd 1a3f ee3c 603f
00000370: 0374 35be 2b84 44bc 53eb dfbe 448e 43bd
00000380: d6cf 9abc bd7a 76bf 7bfc c53e de52 ce3d
00000390: f9ef fdbc e4ed a6be 2890 13be 93c4 d3be
000003a0: 694b abbe 3712 80be 3184 053f 8257 08bc
000003b0: 80fe 80be e757 d13d c016 e9bc 40db 4bbd
000003c0: 6117 09bd 1762 85be 9678 3bbd 5609 cfbd
000003d0: 83e5 8cbe 80f5 32bf 9363 3c3f 0476 a23e
000003e0: 000f c4bc 28b5 17bf 7a01 b8be 1b29 86bd
000003f0: 290d d1be db5f 1a3d 1602 a7bf 0f6e 583d
-0.069343306 0.3417818 0.52714586 -0.20863804 -0.31378597 0.03293073 -0.4329321 -0.3236804
-0.021147808 -0.20928471 -0.33028662 -0.12795864 -0.38035095 -0.20516285 -0.09710666 -0.23881504
-0.38447443 -0.23962335 0.30920896 0.13284786 -1.1448369 0.48921505 -0.0857085 -0.31543738
-0.46555993 -0.07265269 0.057583094 -0.52981365 -0.31301752 0.045199946 -0.17107546 0.20846626
-0.16776602 -0.22009833 0.10200767 0.13754976 0.019620707 0.58228105 0.024958331 -0.013005751
-0.18814445 -0.15083814 -0.19158234 -0.47846943 -0.074569985 0.34300736 0.32379848 0.016727185
-0.027729237 0.05175094 0.22626948 0.2604402 0.03540891 -0.15053841 -0.14354163 0.09546567
0.890602 0.29950938 0.2221627 -0.20792806 0.03486291 -0.42385373 0.21944277 -0.37003332
0.13690639 -1.2028344 -0.41799268 -0.18161592 0.013089895 -0.2844739 0.049426056 0.09155115
-0.73406297 0.088262565 -0.0657224 -0.064505614 0.2793282 0.11653094 -0.15761869 -0.35934046
-0.26630768 0.29236153 0.21385227 0.7375459 0.16994321 -0.08253276 0.17105433 0.0262664
-0.512634 0.17824714 -0.27906534 0.48816836 -0.019235117 0.04062752 -0.13993919 -0.045767944
0.33171108 -0.14244534 0.01721712 0.017287536 -0.00104147 -0.18149954 -0.20269546 -0.32178622
0.2905801 -0.11208356 -0.024081096 0.18711524 -0.45061365 0.12392786 -0.7586596 -0.46871817
-0.07340324 -0.1905402 -0.6017675 -0.111187615 0.21319675 0.35574296 -0.25372142 -0.7413239
0.17779985 0.1339589 -0.12633765 -0.38486615 -0.16389886 0.17298906 0.08780301 0.18361562
-0.7022773 -0.88412094 -0.32118315 -0.22128408 -0.30316314 -0.7179634 0.10450196 0.68879557
-0.21347043 -1.213051 0.8858384 0.087332055 -0.26921508 -0.76129377 -0.6607672 0.092840955
0.09561633 0.09512529 -0.061496653 -0.40876073 -0.21314275 -0.0030560098 -0.121789 -0.22929142
0.18820977 -0.38555363 0.09318536 -1.2957484 0.7684317 0.20820558 -0.03999996 -0.21178663
-0.3001769 -0.29905897 0.91747755 0.25228873 -0.02807919 -0.0022504022 -0.055527568 -0.30505353
-0.35057658 -0.39203575 0.23026454 0.1527954 -0.2084434 0.49056143 -0.55527306 -0.3099063
0.2294291 -0.54789174 -0.06709861 -0.016410789 -0.6692319 -0.5262638 -0.06905077 0.04455356
0.28647062 -0.04311347 -0.3631686 -0.31682009 0.016522368 0.15293619 0.0028641417 0.85199267
1.3058304 -0.13002746 0.033413332 -0.19513358 -0.3046062 0.27456838 0.49636376 -0.23289233
0.031171676 -0.016398424 0.1626883 0.3147732 -0.02657019 -0.1494544 0.14308195 0.34527692
0.49226648 0.009862774 0.016988724 -0.062309228 0.041944824 -0.03911004 -0.3300651 0.2299912
-0.10525653 0.16147898 0.6054371 0.8759297 -0.17720036 -0.011994402 -0.43734226 -0.047743097
-0.018897932 -0.96281034 0.3866919 0.100743994 -0.030998217 -0.3260337 -0.1441046 -0.41360912
-0.3345597 -0.25013897 0.52154833 -0.008321645 -0.25194168 0.10221844 -0.02845323 -0.04976964
-0.03346956 -0.260514 -0.045769297 -0.101092026 -0.27518854 -0.69905853 0.7358944 0.31730664
-0.023932934 -0.592608 -0.35938627 -0.06550809 -0.40830353 0.03768907 -1.3047512 0.052839335

w_r.0.bias f4 [64]
00000000: f64b e2bd 5e59 4ebe fc54 87be ae4c 6cbe
00000010: f634 4dbe 4c05 493e d5a6 cebe c672 d7bd
00000020: 4b40 c6bd e2b4 c9bb e815 6c3e a01c 443c
00000030: 53e1 f3be e39d 88be 9766 b5be 51ff eabe
00000040: 0e33 17be acc2 01bf 02e4 f63d 7699 02bf
00000050: d26e aebe 2862 f3be c88f dbbe dc63 89be
00000060: 2a4e e4bd 6988 3d3d c780 d9be 0f29 46bd
00000070: 17f8 13be 3a06 bfbe a9de b6bc bd85 93be
00000080: 6c95 ebbd 8b6f 9cbe 720c 343c 5573 3abd
00000090: 1d63 b3be 757f 873e f87a 6f3d e133 a0be
000000a0: 709a 63be 2805 51be 26b1 7ebe b2a3 e5be
000000b0: d2b8 7a3d 1679 ddbe 9c91 6bbe a4c1 06bf
000000c0: fabd 09bf 9ad5 25be 9c10 c8be 4871 d7bd
000000d0: 415e a5be a376 9dbe d86a f8be f842 52be
000000e0: 780c 4b3c 91ed 2bbf a968 0bbe 333b 03be
000000f0: f3f1 c8be 2e09 15bf 5568 cabe 745e 8fbe
-0.11049645 -0.20151278 -0.26432025 -0.23076126 -0.20039734 0.19630927 -0.40361658 -0.10519938
-0.09680232 -0.006155596 0.23055232 0.011969715 -0.47632846 -0.26682958 -0.35429832 -0.45897916
-0.1476557 -0.5068767 0.12055208 -0.5101541 -0.34068924 -0.47535825 -0.42883134 -0.26834
-0.11147721 0.04627267 -0.42481062 -0.048379 -0.14450108 -0.37309438 -0.02232297 -0.28812972
-0.11503109 -0.3055385 0.010989295 -0.045520145 -0.35036555 0.2646443 0.05846688 -0.3128958
-0.22226882 -0.20412123 -0.24872264 -0.44851452 0.061211415 -0.43256444 -0.23004764 -0.5263922
-0.53805506 -0.16194764 -0.39075172 -0.105196536 -0.32298473 -0.30754575 -0.48519015 -0.20533359
0.0123931095 -0.6715937 -0.13614143 -0.12815551 -0.39247093 -0.5821713 -0.39532724 -0.2800175

w_r.2.weight f4 [32, 64]
00000000: 0d0e 503e e769 b03d b561 90be 6208 14bf
00000010: d538 6ebe 4d11 8d3d 235f 363c 72c0 a83e
00000020: ccc3 68bf c818 213e 3dfa 0dbe 07fd a4bd
00000030: 8366 fe3e f726 75be d2a6 a2be e037 85bd
00000040: 51b4 5ebe cc76 ba3d 1278 45bf dcb1 d43d
00000050: 280c 5b3d ed80 bd3d ad4f dabe 9fb2 7abf
00000060: 39ef 133e ef96 aebe fc5c 32be d512 f4be
00000070: 833f df3e d762 cebe 1450 07bd 5056 e93d
00000080: 7699 243e 74e0 43bc 4e5d d33d 1b8c 8e3e
00000090: e892 58bf fdb9 263d df91 8c3d d656 3abe
000000a0: ad18 36bf 8a55 fbbc 8e25 343b 6ce9 583e
000000b0: e4ad 9fbf a9a2 58bf c608 4b3d ac3a fd3e
000000c0: 2d5b ed3d 0ac7 c73c 2b2e ec3e 35ae 67bf
000000d0: 10b4 b63d d0cc e3bf 4f2f 453f c076 053d
000000e0: e587 a23d 3adf 75be 9f3f 873c 81ea 96be
000000f0: 1a80 02be 5880 c63e 4972 ce3e 78f1 2cbd
00000100: 46a0 b23d b8ed 0b3d 45bd 70bd c03b a03b
00000110: 7c09 29be 672b dfbd fa5e 1e3e 7e26 3c3e
00000120: 763d ffbc 0168 5c3c 5b3a 453e 6781 a4bd
00000130: ee70 f4bd 7a7c 903d 4eb3 9cbe d628 03bf
00000140: 4821 dfbd 36c7 393e a59d b3bd dc1b 633d
00000150: bc3c 933c fb57 0d3e 2c89 ee3c 4d40 b93e
00000160: 477f 81be 43d7 9f3e 3e7b 183e 34f5 a2bd
00000170: e70f 683e 5143 90bd 363b 7fbd 3d8c cebd
00000180: e864 8fbc 3eb3 fb3d 17a4 c3bd c44f 8dbe
00000190: efac 68bd 2b7d 473d b9be 7bbc 9d1f ef3d
000001a0: 1362 ecbd 7f0d d0bc 9f4f 353d bc1a c3bd
000001b0: c022 273a aa88 703e 5cac 1abe 4d4a 9fbe
000001c0: 20ce fcbd 6581 46be f8b3 8a3e 2c18 043e
000001d0: 182c 02bd 347b 193e 64d6 f2be b8af a2be
000001e0: 69aa debd d181 253e 7867 583d 4e03 8d3b
000001f0: f8a3 bf3d 0a23 13be 2d91 b0bd 0071 7ebb
00000200: ff46 96bd 6ff5 44bd 2857 433f 8362 183b
00000210: ae85 adbe 24ce e93e 20c4 dfbd 6135 c73d
00000220: 8589 9abc f5d0 7c3c d9b5 c03e bfd9 c13c
00000230: 4f89 91be fb76 b53d 939c 433e 550d 83be
00000240: fc6f 9ebd bdbc 733e 5f6a a8be d360 0b3d
00000250: 340b e3bd 2295 83bc 2ff4 25bd 7223 65be
00000260: 3581 bf3c 91c4 c8be 46e6 babd df0a 143e
00000270: 1ac1 f1be ec80 5e3d 4b05 05bd 659d 0d3e
00000280: 5aee 85bc 0cc3 32bd ac61 e53c 76c9 cd3e
00000290: 5c2b 5abe 28d5 6cbd 1448 4cbe 1225 56be
000002a0: 3f3d 92bd 46d4 b03c 574e 543d 19a1 8abd
000002b0: 1519 023d 0d24 983e 5f45 26be cbbb 823d
000002c0: 9649 1b3d ed00 b0bd bc23 7dbd 525f 033c
000002d0: caf7 1ebd d7a8 bcbe 4f7e 37bf 1125 f7bd
000002e0: 44bb ad3a f86f ad3d 522f 22bc 932a 833b
000002f0: 349c 933d 502c 39bd 9683 20be c08e 86bd
00000300: 1aa3 153e 2bf2 ccbd a7b1 f0bc 3e75 adbe
00000310: 0666 49bf 96d4 7cbe b843 903e c8b8 42bc
00000320: 446d 82be acae 97c0 1b2b f63e df25 8abd
00000330: 8242 c1bd 1212 f9bf e794 0c3e d033 8dbd
00000340: 8dcb 3bbf 0b55 863c 2c4b 97c0 310f 19bf
00000350: f298 6abf cd46 a4c0 098a 5abf ad61 8dbf
00000360: bce2 39bc 1302 5a3f ea3c 09be 0fbe 7abe
00000370: 1292 253e 7b1e e0be 0264 49be 2c54 1fbf
00000380: 2d22 90be 35e0 aebe 2f05 30bd 127d 96bf
00000390: e555 2abe 9400 543b 6a12 053e 8a54 643d
000003a0: 18df 81bf 3b33 a6bf 983c 95ba 6625 47bd
000003b0: 97aa 4c3e c01a cc3d c5fd d0bc 329d 2d3d
000003c0: 467b 923c b0cb 33bf 35fc 1e3f 580e 14c0
000003d0: 6b1a 23be 270f 9f3d b6c4 aa3d c442 103e
000003e0: 69c1 b93b 245d 9ebd 95c9 b1bc c033 c4bd
000003f0: f9a1 7abf a51c 3ebf aa8c f63e 3cf7 6d3d
0.2031786 0.08613949 -0.28199545 -0.5782529 -0.23263867 0.068880655 0.011131081 0.32959324
-0.9092376 0.1573211 -0.1386499 -0.08056074 0.49687585 -0.23940645 -0.317679 -0.06504798
-0.21748473 0.0910469 -0.7713634 0.103854865 0.05347839 0.09253106 -0.42638913 -0.97928804
0.14446725 -0.34099528 -0.17418283 -0.47670618 0.43603143 -0.40309784 -0.033035353 0.11393416
0.16074166 -0.011955369 0.10320531 0.27841267 -0.8459916 0.040704716 0.0686376 -0.18197188
-0.711314 -0.030680437 0.0027488205 0.21182793 -1.2474942 -0.846232 0.049568914 0.49458826
0.11589656 0.024386901 0.46128973 -0.90500194 0.08921063 -1.7796879 0.7702531 0.032583952
0.07936076 -0.24010935 0.01650983 -0.29475787 -0.1274418 0.38769794 0.40321568 -0.04222247
0.08721976 0.034162253 -0.05877425 0.0048899353 -0.16507524 -0.1089695 0.15465918 0.18374059
-0.031157237 0.013452531 0.19260542 -0.08032494 -0.11935602 0.07054992 -0.3060555 -0.51234186
-0.1089502 0.18142399 -0.08770303 0.05544649 0.017973296 0.13803093 0.029118143 0.3618187
-0.25292417 0.3121892 0.14890763 -0.07956925 0.22662316 -0.070440896 -0.062312327 -0.10085342
-0.01750417 0.12290047 -0.09552782 -0.2759992 -0.056805547 0.048703354 -0.015365296 0.11675952
-0.11542144 -0.02539706 0.044265386 -0.095265836 0.00063757226 0.23489633 -0.15104812 -0.31111374
-0.12344003 -0.19385298 0.2709043 0.12899846 -0.031780332 0.14988405 -0.47429192 -0.31774688
-0.10872347 0.16162802 0.05283305 0.0043033725 0.093574464 -0.14368835 -0.0862144 -0.0038824677
-0.0733776 -0.048085626 0.76304865 0.0023252077 -0.33891052 0.45665085 -0.1092608 0.09726978
-0.018864403 0.015430679 0.3763874 0.0236634 -0.2842507 0.08860584 0.19102697 -0.2559611
-0.07736203 0.23802467 -0.32893655 0.034027886 -0.11086121 -0.016062323 -0.040516075 -0.22376803
0.02337704 -0.39212468 -0.091259524 0.14457272 -0.47217637 0.05432217 -0.03247575 0.13829572
-0.016349006 -0.043643042 0.028000675 0.40192765 -0.21305603 -0.05782047 -0.1994937 -0.20912579
-0.07140588 0.021585595 0.051832523 -0.06769008 0.0317622 0.29715005 -0.162374 0.06383475
0.037911974 -0.085939266 -0.061801657 0.008018332 -0.03881053 -0.36847565 -0.71677107 -0.12067617
0.0013254662 0.08468622 -0.009898977 0.004002878 0.07207528 -0.045208275 -0.15675196 -0.06570196
0.14613 -0.100071274 -0.029381586 -0.3387851 -0.786713 -0.2469047 0.28176665 -0.011884876
-0.25473988 -4.7400723 0.48079762 -0.067455046 -0.094365135 -1.945864 0.13728677 -0.06894648
-0.7335747 0.016397974 -4.7279263 -0.59788805 -0.91639626 -5.1336427 -0.85366875 -1.1045433
-0.011345562 0.85159415 -0.13402143 -0.24486564 0.16169003 -0.43773255 -0.19667056 -0.6223781
-0.28151074 -0.3415543 -0.042973693 -1.1756918 -0.16634329 0.0032348977 0.12995306 0.055744685
-1.0146208 -1.2984384 -0.0011385856 -0.04861965 0.1998695 0.0996604 -0.025511632 0.04238624
0.017881047 -0.7023268 0.6210359 -2.3133755 -0.15928046 0.07766562 0.08338301 0.14087969
0.0056688082 -0.07732609 -0.021702567 -0.09580183 -0.979034 -0.7426246 0.48154193 0.05809711

w_r.2.bias f4 [32]
00000000: 6ab2 7dbd 6bbb bd3e c9af ab3d 8772 9dbe
00000010: e240 4a3d 0279 b9be a3bc 91bb 44ef b1bd
00000020: dd68 40bd 0eba f2bd 2499 7d3e d928 18bf
00000030: 13dd 03bf 8126 5c3d ad86 50be f7c6 e0bd
00000040: 5a92 4fbe a343 f2bd 481a 363e e9e2 a5bd
00000050: 03e0 02bf fed1 113b fcdb 6abd 4239 013f
00000060: 23a8 57be 9309 4d3f 39e8 e8bd 9aac 21bd
00000070: aa9d da3e 5e85 3abd 8cbf 09bd 21cf 253d
-0.061937727 0.3705705 0.08383138 -0.3075144 0.049378283 -0.36225134 -0.004447536 -0.086882144
-0.046975005 -0.11851893 0.2476545 -0.5943733 -0.5150921 0.053747658 -0.20363875 -0.109754495
-0.20270672 -0.11829307 0.17783463 -0.0809992 -0.51123065 0.002225041 -0.0573387 0.50477993
-0.21060233 0.80092734 -0.11372418 -0.039471246 0.42698413 -0.045537345 -0.03362994 0.040480737

w_h.0.weight f4 [64, 5]
00000000: ad0b 093e 9518 4bbe 2fb8 a7bf 3967 32bf
00000010: 1698 30bf de03 6c3e fc4d ad3d 25c4 e4be
00000020: 6a1e 723f c5ef 60bf 9ef8 2b3b 48db ffba
00000030: c824 41bd 8c2f d63d 9e18 9abd e520 41be
00000040: e85b a83e 62a9 a5bf 1a5f 43bf b62e f0be
00000050: c70e d13d b5d8 993e c7ab 82bf 2955 a83f
00000060: a0e9 07bf 245a 853c 343e bdbc b734 16bd
00000070: 75eb 8d3e c5b8 15bf c285 abbe 20e5 393e
00000080: 4951 9dbf 0b49 58bd 5a34 0f3e 2f46 dab7
00000090: a05b 853b 07bf 26be 145b 43be c618 2abf
000000a0: 45ad b2bd 343d 973e c9b7 383e fae8 bc3c
000000b0: 4b32 0e3f 66bb 333e e98c aabe 1c73 e3be
000000c0: 432f b3bf b223 72bf f813 7a3e 075e c9be
000000d0: 5388 ccbd c38b a3bf ac56 b8be 2880 ebbd
000000e0: c253 ad3d 65e1 28bf b30c f7be 25f5 1bbe
000000f0: c01c 9e3e 1893 c33e 0b60 cf3e 8d41 3a3f
00000100: 859b 87be a7e4 573d c44d 23be 964a 50be
00000110: 8965 b03e 3b82 99bf 90e3 db3e 5520 c3bd
00000120: d237 863f 4a14 0abf 8426 66bf c0ee 20be
00000130: a08b 92bc 3c32 1abe a38b 37bf 3f09 5bbd
00000140: 4823 84be f10d 973e 0ac0 483f cc06 633f
00000150: 8862 37be f54d 68bd a6d0 d8bc 9857 2ebf
00000160: 53ab 14bf a6b5 073f 8b86 223e ac2b 353e
00000170: 08a7 f9bd af6c 833f ba3b ca3e 3684 d0be
00000180: 1e61 e53d cbf9 f43e 492b 993c 3c31 e73e
00000190: 2a96 bbbe 582d f83e 6013 2fbf 6f40 f9bd
000001a0: e0d5 d0be 0e94 23be 15d6 86bd 74e1 493f
000001b0: 46f0 04bf 23cb e1bf 699b d43e 97c3 9e3e
000001c0: c4d7 03bf 116e 11bf 54a4 babe f2ec 17be
000001d0: 621b 07bf db05 653f 34b7 67bf 3c4e da3d
000001e0: d02c aa3e 8369 20bd c941 b13f 5057 b8be
000001f0: c3c6 71bf ded8 da3d d024 aa3e 131c 73bf
00000200: 5ed4 523e abba 92bf c3f1 4fbe 490d c83d
00000210: 3bf4 84bd ba13 70bf cf99 adbf 859f 09bd
00000220: 68cf 153d f190 35bf 9962 52bf 5185 46bf
00000230: 1cb4 cdbe 87f9 83be 684a 48bf 96f6 a1bf
00000240: 6af7 86bc 24da 44be f006 adbe 49d9 d4bd
00000250: 8c3e a1be b254 12bf 2642 1fbd 5b5f 373d
00000260: 2caf d6be d7c3 f0be 55b2 583e 6bc9 8c3d
00000270: 57cc 38be b94e 323f 51ff 42bf 8b65 823e
00000280: f5d1 663d 0b5c e83c ac2f d43d 512a 06bf
00000290: c690 473f ce71 233e 8d8c bfbd d3c5 623f
000002a0: b69c 073f acf6 4b3e e868 65be bd68 b33d
000002b0: 1036 633e 929f 2a3e 1c0b 413d 3289 f4bc
000002c0: 773c efbe 8cce c2be f801 a6be 5027 1abf
000002d0: 8e6a 4cbe b0ba 2ebe 8823 dbbe 6c57 753f
000002e0: 65a4 e03d a4e2 b5be 8f50 dbbe e2f4 3cbf
000002f0: a525 bc3e 54b5 45bf b805 8d3e 2606 ccbd
00000300: 7ef7 13bd d6c6 af3e 34c1 063f ab3c d53d
00000310: e3d9 0c3e 443f 93bf f836 c63e 3b22 49bf
00000320: 4c2a e73a 1b7d 67bc a147 a0bd 2592 76bc
00000330: 9c22 d9bd eeef ef3b 46fb a2bd f646 a13f
00000340: de1b 163f 359a 42bf 0a9c 85b9 fe24 91b9
00000350: 29a9 213c 3972 23be 3cf9 d6be 2fa7 843e
00000360: 3629 133e 58e5 3f3f 45ba 473f c670 86be
00000370: d292 093e e9f4 ed3d a96f 6a3e 80f0 15bf
00000380: 4777 ecbe 90c2 7d3e df07 c43e dec2 3bbf
00000390: f1c2 50bf 95fe 3abf bb7a 7fbe 48ce 003f
000003a0: e950 4e3e 8cd5 0dbf a723 12be c14b 0cbe
000003b0: 29ed 1d3e b901 433e b4bc a93f 81b6 30bf
000003c0: c278 56be 73c2 5a3e c5c2 5a3d 266a a03f
000003d0: 6191 4abe 167d 2cbc 7b0d 1aba 7d13 b0bd
000003e0: 15c2 27be 86b2 3f3d be85 bf3e a7c6 8e3e
000003f0: 6313 02bf e5ab 06be 4c1f 01bf f661 e83e
0.1338336 -0.19833596 -1.3103083 -0.69688755 -0.68982065 0.2304835 0.0846214 -0.44680896
0.9457766 -0.8786586 0.0026240717 -0.0019520307 -0.047154218 0.104582876 -0.075242266 -0.18860205
0.3288262 -1.2942317 -0.7631699 -0.46910638 0.10207897 0.30048147 -1.0208672 1.3150989
-0.5309086 0.016278334 -0.02310095 -0.036671367 0.27718702 -0.5848506 -0.33500487 0.1815381
-1.2290431 -0.052804034 0.13984814 -2.6020307e-05 0.0040697604 -0.16283809 -0.19077712 -0.6644405
-0.08724455 0.29538882 0.18038858 0.02306031 0.5554549 0.17551956 -0.3331063 -0.4442376
-1.3998798 -0.94585717 0.2442168 -0.3932955 -0.09986939 -1.2777027 -0.36003625 -0.11499053
0.08463241 -0.65968925 -0.48251876 -0.15230234 0.3088131 0.3819816 0.40502962 0.7275627
-0.2648584 0.052708294 -0.15947634 -0.20340952 0.34452465 -1.1992868 0.42947054 -0.09527651
1.0485785 -0.5393721 -0.8990252 -0.15716076 -0.017888844 -0.15058225 -0.71697444 -0.053475615
-0.25808167 0.29502824 0.7841803 0.88682246 -0.1790868 -0.05671497 -0.026466679 -0.6810241
-0.5807392 0.5301155 0.15871637 0.17692441 -0.12190062 1.0267543 0.39498693 -0.4072587
0.11200164 0.47846827 0.018697398 0.4515475 -0.36638004 0.48472095 -0.6838894 -0.12170493
-0.40788174 -0.15974447 -0.06583802 0.7885964 -0.5192913 -1.7640117 0.4152482 0.31008598
-0.5150111 -0.56808573 -0.36453497 -0.14836481 -0.5277616 0.8946206 -0.9051392 0.10659453
0.33237314 -0.039163124 1.3848201 -0.36004114 -0.9444391 0.106858954 0.3323121 -0.9496471
0.20588824 -1.1463217 -0.20307069 0.09768159 -0.06491896 -0.937801 -1.3562564 -0.033599395
0.03657475 -0.7092429 -0.821817 -0.77547175 -0.40176475 -0.25776312 -0.78238535 -1.2653377
-0.016475398 -0.19223839 -0.33794355 -0.10393006 -0.31493032 -0.57160485 -0.038881443 0.044768672
-0.4193052 -0.47024414 0.21161778 0.06874355 -0.180467 0.6965137 -0.7617083 0.25468096
0.056352574 0.028364202 0.10360655 -0.5240832 0.7795528 0.15961382 -0.0935298 0.88583106
0.52973497 0.19918317 -0.224033 0.087602116 0.22188592 0.16662434 0.047129735 -0.029850576
-0.4672582 -0.38048208 -0.32423377 -0.60216236 -0.19962522 -0.17063403 -0.42800546 0.9583652
0.10968856 -0.35524476 -0.428349 -0.7381116 0.3674747 -0.7722981 0.27543426 -0.0996211
-0.0361247 0.34331387 0.52638555 0.10411962 0.13754992 -1.1503682 0.38713813 -0.78567857
0.0017636507 -0.014128949 -0.07826162 -0.015049492 -0.10602304 0.007322303 -0.07958083 1.259978
0.5863627 -0.7601655 -0.00025483995 -0.00027684117 0.009866991 -0.15961541 -0.41987026 0.259088
0.1437119 0.74959326 0.780186 -0.26257914 0.13434914 0.116189785 0.22894157 -0.585701
-0.4618475 0.24781251 0.38287255 -0.7334422 -0.81547457 -0.7304471 -0.24949162 0.5031476
0.20148052 -0.5540397 -0.14271413 -0.13700773 0.154225 0.19043626 1.3260713 -0.6902848
-0.20944503 0.21363239 0.053408403 1.2532394 -0.1978202 -0.01052787 -0.00058766425 -0.08597467
-0.1638263 0.046801113 0.37406725 0.27885935 -0.5081083 -0.1315151 -0.5043838 0.45387238

w_h.0.bias f4 [64]
00000000: 0f18 55bf 0813 febe feea e2bd 71c6 69bf
00000010: c2cd 50bf 6855 96be c201 5dbf ff1f a7bd
00000020: 6820 1ebe 62fe 7dbf 02b8 babd 1d8b 723e
00000030: 8385 61bf f4d7 b73e 1432 a2bd a189 ff3d
00000040: e57b 65bf 1cde 1dbe b06a c6be c6de 20bf
00000050: 1db3 47bf dd6c 07be 1767 abbf 0de4 a4bf
00000060: ebce 48bf d5a2 8fbd 4d19 f33c 100b a4be
00000070: 960f 25bf 2457 8abe cfae a13e 408f a7bd
00000080: dad5 09be 635f 21bf 13cd 60bd a69d bdbf
00000090: 4635 01be 17ad 9fbf a515 08bf d5ea 33bf
000000a0: 30b5 75be c3f8 2dbf 2fd4 0cbd f510 27be
000000b0: a98e aa3e c380 8cbd 096d fcbe 725a b1be
000000c0: 9a85 503a 7136 c1be f48a 4cbe e405 c6bf
000000d0: 3269 8ebf f743 a8bf 3483 e33c 4fc4 88bf
000000e0: 2607 32be 72f3 1abf 19c0 e9be a04f 3a3e
000000f0: 1d35 c5be 3696 30bf 556f 13bf 929d 18be
-0.83239836 -0.49623895 -0.110799775 -0.9131842 -0.8156396 -0.29362035 -0.8633081 -0.081604
-0.1544205 -0.9921628 -0.09117128 0.2368588 -0.8809435 0.35906947 -0.07919708 0.124774225
-0.89642173 -0.15416759 -0.3875327 -0.62839925 -0.7800768 -0.13225122 -1.3390836 -1.2882096
-0.7844073 -0.070134796 0.02967515 -0.3203969 -0.6447691 -0.27019608 0.3157868 -0.0818162
-0.13460484 -0.63036174 -0.054883074 -1.4813735 -0.12617978 -1.2474698 -0.53158027 -0.702802
-0.23994899 -0.67957705 -0.03438204 -0.16315062 0.33311966 -0.06860497 -0.49301937 -0.34639317
0.00079544785 -0.37736848 -0.19974881 -1.5470548 -1.1125853 -1.3145741 0.027772523 -1.0684909
-0.1738554 -0.6052772 -0.4565437 0.18194437 -0.38517085 -0.68979204 -0.57591754 -0.14903858

w_h.2.weight f4 [32, 64]
00000000: b343 c8be 476b a0be c26e 0b3d 116a 2dbf
00000010: 210c 6dbd 9aae 8c3d f51b 9a3c 8d2f b63d
00000020: fc5c e33e fa6f 773f 3a6f 9d3e 66b3 33bc
00000030: 1471 8f3f 512a ce3a 73ed 803e 803e 1b3e
00000040: 16f0 3ebe 200b 50be d6b1 52be 5837 3dbe
00000050: ff2d 723f 0a89 843e efb6 c7be 3132 b03c
00000060: 2bbe a43e 2da8 20bf b06a d7bd 2719 3e3b
00000070: 177f a83e 8b44 1a3e a39e 313e fef1 54be
00000080: 93c8 11be 1115 0d3e 03d3 413e 715e 3fbf
00000090: 639e 8fbe 001b 723d ce59 35be 707c 0d3d
000000a0: 104a 09bb faa1 7e3e 6a67 f9bc b1e0 39be
000000b0: 5161 7e3d 1ad4 003f 633a 9fbe 78ce af3d
000000c0: a9c8 0d3f cbd0 5abc f57b d03d 713e d23d
000000d0: 607b ea3e 4cd9 d8be 4c42 75bd 5cb3 bf3e
000000e0: 3591 90be c95d d23f 5314 6d3d 3209 e3bd
000000f0: 61ab 72be 76d5 053f 1932 e1bd d0f2 b93e
00000100: b369 523e 4978 05be 3a67 22be 2a44 64bf
00000110: 6e5c 2abf 9ac9 3b3d 4929 b33e af72 43bd
00000120: 2d87 a7bc 03d6 d13e 2724 953e 2012 1dbf
00000130: 5d77 ecbe 161c 813b cf96 b4bb 0fe3 08be
00000140: e8ac d93c aae5 2f3e 42bf 0abd f955 0a3f
00000150: c333 f1be fb98 493e 51d4 98be 5b9f 513e
00000160: bb1f b73e 2da9 4bbf 7999 d3be d66a 653f
00000170: 5b81 45be acba 5cbe 7f0c 483e 3aca 063e
00000180: cc7c c23e 1f31 2bbf 8109 19be 60b0 4e3f
00000190: 07a9 dbbe 6377 983e 44b9 8dbe ea64 10be
000001a0: 9369 c8bd 4ae1 8bbe 4adb 313e b786 b5bd
000001b0: d75a 153f d2cf 063f 9aeb 56be 3da9 9a3e
000001c0: 85d4 143e 195a 323e ecc8 663e c009 97be
000001d0: ed8b 473f a0ad a73f 10d4 adbe 6a00 cd3e
000001e0: b64d e63e afbc 10bf 6d3e bb3e 0012 283c
000001f0: 3021 223e 5bd4 f7bd c57f 97bc cca4 c23e
00000200: eb30 b9bd 6d3b c4bc f557 b3bc 999f b43d
00000210: 3e78 a83d e8af e73b a867 f6bd 9330 a13d
00000220: 808f 4bbe d439 293d 730b 1e3a ddae 0cbe
00000230: 5d4b 19be 9fe2 b2bd 5f22 d6bd bd84 533c
00000240: 97ce 2dbc 4e01 74bd 37c7 21bd d39a 2d3d
00000250: e91e 75bd 5d75 1fbe bc4c 72bd 7801 a7bd
00000260: 47df 883c e304 0c3c faad 453d b95a babd
00000270: ca65 c93c 4bd3 afbd 9e1f 8dbd 6e15 a7bd
00000280: f061 8f3d a524 b3bd e630 77bd afa1 a5bd
00000290: 9cb8 0c3d f74c c63c 07b2 28be 280c 60bb
000002a0: 2a00 f5bd f129 5b3d fc88 05be 283c a03d
000002b0: b463 34bb 980b 1e3d a29b 21bd 6975 47ba
000002c0: fd4f 32be 5ff4 33be 6ad9 74bd b275 c8bc
000002d0: 0b4f bbbc 2c9a ecbd 89b6 713d 9f00 2d3d
000002e0: 0aab 973c 9db2 963c a08a 813d 3a3e 40bc
000002f0: 2887 cbbd b87b 933d b116 cfbd c8bb 0cbc
00000300: 49c7 263c 9a75 a13d 6fb0 4b3e f577 fc3e
00000310: 0cde d23e 8724 dc3d f476 863f 027f 133d
00000320: d86f 2abe f027 6bbf 55ae 09bf deac c03e
00000330: 47eb 973e 02e2 3a3c 3b3d a9be 6a43 0fbe
00000340: eb44 12bf 29cf 783e ae33 6a3c d065 12c0
00000350: abe1 923e 0a53 6f3f 3dc1 2ebe a813 023f
00000360: 7dd4 db3d 5555 a63c 0306 17be 785d b6bd
00000370: 8051 433f 2c12 38bf d673 b63e b752 e8be
00000380: 9aaa cbbe 08c0 a6be 2af4 8ebf 64bb abbe
00000390: cbf7 bd3e 0353 0fbf 263f 27bd f1e8 64be
000003a0: 1ba5 3f3d eb5f e8be cb69 98bd 5fa3 b8bd
000003b0: b1a7 3abe 018c 40bb 4504 32bf fe59 193f
000003c0: 542f 8f3e 1237 603e 424b 69bd bede 74be
000003d0: 6f49 0f3f b244 80bf 7409 143e 7081 c53e
000003e0: 2ea2 8c3e 6384 17bf 5c2c 1fbb a2ec 34be
000003f0: f6d3 a4be d284 25bf 9bee 073f 1160 023f
-0.3911415 -0.31331846 0.034041174 -0.6773997 -0.057872895 0.0686924 0.01881216 0.08895788
0.4440688 0.9665524 0.30748922 -0.010968065 1.1206384 0.0015729164 0.2518116 0.1516056
-0.18646273 -0.20316744 -0.20575652 -0.18478143 0.94601434 0.25885803 -0.39006755 0.021508308
0.32176337 -0.62756616 -0.10518396 0.0029006691 0.32909462 0.1506521 0.17345671 -0.20795438
-0.14236669 0.13777567 0.18928151 -0.7475348 -0.28050527 0.05910778 -0.17710039 0.0345425
-0.0020948686 0.24866477 -0.03044482 -0.18152119 0.062104527 0.5032364 -0.31099233 0.08584303
0.5538431 -0.013355444 0.10179893 0.10265816 0.45797253 -0.42353284 -0.05987768 0.37441528
-0.28235784 1.6434871 0.05788071 -0.11085738 -0.23698188 0.5227884 -0.109958835 0.36318064
0.20548134 -0.13034166 -0.1585969 -0.8916651 -0.66547287 0.04584656 0.34992436 -0.047716793
-0.020450199 0.4098359 0.29129145 -0.6135578 -0.46184817 0.0039401157 -0.005511142 -0.13367866
0.026571706 0.17177454 -0.033873804 0.54037434 -0.47109804 0.19687264 -0.29849485 0.20470946
0.35766396 -0.79555017 -0.41328028 0.89616144 -0.19287626 -0.21555585 0.19536017 0.13163081
0.37985837 -0.6687183 -0.14945032 0.80737877 -0.42902395 0.29778585 -0.2768041 -0.14100996
-0.09785762 -0.2732032 0.17368808 -0.088635854 0.58341736 0.5266086 -0.20988312 0.30207244
0.14534195 0.17417182 0.22537583 -0.29499626 0.77947885 1.3099861 -0.33950853 0.40039378
0.44981164 -0.5653791 0.36571065 0.010258198 0.15832973 -0.121010505 -0.018493542 0.38016355
-0.090425335 -0.023954118 -0.021892527 0.08819503 0.082260594 0.00707053 -0.120314896 0.07870593
-0.1987896 0.041314915 0.0006028928 -0.1373858 -0.14970155 -0.08734631 -0.104557745 0.012910065
-0.010608337 -0.059571557 -0.039496627 0.04238398 -0.05984393 -0.15572114 -0.05915521 -0.08154577
0.01670803 0.008546087 0.04826162 -0.09099335 0.02458467 -0.08585223 -0.06890796 -0.08158384
0.07001102 -0.08747224 -0.060349368 -0.08087479 0.034355745 0.024206622 -0.16474162 -0.0034186933
-0.11962922 0.053506795 -0.13040537 0.07823974 -0.0027525248 0.038585275 -0.039455064 -0.0007608743
-0.17413326 -0.17573689 -0.059777655 -0.024470184 -0.022864839 -0.115528435 0.05901197 0.04223692
0.018514175 0.018395716 0.06325269 -0.011733586 -0.099378884 0.07201332 -0.1011175 -0.008589692
0.010179349 0.07883759 0.19891523 0.4931027 0.41185033 0.107491545 1.0505052 0.036009796
-0.16644228 -0.91857815 -0.53781635 0.37631887 0.2967169 0.0114064235 -0.33054528 -0.1399056
-0.5713641 0.24297775 0.014294548 -2.2874641 0.28687796 0.9348608 -0.17065902 0.50811243
0.10733888 0.020304361 -0.14748387 -0.089045465 0.76296234 -0.7190273 0.3563525 -0.45375606
-0.39778596 -0.32568383 -1.1168263 -0.33541405 0.37103114 -0.5598604 -0.040831707 -0.22354485
0.046788316 -0.4538568 -0.074420534 -0.090155356 -0.18228032 -0.0029380324 -0.69537765 0.5990294
0.27965796 0.21896008 -0.056956537 -0.23913094 0.55971426 -1.0020964 0.14456731 0.38575315
0.27467483 -0.5918638 -0.0024287915 -0.17668393 -0.32192963 -0.6465579 0.5309846 0.50927836

w_h.2.bias f4 [32]
00000000: a998 78bb e7b8 be3d 25e4 11be 2f40 e63e
00000010: 08e7 7abd 2c41 efbe db3e 813e 13b2 023f
00000020: a0c9 3fbd c433 3ebe dc80 8ebe 0bcf 31be
00000030: 93aa 8b3e e3d0 7a3e 5221 97be 805d 58be
00000040: b1ef 71be 19be 25be a755 693e 9857 dfbc
00000050: 3128 e6be f05f 4bbe abca 97be 9466 6bbd
00000060: 37d4 aa3e 2434 713b 8010 843c 227e 903e
00000070: 29d9 fcbd c00b 0dbe 17a2 cfbe f4c2 cdbd
-0.003793279 0.09312611 -0.14247186 0.44970843 -0.061255485 -0.4672941 0.25243267 0.5105297
-0.046823144 -0.18574435 -0.27832687 -0.17364137 0.27278575 0.24493746 -0.2951761 -0.21129417
-0.23626591 -0.16185798 0.2278658 -0.027263448 -0.4495254 -0.19860816 -0.2964681 -0.057470873
0.33365032 0.003680476 0.016121149 0.28221232 -0.123461075 -0.13774014 -0.40553352 -0.1004695

Ws.0 f4 [32, 32]
00000000: 754d 0dc0 5164 783f c8be 87bf 0f69 e8be
00000010: e5f8 e83e 1db3 3dbf 32a8 32be ba9e c63f
00000020: ae34 43bf bf88 9b3f 987b 0bc0 594b b7bc
00000030: 1c69 073f 39e4 17bf 722f 943e 730f 513e
00000040: 1d7c 1e3e 7af8 9ebe 3f4b ab3f 837b 0040
00000050: 5a81 5ebf 1165 e7be 5034 30bf 0c60 a23d
00000060: 173c 30be 47da 393e 6dfe 733f 8c96 d83f
00000070: 60a3 c6bd 3299 65bf c109 a2be 909a fdbe
00000080: 490d cebf ff63 b0bf 42b6 c03e a2f1 cd3f
00000090: 4e4c d7bf 66cb 653f 02d6 a33e 8b92 c6be
000000a0: 1da8 363f cbfa 99bf b32f 1cbe 7a76 e13d
000000b0: 0cad 4b3f ce8f 39bf 83ac 293f f126 bcbf
000000c0: 5be3 01bd 7db4 ba3f b907 8abf 9f52 43bd
000000d0: 2698 32c0 0a62 a7bf eece 6c3f 44b3 4ebe
000000e0: ead6 713e d30d 733f 3859 5a3f ac83 cb3d
000000f0: 4081 82be 556b 10c0 8a4b 223f 2487 ba3e
00000100: 9a67 843f 2d17 80c0 4cc6 d8be 143a 9c3e
00000110: a7b2 b0bf cfc0 983f 1d25 3fbf 3185 42bf
00000120: cc2c 66c0 ee41 a63f 4705 6e3f 9525 6a3f
00000130: c687 8fc0 201e 68bf 404c 283f 3923 02c0
00000140: c158 1340 1e54 f73e 8e15 7e3f 0cb8 4e3f
00000150: 8964 173f 3419 af3e bb4a 8f3d 74b8 86bf
00000160: 61be 1640 f07f 60bf 686e f13c bdd7 9abf
00000170: c513 2a3f 2049 973f 8c5f 653f 090e 2a3f
00000180: f85f 47c0 0906 7d3e b54a 473e 56f6 5ac0
00000190: 2fc2 263f c10c 863f 6fa5 a53f 30df bcbe
000001a0: da67 523f 5e9b 4f3f 50ee b6bf d769 493f
000001b0: fd9a f63e 1f6d 943e d9c5 82be 0b2c 4b3f
000001c0: 293c ca3e 4495 fdbd 095f a13f 68b5 1440
000001d0: cb21 b13f b429 d63e e530 d5bf acfe 38bd
000001e0: 461e c23f 438e 7fbf f5cb 5e3f 0225 4dbf
000001f0: 7b81 8ebe 99e2 adbf 0fe4 5a3f 457c 46bf
00000200: c2ae 863e a38a dfbe f5e0 3dbf eff0 54c0
00000210: 6bfe 3b3e 32dc 063f 91ab 26c0 c362 dcbf
00000220: d101 1ebf 2212 963f af20 0a40 41d4 82be
00000230: 79c5 38bf cf81 ddbc c195 883f 0868 32bf
00000240: b99e 343f 5f44 9ebf b364 a7bf 214a 92be
00000250: ef78 8dbf 4023 19be 2405 d93e 6771 643f
00000260: 00ef 1bbe cf12 e5bf 55d6 41bf 0754 7ac0
00000270: 594c a6bd 8b22 863f 9ff6 26be eea8 4cbf
00000280: 1ad5 ebbe 31fd 1fc0 3553 09bf 2742 293e
00000290: daec 423f 4754 b0bf d7b3 fabe dc3a a63f
000002a0: fb09 0e3f c421 153e 63f1 c1be 4035 e2bd
000002b0: f9a6 1540 b3ac 263f d817 b0bf 7d25 3fc0
000002c0: 67d1 31bf 5e5b 15be 51e1 1cc0 6d2d 603e
000002d0: 9785 963f f8e1 3dbf bc3b 3f3f 3ded 083e
000002e0: 33c6 94be 0df9 f3bd c475 7d3f aa49 3cc0
000002f0: 601c c4be 596c 433b 137b 683e 7592 313f
00000300: 5501 52bf 30c5 a63d 37db 6d3f 3194 fd3f
00000310: 6022 01bf 0c85 8ebf 85ae 803d a6a9 d33f
00000320: 480a 2b40 f75c f4bd b927 8cbf 20e8 b9bf
00000330: b10c 913e bb3f 24be 39f7 7d3f a646 3cbf
00000340: 45e7 98bf 91b8 52bc 7ab0 06c0 6d83 1a3f
00000350: 16b9 a33f 61c0 02bf 171e d4bf d4f3 bcbe
00000360: 062d 74bd 5303 03c0 49c1 5dbf 243f 0b3f
00000370: 8e20 4c3f a080 b43f a7cd a1bf c0ca 373e
00000380: ec9f 943f 456d 9d3e c282 10be 7c41 273e
00000390: ee43 133e 3356 1bbf 735e 92bf 68ed 7bbe
000003a0: b2b0 343f 19a6 b13e 8d2b ea3e 0f99 c5bf
000003b0: e6b3 373f c902 35c0 0b36 d63f 830c e5be
000003c0: 9265 09bf a7bb d93e 5ced 54be 0fcd 073e
000003d0: c24a d23f cbf1 d63d f7f3 65bf 68f1 36c0
000003e0: 0e36 dbbf 421f d53e e5ee cb3d 1cbb 863d
000003f0: b51a 2dbf 4aaa 853f ef22 e3be 18b5 b23f
-2.2078526 0.9702807 -1.0605097 -0.45392653 0.4550239 -0.7410143 -0.17446974 1.551719
-0.7625226 1.2151107 -2.1794186 -0.022374796 0.5289476 -0.59332615 0.28942448 0.2041605
0.15477033 -0.31048948 1.3382338 2.0075386 -0.86916125 -0.45194295 -0.6882982 0.07928476
-0.17210422 0.18149672 0.953101 1.6920943 -0.0969913 -0.8968688 -0.31648067 -0.49531984
-1.6097804 -1.3780516 0.37639052 1.6089365 -1.6820161 0.89763486 0.31999213 -0.38783678
0.7135027 -1.2029661 -0.15252571 0.11008926 0.79560924 -0.72485054 0.66278857 -1.4699384
-0.031710964 1.4586331 -1.0783607 -0.047686215 -2.7905364 -1.3076794 0.9250325 -0.20185572
0.2361714 0.9494297 0.85292387 0.09937224 -0.25489235 -2.256551 0.63396513 0.3643123
1.0344117 -4.002829 -0.42338789 0.3051306 -1.380452 1.193384 -0.74666005 -0.75984484
-3.5964842 1.298887 0.929768 0.91463596 -4.485324 -0.9067097 0.6574135 -2.0333998
2.302292 0.48306364 0.9925164 0.80749583 0.5913778 0.34198916 0.069966756 -1.0525041
2.3553698 -0.8769522 0.029471591 -1.2097088 0.66436416 1.1819191 0.8959892 0.66427666
-3.1152325 0.24709333 0.19462092 -3.4212852 0.6514005 1.0472642 1.2941111 -0.3688903
0.82189715 0.81096447 -1.4291477 0.78677124 0.48165122 0.28989503 -0.2554157 0.7936408
0.39499024 -0.12381986 1.2607127 2.3235722 1.3838438 0.41828692 -1.6655546 -0.04516475
1.5165489 -0.9982645 0.87029964 -0.80134594 -0.2783316 -1.3584777 0.8550424 -0.7753337
0.26305205 -0.4366046 -0.7417138 -3.3272054 0.18358772 0.5267974 -2.6042216 -1.721764
-0.6172152 1.1724284 2.1582448 -0.25552562 -0.7217632 -0.027039437 1.0670701 -0.6968999
0.7055469 -1.2364615 -1.3077606 -0.2857218 -1.1052531 -0.14954853 0.42386734 0.8923554
-0.1522789 -1.7896365 -0.7571767 -3.9113786 -0.08120031 1.0479292 -0.16305016 -0.79945266
-0.4606102 -2.4998286 -0.5364259 0.16529141 0.76142657 -1.377572 -0.48965332 1.2986712
0.5548398 0.14563662 -0.37879476 -0.11045313 2.3383162 0.6510727 -1.3757277 -2.986663
-0.6946015 -0.14585635 -2.4512522 0.21892329 1.1759518 -0.74172926 0.7470052 0.13371749
-0.29057464 -0.11912737 0.9900782 -2.941996 -0.38302898 0.002981922 0.22703199 0.693641
-0.8203328 0.08143079 0.9291262 1.981085 -0.5044308 -1.1134353 0.06283287 1.6536148
2.6725025 -0.11931794 -1.0949622 -1.4523964 0.28329995 -0.16039936 0.99205357 -0.735453
-1.1945578 -0.012861387 -2.1045213 0.6035679 1.2790859 -0.51074797 -1.6571683 -0.36904776
-0.05961325 -2.047078 -0.86623055 0.5439322 0.79737175 1.4101753 -1.2640885 0.17948437
1.1611304 0.3074743 -0.1411238 0.16333574 0.14381382 -0.60678405 -1.1435074 -0.24602282
0.70582116 0.34697035 0.45736352 -1.5437335 0.7175888 -2.828295 1.6735243 -0.44736108
-0.5367061 0.4252598 -0.2079367 0.13261817 1.6429064 0.10495337 -0.89825386 -2.8584843
-1.7125871 0.4162541 0.09957675 0.06578657 -0.67618877 1.0442593 -0.4436259 1.3961515

Ws.1 f4 [32, 32]
00000000: 91f6 e1be 28c3 84bf 9734 e4bf 6c54 2ebe
00000010: 6d78 bc3d a6e6 413f bb19 8e3d 3e64 7abe
00000020: 63c3 44bf d638 2e3f eb18 53c0 942e 33bf
00000030: 28fd 49bf e3b0 bcbf 28d1 9bbf e2a5 3f3f
00000040: 1ab7 9a3f 2778 9bbf cb50 20c0 8682 d8bf
00000050: cf0f c2bf 972e 4f3f 3b0e 74bd 806e 53bf
00000060: da72 743f 0158 2040 4bc1 95bf 03cb 19c0
00000070: 2373 85bf e673 f8bc 6726 a13f 28e9 77bf
00000080: 10a6 0b40 44a8 99bf ee90 a8bf 60b3 223f
00000090: 606e 35be 4b42 57bf 139a 0b3f 4f22 993f
000000a0: fae2 c83e 3b2c a03f 4bf0 c03f 4367 77bf
000000b0: 6437 c7bd 3136 8a3e 3b93 dcbe 7749 26bf
000000c0: 547b 1bbe e889 99be ab08 953d 55a5 cdbf
000000d0: 40da 40bf 99d8 32bf 24f8 c53e b725 a8bf
000000e0: adce ad3e 9e67 44bf 7341 343f be9a 7f3f
000000f0: 4c69 4a3e 2dac f03e 4796 d43f ef08 22bf
00000100: 5453 993f 9719 85bf efa2 56bf 897b e3be
00000110: 7447 81bf 1232 a43e b931 8bbf 01b7 cbbf
00000120: 4107 d93e 8c41 f43d 7203 123f ea6c f2be
00000130: 0ddf 383f f646 ecbe 06c5 c93f 76e5 52bf
00000140: 1c2d d0bd 9b86 aa3e aeb6 15bf 6d34 42be
00000150: 11ee 05bf 8a2e 9bbf 7218 efbe 9e42 eabf
00000160: 9d98 923f 93fe 33c0 e9c3 c2be 8796 f33d
00000170: 3ee5 8a3f 1c28 9ebf e3b4 91bf c981 8c3d
00000180: b5a7 8dbf 643f 853f 1229 46be cecb bcbf
00000190: b380 e8bf 94f8 4dbf e2b9 543e f01e 633e
000001a0: d089 873e 0606 90bf f58a d3bf e6ea e0bf
000001b0: 07e8 13bf 69f3 313f ba2f 96bf 5894 19be
000001c0: b3db adbf 006a efbf e905 8bbf 5d33 c8bf
000001d0: 7800 153f 8bbb 95be 1934 5cbf 3c42 dfbd
000001e0: 7a6e f1bd d502 883e 2cbe 23bf 55e9 21be
000001f0: 5d3a 013f 1a81 87bf d821 96bf cc16 6fbf
00000200: 93e4 a93f ca00 2c3e 8062 ddbf 7348 3e3d
00000210: cea9 92bf 7652 2abf c418 473e c8ae 4a3e
00000220: a646 b3bf 2638 c3bf c913 b83e 0daf 563f
00000230: af09 8fbf b2a5 64be fa3f 5ebf 3ad9 48bf
00000240: 4f54 cdbd fce0 9e3f 2609 0cbf df65 4a3f
00000250: 98a7 1fbe a476 c9bf acbb a53f a3e3 37c0
00000260: 58ad 9d3f 623d 8ebf 41d6 b0bf 2f25 47be
00000270: 3ec1 ef3f ad04 163f 680c 17bf 81bb 6fbd
00000280: 59af aabf 295d 723d e975 b33f 90de 783f
00000290: f3f9 183f 0690 93be 9dba ba3f 5439 7bbf
000002a0: 1ea0 8ebe 4099 d8bf bf1d 2f3e ff11 e03e
000002b0: 4a6a 64bf 0447 b53e 8f2e b4bd 79de 5ebe
000002c0: a62f 5cbf 1b2b 13be 0250 aa3f 4180 823e
000002d0: 42cb 2f3f 5f4a 6dbe 06d9 7e3f 8c2f 59c0
000002e0: af02 20bd 0fbc e7be 3450 93bf ab5b 99bf
000002f0: 4957 d73f 6dac cfbf f831 043e d177 2abf
00000300: dff7 b8be e477 6c3f 3e25 38bf 414b e1be
00000310: 05e0 883f 96fd 033e 52e2 44be 720b 433f
00000320: 87ae c1bf 7753 a3bf efa7 133e a589 76bd
00000330: 627e 2bbf 5d47 993e 3ab3 943f b9d3 b53d
00000340: 3db5 eabe 7974 92bf 1e40 84bf 3566 a5be
00000350: c908 2a3f 31da 953e cdd0 2dbf 34ff 45c0
00000360: 2840 353f d362 b3bf b8ba 413e 6cab 87be
00000370: b32f 973e d267 883f d5e8 2fbf f72c ffbe
00000380: 61af b6be ff59 4dbf 5d6c 8d3f 9f8f dbbf
00000390: 4b1e a63d cdf1 0abf 6347 e2bf 34df ddbf
000003a0: d88e 013f 092f a8bf d7ab 9ebf 1e6b 1ac0
000003b0: 6adf e6bf 8081 1c3f 046b b23e 2538 42bf
000003c0: 81d0 863e 3646 f2bf 71b7 423f 5d77 0cbf
000003d0: 7cc3 353f 11bf 493f 0ce6 bbbf 9e23 873f
000003e0: 572a 7b3f 2498 513f cb7f db3c 5f46 dcbe
000003f0: 2276 12bb faec 5dbf e2c2 19bf 3627 2f3f
-0.44133428 -1.0372057 -1.7828549 -0.17024392 0.09202657 0.75742567 0.069385014 -0.24452302
-0.76860636 0.68055475 -3.2983959 -0.6999295 -0.7890191 -1.4741482 -1.2173204 0.7486249
1.2087128 -1.2146043 -2.5049312 -1.6914833 -1.5161074 0.80930465 -0.059583884 -0.82590485
0.9548775 2.5053713 -1.1699613 -2.4030159 -1.0425762 -0.030328702 1.2589844 -0.96840143
2.1820107 -1.2004476 -1.3169229 0.63554955 -0.17717886 -0.8408553 0.54531974 1.1963595
0.3923567 1.2513498 1.5073332 -0.9664194 -0.09727362 0.2699447 -0.43081078 -0.6495585
-0.15183765 -0.29988027 0.07277044 -1.606608 -0.75333023 -0.6986175 0.3866588 -1.313651
0.33946744 -0.7672061 0.7041237 0.9984549 0.1976673 0.4700636 1.6608361 -0.6329488
1.1978555 -1.0398434 -0.83842367 -0.44430187 -1.0099931 0.3206945 -1.0874549 -1.5915223
0.42388347 0.119265646 0.5703651 -0.4734872 0.7221535 -0.4614789 1.5763252 -0.8238138
-0.10164854 0.3330582 -0.5848187 -0.18965311 -0.52316386 -1.2123578 -0.46698338 -1.830158
1.1452824 -2.812413 -0.38040093 0.11893945 1.0851209 -1.235599 -1.1383327 0.06860692
-1.1066805 1.040997 -0.19351605 -1.4749696 -1.8164276 -0.80457425 0.20774034 0.2217977
0.2647233 -1.1251838 -1.6526781 -1.7571685 -0.5777592 0.6951204 -1.1733315 -0.14997995
-1.3582672 -1.8704224 -1.0861179 -1.5640675 0.5820384 -0.29244646 -0.86016995 -0.10901305
-0.1178865 0.2656466 -0.63962054 -0.15811665 0.5047968 -1.0586274 -1.1729078 -0.9339416
1.327288 0.16797176 -1.7295685 0.04645581 -1.145807 -0.66532075 0.19443041 0.19793236
-1.4005935 -1.525151 0.35952595 0.83860856 -1.117483 -0.22328833 -0.8681637 -0.7845646
-0.10025846 1.241241 -0.5470146 0.7906169 -0.15591276 -1.5739331 1.2947898 -2.8732688
1.2318525 -1.1112483 -1.3815385 -0.19447778 1.8730848 0.58600885 -0.59003305 -0.058528427
-1.3334762 0.059170876 1.4020358 0.97214603 0.5975639 -0.2882082 1.45882 -0.9813435
-0.27856535 -1.6921768 0.17101191 0.4376373 -0.89224684 0.35405743 -0.08797943 -0.21764554
-0.86010206 -0.14371912 1.3305666 0.25488475 0.6866952 -0.23172902 0.995499 -3.393527
-0.03906506 -0.45260665 -1.1508851 -1.19811 1.6823512 -1.6224495 0.12909687 -0.66589075
-0.3612661 0.9237044 -0.7193183 -0.44002727 1.0693365 0.12889704 -0.1922696 0.7618934
-1.5131387 -1.2759846 0.1441953 -0.06018986 -0.6698972 0.29937258 1.1617196 0.088782735
-0.458414 -1.1441795 -1.0332067 -0.3230454 0.66419655 0.2926803 -0.6789673 -3.0937014
0.7080102 -1.4014534 0.18918884 -0.26497972 0.2952858 1.0656683 -0.6871465 -0.49838993
-0.35680678 -0.8021545 1.1048695 -1.7153205 0.08111247 -0.5427521 -1.7678035 -1.7333741
0.5060859 -1.3139354 -1.2396191 -2.412788 -1.803693 0.611351 0.3484727 -0.7586692
0.2633095 -1.8927677 0.7606116 -0.54869634 0.7100141 0.7880717 -1.467958 1.0557745
0.9811148 0.81872773 0.026794335 -0.4302244 -0.0022348245 -0.8668972 -0.6006299 0.68419206
