crowd_nav/our_circle/rl_model_2.pth (torch, 143871 bytes, 33 tensors)

w_a f4 [32, 32]
00000000: 95e8 e3be 63a3 61be 993a b93f 16ce ccbf
00000010: ccdd 2ebf 5f65 c0be 1bae 9b3f 11f6 25bd
00000020: 5f26 0840 121c c03e 08df 45bf 477d 5a3e
00000030: 83b4 13be b4c9 20bf dd52 5cbd 355c 3abf
00000040: f1b0 70bf 1160 edbe a5a6 733f 0bfd 033f
00000050: 460f ea3f c26d 33bf ef51 88bd 39f3 06bf
00000060: b455 24bf 5f50 f7bd 98f3 e9bd f083 b6be
00000070: 821c 4ebf dc23 e1be 0837 18c0 3630 53be
00000080: 70c8 e2be 3883 0b3f f801 3cbf 4ed8 b7bf
00000090: 0baf 123f 2462 a6bc 55ea 58be 376f 393d
000000a0: d854 513d 1a96 b2be 7d37 03bf 4624 0e3f
000000b0: e3a9 b13e d7fc f2bf c2b3 2ebf e354 76bf
000000c0: eaa4 353e 1224 763e 6c37 a0bf 058c 58bc
000000d0: 61c9 a33f 4137 8dbf df12 c8bf 9ddd e3bf
000000e0: 18e8 f13e 31f0 4d3f 88ce dabe 39a0 03be
000000f0: ab62 e33e 145d 853f b12f d13f 742f 10be
00000100: ca24 1cbf 6d17 5fbf 7626 b4be ea41 9c3e
00000110: 04a8 973d 88d1 1ebf 8870 e83b dc6a 90be
00000120: 0c9d a73e 0e9b 063f f36f 293f cd2c 9ebe
00000130: 92ac 49bf 0851 8a3f 97de 3dbf 0f53 823e
00000140: 45c7 f0be 42ab 4ebe f51c dcbf 8d9b 3c3f
00000150: 1802 9d3e f374 423d 57e5 803f f2d6 ccbf
00000160: 0ecc c6bf 5b92 2b3f 2921 9fbe d62e be3f
00000170: 85a9 7cbe 4c93 34bf 6190 0a40 d4a1 b0bf
00000180: 4efc ecbc 596a 983f 6cbc d0be 185b ed3d
00000190: 8c3f 09be 524b 8b3e 9515 943f c30c db3d
000001a0: 0c01 333f 9ac6 f3be c999 ebbe b022 b8be
000001b0: 0a2d 5f3f b7d4 703d b3a7 e23e d6f6 2ebf
000001c0: 4ee1 793d d87f 9a3e e2e1 5b3e 75b9 40bf
000001d0: 8a86 73bd b692 76bf bfb3 39c0 02c8 873e
000001e0: f61b c83e 74b1 c43d 64e1 e1bf dbb0 7e3f
000001f0: 57d6 57bf 1153 753e 0d02 39bf 2a00 cebe
00000200: 8181 7f3f 4476 7abe 63fd 42bf 227f 51bf
00000210: 6266 71bf 12f8 73bf 0ecf f83e 8f10 f63e
00000220: fe47 8c3e 5034 9c3f 1609 54be 0b49 f83d
00000230: 487d c4bf f8a1 be3f 2915 663f 7761 a53f
00000240: 7ff4 5cbe 01ab 663e bff4 f73d e430 1d3f
00000250: abb6 adbf 4f17 19bf a35f 2ebf 393b 683f
00000260: 8817 6abf e9d7 683e 2614 da3e 54b7 813e
00000270: c49f 45bf 8d07 85bf 30bd c5be 087f 153f
00000280: e31b 013e a963 5f3e ae84 b1bf 053f 953d
00000290: a315 113f 7717 c3bf 4669 0640 a175 41be
000002a0: 7cc0 c5be 0f0c 253e 62dd 0fbf 7d0f 713f
000002b0: c05c 9ebf 3ab7 29bf f49f 5dbf 9a53 b3be
000002c0: 6bd2 38bf 65c3 633e 65ed c2be 4cf9 cabf
000002d0: 8e3a a4bf 7af9 583f 7af2 54bf e0ba 26bf
000002e0: 5369 a0bf b47c 90bf 7d4d b0be 1fe5 7b3f
000002f0: d429 e5bf 1d22 fabf 11a4 853e 41a9 8fbf
00000300: de24 95bf 56bf 54be 000e 83bf 505f b13e
00000310: 9255 9fbd 54b0 a13f 0115 e5bf ef57 d7bf
00000320: 1d7a 8ebd 40a4 c8be 0eac 50be ff96 a9bf
00000330: 8ab7 873d a42d 53bd b4bb cbbc 5398 14bf
00000340: 8b8a e1be 44d5 84bf fd42 cc3e 9717 9ebf
00000350: eeda c3bf ad60 133f 783e f7bf 3a93 89be
00000360: 25a6 0bbf 4af8 09c0 9b53 62bf 4b4d 1bbc
00000370: b23d 0d3f e2d3 84bd 1156 1b3e 1a74 b1bf
00000380: 0583 263e f047 80be b208 63bf 17dc 9fbe
00000390: ed21 d03f 27cf 1f3f c64e 99bf 71ba 22bf
000003a0: 1a0f c4bf 2392 8d3f 5537 9abf 4820 b0bf
000003b0: f710 a1bd fb81 9ebf 9de0 c0bf 7fab b1be
000003c0: 36ea d83f ce1c b2bf 9730 5a3e acd6 3d3f
000003d0: 86a2 e2bf 02b4 25bf 8afc 8dbf e60e 02c0
000003e0: 0bce 93bf de5a e63d c905 9cbe 6e9a 2540
000003f0: 0900 c9be 2dc6 84bf 115b 3f3f 5576 5d3f
-0.44513384 -0.22034983 1.4471008 -1.6000392 -0.68307185 -0.3757734 1.2162508 -0.04051787
2.127342 0.37521416 -0.77293444 0.21336852 -0.14424329 -0.62807775 -0.053789962 -0.72796947
-0.9401999 -0.46362355 0.95176154 0.5155799 1.8285911 -0.7008935 -0.066562526 -0.5271488
-0.6419327 -0.120758764 -0.11423415 -0.35647535 -0.8051225 -0.4397267 -2.3783588 -0.2062386
-0.44293547 0.544971 -0.73440504 -1.4362886 0.57298344 -0.020310469 -0.2118314 0.04527208
0.051106304 -0.34880143 -0.51256543 0.555241 0.34699926 -1.8983411 -0.6824304 -0.96223277
0.17738691 0.24037197 -1.2516913 -0.013216977 1.2795831 -1.1032487 -1.5630759 -1.7802006
0.47247386 0.8044463 -0.42735696 -0.12854089 0.44411215 1.041903 1.6342679 -0.14080602
-0.60993636 -0.8714512 -0.35185593 0.30519038 0.07405093 -0.6203847 0.007093493 -0.28206527
0.32737005 0.52580345 0.66186446 -0.30893555 -0.78778946 1.0805979 -0.7416777 0.25453994
-0.4702703 -0.20182517 -1.7196337 0.7367485 0.3066566 0.047474813 1.0069989 -1.6003096
-1.5531023 0.67020196 -0.31079987 1.4858043 -0.24674042 -0.7053726 2.1650622 -1.3799386
-0.028928902 1.1907455 -0.40768754 0.115896404 -0.13403147 0.27205902 1.1569086 0.106957935
0.6992347 -0.47612458 -0.46015766 -0.35963964 0.871781 0.05879661 0.4426857 -0.6834539
0.061005883 0.30175662 0.21472886 -0.75282985 -0.05945448 -0.96317613 -2.9015958 0.2651978
0.39083833 0.09604159 -1.7646909 0.9948861 -0.8431143 0.23957469 -0.72268754 -0.402345
0.9980698 -0.24459177 -0.7616789 -0.81834614 -0.9429685 -0.953004 0.4859547 0.48059508
0.27398676 1.2203465 -0.20706591 0.12123307 -1.5350733 1.4893179 0.8987604 1.2920369
-0.21577643 0.2252617 0.121072285 0.61402726 -1.3571371 -0.5980119 -0.6811468 0.90715367
-0.91442156 0.22738613 0.42593497 0.2533518 -0.7719691 -1.0392929 -0.386209 0.5839696
0.12608294 0.21815361 -1.3868616 0.07287411 0.5667364 -1.5241536 2.1001754 -0.18892528
-0.38623416 0.16117881 -0.5619718 0.9416426 -1.2372055 -0.66295207 -0.86572194 -0.3502472
-0.7219607 0.22242506 -0.38071743 -1.5857329 -1.283037 0.8475567 -0.8318249 -0.651289
-1.2532142 -1.1288056 -0.3443412 0.98396486 -1.790339 -1.954166 0.26101735 -1.1223527
-1.1651876 -0.20776114 -1.0238647 0.3464303 -0.07779993 1.2631936 -1.7897035 -1.682371
-0.06956885 -0.39187813 -0.20378134 -1.3249205 0.06626804 -0.0515572 -0.024869777 -0.5804493
-0.44051012 -1.0377584 0.39894858 -1.2350949 -1.5301187 0.5756939 -1.9315939 -0.26870137
-0.5455039 -2.1557794 -0.8840882 -0.009478877 0.55172265 -0.06485726 0.1516955 -1.3863556
0.16260917 -0.25054884 -0.88685143 -0.31222603 1.6260353 0.62425464 -1.1977165 -0.63565737
-1.5317109 1.1060222 -1.2048136 -1.3759851 -0.07864564 -1.2383417 -1.5068547 -0.34701154
1.6946476 -1.391504 0.21307598 0.7415569 -1.7705848 -0.64727795 -1.1092694 -2.0321593
-1.1547254 0.112478 -0.30473164 2.5875506 -0.3925784 -1.0372978 0.7474833 0.86508685

w_r.0.weight f4 [64, 9]
00000000: dd03 8ebd 06fe ae3e 08f3 063f 36a5 55be
00000010: 8ea8 a0be 60e2 063d 47a9 ddbe 70b9 a5be
00000020: 2b3e adbc af16 6abe 3b2c a4be f8b4 11be
00000030: f51b b5be 3616 52be dbdf c6bd c4f0 5cbe
00000040: d3ea b8be d35f 75be a350 9e3e 4509 083e
00000050: 048a 92bf 657a fa3e f087 afbd 0281 a1be
00000060: df5d eebe efca 94bd 40dc 6b3d 189f d0be
00000070: 0c7f b2be 2643 8cbe d850 52be 2e78 553e
00000080: dbca 2bbe a50e 50be f18f f33d d8d9 0c3e
00000090: 0935 933e a564 e33e 22bc b33c a32f d8bc
000000a0: f0a8 40be 5075 1abe 1543 3ebe b803 f2be
000000b0: 26b8 98bd d981 a93e d318 a93e e41e 12bc
000000c0: a66c 17bd cbf8 533d 30b3 673e e5e9 853e
000000d0: de92 153d be26 1abe e684 d4bd aa66 2ebc
000000e0: d950 cb3e d1fa 5cbe 9e7e 633e 18eb 54be
000000f0: 326d 323e 93a7 91be 9bb5 603e e0d6 c7be
00000100: 8002 283e 8ffe 88bf e197 a6be 86f9 39be
00000110: 0077 563c fd43 8cbe 8567 753d 2b7f bb3d
00000120: 621f 31bf 8210 abbd 955f b93d 6ea0 91be
00000130: 1b04 8f3e c6a7 ee3d bed8 41be 062a c8be
00000140: 7b59 88be 0690 8e3e 7333 5d3e ec31 353f
00000150: 8615 0e3f f006 a9bd de28 2f3e 0f73 55bd
00000160: f845 17bf 6b86 363e 1bb9 87be 3018 e03e
00000170: a861 20bd 386e 043d 384c 0fbe 2b77 3bbd
00000180: f7ba 9e3e 1e13 28be eb0a 8d3c 979e 8d3c
00000190: ef81 88ba 04db 39be 668f 4fbe 2ac1 a4be
000001a0: eac6 943e 118c e5bd b845 c5bc 239b 3f3e
000001b0: d5b6 e6be e4cd fd3d 8437 42bf d4fb efbe
000001c0: 7054 96bd f81c 43be 6f0d 1abf 55b6 e3bd
000001d0: 4050 5a3e 241c a33e 5657 d0bd 2aeb 90bf
000001e0: 1372 99be 862c 093e a85e 01be 4518 70be
000001f0: 8634 4bbc 0b24 313e 11d2 b33d bc05 3c3e
00000200: 72c8 33bf c055 62bf 1e72 a4be 4b98 62be
00000210: 3338 9bbe 73cc 37bf 2005 d63d 4bc7 123f
00000220: c109 02be 4751 adbf 0689 e03e 26db b23d
00000230: 8fd6 89be 6061 27bf 1698 0dbf 6623 be3d
00000240: 7fd2 c33d 0cd1 c23d eae3 7bbd 1649 d1be
00000250: 1842 5abe 5647 48bb 836c f9bd 5fcb 6abe
00000260: 10ba 403e 1114 b2be 44e6 ce3d b6d1 61bf
00000270: eb78 793f d833 553e 00d7 23bd c5ac 34be
00000280: e58e 87be 421e 99be f25e 4e3f 2833 6b3e
00000290: 7df7 ddbc 8685 67bc e070 63bd fa2f 9cbe
000002a0: 414b a0be 2787 b5be 78ca 6b3e de24 2f3e
000002b0: dd3b 85be 5f93 243f d173 20bf 0aac 9ebe
000002c0: 76ef 6a3e c4cb fabe 1e04 21bc eb6f 86bc
000002d0: fda2 2cbf a43a eebe 18b8 a9bd 0ae1 de3d
000002e0: 47ac 923e c097 30bd ca82 b0be c9c6 98be
000002f0: eb59 873c e266 283e d532 94bd 88fb 4f3f
00000300: 0d66 8d3f eb25 05be 6bdc 083d 2468 45be
00000310: 27b2 9abe 3a94 8c3e 273b 003f e23d 6fbe
00000320: 492c 14bd 9082 90bd c397 263e f429 a13e
00000330: 461f bcbc af59 15be 1384 123e 8456 c33e
00000340: 0bf3 023f 57b1 ed3d e1e3 e43b f637 7fbd
00000350: 56ce 2b3d 83dd 3fbd eef2 acbe d082 6b3e
00000360: bc90 d7bd bf5a 253e edfd 1a3f ee3c 603f
00000370: 0374 35be 2b84 44bc 53eb dfbe 448e 43bd
00000380: d6cf 9abc 5bd4 53bf 3ab1 c03e 0d0b 15bd
00000390: 3a1b 5e3b e4ed a6be 2890 13be dab9 bebe
000003a0: 0b40 96be 3712 80be d244 043f 0b83 e2bd
000003b0: 6bc1 7bbe c86f a23d c016 e9bc 40db 4bbd
000003c0: 2ce0 73bd 8ab6 92be 9678 3bbd 5609 cfbd
000003d0: 83e5 8cbe 80f5 32bf 9363 3c3f 0476 a23e
000003e0: 000f c4bc 28b5 17bf 7a01 b8be 1b29 86bd
000003f0: 330d 8ebe c616 2f3d 79e4 a3bf db28 8fbe
-0.069343306 0.3417818 0.52714586 -0.20863804 -0.31378597 0.03293073 -0.4329321 -0.3236804
-0.021147808 -0.22860216 -0.32064995 -0.1422919 -0.35372892 -0.20516285 -0.09710666 -0.2157622
-0.36116657 -0.23962335 0.30920896 0.13284786 -1.1448369 0.48921505 -0.0857085 -0.31543738
-0.46555993 -0.07265269 0.057583094 -0.4074638 -0.34862554 -0.2739498 -0.20538652 0.20846626
-0.16776602 -0.20318086 0.11892689 0.13754976 0.287514 0.44412723 0.021940295 -0.026389902
-0.18814445 -0.15083814 -0.18580277 -0.47268462 -0.074569985 0.33106878 0.33026752 -0.008918498
-0.03696885 0.05175094 0.22626948 0.2615501 0.036517017 -0.15053841 -0.10376911 -0.010644594
0.3971012 -0.21580054 0.2221627 -0.20792806 0.17424467 -0.2844816 0.21944277 -0.39031124
0.16407204 -1.0702685 -0.3253775 -0.18161592 0.013089895 -0.2739562 0.059913177 0.09155115
-0.6918851 -0.08352758 0.09051434 -0.2844271 0.2793282 0.11653094 -0.18930337 -0.3909456
-0.26630768 0.27844256 0.21601658 0.707793 0.5550159 -0.08253276 0.17105433 -0.05211168
-0.5909114 0.17824714 -0.26508412 0.43768454 -0.039155632 0.032331675 -0.13993919 -0.045767944
0.31002018 -0.16413543 0.01721712 0.017287536 -0.00104147 -0.18149954 -0.20269546 -0.32178622
0.2905801 -0.11208356 -0.024081096 0.18711524 -0.45061365 0.12392786 -0.7586596 -0.46871817
-0.07340324 -0.1905402 -0.6017675 -0.111187615 0.21319675 0.31857407 -0.10172908 -1.1321766
-0.29969844 0.1339589 -0.12633765 -0.23446758 -0.012402659 0.17298906 0.08780301 0.18361562
-0.7022773 -0.88412094 -0.32118315 -0.22128408 -0.30316314 -0.7179634 0.10450196 0.57335347
-0.12699033 -1.3540429 0.4385454 0.087332055 -0.26921508 -0.6538296 -0.5531019 0.092840955
0.09561633 0.09512529 -0.061496653 -0.40876073 -0.21314275 -0.0030560098 -0.121789 -0.22929142
0.18820977 -0.34780934 0.101025134 -0.8821062 0.9745013 0.20820558 -0.03999996 -0.17644031
-0.26476207 -0.29905897 0.80613625 0.22968733 -0.02709555 -0.014130956 -0.055527568 -0.30505353
-0.31307414 -0.35454676 0.23026454 0.17103907 -0.26022235 0.6428737 -0.6267672 -0.3099063
0.2294291 -0.48983586 -0.009827642 -0.016410789 -0.674362 -0.46529114 -0.08287066 0.108827665
0.28647062 -0.04311347 -0.34474784 -0.2983916 0.016522368 0.16445497 -0.07236258 0.8124318
1.1046768 -0.13002746 0.033413332 -0.19278008 -0.30214044 0.27456838 0.5009026 -0.2336345
-0.036175046 -0.07056153 0.1626883 0.3147732 -0.022964131 -0.14584993 0.14308195 0.38151944
0.51152104 0.116060905 0.006985173 -0.062309228 0.041944824 -0.04684211 -0.3377909 0.2299912
-0.10525653 0.16147898 0.6054371 0.8759297 -0.17720036 -0.011994402 -0.43734226 -0.047743097
-0.018897932 -0.82745904 0.37635213 -0.036387492 0.003389074 -0.3260337 -0.1441046 -0.37251168
-0.29345736 -0.25013897 0.5166751 -0.11060151 -0.24585502 0.07931477 -0.02845323 -0.04976964
-0.05953996 -0.2865489 -0.045769297 -0.101092026 -0.27518854 -0.69905853 0.7358944 0.31730664
-0.023932934 -0.592608 -0.35938627 -0.06550809 -0.27744445 0.042746328 -1.2804099 -0.27960858

w_r.0.bias f4 [64]
00000000: f64b e2bd 4b7c 36be fc54 87be 95f8 5abe
00000010: e548 47be 4628 4a3e 0e4b 87be c4f7 c1bd
00000020: ed7b 03be 61ec acbd f6df 553e a01c 443c
00000030: 53e1 f3be cb33 ecbd 9766 b5be 98df b3be
00000040: 0e33 17be b863 f1be 8ad6 213e 46e0 e7be
00000050: 68ff a4be fd1e f2be bdb7 d9be 8158 8dbe
00000060: 2a4e e4bd 8ef1 b23d 30d5 e6be 0f29 46bd
00000070: ede5 1bbe a154 b3be 0541 8a3d b0df 72be
00000080: 6c95 ebbd 8b6f 9cbe 720c 343c c6c8 e33b
00000090: 9ee6 b3be 757f 873e f87a 6f3d 9648 9fbe
000000a0: 8fac 7dbe 80cc 0ebe 26b1 7ebe 9762 d9be
000000b0: 5c71 9b3d 1679 ddbe 9c91 6bbe 9047 efbe
000000c0: fabd 09bf 9ad5 25be 9c10 c8be c3ee 783c
000000d0: 9fe4 3ebe 606c 58be d86a f8be b83d 39be
000000e0: 780c 4b3c dad7 14bf a968 0bbe 23ff f2bd
000000f0: f3f1 c8be 2e09 15bf 5568 cabe 745e 8fbe
-0.11049645 -0.17820852 -0.26432025 -0.21383889 -0.19461401 0.19741926 -0.2642445 -0.09471086
-0.12840243 -0.08443523 0.20886216 0.011969715 -0.47632846 -0.11533316 -0.35429832 -0.35131526
-0.1476557 -0.47146392 0.15804496 -0.45288295 -0.3222611 -0.47289267 -0.42522994 -0.27606586
-0.11147721 0.08737479 -0.45084524 -0.048379 -0.15224428 -0.35025504 0.06750683 -0.23718143
-0.11503109 -0.3055385 0.010989295 0.0069514243 -0.35136884 0.2646443 0.05846688 -0.31110066
-0.24772857 -0.13945198 -0.24872264 -0.4245803 0.07589981 -0.43256444 -0.23004764 -0.46734285
-0.53805506 -0.16194764 -0.39075172 0.015193644 -0.186419 -0.21135092 -0.48519015 -0.1808995
0.0123931095 -0.58141863 -0.13614143 -0.1186507 -0.39247093 -0.5821713 -0.39532724 -0.2800175

w_r.2.weight f4 [32, 64]
00000000: 0d0e 503e e769 b03d b561 90be e8cf fbbe
00000010: d538 6ebe 874c e43d 1d00 573c 72c0 a83e
00000020: ccc3 68bf 1232 b9ba 29d7 81bd 07fd a4bd
00000030: 8366 fe3e 5014 e9be d2a6 a2be e037 85bd
00000040: 51b4 5ebe 434e aa3d 594a c4bd dcb1 d43d
00000050: 280c 5b3d 57d0 c03e 2565 53be 15b0 b3be
00000060: 39ef 133e ef96 aebe 6167 82be d512 f4be
00000070: 833f df3e 7e97 57be 8a39 4cbe 5056 e93d
00000080: 7699 243e 74e0 43bc 4e5d d33d 1b8c 8e3e
00000090: e892 58bf fdb9 263d df91 8c3d 9382 dbbd
000000a0: 0b3d 8bbe 92c0 573d 8e25 343b b603 373e
000000b0: 4c47 93bf a9a2 58bf c608 4b3d ac3a fd3e
000000c0: 2d5b ed3d 0ac7 c73c 2b2e ec3e 35ae 67bf
000000d0: 7915 bc3d 8e93 e3bf 4f2f 453f c076 053d
000000e0: e587 a23d 3adf 75be 9f3f 873c 6f24 f0be
000000f0: 1a80 02be 5880 c63e 4972 ce3e 78f1 2cbd
00000100: 46a0 b23d 870c 103d 45bd 70bd 7275 7f3d
00000110: 1299 243b 63de 85bd f0c5 2b3c 08bb f83d
00000120: 6f2d e2bd 9507 a23d 5cf9 663e 6781 a4bd
00000130: ee70 f4bd 13f0 333c 4eb3 9cbe 4f3c 13bf
00000140: 4821 dfbd ae83 913d 03a6 e8bd faab 39bd
00000150: f4f1 74bc 8348 f8bc 12e3 e73c 7253 a03e
00000160: 477f 81be 3576 f83e 5716 053e 34f5 a2bd
00000170: 51d4 753d 7687 1cbd ad94 abbb c5eb c3bd
00000180: e864 8fbc 3eb3 fb3d 17a4 c3bd 59bd 2fbe
00000190: 6621 463d 2b7d 473d b9be 7bbc b9f8 053e
000001a0: 2164 1cbd 3e59 ad3a 9f4f 353d 4f01 07be
000001b0: 4468 9b3b aa88 703e 5cac 1abe e879 64be
000001c0: 20ce fcbd 6581 46be f8b3 8a3e 50ae 163e
000001d0: 861e 1e3d a9bc 0f3e 64d6 f2be 17f4 abbe
000001e0: 69aa debd 923b 9e3e 7867 583d 215c bf3c
000001f0: f8a3 bf3d 0a23 13be 2d91 b0bd 0071 7ebb
00000200: ff46 96bd 4790 e5bd 2857 433f e2e6 44bc
00000210: b329 89be e1a8 eb3e d9d7 f5bc eb54 573e
00000220: afc7 543b bdce 92bc daaf c03e bfd9 c13c
00000230: 4f89 91be 7e49 5b3d 939c 433e 0159 18be
00000240: fc6f 9ebd bf4e 873e 66c6 94be 78a0 e9bc
00000250: d810 a8bd ee6e b63d 00bf 2fbc 499e 93be
00000260: 3581 bf3c d2a1 b2be 27e2 49bd df0a 143e
00000270: 71d3 85be 614f 2e3d 8c48 adbd 011d 4d3b
00000280: 5aee 85bc 0cc3 32bd ac61 e53c 137d c03e
00000290: 9f20 4cbe 28d5 6cbd 1448 4cbe d9b8 5cbe
000002a0: 8f29 9fbd c1fe b7bd 574e 543d e3a0 a2bd
000002b0: f66c 093c 0d24 983e 5f45 26be 9869 853d
000002c0: 9649 1b3d ed00 b0bd bc23 7dbd 3464 143d
000002d0: 6892 7bbd 6327 f7bd 4f7e 37bf c88c 11be
000002e0: 44bb ad3a 5d8c 1d3e 522f 22bc c49d 6c3d
000002f0: 349c 933d 502c 39bd 9683 20be c08e 86bd
00000300: 1aa3 153e 2bf2 ccbd a7b1 f0bc d596 16be
00000310: 157f 79bf 7b0b b4bd e759 76be 1703 c63e
00000320: 9abd 32be 86bb 80c0 8af5 a53e df25 8abd
00000330: 8242 c1bd 1212 f9bf e794 0c3e d033 8dbd
00000340: 8dcb 3bbf dd3d a6bd 7d48 97c0 310f 19bf
00000350: b3a7 73bf 1a3d a9c0 098a 5abf fe10 52be
00000360: bce2 39bc 1620 073f ea3c 09be 0fbe 7abe
00000370: fe2d 723e e41c eabe eb83 c8be 2c54 1fbf
00000380: 2d22 90be 35e0 aebe 2f05 30bd fe4c a6bf
00000390: fced 1bbe 9400 543b 6a12 053e 6bcb 183e
000003a0: a6e4 81bf 73ef 86bf 983c 95ba 6625 47bd
000003b0: 70c3 ed3e c01a cc3d c5fd d0bc 329d 2d3d
000003c0: 467b 923c b0cb 33bf 35fc 1e3f 21c7 13c0
000003d0: 9dde 15be ee9a ca3d b6c4 aa3d c442 103e
000003e0: 69c1 b93b 245d 9ebd 95c9 b1bc 25eb 4cbf
000003f0: f9a1 7abf a51c 3ebf aa8c f63e 3cf7 6d3d
0.2031786 0.08613949 -0.28199545 -0.49182057 -0.23263867 0.11147409 0.013122586 0.32959324
-0.9092376 -0.0014129302 -0.06339867 -0.08056074 0.49687585 -0.4552331 -0.317679 -0.06504798
-0.21748473 0.083157085 -0.09584493 0.103854865 0.05347839 0.3765895 -0.20644052 -0.35095277
0.14446725 -0.34099528 -0.25469497 -0.47670618 0.43603143 -0.21053883 -0.19943824 0.11393416
0.16074166 -0.011955369 0.10320531 0.27841267 -0.8459916 0.040704716 0.0686376 -0.107182644
-0.2719501 0.052673884 0.0027488205 0.1787251 -1.1506133 -0.846232 0.049568914 0.49458826
0.11589656 0.024386901 0.46128973 -0.90500194 0.09183783 -1.7779405 0.7702531 0.032583952
0.07936076 -0.24010935 0.01650983 -0.46902797 -0.1274418 0.38769794 0.40321568 -0.04222247
0.08721976 0.035168197 -0.05877425 0.062367864 0.002511565 -0.065365575 0.010484204 0.121450484
-0.11043822 0.079116024 0.2255606 -0.08032494 -0.11935602 0.010982531 -0.3060555 -0.575139
-0.1089502 0.07105194 -0.11359789 -0.045330025 -0.014950264 -0.030308014 0.028306518 0.31313664
-0.25292417 0.48527685 0.12996803 -0.07956925 0.060016934 -0.038215123 -0.0052362294 -0.09566454
-0.01750417 0.12290047 -0.09552782 -0.17162074 0.048371695 0.048703354 -0.015365296 0.13083161
-0.038181428 0.0013225449 0.044265386 -0.13184093 0.004742654 0.23489633 -0.15104812 -0.22312129
-0.12344003 -0.19385298 0.2709043 0.14714932 0.03860333 0.14036812 -0.47429192 -0.33584663
-0.10872347 0.30904824 0.05283305 0.02335936 0.093574464 -0.14368835 -0.0862144 -0.0038824677
-0.0733776 -0.11209159 0.76304865 -0.012017937 -0.26789626 0.46027282 -0.03001015 0.21028487
0.0032467654 -0.017920846 0.37634164 0.0236634 -0.2842507 0.053536884 0.19102697 -0.14877702
-0.07736203 0.26427266 -0.29057616 -0.0285189 -0.08206338 0.08907877 -0.01072669 -0.288317
0.02337704 -0.34889084 -0.04928794 0.14457272 -0.2613788 0.04255617 -0.08461103 0.0031297805
-0.016349006 -0.043643042 0.028000675 0.37595424 -0.19934319 -0.05782047 -0.1994937 -0.21554889
-0.077715985 -0.08984137 0.051832523 -0.07940843 0.008387795 0.29715005 -0.162374 0.06514281
0.037911974 -0.085939266 -0.061801657 0.036228374 -0.06141892 -0.12068059 -0.71677107 -0.1421386
0.0013254662 0.15385576 -0.009898977 0.057767645 0.07207528 -0.045208275 -0.15675196 -0.06570196
0.14613 -0.100071274 -0.029381586 -0.14705975 -0.97459537 -0.08791252 -0.24057733 0.38674232
-0.1745514 -4.022891 0.32413894 -0.067455046 -0.094365135 -1.945864 0.13728677 -0.06894648
-0.7335747 -0.08117268 -4.7275987 -0.59788805 -0.95177764 -5.2887087 -0.85366875 -0.20514295
-0.011345562 0.52783334 -0.13402143 -0.24486564 0.23650357 -0.45725167 -0.39163145 -0.6223781
-0.28151074 -0.3415543 -0.042973693 -1.2992246 -0.15227503 0.0032348977 0.12995306 0.14921348
-1.0147903 -1.0541824 -0.0011385856 -0.04861965 0.4643817 0.0996604 -0.025511632 0.04238624
0.017881047 -0.7023268 0.6210359 -2.3090289 -0.14635701 0.09892832 0.08338301 0.14087969
0.0056688082 -0.07732609 -0.021702567 -0.800463 -0.979034 -0.7426246 0.48154193 0.05809711

w_r.2.bias f4 [32]
00000000: 0e8e 91bd 6842 c03e 201e f33d 940f 55be
00000010: f27b 6b3d 0279 b9be a3bc 91bb 44ef b1bd
00000020: dd68 40bd 0eba f2bd 9cab 933e 2289 edbe
00000030: bda4 e0be a713 1d3d c558 e2bd f7c6 e0bd
00000040: 5a92 4fbe a343 f2bd 2cc0 2c3e 9201 44bd
00000050: 50e1 e2be 1c06 f73c fcdb 6abd f1b2 f23e
00000060: 1065 4ebe 2371 4a3f 043a 113d 9aac 21bd
00000070: 22b8 ab3e e4e9 b9bb 91f9 0e3d 669d 243d
-0.07107173 0.37550664 0.1187098 -0.20806724 0.05749125 -0.36225134 -0.004447536 -0.086882144
-0.046975005 -0.11851893 0.28841865 -0.46393687 -0.43875685 0.03834882 -0.11052088 -0.109754495
-0.20270672 -0.11829307 0.16870183 -0.04785306 -0.44312525 0.03015428 -0.0573387 0.47402146
-0.2015574 0.7907888 0.03545572 -0.039471246 0.3353892 -0.005673634 0.034905974 0.04018917

w_h.0.weight f4 [64, 5]
00000000: 8bbe cc3d 8194 35be 990d 8ebf bebc 17bf
00000010: 9c21 34bf 9063 4a3e 48c1 803d e4a9 dcbe
00000020: 4a2c 563f fc95 44bf 9ef8 2b3b 48db ffba
00000030: c824 41bd 8c2f d63d 9e18 9abd 0e0a 2fbe
00000040: fd30 8b3e f8af 93bf b36c 60bf 7db9 ecbe
00000050: 431f c63d b40b 873e d684 82bf 99aa 8d3f
00000060: 4521 0abf 89f6 acbb e582 0fbd 669e 2fbd
00000070: 9c57 9a3e 9d28 13bf cf79 b7be 178d 2b3e
00000080: 47e2 94bf fade 453d 5730 253e 2f46 dab7
00000090: a05b 853b 07bf 26be 145b 43be c618 2abf
000000a0: dca9 9cbd 4bfb 7a3e eabb 313e 11e1 babb
000000b0: bc10 0f3f 1932 1a3e f07e a7be 14cc d2be
000000c0: 698a 98bf 30bb 81bf ce5c 643e 1ccc bdbe
000000d0: efd4 fbbd 0e1d 91bf 0c9d e8be d4fe f3bd
000000e0: 1f42 963d f3fc 31bf d9c1 07bf 4e53 10be
000000f0: 811d 643e e72a b73e 5bd4 983e 8522 423f
00000100: bca1 00be 6de8 313d 4cd0 02be 377d 53be
00000110: 2ce6 ab3e e849 93bf 7c1f c53e ed63 a5bd
00000120: 53b0 563f f5b9 eabe f56e 4dbf d4b7 05be
00000130: e49a 00bd 11bb 01be ab0f 21bf 4e8a cc3a
00000140: 3be6 76be 41b4 993e 8f81 433f 7d44 413f
00000150: 9cae a4be 1353 77bd 923a d1bc 1d69 36bf
00000160: 7fa5 12bf 46e5 253f f960 1d3e a1c0 173e
00000170: fdfd 26bd 6639 673f e8bc 8d3e 6320 cdbe
00000180: f182 ed3d 721d 013f 35cd 46bd 5274 ea3e
00000190: 49b7 b6be 9fee bf3e f9d8 22bf d77c 54be
000001a0: 5a50 9ebe a37e 2bbe 0679 81bc 857c 283f
000001b0: 7e6f 70be 57e3 d0bf 8ed7 c93e 71fc 6b3e
000001c0: a816 0bbf 68e3 10bf 7de5 10bf 57f7 0fbe
000001d0: 5df3 01bf aed0 3e3f 2c7e 4abf e686 5a3e
000001e0: 078a 783e fff3 fd3c 9683 a33f 87fd f8be
000001f0: c47b 81bf c4f6 8b3d d761 483e 6a8c 63bf
00000200: 754b c2bd e587 89bf 7a70 2dbe b07c 763d
00000210: bca4 c33d 18da 6ebf 16ae 90bf 2eb4 bc3a
00000220: 6adc 9dbc 737c 22bf 1e47 44bf 0036 3ebf
00000230: 9849 c6be 47dc 69be b05a 18bf 03b9 99bf
00000240: 19f0 0bbd 7ec3 39be 1977 8fbe 9314 a6bd
00000250: 5b03 16be 50bb 12bf f274 19bd e5f1 903d
00000260: 4012 d1be 2b2f 08bf 3d48 823e a86d 5d3d
00000270: 4a58 26be e26f 2b3f 9891 35bf 717a ae3e
00000280: ab77 bb3d 3867 f13c 099b 503e 8742 0bbf
00000290: dd33 443f 8a38 493e 7540 a5bd aa5b 683f
000002a0: 4e30 003f 8e8a 333e 4403 4cbe 3864 5b3d
000002b0: 367c 493e 0774 b23d fb67 3f3e bf9e 65bd
000002c0: 8d20 d2be c432 dfbe 5fa7 87be 7fdc d9be
000002d0: f47a 51be c083 15be 3967 b9be bbe1 743f
000002e0: e543 373e 4e03 9dbe c607 c7be 98f9 14bf
000002f0: 1171 fc3e b6af 62bf 9e49 a13e 14a3 d7bd
00000300: 858b efbd 3f77 d73e b5b1 f63e b1da e03d
00000310: 49c3 433d dccb 7cbf 5a5d 043f e2b8 56bf
00000320: 4c2a e73a 1b7d 67bc a147 a0bd 2592 76bc
00000330: 9c22 d9bd 1c0c 833c cf32 5ebd 8098 993f
00000340: 4c95 233f c437 2ebf 0a9c 85b9 fe24 91b9
00000350: 29a9 213c 3972 23be 3cf9 d6be 3c4f 693e
00000360: 95a3 e73d 9817 1b3f ad8a 263f b6f4 a5be
00000370: c163 023e 89cc b03d cca5 233e 1dfe 1bbf
00000380: 0870 c3be 9b77 393e b5ee 953e 4749 3dbf
00000390: 8735 6cbf 9e4c 23bf a398 6abe 4b92 e93e
000003a0: 4fe4 4f3e 9275 1dbf ff67 3d3d 6793 13be
000003b0: d41d d33d b2fd 073e ab89 943f 0412 17bf
000003c0: 89e6 43be ddfb 4e3e 7a69 b73d c76b 8c3f
000003d0: bd06 c7bd 167d 2cbc 7b0d 1aba 7d13 b0bd
000003e0: 15c2 27be 86b2 3f3d 8e3a 9c3e 4b9b 533e
000003f0: 46a7 f2be 5958 46be 71e7 cebe f43f cf3e
0.09997281 -0.17732431 -1.10979 -0.5927237 -0.70363784 0.19764543 0.062868655 -0.43098366
0.8366133 -0.7679136 0.0026240717 -0.0019520307 -0.047154218 0.104582876 -0.075242266 -0.1709368
0.27185813 -1.1538076 -0.8766586 -0.46235266 0.096739314 0.26376116 -1.0196788 1.1067687
-0.53957015 -0.0052784127 -0.03503694 -0.04287567 0.30144966 -0.57483846 -0.3583512 0.1675304
-1.1631554 0.04830835 0.16131721 -2.6020307e-05 0.0040697604 -0.16283809 -0.19077712 -0.6644405
-0.076495856 0.24509923 0.1735684 -0.0057030995 0.5588491 0.15058173 -0.32714033 -0.41171324
-1.191724 -1.013525 0.22301027 -0.37069786 -0.12296473 -1.1336992 -0.45432317 -0.11913839
0.0733683 -0.69526595 -0.53030163 -0.14094278 0.2227688 0.3577492 0.29849514 0.7583392
-0.12561697 0.04343455 -0.12774771 -0.20653234 0.33574045 -1.1506929 0.38500583 -0.080757
0.838628 -0.45845 -0.8024743 -0.13058406 -0.031397715 -0.12669016 -0.6291453 0.0015605183
-0.24111263 0.30020335 0.76369566 0.7549513 -0.32164466 -0.06038196 -0.025540624 -0.7125414
-0.57283777 0.6480297 0.15369023 0.14819576 -0.040769566 0.9032196 0.27683187 -0.40063772
0.11597241 0.50435555 -0.048535544 0.4579187 -0.3568671 0.3748674 -0.63612324 -0.20750748
-0.30920678 -0.16747527 -0.015804779 0.65815 -0.23480031 -1.6319379 0.39422268 0.23045518
-0.54331446 -0.56596994 -0.5660017 -0.14059196 -0.5076197 0.7453717 -0.79098773 0.21340522
0.24271403 0.031000135 1.2774532 -0.48630926 -1.0115895 0.06834176 0.19568573 -0.8888613
-0.094870485 -1.0744597 -0.16937438 0.060177505 0.09552905 -0.93301535 -1.1303127 0.001439696
-0.01927014 -0.63471144 -0.76671016 -0.7430115 -0.38728023 -0.22837935 -0.5951338 -1.2009586
-0.03416452 -0.1814098 -0.28020552 -0.08109393 -0.14649718 -0.57317066 -0.037465043 0.07077388
-0.40834236 -0.5319697 0.25445738 0.054059654 -0.16244617 0.66967595 -0.70925283 0.3407779
0.09153684 0.029468164 0.20371641 -0.5439839 0.7664164 0.19650474 -0.08068935 0.9076487
0.5007371 0.17533323 -0.1992312 0.053562373 0.19676289 0.08713537 0.18692009 -0.056059595
-0.4104046 -0.4359342 -0.26494882 -0.42551038 -0.20457059 -0.1460104 -0.36211565 0.9565694
0.17896993 -0.30666584 -0.38873118 -0.5819335 0.49305013 -0.88549364 0.31501478 -0.105291516
-0.11696533 0.42083165 0.48182455 0.10979212 0.04779366 -0.98748565 0.51704943 -0.8387586
0.0017636507 -0.014128949 -0.07826162 -0.015049492 -0.10602304 0.015996985 -0.054247674 1.1999664
0.63899684 -0.6805384 -0.00025483995 -0.00027684117 0.009866991 -0.15961541 -0.41987026 0.22784132
0.11310498 0.60582876 0.6505535 -0.32413262 0.12733366 0.08632762 0.15981215 -0.6093462
-0.3817141 0.18112032 0.29283682 -0.7393994 -0.92269176 -0.63788784 -0.22909789 0.45619425
0.20301937 -0.61507523 0.046241757 -0.14411698 0.10308424 0.13280371 1.1604513 -0.59011865
-0.19130911 0.20213266 0.08955665 1.0970391 -0.09718082 -0.01052787 -0.00058766425 -0.08597467
-0.1638263 0.046801113 0.30513424 0.20664708 -0.47393245 -0.1936964 -0.4041095 0.4047848

w_h.0.bias f4 [64]
00000000: 143f 13bf 19e9 ecbe feea e2bd d658 54bf
00000010: 0ded 42bf 956b 8bbe c4f3 5fbf ff1f a7bd
00000020: 9b13 33be 9ce1 5dbf fd87 25bd 4934 8b3e
00000030: a6fa 22bf 2ec0 ad3e f9fc 88bd 5400 fb3d
00000040: f118 49bf 91f7 33be b350 b9be 707b 1fbf
00000050: 00f6 3bbf 75d0 3bbd 8d0b 97bf d03c 9bbf
00000060: d6b4 44bf 1049 9dbc d11d 5f3c 4493 60be
00000070: 5bc2 2bbf b83b 39be 769d b63e 767b cabd
00000080: b052 d8bd 87fe 26bf 3dae f2bd 388c acbf
00000090: 2ddc 1fbe eba4 89bf 49e9 07bf 3205 2cbf
000000a0: 30b5 75be 0549 28bf 2fd4 0cbd 2c05 d1bd
000000b0: ca5e 8f3e c843 a6bc ed36 08bf 37d7 b4be
000000c0: 768d f4bc 7136 c1be 0573 56be 74ad bbbf
000000d0: b35d 7dbf 4ffe 9bbf e9a9 a03d 261d 65bf
000000e0: 1264 1ebe c832 c7be 1dbd bebe a269 553e
000000f0: c22e b5be a863 23bf 492f f0be d7dd 79be
-0.57518125 -0.4627159 -0.110799775 -0.8294805 -0.7614296 -0.27230516 -0.8748133 -0.081604
-0.17487948 -0.8667238 -0.04041289 0.27188328 -0.6366371 0.33935684 -0.06688876 0.12255922
-0.7855368 -0.17574908 -0.3619438 -0.62297726 -0.7342224 -0.045853097 -1.18004 -1.2127934
-0.76838434 -0.019199878 0.013617949 -0.21931177 -0.6709344 -0.18089187 0.35667008 -0.098868296
-0.105626464 -0.6523213 -0.118496396 -1.3480291 -0.15611334 -1.0753454 -0.5309034 -0.6719543
-0.23994899 -0.6573642 -0.03438204 -0.102060646 0.28002006 -0.020295992 -0.5320881 -0.35320446
-0.02985261 -0.37736848 -0.20942314 -1.4662309 -0.989711 -1.2186984 0.07844908 -0.894976
-0.15467861 -0.3890593 -0.37253657 0.20841077 -0.35387236 -0.6382394 -0.46911076 -0.24401031

w_h.2.weight f4 [32, 64]
00000000: aabb 4abe fd7e eabd c26e 0b3d b8ea 02bf
00000010: 3131 91bc ef09 8f3d a89c 0c3e 8d2f b63d
00000020: b392 ba3e 230e 703f 1633 8e3e 5068 8ebc
00000030: 73c8 463f 2e8e fbba 2327 a03e 7215 6e3e
00000040: ee07 3fbe 4d55 16bd 651c 2abe e3ad d0bd
00000050: ffba 883f 6348 9e3e 39f5 aabe 9cdf c53d
00000060: 3fb4 893e 6f35 24bf 01b5 8fbd d8b6 6e3e
00000070: ffc9 c03e 6805 ce3d 064e 343e 9674 25be
00000080: a619 1d3c cf94 973d 8d15 583e 3a4c 00bf
00000090: ea18 67be e211 393e af11 63be c8fd d0bd
000000a0: 104a 09bb 556f d33c 6a67 f9bc 3215 2d3d
000000b0: 58ed 1d3d 5c79 e43e a7ac e1be c7ee b13e
000000c0: a862 0a3f cbd0 5abc 49d0 f53c f8c5 583e
000000d0: e55e ca3e 57e4 21be 4ac0 2f3e c126 043f
000000e0: 22ab 1fbe d27e 923f c979 5abd a976 15be
000000f0: 9d27 54be e417 fa3e 9135 a83b 2902 e73e
00000100: 06e9 973e b838 d1bd 3a67 22be add1 4bbf
00000110: d718 48bf 6fb4 3a3d f730 bf3e af72 43bd
00000120: ac6f d83b 3661 bf3e c801 463e ab08 07bf
00000130: 60fc f3be 8037 413c 6162 c03d 4565 28be
00000140: 1281 a33d 7980 e83d 5e7b 2d3d 59c4 de3e
00000150: 4746 a1be 4c54 0f3e b9cd a4be e3a4 603d
00000160: e790 e23e 5d38 a8be cfe9 b7be c246 de3e
00000170: e735 9ebe c1a6 ffbc 5cdb 8a3e 5aeb 973d
00000180: fff5 de3e f445 0ebf 4352 88bd c44d 1c3f
00000190: 613b bcbe 5f5b 533e ebba 3cbe 3479 96bd
000001a0: 9369 c8bd 1e7e 83be 4adb 313e 1409 2ebd
000001b0: 5223 0e3f 8480 ff3e 21a7 77be 44ff fa3c
000001c0: 5226 023e 195a 323e ff4b b83d 3f26 c2bd
000001d0: d70e 4d3f d7a6 a63f dc99 9cbe 33ef fdbd
000001e0: c598 d63e de1c b9be 89d4 fb3e c6d2 2abd
000001f0: 3e57 8a3e ba5a 983d 0971 c13d f115 843e
00000200: eb30 b9bd 6d3b c4bc f557 b3bc 999f b43d
00000210: 3e78 a83d e8af e73b a867 f6bd 9330 a13d
00000220: 808f 4bbe d439 293d 730b 1e3a ddae 0cbe
00000230: 5d4b 19be 9fe2 b2bd 5f22 d6bd bd84 533c
00000240: 97ce 2dbc 4e01 74bd 37c7 21bd d39a 2d3d
00000250: e91e 75bd 5d75 1fbe bc4c 72bd 7801 a7bd
00000260: 47df 883c e304 0c3c faad 453d b95a babd
00000270: ca65 c93c 4bd3 afbd 9e1f 8dbd 6e15 a7bd
00000280: f061 8f3d a524 b3bd e630 77bd afa1 a5bd
00000290: 9cb8 0c3d f74c c63c 07b2 28be 280c 60bb
000002a0: 2a00 f5bd f129 5b3d fc88 05be 283c a03d
000002b0: b463 34bb 980b 1e3d a29b 21bd 6975 47ba
000002c0: fd4f 32be 5ff4 33be 6ad9 74bd b275 c8bc
000002d0: 0b4f bbbc 2c9a ecbd 89b6 713d 9f00 2d3d
000002e0: 0aab 973c 9db2 963c a08a 813d 3a3e 40bc
000002f0: 2887 cbbd b87b 933d b116 cfbd c8bb 0cbc
00000300: 0386 8cbb 5807 b73c 6fb0 4b3e 8619 e23e
00000310: c5dd 213e 1930 dc3d abcd 733f 027f 133d
00000320: 5e9e 89be ccf6 2abf 997f 09bf d5dc b33e
00000330: fa79 b33e e6c6 193d ff17 b3be 40aa 8bbe
00000340: 9c7f e7bd 5df7 8d3e c253 d83d 6bfa 0cc0
00000350: 9c91 cc3e 3bc5 8ebf 4f33 28be f7d6 f13e
00000360: fe47 80be a064 043d 5241 88be 5dd3 14be
00000370: 0601 223f c1f5 17bf 6508 c13e 1ff3 a9be
00000380: fcbd e7be 74d1 59be 2f79 a4bf 539a 03be
00000390: cf05 de3e 0db7 0abf f7f7 c23b 7840 33bd
000003a0: 1ba5 3f3d 9073 e4be cb69 98bd 79de 25bd
000003b0: 8fc8 3ebe 519d ab3c 5c55 09bf b7c6 d83e
000003c0: 48f1 3d3e 1237 603e 3729 68be 2022 a4bd
000003d0: ac83 ad3e 5007 82bf bb3b 293e b3c9 e03e
000003e0: cbbe 7e3e 327a 5fbe 0fdd 34be 2424 d5bd
000003f0: 6846 f7be 0d21 39bf f6ec d93e fd45 cc3e
-0.1979815 -0.11450002 0.034041174 -0.511394 -0.017723652 0.069843166 0.13731635 0.08895788
0.36440048 0.9377157 0.2777335 -0.017383724 0.7764961 -0.0019192153 0.3127986 0.23250368
-0.18655369 -0.036702443 -0.16612394 -0.10189416 1.0682067 0.30914602 -0.33390215 0.09661791
0.2689533 -0.64144033 -0.07016946 0.23311937 0.3765411 0.10059625 0.17607889 -0.16157755
0.009588635 0.0740143 0.21101971 -0.5011631 -0.22568098 0.18073228 -0.22174715 -0.10204655
-0.0020948686 0.025809923 -0.03044482 0.04225654 0.038556427 0.4462384 -0.44077036 0.34752485
0.5405679 -0.013355444 0.030006545 0.21169269 0.39525524 -0.15809761 0.17163196 0.51621634
-0.15592626 1.1444952 -0.0533388 -0.14596047 -0.20718236 0.48846352 0.0051333387 0.45118836
0.2966997 -0.10215896 -0.1585969 -0.79616815 -0.781629 0.04558223 0.37342045 -0.047716793
0.006605109 0.37378854 0.19336617 -0.527476 -0.47653484 0.011793017 0.09393764 -0.16444881
0.079836026 0.11352629 0.04235398 0.43509176 -0.3149893 0.13997 -0.32188204 0.05484475
0.44251177 -0.32855502 -0.3592057 0.4341336 -0.309005 -0.031207444 0.27120483 0.074179366
0.43547055 -0.5557549 -0.06656315 0.6105616 -0.36764053 0.20640324 -0.18430679 -0.073473364
-0.09785762 -0.25682157 0.17368808 -0.042489126 0.55522645 0.49902737 -0.24184848 0.030639298
0.1270993 0.17417182 0.0899887 -0.09479951 0.8010077 1.3019665 -0.30586135 -0.12399139
0.4191343 -0.36154836 0.4918559 -0.041704915 0.27019686 0.0743918 0.09445388 0.2579799
-0.090425335 -0.023954118 -0.021892527 0.08819503 0.082260594 0.00707053 -0.120314896 0.07870593
-0.1987896 0.041314915 0.0006028928 -0.1373858 -0.14970155 -0.08734631 -0.104557745 0.012910065
-0.010608337 -0.059571557 -0.039496627 0.04238398 -0.05984393 -0.15572114 -0.05915521 -0.08154577
0.01670803 0.008546087 0.04826162 -0.09099335 0.02458467 -0.08585223 -0.06890796 -0.08158384
0.07001102 -0.08747224 -0.060349368 -0.08087479 0.034355745 0.024206622 -0.16474162 -0.0034186933
-0.11962922 0.053506795 -0.13040537 0.07823974 -0.0027525248 0.038585275 -0.039455064 -0.0007608743
-0.17413326 -0.17573689 -0.059777655 -0.024470184 -0.022864839 -0.115528435 0.05901197 0.04223692
0.018514175 0.018395716 0.06325269 -0.011733586 -0.099378884 0.07201332 -0.1011175 -0.008589692
-0.0042884364 0.022342369 0.19891523 0.44160098 0.15807255 0.107513614 0.952357 0.036009796
-0.26878637 -0.6678283 -0.53710324 0.3512942 0.35053998 0.0375432 -0.34979245 -0.27278328
-0.113036364 0.27727786 0.105628505 -2.2027843 0.3995484 -1.115394 -0.16425823 0.47234318
-0.25054926 0.032322526 -0.26612335 -0.14533754 0.6328281 -0.59359366 0.37701717 -0.331933
-0.45262134 -0.21271306 -1.2849482 -0.12851839 0.43363807 -0.54185563 0.00594997 -0.043762654
0.046788316 -0.44619417 -0.074420534 -0.04049537 -0.18631195 0.020949038 -0.53645873 0.42339107
0.18549073 0.21896008 -0.22671972 -0.08014321 0.3388952 -1.0158482 0.16526692 0.43903884
0.24877469 -0.21823958 -0.17662452 -0.10407284 -0.48295903 -0.72316056 0.425636 0.39897147

w_h.2.bias f4 [32]
00000000: 1886 82b9 ae2f 613d 25e4 11be f2d9 d53e
00000010: 8d2a debd 7d22 afbe cb15 243e 9983 cf3e
00000020: db2b e8bd 08ce 3bbe c569 80be bca3 80bd
00000030: 1b2f 4d3e 0721 553e 3bd5 6ebe 805d 58be
00000040: 5460 71be 330e 5dbe 2f0d 8b3e 9857 dfbc
00000050: fe2d 9fbe a7ef 82be 4449 80be 9466 6bbd
00000060: d842 a73e 2434 713b 4e8b d8bc 0376 8c3e
00000070: 52b5 2bbd c00b 0dbe cc5d 8dbe 0cb2 29be
-0.0002489544 0.05497711 -0.14247186 0.41767842 -0.1084796 -0.34206 0.16023938 0.4053009
-0.1133649 -0.18340313 -0.25080696 -0.0628123 0.200375 0.2081338 -0.23323528 -0.21129417
-0.23571903 -0.21587448 0.27158496 -0.027263448 -0.31089777 -0.25573465 -0.25055897 -0.057470873
0.32668185 0.003680476 -0.026433613 0.27433786 -0.041920967 -0.13774014 -0.27610624 -0.16571826

Ws.0 f4 [32, 32]
00000000: 9f27 0bc0 20e9 6d3f 5df1 74bf 2f2d fdbe
00000010: c482 3e3f 1ca1 0fbf 910f ecbe 9500 f03f
00000020: 953a a1be 650d 903f d1be 18c0 aab3 b8bc
00000030: 3b04 293f 16e3 bbbe eb44 8d3e 571d 173c
00000040: f972 38bd 6a1f fabe 6c1b 8a3f 992a 0540
00000050: 8b98 77bf 19ee 1abf 8fc3 08bf 2c33 cb3e
00000060: 3cce 65be 6a89 f73c 54d3 673f 9c88 ef3f
00000070: 394b 34be e30d 45bf 9b3b 9ebe 810e 05bf
00000080: f3ec b5bf 8174 a2bf f154 cd3e 5945 cc3f
00000090: eeb3 eebf 5073 633f ec81 823e 6801 c6be
000000a0: 4c28 f83e 2ce8 83bf 7961 d2be dd59 ab3d
000000b0: 19cf f03e fe00 83bf 00f3 3a3f d26e d4bf
000000c0: a2fc 3bbd 68e9 ba3f cc07 86bf 6b6d b93e
000000d0: 2150 2bc0 3175 a5bf 0e3b 5a3f 02b7 b5bd
000000e0: 6974 193e fbe9 9f3f 5273 673f cfed fb3d
000000f0: 42a2 80be ac91 06c0 8f9a 163f 816a dd3e
00000100: 96d6 7b3f 66e5 87c0 1378 e1be b836 373e
00000110: a4a2 d4bf 7984 9d3f 376f 3dbf 8c71 30bf
00000120: a447 4ac0 90cc 7c3f 288e 853f a266 793f
00000130: 83a6 2cc0 ea84 a3bf 5f96 213f c1d7 10c0
00000140: c870 1340 6265 ca3e 1cb2 4c3f 167b 953f
00000150: c9e6 a2be b60d ac3e 137f f43d fd7b 2fbf
00000160: 2b36 1340 4ac5 1cbf cd0a e1bd a159 bbbf
00000170: 5599 233f ab5a 953f 137b 5e3f e80b 2f3f
00000180: 4584 4ac0 6463 643e a94e 453e 3c0a 56c0
00000190: 24e1 193f 7c37 823f 88ab a83f 7ff7 a0be
000001a0: 39e6 253f 07dc 393f 3444 b0bf dc9d 3c3f
000001b0: 844d 533f a130 663e 441c 37be b0cd ff3e
000001c0: 0919 5d3e 0f8d 84be b8d1 933f 488b 0b40
000001d0: 75bc cb3f f81f c63e 50fb 0ec0 74a9 6abe
000001e0: 0fb7 d53f 63fd 8abf 7afc 433f 30fd a8be
000001f0: 6d4e 4fbe 6a68 8fbf 8641 503f a0fd 62bf
00000200: 9738 fb3e c6e1 c3be db07 33bf 13c1 54c0
00000210: d49e 3c3e 1eb7 073f 9e5b 30c0 9fe9 13c0
00000220: faa2 06bf 9468 c93f 3b26 0140 c2db df3d
00000230: a764 92bf 2fb1 86be f296 793f c07f b2bf
00000240: 2af4 343f 202f 9fbf 4831 e7bf cf45 d9be
00000250: d92f eebf ae24 68be f8cc 593f b4b6 6f3f
00000260: 184d 0fbe 87e9 08c0 b78a 40bf 6494 8cc0
00000270: 6cf8 a73d af60 693f 79b2 c7be 120d 48bf
00000280: 2042 f4be d89f 09c0 275e 59bf 95fb 543e
00000290: d137 cb3e c3dc b9bf 545a f8bd f9ad b43f
000002a0: 82af 0b3f 1aa3 7e3e 05cb 96be 882f 283d
000002b0: 62d8 c03f c7a2 273f b2b0 c2bf 8f44 d1bf
000002c0: 973c 40bf cca9 cbbc 4316 3ac0 8da1 2b3e
000002d0: 5ee3 d73f cf16 34bf 91fa 423f 9b50 90be
000002e0: f5a6 17be d537 20be 0f50 583f c29c 33c0
000002f0: 8943 5dbf b3fb c73d 9886 3d3e 741c ee3c
00000300: 381d 30bf 4539 073e fcc4 6d3f 0c34 1540
00000310: a2f7 debd bb3b 8bbf a031 823e cfc7 b93f
00000320: 7d70 2840 aaf8 d6bd 67f2 a7bf c328 c6bf
00000330: fc7d 213f 087c 223e ec0b 3a3f add1 72bf
00000340: 01ed 9dbf 7a1f 89be ac3a 09c0 7d7f 523f
00000350: 3aec bb3e 0192 9abe b569 11c0 c17b 8abe
00000360: 42e1 2fbe a9e7 f1bf bba9 40bf 2b10 2b3f
00000370: 52e9 843f 040d df3f 1a1f 79bf 5eb9 0f3e
00000380: f1ab 703f f20e 333f 1edb a2be ff09 c73e
00000390: 63a6 b83e 86bf 2cbf 97d1 aebf da7f dfbe
000003a0: 5d07 3a3f 041a 803e 889a f83e 7a81 babf
000003b0: 74de a0be c6f3 36c0 4509 f63f 7654 1abf
000003c0: c0c8 23be 5be9 213f a4a0 2d3f 7903 d63e
000003d0: d0eb e23f 362b cf3d 9034 9bbf abf1 b8bf
000003e0: 8d22 a2bf c407 673e 2a42 3abe afd3 3c3e
000003f0: b0f6 88bf a477 243f b9fa 83be 8603 cf3f
-2.1742933 0.92933846 -0.9568079 -0.49448535 0.7441828 -0.5610521 -0.46105626 1.8750178
-0.31490007 1.1254088 -2.3866465 -0.022546608 0.6602208 -0.3669669 0.27591643 0.009223304
-0.04503152 -0.48852092 1.0789618 2.080725 -0.9671714 -0.6051956 -0.534234 0.3968748
-0.22441953 0.030216891 0.90556836 1.8713565 -0.1760682 -0.76974314 -0.3090485 -0.51975256
-1.4212936 -1.2691804 0.40103868 1.5958663 -1.864866 0.8884783 0.25489748 -0.38672948
0.48468244 -1.0305228 -0.4108999 0.083667494 0.47033003 -1.0234678 0.7302704 -1.659632
-0.045895226 1.460248 -1.047113 0.36216292 -2.6767657 -1.2926389 0.8524636 -0.088727966
0.14985813 1.249328 0.9041034 0.12301218 -0.25123793 -2.102641 0.5882959 0.4324532
0.9837431 -4.2467527 -0.44036922 0.17891967 -1.6612134 1.2306052 -0.73997825 -0.6892326
-3.1606226 0.9874964 1.0434008 0.9742223 -2.697663 -1.2774937 0.63120073 -2.2631686
2.3037586 0.39530474 0.79959273 1.1678188 -0.318167 0.3360421 0.119383 -0.68548566
2.3001812 -0.6123854 -0.10988388 -1.4636728 0.6390584 1.1668295 0.86906546 0.6837754
-3.164323 0.2230354 0.19268288 -3.3443747 0.6010916 1.0173182 1.3177347 -0.31438825
0.64804417 0.7260136 -1.3770814 0.73678374 0.82540154 0.22479488 -0.17881876 0.49961615
0.21591581 -0.2588887 1.1548376 2.180376 1.5916888 0.38696265 -2.234089 -0.22916204
1.669649 -1.0858577 0.76557124 -0.33005667 -0.20244761 -1.120374 0.8134998 -0.8866825
0.49066612 -0.3825819 -0.6993386 -3.3242843 0.18419963 0.5301379 -2.7555919 -2.311134
-0.5259243 1.573504 2.0179584 0.10930587 -1.1436967 -0.26307055 0.9749595 -1.3945236
0.70685065 -1.2436256 -1.8061914 -0.42436072 -1.8608352 -0.22670242 0.8507838 0.9363816
-0.13994253 -2.1392534 -0.7521166 -4.393114 0.082016796 0.9116315 -0.3900335 -0.78144944
-0.477067 -2.150381 -0.8490929 0.20799096 0.39691022 -1.4520496 -0.12126604 1.4115592
0.5456468 0.24866906 -0.29451767 0.041060954 1.5066035 0.65482754 -1.5210173 -1.6349047
-0.7509245 -0.024861239 -2.9076087 0.16760845 1.6866262 -0.70347303 0.76163584 -0.28186497
-0.14809783 -0.15646298 0.8449716 -2.8064427 -0.86431175 0.09764805 0.18508375 0.029066302
-0.68794584 0.1320544 0.928787 2.3313017 -0.10887076 -1.0877603 0.25428486 1.4514102
2.6318657 -0.10496648 -1.312085 -1.548119 0.6308286 0.15867627 0.7267444 -0.9485119
-1.2337953 -0.26781827 -2.144206 0.8222578 0.36703664 -0.30189517 -2.2720768 -0.27047542
-0.17175773 -1.8898822 -0.7525899 0.66821545 1.0383704 1.7425847 -0.9731308 0.14035556
0.9401236 0.6994468 -0.31807798 0.38874814 0.36064443 -0.6747974 -1.3657712 -0.4365223
0.72667485 0.25019848 0.48555398 -1.4570763 -0.31419718 -2.8586287 1.9221579 -0.6028513
-0.15994549 0.632467 0.67823243 0.41799524 1.7728214 0.10115664 -1.2125416 -1.4448751
-1.2666794 0.22561556 -0.18189302 0.18440126 -1.0700283 0.6424506 -0.25777224 1.617295

Ws.1 f4 [32, 32]
00000000: e0e3 71bf f4b9 7cbf 9734 e4bf b1c7 41bc
00000010: 61ce c3bd 9771 763f ca86 d13e 31ec 05bf
00000020: 817b 63bf 2e36 1d3f 00e3 4fc0 6236 1ebf
00000030: 0294 34bd 498e 8dbf e369 a1bf 60a9 893f
00000040: aa49 0540 30ef 91bf 977c 0ec0 96f4 86bf
00000050: 0283 ddbf d894 0f3f 8537 07bf b479 4bbf
00000060: d150 783f 4b02 2340 fd33 b5bf 6584 0bc0
00000070: e942 88bf e673 f8bc 532a 8d3f 3d0a 42bf
00000080: 3a56 0640 581a 88bf ee90 a8bf d5ae 2c3f
00000090: 5c1a 7dbe 4f7f 78bf 9a37 123f d886 983f
000000a0: af57 bf3e 7eb4 6b3f 5b9a e93f dd85 b9bf
000000b0: 1bab 4f3e 1dc0 a63e 9df8 0dbf 9573 0ebf
000000c0: c520 18bf 2489 6dbe 54ad 613e d4f6 04c0
000000d0: 09dc 22bf e542 48bf 498a d43e 2183 a2bf
000000e0: a71f a63e 1b25 3ebf fa45 bf3e ede7 793f
000000f0: 4ade 833e 2dac f03e 81e9 c23f 9f07 40bf
00000100: 433c 8e3f a7fe 8abf efa2 56bf 7e03 d9be
00000110: 5ff5 83bf 1243 aa3e 8b55 8cbf 4809 f8bf
00000120: 2cea dd3e ace4 a73d 97f0 323f 3b5d cdbe
00000130: 25a2 523f 9113 dabe 5298 e23f 52ad 2dbf
00000140: 0ea9 58be 0446 ba3e 2c55 0dbf e918 c53c
00000150: 6a2d 04bf 2fdc 75bf f322 b3be e1a2 e3bf
00000160: ceb1 613f 1134 32c0 b050 0bbf e4dc 30bd
00000170: 3734 8d3f 1c28 9ebf eb1b 88bf cac1 773d
00000180: 685b aebf 5163 423f 1229 46be 6482 babf
00000190: 1090 dfbf 0848 4dbf acc5 5d3e 95a5 a03e
000001a0: 1234 8d3e d00e 4dbf 6e22 c9bf 5860 d0bf
000001b0: a941 99be 2d89 603f 42a0 8ebf 499b 24be
000001c0: 74e8 bebf 0ee1 edbf bf5c 92bf 730d 72bf
000001d0: 0c4e 3a3f f6b3 91be 388b 21bf 5b18 c6bd
000001e0: c8d3 3ebe 4657 963e ab80 b6be 1919 41be
000001f0: 3a0f 083f 1a81 87bf 4dac 82bf 8fcc 73bf
00000200: 6ef6 b63f 5202 1f3e 8062 ddbf e561 e4bd
00000210: 117d 76bf b78e 28bf a4d0 80bd e198 19bc
00000220: 015b 99bf 5b93 28bf 866f da3e f402 8a3f
00000230: 7a40 8abf fb61 40bc ce6e 90bf e0ed 65bf
00000240: 81fb cebd b737 a83f 6256 40bf d0c7 213f
00000250: 8da5 6abe d5f0 c7bf ec90 a43f af8e 35c0
00000260: f0b1 b83f 65b0 8cbf baa9 bcbf 0b0c 86be
00000270: 26e0 0540 ad04 163f db22 04bf 4ea9 a6be
00000280: ca2a acbf a8b9 c8bd e975 b33f f127 7f3f
00000290: 8ac5 303f 9236 96be 937d a03f 3be5 5fbf
000002a0: 5e34 8ebe 6294 efbf fe4d 9f3e 1b95 0c3f
000002b0: 02f3 72bf 6d04 c63e f30c 87bd 1ca6 0dbf
000002c0: 2cd7 5bbf 1bc2 9dbd 64e1 b83f 97db 4cbd
000002d0: 1fbb 353f ecea 92bf e56d 643f 2a9c 56c0
000002e0: 2d36 efbc 8969 e2be 4087 2ebf c51c 9dbf
000002f0: deb9 d83f 6dac cfbf 59e6 d5be beac dcbe
00000300: ee57 37bd dbb5 6a3f 3e25 38bf 0d27 c7be
00000310: 92df 753f 3bd3 6d3e d683 9cbd f163 023f
00000320: 8063 d2bf dc51 0fbf 1f36 b13e a68f 7a3e
00000330: 6e84 48bf f284 1c3f b183 a13f 6807 7d3e
00000340: 379f 2ebf 7eb1 8abf 59e8 60bf ba0a f2be
00000350: e0ee 0e3f a2f9 7ebe a5bb 86be 34ff 45c0
00000360: 5b66 503f 75e5 afbf 8053 27be ae76 0cbf
00000370: 85e6 993e d267 883f ec4a 6cbf 9040 a1be
00000380: cf25 c6be b80c 88bf 5d6c 8d3f b290 c9bf
00000390: e416 303e 8165 0ebf 464d bebf 9600 bebf
000003a0: 0e22 003f 2e6f 6dbf b573 aebf b0ab f8bf
000003b0: 65f1 b3bf 8446 e53e 449d 853e 2e29 32bf
000003c0: 4e6a 463e 2866 eabf d682 2d3f 088b ccbe
000003d0: ba9d 183f 5faa 283f adcf c8bf 113a 893f
000003e0: 8ea5 833f b74a 5d3f 6443 db3d 4a2f 83be
000003f0: 89af af3c faec 5dbf 6ba4 2ebf 4b1e 4d3f
-0.94488335 -0.9872124 -1.7828549 -0.011827395 -0.09560848 0.96267074 0.40923148 -0.52313524
-0.88860327 0.61410797 -3.24823 -0.6180173 -0.044086464 -1.1059047 -1.2610439 1.0754814
2.082621 -1.1401119 -2.2263544 -1.0543392 -1.7305605 0.5608649 -0.5281909 -0.7948258
0.96998316 2.547015 -1.415649 -2.1799557 -1.0645419 -0.030328702 1.1028541 -0.7579687
2.0990129 -1.063304 -1.3169229 0.6745427 -0.24717087 -0.9706926 0.5711609 1.1916151
0.37371585 0.92072284 1.825023 -1.4493977 0.20280115 0.32568446 -0.5545748 -0.55645114
-0.59425 -0.23196846 0.22038776 -2.0775652 -0.63616997 -0.7822707 0.41511753 -1.2696267
0.32446024 -0.7427537 0.37358075 0.97619516 0.2575553 0.4700636 1.522751 -0.7501163
1.111214 -1.0858964 -0.83842367 -0.42385477 -1.0309256 0.33254296 -1.0963606 -1.9377832
0.4334272 0.081979126 0.6989836 -0.40110192 0.8227866 -0.42593053 1.7702734 -0.6784259
-0.21158239 0.36381543 -0.55208087 0.02405973 -0.51631796 -0.960391 -0.34987602 -1.7784082
0.88161933 -2.784428 -0.54419994 -0.043179408 1.103156 -1.235599 -1.063352 0.060487546
-1.3621645 0.75932795 -0.19351605 -1.4571042 -1.7465839 -0.80188036 0.21657437 0.3137633
0.2757879 -0.8010073 -1.5713632 -1.6279402 -0.29932907 0.87709314 -1.1142657 -0.16074862
-1.4914689 -1.8584306 -1.1434554 -0.9455177 0.7277534 -0.28457612 -0.63103056 -0.09672614
-0.18635476 0.2936346 -0.3564504 -0.1885723 0.53148234 -1.0586274 -1.0208832 -0.95234007
1.4293954 0.15528229 -1.7295685 -0.111514844 -0.96284586 -0.65842766 -0.06289795 -0.009374828
-1.1980897 -0.65849847 0.4266321 1.0782151 -1.0800927 -0.01174211 -1.1283815 -0.89816093
-0.10106564 1.3142003 -0.7513181 0.63195515 -0.22914715 -1.5620371 1.2856727 -2.8368337
1.4429302 -1.0991331 -1.4739296 -0.26181063 2.091806 0.58600885 -0.51615685 -0.32551044
-1.3450558 -0.09801036 1.4020358 0.9967032 0.6905142 -0.2933851 1.2538322 -0.8745915
-0.27774328 -1.8717158 0.3111419 0.54915017 -0.9490205 0.38675252 -0.06594267 -0.5533159
-0.858752 -0.07703038 1.4443784 -0.050014105 0.7098865 -1.1477942 0.89230186 -3.3532815
-0.029200638 -0.44221142 -0.68175125 -1.2274405 1.6931722 -1.6224495 -0.41777304 -0.43100542
-0.04476159 0.9168374 -0.7193183 -0.3889698 0.96044266 0.2322511 -0.07642333 0.5093375
-1.6436615 -0.5598428 0.34611604 0.2446886 -0.7832707 0.6114036 1.2618314 0.24709857
-0.6821169 -1.0835416 -0.87854534 -0.4727381 0.55833244 -0.24899915 -0.26315036 -3.0937014
0.8140618 -1.37419 -0.16340446 -0.5486859 0.30058685 1.0656683 -0.9230182 -0.3149457
-0.3870072 -1.0628881 1.1048695 -1.5747283 0.17196232 -0.5562363 -1.4867332 -1.4843929
0.50051963 -0.9274777 -1.3629061 -1.9427395 -1.4058043 0.44780362 0.26096547 -0.69594085
0.1937649 -1.8312426 0.67777765 -0.39949822 0.5961567 0.65884966 -1.5688378 1.0720845
1.0284898 0.8644213 0.10706213 -0.25622016 0.021446006 -0.8668972 -0.6821963 0.8012435
