crowd_nav/our_circle/rl_model_5.pth (torch, 143871 bytes, 33 tensors)

w_a f4 [32, 32]
000000 15 f2 fe 3b 80 3a 33 be 82 33 6b 3f a6 db c4 bf
       0.0077803233 -0.17502785 0.9187547 -1.5379531
000010 ae 4e c1 bf d3 80 99 bd a2 63 69 3e 08 b9 80 3e
       -1.5102136 -0.074952744 0.22791913 0.25141168
000020 e4 71 ef 3f f7 1c c0 3e 39 4b 4b be 14 3d ed bc
       1.8706632 0.37522098 -0.19852914 -0.028959788
000030 b8 5b fe be 62 53 a6 be 53 db 7d bc 35 5c 3a bf
       -0.4967935 -0.3248549 -0.0154941855 -0.72796947
000040 e0 79 80 bf b7 b5 cb be b7 a8 11 3d 46 e8 7d 3f
       -1.0037193 -0.39787075 0.03556129 0.99182546
000050 a3 1b ad 3f 6b 19 3b bf a0 87 72 3e 70 46 f4 3d
       1.3524059 -0.7308566 0.2368455 0.119274974
000060 1a 0c b9 be 8a e4 15 be 6c b1 89 3e 34 11 81 bf
       -0.36142045 -0.14637962 0.26893175 -1.0083375
000070 c2 4f ee be b4 bf dd bf f7 33 c4 bf b2 6d f6 bf
       -0.46545225 -1.7324128 -1.5328358 -1.9252226
000080 ad 09 d0 be 71 18 0e 3f 38 03 09 bf bc 6c b7 bf
       -0.40632382 0.55506045 -0.53520536 -1.4330058
000090 1e 08 1c 3f 5c b3 5b bd 7e 0a 3f bd 29 9c 08 3f
       0.60949886 -0.053637847 -0.046640866 0.5336328
0000a0 0c 32 41 3d d6 b7 b2 be c0 be 8d be cb 6f 2a 3f
       0.04716687 -0.3490588 -0.27684593 0.6657683
0000b0 ad 96 6a 3e 16 cc d4 bf e4 e6 57 bf e3 54 76 bf
       0.22909041 -1.6624782 -0.84336686 -0.96223277
0000c0 e1 63 e1 3e 6e 02 5c 3e 8b 4d 78 bf c1 41 82 3e
       0.44021514 0.21485302 -0.9699332 0.2544079
0000d0 0e 90 7e 3f ce 00 61 bf 06 da aa bf ba 74 c2 bf
       0.9943856 -0.8789185 -1.3347785 -1.5191872
0000e0 a2 e1 cd 3e 1e 26 5a 3f 69 f9 da be 81 0f c2 3e
       0.40211207 0.8521441 -0.4276841 0.37902454
0000f0 3d d6 77 3e da b3 84 3f 33 a3 c9 3f dd e8 71 be
       0.24202819 1.0367386 1.575293 -0.23623987
000100 15 42 9e be 0d 2e 46 bf 33 94 1b be 76 25 86 3d
       -0.30909792 -0.7741402 -0.15193252 0.06550114
000110 e5 18 2c 3d b3 47 ac be 72 6e 8d 3e 15 98 54 bf
       0.04201593 -0.33648452 0.27623326 -0.8304456
000120 06 d7 a9 3e 15 85 06 3f 02 58 22 3f 63 5b 3c be
       0.33171862 0.5254682 0.6341554 -0.18394236
000130 70 7c 24 bf 0b a9 94 3f 35 48 37 bf 0f 53 82 3e
       -0.64252377 1.1614088 -0.71594554 0.25453994
000140 16 c0 1f bf e8 5f 6e bd 1d f4 d4 bf f5 82 2d 3e
       -0.62402475 -0.058196932 -1.6636997 0.16944487
000150 ad 60 f5 3e 2e d5 9f 3c 56 5b 82 3f 9a b1 dd bf
       0.4792532 0.019510832 1.0184124 -1.7319825
000160 e6 f1 9f bf 93 85 01 3f f6 30 c8 be 7e 33 a6 3f
       -1.2495697 0.50594443 -0.39099854 1.2984464
000170 f4 80 87 be 3e 36 9c bf 13 d2 0b 40 bf b6 9d bf
       -0.2646557 -1.2204053 2.184697 -1.2321395
000180 21 44 30 be ae 96 81 3f c9 47 be be 02 4d f9 3e
       -0.17213489 1.0124109 -0.37164143 0.48691565
000190 8f a0 5d 3f 89 7b 7f bf 9c 72 8a 3f 4f cc 18 bf
       0.8657312 -0.99797875 1.0816226 -0.5968675
0001a0 ad f7 f2 3e 6d c6 f3 be 94 08 e0 be 9e 41 0b bf
       0.47454587 -0.47612324 -0.43756545 -0.54397
0001b0 67 70 0a 3f 2a 80 39 3e 46 20 34 3f d6 f6 2e bf
       0.5407776 0.18115297 0.70361745 -0.6834539
0001c0 a8 7f ce 3e 48 d0 6a 3f d0 16 e0 3e 01 6c b5 3e
       0.4033177 0.9172406 0.43767405 0.35433963
0001d0 92 fd 10 bf f7 6d 14 bf 1c 37 12 c0 22 a3 47 bc
       -0.5663692 -0.57980293 -2.2846136 -0.01218489
0001e0 42 3e a5 bc 00 52 07 3f 2b ae 45 c0 ac 2c 93 3f
       -0.020171288 0.528595 -3.0887554 1.1498008
0001f0 95 63 69 bf 4a be 41 40 26 47 fa be ea 62 33 bd
       -0.91167575 3.0272393 -0.48882407 -0.043795504
000200 1e 82 2b 3e 43 25 06 bf 0e 27 e7 be e4 2b 82 bf
       0.16748855 -0.52400607 -0.45146984 -1.0169644
000210 9c 1f 94 bf b7 48 7a be 2a fe bd 3d 31 7c 23 bd
       -1.1572146 -0.24441801 0.092769936 -0.03991336
000220 fa 98 8a 3d 87 30 9c 3f b9 95 84 3e 6a da f7 3c
       0.06767459 1.2202309 0.2589548 0.030255515
000230 d0 6a 90 bf f2 6a a0 3f 35 1a b4 3f 77 61 a5 3f
       -1.1282597 1.2532637 1.4070498 1.2920369
000240 0e 86 80 bf d8 13 09 3e 83 58 1e 3e 77 d9 40 3f
       -1.004091 0.13386476 0.15463452 0.75331825
000250 b5 42 49 bf 03 fe 81 bf c4 a7 4a bf 25 a4 91 3f
       -0.7861741 -1.0155643 -0.7916224 1.1378218
000260 f1 f9 8c bf 50 67 80 be 83 19 5b 3f 63 1d 81 be
       -1.1013776 -0.2507882 0.855858 -0.25217733
000270 e6 52 a3 bf cb 42 8b bf ee a2 5b bf a5 02 04 3f
       -1.2759674 -1.0879759 -0.85795486 0.51566535
000280 50 54 9a be 60 85 53 3f 6b 6d fd be a9 db 1d bf
       -0.3014245 0.8262539 -0.49497542 -0.616633
000290 17 c7 b7 3f 61 d1 a5 be 6d 60 be 3f 92 1d 8e 3f
       1.4357632 -0.32386306 1.4873177 1.1102774
0002a0 c5 fe 4c be 0f 0c 25 3e 37 db c5 3d 70 52 de 3f
       -0.20019062 0.16117881 0.096609525 1.7368908
0002b0 67 cf 12 bf 1e e5 86 be f6 a8 58 bf 9a 53 b3 be
       -0.5734772 -0.26346678 -0.84632814 -0.3502472
0002c0 82 f3 0f be 7d be ab c0 b0 7d a6 3c 2d c2 c0 3e
       -0.14057735 -5.367003 0.020323604 0.37648144
0002d0 4f e1 37 bf 1b 18 80 3d c0 c7 a8 bf 42 58 26 3e
       -0.7182817 0.06254598 -1.3185959 0.16244605
0002e0 b6 c1 ce bf 7d fd 42 bf 45 6e 2a be b4 5b b6 3e
       -1.6152866 -0.7616804 -0.16643627 0.3561684
0002f0 62 61 d2 bf 69 14 d1 bf 15 fc 55 be 8b 5b 97 bf
       -1.6435969 -1.6334354 -0.20896943 -1.1824812
000300 12 84 3a bf 89 94 10 bf 16 af b7 be 53 3a 2e be
       -0.72857773 -0.56476647 -0.35875767 -0.17014436
000310 4c a1 b5 3e 09 f3 85 3f bf e5 ba bf 76 68 73 3e
       0.35474622 1.0464793 -1.4601363 0.23770317
000320 46 10 81 bf 40 a4 c8 be d2 66 ff be fd 0d 24 bf
       -1.0083091 -0.39187813 -0.49883133 -0.64083844
000330 f1 9c be be 74 47 0a 3f d9 10 43 be 53 98 14 bf
       -0.37229112 0.5401528 -0.19049396 -0.5804493
000340 77 97 64 3f 0d 09 0d bf 35 24 53 3f 37 92 f1 bf
       0.89293617 -0.55091935 0.8247712 -1.8872746
000350 c7 e7 5b bf 28 2e 1e 3f 02 be 08 bf 5e 9a 7b be
       -0.8590054 0.6178918 -0.5341493 -0.24570605
000360 86 8e a2 be 79 fe 1d c0 1f 44 73 be 05 30 0c be
       -0.31749362 -2.4686568 -0.23756455 -0.13690193
000370 87 81 99 3e 22 41 9a be d2 9b aa bf 6a f9 b1 3e
       0.29981634 -0.30127817 -1.3328803 0.347606
000380 d0 4f e1 3e 6e cb d1 be 1c db 50 be 41 3a 80 3e
       0.44006205 -0.40975517 -0.20396084 0.25044444
000390 ef 4d 1d 3f d7 bf 88 3e e8 e1 a9 3e 30 1a db bf
       0.6144704 0.26708862 0.33180165 -1.7117367
0003a0 cd 3d f6 bf 23 92 8d 3f e4 52 bb bf c7 32 e4 bf
       -1.923761 1.1060222 -1.4634671 -1.7827996
0003b0 84 2f 48 3f b0 3a b5 bf f9 ff a8 bf 7f ab b1 be
       0.78197503 -1.4158535 -1.3203117 -0.34701154
0003c0 b1 62 85 3d 0d e1 37 bf 10 9e 90 3f 60 1f 4c 3f
       0.065129645 -0.71827775 1.1298237 0.79735374
0003d0 7c 87 3e c0 a8 84 3c 3e bd 1b 83 bf 30 b8 16 c0
       -2.9770193 0.1840998 -1.024284 -2.354992
0003e0 d3 e1 cb bf 68 56 03 3e ca 03 a3 be 71 98 af 3f
       -1.5928291 0.1282593 -0.31838828 1.3718396
0003f0 ae ce a7 bf c4 43 0a c0 a1 5a 83 bf 56 c6 ef 3d
       -1.3109949 -2.160386 -1.0262033 0.117077515

w_r.0.weight f4 [64, 9]
000000 e8 00 0c 3f 01 1c cf 3e fd 2d 01 3d 2c 2d e1 be
       0.5468888 0.40451053 0.031538 -0.43979776
000010 8e a8 a0 be 60 e2 06 3d c0 d4 ec be 79 de b8 be
       -0.31378597 0.03293073 -0.46256065 -0.36107233
000020 2b 3e ad bc da 14 c6 bd 04 55 f8 be 14 3b 07 bd
       -0.021147808 -0.09671946 -0.48502362 -0.033015326
000030 f2 d8 5b be 36 16 52 be db df c6 bd 4b 2f 9a be
       -0.21469477 -0.20516285 -0.09710666 -0.30114207
000040 d2 30 e5 be d3 5f 75 be ad b9 cb 3e f0 a4 96 3e
       -0.4476381 -0.23962335 0.39790097 0.29422712
000050 7a f1 95 bf 00 7a 58 3e f0 87 af bd 02 81 a1 be
       -1.1714318 0.2114029 -0.0857085 -0.31543738
000060 12 3f 14 bf 6c fc 48 be 40 dc 6b 3d f9 59 fa be
       -0.5790874 -0.19627541 0.057583094 -0.4889677
000070 6d 99 38 be 91 f0 93 3c 47 f0 8e bd 2e 78 55 3e
       -0.18027277 0.018059047 -0.06979423 0.20846626
000080 db ca 2b be 06 a0 25 be ba 34 24 3e d8 d9 0c 3e
       -0.16776602 -0.16174325 0.16035739 0.13754976
000090 c8 5d 53 bd 21 aa 39 3f c8 71 38 bc 22 c0 11 3c
       -0.05160311 0.7252522 -0.011257596 0.008895906
0000a0 f0 a8 40 be 50 75 1a be cc 5d 4c be 66 11 f9 be
       -0.18814445 -0.15083814 -0.19957656 -0.48646086
0000b0 26 b8 98 bd 3b 3e b4 3e 57 de 94 3e bb 48 35 3d
       -0.074569985 0.35203728 0.29075882 0.044258814
0000c0 69 ee 0a 3d cb f8 53 3d 30 b3 67 3e 74 6e 73 3e
       0.033918772 0.05175094 0.22626948 0.23772603
0000d0 f2 f2 4f 3c be 26 1a be 38 bc 1b be 2d 10 0a 3e
       0.0126922 -0.15053841 -0.15208519 0.13482733
0000e0 02 38 79 3f 4d ff e1 3e 9e 7e 63 3e 18 eb 54 be
       0.97351086 0.44140092 0.2221627 -0.20792806
0000f0 2d e4 15 3c 75 31 e6 be 9b b5 60 3e 89 8f 8b be
       0.00914864 -0.44959608 0.21944277 -0.27257946
000100 0d d2 25 3e 7f ad 62 bf ab 71 f7 bd 86 f9 39 be
       0.1619341 -0.88545984 -0.12082227 -0.18161592
000110 00 77 56 3c 7f 26 36 be 59 af 1f 3e 2b 7f bb 3d
       0.013089895 -0.17788123 0.15594234 0.09155115
000120 29 90 56 bf a7 e5 de 3d b4 92 8e 3c 4a 5d 94 3d
       -0.8381372 0.108836465 0.017403938 0.07244356
000130 1b 04 8f 3e c6 a7 ee 3d e3 83 5a be 63 89 d4 be
       0.2793282 0.11653094 -0.21339373 -0.41511068
000140 7b 59 88 be e8 31 8a 3e b2 98 d7 3d 4b db 0f 3f
       -0.26630768 0.269912 0.10527171 0.5619399
000150 2d 56 99 3e f0 06 a9 bd de 28 2f 3e 99 c2 06 bc
       0.2994856 -0.08253276 0.17105433 -0.008225107
000160 47 12 0c bf 6b 86 36 3e f3 3f 7c be 51 7d fb 3e
       -0.5471539 0.17824714 -0.2463377 0.49119046
000170 fa 76 1b bd ab b7 03 3d 38 4c 0f be 2b 77 3b bd
       -0.03795526 0.03215758 -0.13993919 -0.045767944
000180 75 65 aa 3e 33 bf 10 be eb 0a 8d 3c 97 9e 8d 3c
       0.3328053 -0.14135437 0.01721712 0.017287536
000190 ef 81 88 ba 04 db 39 be 66 8f 4f be 2a c1 a4 be
       -0.00104147 -0.18149954 -0.20269546 -0.32178622
0001a0 ea c6 94 3e 11 8c e5 bd b8 45 c5 bc 23 9b 3f 3e
       0.2905801 -0.11208356 -0.024081096 0.18711524
0001b0 d5 b6 e6 be e4 cd fd 3d 84 37 42 bf d4 fb ef be
       -0.45061365 0.12392786 -0.7586596 -0.46871817
0001c0 70 54 96 bd f8 1c 43 be 6f 0d 1a bf 55 b6 e3 bd
       -0.07340324 -0.1905402 -0.6017675 -0.111187615
0001d0 40 50 5a 3e d5 3c 29 3f 32 c6 31 be 3a f9 81 be
       0.21319675 0.6610845 -0.17360762 -0.25385457
0001e0 dc dc 07 3e 86 2c 09 3e a8 5e 01 be d7 fd b7 be
       0.13267845 0.1339589 -0.12633765 -0.35935852
0001f0 9f aa 0f be 0b 24 31 3e 11 d2 b3 3d bc 05 3c 3e
       -0.1402993 0.17298906 0.08780301 0.18361562
000200 72 c8 33 bf c0 55 62 bf 1e 72 a4 be 4b 98 62 be
       -0.7022773 -0.88412094 -0.32118315 -0.22128408
000210 33 38 9b be 73 cc 37 bf 20 05 d6 3d 0b 98 17 3f
       -0.30316314 -0.7179634 0.10450196 0.59216374
000220 35 f9 d9 bd 83 c4 86 bf de 2a 33 3f 26 db b2 3d
       -0.106432356 -1.0528721 0.69987285 0.087332055
000230 8f d6 89 be 01 ed 63 bf 90 fa 49 bf 66 23 be 3d
       -0.26921508 -0.89033514 -0.78897953 0.092840955
000240 ae e3 c4 3d f8 42 5b 3e 21 d4 52 3e 86 43 b6 bd
       0.09613739 0.21412265 0.20588733 -0.08899598
000250 18 42 5a be 56 47 48 bb 7d 5c 81 be 50 d6 bd be
       -0.21314275 -0.0030560098 -0.25265875 -0.3707757
000260 10 ba 40 3e 61 47 c5 be 73 2f 37 3e db dc 9f bf
       0.18820977 -0.3853102 0.17889194 -1.2489275
000270 4b 22 2d 3f d8 33 55 3e 00 d7 23 bd e9 a8 59 be
       0.6763045 0.20820558 -0.03999996 -0.2125584
000280 00 1b 9a be 42 1e 99 be 2e 66 87 3f c5 ce 72 3e
       -0.30098724 -0.29905897 1.0578058 0.23711689
000290 e4 6c 11 3c 71 dc e3 3c e0 70 63 bd fa 2f 9c be
       0.008876059 0.027815076 -0.055527568 -0.30505353
0002a0 a9 0b c4 be 9c 44 d9 be 78 ca 6b 3e 66 76 1c 3e
       -0.38290146 -0.42435157 0.23026454 0.1527954
0002b0 30 72 55 be de 2a fb 3e 60 26 0e bf 0a ac 9e be
       -0.2084434 0.49056143 -0.55527306 -0.3099063
0002c0 76 ef 6a 3e a2 42 0c bf ff 6a 89 bd eb 6f 86 bc
       0.2294291 -0.54789174 -0.06709861 -0.016410789
0002d0 06 95 4a bf 89 1f 0e bf 68 08 3a be f5 49 ca bd
       -0.7913364 -0.5551687 -0.18167269 -0.098773874
0002e0 47 ac 92 3e c0 97 30 bd 5a 6d c2 be 3e b4 aa be
       0.28647062 -0.04311347 -0.37974054 -0.3334064
0002f0 eb 59 87 3c 42 9a 87 3e da 14 37 3d 5a 24 71 3f
       0.016522368 0.26484877 0.04469762 0.94196093
000300 d7 c1 a9 3f eb 25 05 be 6b dc 08 3d de 9d 60 be
       1.326228 -0.13002746 0.033413332 -0.21935222
000310 6f 76 a8 be 3a 94 8c 3e 6b d1 13 3f 9c ac ae be
       -0.32902858 0.27456838 0.5774142 -0.34116066
000320 8f 6f 62 3d 2d ec 33 39 c3 97 26 3e f4 29 a1 3e
       0.05528217 0.00017158753 0.1626883 0.3147732
000330 9d 5f a8 bd 01 01 52 be 13 84 12 3e 82 7e b5 3e
       -0.08221362 -0.20508195 0.14308195 0.3544808
000340 77 6a fc 3e 09 98 45 3d 7a b2 3c bc f6 37 7f bd
       0.49299976 0.048240695 -0.0115171615 -0.062309228
000350 56 ce 2b 3d 9d 8b 68 bc f5 3f 9c be d0 82 6b 3e
       0.041944824 -0.014193443 -0.30517545 0.2299912
000360 5c b7 17 3d 65 c5 23 3e 82 b8 0c 3f 6a 3d 60 3f
       0.0370401 0.15993269 0.54969037 0.8759371
000370 03 74 35 be 2b 84 44 bc db 14 e8 be 3c a4 81 bd
       -0.17720036 -0.011994402 -0.4532841 -0.06330153
000380 d6 cf 9a bc b0 8e 87 bf 7b 19 b8 3e 3c 88 78 b9
       -0.018897932 -1.059042 0.3595694 -0.00023701874
000390 b1 92 22 3d e4 ed a6 be 28 90 13 be a8 37 db be
       0.039690677 -0.3260337 -0.1441046 -0.428159
0003a0 df bf b2 be 37 12 80 be 2d 62 46 3f 98 46 fa 3d
       -0.3491201 -0.25013897 0.77493554 0.12220496
0003b0 67 14 93 bc e7 f6 96 3d c0 16 e9 bc 40 db 4b bd
       -0.017954065 0.07371312 -0.02845323 -0.04976964
0003c0 ac 98 9f bd df 24 9c be 96 78 3b bd 56 09 cf bd
       -0.07792792 -0.3049688 -0.045769297 -0.101092026
0003d0 83 e5 8c be 80 f5 32 bf 93 63 3c 3f 04 76 a2 3e
       -0.27518854 -0.69905853 0.7358944 0.31730664
0003e0 00 0f c4 bc 28 b5 17 bf 7a 01 b8 be 1b 29 86 bd
       -0.023932934 -0.592608 -0.35938627 -0.06550809
0003f0 af cc 3a bf 2a 36 79 3e 91 dc 83 bf 26 0f ce bd
       -0.7296857 0.24337068 -1.0301687 -0.10061483

w_r.0.bias f4 [64]
000000 34 6f 17 be da 84 87 be 57 a0 c6 be 8d 8c 30 be
       -0.14788514 -0.26468545 -0.38794205 -0.17241116
000010 53 64 55 be 8b c2 31 3e f7 d4 db be ca b3 ac 3a
       -0.20839052 0.17359369 -0.42935917 0.001317614
000020 36 3c 1c be a1 95 26 bd e2 33 6d 3e a0 1c 44 3c
       -0.15257344 -0.04067004 0.23164323 0.011969715
000030 53 e1 f3 be cd 10 79 be 97 66 b5 be f8 51 16 bf
       -0.47632846 -0.24322815 -0.35429832 -0.58718824
000040 69 0a 94 be d1 f7 01 bf 4f af b4 3d 76 99 02 bf
       -0.28914192 -0.5076876 0.088225 -0.5101541
000050 ef ec b6 be ec e3 ff be 17 0b f8 be 89 4a 79 be
       -0.3572764 -0.49978578 -0.4844596 -0.24344839
000060 98 15 02 be 8b e9 01 3d 83 43 f0 be 0f 29 46 bd
       -0.1270355 0.031716865 -0.46926507 -0.048379
000070 63 6b 65 be b1 b7 de be 35 77 3e be f8 b0 ad be
       -0.22404246 -0.4349952 -0.18600161 -0.3392408
000080 6c 95 eb bd 8b 6f 9c be 72 0c 34 3c 76 24 8a bd
       -0.11503109 -0.3055385 0.010989295 -0.067452356
000090 db 86 b7 be 75 7f 87 3e c5 2b d9 3c 81 7a 94 be
       -0.35845074 0.2646443 0.026510129 -0.28999713
0000a0 82 50 b6 be b4 1f b0 be 26 b1 7e be b5 bf fb be
       -0.35608298 -0.34399188 -0.24872264 -0.49169698
0000b0 4e e1 7f 3d 01 04 e2 be 9c 91 6b be 85 05 05 bf
       0.062470727 -0.4414368 -0.23004764 -0.5196155
0000c0 fa bd 09 bf d6 43 44 be 9c 10 c8 be 92 09 09 be
       -0.53805506 -0.19166502 -0.39075172 -0.13382557
0000d0 36 17 d3 be ad ce ae be d8 6a f8 be cb fc 9f be
       -0.41228646 -0.34142056 -0.48519015 -0.31247553
0000e0 78 0c 4b 3c cc 7a 45 bf a9 68 0b be b6 5b 22 be
       0.0123931095 -0.771405 -0.13614143 -0.15855297
0000f0 f3 f1 c8 be 15 af 1b bf 2a ea ea be 74 5e 8f be
       -0.39247093 -0.6081403 -0.45881778 -0.2800175

w_r.2.weight f4 [32, 64]
000000 0d 0e 50 3e e7 69 b0 3d b5 61 90 be 43 70 14 bf
       0.2031786 0.08613949 -0.28199545 -0.579838
000010 d5 38 6e be ef 69 70 3d 8a 6a 54 bb 72 c0 a8 3e
       -0.23263867 0.058694776 -0.0032412135 0.32959324
000020 cc c3 68 bf 74 40 2b 3e 7a c9 11 be 07 fd a4 bd
       -0.9092376 0.16723806 -0.14237013 -0.08056074
000030 83 66 fe 3e f7 26 75 be d2 a6 a2 be e0 37 85 bd
       0.49687585 -0.23940645 -0.317679 -0.06504798
000040 51 b4 5e be cc 76 ba 3d 90 9b 41 bf dc b1 d4 3d
       -0.21748473 0.0910469 -0.75627995 0.103854865
000050 31 c3 f7 3c d6 75 c3 3d c3 80 dc be ea 2b 81 bf
       0.030244442 0.0954396 -0.43066987 -1.0091527
000060 39 ef 13 3e ef 96 ae be 1d ba 11 be d5 12 f4 be
       0.14446725 -0.34099528 -0.14231153 -0.47670618
000070 83 3f df 3e d7 62 ce be 14 50 07 bd 50 56 e9 3d
       0.43603143 -0.40309784 -0.033035353 0.11393416
000080 76 99 24 3e 74 e0 43 bc 4e 5d d3 3d 1b 8c 8e 3e
       0.16074166 -0.011955369 0.10320531 0.27841267
000090 e8 92 58 bf fd b9 26 3d df 91 8c 3d 13 0f 49 be
       -0.8459916 0.040704716 0.0686376 -0.19634657
0000a0 a5 c3 35 bf 00 f6 25 bd 8e 25 34 3b 6e 9b 20 3e
       -0.71001655 -0.040517807 0.0027488205 0.15684292
0000b0 9d 8a 9f bf a9 a2 58 bf c6 08 4b 3d ac 3a fd 3e
       -1.2464176 -0.846232 0.049568914 0.49458826
0000c0 2d 5b ed 3d 0a c7 c7 3c 2b 2e ec 3e 35 ae 67 bf
       0.11589656 0.024386901 0.46128973 -0.90500194
0000d0 da 2b c9 3d d0 cc e3 bf 4f 2f 45 3f c0 76 05 3d
       0.09822817 -1.7796879 0.7702531 0.032583952
0000e0 e5 87 a2 3d 3a df 75 be 9f 3f 87 3c 81 ea 96 be
       0.07936076 -0.24010935 0.01650983 -0.29475787
0000f0 1a 80 02 be 58 80 c6 3e 49 72 ce 3e 78 f1 2c bd
       -0.1274418 0.38769794 0.40321568 -0.04222247
000100 77 68 8b 3e 5c 66 b4 bd bd a9 56 be 33 39 76 3d
       0.27228138 -0.08808586 -0.20963188 0.060113143
000110 d7 24 bd be 64 51 5f be ed 45 4d bd 85 7e dd bc
       -0.3694217 -0.21808392 -0.050115515 -0.027037868
000120 fa b5 9f 3c 6c c4 85 3d 55 1c 39 3e 67 81 a4 bd
       0.019495953 0.06531605 0.18077214 -0.08032494
000130 ee 70 f4 bd c7 59 18 be 4e b3 9c be a5 cd 09 bf
       -0.11935602 -0.14877997 -0.3060555 -0.53829414
000140 a0 9f 45 3e d9 91 1b 3e 1e 2d 69 bd dc 1b 63 3d
       0.19299173 0.15192355 -0.056927793 0.05544649
000150 c7 37 0d bd f2 28 eb ba ed d3 4e 3e a3 22 b3 3e
       -0.03447702 -0.001794128 0.20198031 0.34987363
000160 3c 1a 65 be 42 52 a8 3e d8 33 63 3d 34 f5 a2 bd
       -0.22373289 0.32875258 0.055469364 -0.07956925
000170 7e 10 23 3d ce 4e 84 bd 2a d5 6b 3e c0 e6 7d bd
       0.03981065 -0.06460343 0.23030534 -0.06198764
000180 e8 64 8f bc 3e b3 fb 3d 17 a4 c3 bd 26 10 32 be
       -0.01750417 0.12290047 -0.09552782 -0.17388973
000190 c3 27 25 be 2b 7d 47 3d ce bd 61 3c b1 f0 dc 3d
       -0.16128449 0.048703354 0.013778163 0.10788096
0001a0 8d 35 b0 bd fa 5d 35 3d 9f 4f 35 3d f8 24 07 be
       -0.08603964 0.044279076 0.044265386 -0.13197696
0001b0 59 3f 14 3d ca a6 5c 3e 5c ac 1a be e9 cf bd 3d
       0.036193226 0.21548 -0.15104812 0.09268171
0001c0 20 ce fc bd 65 81 46 be f8 b3 8a 3e 45 10 d2 3d
       -0.12344003 -0.19385298 0.2709043 0.102570094
0001d0 62 05 83 bd b2 f0 90 3d 64 d6 f2 be a4 23 eb bd
       -0.06397511 0.07077159 -0.47429192 -0.11481407
0001e0 69 aa de bd 38 40 9b bd 78 67 58 3d 00 db 24 be
       -0.10872347 -0.07580608 0.05283305 -0.16099167
0001f0 f8 a3 bf 3d 31 d4 e4 bd 54 97 7b 3d 00 71 7e bb
       0.093574464 -0.11173285 0.061423615 -0.0038824677
000200 48 05 77 3c 56 82 04 3e c6 eb 5e 3f 5d 34 8b bd
       0.015076943 0.12940344 0.8707851 -0.06797097
000210 1e dc a2 be 6a bc e5 3e 30 62 1d be 90 1d f6 3d
       -0.3180856 0.4487031 -0.15369487 0.12017357
000220 8e f5 47 bd 23 3b 56 bc 52 31 e2 3e bf d9 c1 3c
       -0.048818164 -0.013075623 0.44178253 0.0236634
000230 4f 89 91 be 5c 04 17 3e 93 9c 43 3e a0 e8 61 be
       -0.2842507 0.14747757 0.19102697 -0.22061396
000240 ea 8a 87 3d aa 51 56 3d 60 72 f5 be d3 60 0b 3d
       0.06618293 0.052323975 -0.47938824 0.034027886
000250 6f a6 f4 bd d7 ba 41 be a5 fd 1f bc 3a c3 97 be
       -0.11945807 -0.1891893 -0.009765063 -0.29641134
000260 5c 3f 5f 3d 19 4c 91 be 3b 47 13 be df 0a 14 3e
       0.054503784 -0.2837837 -0.14382641 0.14457272
000270 c2 df bb be 38 f2 61 bc 47 32 91 be fb 7d 59 3e
       -0.3669415 -0.01379066 -0.2835867 0.21239464
000280 5a ee 85 bc 0c c3 32 bd ac 61 e5 3c 60 8b b5 3e
       -0.016349006 -0.043643042 0.028000675 0.35457897
000290 14 7a bf bd 28 d5 6c bd 11 ee 1d be 2a 75 e6 bd
       -0.093494564 -0.05782047 -0.15422846 -0.11252816
0002a0 ad 94 39 3e 92 0b 49 3d 57 4e 54 3d e8 e1 2a be
       0.18123122 0.0490833 0.051832523 -0.16687739
0002b0 76 d2 70 3d 3e 07 8e 3e 5f 45 26 be 03 00 94 3e
       0.05879446 0.277399 -0.162374 0.2890626
0002c0 96 49 1b 3d b1 7b b4 bd bc 23 7d bd 30 2d ad bc
       0.037911974 -0.08812655 -0.061801657 -0.021139711
0002d0 44 90 8d bd 79 df b6 be 4f 7e 37 bf f1 39 4e 3e
       -0.06912282 -0.3571737 -0.71677107 0.2013929
0002e0 44 bb ad 3a 02 fc f3 bd 52 2f 22 bc 01 d9 3b 3e
       0.0013254662 -0.11913301 -0.009898977 0.18344499
0002f0 34 9c 93 3d 15 80 9b bd 9f ad 08 3d c0 8e 86 bd
       0.07207528 -0.07592789 0.033368703 -0.06570196
000300 1a a3 15 3e 2b f2 cc bd a7 b1 f0 bc bc fc bd be
       0.14613 -0.100071274 -0.029381586 -0.37106884
000310 9e 2c 1a c0 23 5b 8a be 6b a4 14 3e d5 5d 8f be
       -2.4089732 -0.27022657 0.14515845 -0.28001276
000320 08 d2 3d be 39 2f 6b c0 c4 f1 f9 3e df 25 8a bd
       -0.18537152 -3.6747572 0.48817265 -0.067455046
000330 82 42 c1 bd 12 12 f9 bf e7 94 0c 3e d0 33 8d bd
       -0.094365135 -1.945864 0.13728677 -0.06894648
000340 ab bd 49 bf 4a b5 eb bc 2c 4b 97 c0 31 0f 19 bf
       -0.78805035 -0.028772969 -4.7279263 -0.59788805
000350 d2 f8 18 bf 26 c7 85 c0 09 8a 5a bf 02 ee 63 bf
       -0.5975467 -4.18056 -0.85366875 -0.89035046
000360 bc e2 39 bc 34 e1 14 3f 47 86 97 bd 0f be 7a be
       -0.011345562 0.5815613 -0.07398658 -0.24486564
000370 2e 6d 11 3e 28 3d 55 bf 6b 59 b5 3e 2a 6f 1f bf
       0.14201805 -0.8329644 0.35419783 -0.62279
000380 2d 22 90 be 35 e0 ae be 2f 05 30 bd 4a 2d ce bf
       -0.28151074 -0.3415543 -0.042973693 -1.6107571
000390 4f 1b 66 be 94 00 54 3b 2e 0f 1f 3e 7d e1 94 3d
       -0.22471355 0.0032348977 0.15533134 0.07269571
0003a0 33 91 99 bf 1e 73 20 3d 98 3c 95 ba 66 25 47 bd
       -1.1997436 0.039172284 -0.0011385856 -0.04861965
0003b0 8a 46 2e be c0 1a cc 3d c5 fd d0 bc 32 9d 2d 3d
       -0.17019096 0.0996604 -0.025511632 0.04238624
0003c0 46 7b 92 3c b0 cb 33 bf 35 fc 1e 3f 58 0e 14 c0
       0.017881047 -0.7023268 0.6210359 -2.3133755
0003d0 17 20 9b bf a1 37 09 3e b6 c4 aa 3d 08 eb 56 be
       -1.2119168 0.13400127 0.08338301 -0.20988095
0003e0 69 c1 b9 3b 24 5d 9e bd 95 c9 b1 bc 87 f5 00 3f
       0.0056688082 -0.07732609 -0.021702567 0.50374645
0003f0 f9 a1 7a bf a5 1c 3e bf 9d 20 9e 3e 3c f7 6d 3d
       -0.979034 -0.7426246 0.30884257 0.05809711

w_r.2.bias f4 [32]
000000 4f e3 f7 bd 55 d9 98 3e 7b 76 01 3e 53 a1 87 be
       -0.121039025 0.2985331 0.12642853 -0.26490268
000010 81 a6 93 3c 02 79 b9 be a3 bc 91 bb 44 ef b1 bd
       0.018023731 -0.36225134 -0.004447536 -0.086882144
000020 dd 68 40 bd 0e ba f2 bd 1e 89 88 3e 3a 0c 1f bf
       -0.046975005 -0.11851893 0.26667112 -0.6212803
000030 01 88 25 bf ba e6 21 bc 1d 57 0b bf f7 c6 e0 bd
       -0.6466065 -0.00988167 -0.544298 -0.109754495
000040 5a 92 4f be a3 43 f2 bd 05 b1 6c 3e 55 03 35 bd
       -0.20270672 -0.11829307 0.23114403 -0.04419263
000050 9d fb 04 bf cc 66 eb 3d fc db 6a bd ba 9e e4 3e
       -0.5194643 0.11494216 -0.0573387 0.4465235
000060 27 be 77 be a4 40 4e 3f 21 ac cf be 9a ac 21 bd
       -0.24193631 0.80567384 -0.4056101 -0.039471246
000070 06 4d c7 3e c6 db d4 bd 48 e0 00 be 1f c1 12 3e
       0.38925952 -0.10393481 -0.12585557 0.14331482

w_h.0.weight f4 [64, 5]
000000 01 15 24 3e 38 d7 83 be b4 46 bc bf 11 76 74 bf
       0.16023637 -0.25750136 -1.4709077 -0.95492655
000010 a3 ed 4a bf a1 ae 7f 3e b3 4d 0a 3e b2 ea 09 bf
       -0.79268855 0.2496896 0.13506202 -0.5387374
000020 61 89 9f 3f a7 8c 83 bf 9e f8 2b 3b 48 db ff ba
       1.24638 -1.0277299 0.0026240717 -0.0019520307
000030 c8 24 41 bd 8c 2f d6 3d 9e 18 9a bd ac e0 53 be
       -0.047154218 0.104582876 -0.075242266 -0.20691174
000040 ec 74 d4 3e 61 bc c2 bf 9c a6 15 bf 68 b6 f2 be
       0.41495454 -1.5213739 -0.5845735 -0.4740479
000050 7f 78 89 3d 30 4e b0 3e 6f bc 92 bf 90 7d d2 3f
       0.06712436 0.34434652 -1.1463755 1.6444569
000060 e3 05 1a bf 24 5a 85 3c 34 3e bd bc b7 34 16 bd
       -0.6016523 0.016278334 -0.02310095 -0.036671367
000070 75 eb 8d 3e c5 b8 15 bf eb 05 91 be ad 4a 0e 3e
       0.27718702 -0.5848506 -0.28324828 0.13895674
000080 8e a7 a1 bf 01 ab 20 bd a4 a8 ee 3e 2f 46 da b7
       -1.2629259 -0.039225582 0.46613038 -2.6020307e-05
000090 a0 5b 85 3b 07 bf 26 be 14 5b 43 be c6 18 2a bf
       0.0040697604 -0.16283809 -0.19077712 -0.6644405
0000a0 ac 9c db bd 92 d1 ae 3e 2a f9 7d 3e e6 9b 6e 3e
       -0.10723242 0.34144264 0.2480208 0.23301658
0000b0 77 3a d7 3e b4 38 32 3e d7 86 cf be 57 de c5 be
       0.42036793 0.17404443 -0.40532562 -0.38646194
0000c0 2b f2 e1 bf dc 04 3a bf 4b a7 85 3e 5b ff df be
       -1.7652029 -0.72663665 0.26104197 -0.43749508
0000d0 ef 83 02 bd fa 0f c5 bf a4 64 26 be 3b 68 03 be
       -0.031864103 -1.5395501 -0.16249329 -0.1283273
0000e0 03 e7 84 3d 85 2a 4b bf 24 1f 0d bf 76 ff 2f be
       0.064893745 -0.79361755 -0.5512564 -0.17187294
0000f0 27 26 ad 3e e4 3b c9 3e a2 c0 00 3f ff 8d 57 3f
       0.3381817 0.39303505 0.50293934 0.84201044
000100 67 87 24 3e 8b b7 d1 3d 40 35 7e be ac 1e 86 be
       0.16067277 0.10240086 -0.24825001 -0.26195276
000110 dc a3 c8 3e e4 00 98 bf 04 f8 dd 3e c2 f7 d9 bd
       0.39187515 -1.1875272 0.43353283 -0.10642959
000120 a6 ca 9c 3f a5 08 0f bf b1 6e 5d bf 14 0c 80 be
       1.2249343 -0.55872566 -0.86497027 -0.25009215
000130 6d a4 fb 3c 73 c8 8d be 84 a4 7a bf f9 e4 14 be
       0.030718053 -0.27691993 -0.9790728 -0.14540471
000140 83 89 b9 be a7 63 b2 3e 16 a2 0a 3f dd d8 7d 3f
       -0.36237726 0.34841654 0.54153574 0.9915903
000150 f0 32 67 bd e3 22 46 bd ad 8c 3a bd 9d 18 10 bf
       -0.056445062 -0.048373114 -0.045544315 -0.56287557
000160 3d 64 04 bf b7 4b 26 3f f4 30 42 3e ba 48 38 3e
       -0.5171545 0.6495928 0.18963987 0.17996493
000170 d0 a6 15 bd 07 bb 8c 3f 3a 80 14 3f a9 39 eb be
       -0.036536038 1.0994576 0.5800816 -0.4594243
000180 66 00 17 3e c5 70 da 3e 08 40 16 3e c5 2e 84 3e
       0.14746246 0.4266416 0.14672863 0.25816932
000190 41 2f a5 be 09 e6 18 3f 78 a8 5a bf b2 d6 c8 3d
       -0.32262614 0.59726006 -0.8541331 0.09806575
0001a0 a2 25 71 be 04 4f 59 be 9d 99 de bd a7 ca 82 3f
       -0.23549512 -0.21221548 -0.10869143 1.0218095
0001b0 b2 66 41 bf b9 78 f3 bf e0 25 c6 3e a3 e5 c1 3e
       -0.75547326 -1.9021217 0.3870077 0.3787051
0001c0 2b a7 84 be bf 65 3c bf b4 d1 83 be cd 84 22 be
       -0.2590879 -0.7359275 -0.25745928 -0.15870972
0001d0 85 c0 18 bf 31 f9 7b 3f d0 21 a7 bf 71 80 c3 3d
       -0.5966876 0.9842711 -1.3057194 0.09545983
0001e0 4c 2a b4 3e e2 f2 9c bd af 26 d3 3f 11 7a e3 be
       0.3518852 -0.07663514 1.649618 -0.44429067
0001f0 2b 9d 27 bf 90 c0 35 3e 97 1a f1 3e 1d d8 8f bf
       -0.65474194 0.17749238 0.470906 -1.1237828
000200 ff cf c2 3e 48 b8 ab bf 46 66 a7 be 5c a6 21 3e
       0.38049313 -1.3415613 -0.32695216 0.15786117
000210 58 44 95 be ef 1a 9b bf 62 a0 cb bf 40 cb 75 bd
       -0.29153705 -1.2117594 -1.590832 -0.060008287
000220 e2 09 be bc c8 95 48 bf 28 a3 88 bf 8b cb a0 bf
       -0.023198072 -0.7835355 -1.0674791 -1.2562116
000230 b6 8f c6 be 7c a4 7a be 5e 13 6e bf ce 3d a8 bf
       -0.38781518 -0.24476808 -0.929983 -1.3143861
000240 d8 6e 23 be c7 bd 27 be ad 5d b1 be 38 f7 15 be
       -0.15960252 -0.16380988 -0.3464178 -0.14645088
000250 df 88 12 bf 8b 74 d2 be 30 52 67 bd 0c c4 78 3d
       -0.572401 -0.4110454 -0.056474864 0.06073384
000260 59 d3 07 bf dd 37 a9 be e8 78 eb 3d e7 44 a3 3d
       -0.53056866 -0.33050433 0.114976704 0.079721265
000270 70 25 55 be cb b5 46 3f 39 ae 79 bf 71 8c 15 3e
       -0.20815063 0.77621144 -0.9753147 0.14604355
000280 0d b6 e9 3c 37 b4 7d 3d cc e4 a4 3c b2 2a ef be
       0.028529191 0.061939444 0.02012863 -0.4671226
000290 6d cc 82 3f 59 e0 03 3e ed c3 ed bd 37 ee 5a 3f
       1.0218636 0.1287855 -0.116096355 0.85519737
0002a0 12 25 26 3f 36 d7 12 3e 4a eb 9e be ef d0 12 3e
       0.64900315 0.14339909 -0.31038886 0.14337514
0002b0 24 42 68 3e bb fc 96 3e d7 6e ab bd 0b 76 8f bc
       0.2268148 0.29489693 -0.083707504 -0.017512342
0002c0 e6 cf 06 bf 53 73 a6 3d a8 82 02 bf df 59 59 bf
       -0.5266098 0.08127465 -0.50980616 -0.8490276
0002d0 b8 fe 4b be 44 32 42 be db aa ff be 0a cf 72 3f
       -0.19921386 -0.18964487 -0.4993504 0.94847167
0002e0 d1 a0 29 3e f8 e7 c5 be 12 ad d8 be 28 1e 63 bf
       0.16565253 -0.3865354 -0.42319542 -0.8871789
0002f0 97 59 45 3e 96 43 24 bf 9f cc 88 3e 11 c2 c1 bd
       0.19272457 -0.6416563 0.26718614 -0.09460843
000300 c9 16 e4 3d 74 8c b7 3e bf e8 4c 3f 86 f0 31 3e
       0.111371584 0.35849345 0.8004264 0.17376909
000310 b7 ef 53 3e 2d 19 ac bf 0d cd 14 3f a6 cc 37 bf
       0.20696913 -1.3445183 0.5812538 -0.71796644
000320 4c 2a e7 3a 1b 7d 67 bc a1 47 a0 bd 25 92 76 bc
       0.0017636507 -0.014128949 -0.07826162 -0.015049492
000330 9c 22 d9 bd da 21 4b bc 98 d8 03 be 2f 07 bf 3f
       -0.10602304 -0.012398208 -0.12875593 1.4924067
000340 09 43 fc 3e 35 91 3d bf 0a 9c 85 b9 fe 24 91 b9
       0.49269894 -0.74049693 -0.00025483995 -0.00027684117
000350 29 a9 21 3c 39 72 23 be 3c f9 d6 be 3f fb 80 3e
       0.009866991 -0.15961541 -0.41987026 0.25191686
000360 f0 55 0f 3e 87 bb 4d 3f c1 6c 4f 3f f9 ae 61 be
       0.13997626 0.8036427 0.8102532 -0.22039403
000370 a8 2d f2 3d 48 09 c7 3d f3 4b 83 3e f3 41 2b bf
       0.118251145 0.09718567 0.25643882 -0.66897506
000380 10 70 20 bf 81 d1 9f 3e 48 eb 07 3f 99 c6 41 bf
       -0.62670994 0.31214526 0.53093386 -0.7569366
000390 4d bc 63 bf 69 c2 40 bf 35 a7 79 be 56 1a 19 3f
       -0.889592 -0.75296646 -0.2438019 0.5980581
0003a0 2d 56 b3 3d ef d5 07 bf c8 f2 d1 be e3 35 1e be
       0.08756671 -0.5306081 -0.4100554 -0.15450244
0003b0 12 08 23 3e 04 48 3a 3e 87 8e c7 3f 04 18 53 bf
       0.15921047 0.18191534 1.5590371 -0.8245852
0003c0 96 68 48 be 19 d5 6d 3e ec 17 6f 3c a0 c4 b0 3f
       -0.19571146 0.23225822 0.014593106 1.3810005
0003d0 53 4c 8a be 16 7d 2c bc 7b 0d 1a ba 7d 13 b0 bd
       -0.27011356 -0.01052787 -0.00058766425 -0.08597467
0003e0 15 c2 27 be 86 b2 3f 3d 0e a3 d3 3e 09 68 b6 3e
       -0.1638263 0.046801113 0.41335338 0.35626248
0003f0 a6 b4 16 bf 69 18 f3 3d f6 fe 13 bf 08 8a 09 3f
       -0.588694 0.1186989 -0.57810915 0.53726244

w_h.0.bias f4 [64]
000000 93 a8 80 bf f9 02 2d bf fe ea e2 bd 6c 32 87 bf
       -1.0051445 -0.6758266 -0.110799775 -1.0562263
000010 c0 62 57 bf 68 55 96 be e2 e6 5c bf ff 1f a7 bd
       -0.84135056 -0.29362035 -0.862898 -0.081604
000020 05 f9 24 be 1c 6b 9b bf fc 5e 45 be 95 38 43 3e
       -0.16110618 -1.2142062 -0.19274515 0.19064553
000030 bd cd 87 bf 72 7b 8b 3e 8d 40 a3 bd b4 a7 22 3e
       -1.0609661 0.2724262 -0.079712965 0.15884286
000040 78 ad 8c bf b8 a9 5a be 83 c0 d8 be ae 20 2f bf
       -1.0990438 -0.21353805 -0.42334375 -0.6840924
000050 dc 79 38 bf 00 50 b4 be e2 1f c5 bf 4a 45 b5 bf
       -0.7206094 -0.35217285 -1.5400355 -1.416177
000060 8c 95 81 bf 7e 02 1f be bd 55 ef bd ab 74 96 be
       -1.0123763 -0.15528294 -0.11686275 -0.29385886
000070 c3 4d 16 bf 0c 9a 86 be f7 fd ae 3e 26 15 9c bc
       -0.58712405 -0.26289403 0.34178135 -0.019053053
000080 8c 9d 89 be ef fd 25 bf 9f 22 9d bc e4 eb cc bf
       -0.2687801 -0.64840597 -0.019181548 -1.6009488
000090 8b c5 29 be 62 dc af bf 6d 1f 1b bf fe fb 5a bf
       -0.16579263 -1.373913 -0.60594827 -0.8554076
0000a0 30 b5 75 be 50 8a 5e bf 2f d4 0c bd 79 cb 15 be
       -0.23994899 -0.869298 -0.03438204 -0.146284
0000b0 3d 5d d6 3e f5 71 23 be 4a 23 01 bf ff 72 d0 be
       0.4186801 -0.1596144 -0.5044447 -0.40712735
0000c0 ea 8f ac 3c 71 36 c1 be a0 ef bf be af 34 d2 bf
       0.021064717 -0.37736848 -0.37487507 -1.6422328
0000d0 d2 42 a5 bf ad fd b0 bf 6c a2 c4 bd d6 93 9e bf
       -1.2911017 -1.3827416 -0.09601292 -1.2388866
0000e0 ec 0f 4a be 66 cf 1e bf 4d 53 11 bf 6f 7f 1b 3e
       -0.19732636 -0.62035215 -0.5676773 0.15185331
0000f0 8c 10 1b bf 44 51 4b bf ac b8 54 bf 53 1e 03 3c
       -0.60572124 -0.79420877 -0.83094287 0.008002835

w_h.2.weight f4 [32, 64]
000000 15 87 3b be eb f3 33 bd c2 6e 0b 3d bb 10 21 bf
       -0.18313248 -0.04393379 0.034041174 -0.62916154
000010 2d 15 97 3e 9a ae 8c 3d 51 62 47 bd 8d 2f b6 3d
       0.29508343 0.0686924 -0.048677746 0.08895788
000020 8a 9c c8 3e fe 32 93 3f 0b bb 2a 3e ce 2f 60 bc
       0.3918193 1.1499937 0.16672914 -0.0136832725
000030 9b dd 8b 3f eb d8 b6 3d 86 2d 9b 3e a2 d5 68 3e
       1.0927004 0.089280926 0.3030817 0.22737744
000040 a9 56 0a 3e 60 fc 5d be 40 24 a8 be 4b 04 3d be
       0.1350962 -0.21678305 -0.32840157 -0.18458669
000050 ca 06 30 3f 7e 2c 56 bd 77 00 4c bf 77 b9 01 bd
       0.6876036 -0.052288525 -0.7968821 -0.031671014
000060 e2 36 63 3f 3d 4a f1 be 70 f2 2c be 2a b1 97 3b
       0.8875562 -0.47126952 -0.16889358 0.004629274
000070 96 cc a3 3e a6 03 69 3d c5 b7 58 3e 8a a1 18 bf
       0.31992024 0.056888245 0.21163853 -0.5962149
000080 96 e7 97 be e3 24 88 bd 91 60 01 3e 3e b1 6f be
       -0.29668874 -0.066476606 0.12634493 -0.23407456
000090 e8 ae a4 bd 96 2e 40 3e a0 2a 53 3e aa 40 a5 be
       -0.08041173 0.18767771 0.20621729 -0.32275897
0000a0 10 4a 09 bb 88 12 10 3f 6a 67 f9 bc 24 eb 8d be
       -0.0020948686 0.56278276 -0.03044482 -0.2771846
0000b0 f4 b2 17 3e 83 dc 03 3f 29 6e 25 be 10 08 cb bd
       0.14814359 0.5150835 -0.16155304 -0.09913647
0000c0 2f bb c3 3e cb d0 5a bc b4 5a 73 3e 35 9f bd 3e
       0.38228747 -0.013355444 0.23765069 0.37035528
0000d0 6f de 4c 3f 40 49 9c be 51 7c ef be c4 d0 01 3f
       0.80026907 -0.30524635 -0.46774533 0.50709176
0000e0 d8 ba 01 bf 54 07 f3 3f 8b a5 e2 3e 09 4a 50 be
       -0.50675726 1.8986611 0.44266924 -0.20340742
0000f0 a9 93 a5 be 1d 66 b8 3e 6d 40 58 be b8 03 f0 3e
       -0.32339218 0.36015406 -0.21118326 0.46877837
000100 25 97 7c 3e bf c4 bc bd 3a 67 22 be c4 7f 67 bf
       0.24667032 -0.09217214 -0.1585969 -0.9042933
000110 8f a4 b1 be 9a c9 3b 3d a9 8b 14 3f af 72 43 bd
       -0.3469586 0.04584656 0.58025604 -0.047716793
000120 04 1d a0 3d e5 b2 14 3f 77 e1 c7 3e 99 6f 3b bf
       0.07818034 0.5808547 0.39039204 -0.7321716
000130 ed f1 22 bf be e6 30 be ce c8 cc 3c 0a 0e b8 bd
       -0.636504 -0.17275521 0.024998095 -0.08987053
000140 31 09 ea 3d 66 0c ac 3d 09 50 17 be 59 f9 c3 3e
       0.11427534 0.08400802 -0.14776625 0.38276175
000150 97 a4 de be 23 60 38 3e d3 08 b8 be 3b ce f4 3e
       -0.43484947 0.18005423 -0.35944232 0.4781359
000160 a1 de eb 3e 4e 30 2c bf 64 09 62 bf 06 f9 91 3f
       0.4606829 -0.6726121 -0.8829558 1.1404121
000170 43 d0 26 be 81 17 8f be ea c0 a0 3d 35 2d 83 3e
       -0.16290383 -0.2794762 0.078492954 0.25620428
000180 af 16 df 3d 6d 65 ec be e7 b8 52 be 56 5a 10 3f
       0.108929984 -0.46171132 -0.20578347 0.5638784
000190 ce 55 e7 be 12 2b 11 bd 66 e3 61 be a5 ab 02 bf
       -0.4518265 -0.035441466 -0.22059402 -0.5104316
0001a0 93 69 c8 bd 2e a5 91 be 4a db 31 3e a1 eb c6 be
       -0.09785762 -0.28446335 0.17368808 -0.38851646
0001b0 c2 ac 35 3f 49 f1 fb 3e 28 12 88 3d 60 3b 3d 3e
       0.7096673 0.49207523 0.06644088 0.18479681
0001c0 20 8c 81 3e 19 5a 32 3e ae 06 38 3e 84 34 03 bf
       0.2530222 0.17417182 0.17971298 -0.5125201
0001d0 2b 30 63 3f d7 1a 65 3f c3 10 fb bd 05 e1 14 3f
       0.88745373 0.8949408 -0.122590564 0.5815585
0001e0 6d d1 d4 3e 3b d5 b8 3d 87 45 27 3e c0 49 80 bd
       0.4156603 0.090250455 0.16335116 -0.06264067
0001f0 59 cc 0e be dd 92 93 be 12 6b 03 3e 85 a1 35 3f
       -0.1394514 -0.28822985 0.12833813 0.70949584
000200 eb 30 b9 bd 6d 3b c4 bc f5 57 b3 bc 99 9f b4 3d
       -0.090425335 -0.023954118 -0.021892527 0.08819503
000210 3e 78 a8 3d e8 af e7 3b a8 67 f6 bd 93 30 a1 3d
       0.082260594 0.00707053 -0.120314896 0.07870593
000220 80 8f 4b be d4 39 29 3d 73 0b 1e 3a dd ae 0c be
       -0.1987896 0.041314915 0.0006028928 -0.1373858
000230 5d 4b 19 be 9f e2 b2 bd 5f 22 d6 bd bd 84 53 3c
       -0.14970155 -0.08734631 -0.104557745 0.012910065
000240 97 ce 2d bc 4e 01 74 bd 37 c7 21 bd d3 9a 2d 3d
       -0.010608337 -0.059571557 -0.039496627 0.04238398
000250 e9 1e 75 bd 5d 75 1f be bc 4c 72 bd 78 01 a7 bd
       -0.05984393 -0.15572114 -0.05915521 -0.08154577
000260 47 df 88 3c e3 04 0c 3c fa ad 45 3d b9 5a ba bd
       0.01670803 0.008546087 0.04826162 -0.09099335
000270 ca 65 c9 3c 4b d3 af bd 9e 1f 8d bd 6e 15 a7 bd
       0.02458467 -0.08585223 -0.06890796 -0.08158384
000280 f0 61 8f 3d a5 24 b3 bd e6 30 77 bd af a1 a5 bd
       0.07001102 -0.08747224 -0.060349368 -0.08087479
000290 9c b8 0c 3d f7 4c c6 3c 07 b2 28 be 28 0c 60 bb
       0.034355745 0.024206622 -0.16474162 -0.0034186933
0002a0 2a 00 f5 bd f1 29 5b 3d fc 88 05 be 28 3c a0 3d
       -0.11962922 0.053506795 -0.13040537 0.07823974
0002b0 b4 63 34 bb 98 0b 1e 3d a2 9b 21 bd 69 75 47 ba
       -0.0027525248 0.038585275 -0.039455064 -0.0007608743
0002c0 fd 4f 32 be 5f f4 33 be 6a d9 74 bd b2 75 c8 bc
       -0.17413326 -0.17573689 -0.059777655 -0.024470184
0002d0 0b 4f bb bc 2c 9a ec bd 89 b6 71 3d 9f 00 2d 3d
       -0.022864839 -0.115528435 0.05901197 0.04223692
0002e0 0a ab 97 3c 9d b2 96 3c a0 8a 81 3d 3a 3e 40 bc
       0.018514175 0.018395716 0.06325269 -0.011733586
0002f0 28 87 cb bd b8 7b 93 3d b1 16 cf bd c8 bb 0c bc
       -0.099378884 0.07201332 -0.1011175 -0.008589692
000300 17 e9 37 3c 58 92 fc bb 6f b0 4b 3e ca 13 d3 3e
       0.011225007 -0.007707875 0.19891523 0.41226035
000310 8d 62 23 3f 87 24 dc 3d 77 23 84 3f 02 7f 13 3d
       0.6382225 0.107491545 1.0323323 0.036009796
000320 e1 39 af 3d c6 11 14 bf 5a 7d 04 bf 85 df ca 3e
       0.085559614 -0.5783962 -0.5175377 0.39623657
000330 fc 48 14 bd 2e cd 01 3e d7 8b c7 be ee 7c 37 be
       -0.036202416 0.12675926 -0.38973877 -0.1791875
000340 b0 08 c9 be 1d d6 4f 3e c5 38 dd 3d 1b 5e 0d c0
       -0.3926444 0.20296521 0.108018436 -2.2088687
000350 3b d4 21 3e e8 56 96 3f c7 1d fa 3d 55 16 c5 3d
       0.15803616 1.1745272 0.12212711 0.096234
000360 4c 07 d8 be 44 46 f3 bd 4f a6 6d 3e 8a 68 02 3e
       -0.42193067 -0.118786365 0.23207973 0.12735191
000370 5e 4b 20 3f 1f 6f 3c bf 1a 1e ba 3e 00 2b de be
       0.62615 -0.7360706 0.3635109 -0.4339218
000380 c6 2f ab be de a5 9f be 28 86 4b bf 7a ad d6 3f
       -0.33434886 -0.31181234 -0.7950158 1.6771691
000390 f6 ea 35 3e 4d e0 eb be ce 07 36 be da a8 00 be
       0.17765412 -0.46069565 -0.17776415 -0.12564412
0003a0 1b a5 3f 3d c5 0f 32 bf cb 69 98 bd 9f 50 50 bd
       0.046788316 -0.6955531 -0.074420534 -0.050858136
0003b0 4f 13 4d be c1 ca b3 bd e9 9f 3f bf e7 3b 08 3f
       -0.20026897 -0.087789066 -0.7485338 0.53216404
0003c0 a2 54 9f 3e 12 37 60 3e 4d dd 1a 3e 86 b6 af 3d
       0.31119257 0.21896008 0.15123482 0.085797355
0003d0 d4 88 52 3f 84 33 65 3d 3b 8d 68 3d 89 f4 76 3e
       0.82240033 0.055957332 0.056775313 0.2411672
0003e0 20 0f 94 3e 12 86 ce be 35 8a 12 bf 20 e7 f1 3d
       0.2891779 -0.40336663 -0.5724214 0.11811662
0003f0 b5 68 31 bb 77 4c 1e bf 41 f1 0f 3f 85 12 b1 3e
       -0.0027070467 -0.61835426 0.562275 0.34584442

w_h.2.bias f4 [32]
000000 16 76 37 bd 4b bc 4f 3e 25 e4 11 be cc 0a e5 3e
       -0.04479035 0.20286672 -0.14247186 0.447348
000010 06 fd cb bd cc 31 3c bf 17 b3 b9 3e b6 04 30 3f
       -0.0996037 -0.73513484 0.36269447 0.6875719
000020 2c 2c 19 3e d5 b2 5f be 45 e1 b8 be 74 02 a2 be
       0.14958256 -0.21845563 -0.36109367 -0.31642497
000030 e8 06 da 3e 30 1b af 3e 79 23 f3 be 80 5d 58 be
       0.42583394 0.3420043 -0.47488 -0.21129417
000040 c4 e6 43 be 17 af 40 be 19 d9 18 3e 98 57 df bc
       -0.19130999 -0.18816791 0.14926566 -0.027263448
000050 38 89 da be 26 80 3f be 36 a5 ad be 94 66 6b bd
       -0.42682815 -0.18701228 -0.33915108 -0.057470873
000060 2a f2 02 3f 24 34 71 3b 78 8b 36 be 61 70 72 3e
       0.51150763 0.003680476 -0.1782664 0.23675682
000070 c1 ca 02 be c0 0b 0d be fa 20 3c bf 97 7f 47 be
       -0.12772657 -0.13774014 -0.7348782 -0.19482265

Ws.0 f4 [32, 32]
000000 93 b3 24 c0 1e 61 46 3f 70 36 a4 bf e7 01 67 bf
       -2.5734603 0.7749194 -1.2829113 -0.9023728
000010 de 35 3e be be a1 26 bf 21 3e bd 3d 30 c7 54 3f
       -0.18575236 -0.6509055 0.09240366 0.83116436
000020 9a 93 90 bf cd 2e 92 3f d5 6c 0a c0 4b df 05 be
       -1.1295044 1.1420532 -2.1628926 -0.13073461
000030 a5 0d fb be fc 12 53 bf 9f b0 18 3f d8 4e 94 3c
       -0.49033847 -0.8245084 0.596445 0.018104002
000040 65 89 be 3d a7 9f 43 be ba b3 93 3f 53 11 04 40
       0.0930355 -0.19103871 1.1539223 2.0635574
000050 a1 b8 50 bf d4 c3 10 bf 99 c4 83 bf f9 dc 26 bf
       -0.8153172 -0.5654881 -1.0294372 -0.6518093
000060 f5 4c b4 be 1a f5 61 3e 80 0b 30 3f d1 86 d3 3f
       -0.35214964 0.22066155 0.6876755 1.6525518
000070 8f 4a 1c be b9 79 89 bf 60 22 d4 be da 58 89 bf
       -0.15262817 -1.0740272 -0.41432476 -1.073024
000080 38 dd 13 c0 84 ee b1 bf 7e 92 cb 3e 5b fb d5 3f
       -2.3103771 -1.3900914 0.39760202 1.6717333
000090 23 07 d9 bf 82 d8 55 3f a9 6b 36 3e 28 30 d6 be
       -1.6955303 0.8353349 0.17814507 -0.41833615
0000a0 e6 9c 86 3f 83 13 ae bf ce 71 92 be 01 a9 3a be
       1.0516632 -1.3599705 -0.2860245 -0.18228532
0000b0 cb f9 87 3f 7a a8 67 bf 43 0b 0a 3f 34 ab 8a bf
       1.0623106 -0.9049145 0.53923434 -1.0833497
0000c0 68 bb 0c bd dc 41 b8 3f 0c d1 b6 bf 39 c5 c6 be
       -0.034358412 1.4395099 -1.4282546 -0.38822344
0000d0 5e 66 97 bf b8 60 c9 bf 64 dd 1e 3f e5 c6 94 be
       -1.1828115 -1.5732641 0.62056565 -0.29057994
0000e0 71 a9 53 3e e0 81 36 3f 0a 94 15 3f 2d 88 a4 3d
       0.20670106 0.71291924 0.58429015 0.08033786
0000f0 56 07 45 be 01 90 f2 bf 68 e9 0d 3f 5d af e9 3e
       -0.1924108 -1.8950197 0.55434275 0.45641604
000100 3c b3 c9 3e 50 8c 11 c0 84 67 98 be 86 94 55 3f
       0.39394557 -2.274189 -0.29766476 0.83429754
000110 a2 51 a1 bf d4 96 94 3f d1 83 0a bf 40 8e 15 bf
       -1.2603037 1.1608529 -0.54107386 -0.5842018
000120 9e 0a 96 c0 2b e8 28 3e 13 3b 5a 3f 61 51 38 3f
       -4.688796 0.16494815 0.8524639 0.71999174
000130 cd 64 27 c0 44 d7 d9 bf 73 fa 45 3f 37 17 2b c0
       -2.6155274 -1.7018819 0.7733528 -2.673292
000140 8a 72 24 40 69 2a 13 3f 48 2f 3f 3f 26 f1 31 3e
       2.569491 0.5748659 0.7468152 0.17377147
000150 6e 12 24 3f 1f 97 e7 3e bd d4 c3 bf 46 65 b0 bf
       0.6409062 0.45232484 -1.5299298 -1.3780906
000160 0a d6 0a 40 2a 1d 09 bf df d6 87 3e 20 05 6d be
       2.169314 -0.53560126 0.2653112 -0.23146486
000170 74 e2 4a 3f 6f 9d 7f 3f ce 18 87 3f 85 fc 2f 3f
       0.7925179 0.998496 1.0554445 0.6874469
000180 46 7f 1f c0 55 04 c0 3e e2 0e 3f 3e 42 8e 40 c0
       -2.4921432 0.37503305 0.18658021 -3.0086827
000190 8b 07 7e 3f 74 0c 87 3f 2b 07 c5 3f 38 f9 35 3e
       0.9923026 1.0550675 1.5392812 0.1777085
0001a0 0a 83 6d 3f f7 1e dc 3e a7 db d7 bf 98 9e 4f 3f
       0.92778075 0.42992374 -1.6863908 0.8110137
0001b0 7c 34 0c 3f f7 08 19 3f 33 55 81 be 6f ad 4f 3f
       0.54767585 0.59779304 -0.25260314 0.81124014
0001c0 05 ab 0f 3e c8 57 a2 bd 0a 49 8f 3f 80 9f 0b 40
       0.14030083 -0.07926899 1.1194165 2.18161
0001d0 20 ef e5 3f 36 7a 3e 3e 99 e4 f6 bf 59 24 0b 3d
       1.79636 0.18601307 -1.9288512 0.03397021
0001e0 3c a2 9d 3f e3 da cd bf 00 dc 3f 3f aa 72 da be
       1.2315135 -1.6082424 0.7494507 -0.42665607
0001f0 50 90 d9 be c5 3b b4 bf 65 7e 2f 3f 0a b8 f2 be
       -0.42492914 -1.408074 0.6855224 -0.47406036
000200 87 fb fc 3e 63 5c 48 bf c4 f0 cc be 0f 9f 7b c0
       0.4941065 -0.7826597 -0.4002744 -3.9315832
000210 f0 9a c0 3e 82 a8 a1 3e e6 fe 04 c0 48 fe a1 bf
       0.37618208 0.31573874 -2.0780578 -1.2655725
000220 04 f7 6e bf 49 ac 83 3f e4 93 eb 3f a5 3c 1a be
       -0.93345666 1.0286952 1.8404508 -0.15062197
000230 86 c9 76 c0 64 7c 04 3e ab 99 9f 3f f9 49 aa bf
       -3.85605 0.12938076 1.2468771 -1.3303825
000240 d2 ee a0 3e ca e6 b6 bf a6 66 db 3d e9 b9 43 be
       0.31432205 -1.4289181 0.10712938 -0.19113888
000250 17 df fd bf ac bb 1a 3d 2d 23 29 3e 0c 6c f4 3d
       -1.9833707 0.037776634 0.16517325 0.11934671
000260 77 ec 28 bf 9f 44 c0 bf c3 ec 1d bf 26 a1 74 c0
       -0.65985817 -1.5020941 -0.61689395 -3.8223357
000270 a2 6e a8 be 27 d9 98 3f f9 14 f4 3c ab 7a 2f bf
       -0.32896906 1.194127 0.029795157 -0.6854655
000280 28 59 f9 bf 16 24 04 c0 a1 7a f9 be e3 07 ff 3d
       -1.9480333 -2.0647025 -0.4872637 0.12452676
000290 e6 5f 24 3e bc 9d 3b bf 97 e3 93 3e 48 21 96 3f
       0.16052207 -0.7328756 0.28884575 1.1728907
0002a0 00 f4 50 3f f9 be c4 be 4a 0d d8 be 4f 94 d6 3d
       0.81622314 -0.3842695 -0.4219764 0.10477506
0002b0 20 dd f8 3f b7 b7 a5 3e 94 d7 4b bf 02 ab 35 c0
       1.9442482 0.32366726 -0.7962582 -2.8385625
0002c0 d4 3c 88 bf da 8b cd 3b 05 2b 4a c0 c1 b4 9f be
       -1.0643563 0.006272775 -3.1588757 -0.31192592
0002d0 9a 4d be 3f f5 d8 a9 bf 46 58 38 3f 3d ec 3b bf
       1.4867432 -1.3269335 0.72009695 -0.73407346
0002e0 c9 44 3e bd 5a 0e ec be 53 11 00 3f 0e 93 37 c0
       -0.046452317 -0.461047 0.50026435 -2.8683505
0002f0 90 c6 09 bf 60 9d 6f bf d2 47 cb 3e 71 5b 5f 3f
       -0.5381861 -0.9359951 0.39703232 0.87248904
000300 b7 2f 80 bf 9a 45 fe 3d e1 4b 61 3f ca d9 ec 3f
       -1.0014561 0.12415619 0.8800641 1.8503964
000310 ca 80 90 3c 05 e1 8c bf bd 6e 8d 3e 88 d9 d4 3f
       0.017639536 -1.100617 0.2762355 1.6628885
000320 8c 16 17 40 22 bd b3 3c 8a 65 8e bf 36 d0 9a bf
       2.3607512 0.021940771 -1.1124737 -1.2094791
000330 49 54 51 3e 89 b9 66 be 95 33 5c 3f 9a 35 8c bf
       0.20442308 -0.22531714 0.8601621 -1.0953858
000340 67 5c 50 bf f0 ab 3e bd f6 83 eb bf c8 8a 0f 3f
       -0.81390995 -0.04655069 -1.8399646 0.5607114
000350 b8 d0 87 3f 39 83 0f bf 63 b6 71 bf a8 10 52 bf
       1.0610571 -0.56059605 -0.94418925 -0.82056665
000360 81 73 d7 be ae b9 a7 bf 13 6b 13 bf e3 81 fb 3e
       -0.4208031 -1.310354 -0.5758526 0.49122533
000370 9d 9f 29 3f 8c 9a 34 3f b7 ee 88 bf 88 b8 ce 3c
       0.66259176 0.7054832 -1.069785 0.025234476
000380 31 8d bd 3d 44 82 c9 3d 17 f8 47 be b9 47 1b bf
       0.09255446 0.09839299 -0.19528233 -0.60656315
000390 51 a1 8a 3d e0 4e 02 bf 11 d0 65 bf 3c 11 09 bf
       0.0676905 -0.50901604 -0.8977061 -0.5354192
0003a0 32 ac 7f 3f 44 30 e6 bd f7 4a ee 3e 75 5b 63 bf
       0.99872124 -0.11239675 0.4654157 -0.8881143
0003b0 c1 f5 ae 3f 80 f7 5c c0 bd 40 d0 3f 72 65 4b 3e
       1.3668748 -3.4526062 1.6269757 0.19862917
0003c0 ab 61 51 bf ec 4c f5 3e ec 05 6b bf e9 2a 9f 3d
       -0.81789654 0.4791025 -0.9180591 0.07771856
0003d0 82 99 c0 3f 2b 26 03 3f 5c 71 8f bf 23 bc 2d c0
       1.5046847 0.51230115 -1.120647 -2.714608
0003e0 e1 42 c1 bf 3d 21 e0 3e 99 94 69 3e a9 cb a7 bd
       -1.5098535 0.4377536 0.22810592 -0.08193142
0003f0 f6 d0 9d be d1 9c b0 3f 0f b3 12 bf 69 c2 b3 3f
       -0.30823487 1.3797857 -0.5730447 1.4043704
