crowd_nav/our_circle/rl_model_7.pth (torch, 143871 bytes, 33 tensors)

w_a f4 [32, 32]
0	0x3eb206b5	0.34770742
1	0x3d6ce859	0.05783877
2	0x3f3a89d7	0.72866577
3	0xbfde1e1e	-1.7352941
4	0xbf261222	-0.6487142
5	0x3e891199	0.26771238
6	0x3eb7a785	0.35869995
7	0xbe6ae72f	-0.22939752
8	0x3fe818ef	1.8132609
9	0x3ec01cf7	0.37522098
10	0x3f1ff930	0.62489605
11	0xbf1239fb	-0.5711972
12	0xbec405fb	-0.38285813
13	0xbef00a32	-0.46882778
14	0x3ea3b6e5	0.31975475
15	0xbf3a5c35	-0.72796947
16	0xbc265c96	-0.01015391
17	0xbeb7e947	-0.35920164
18	0xbce4a290	-0.027909547
19	0x3f86ac9a	1.0521424
20	0x3fbde7d2	1.4836371
21	0xbea0b689	-0.31389263
22	0xbd0df45f	-0.03465688
23	0x3ed9495b	0.42438778
24	0xbe47500b	-0.19464128
25	0xbecd4634	-0.40092623
26	0x3dbf2fe5	0.09335307
27	0xbf23feca	-0.6406065
28	0xbf01ddc5	-0.5072902
29	0xc031cea8	-2.7782383
30	0xbfa427e7	-1.2824677
31	0xc02c32f1	-2.6906092
32	0xbe07c06b	-0.13256995
33	0x3ecfade9	0.4056237
34	0xbf06daae	-0.5267743
35	0xbfaace6d	-1.3344246
36	0x3f00efc3	0.5036585
37	0xbe4b21c3	-0.19837098
38	0xbd72b6ab	-0.059256237
39	0x3f207fde	0.6269511
40	0xbecea854	-0.403628
41	0xbeb2b7d6	-0.3490588
42	0xbbecc739	-0.0072258976
43	0x3efe150e	0.49625438
44	0x3e4d77fa	0.20065299
45	0xbfaf78a9	-1.3708698
46	0xbf44de34	-0.76901555
47	0xbf7654e3	-0.96223277
48	0x3f091f54	0.5356343
49	0x3ea9d285	0.33168426
50	0xbf2e5e91	-0.68113047
51	0x3e1858d8	0.14877641
52	0x3f67461e	0.90341365
53	0xbf5a46da	-0.8526436
54	0xbf8b6f83	-1.0893406
55	0xbfbe1a39	-1.4851753
56	0x3ecee08b	0.40405688
57	0x3f535f2e	0.8256711
58	0xbeb574a2	-0.35440546
59	0x3e7f0bd2	0.24906853
60	0x3b51e980	0.0032030046
61	0x3f8da4d3	1.1065925
62	0x3fbbdb57	1.4676312
63	0xbf016e90	-0.5055933
64	0xbeca0e49	-0.39464024
65	0xbf3b6057	-0.7319388
66	0xbc92ef05	-0.017936239
67	0x3d9aa7ab	0.075515114
68	0x3e12e8d8	0.14346635
69	0xbf108da7	-0.56466144
70	0x3e5c1873	0.21493702
71	0xbf58c6a0	-0.8467808
72	0x3ec7214a	0.38892585
73	0x3f068515	0.5254682
74	0x3f1ceadc	0.61295867
75	0xbdeb0713	-0.11475959
76	0xbf1895bb	-0.5960347
77	0x3f895478	1.0728903
78	0xbf32b58f	-0.69808286
79	0x3e82530f	0.25453994
80	0xbf22c6f3	-0.6358482
81	0xbc7ece94	-0.015552182
82	0xbfc7358f	-1.556322
83	0x3ec0991a	0.37616807
84	0x3f14618c	0.57961345
85	0x3e010f9f	0.12603615
86	0x3f8907b5	1.0705477
87	0xbfe036da	-1.7516739
88	0xbf84ebd6	-1.0384471
89	0x3ebfd194	0.37464583
90	0xbf1459fb	-0.579498
91	0x3faf75f2	1.3707869
92	0xbea20897	-0.3164718
93	0xbf3938b1	-0.7235213
94	0x4011a128	2.2754612
95	0xbf813788	-1.0095072
96	0xbdc6ff61	-0.097166784
97	0x3f8a9459	1.0826522
98	0xbe81bb00	-0.25337982
99	0x3ebbed99	0.3670471
100	0x3f727e36	0.9472383
101	0xbf5f4ef3	-0.8722984
102	0x3f81b6c7	1.0133904
103	0xbf9da19b	-1.2314943
104	0x3f1be039	0.6088901
105	0xbef3c66d	-0.47612324
106	0xbf22774d	-0.6346329
107	0xbdd0687a	-0.10176177
108	0x3ebaba2a	0.36470157
109	0x3e48cf76	0.1961039
110	0x3f0e934f	0.55693525
111	0xbf2ef6d6	-0.6834539
112	0x3efb1f7d	0.4904746
113	0x3f73974e	0.9515275
114	0x3e0fec62	0.14055017
115	0x3e6d88f3	0.23196773
116	0xbf3c55eb	-0.735686
117	0xbf4d2e2c	-0.8014858
118	0xbfd8b0a0	-1.6928902
119	0xbf251344	-0.6448252
120	0xbe691537	-0.22761999
121	0x3e600767	0.21877824
122	0xc0300808	-2.7504902
123	0x3fbec047	1.4902428
124	0xbf33eee0	-0.7028637
125	0x40948a64	4.6418934
126	0xbe223b46	-0.15842924
127	0x3ca723dc	0.020402841
128	0x3ddd2623	0.107982896
129	0xbf38f848	-0.7225385
130	0xbedb209a	-0.4279831
131	0xbf87328a	-1.0562298
132	0xbf4fd608	-0.8118596
133	0x3c20045b	0.009766663
134	0x3d601600	0.05470848
135	0xbe1f3769	-0.15548481
136	0xbdb0ae56	-0.08627002
137	0x3f9c3087	1.2202309
138	0x3e219b8a	0.1578199
139	0xbeaaee75	-0.33385053
140	0xbf01f65c	-0.5076654
141	0x3f61f5a1	0.88265425
142	0x3fb00e2e	1.3754327
143	0x3fa56177	1.2920369
144	0xbf471498	-0.777658
145	0x3e3e8862	0.18606713
146	0xbc3d5309	-0.011555442
147	0x3f0e3902	0.55555737
148	0xbeaaa5e2	-0.33329684
149	0xbf87d20f	-1.061098
150	0xbf6dabdd	-0.9284037
151	0x3f987568	1.191083
152	0xbf8d6788	-1.104722
153	0xbe5c61dd	-0.21521707
154	0x3f7555cb	0.95834035
155	0xbef461ec	-0.47730958
156	0xbf861b70	-1.0477123
157	0xbf8090b2	-1.0044158
158	0xbfd67040	-1.6753006
159	0x3efcde41	0.49388316
160	0x3e112a2f	0.14176248
161	0x3ef1ea05	0.47248855
162	0xbe63ddc3	-0.22252564
163	0xbf2178f3	-0.6307518
164	0x3f99bddc	1.2011065
165	0x3e241368	0.16023028
166	0x3f9debab	1.2337545
167	0x400682db	2.1017368
168	0xbd64d895	-0.05587061
169	0x3e250c0f	0.16117881
170	0x3dba851f	0.09107422
171	0x3f7e521c	0.9934404
172	0xbed13de5	-0.40867534
173	0xbe54b054	-0.20770389
174	0xbf39b462	-0.7254087
175	0xbeb3539a	-0.3502472
176	0xbd00c7c2	-0.031440504
177	0xc09985c3	-4.7975783
178	0x3bc5eab4	0.0060399417
179	0xbffdae45	-1.9818808
180	0x3f285d80	0.6576767
181	0x3f5b8d79	0.85762745
182	0x3ec3288c	0.38116872
183	0xbe40c60a	-0.18825546
184	0xbfa0e14d	-1.2568756
185	0xbfc39aa5	-1.5281569
186	0xbeb95886	-0.3620035
187	0x3ecb6770	0.39727354
188	0xbde6872e	-0.11256252
189	0xbf7c613d	-0.98585874
190	0x3fd46b8a	1.6595318
191	0xbe93497d	-0.28767005
192	0xbeecd922	-0.4625941
193	0xbec639aa	-0.3871587
194	0x3e54f322	0.20795873
195	0xbde55bc3	-0.11199143
196	0x3ecb0b5a	0.39657098
197	0x3f6a6769	0.9156404
198	0xbf83ec36	-1.0306461
199	0x3dc53d76	0.09630863
200	0xbf96ee3f	-1.1791457
201	0xbec8a440	-0.39187813
202	0xbedc3aeb	-0.430137
203	0xbde71a9b	-0.112843715
204	0xbee4475c	-0.44585693
205	0x3ee6d326	0.45082968
206	0xbe5c4ff0	-0.21514869
207	0xbf149853	-0.5804493
208	0x3f68a1fd	0.90872175
209	0xbf776bd0	-0.96648884
210	0x3ee3bd4e	0.44480366
211	0xc01957d5	-2.3959858
212	0xbeb3bf17	-0.35106727
213	0x3f004739	0.5010868
214	0xbeee737c	-0.46572483
215	0xbda907d3	-0.082534455
216	0xbebc97b5	-0.36834493
217	0xbff91995	-1.9460932
218	0xbf0cb4cb	-0.5496337
219	0xbe7ff92f	-0.249974
220	0x3e8f3b24	0.27974808
221	0xbf907d4c	-1.1288238
222	0xbf4c8529	-0.79890686
223	0x3f5c4dfb	0.8605649
224	0x3f031ca9	0.51215607
225	0xbe8a0f78	-0.26964927
226	0xbf8aeb49	-1.0853053
227	0x3f2d1a53	0.6761829
228	0x3f4abb64	0.79192185
229	0xbea02f1d	-0.31285945
230	0x3d751629	0.059835587
231	0xbf04cb89	-0.5187307
232	0xbfe36be9	-1.7767307
233	0x3f8d9223	1.1060222
234	0xbfa20fb8	-1.2661047
235	0xbfbc6fa7	-1.4721574
236	0x3f0a4467	0.54010624
237	0xbfbbb493	-1.4664482
238	0xbf0a3167	-0.5398163
239	0xbeb1ab7f	-0.34701154
240	0xbf1e6e43	-0.61886996
241	0xbf7987a7	-0.97472614
242	0x3fac022e	1.3438165
243	0x3f06a887	0.526009
244	0xbfefdf00	-1.8739929
245	0x3e875d95	0.26438585
246	0xbfd125bc	-1.6339641
247	0xc023ff74	-2.5624666
248	0xbfa52a33	-1.2903503
249	0x3f8c0432	1.093878
250	0xbe4897db	-0.19589178
251	0x3f98c82a	1.1936085
252	0xbff7527c	-1.9322047
253	0xc003c848	-2.0590992
254	0xbf22900c	-0.6350105
255	0x3e8148c9	0.25250843

w_r.0.weight f4 [64, 9]
0	0x3f390a05	0.72280914
1	0x3ea4e81a	0.3220833
2	0x3e9188b1	0.284246
3	0xbed38316	-0.41310948
4	0xbea0a88e	-0.31378597
5	0x3d06e260	0.03293073
6	0xbf05b350	-0.52226734
7	0xbed7df90	-0.42162752
8	0xbcad3e2b	-0.021147808
9	0xbe47a8a7	-0.1949793
10	0xbf151c7f	-0.58246607
11	0x3db7fce4	0.08983782
12	0x3db67abd	0.08910129
13	0xbe521636	-0.20516285
14	0xbdc6dfdb	-0.09710666
15	0xbec83483	-0.39102563
16	0xbf09c8f0	-0.5382223
17	0xbe755fd3	-0.23962335
18	0x3ed0022d	0.4062666
19	0x3e957c06	0.29196185
20	0xbf954f93	-1.1664909
21	0x3e5e7df1	0.2172773
22	0xbdaf87f0	-0.0857085
23	0xbea18102	-0.31543738
24	0xbf155a25	-0.58340675
25	0xbe4d6b58	-0.2006048
26	0x3d6bdc40	0.057583094
27	0xbf0e5406	-0.5559696
28	0xbe12d094	-0.14337379
29	0xbd814322	-0.06311633
30	0xbdad994f	-0.08476507
31	0x3e55782e	0.20846626
32	0xbe2bcadb	-0.16776602
33	0xbe2818b0	-0.16415668
34	0x3e21c138	0.15796363
35	0x3e0cd9d8	0.13754976
36	0xbdfdf4a4	-0.12400177
37	0x3f5493bf	0.8303794
38	0xbce86b36	-0.028371435
39	0xbd15d001	-0.03657532
40	0xbe40a8f0	-0.18814445
41	0xbe1a7550	-0.15083814
42	0xbe31462b	-0.17311923
43	0xbeeb8531	-0.46000054
44	0xbd98b826	-0.074569985
45	0x3ec2fcb5	0.38083425
46	0x3e52615c	0.20544952
47	0x3d425a40	0.04744935
48	0x3d3a3727	0.045462754
49	0x3d53f8cb	0.05175094
50	0x3e67b330	0.22626948
51	0x3e549de8	0.20763361
52	0xbc8e84f2	-0.017397378
53	0xbe1a26be	-0.15053841
54	0xbe1b38e6	-0.15158424
55	0x3e20fbb9	0.15721025
56	0x3f87c819	1.060794
57	0x3f32c24c	0.69827724
58	0x3e637e9e	0.2221627
59	0xbe54eb18	-0.20792806
60	0xbd28f244	-0.041246668
61	0xbf000791	-0.50011545
62	0x3e60b59b	0.21944277
63	0xbe6d6c1d	-0.23185773
64	0x3e32bd4d	0.17455025
65	0xbf998893	-1.1994804
66	0x3db8ffe5	0.09033183
67	0xbe39f986	-0.18161592
68	0x3c567700	0.013089895
69	0xbe6dbe34	-0.23217088
70	0x3dd03663	0.101666234
71	0x3dbb7f2b	0.09155115
72	0xbf66977d	-0.900749
73	0x3e42e4af	0.19032548
74	0xbe53cff8	-0.20684803
75	0x3d78d782	0.0607524
76	0x3e8f041b	0.2793282
77	0x3deea7c6	0.11653094
78	0xbe6941de	-0.22779033
79	0xbedbe7ec	-0.4295038
80	0xbe88597b	-0.26630768
81	0x3ec6c830	0.38824606
82	0x3e6736af	0.22579454
83	0x3f03172b	0.51207227
84	0x3ee26467	0.44217226
85	0xbda906f0	-0.08253276
86	0x3e2f28de	0.17105433
87	0xbe0829de	-0.13297221
88	0xbf2c0462	-0.6719419
89	0x3e36866b	0.17824714
90	0xbe5618ee	-0.20907947
91	0x3ef72da0	0.48276997
92	0xbd151192	-0.03639371
93	0x3d2b5f45	0.041838903
94	0xbe0f4c38	-0.13993919
95	0xbd3b772b	-0.045767944
96	0x3ea6fb58	0.32613635
97	0xbe179472	-0.14802721
98	0x3c8d0aeb	0.01721712
99	0x3c8d9e97	0.017287536
100	0xba8881ef	-0.00104147
101	0xbe39db04	-0.18149954
102	0xbe4f8f66	-0.20269546
103	0xbea4c12a	-0.32178622
104	0x3e94c6ea	0.2905801
105	0xbde58c11	-0.11208356
106	0xbcc545b8	-0.024081096
107	0x3e3f9b23	0.18711524
108	0xbecebf61	-0.40380386
109	0x3e1f5db5	0.1556309
110	0xbf510b9a	-0.8165833
111	0xbedc9c24	-0.43087876
112	0xbd965470	-0.07340324
113	0xbe431cf8	-0.1905402
114	0xbf220e9d	-0.6330355
115	0xbe133118	-0.14374197
116	0x3e5a5040	0.21319675
117	0x3f622775	0.88341457
118	0xbe1a2580	-0.15053368
119	0xbd030aae	-0.031992607
120	0x3e97cddf	0.29649255
121	0x3e092c86	0.1339589
122	0xbe015ea8	-0.12633765
123	0xbedef7a2	-0.43548304
124	0xbe5dad91	-0.21648242
125	0x3e31240b	0.17298906
126	0x3db3d211	0.08780301
127	0x3e3c05bc	0.18361562
128	0xbf33c872	-0.7022773
129	0xbf6255c0	-0.88412094
130	0xbea4721e	-0.32118315
131	0xbe62984b	-0.22128408
132	0xbe9b3833	-0.30316314
133	0xbf37cc73	-0.7179634
134	0x3dd60520	0.10450196
135	0x3f17980b	0.59216374
136	0xbdd9f935	-0.106432356
137	0xbf86c483	-1.0528721
138	0x3f332ade	0.69987285
139	0x3db2db26	0.087332055
140	0xbe89d68f	-0.26921508
141	0xbf63ed01	-0.89033514
142	0xbf49fa90	-0.78897953
143	0x3dbe2366	0.092840955
144	0x3dc4e3ae	0.09613739
145	0x3e5b42f8	0.21412265
146	0x3e52d421	0.20588733
147	0xbdb64386	-0.08899598
148	0xbe5a4218	-0.21314275
149	0xbb484756	-0.0030560098
150	0xbe815c7d	-0.25265875
151	0xbebdd650	-0.3707757
152	0x3e40ba10	0.18820977
153	0xbe7c2756	-0.2462438
154	0x3ed1106b	0.40832838
155	0xbfa7634b	-1.3077177
156	0x3f76fec3	0.96482486
157	0x3e5533d8	0.20820558
158	0xbd23d700	-0.03999996
159	0xbe4b7d4a	-0.19872013
160	0xbe931859	-0.28729513
161	0xbe991e42	-0.29905897
162	0x3f8d6d5a	1.1048996
163	0x3e105b80	0.14097404
164	0x3df2954f	0.118448846
165	0x3d32a5a4	0.043615
166	0xbd6370e0	-0.055527568
167	0xbe9c2ffa	-0.30505353
168	0xbed9bfb0	-0.42529058
169	0xbeeefa75	-0.4667546
170	0x3e6bca78	0.23026454
171	0x3e1c7666	0.1527954
172	0xbe557230	-0.2084434
173	0x3efb2ade	0.49056143
174	0xbf0e2660	-0.55527306
175	0xbe9eac0a	-0.3099063
176	0x3e6aef76	0.2294291
177	0xbf0c42a2	-0.54789174
178	0xbd896aff	-0.06709861
179	0xbc866feb	-0.016410789
180	0xbf55b809	-0.8348394
181	0xbed5f8ed	-0.41791478
182	0xbe93b8eb	-0.2885202
183	0xbdf5ed41	-0.12008143
184	0x3e92ac47	0.28647062
185	0xbd3097c0	-0.04311347
186	0xbeb95632	-0.36198574
187	0xbea19ded	-0.315658
188	0x3c8759eb	0.016522368
189	0x3f035a28	0.5130944
190	0xbcf4c649	-0.029879706
191	0x3f712ad8	0.94206
192	0x3fb4d3dc	1.4127154
193	0xbe0525eb	-0.13002746
194	0x3d08dc6b	0.033413332
195	0xbeb64acf	-0.3560395
196	0xbeee7ac5	-0.4657804
197	0x3e8c943a	0.27456838
198	0x3f25c931	0.6476012
199	0xbeb2160b	-0.34782442
200	0x3e3d4aee	0.18485615
201	0x3d1cebd2	0.038310833
202	0x3e2697c3	0.1626883
203	0x3ea129f4	0.3147732
204	0xbdb64b6c	-0.08901104
205	0xbe58f52b	-0.21187274
206	0x3e128413	0.14308195
207	0x3ed7b1ce	0.42127842
208	0x3f101afd	0.5629118
209	0x3db26bb1	0.08711947
210	0xbbafaf55	-0.0053614774
211	0xbd7f37f6	-0.062309228
212	0x3d2bce56	0.041944824
213	0xbcc28148	-0.023743287
214	0xbea1244c	-0.31473005
215	0x3e6b82d0	0.2299912
216	0x3d17b75c	0.0370401
217	0x3e23c565	0.15993269
218	0x3f0cb882	0.54969037
219	0x3f603d6a	0.8759371
220	0xbe357403	-0.17720036
221	0xbc44842b	-0.011994402
222	0xbee814db	-0.4532841
223	0xbd81a43c	-0.06330153
224	0xbc9acfd6	-0.018897932
225	0xbf949e5c	-1.1610827
226	0x3e9b63ba	0.30349523
227	0xbd0868bc	-0.033303007
228	0x3bf3c7f9	0.00743961
229	0xbea6ede4	-0.3260337
230	0xbe139028	-0.1441046
231	0xbee7d0c3	-0.4527646
232	0xbebf5964	-0.37372887
233	0xbe801237	-0.25013897
234	0x3f65af87	0.8972096
235	0x3e22ee71	0.1591127
236	0xbb8acf6c	-0.0042361524
237	0x3ad4e5d5	0.0016242812
238	0xbce916c0	-0.02845323
239	0xbd4bdb40	-0.04976964
240	0xbdaafa24	-0.08348492
241	0xbe9efe87	-0.31053564
242	0xbd3b7896	-0.045769297
243	0xbd33f845	-0.04393794
244	0xbe5c425d	-0.2150969
245	0xbf1b23f9	-0.60601765
246	0x3f30308f	0.68824095
247	0x3ea27604	0.31730664
248	0xbcc40f00	-0.023932934
249	0xbf2708a9	-0.6524759
250	0xbed6723d	-0.41884032
251	0xbd86291b	-0.06550809
252	0xbf40fef9	-0.7538906
253	0x3e36cc4d	0.17851372
254	0xbf9cb315	-1.2242151
255	0x3ed0b742	0.40764815

w_r.0.bias f4 [64]
0	0xbe5572ba	-0.20844546
1	0xbeb5e7ac	-0.35528314
2	0xbec8d7cb	-0.39227137
3	0xbe330019	-0.17480506
4	0xbe3a4eb6	-0.18194088
5	0x3e12f378	0.14350688
6	0xbef5b2b8	-0.47987914
7	0xbd58ea85	-0.05295803
8	0xbe2afb45	-0.16697414
9	0xbe297252	-0.16547516
10	0x3e665eb4	0.22497064
11	0x3c441ca0	0.011969715
12	0xbf02460e	-0.50888145
13	0xbea389b1	-0.31940988
14	0xbeb56697	-0.35429832
15	0xbf1651f8	-0.58718824
16	0xbe940a69	-0.28914192
17	0xbefceb2a	-0.49398166
18	0x3d3bb418	0.045826048
19	0xbf029976	-0.5101541
20	0xbeadd6a0	-0.33952808
21	0xbf22f3d8	-0.63653326
22	0xbefb8450	-0.49124384
23	0xbe818a16	-0.25300664
24	0xbe021598	-0.1270355
25	0x3be8a644	0.0070998985
26	0xbef31d12	-0.47483116
27	0xbddcd7c6	-0.10783343
28	0xbeaf20f1	-0.3420482
29	0xbec5168a	-0.38493758
30	0xbeaa6666	-0.3328125
31	0xbf2040d1	-0.625989
32	0xbdeb956c	-0.11503109
33	0xbe9c6f8b	-0.3055385
34	0x3c340c72	0.010989295
35	0xbcc2b5c1	-0.023768308
36	0xbec51872	-0.38495213
37	0x3e877f75	0.2646443
38	0x3cd92bc5	0.026510129
39	0xbe903aac	-0.28169763
40	0xbedf3009	-0.43591335
41	0xbeb0d2e1	-0.34535888
42	0xbe7eb126	-0.24872264
43	0xbef4d227	-0.47816584
44	0x3d88e564	0.06684378
45	0xbeeebc05	-0.46627823
46	0xbe80f816	-0.25189275
47	0xbef2a25b	-0.47389492
48	0xbf1173c7	-0.5681729
49	0xbe4443d6	-0.19166502
50	0xbef23b16	-0.47310704
51	0xbe090992	-0.13382557
52	0xbed31736	-0.41228646
53	0xbebfa3bb	-0.37429604
54	0xbef86ad8	-0.48519015
55	0xbed83ad3	-0.4223238
56	0x3c4b0c78	0.0123931095
57	0xbf5d1b84	-0.8637011
58	0xbe0b68a9	-0.13614143
59	0xbe561edd	-0.20910211
60	0xbec8f1f3	-0.39247093
61	0xbf1baf15	-0.6081403
62	0xbeeaea2a	-0.45881778
63	0xbe9f31ce	-0.31092685

w_r.2.weight f4 [32, 64]
0	0x3e500e0d	0.2031786
1	0x3db069e7	0.08613949
2	0xbe9061b5	-0.28199545
3	0xbf147043	-0.579838
4	0xbe6e38d5	-0.23263867
5	0x3d7069ef	0.058694776
6	0xbb546a8a	-0.0032412135
7	0x3ea8c072	0.32959324
8	0xbf68c3cc	-0.9092376
9	0x3e2b4074	0.16723806
10	0xbe11c97a	-0.14237013
11	0xbda4fd07	-0.08056074
12	0x3efe6683	0.49687585
13	0xbe7526f7	-0.23940645
14	0xbea2a6d2	-0.317679
15	0xbd8537e0	-0.06504798
16	0xbe5eb451	-0.21748473
17	0x3dba76cc	0.0910469
18	0xbf419b90	-0.75627995
19	0x3dd4b1dc	0.103854865
20	0x3cf7c331	0.030244442
21	0x3dc375d6	0.0954396
22	0xbedc80c3	-0.43066987
23	0xbf812bea	-1.0091527
24	0x3e13ef39	0.14446725
25	0xbeae96ef	-0.34099528
26	0xbe11ba1d	-0.14231153
27	0xbef412d5	-0.47670618
28	0x3edf3f83	0.43603143
29	0xbece62d7	-0.40309784
30	0xbd075014	-0.033035353
31	0x3de95650	0.11393416
32	0x3e249976	0.16074166
33	0xbc43e074	-0.011955369
34	0x3dd35d4e	0.10320531
35	0x3e8e8c1b	0.27841267
36	0xbf5892e8	-0.8459916
37	0x3d26b9fd	0.040704716
38	0x3d8c91df	0.0686376
39	0xbe490f13	-0.19634657
40	0xbf35c3a5	-0.71001655
41	0xbd25f600	-0.040517807
42	0x3b34258e	0.0027488205
43	0x3e209b6e	0.15684292
44	0xbf9f8a9d	-1.2464176
45	0xbf58a2a9	-0.846232
46	0x3d4b08c6	0.049568914
47	0x3efd3aac	0.49458826
48	0x3ded5b2d	0.11589656
49	0x3cc7c70a	0.024386901
50	0x3eec2e2b	0.46128973
51	0xbf67ae35	-0.90500194
52	0x3dc92bda	0.09822817
53	0xbfe3ccd0	-1.7796879
54	0x3f452f4f	0.7702531
55	0x3d0576c0	0.032583952
56	0x3da287e5	0.07936076
57	0xbe75df3a	-0.24010935
58	0x3c873f9f	0.01650983
59	0xbe96ea81	-0.29475787
60	0xbe02801a	-0.1274418
61	0x3ec68058	0.38769794
62	0x3ece7249	0.40321568
63	0xbd2cf178	-0.04222247
64	0x3eb358ca	0.35028678
65	0xbe7725a0	-0.24135447
66	0xbe564287	-0.20923816
67	0x3e1add67	0.15123521
68	0xbeb17672	-0.3466068
69	0xbe85ba79	-0.2611883
70	0xbdc7a38e	-0.097479925
71	0xbd80c311	-0.06287206
72	0x3d393301	0.045214657
73	0x3e5c71ee	0.21527836
74	0x3dce7d8e	0.100825414
75	0xbda48167	-0.08032494
76	0xbe8bd14e	-0.27308124
77	0xbea3bc5b	-0.3197964
78	0xbe9cb34e	-0.3060555
79	0xbf09cda5	-0.53829414
80	0x3e459fa0	0.19299173
81	0x3d22cd01	0.03974629
82	0x3e2b03c8	0.16700661
83	0x3d631bdc	0.05544649
84	0xbd928be7	-0.071555905
85	0x3dd68cc2	0.10476066
86	0x3e02a69f	0.12758873
87	0x3e896027	0.2683117
88	0xbe651a3c	-0.22373289
89	0x3ee80642	0.45317274
90	0xbd1c20e8	-0.03811732
91	0xbdc95b9a	-0.09831925
92	0x3dc41164	0.095736295
93	0x3d27fc19	0.041011903
94	0x3f1e3132	0.61793816
95	0xbea7cd78	-0.32773948
96	0xbc8f64e8	-0.01750417
97	0x3dfbb33e	0.12290047
98	0xbdc3a417	-0.09552782
99	0xbdb905fd	-0.09034345
100	0x3d0b2b13	0.033976626
101	0x3d477d2b	0.048703354
102	0x3c61bdce	0.013778163
103	0xbc541304	-0.012943987
104	0xbe27524e	-0.1633999
105	0xbd03d935	-0.032189567
106	0x3d354f9f	0.044265386
107	0xbc4e3a85	-0.012587194
108	0xbcba0273	-0.022706246
109	0x3e670feb	0.22564666
110	0xbe148498	-0.14503706
111	0x3dd7ecaf	0.10543191
112	0xbdfcce20	-0.12344003
113	0xbe468165	-0.19385298
114	0x3e8026d7	0.25029632
115	0x3dd21045	0.102570094
116	0xbd830562	-0.06397511
117	0xbe643491	-0.22285677
118	0xbef2d664	-0.47429192
119	0x3f157490	0.58380985
120	0xbddeaa69	-0.10872347
121	0xbd9b4038	-0.07580608
122	0x3d586778	0.05283305
123	0xbc676bc0	-0.014124811
124	0x3dbfa3f8	0.093574464
125	0xbde4d431	-0.11173285
126	0x3d7b9754	0.061423615
127	0xbb7e7100	-0.0038824677
128	0x3dc0e3e5	0.094184674
129	0x3c04a7f5	0.008096685
130	0x3f605a5a	0.87637866
131	0xbe13f06f	-0.14447187
132	0xbebe2a01	-0.3714142
133	0x3ed48a5e	0.41511816
134	0xbe56c9e8	-0.20975459
135	0x3e02c46f	0.12770246
136	0xbe19e66c	-0.15029305
137	0xbddc7e45	-0.107662715
138	0x3f00c25b	0.5029656
139	0x3cc1d9bf	0.0236634
140	0xbe8776a6	-0.2645771
141	0x3da92e2b	0.08260759
142	0x3e439c93	0.19102697
143	0xbe61e8a0	-0.22061396
144	0x3d878aea	0.06618293
145	0xbcdbf934	-0.026852228
146	0xbee5a009	-0.4484866
147	0x3d0b60d3	0.034027886
148	0xbd7a9068	-0.061172873
149	0xbe98a5c7	-0.29813978
150	0xbb0ca7d4	-0.0021462338
151	0xbecb5859	-0.3971584
152	0x3d5f3f5c	0.054503784
153	0xbe98f425	-0.29873767
154	0xbe56492d	-0.20926352
155	0x3dc281c2	0.094974056
156	0xbe3f18bd	-0.1866178
157	0x3dd9023d	0.1059613
158	0xbec52425	-0.3850414
159	0x3ec368bb	0.3816584
160	0xbc85ee5a	-0.016349006
161	0xbd32c30c	-0.043643042
162	0x3ce561ac	0.028000675
163	0x3eaaa05f	0.33325478
164	0xbc13531c	-0.008991983
165	0xbd6cd528	-0.05782047
166	0xbe1dee11	-0.15422846
167	0xbcc079a6	-0.023495506
168	0x3e60c615	0.21950562
169	0xbc40ecec	-0.011775237
170	0x3d544e57	0.051832523
171	0xbe8271d5	-0.25477472
172	0x3d88ba0b	0.0667611
173	0x3e8e073e	0.277399
174	0xbe2087fb	-0.15676872
175	0x3e9f08af	0.31061313
176	0x3d8defc1	0.06930495
177	0xbdb47bb1	-0.08812655
178	0xbdc57ed0	-0.09643328
179	0xbcad2d30	-0.021139711
180	0xbd8d9044	-0.06912282
181	0xbd6053d3	-0.05476744
182	0xbf377e4f	-0.71677107
183	0x3e90ca5e	0.28279394
184	0x3aadbb44	0.0013254662
185	0xbdd51221	-0.104038484
186	0xbc222f52	-0.009898977
187	0x3d934c9e	0.07192348
188	0x3d939c34	0.07207528
189	0xbd9b8015	-0.07592789
190	0x3d08ad9f	0.033368703
191	0xbd0d80e8	-0.034546763
192	0x3e15a31a	0.14613
193	0xbdccf22b	-0.100071274
194	0xbcf0b1a7	-0.029381586
195	0xbf17693b	-0.59144944
196	0xc008ce2d	-2.137584
197	0xbed1405b	-0.40869412
198	0x3e0e9f93	0.1392806
199	0xbebf8bb3	-0.3741127
200	0x3d57713e	0.05259823
201	0xc05bc5fd	-3.4339592
202	0x3f0ab5c9	0.5418363
203	0xbd8a25df	-0.067455046
204	0xbdf7a542	-0.12092067
205	0xbff91212	-1.945864
206	0x3e0c94e7	0.13728677
207	0xbd8d33d0	-0.06894648
208	0xbf49bdab	-0.78805035
209	0x3e18061e	0.14846084
210	0xc0974b2c	-4.7279263
211	0xbf190f31	-0.59788805
212	0xbebda13a	-0.3703707
213	0xc085c65e	-4.1804647
214	0xbf5a8a09	-0.85366875
215	0xbf62c44a	-0.88580763
216	0xbc39e2bc	-0.011345562
217	0x3ec9c0a9	0.394048
218	0x3b806275	0.003917987
219	0xbe7abe0f	-0.24486564
220	0x3d879a8c	0.06621274
221	0x3e13c531	0.14430691
222	0x3fbe178f	1.485094
223	0xbf5a487e	-0.85266864
224	0xbe90222d	-0.28151074
225	0xbeaee035	-0.3415543
226	0xbd30052f	-0.042973693
227	0xbfda6199	-1.7061034
228	0x3e9ca0c7	0.30591413
229	0x3b540094	0.0032348977
230	0x3e1f0f2e	0.15533134
231	0xbd002ab3	-0.03129072
232	0xbfa2e36e	-1.2725656
233	0xbf01ae07	-0.5065617
234	0xba953c98	-0.0011385856
235	0xbd472566	-0.04861965
236	0x3ebb7358	0.36611438
237	0x3dcc1ac0	0.0996604
238	0xbcd0fdc5	-0.025511632
239	0x3d2d9d32	0.04238624
240	0x3c927b46	0.017881047
241	0xbf33cbb0	-0.7023268
242	0x3f08e5b9	0.5347553
243	0xc0140e58	-2.3133755
244	0xbf9b2017	-1.2119168
245	0x3e0937a1	0.13400127
246	0x3daac4b6	0.08338301
247	0x3e829f65	0.25512233
248	0x3bb9c169	0.0056688082
249	0xbd9e5d24	-0.07732609
250	0xbcb1c995	-0.021702567
251	0xbe49f111	-0.19720866
252	0xbf7aa1f9	-0.979034
253	0xbf3e1ca5	-0.7426246
254	0x3e9e209d	0.30884257
255	0x3d6df73c	0.05809711

w_r.2.bias f4 [32]
0	0xbdf7e34f	-0.121039025
1	0x3e8298f1	0.2550731
2	0x3e24f96d	0.16110773
3	0xbeabb268	-0.3353455
4	0xbd19a811	-0.037513796
5	0xbeb97902	-0.36225134
6	0xbb91bca3	-0.004447536
7	0xbdb1ef44	-0.086882144
8	0xbd4068dd	-0.046975005
9	0xbdf2ba0e	-0.11851893
10	0x3ea03896	0.31293172
11	0xbf187c37	-0.59564537
12	0xbf401f98	-0.7504821
13	0xbd446a5c	-0.047952995
14	0xbf268511	-0.65046793
15	0xbde0c6f7	-0.109754495
16	0xbe6c2256	-0.23059973
17	0xbdf243a3	-0.11829307
18	0x3e8525fe	0.26005548
19	0xbd1da20f	-0.03848463
20	0xbf09de1a	-0.53854525
21	0x3dfb59da	0.12272997
22	0xbd6adbfc	-0.0573387
23	0x3edffeb7	0.4374902
24	0xbe898f26	-0.26867026
25	0x3f653139	0.8952823
26	0xbf0d8f29	-0.5529657
27	0xbd21ac9a	-0.039471246
28	0x3ed319c4	0.41230595
29	0xbe4e36c1	-0.20138074
30	0xbe4dade4	-0.20085865
31	0x3e974060	0.29541302

w_h.0.weight f4 [64, 5]
0	0x3e3f5aef	0.18687032
1	0xbe9d0c1d	-0.30673304
2	0xbfc67a69	-1.5506107
3	0xbfa5fdf6	-1.2968128
4	0xbf649766	-0.89293516
5	0x3e56936a	0.20954672
6	0x3d958eb8	0.07302612
7	0xbf05f92c	-0.5233333
8	0x3fbc37e6	1.4704559
9	0xbf9654f6	-1.1744678
10	0x3b2bf89e	0.0026240717
11	0xbaffdb48	-0.0019520307
12	0xbd4124c8	-0.047154218
13	0x3dd62f8c	0.104582876
14	0xbd9a189e	-0.075242266
15	0xbe45ffb2	-0.19335821
16	0x3ee9fef8	0.45702338
17	0xbfd4969a	-1.660846
18	0xbea6be0c	-0.3256687
19	0xbea2aa72	-0.31770664
20	0x3da6fbf4	0.08153525
21	0x3eb7e61b	0.35917744
22	0xbf8b708f	-1.0893725
23	0x3fd698b2	1.6765349
24	0xbf1791c7	-0.59206814
25	0x3c8558b3	0.016277647
26	0xbcbd3b01	-0.023099424
27	0xbd1634b7	-0.036671367
28	0x3e8deb75	0.27718702
29	0xbf15b8c5	-0.5848506
30	0xbe8b55d0	-0.27213907
31	0x3e2bb4eb	0.16768233
32	0xbfa26a28	-1.2688646
33	0x3e1c9c71	0.15294053
34	0x3f0d26c0	0.5513725
35	0xb7da462f	-2.6020307e-05
36	0x3b855ba0	0.0040697604
37	0xbe26bf07	-0.16283809
38	0xbe435b14	-0.19077712
39	0xbf2a18c6	-0.6644405
40	0xbd977fbe	-0.07397412
41	0x3ed093dd	0.4073781
42	0x3e89b7f1	0.2689815
43	0x3efad557	0.4899089
44	0x3eb78175	0.35840955
45	0x3e5df29e	0.21674582
46	0xbe9fe769	-0.3123124
47	0xbedeb719	-0.43499067
48	0xc005fe49	-2.0936453
49	0xbf310af9	-0.6915737
50	0x3e831ef1	0.25609544
51	0xbed60167	-0.41797945
52	0x3db2bb0e	0.08727084
53	0xbfcab5b0	-1.5836697
54	0xbd464577	-0.04840609
55	0xbe0178ae	-0.12643692
56	0x3d7b87ad	0.061408687
57	0xbf6dc3c4	-0.9287684
58	0xbf2525ad	-0.64510614
59	0xbe9686a2	-0.29399592
60	0x3e96ef77	0.29479572
61	0x3e98351e	0.29728025
62	0x3f20f6a6	0.62876356
63	0x3f57d037	0.84302086
64	0x3f261a6e	0.6488408
65	0x3e20a9e5	0.1568981
66	0xbeadbe46	-0.3393423
67	0xbeb724d1	-0.35770276
68	0x3ecb5f21	0.39721015
69	0xbf9d9489	-1.2310954
70	0x3ec5b12c	0.38611734
71	0xbdcfcfd8	-0.10147065
72	0x3f99b00a	1.2006848
73	0xbee66eae	-0.45006317
74	0xbf60c736	-0.8780397
75	0xbe5d4e9d	-0.2161202
76	0xbc46f290	-0.012142792
77	0xbe9ac220	-0.3022623
78	0xbf8f0064	-1.1171994
79	0xbe96d652	-0.29460388
80	0xbee28972	-0.44245487
81	0x3eb146ee	0.34624428
82	0x3ebc5136	0.3678071
83	0x3f8d8b4a	1.1058133
84	0xbd562c0d	-0.052288104
85	0xbd80535e	-0.06265901
86	0xbd8e9004	-0.069610626
87	0xbf076fc3	-0.5290491
88	0xbf0d31bb	-0.5515401
89	0x3f5fda4e	0.8744248
90	0x3e628824	0.22122246
91	0x3e2c4991	0.16824938
92	0x3dcd9504	0.10038188
93	0x3f85b21b	1.0444978
94	0x3f4d0d61	0.8009854
95	0xbf17eaf3	-0.5934288
96	0x3e1c1d3c	0.15245527
97	0x3ea71387	0.32632086
98	0x3dc318cb	0.09526213
99	0x3e18fc91	0.14940096
100	0xbe830094	-0.2558638
101	0x3f1728f2	0.5904685
102	0xbf68b31c	-0.908983
103	0x3e86eed2	0.2635408
104	0xbdb1c4ff	-0.08680152
105	0xbea0108f	-0.31262633
106	0xbdde4814	-0.108535916
107	0x3f847326	1.034764
108	0xbf8db78f	-1.1071643
109	0xc0047c86	-2.0701003
110	0x3ed34d90	0.41270113
111	0x3ed375cf	0.41300818
112	0xbd315742	-0.043296106
113	0xbf7bc1d5	-0.9834264
114	0xbe692985	-0.22769745
115	0xbe473b93	-0.1945632
116	0xbf182b52	-0.594411
117	0x3f6fccd9	0.9367195
118	0xbfcbc5f1	-1.5919782
119	0x3d06d740	0.032920122
120	0x3eb837ab	0.3597997
121	0xbe395811	-0.18100001
122	0x3fdb13a6	1.7115371
123	0xbf11e003	-0.5698244
124	0xbf17a149	-0.59230477
125	0x3e12c9ac	0.14334744
126	0x3ef20381	0.47268298
127	0xbf9210fc	-1.1411433
128	0x3f323de4	0.6962569
129	0xbfb52043	-1.415047
130	0xbed9ead2	-0.42561966
131	0x3e8210bc	0.25403392
132	0xbf0d9bf1	-0.5531607
133	0xbf9ea1a3	-1.2393078
134	0xbfce9f85	-1.6142431
135	0xbd793e4b	-0.060850423
136	0x3aaec0ea	0.0013332639
137	0xbf8107ff	-1.0080565
138	0xbf9cf20b	-1.2261366
139	0xbfcee2a0	-1.616291
140	0xbeb412dd	-0.35170642
141	0xbe589253	-0.21149568
142	0xbf6a5c98	-0.91547537
143	0xbf9e255e	-1.2355154
144	0xbe5a9d78	-0.21349132
145	0xbe0fc5a1	-0.14040233
146	0xbeafdb2c	-0.34346902
147	0xbe29def2	-0.16588953
148	0xbf2da3af	-0.67827886
149	0xbe4398fd	-0.19101329
150	0xbd6947db	-0.056953292
151	0x3df84fca	0.121245936
152	0xbf10b4c0	-0.565258
153	0xbec7adc3	-0.38999757
154	0x3dcb4c0e	0.09926616
155	0x3d9ce5b6	0.076610014
156	0xbe41c9cc	-0.18924636
157	0x3f589557	0.84602875
158	0xbf8d0715	-1.1017786
159	0x3d318ad2	0.04334528
160	0xbbe6c31d	-0.0070423023
161	0x3dbe389e	0.092881426
162	0xbd1e876a	-0.03870336
163	0xbf15b803	-0.58483905
164	0x3f99b73f	1.2009047
165	0x3e0b5adb	0.13608877
166	0xbe21fd38	-0.15819252
167	0x3f8a43cf	1.0801944
168	0x3f2e69f2	0.6813041
169	0x3d813144	0.06308225
170	0xbeac7c9f	-0.33688828
171	0x3e1a81b4	0.1508854
172	0x3e44daef	0.19224142
173	0x3eb4b45b	0.3529385
174	0xbe07ab58	-0.13248956
175	0x3d93b4db	0.0721223
176	0xbf19394e	-0.59853065
177	0x3efd8438	0.49514937
178	0xbeb4e60d	-0.35331765
179	0xbf44c532	-0.76863396
180	0xbe2d33a1	-0.16914226
181	0xbe390a3b	-0.18070309
182	0xbf0308fc	-0.51185584
183	0x3f536351	0.8257342
184	0x3c02abf1	0.007975564
185	0xbeccfa82	-0.40034872
186	0xbeedd48c	-0.46451223
187	0xbf7b3661	-0.9812985
188	0xbd8fc086	-0.07019143
189	0xbf1a10eb	-0.60182065
190	0x3e8d67c8	0.2761824
191	0xbd9457ef	-0.072433345
192	0x3e97c9f9	0.2964628
193	0x3ed22fe9	0.41052178
194	0x3f831ccd	1.0243164
195	0x3e802d9f	0.25034806
196	0x3e269423	0.16267447
197	0xbfb9c502	-1.4513247
198	0x3f412caf	0.75458807
199	0xbf81f76c	-1.0153632
200	0x3ae72a4c	0.0017636507
201	0xbc677d1b	-0.014128949
202	0xbda047a1	-0.07826162
203	0xbc769225	-0.015049492
204	0xbdd9229c	-0.10602304
205	0x3c1e7567	0.009671546
206	0xbe0bf577	-0.13667856
207	0x3fd097d4	1.6296334
208	0x3f0b37a9	0.54381806
209	0xbf343820	-0.7039814
210	0xb9859c0a	-0.00025483995
211	0xb99124fe	-0.00027684117
212	0x3c21a929	0.009866991
213	0xbe237239	-0.15961541
214	0xbed6f93c	-0.41987026
215	0x3e69fa1e	0.22849318
216	0x3e01a93a	0.12662211
217	0x3f537a9f	0.8260898
218	0x3f550bc6	0.8322109
219	0xbe79d616	-0.24398074
220	0x3d9bb18e	0.07602225
221	0x3d6c0e6b	0.057630938
222	0x3e5d4354	0.21607715
223	0xbf1bfa7f	-0.609291
224	0xbf6da750	-0.92833424
225	0x3eb6943c	0.3565997
226	0x3f155dfe	0.58346546
227	0xbf35050f	-0.70710844
228	0xbf65b87a	-0.89734614
229	0xbf32d763	-0.69859904
230	0xbe769b5d	-0.24082704
231	0x3f34b871	0.70593935
232	0x3d7e89db	0.062143188
233	0xbe7b1bd4	-0.24522334
234	0xbf03cbff	-0.5148315
235	0xbde3f86d	-0.11131368
236	0x3e37f297	0.17963634
237	0x3e04da23	0.12973838
238	0x3fce78f5	1.6130663
239	0xbf4a2d90	-0.7897577
240	0xbe1f35b8	-0.15547836
241	0x3e7763b8	0.24159133
242	0xbc2270fd	-0.009914634
243	0x3fb78e79	1.4340354
244	0xbeac806d	-0.3369173
245	0xbc2c7d16	-0.01052787
246	0xba1a0d7b	-0.00058766425
247	0xbdb0137d	-0.08597467
248	0xbe27c215	-0.1638263
249	0x3d3fb286	0.046801113
250	0x3efa412a	0.4887784
251	0x3ed01452	0.40640503
252	0xbf155f47	-0.58348507
253	0x3ec1be9a	0.3784073
254	0xbf24e474	-0.6441109
255	0x3f0adde2	0.54244816

w_h.0.bias f4 [64]
0	0xbf91071d	-1.1330296
1	0xbf3e61d2	-0.7436801
2	0xbde2eafe	-0.110799775
3	0xbf9ca8e2	-1.2239039
4	0xbf3a87ed	-0.72863656
5	0xbe965568	-0.29362035
6	0xbf4cc35f	-0.7998561
7	0xbda71fff	-0.081604
8	0xbe042dcc	-0.12908095
9	0xbfae24c4	-1.360497
10	0xbe78a435	-0.2428139
11	0x3e4681e1	0.19385482
12	0xbf843baa	-1.0330708
13	0x3e8bc9f8	0.27302527
14	0xbbf6a209	-0.0075266403
15	0x3e3db365	0.18525465
16	0xbfa57b48	-1.2928247
17	0xbe9ac9d0	-0.30232096
18	0xbef0c546	-0.47025508
19	0xbf65f435	-0.89825755
20	0xbf4c1d39	-0.7973209
21	0xbf118ac7	-0.5685238
22	0xbfe136d5	-1.7594858
23	0xbfbda54b	-1.4816068
24	0xbf8191c1	-1.0122606
25	0xbe321ae2	-0.17393067
26	0xbe9910e3	-0.29895696
27	0xbe9277f2	-0.28607136
28	0xbeeec408	-0.46633935
29	0xbeaecb9c	-0.34139717
30	0x3ed2db32	0.41182858
31	0x3cb1d62b	0.021708569
32	0xbea853a2	-0.32876307
33	0xbf31691d	-0.69301015
34	0xbcb43bc6	-0.022001158
35	0xbfe2c8aa	-1.7717488
36	0xbd986cf7	-0.074426584
37	0xbfcc5112	-1.5962241
38	0xbf2f6240	-0.6850929
39	0xbf8aa772	-1.083235
40	0xbe75b530	-0.23994899
41	0xbf83f1c6	-1.0308158
42	0xbd0cd42f	-0.03438204
43	0xbe163270	-0.14667678
44	0x3ef0854d	0.469767
45	0xbe8944fe	-0.2681045
46	0xbf174bb4	-0.5909989
47	0xbe95ebbd	-0.29281417
48	0x3d9b7fd1	0.075927384
49	0xbec13671	-0.37736848
50	0xbf0ed32f	-0.5579099
51	0xbfced5d6	-1.6159008
52	0xbfbf7cf6	-1.496001
53	0xbfab61d0	-1.3389225
54	0xbdf4d358	-0.11954373
55	0xbfa69909	-1.3015453
56	0xbe1beb79	-0.15226544
57	0xbf548eb6	-0.8303026
58	0xbf481e05	-0.78170806
59	0x3e14f872	0.145479
60	0xbf11b94f	-0.56923383
61	0xbf4fc0e7	-0.8115372
62	0xbf82853a	-1.0196908
63	0xb9d98933	-0.00041491687

w_h.2.weight f4 [32, 64]
0	0x3e36cb9a	0.17851105
1	0x3ea110c8	0.31458116
2	0x3d0b6ec2	0.034041174
3	0xbed5d88f	-0.41766784
4	0x3ea49f51	0.321528
5	0x3d8cae9a	0.0686924
6	0xbe27d4ee	-0.1638982
7	0x3db62f8d	0.08895788
8	0x3ee65081	0.44983295
9	0x3f3c52bd	0.7356375
10	0x3d6f2f96	0.05839499
11	0xbdf3a177	-0.11896031
12	0x3f6589eb	0.8966357
13	0x3e188648	0.14894974
14	0x3f0607ec	0.5235584
15	0x3e8bee9e	0.27330488
16	0xbd1353d2	-0.03596861
17	0xbe1900bb	-0.14941685
18	0xbe9d08c1	-0.3067074
19	0x3cb5a9ee	0.022175755
20	0x3f0639f4	0.5243218
21	0xbd51cb9e	-0.051219575
22	0xbfaa2caf	-1.3294886
23	0xbde17c80	-0.110100746
24	0x3fb155b1	1.3854276
25	0xbeb4460a	-0.35209686
26	0xbe80b4bb	-0.25137886
27	0xbe0ec9ac	-0.13944119
28	0x3ea893dd	0.3292531
29	0xbd0ecf4a	-0.034865655
30	0x3e8f60bd	0.28003493
31	0xbf86754d	-1.0504547
32	0xbe79498b	-0.2434446
33	0xbea36469	-0.31912544
34	0x3e257430	0.16157603
35	0xbe0d065a	-0.13771954
36	0x3ddb4156	0.10705821
37	0x3ec7f438	0.39053512
38	0xbe4e8947	-0.20169555
39	0xbd04fcb0	-0.032467544
40	0xbb094a10	-0.0020948686
41	0x3f369c25	0.7133201
42	0xbcf9676a	-0.03044482
43	0xbe9e1643	-0.3087636
44	0x3e35e37a	0.17762557
45	0x3efdd53a	0.4957674
46	0x3dc622ae	0.096745834
47	0xbdb54b77	-0.088522844
48	0x3e813b12	0.2524038
49	0xbc5ad0cb	-0.013355444
50	0x3dc8b417	0.097999744
51	0x3eb56f45	0.35436454
52	0x3f8fae8a	1.122514
53	0xbd82c251	-0.06384719
54	0xbf161024	-0.5861838
55	0x3f1a16a4	0.60190797
56	0xbf0c6555	-0.5484212
57	0x3ff44e31	1.9086362
58	0x3f2d014b	0.675801
59	0xbe769455	-0.24080022
60	0xbdc71dab	-0.097224556
61	0x3e9c2a5f	0.30501077
62	0xbe687ab6	-0.2270306
63	0x3eacf20d	0.3377842
64	0x3d9f6aa8	0.07784015
65	0x3e6d7689	0.23189749
66	0xbe22673a	-0.1585969
67	0xbf70cba7	-0.9406075
68	0xbee04fe1	-0.43810943
69	0x3d3bc99a	0.04584656
70	0x3f374e9f	0.7160434
71	0xbd4372af	-0.047716793
72	0x3e8c9c6d	0.27463093
73	0x3f05f49e	0.5232638
74	0x3f1d851c	0.61531234
75	0xbef3448b	-0.47513232
76	0xbec09269	-0.37611702
77	0xbeb4375a	-0.3519848
78	0x3cf1e887	0.029529823
79	0xbd53c998	-0.051705927
80	0x3dfa1f59	0.1221301
81	0xbe1bb6b6	-0.15206417
82	0xbe75d871	-0.24008347
83	0x3e7194db	0.2359194
84	0xbecab542	-0.39591414
85	0x3db06c3d	0.08614395
86	0xbe8cc8fa	-0.27497083
87	0x3f2fc95f	0.6866664
88	0x3e45db8a	0.19322029
89	0xbf3a4273	-0.72757643
90	0xbf55e654	-0.8355458
91	0x3fb435e0	1.4078941
92	0xbec5f110	-0.3866048
93	0xbed91c90	-0.42404604
94	0x3dd83f8e	0.10558997
95	0x3eb00ab3	0.34383163
96	0xbe0e5819	-0.13900794
97	0xbf27f17c	-0.6560285
98	0xbe8332ab	-0.25624594
99	0x3ed4060a	0.41410857
100	0xbef1f0d4	-0.4725405
101	0xbf1396e6	-0.5765213
102	0x3dc90810	0.09815991
103	0xbebb9509	-0.36637142
104	0xbdc86993	-0.09785762
105	0xbe4f5297	-0.2024635
106	0x3e31db4a	0.17368808
107	0xbed2d8e5	-0.41181102
108	0x3f372da4	0.7155402
109	0x3e845601	0.25846866
110	0xbc8de81e	-0.017322596
111	0xbddfe351	-0.10932029
112	0x3e2d9812	0.16952541
113	0x3e325a19	0.17417182
114	0x3d7d0748	0.061774522
115	0xbf302b14	-0.6881573
116	0x3f3ca344	0.73686624
117	0x3ed6d30d	0.41957894
118	0xbcbd4ae8	-0.023107007
119	0x3f3d4eba	0.7394825
120	0x3ef8a671	0.48564485
121	0x3f931cf3	1.149321
122	0xbe8910d3	-0.26770648
123	0xbc4f0718	-0.012635969
124	0xbe1ae69b	-0.15127032
125	0xbe850abc	-0.25984752
126	0x3e6ed324	0.23322731
127	0x3f5f08fc	0.87123084
128	0xbdb930eb	-0.090425335
129	0xbcc43b6d	-0.023954118
130	0xbcb357f5	-0.021892527
131	0x3db49f99	0.08819503
132	0x3da8783e	0.082260594
133	0x3be7afe8	0.00707053
134	0xbdf667a8	-0.120314896
135	0x3da13093	0.07870593
136	0xbe4b8f80	-0.1987896
137	0x3d2939d4	0.041314915
138	0x3a1e0b73	0.0006028928
139	0xbe0caedd	-0.1373858
140	0xbe194b5d	-0.14970155
141	0xbdb2e29f	-0.08734631
142	0xbdd6225f	-0.104557745
143	0x3c5384bd	0.012910065
144	0xbc2dce97	-0.010608337
145	0xbd74014e	-0.059571557
146	0xbd21c737	-0.039496627
147	0x3d2d9ad3	0.04238398
148	0xbd751ee9	-0.05984393
149	0xbe1f755d	-0.15572114
150	0xbd724cbc	-0.05915521
151	0xbda70178	-0.08154577
152	0x3c88df47	0.01670803
153	0x3c0c04e3	0.008546087
154	0x3d45adfa	0.04826162
155	0xbdba5ab9	-0.09099335
156	0x3cc965ca	0.02458467
157	0xbdafd34b	-0.08585223
158	0xbd8d1f9e	-0.06890796
159	0xbda7156e	-0.08158384
160	0x3d8f61f0	0.07001102
161	0xbdb324a5	-0.08747224
162	0xbd7730e6	-0.060349368
163	0xbda5a1af	-0.08087479
164	0x3d0cb89c	0.034355745
165	0x3cc64cf7	0.024206622
166	0xbe28b207	-0.16474162
167	0xbb600c28	-0.0034186933
168	0xbdf5002a	-0.11962922
169	0x3d5b29f1	0.053506795
170	0xbe0588fc	-0.13040537
171	0x3da03c28	0.07823974
172	0xbb3463b4	-0.0027525248
173	0x3d1e0b98	0.038585275
174	0xbd219ba2	-0.039455064
175	0xba477569	-0.0007608743
176	0xbe324ffd	-0.17413326
177	0xbe33f45f	-0.17573689
178	0xbd74d96a	-0.059777655
179	0xbcc875b2	-0.024470184
180	0xbcbb4f0b	-0.022864839
181	0xbdec9a2c	-0.115528435
182	0x3d71b689	0.05901197
183	0x3d2d009f	0.04223692
184	0x3c97ab0a	0.018514175
185	0x3c96b29d	0.018395716
186	0x3d818aa0	0.06325269
187	0xbc403e3a	-0.011733586
188	0xbdcb8728	-0.099378884
189	0x3d937bb8	0.07201332
190	0xbdcf16b1	-0.1011175
191	0xbc0cbbc8	-0.008589692
192	0x3dc6c268	0.09705049
193	0x3d573bc9	0.05254725
194	0x3e4bb06f	0.19891523
195	0x3e997035	0.2996842
196	0x3ee13b7f	0.43990704
197	0x3ddc2487	0.107491545
198	0x3f85795e	1.0427663
199	0x3d137f02	0.036009796
200	0x3e1b1723	0.15145545
201	0x3e6beeab	0.23040263
202	0xbf03304d	-0.51245576
203	0x3eae01d4	0.3398577
204	0xbde2a9dd	-0.11067555
205	0x3e303c7c	0.17210573
206	0xbec40ae8	-0.3828957
207	0xbdc41518	-0.09574336
208	0xbf74f7e0	-0.9569073
209	0x3da31f0b	0.07964905
210	0x3e2e36ed	0.1701314
211	0xc0321449	-2.782488
212	0x3ece47ea	0.4028924
213	0x3fd99c1c	1.7000766
214	0x3d970fa9	0.07376034
215	0xbd298518	-0.041386694
216	0xbe8133b6	-0.25234765
217	0xbe02f4e8	-0.12788737
218	0x3eafed79	0.34360865
219	0x3e41e2a1	0.18934108
220	0x3eb50794	0.35357344
221	0xbf4ecb41	-0.8077889
222	0x3eca5cea	0.39524013
223	0xbed19008	-0.409302
224	0xbdbb37c8	-0.09141499
225	0xbdcbcbee	-0.09951006
226	0xbee010ac	-0.4376272
227	0x3f684249	0.90726143
228	0x3e31e772	0.17373446
229	0xbf20c5b4	-0.6280167
230	0xbe359afd	-0.17734905
231	0xbe73f5f9	-0.238243
232	0x3d3fa51b	0.046788316
233	0xbeddad2b	-0.4329618
234	0xbd9869cb	-0.074420534
235	0xbe0e6fda	-0.13909855
236	0xbe31302e	-0.17303535
237	0xbde1ce33	-0.110256575
238	0xbf71b40c	-0.94415355
239	0x3cd0c611	0.02548507
240	0x3ecb8c7f	0.39755628
241	0x3e603712	0.21896008
242	0x3dbaae82	0.09115316
243	0x3df07a9b	0.11742135
244	0x3f64d5f2	0.89388955
245	0x3f242089	0.64112145
246	0x3d6a05e1	0.057134513
247	0x3e3a9f0a	0.18224731
248	0x3bb8adbf	0.0056359465
249	0xbf199e73	-0.600074
250	0xbeeb8e24	-0.46006882
251	0xbd9dca74	-0.077046305
252	0xbbfecada	-0.0077756466
253	0xbee7533a	-0.45180684
254	0x3f19e071	0.60108095
255	0x3eabfdc7	0.33592054

w_h.2.bias f4 [32]
0	0xbda2a91e	-0.07942413
1	0x3e82eb0b	0.2556995
2	0xbe11e425	-0.14247186
3	0x3e9f7034	0.31140292
4	0xbda20be1	-0.07912422
5	0xbf7317dc	-0.9495828
6	0x3ebccac7	0.36873457
7	0x3f3d2527	0.73884815
8	0x3e8cb849	0.27484348
9	0xbe5fb2d5	-0.21845563
10	0xbee46bfb	-0.44613633
11	0xbea1316b	-0.31483015
12	0x3f0aca46	0.54214895
13	0x3eda7810	0.42669725
14	0xbf24f253	-0.6443226
15	0xbe585d80	-0.21129417
16	0xbe3666d1	-0.17812659
17	0xbe31a313	-0.17347364
18	0x3e4647a9	0.19363274
19	0xbcdf5798	-0.027263448
20	0xbed10b03	-0.40828714
21	0xbe1cb867	-0.15304719
22	0xbeeb8663	-0.46000966
23	0xbd6b6694	-0.057470873
24	0x3f0fc044	0.5615275
25	0x3b713424	0.003680476
26	0xbdb13bd4	-0.086539894
27	0x3d5159f0	0.05111116
28	0xbe05de81	-0.1307316
29	0xbe0d0bc0	-0.13774014
30	0xbf691767	-0.91051334
31	0xbe4a68da	-0.1976656

Ws.0 f4 [32, 32]
0	0xc0634553	-3.5511062
1	0x3f468462	0.7754575
2	0xbfb742e9	-1.4317294
3	0xbf6baacc	-0.9205749
4	0xbeb18008	-0.34667993
5	0xbeb97799	-0.36224058
6	0x3db913ce	0.090369806
7	0x3ecae972	0.3963123
8	0xbf9d359c	-1.2281985
9	0x3f6dbc39	0.9286533
10	0xc00bf581	-2.1868594
11	0xbee2fdf0	-0.44334364
12	0x3d5ed012	0.05439765
13	0xbf85f1b8	-1.0464392
14	0x3f43ce52	0.76486695
15	0xbe4d71a7	-0.20062886
16	0xbe4b7526	-0.19868907
17	0xbea0aced	-0.31381932
18	0x3f9aa842	1.2082598
19	0x3fed6d63	1.8549007
20	0xbf5edab6	-0.87052476
21	0xbf5b2839	-0.8560825
22	0xbf2f7b24	-0.6854727
23	0xbf7e026d	-0.9922245
24	0xbf5b8d27	-0.85762256
25	0x3e09e47f	0.1346607
26	0x3f1362b6	0.57572496
27	0x3fcaaf06	1.5834663
28	0xbe2d7294	-0.1693824
29	0xbf85a3c7	-1.0440606
30	0xbb5f9df6	-0.0034121252
31	0xbf622eb5	-0.8835252
32	0xc05006c5	-3.2504132
33	0xbfc3aaaa	-1.5286458
34	0x3ec91c0a	0.39279205
35	0x3fb1ad4a	1.3881009
36	0xbfe2a288	-1.7705851
37	0x3efaead7	0.49007294
38	0x3e825121	0.2545252
39	0xbea47495	-0.32120195
40	0x3f4c5d05	0.79829437
41	0xbf33e6af	-0.7027387
42	0xbede7f4d	-0.43456498
43	0xbda9aadd	-0.08284543
44	0x3f4c80e4	0.7988417
45	0xbf656400	-0.8960571
46	0x3ed28941	0.4112034
47	0xbf84e05b	-1.0380968
48	0xbd84672e	-0.064649925
49	0x3fc51b9e	1.5399053
50	0xbf91e54e	-1.1398103
51	0xbf1f85fb	-0.6231381
52	0xbf25d118	-0.64772177
53	0xbfcee610	-1.616396
54	0x3e851532	0.25992733
55	0xbeda2e81	-0.42613605
56	0x3e8b5efd	0.27220908
57	0x3f38f824	0.7225363
58	0x3f378867	0.7169251
59	0x3d0f0094	0.03491266
60	0xbda4abdb	-0.08040591
61	0xbfc60053	-1.5468849
62	0x3f6b4fa0	0.91918373
63	0x3f3983bd	0.7246664
64	0xbe39d435	-0.18147357
65	0xc011483b	-2.2700336
66	0xbe176b92	-0.14787129
67	0x3fac69b6	1.346976
68	0xbfc4e8fa	-1.5383599
69	0x3f9a8d1b	1.2074312
70	0xbe5bc543	-0.21461968
71	0xbe86833a	-0.26271993
72	0xc07dc5c3	-3.9651954
73	0x3f16c49e	0.58893764
74	0x3f27c952	0.65541565
75	0x3eb9f9a1	0.36323264
76	0xbfd92ca9	-1.6966754
77	0xc002b5ab	-2.0423381
78	0x3f6fd2a0	0.93680763
79	0xc01d4850	-2.4575386
80	0x4037f2e5	2.8742
81	0x3efb0123	0.49024305
82	0x3f23d8bc	0.64002585
83	0xbe45f76d	-0.19332667
84	0x3f383a66	0.7196411
85	0x3f1d2bbe	0.6139487
86	0xc00e42ee	-2.222835
87	0xbfb58d37	-1.418372
88	0x4003288f	2.0493505
89	0x3e0541fa	0.1301345
90	0x3ef0a129	0.46997955
91	0xbdf7e79a	-0.12104721
92	0x3f7a5fc3	0.9780237
93	0x3f57fb20	0.8436756
94	0x3faf2d4f	1.3685702
95	0x3f1ecb43	0.620289
96	0xc00414d8	-2.0637722
97	0x3ebe79c5	0.37202278
98	0x3f09e2b3	0.5386154
99	0xc042fc19	-3.0466368
100	0x3f9d5c17	1.2293729
101	0x3f81fa4b	1.0154508
102	0x3fbd9235	1.4810244
103	0x3f06462e	0.52450836
104	0x3f5a7918	0.85341024
105	0x3e46a8b4	0.19400293
106	0xbfd67ffb	-1.6757807
107	0x3f445464	0.7669127
108	0x3e027517	0.12739979
109	0x3edc74bd	0.43057814
110	0xbe8da208	-0.27662683
111	0x3f422423	0.7583639
112	0xbd811264	-0.06302336
113	0x3c90b30f	0.017663507
114	0x3f859028	1.0434618
115	0x40057df4	2.0858126
116	0x40088f24	2.1337366
117	0x3e43d0f4	0.19122678
118	0xbfd77738	-1.6833258
119	0xbd594e97	-0.053053465
120	0x3f9b75e2	1.214535
121	0xbfd3f42c	-1.655889
122	0x3f5e88a5	0.86927253
123	0x3db71dfb	0.08941265
124	0xbf075970	-0.52870846
125	0xbf9a297a	-1.2043908
126	0x3f013429	0.50470215
127	0xbe8e83ff	-0.2783508
128	0x3fa306b1	1.2736417
129	0xbf26691c	-0.65004134
130	0xbe4c94ee	-0.19978687
131	0xc08766b2	-4.231286
132	0x3dc95e83	0.0983248
133	0x3ea9c8b5	0.3316094
134	0xbfd4e6d7	-1.6632947
135	0xbfa74598	-1.3068113
136	0xbef5bdd2	-0.47996384
137	0x3f84a028	1.0361376
138	0x3fe19846	1.7624595
139	0xbdcffdbb	-0.10155817
140	0xc0a96851	-5.293984
141	0x3dfc14f6	0.123086855
142	0x3f7d3395	0.9890683
143	0xbf1f8707	-0.6231541
144	0x3dda0f47	0.10647445
145	0xbfbc75a0	-1.4723396
146	0x3db74578	0.08948797
147	0xbeae439c	-0.34035957
148	0xc00bef05	-2.1864636
149	0x3ebadd6e	0.36497062
150	0xbe8bb548	-0.27286744
151	0xbb055ffe	-0.0020351405
152	0xbf4d7668	-0.802588
153	0xc02e1b1c	-2.7204046
154	0xbee5f35c	-0.4491223
155	0xc069cde2	-3.653191
156	0xbe7dccf7	-0.24785219
157	0x3f8be231	1.0928403
158	0x3ededa4e	0.43525928
159	0xbf737a61	-0.9510861
160	0xc0a995c8	-5.299534
161	0xbf1eec38	-0.6207919
162	0xbf09d6f5	-0.53843623
163	0x3fb839df	1.4392661
164	0x3eae18a7	0.34003183
165	0xbe024f86	-0.12725648
166	0xbeaf2ebb	-0.3421534
167	0x3f8914f0	1.0709515
168	0x3f3002e3	0.68754405
169	0xbf36a882	-0.7135087
170	0xbee470e9	-0.44617394
171	0x3ee3d87d	0.44501105
172	0x3ff215c6	1.8912895
173	0x3ef8ef79	0.48620203
174	0xbf30ea2b	-0.6910731
175	0xc01ace6e	-2.4188495
176	0xbfa9873d	-1.3244396
177	0x3eb766ad	0.35820523
178	0xbfe6e2d9	-1.8037978
179	0xb7cfa5f0	-2.4753594e-05
180	0x3fc0ad99	1.5052978
181	0xbfc81722	-1.563206
182	0x3f63a00f	0.88916105
183	0xc04fea20	-3.2486649
184	0x3e56a7fd	0.2096252
185	0xbef94385	-0.48684326
186	0xbf244777	-0.64171547
187	0xc0577523	-3.3665245
188	0xbfb1f6f1	-1.3903486
189	0xbfa4048b	-1.2813886
190	0x3f189338	0.5959964
191	0x3fd53b08	1.665864
192	0xbf9e3db8	-1.2362585
193	0xbe289d89	-0.16466345
194	0x3f326b1b	0.6969468
195	0x3fba2d4d	1.4545075
196	0x3dc16e61	0.09444881
197	0xbf609990	-0.8773432
198	0x3e83ad8f	0.25718352
199	0x3faa5c7b	1.3309473
200	0x400627e0	2.0961838
201	0x3da21ec0	0.07916021
202	0xbf91d60b	-1.1393446
203	0xbfba09b3	-1.453421
204	0x3e8c7bee	0.274383
205	0xbe01a1a5	-0.12659319
206	0x3f269448	0.6507001
207	0xbf042500	-0.5161896
208	0xbf55d84a	-0.83533156
209	0xbdb6228d	-0.08893309
210	0xbfc98c8e	-1.5746019
211	0x3d3f9aec	0.046778604
212	0x3f189753	0.596059
213	0xbea4de5b	-0.32200894
214	0xbf087e17	-0.533174
215	0xbfd6e96f	-1.6789988
216	0xbf26f071	-0.65210634
217	0xbf9f8b17	-1.2464322
218	0xbf018ee8	-0.5060868
219	0x3ee0987d	0.4386634
220	0x3f222f2f	0.63353246
221	0x3edc03bb	0.42971596
222	0xbf938303	-1.1524357
223	0x3e0b4550	0.1360066
224	0xbf98354c	-1.1891265
225	0x3e02ad00	0.12761307
226	0xbe2a4ca9	-0.16630806
227	0xbf997a23	-1.1990398
228	0x3f217b9a	0.63079226
229	0xbef2e784	-0.47442257
230	0xbf4921c5	-0.78567153
231	0xbe9c235f	-0.30495736
232	0x3f2d51d2	0.6770297
233	0xbf430cd4	-0.7619145
234	0x3eee4b4c	0.46541822
235	0xbf3ecec4	-0.7453425
236	0x3fcef9f1	1.6170026
237	0xc05fb1a5	-3.4952176
238	0x3fe8a596	1.8175533
239	0xbe29566a	-0.1653687
240	0xbf18e73f	-0.59727854
241	0x3ebcbaa6	0.3686115
242	0xbe242987	-0.16031466
243	0x3d50bc06	0.050960563
244	0x3ff5a760	1.9191704
245	0x3dca366d	0.09873662
246	0xbf837762	-1.0270808
247	0xc02209c1	-2.5318453
248	0xc013e828	-2.3110447
249	0x3e948437	0.29007122
250	0x3e51f6eb	0.20504348
251	0x3c78a905	0.015177016
252	0xbeed2394	-0.46316206
253	0x3f57f405	0.8435672
254	0xbf85f6ec	-1.046598
255	0x3f2037be	0.62585056
