crowd_nav/our_circle/rl_model_8.pth (torch, 143871 bytes, 33 tensors)

w_a f4 [32, 32]
000000 af a4 93 3e ec d7 fd bd 5b c9 16 3f ba dc f4 bf
       0.2883658 -0.123946995 0.58900994 -1.912986
000010 dd 3a f5 be c7 34 4d 3e 70 be ad 3e e0 bc a8 bd
       -0.47896472 0.20039664 0.33934355 -0.0823915
000020 34 a8 da 3f f7 1c c0 3e f2 3b 59 3f 76 52 43 bf
       1.7082582 0.37522098 0.84857094 -0.762977
000030 7b fb e6 be 01 a7 e5 be 3d ae d8 3e 35 5c 3a bf
       -0.4511374 -0.44853976 0.42320433 -0.72796947
000040 e5 a3 c9 bd 6a 9b 03 be 17 77 aa b9 13 33 36 3f
       -0.098457135 -0.12852255 -0.00032513656 0.71171683
000050 c7 9e a4 3f 59 02 39 be 1c 36 e5 be d1 ec 35 3e
       1.2860955 -0.18067302 -0.44767845 0.1776612
000060 fb 67 99 be 97 76 97 be ce 3a 2d 3e 8a 9f f3 be
       -0.29962143 -0.29582664 0.16916963 -0.47582656
000070 80 ad da be a8 5a 24 c0 32 ab 81 bf 6b 4b 03 c0
       -0.42710495 -2.5680332 -1.013037 -2.0514781
000080 c9 c0 77 bd 52 98 d8 3e 97 fc 18 bf 00 a2 a3 bf
       -0.06048659 0.4230371 -0.5976042 -1.2783813
000090 e8 4e d9 3e 58 43 7c be 4d 5d 9b bd 06 05 3a 3f
       0.42443013 -0.24635065 -0.07586155 0.72663915
0000a0 5b e8 1c bf d6 b7 b2 be 5b 1d 62 3d 1a 6a 98 3e
       -0.61292046 -0.3490588 0.055203777 0.2976845
0000b0 93 59 59 3e 54 73 b3 bf 84 fd 6a bf e3 54 76 bf
       0.21225576 -1.401957 -0.91793084 -0.96223277
0000c0 0d bc 30 3f 54 a7 9a 3e b2 2f 24 bf e5 84 48 3e
       0.6903694 0.30205786 -0.6413528 0.19581945
0000d0 bc db 63 3f ef 4d 16 bf b1 48 84 bf 87 d4 d3 bf
       0.89007163 -0.5871267 -1.0334684 -1.6549233
0000e0 d2 34 e3 3e 64 c1 46 3f 07 da 06 bf f2 82 2c 3f
       0.44376236 0.7763884 -0.52676433 0.67387307
0000f0 a6 fb d9 3c cc 81 88 3f b3 e1 c4 3f 45 52 f9 be
       0.026609253 1.0664611 1.5381378 -0.4869558
000100 b4 41 e1 be 4d b0 2a bf f4 07 1c 3d be d5 a7 3d
       -0.4399544 -0.66675264 0.038093522 0.08195065
000110 dd 62 26 3e fa d2 73 bf 4f 2d 5d 3e f4 28 6d bf
       0.16248651 -0.952438 0.21599315 -0.92640615
000120 3e f9 af 3e 15 85 06 3f 91 d6 22 3f d0 b6 9e bd
       0.34369844 0.5254682 0.6360865 -0.077497125
000130 51 c1 10 bf 5a 03 86 3f 9a 3d 3f bf 0f 53 82 3e
       -0.5654498 1.0469773 -0.7470337 0.25453994
000140 26 78 cd be db a3 23 bc b8 d7 c2 bf ed 37 a6 3e
       -0.40130728 -0.009987797 -1.5222082 0.32464543
000150 4c e5 13 3f 3a 32 08 3e a1 d3 86 3f 2d 32 dc bf
       0.57771754 0.1330041 1.0533334 -1.7202812
000160 0e 71 6a bf 9d 44 a0 3e d4 3b 1c bf a8 6e b2 3f
       -0.9157876 0.31302348 -0.6102879 1.394002
000170 e8 f0 cf be b3 dc 34 bf 1e 70 0f 40 58 c1 70 bf
       -0.40613484 -0.7064926 2.241218 -0.9404502
000180 53 7e 70 be 61 98 90 3f 3e a8 18 be 85 05 a0 3e
       -0.23485689 1.1296502 -0.1490793 0.3125421
000190 ed eb 7a 3f 40 4e 2f be e1 d8 81 3f 42 c2 8a bf
       0.98016244 -0.17119694 1.0144311 -1.0840533
0001a0 4f 4d 1d 3f 6d c6 f3 be 53 d6 57 bf 78 ab 0a 3d
       0.6144609 -0.47612324 -0.8431141 0.03385493
0001b0 a4 47 d8 3e 3e 72 0e 3e 74 a5 04 3f d6 f6 2e bf
       0.42242157 0.13910767 0.5181496 -0.6834539
0001c0 da 11 de 3e bc a9 68 3f 7f 81 d9 3d d8 4e 78 3e
       0.43372995 0.90883994 0.106204025 0.24248827
0001d0 4f ad 59 bf 87 ed 48 bf 0f 14 d3 bf 32 b4 30 bf
       -0.8503007 -0.7848744 -1.6490496 -0.69024956
0001e0 ee ee 64 be c3 d2 8b 3e 32 ec 1f c0 a0 1a c1 3f
       -0.2235677 0.27309236 -2.4987912 1.508625
0001f0 1f 30 1d bf ba 4c a9 40 99 7f bf 3d 7c 9f 0c 3d
       -0.6140155 5.290616 0.09350509 0.034331784
000200 e2 e3 50 3e 54 a8 48 bf 10 66 e4 be dc 4f 62 bf
       0.2039943 -0.7838185 -0.44609118 -0.88403106
000210 9d fe 50 bf 26 8b 20 be aa 6c e1 bd 11 7e 0b be
       -0.8163851 -0.15678081 -0.11007054 -0.1362231
000220 bc 6e 2c be 87 30 9c 3f cd 02 1c 3e 30 ab ae be
       -0.16839117 1.2202309 0.15235443 -0.3411498
000230 14 83 d0 be 26 97 51 3f 2a 52 a0 3f 77 61 a5 3f
       -0.40725005 0.8187126 1.2525074 1.2920369
000240 39 33 61 bf 89 92 be 3d ef a7 22 bd 34 38 11 3f
       -0.87968785 0.09305293 -0.039710935 0.56726384
000250 f7 a8 d8 be d6 30 70 bf a1 9f 6d bf e5 19 9a 3f
       -0.4231641 -0.9382452 -0.928217 1.2039152
000260 d1 a6 93 bf 12 0f 3c be ff 24 75 3f 94 89 23 bf
       -1.1535283 -0.18365124 0.95759577 -0.638818
000270 20 b5 5e bf 65 f0 3f bf e9 7c ee bf 21 b3 d0 3e
       -0.86995125 -0.7497619 -1.863187 0.40761665
000280 86 bf ee 3c 34 f3 18 3f f4 6e 88 3e dd 38 45 bf
       0.02914406 0.597461 0.2664715 -0.7703989
000290 3c 78 c2 3f 0f 20 0b bd d4 fb 7b 3f 8f ae 14 40
       1.5192943 -0.03396612 0.98431134 2.3231542
0002a0 91 fe 11 3e 0f 0c 25 3e d7 0c e4 3d e4 3e 76 3f
       0.14257266 0.16117881 0.111352615 0.96189713
0002b0 65 82 a6 be 09 ff 47 3e 99 4c 4e bf 9a 53 b3 be
       -0.32521358 0.19530882 -0.8058563 -0.3502472
0002c0 5c 93 c5 be 70 14 6e c0 9e 45 d5 3e ec 8f 75 c0
       -0.3858899 -3.7199974 0.41654676 -3.8369093
0002d0 c9 bb 68 3f 67 16 5a 3f e1 e3 4f 3f 4a f6 29 3e
       0.9091154 0.85190433 0.8120709 0.16597858
0002e0 f7 7d ae bf f9 35 1c c0 14 78 34 bf 17 b1 c9 3d
       -1.3632191 -2.4407942 -0.70495725 0.0984823
0002f0 34 7d e5 bd 7e b7 ce bf 8d 06 1a 40 03 17 4b 3d
       -0.11205521 -1.6149747 2.4066498 0.049582493
000300 f8 57 a8 be 10 90 fb be 93 6f aa 3e fa 35 22 be
       -0.32879615 -0.49133348 0.3328825 -0.15840903
000310 f9 5d ec 3e 10 0d 4b 3f 31 9b 73 bf c0 e1 80 3d
       0.46165445 0.79316807 -0.9515868 0.062930584
000320 08 56 88 bf 40 a4 c8 be 2e 8c 11 bf d5 fb 29 bd
       -1.0651255 -0.39187813 -0.5685452 -0.04149993
000330 07 c7 a5 be 3f 0f ce 3e e7 a6 d0 be 53 98 14 bf
       -0.32378408 0.40246007 -0.40752336 -0.5804493
000340 3e 29 3f 3f 3d 5f 8d bf 7a a5 ac 3e c3 de 1b c0
       0.74672306 -1.104469 0.3372 -2.4354713
000350 49 09 d4 be d6 dd 1c 3f 94 97 e7 bd b2 0f e7 3d
       -0.41413334 0.61275995 -0.11308208 0.112822905
000360 f4 9b 42 be 25 44 dd bf e6 ce 13 bf ab 60 ab be
       -0.19004804 -1.7286421 -0.57737577 -0.3347219
000370 45 54 ac 3d d8 69 89 bf 08 e7 38 bf 26 65 39 3f
       0.08414511 -1.0735426 -0.72227526 0.72419965
000380 67 eb 11 3f ff 3f 92 be e5 82 d3 bf 96 0e 10 3f
       0.5699982 -0.2856445 -1.6524321 0.56272256
000390 88 b1 74 3f af 8f 1a bf b8 81 2d be e6 fa f1 bd
       0.9558339 -0.60375494 -0.16944015 -0.11815433
0003a0 30 1e cd bf 23 92 8d 3f b9 de 82 bf 88 0d ac bf
       -1.6024837 1.1060222 -1.022422 -1.344163
0003b0 5e 4b c0 3e ca e3 9f bf b9 26 24 bf 7f ab b1 be
       0.375575 -1.2491391 -0.64121586 -0.34701154
0003c0 f6 92 1e bf 8f c3 95 bf 4b ea b2 3f 14 43 ac 3e
       -0.61942995 -1.1700305 1.397775 0.33644927
0003d0 dc 62 03 c0 b5 98 29 3c 56 16 1b c0 a6 07 1e c0
       -2.052909 0.01035135 -2.4232383 -2.4692168
0003e0 f9 54 90 bf 80 13 b1 3f 22 5b 47 3e 58 a1 82 3f
       -1.1275932 1.3834076 0.19468358 1.0205488
0003f0 0b b5 f0 bf 57 53 7b bf 31 76 39 bf d3 f3 d1 3e
       -1.880525 -0.9817404 -0.7244597 0.41006336

w_r.0.weight f4 [64, 9]
000000 6e e1 29 3f ca 44 b7 3e 5d ff 80 3e ec 22 bc be
       0.66359603 0.3579467 0.25194827 -0.36745393
000010 8e a8 a0 be 60 e2 06 3d 1d 60 16 bf 9d 3c f9 be
       -0.31378597 0.03293073 -0.5874041 -0.48679057
000020 2b 3e ad bc fc d8 59 be 8b 50 32 bf 81 03 ed 3d
       -0.021147808 -0.21274179 -0.6965415 0.11572934
000030 5e 67 0e bc 36 16 52 be db df c6 bd 65 1d f3 be
       -0.008691637 -0.20516285 -0.09710666 -0.47483364
000040 85 4c 1f bf d3 5f 75 be 2d 02 d0 3e 06 7c 95 3e
       -0.62226135 -0.23962335 0.4062666 0.29196185
000050 93 4f 95 bf f1 7d 5e 3e f0 87 af bd 02 81 a1 be
       -1.1664909 0.2172773 -0.0857085 -0.31543738
000060 25 5a 15 bf 58 6b 4d be 40 dc 6b 3d 51 2c 2a bf
       -0.58340675 -0.2006048 0.057583094 -0.6647387
000070 a0 eb 41 be cc 10 09 be 48 9e 76 bd 2e 78 55 3e
       -0.1893754 -0.13385314 -0.060209543 0.20846626
000080 db ca 2b be 18 7f 3b be 45 5c 0e 3e d8 d9 0c 3e
       -0.16776602 -0.18310201 0.13902386 0.13754976
000090 87 29 c3 bd 96 95 64 3f a4 49 ed 3b 57 ca c2 bd
       -0.09529405 0.8929075 0.0072414447 -0.095112495
0000a0 f0 a8 40 be 50 75 1a be ac 02 18 be 95 e4 de be
       -0.18814445 -0.15083814 -0.14844769 -0.4353377
0000b0 26 b8 98 bd b6 d2 ca 3e db 7c 42 3e 92 03 3e 3d
       -0.074569985 0.39613885 0.18992941 0.046390124
0000c0 94 86 f8 3c cb f8 53 3d 30 b3 67 3e 43 b4 3f 3e
       0.03033761 0.05175094 0.22626948 0.18721108
0000d0 3a e9 1a bd be 26 1a be c4 7f 98 be 24 72 d5 3d
       -0.03782008 -0.15053841 -0.29784977 0.10422161
0000e0 90 01 aa 3f 81 19 db 3e 9e 7e 63 3e 18 eb 54 be
       1.3281727 0.42792895 0.2221627 -0.20792806
0000f0 b8 b6 b2 bd a3 d0 0b bf 9b b5 60 3e dc e4 84 be
       -0.08726257 -0.5461523 0.21944277 -0.25955856
000100 13 7b 8e 3e e9 17 90 bf a1 56 c5 bd 86 f9 39 be
       0.27828273 -1.1257297 -0.09635664 -0.18161592
000110 00 77 56 3c 39 9f 51 be 8e 39 04 3e 2b 7f bb 3d
       0.013089895 -0.20470895 0.1291258 0.09155115
000120 41 0f 70 bf 82 a5 4b 3e 00 db 41 be 83 cf 8e 3d
       -0.93773276 0.19887355 -0.18931198 0.069731735
000130 1b 04 8f 3e c6 a7 ee 3d 5d ad 64 be bb 9d d9 be
       0.2793282 0.11653094 -0.22331758 -0.4250315
000140 7b 59 88 be 70 be e4 3e cc fb 18 3e f1 74 55 3f
       -0.26630768 0.44676542 0.14939803 0.83381563
000150 90 35 5a 3e f0 06 a9 bd de 28 2f 3e 5a 29 17 be
       0.21309495 -0.08253276 0.17105433 -0.14761868
000160 36 cd 2f bf 6b 86 36 3e 9a 77 3d be ec 33 f8 3e
       -0.686725 0.17824714 -0.18502656 0.48477113
000170 8c 25 0e bd 65 e0 48 3d 38 4c 0f be 2b 77 3b bd
       -0.034703776 0.049042124 -0.13993919 -0.045767944
000180 1b 1b 9e 3e 56 54 29 be eb 0a 8d 3c 97 9e 8d 3c
       0.30880055 -0.16536078 0.01721712 0.017287536
000190 ef 81 88 ba 04 db 39 be 66 8f 4f be 2a c1 a4 be
       -0.00104147 -0.18149954 -0.20269546 -0.32178622
0001a0 ea c6 94 3e 11 8c e5 bd b8 45 c5 bc 23 9b 3f 3e
       0.2905801 -0.11208356 -0.024081096 0.18711524
0001b0 61 bf ce be b5 5d 1f 3e 9a 0b 51 bf 24 9c dc be
       -0.40380386 0.1556309 -0.8165833 -0.43087876
0001c0 70 54 96 bd f8 1c 43 be 9d 0e 22 bf 18 31 13 be
       -0.07340324 -0.1905402 -0.6330355 -0.14374197
0001d0 40 50 5a 3e 6c f9 76 3f 87 22 46 be e7 28 f1 bc
       0.21319675 0.9647434 -0.19349109 -0.02943845
0001e0 be 54 3e 3e 86 2c 09 3e a8 5e 01 be 40 c2 f8 be
       0.18587014 0.1339589 -0.12633765 -0.485857
0001f0 9b a5 88 be 0b 24 31 3e 11 d2 b3 3d bc 05 3c 3e
       -0.26688847 0.17298906 0.08780301 0.18361562
000200 72 c8 33 bf c0 55 62 bf 1e 72 a4 be 4b 98 62 be
       -0.7022773 -0.88412094 -0.32118315 -0.22128408
000210 33 38 9b be 73 cc 37 bf 20 05 d6 3d 0b 98 17 3f
       -0.30316314 -0.7179634 0.10450196 0.59216374
000220 35 f9 d9 bd 83 c4 86 bf de 2a 33 3f 26 db b2 3d
       -0.106432356 -1.0528721 0.69987285 0.087332055
000230 8f d6 89 be 01 ed 63 bf 90 fa 49 bf 66 23 be 3d
       -0.26921508 -0.89033514 -0.78897953 0.092840955
000240 ae e3 c4 3d f8 42 5b 3e 21 d4 52 3e 86 43 b6 bd
       0.09613739 0.21412265 0.20588733 -0.08899598
000250 18 42 5a be 56 47 48 bb 7d 5c 81 be 50 d6 bd be
       -0.21314275 -0.0030560098 -0.25265875 -0.3707757
000260 10 ba 40 3e d1 49 4e be c1 40 8c 3e 94 9e 99 bf
       0.18820977 -0.20145346 0.27393153 -1.2001519
000270 61 1d a6 3f d8 33 55 3e 00 d7 23 bd e4 bb 73 be
       1.2977716 0.20820558 -0.03999996 -0.23802143
000280 62 3b a7 be 42 1e 99 be a0 17 91 3f 80 8a 90 3d
       -0.32662493 -0.29905897 1.1335335 0.07057667
000290 73 d4 9a 3d 30 6d b8 3d e0 70 63 bd fa 2f 9c be
       0.07560053 0.09005201 -0.055527568 -0.30505353
0002a0 06 26 e5 be 67 60 fa be 78 ca 6b 3e 66 76 1c 3e
       -0.44755572 -0.48901674 0.23026454 0.1527954
0002b0 30 72 55 be de 2a fb 3e 60 26 0e bf 0a ac 9e be
       -0.2084434 0.49056143 -0.55527306 -0.3099063
0002c0 76 ef 6a 3e a2 42 0c bf ff 6a 89 bd eb 6f 86 bc
       0.2294291 -0.54789174 -0.06709861 -0.016410789
0002d0 92 78 65 bf 17 08 c1 bd 1b 0d de be ea ca 7a 3b
       -0.896371 -0.09425371 -0.43369374 0.003826792
0002e0 47 ac 92 3e c0 97 30 bd e1 9e ac be a1 e8 94 be
       0.28647062 -0.04311347 -0.33714965 -0.29083732
0002f0 eb 59 87 3c 66 fb 17 3f 6f 2e 20 bd e3 a0 7a 3f
       0.016522368 0.5936798 -0.039106783 0.97901744
000300 17 56 bc 3f eb 25 05 be 6b dc 08 3d 6a ac ba be
       1.4713773 -0.13002746 0.033413332 -0.36459666
000310 23 e3 f2 be 3a 94 8c 3e ee f3 34 3f f7 8e bf be
       -0.47438917 0.27456838 0.7068471 -0.3741376
000320 37 b3 28 3e a8 81 24 3d c3 97 26 3e f4 29 a1 3e
       0.16474615 0.040162712 0.1626883 0.3147732
000330 30 1f d4 bd 4d dd 67 be 13 84 12 3e a9 d6 e3 3e
       -0.10357511 -0.22643013 0.14308195 0.4449971
000340 c1 fe 14 3f b6 8b f5 3d 33 99 a7 3d f6 37 7f bd
       0.58201224 0.11989538 0.08183517 -0.062309228
000350 56 ce 2b 3d 87 e5 e1 bc ec 1b a3 be d0 82 6b 3e
       0.041944824 -0.027575267 -0.3185724 0.2299912
000360 5c b7 17 3d 65 c5 23 3e 82 b8 0c 3f 6a 3d 60 3f
       0.0370401 0.15993269 0.54969037 0.8759371
000370 03 74 35 be 2b 84 44 bc db 14 e8 be 3c a4 81 bd
       -0.17720036 -0.011994402 -0.4532841 -0.06330153
000380 d6 cf 9a bc d9 f6 96 bf 63 d2 91 3e db f7 1d bd
       -0.018897932 -1.1794082 0.28480825 -0.03856645
000390 5c ae ad 3d e4 ed a6 be 28 90 13 be 97 c2 ec be
       0.08480522 -0.3260337 -0.1441046 -0.4624221
0003a0 b6 4a c4 be 37 12 80 be 69 10 75 3f fa 90 32 3e
       -0.3833825 -0.25013897 0.95728165 0.17438117
0003b0 c8 b2 fd bc 15 04 0a bd c0 16 e9 bc 40 db 4b bd
       -0.030969039 -0.0336953 -0.02845323 -0.04976964
0003c0 e4 6f ad bd 6d 9c 9f be 96 78 3b bd 45 f8 33 bd
       -0.08468607 -0.3117403 -0.045769297 -0.04393794
0003d0 5d 42 5c be f9 23 1b bf 8f 30 30 3f 04 76 a2 3e
       -0.2150969 -0.60601765 0.68824095 0.31730664
0003e0 00 0f c4 bc a9 08 27 bf 3d 72 d6 be 1b 29 86 bd
       -0.023932934 -0.6524759 -0.41884032 -0.06550809
0003f0 f0 53 3a bf 1d d0 43 3e de 54 b0 bf 16 e3 14 3f
       -0.7278433 0.19122358 -1.37759 0.58159006

w_r.0.bias f4 [64]
000000 2d 16 8c be 71 ee e0 be cb d7 c8 be 10 65 46 be
       -0.2736067 -0.43931916 -0.39227137 -0.1937449
000010 04 0d 21 be 2d 13 fc 3d 61 a2 06 bf 60 e2 d0 bc
       -0.15727621 0.12308345 -0.5259152 -0.025498569
000020 d7 66 26 be 38 96 38 be d2 9e 54 3e a0 1c 44 3c
       -0.16250168 -0.18026054 0.2076371 0.011969715
000030 0e 46 02 bf 53 58 bd be 97 66 b5 be f8 51 16 bf
       -0.50888145 -0.3698145 -0.35429832 -0.58718824
000040 69 0a 94 be e7 87 08 bf 4c 03 c1 3c 76 99 02 bf
       -0.28914192 -0.5333237 0.023561142 -0.5101541
000050 54 21 a1 be 26 28 25 bf 9e 7c 01 bf 8e 81 83 be
       -0.3147074 -0.64514387 -0.50580776 -0.2568478
000060 98 15 02 be 02 b1 27 bb ef ba f3 be c6 d7 dc bd
       -0.1270355 -0.0025587683 -0.47603557 -0.10783343
000070 3b e6 c8 be da c7 c9 be 6d 3c f7 be d1 40 20 bf
       -0.39238152 -0.39410287 -0.4828829 -0.625989
000080 6c 95 eb bd 8b 6f 9c be 72 0c 34 3c bb 64 5f 3b
       -0.11503109 -0.3055385 0.010989295 0.003408714
000090 17 b2 be be 75 7f 87 3e c5 2b d9 3c be 80 85 be
       -0.37245247 0.2646443 0.026510129 -0.26074785
0000a0 cb 19 00 bf df a2 c6 be 26 b1 7e be af f6 e7 be
       -0.50039357 -0.38796136 -0.24872264 -0.45305392
0000b0 a1 4c 9b 3d 05 bc ee be 16 f8 80 be d0 b8 f6 be
       0.07582975 -0.46627823 -0.25189275 -0.48187876
0000c0 c7 73 11 bf d6 43 44 be 16 3b f2 be 92 09 09 be
       -0.5681729 -0.19166502 -0.47310704 -0.13382557
0000d0 36 17 d3 be 8f f3 d1 be d8 6a f8 be f6 04 f4 be
       -0.41228646 -0.41006133 -0.48519015 -0.47660035
0000e0 78 0c 4b 3c 84 1b 5d bf a9 68 0b be e9 20 93 be
       0.0123931095 -0.8637011 -0.13614143 -0.28736046
0000f0 f3 f1 c8 be 15 af 1b bf 2a ea ea be ce 31 9f be
       -0.39247093 -0.6081403 -0.45881778 -0.31092685

w_r.2.weight f4 [32, 64]
000000 0d 0e 50 3e e7 69 b0 3d b5 61 90 be 43 70 14 bf
       0.2031786 0.08613949 -0.28199545 -0.579838
000010 d5 38 6e be 93 0f 2a 3d 8a 6a 54 bb 72 c0 a8 3e
       -0.23263867 0.04151876 -0.0032412135 0.32959324
000020 cc c3 68 bf 74 40 2b 3e 7a c9 11 be 07 fd a4 bd
       -0.9092376 0.16723806 -0.14237013 -0.08056074
000030 83 66 fe 3e f7 26 75 be d2 a6 a2 be e0 37 85 bd
       0.49687585 -0.23940645 -0.317679 -0.06504798
000040 51 b4 5e be cc 76 ba 3d 90 9b 41 bf dc b1 d4 3d
       -0.21748473 0.0910469 -0.75627995 0.103854865
000050 31 c3 f7 3c d6 75 c3 3d ce 7c de be ea 2b 81 bf
       0.030244442 0.0954396 -0.43454593 -1.0091527
000060 39 ef 13 3e ef 96 ae be 1d ba 11 be d5 12 f4 be
       0.14446725 -0.34099528 -0.14231153 -0.47670618
000070 83 3f df 3e d7 62 ce be 14 50 07 bd 50 56 e9 3d
       0.43603143 -0.40309784 -0.033035353 0.11393416
000080 76 99 24 3e 74 e0 43 bc 4e 5d d3 3d 1b 8c 8e 3e
       0.16074166 -0.011955369 0.10320531 0.27841267
000090 e8 92 58 bf fd b9 26 3d df 91 8c 3d 13 0f 49 be
       -0.8459916 0.040704716 0.0686376 -0.19634657
0000a0 a5 c3 35 bf c1 29 29 bd 8e 25 34 3b f9 99 03 3e
       -0.71001655 -0.041299585 0.0027488205 0.12851705
0000b0 9d 8a 9f bf a9 a2 58 bf c6 08 4b 3d ac 3a fd 3e
       -1.2464176 -0.846232 0.049568914 0.49458826
0000c0 2d 5b ed 3d 0a c7 c7 3c 2b 2e ec 3e 35 ae 67 bf
       0.11589656 0.024386901 0.46128973 -0.90500194
0000d0 da 2b c9 3d d0 cc e3 bf 4f 2f 45 3f c0 76 05 3d
       0.09822817 -1.7796879 0.7702531 0.032583952
0000e0 e5 87 a2 3d 3a df 75 be 9f 3f 87 3c 81 ea 96 be
       0.07936076 -0.24010935 0.01650983 -0.29475787
0000f0 1a 80 02 be 58 80 c6 3e 49 72 ce 3e 78 f1 2c bd
       -0.1274418 0.38769794 0.40321568 -0.04222247
000100 63 1b fd 3e d3 87 bf bd 87 42 56 be 7a c3 07 3e
       0.49434957 -0.09352078 -0.20923816 0.13258162
000110 da 3b d1 be f5 9b 65 be 5a c7 80 bd fd 49 3f 3c
       -0.40865976 -0.22422774 -0.06288023 0.011675355
000120 1c be d7 3d 89 d3 15 be 15 7c b2 3c 67 81 a4 bd
       0.10534307 -0.14631476 0.021787683 -0.08032494
000130 4e d1 8b be ec ba 6e bf 4e b3 9c be a5 cd 09 bf
       -0.27308124 -0.9325397 -0.3060555 -0.53829414
000140 a0 9f 45 3e bc 53 21 bd 3c 32 0b 3e dc 1b 63 3d
       0.19299173 -0.039386496 0.13593382 0.05544649
000150 e4 31 c2 bd 7a 39 f9 3c a4 8d 85 3d 51 74 c9 3e
       -0.09482172 0.030422915 0.065211564 0.39346555
000160 3c 1a 65 be f5 45 e8 3e ec f0 15 be 9a 5b c9 bd
       -0.22373289 0.45365873 -0.14642686 -0.09831925
000170 83 9e 65 3e 1c 87 b2 bd 70 6d 33 3f 78 cd a7 be
       0.22423749 -0.08717176 0.70088863 -0.32773948
000180 e8 64 8f bc 3e b3 fb 3d 17 a4 c3 bd f9 8e 84 be
       -0.01750417 0.12290047 -0.09552782 -0.2589033
000190 be 23 15 3e 2b 7d 47 3d ce bd 61 3c d7 62 c5 bc
       0.14564416 0.048703354 0.013778163 -0.024094982
0001a0 8c d8 13 bb ae c6 d0 bd 9f 4f 35 3d a8 a8 fc bc
       -0.0022559492 -0.10194145 0.044265386 -0.03084214
0001b0 fa c2 9c 3d eb 0f 67 3e 98 84 14 be 1d 89 c3 3e
       0.07654376 0.22564666 -0.14503706 0.38190547
0001c0 20 ce fc bd 65 81 46 be d7 26 80 3e 45 10 d2 3d
       -0.12344003 -0.19385298 0.25029632 0.102570094
0001d0 62 05 83 bd 21 79 34 3c 64 d6 f2 be aa 75 40 3f
       -0.06397511 0.0110152075 -0.47429192 0.7517954
0001e0 69 aa de bd 38 40 9b bd 78 67 58 3d 3a 95 ba bd
       -0.10872347 -0.07580608 0.05283305 -0.09110494
0001f0 f8 a3 bf 3d 31 d4 e4 bd 54 97 7b 3d 00 71 7e bb
       0.093574464 -0.11173285 0.061423615 -0.0038824677
000200 b6 bf 3c 3d 61 6f 70 3e 5a 5a 60 3f df 43 08 be
       0.046081267 0.23479988 0.87637866 -0.13307141
000210 8f ab be be 01 fc ce 3e 2f 1c a2 be 73 7b 0b 3d
       -0.37240264 0.4042664 -0.31662127 0.034053277
000220 e6 2e 21 bd 46 b4 11 be 0c 1c 00 3f bf d9 c1 3c
       -0.039351366 -0.14228925 0.50042796 0.0236634
000230 a6 76 87 be c5 ac 5a 3e 93 9c 43 3e a0 e8 61 be
       -0.2645771 0.21354969 0.19102697 -0.22061396
000240 ea 8a 87 3d d6 b7 27 be c7 42 ca be d3 60 0b 3d
       0.06618293 -0.16378722 -0.39504072 0.034027886
000250 4b d6 18 be 33 3c 76 be 56 04 a1 3c c2 21 c4 be
       -0.14925496 -0.24046402 0.019655388 -0.38307005
000260 5c 3f 5f 3d d4 85 99 be 62 10 4d be c2 81 c2 3d
       0.054503784 -0.29984915 -0.20025781 0.094974056
000270 1a 86 3a bb bc cf a1 3c aa 70 97 be bb 68 c3 3e
       -0.0028461278 0.019752376 -0.29578143 0.3816584
000280 5a ee 85 bc 0c c3 32 bd ac 61 e5 3c 64 49 a7 3e
       -0.016349006 -0.043643042 0.028000675 0.3267318
000290 a0 4e 46 bd 28 d5 6c bd 11 ee 1d be 00 2e 5f bb
       -0.048414826 -0.05782047 -0.15422846 -0.0034054518
0002a0 c3 89 a6 3e f7 1a 2f bd 57 4e 54 3d 88 ee 6a be
       0.3252698 -0.042750325 0.051832523 -0.22942555
0002b0 0b 5a 89 3d 3e 07 8e 3e fb 87 20 be 13 06 95 3e
       0.067066275 0.277399 -0.15676872 0.29106197
0002c0 c1 ef 8d 3d b1 7b b4 bd d0 7e c5 bd 30 2d ad bc
       0.06930495 -0.08812655 -0.09643328 -0.021139711
0002d0 44 90 8d bd 69 55 e2 bb 4f 7e 37 bf e0 d0 f8 3c
       -0.06912282 -0.0069071543 -0.71677107 0.030373037
0002e0 44 bb ad 3a 21 12 d5 bd 52 2f 22 bc 7d cc 21 3e
       0.0013254662 -0.104038484 -0.009898977 0.15800662
0002f0 34 9c 93 3d 15 80 9b bd 9f ad 08 3d e8 80 0d bd
       0.07207528 -0.07592789 0.033368703 -0.034546763
000300 1a a3 15 3e 2b f2 cc bd a7 b1 f0 bc a1 b0 38 bf
       0.14613 -0.100071274 -0.029381586 -0.72144514
000310 7c 42 17 c0 b3 72 18 bf 87 b3 d6 bd 1a db d1 be
       -2.363433 -0.5955002 -0.10483461 -0.40987474
000320 39 42 3c bd fd c5 5b c0 4c b8 0f 3f df 25 8a bd
       -0.045961592 -3.4339592 0.5614059 -0.067455046
000330 42 a5 f7 bd 12 12 f9 bf e7 94 0c 3e d0 33 8d bd
       -0.12092067 -1.945864 0.13728677 -0.06894648
000340 ab bd 49 bf 8e 4c 40 3c 2c 4b 97 c0 31 0f 19 bf
       -0.78805035 0.011737002 -4.7279263 -0.59788805
000350 e5 d2 a7 bd 5e c6 85 c0 09 8a 5a bf 0e 72 96 bf
       -0.08194522 -4.1804647 -0.85366875 -1.1753557
000360 bc e2 39 bc 18 0d ef 3e 2e d3 5a 3d 0f be 7a be
       -0.011345562 0.46689677 0.053424053 -0.24486564
000370 1c 05 a6 be ad 4d 9f 3e fa 02 9a 3f 7e 48 5a bf
       -0.32425773 0.3111395 1.2032158 -0.85266864
000380 2d 22 90 be 35 e0 ae be 2f 05 30 bd 4f 26 07 c0
       -0.28151074 -0.3415543 -0.042973693 -2.1117132
000390 a9 3d 1a 3f 94 00 54 3b 2e 0f 1f 3e 8b 80 b2 bb
       0.60250336 0.0032348977 0.15533134 -0.0054474524
0003a0 1e b2 8b bf 87 26 f0 be 98 3c 95 ba 66 25 47 bd
       -1.0913732 -0.46904394 -0.0011385856 -0.04861965
0003b0 06 f8 07 3f c0 1a cc 3d c5 fd d0 bc 32 9d 2d 3d
       0.5311283 0.0996604 -0.025511632 0.04238624
0003c0 46 7b 92 3c b0 cb 33 bf b9 e5 08 3f 58 0e 14 c0
       0.017881047 -0.7023268 0.5347553 -2.3133755
0003d0 17 20 9b bf a1 37 09 3e b6 c4 aa 3d 8e 3b c0 3e
       -1.2119168 0.13400127 0.08338301 0.37545437
0003e0 69 c1 b9 3b 24 5d 9e bd 95 c9 b1 bc 5d cb 21 be
       0.0056688082 -0.07732609 -0.021702567 -0.15800233
0003f0 f9 a1 7a bf a5 1c 3e bf 9d 20 9e 3e 3c f7 6d 3d
       -0.979034 -0.7426246 0.30884257 0.05809711

w_r.2.bias f4 [32]
000000 f0 ac 19 be 12 ce 87 3e a0 d4 67 3e f7 f0 c4 be
       -0.15007377 0.26524407 0.22639704 -0.38465092
000010 1d b8 58 bd 02 79 b9 be a3 bc 91 bb 44 ef b1 bd
       -0.05290996 -0.36225134 -0.004447536 -0.086882144
000020 dd 68 40 bd 0e ba f2 bd 48 f3 ab 3e cf 05 20 bf
       -0.046975005 -0.11851893 0.33584046 -0.62508863
000030 e0 a2 51 bf b3 8d af bd aa 14 1f bf f7 c6 e0 bd
       -0.8188915 -0.08571949 -0.62140906 -0.109754495
000040 56 22 6c be a3 43 f2 bd af 8f 9d 3e b3 84 92 bd
       -0.23059973 -0.11829307 0.30773684 -0.071542166
000050 30 0d 05 bf 6e bb 09 3e 01 20 b5 bd 6a aa f1 3e
       -0.5197325 0.13450405 -0.08843995 0.47200328
000060 26 8f 89 be a0 69 69 3f 58 e4 e6 be 9a ac 21 bd
       -0.26867026 0.91176796 -0.45096087 -0.039471246
000070 2d 1d f3 3e 42 ab 85 be 33 e4 f9 bd 28 33 b9 3e
       0.47483197 -0.26107222 -0.12201729 0.36171842

w_h.0.weight f4 [64, 5]
000000 ef ee 54 3e 88 98 98 be 66 2e c7 bf ba f7 b0 bf
       0.20794271 -0.29803872 -1.5561035 -1.38256
000010 44 7b 64 bf eb 5a 74 3e fa d1 ea 3d 69 3a dc be
       -0.8925059 0.23862807 0.11465831 -0.43013313
000020 84 bd c8 3f 18 99 92 bf 9e f8 2b 3b 48 db ff ba
       1.5682836 -1.145297 0.0026240717 -0.0019520307
000030 c8 24 41 bd 8c 2f d6 3d 9e 18 9a bd 50 e9 40 be
       -0.047154218 0.104582876 -0.075242266 -0.18839002
000040 ff 7f 01 3f cd fa de bf 19 68 3e be 43 f5 9d be
       0.5058593 -1.7420288 -0.18594398 -0.30851182
000050 fa b9 a7 3d 57 28 a6 3e 9c 36 8a bf 18 05 e5 3f
       0.08189769 0.32452652 -1.0797915 1.789218
000060 af 4d 2b bf b3 58 85 3c 01 3b bd bc b7 34 16 bd
       -0.6691541 0.016277647 -0.023099424 -0.036671367
000070 75 eb 8d 3e c5 b8 15 bf 0d 53 7c be de 3e 20 3e
       0.27718702 -0.5848506 -0.24641056 0.15648982
000080 f2 d0 9b bf 79 57 7b 3e da 73 32 3f 2f 46 da b7
       -1.217314 0.24545087 0.69708025 -2.6020307e-05
000090 a0 5b 85 3b 07 bf 26 be 14 5b 43 be c6 18 2a bf
       0.0040697604 -0.16283809 -0.19077712 -0.6644405
0000a0 4f c1 29 bd 28 b6 c3 3e b9 07 8a 3e ac 98 10 3f
       -0.04144412 0.38224912 0.26959017 0.5648296
0000b0 dc 6f cc 3e 72 d9 5e 3e ec 2a bc be 58 45 ea be
       0.39929092 0.21762636 -0.36751497 -0.4575603
0000c0 37 e9 0b c0 9c 91 1b bf 94 bf 70 3e 80 13 ce be
       -2.1861093 -0.6076906 0.23510581 -0.40249252
0000d0 af c2 ae 3d c8 4c d2 bf d2 fc 26 bd e6 e7 bd bd
       0.08533227 -1.6429682 -0.040768452 -0.09272747
0000e0 79 26 20 3d 7d 80 52 bf d8 aa 22 bf c4 92 8f be
       0.03909919 -0.8222731 -0.63541937 -0.2804166
0000f0 71 89 8f 3e be 28 80 3e 7b 8d 2b 3f 10 f3 57 3f
       0.28034547 0.25031084 0.6701276 0.8435526
000100 83 ce 36 3f c0 65 17 3e e6 6e b1 be 46 ee ba be
       0.7140886 0.14784908 -0.3465492 -0.36509913
000110 9d 33 f9 3e 1a 6a a5 bf 85 b0 b7 3e 6a 86 ed bd
       0.4867219 -1.2923005 0.3587686 -0.11597903
000120 bc 09 96 3f 01 9f e8 be 52 d9 59 bf a2 10 65 be
       1.1721721 -0.4543381 -0.8509723 -0.22369626
000130 0e a2 17 bc be 82 c3 be f8 c6 93 bf f8 9d 9c be
       -0.009254945 -0.38185686 -1.1545095 -0.3058927
000140 05 44 f6 be 13 bb c8 3e 4e 24 32 3e ff 2f 8f 3f
       -0.4809877 0.39205226 0.17396662 1.1186522
000150 d8 92 85 3d 1d f7 72 bd b6 f9 ab bd fd 23 ea be
       0.06522149 -0.059317697 -0.08397238 -0.45730582
000160 ef 16 0a bf c5 a5 73 3f 3d 98 65 3e 3b 82 18 3e
       -0.53941244 0.9517482 0.22421356 0.14893429
000170 77 ab 0c 3e a1 04 84 3f 59 dc 47 3f 3a c2 22 bf
       0.13737284 1.0313913 0.780706 -0.63577616
000180 c5 b8 2f 3e c7 a2 47 3e 56 8f b2 3d 3d 29 1f 3d
       0.17160328 0.19495688 0.087187454 0.038857687
000190 93 e9 88 be 21 ce 16 3f 8d e4 6e bf 19 68 d5 3e
       -0.26740703 0.5890828 -0.9331749 0.41680983
0001a0 e2 e2 e7 bd be a4 b5 be 2c 94 0b be 7f 50 61 3f
       -0.11322571 -0.3547725 -0.13630742 0.8801345
0001b0 2e 05 a1 bf e2 a3 0b c0 1c de e3 3e 42 65 f0 3e
       -1.2579706 -2.1818776 0.44505394 0.46952254
0001c0 c1 38 ef 3d 63 c8 7a bf 4e bf db bc d6 ae 53 be
       0.11680747 -0.97962016 -0.02682462 -0.20672163
0001d0 5c 0d 1d bf 6a c4 6a 3f fc 8a db bf d2 0e b4 3c
       -0.6134851 0.91705954 -1.715179 0.021979723
0001e0 c3 de bc 3e fa 3b 2e be ad 1b e1 3f 01 dc 18 bf
       0.36888704 -0.17015067 1.7586571 -0.597107
0001f0 48 a7 f1 be b6 8b 35 3e ef 4d f4 3e 06 ff 94 bf
       -0.47197938 0.17729077 0.4771571 -1.1640327
000200 34 71 50 3f 3f e3 bb bf e9 f3 e7 be fd 63 8f 3e
       0.81422734 -1.4678725 -0.45303276 0.28005973
000210 cf 68 0e bf 76 51 ae bf ed c2 c7 bf 28 e0 55 bd
       -0.55628675 -1.361861 -1.5606362 -0.052215725
000220 5b 30 35 3d 99 5b 8e bf f8 b9 98 bf 29 53 db bf
       0.04423557 -1.1121703 -1.1931753 -1.7134753
000230 56 d8 b3 be b6 4a 32 be 53 f0 75 bf b0 e1 9a bf
       -0.3512599 -0.17411312 -0.9606983 -1.2100124
000240 18 10 94 be d4 5b 0b be 1c 2e b2 be c1 70 48 be
       -0.2891853 -0.13609248 -0.34800804 -0.19574262
000250 ed c0 35 bf 8c db 9e bd c9 cd 39 bd 9d 6e f2 3d
       -0.70997506 -0.07756719 -0.045362268 0.11837504
000260 75 3b e1 be 0b c2 90 be 83 c4 c1 3c f4 c4 a4 3d
       -0.43990675 -0.28273043 0.023653274 0.08045378
000270 c3 d3 41 be b0 78 60 3f 1c a4 8f bf 04 71 9f 3b
       -0.18928437 0.87684155 -1.1221957 0.0048657674
000280 8f c0 7d 3b 22 99 b7 3d 6c 96 39 3c 5e c3 fe be
       0.003871951 0.08964755 0.011327367 -0.49758428
000290 9b a6 a5 3f 3f e5 f8 3d 5f 9c 40 be 59 94 8e 3f
       1.2941469 0.121531 -0.18809651 1.1139022
0002a0 24 3b 09 3f 1c 3d 0d 3e b8 e4 bd be c7 a8 25 3e
       0.53605866 0.13792843 -0.3708856 0.16177665
0002b0 9c c3 3c 3e 9a 44 dc 3e 75 0b 47 be ff 8b 4a 3d
       0.18433994 0.4302109 -0.19437964 0.049449917
0002c0 10 78 14 bf 29 b8 18 3f 54 ab 04 bf 9c bf 37 bf
       -0.579957 0.59656006 -0.51823926 -0.7177675
0002d0 04 81 40 be 5d 71 43 be d7 82 14 bf 49 0b 57 3f
       -0.18799216 -0.19086213 -0.58012146 0.84001595
0002e0 2a 3f 56 bb 52 ff ed be d6 55 f8 be 10 2c 78 bf
       -0.0032691457 -0.46483856 -0.48502988 -0.96942234
0002f0 cc 28 d0 be 99 c1 20 bf 9b 39 8b 3e 40 38 90 bd
       -0.40656126 -0.62795407 0.27192387 -0.07041979
000300 d6 e6 bc 3e ef 4b 93 3e 39 e0 8b 3f 80 50 84 3e
       0.36894864 0.2876887 1.0927802 0.25842667
000310 fd d3 45 3e 6d 3f bf bf 2f 04 74 3f 46 f3 8c bf
       0.19319148 -1.4941231 0.95318884 -1.1011741
000320 4c 2a e7 3a 1b 7d 67 bc a1 47 a0 bd 25 92 76 bc
       0.0017636507 -0.014128949 -0.07826162 -0.015049492
000330 9c 22 d9 bd e8 21 f8 3c 7f bb 22 be e0 dd d8 3f
       -0.10602304 0.030289605 -0.15891837 1.6942711
000340 2a d4 0d 3f 97 15 30 bf 0a 9c 85 b9 fe 24 91 b9
       0.5540186 -0.68782943 -0.00025483995 -0.00027684117
000350 29 a9 21 3c 39 72 23 be 3c f9 d6 be 2a 3e 61 3e
       0.009866991 -0.15961541 -0.41987026 0.2199637
000360 b1 85 e7 3d 6a 34 5c 3f 17 99 59 3f b4 5d 60 be
       0.113047965 0.8601748 0.8499922 -0.21910745
000370 3e 79 8d 3d 2b ae 8a 3d 1c 14 80 3e 07 0b 25 bf
       0.06907891 0.06771501 0.25015342 -0.6446995
000380 15 c4 8d bf 18 bb ca 3e 71 5d 23 3f 4c 2a 27 bf
       -1.1075464 0.39595866 0.63814455 -0.65298915
000390 4f 59 5c bf 68 2c ec be bb 79 83 be 3c 1b 3d 3f
       -0.86073774 -0.4612763 -0.2567881 0.7386968
0003a0 6e 64 1a 3d 82 28 c5 bd e5 ae 0b bf 57 ce aa bd
       0.037693433 -0.09626867 -0.5456374 -0.083401375
0003b0 2e ce 53 3e 7c 05 ed 3d 74 5b d5 3f c8 0f 56 bf
       0.2068412 0.11573312 1.6668534 -0.8361783
0003c0 0b d2 16 be 84 f8 7d 3e 3b 6b f7 bc 28 75 be 3f
       -0.14728563 0.24801832 -0.030202499 1.4879503
0003d0 74 95 c0 be 16 7d 2c bc 7b 0d 1a ba 7d 13 b0 bd
       -0.37614024 -0.01052787 -0.00058766425 -0.08597467
0003e0 15 c2 27 be 86 b2 3f 3d 32 89 04 3f 44 92 db 3e
       -0.1638263 0.046801113 0.51771843 0.4288503
0003f0 b2 12 07 bf 1c 49 05 3f be 56 39 bf e5 ad 10 3f
       -0.527629 0.5206468 -0.72397983 0.5651534

w_h.0.bias f4 [64]
000000 89 e4 94 bf 23 f5 43 bf fe ea e2 bd 6a bc 9f bf
       -1.1632243 -0.76545924 -0.110799775 -1.2479374
000010 e3 3f 40 bf 68 55 96 be ff 30 51 bf ff 1f a7 bd
       -0.75097483 -0.29362035 -0.8171539 -0.081604
000020 dd 84 0e be 22 6a b5 bf ea fe 65 be 06 e5 1f 3e
       -0.13917871 -1.4173014 -0.22460523 0.1561471
000030 3e 69 87 bf 3f f9 87 3e b4 73 04 3a 89 93 4b 3e
       -1.0578992 0.26557347 0.00050526415 0.19880499
000040 8a 85 af bf bf 67 b6 be fa dd fa be 1a da 69 bf
       -1.3712628 -0.35626027 -0.4899748 -0.9134842
000050 57 84 53 bf 13 a7 12 bf f1 e5 fa bf b1 f6 c2 bf
       -0.8262381 -0.57286185 -1.9601423 -1.5231534
000060 63 8e 82 bf fe e7 9c be 83 b9 e6 be 60 48 85 be
       -1.0199703 -0.30645746 -0.4506341 -0.2603178
000070 18 95 da be e1 3a d0 be 48 bf ad 3e 63 77 57 3c
       -0.42691875 -0.4066992 0.33935 0.013151023
000080 b0 73 ce be 9b 8a 36 bf c7 d7 63 3c ad 1b e9 bf
       -0.40322638 -0.71305245 0.013906426 -1.8211571
000090 35 1f a1 bd 93 3e d2 bf dd 63 29 bf 0c bb 92 bf
       -0.078672804 -1.6425346 -0.66168004 -1.1463332
0000a0 30 b5 75 be e9 0d 8b bf 2f d4 0c bd 5d c6 29 be
       -0.23994899 -1.086362 -0.03438204 -0.16579576
0000b0 d1 2d 04 3f 47 20 cb be 73 0d 26 bf 06 aa 27 be
       0.5163241 -0.39673063 -0.6486427 -0.16373453
0000c0 2c 11 c9 3d 71 36 c1 be ce d3 1a bf 66 36 c1 bf
       0.098177284 -0.37736848 -0.6047944 -1.5094726
0000d0 7c f7 c9 bf 89 d8 b0 bf 9e 6c 1f be 14 84 ac bf
       -1.5778651 -1.3816081 -0.15568778 -1.3477807
0000e0 8f b0 0d be e3 15 67 bf 39 39 57 bf 47 41 28 3e
       -0.13836883 -0.9026777 -0.8407169 0.16431151
0000f0 a6 da 13 bf a0 49 49 bf e5 8e 91 bf 42 b7 4e bb
       -0.57755506 -0.7862797 -1.1371733 -0.0031542336

w_h.2.weight f4 [32, 64]
000000 af 04 b2 3d 66 7a 7f 3e c2 6e 0b 3d 4b 71 f2 be
       0.086922996 0.24949035 0.034041174 -0.4735206
000010 1a 34 b9 3e 9a ae 8c 3d d0 74 5e be 8d 2f b6 3d
       0.36172563 0.0686924 -0.21724248 0.08895788
000020 e9 2d dd 3e e6 de 03 3f 16 53 34 bd 29 07 23 be
       0.4319909 0.5151199 -0.04402455 -0.159207
000030 a1 70 49 3f 33 df df 3d 0d 17 13 3f ad a1 9a 3e
       0.78687483 0.10931244 0.5745705 0.30201474
000040 82 d4 cc bc 90 bb 2a be 39 76 88 be 4a 9d 30 3d
       -0.025003675 -0.16673112 -0.26652697 0.043118753
000050 eb 22 ce 3e 4e 3a 61 bd 07 e6 b4 bf c9 b3 14 be
       0.40261015 -0.054987244 -1.4132699 -0.14521708
000060 f2 e5 be 3f 6a 62 f2 be af 52 90 be e5 af f0 bd
       1.4913924 -0.4734071 -0.28188083 -0.11752299
000070 77 cb bd 3e c2 02 4e bc c4 35 bb 3e 9c eb 97 bf
       0.37069294 -0.0125739 0.36564457 -1.1868777
000080 9c 5a 18 be b5 f0 85 be 28 d0 42 3e 9e f3 a8 be
       -0.14878315 -0.26160207 0.19024718 -0.32998365
000090 f9 9b 31 3e 61 a5 8e 3e 47 56 d8 be 77 3d 5b bd
       0.17344655 0.2786055 -0.42253324 -0.053525414
0000a0 10 4a 09 bb b6 7b 3b 3f 6a 67 f9 bc 95 a5 d5 be
       -0.0020948686 0.7323564 -0.03044482 -0.41727892
0000b0 7b 43 35 3e 25 5e 01 3f ae 09 de 3d 00 15 cb bd
       0.17701523 0.5053428 0.1084169 -0.09916115
0000c0 6b 32 98 3e cb d0 5a bc 63 ea 04 3e 17 64 f0 3e
       0.29725966 -0.013355444 0.12980036 0.46951362
0000d0 fd 2d 82 3f 97 a3 a8 bd db 78 08 bf 1c 00 4c 3f
       1.0170285 -0.08234327 -0.5330941 0.79687667
0000e0 ae f0 13 bf 8e 81 ee 3f 24 af b9 3e bf b5 67 be
       -0.57789123 1.8633287 0.36266434 -0.22627924
0000f0 27 a2 27 be 91 50 cf 3e 5e fb 6a bc 0a d7 ad 3e
       -0.1637045 0.40491155 -0.014342157 0.33953124
000100 d6 99 61 3d 08 de ba 3e 3a 67 22 be ed df 85 bf
       0.05507835 0.3649752 -0.1585969 -1.0458962
000110 84 3a 1f bf 9a c9 3b 3d 19 cf 47 3f af 72 43 bd
       -0.6219866 0.04584656 0.7805038 -0.047716793
000120 5a 9f a7 3e 38 40 29 3f ac 16 52 3f 68 6c 0b bf
       0.32738763 0.66113615 0.82065845 -0.5446229
000130 5d 3e f4 be bd 1e d1 be 9f 88 65 3d 4a f0 18 bc
       -0.4770383 -0.40843764 0.056038495 -0.009334633
000140 1c 39 43 3e 1a 3a 57 be 38 30 4b be d4 b8 89 3e
       0.19064754 -0.21018258 -0.19842613 0.26898825
000150 48 d1 08 bf dc 71 45 bd 37 f8 7a be 88 c8 48 3f
       -0.5344434 -0.048204288 -0.24508749 0.78430986
000160 80 0b 9b 3d 0d 85 24 bf 72 7c 3e bf dc d7 90 3f
       0.07570553 -0.6426552 -0.7440864 1.1315875
000170 25 81 d8 be 8d c0 e9 be e7 69 54 bc d6 2b d3 3e
       -0.4228603 -0.45654717 -0.012964702 0.41244382
000180 17 d0 2d be 47 86 49 bf 4c 98 90 be f5 dd 97 3d
       -0.16973911 -0.78720516 -0.28241193 0.07415382
000190 8f 2f f7 be df 15 0a bf 51 0d c1 3d a6 8d 96 be
       -0.48278472 -0.5393962 0.09426368 -0.29404944
0001a0 93 69 c8 bd f5 c4 83 be 4a db 31 3e 0a 81 b8 be
       -0.09785762 -0.25736204 0.17368808 -0.3603595
0001b0 13 f5 3c 3f 38 b9 9e 3e 7e 7b fe bd cd c4 1e be
       0.73811454 0.31000686 -0.12425898 -0.15504761
0001c0 ba c0 59 3e 19 5a 32 3e 9d 50 2e bd d2 98 2c bf
       0.21264926 0.17417182 -0.042557348 -0.67420685
0001d0 3b 30 59 3f d9 67 b1 3e e2 ae 03 3d 5c 9c 34 3f
       0.8483922 0.34649542 0.032149203 0.70551085
0001e0 47 2c 0c 3f 0f 3b 15 3f bd b1 72 be a4 83 0c 3d
       0.5475506 0.5829324 -0.23700614 0.03430523
0001f0 9e a7 1f be c1 7a 82 be 00 86 82 3e 1e 87 6b 3f
       -0.15591285 -0.2548428 0.2549286 0.9200305
000200 eb 30 b9 bd 6d 3b c4 bc f5 57 b3 bc 99 9f b4 3d
       -0.090425335 -0.023954118 -0.021892527 0.08819503
000210 3e 78 a8 3d e8 af e7 3b a8 67 f6 bd 93 30 a1 3d
       0.082260594 0.00707053 -0.120314896 0.07870593
000220 80 8f 4b be d4 39 29 3d 73 0b 1e 3a dd ae 0c be
       -0.1987896 0.041314915 0.0006028928 -0.1373858
000230 5d 4b 19 be 9f e2 b2 bd 5f 22 d6 bd bd 84 53 3c
       -0.14970155 -0.08734631 -0.104557745 0.012910065
000240 97 ce 2d bc 4e 01 74 bd 37 c7 21 bd d3 9a 2d 3d
       -0.010608337 -0.059571557 -0.039496627 0.04238398
000250 e9 1e 75 bd 5d 75 1f be bc 4c 72 bd 78 01 a7 bd
       -0.05984393 -0.15572114 -0.05915521 -0.08154577
000260 47 df 88 3c e3 04 0c 3c fa ad 45 3d b9 5a ba bd
       0.01670803 0.008546087 0.04826162 -0.09099335
000270 ca 65 c9 3c 4b d3 af bd 9e 1f 8d bd 6e 15 a7 bd
       0.02458467 -0.08585223 -0.06890796 -0.08158384
000280 f0 61 8f 3d a5 24 b3 bd e6 30 77 bd af a1 a5 bd
       0.07001102 -0.08747224 -0.060349368 -0.08087479
000290 9c b8 0c 3d f7 4c c6 3c 07 b2 28 be 28 0c 60 bb
       0.034355745 0.024206622 -0.16474162 -0.0034186933
0002a0 2a 00 f5 bd f1 29 5b 3d fc 88 05 be 28 3c a0 3d
       -0.11962922 0.053506795 -0.13040537 0.07823974
0002b0 b4 63 34 bb 98 0b 1e 3d a2 9b 21 bd 69 75 47 ba
       -0.0027525248 0.038585275 -0.039455064 -0.0007608743
0002c0 fd 4f 32 be 5f f4 33 be 6a d9 74 bd b2 75 c8 bc
       -0.17413326 -0.17573689 -0.059777655 -0.024470184
0002d0 0b 4f bb bc 2c 9a ec bd 89 b6 71 3d 9f 00 2d 3d
       -0.022864839 -0.115528435 0.05901197 0.04223692
0002e0 0a ab 97 3c 9d b2 96 3c a0 8a 81 3d 3a 3e 40 bc
       0.018514175 0.018395716 0.06325269 -0.011733586
0002f0 28 87 cb bd b8 7b 93 3d b1 16 cf bd c8 bb 0c bc
       -0.099378884 0.07201332 -0.1011175 -0.008589692
000300 41 a2 66 3d 14 67 0c bd 6f b0 4b 3e cf a3 a5 3e
       0.05630708 -0.03427799 0.19891523 0.3235154
000310 02 fd 9d 3e 87 24 dc 3d af dd 8b 3f 02 7f 13 3d
       0.30857092 0.107491545 1.0927027 0.036009796
000320 d5 74 9b 3e 17 26 a0 3e 2c cb f7 be c1 66 b2 3e
       0.30362573 0.3127906 -0.48397195 0.3484402
000330 85 5d 74 be 66 22 86 3d 5d 1d ae be 3c 1c 57 bc
       -0.238638 0.0654953 -0.34006777 -0.01312929
000340 63 3b 7b bf 8f da 75 3d 3b 98 12 3e 8b ea 2a c0
       -0.9813749 0.060022887 0.14315884 -2.6705654
000350 73 45 e8 3e 98 ba 9a 3f be b0 69 bc fd c8 41 be
       0.45365486 1.2088194 -0.01426333 -0.18924327
000360 b7 2e d4 3d d4 5f d0 bd 1e c5 b8 3e 3b f8 16 3e
       0.10360473 -0.10174528 0.36087888 0.1474313
000370 e3 bd 90 3e a2 70 3b bf 84 4a df 3e 1a 29 b3 be
       0.28269872 -0.7321874 0.43611538 -0.34992296
000380 6d 3f de bc 67 d1 92 3c 14 49 dd be a6 5c 99 3f
       -0.027129853 0.017922116 -0.43219817 1.1981399
000390 73 07 2c 3e ca 19 80 bf ff 7f de bd 99 fa 3c be
       0.16799717 -1.000787 -0.10864257 -0.1845497
0003a0 1b a5 3f 3d d6 3f e7 be cb 69 98 bd 47 77 91 be
       0.046788316 -0.4516589 -0.074420534 -0.28411314
0003b0 60 ac ae be d0 1f 59 bd b8 d4 7f bf 28 09 e6 3d
       -0.34115887 -0.053008854 -0.9993396 0.11232215
0003c0 a6 0e ab 3e 12 37 60 3e 04 04 11 bc ce 2a 14 3e
       0.33409613 0.21896008 -0.008851055 0.14469454
0003d0 5d 8d 66 3f e7 98 0b 3f 96 b0 ef 3d 5d 13 70 3e
       0.90059453 0.54530185 0.11703603 0.23444887
0003e0 98 7e 66 bd 23 4b e7 be 65 2c 16 3e c6 fb a5 bd
       -0.056273073 -0.45174512 0.14665373 -0.081046626
0003f0 97 e0 8c 3c 70 0f b6 be 9f a0 e5 3e 9a e0 ac 3e
       0.017196937 -0.35558653 0.44849107 0.33765107

w_h.2.bias f4 [32]
000000 28 e9 1c be b2 25 8b 3e 25 e4 11 be b3 30 9d 3e
       -0.15323317 0.27177197 -0.14247186 0.30701217
000010 fe 4a d7 bc d4 60 78 bf cd 5e a0 3e 90 37 3e 3f
       -0.026280876 -0.9702275 0.31322327 0.7430353
000020 f9 f5 a4 3e d5 b2 5f be 40 4a c1 be 21 6a 97 be
       0.32218912 -0.21845563 -0.3775196 -0.29573157
000030 62 e3 18 3f 45 0d 00 3f 49 71 40 bf 80 5d 58 be
       0.5972196 0.5002025 -0.7517286 -0.21129417
000040 63 d0 30 be 87 96 f1 bd 32 e5 22 3e 98 57 df bc
       -0.17266993 -0.11796289 0.15907744 -0.027263448
000050 5d 8c b4 be 26 e4 1a be 99 28 f6 be 94 66 6b bd
       -0.3526334 -0.15126094 -0.4807785 -0.057470873
000060 d5 02 1a 3f 24 34 71 3b ee 40 bb bd 99 1f 5c 3c
       0.6016057 0.003680476 -0.09143244 0.013435268
000070 3d 8f bb bd c0 0b 0d be 58 ec 6f bf 8d eb bc bd
       -0.0915818 -0.13774014 -0.93720007 -0.09224615

Ws.0 f4 [32, 32]
000000 d2 96 7e c0 6d 65 62 3f 6d 6f cc bf 39 ab 18 bf
       -3.9779553 0.88436013 -1.5971504 -0.59636265
000010 cd c2 01 bf 44 e3 dc be cc e3 a2 3e ef da 65 3e
       -0.5068787 -0.4314214 0.3181442 0.22446798
000020 01 e7 9d bf 09 86 8b 3f 9f 1d 0c c0 f0 29 06 bf
       -1.2336122 1.0900279 -2.189308 -0.5240774
000030 91 a7 fb bb e4 14 ce bf 2b 21 4b 3f 54 ac ee be
       -0.0076798876 -1.6100125 0.79347485 -0.4661585
000040 86 d3 e3 be ad 2f 1c be ec c8 ae 3f 8e 20 e8 3f
       -0.44497317 -0.15252562 1.3655066 1.8134935
000050 0a 41 3d be 56 86 86 bf b0 ca b9 be da 05 96 bf
       -0.18481842 -1.0509746 -0.3628745 -1.1720536
000060 09 03 a4 bf 51 92 d4 bb c1 19 20 3f 53 48 a9 3f
       -1.2813426 -0.006487169 0.625393 1.3225197
000070 9d da 2e be 0a e5 8a bf 2d 10 5a 3e 53 ce ea be
       -0.17075582 -1.0851147 0.21295233 -0.45860538
000080 ce 08 42 c0 59 79 ac bf 15 0e 57 3e 34 df a7 3f
       -3.0317874 -1.3474532 0.21001466 1.3114991
000090 f4 9d d8 bf d2 d9 d4 3e 01 da 8e 3e e7 ca ad be
       -1.6923203 0.41572434 0.279007 -0.33943865
0000a0 bb b8 2f 3f c5 5c 21 bf 09 be de be 67 12 e9 bd
       0.6864125 -0.6303218 -0.4350436 -0.11380463
0000b0 d2 23 54 3f f8 9a 95 bf b0 69 c1 3e 64 e9 43 bf
       0.8286716 -1.1687918 0.37775946 -0.76528
0000c0 e5 7a 37 3e 32 d0 cb 3f 74 29 89 bf 2c a0 06 bf
       0.17917974 1.5922911 -1.0715775 -0.5258815
0000d0 23 8f 1c bf c2 63 cc bf c9 3e a1 bd 13 c4 c5 be
       -0.6115591 -1.5967944 -0.078733034 -0.38626155
0000e0 56 35 e5 3e 03 40 50 3f 87 0b 55 3f 73 3c 1b be
       0.44767255 0.81347674 0.83220714 -0.15159778
0000f0 65 56 05 bc 10 3f cf bf 43 5b 96 3f 89 19 4e 3f
       -0.008138274 -1.619112 1.1746601 0.80507714
000100 f3 59 5d bf 28 01 df bf 8a 59 d2 bd e4 a0 c8 3f
       -0.86465377 -1.7422228 -0.102709845 1.56741
000110 5e 29 cc bf 36 f6 99 3f 6d c0 f0 bd 4e 34 03 be
       -1.5950124 1.2028263 -0.11755452 -0.12812921
000120 3a 89 7d c0 12 7b 50 3e 75 04 16 3f 27 fd 98 3e
       -3.9615006 0.20359448 0.5860055 0.2988064
000130 a8 cb ab bf ca 6f 03 c0 bf c8 7a 3f cd c2 30 c0
       -1.3421526 -2.053698 0.97962564 -2.7618897
000140 2c b4 40 40 8e 03 c5 3e 26 a3 24 3f de ef ba be
       3.0109968 0.38479275 0.64311445 -0.3651113
000150 c1 8c b5 3e 52 db 36 3f 81 c5 0c c0 b7 08 bd bf
       0.3545895 0.71428406 -2.1995547 -1.4768285
000160 e9 11 09 40 c5 de ab 3e d2 de 28 3f 23 72 21 bf
       2.1417181 0.33568397 0.65964997 -0.63064784
000170 a8 ea 76 3f 18 67 5e 3f a9 31 ca 3f 5f f3 00 3f
       0.9645181 0.8687606 1.5796405 0.50371355
000180 66 c8 0a c0 05 c8 4e 3e e2 53 28 3f 57 1a 33 c0
       -2.1684813 0.20193489 0.65752995 -2.7984827
000190 67 bf 8c 3f 3e 3e 93 3f 33 4d b6 3f 66 2b 08 3f
       1.0995911 1.150337 1.4242309 0.5319122
0001a0 d8 e1 31 3f 9d 85 f4 bd 9b 98 d7 bf c3 f9 52 3f
       0.69485235 -0.11939547 -1.6843446 0.82412356
0001b0 0e 37 c9 bd 28 d1 2b 3f 86 a2 9f be a8 63 50 3f
       -0.09824954 0.6711602 -0.31178683 0.81402063
0001c0 6c e4 cd bd b4 b5 a8 bd 20 3e 77 3f 05 cb 04 40
       -0.10053334 -0.08237782 0.9657917 2.0748913
0001d0 86 39 13 40 16 e4 cc 3d 95 d9 d5 bf 3e bb b4 3c
       2.300386 0.100044414 -1.6707026 0.02206194
0001e0 09 12 95 3f c1 36 10 c0 cd 97 53 3f ab bc a0 bc
       1.1646129 -2.253342 0.82653505 -0.019621214
0001f0 32 7a 03 bf d6 06 86 bf f6 54 87 3e 3f ce c2 be
       -0.5135833 -1.0470836 0.26432008 -0.38047978
000200 33 73 8d 3f fd ba fb be 93 1a 8e be 7d 1b 8f c0
       1.1050781 -0.49166098 -0.2775465 -4.4721055
000210 c1 f6 5b bd e7 3f c5 3e bc 8c aa bf e8 d2 a0 bf
       -0.05370212 0.38525316 -1.3324199 -1.2564363
000220 cc db 33 bf d6 0c 36 3f be ff d6 3f 60 c6 b5 3d
       -0.7025726 0.71113336 1.6796796 0.08875728
000230 97 6f c1 c0 8d ca af 3e 75 7d 71 3f 5e bc 14 be
       -6.044872 0.3433422 0.9433206 -0.14524981
000240 14 83 0b 3b aa 3a 8a bf 48 90 9f 3e 71 ef 9f be
       0.0021287845 -1.0799153 0.31164765 -0.31237367
000250 61 89 b8 bf 8a 4d 02 3f 31 12 16 be e7 4e de bd
       -1.4416925 0.50899565 -0.14655377 -0.10854893
000260 94 3e b7 bf 8a 91 46 c0 b6 24 b1 be 59 59 47 c0
       -1.4315972 -3.102633 -0.3459832 -3.1148283
000270 69 51 42 be a0 84 8f 3f 3f 8d 04 3f 9e 95 22 bf
       -0.18976368 1.1212349 0.51778024 -0.6350955
000280 a2 df d2 c0 79 14 41 bf dc 70 57 bf 17 0d 61 3f
       -6.589799 -0.75421864 -0.84156585 0.879106
000290 24 c3 04 3f f0 06 5b be f4 29 af be eb 7e 79 3f
       0.5186026 -0.21389365 -0.34211695 0.97459286
0002a0 9a e2 9b 3e 17 99 1b bf e9 70 e4 be 97 de cf bd
       0.3044632 -0.6078047 -0.44617394 -0.101498775
0002b0 6d 87 c0 3f 51 1f 86 bd 07 81 e6 be 72 1a 08 c0
       1.5041329 -0.06548942 -0.45020315 -2.126614
0002c0 cc dd 88 bf 41 23 c0 3e 0e ee 2f c0 18 76 a8 bb
       -1.0692687 0.37526897 -2.7489047 -0.005141031
0002d0 09 35 4d 3f 19 10 b9 bf ca 24 1c 3f 8f 0b 2d c0
       0.8015905 -1.4458038 0.60993636 -2.7038305
0002e0 de e8 d3 3e 85 59 50 be 2d d1 cb bf 38 54 27 c0
       0.413886 -0.20346649 -1.592321 -2.6145153
0002f0 c1 b1 e1 bf 77 44 94 bf f7 48 1a 3f 4b 8d f4 3f
       -1.7632371 -1.1583394 0.60267586 1.9105619
000300 7a ca 8a bf 67 32 c8 be 8a 32 55 3f 64 6e a2 3f
       -1.0843041 -0.39100954 0.8328024 1.2689939
000310 49 c4 9b bd a0 f5 32 bf 9e ae 80 3e b5 cd 99 3f
       -0.07605798 -0.69906044 0.25133222 1.2015902
000320 14 54 05 40 b7 47 7f 3e e9 f8 91 bf 19 dd a4 bf
       2.0832567 0.24929701 -1.1404086 -1.2879974
000330 84 88 c6 3e 6c 48 70 3e 1e b1 17 3f e9 7b fe be
       0.38776028 0.23465127 0.59254634 -0.4970391
000340 56 69 6e bf cb 71 6d be d7 9c a9 bf 31 bf 0e be
       -0.9312948 -0.2318794 -1.3250989 -0.13940121
000350 d2 17 49 3f 08 96 86 be 48 42 ec be 62 85 fc bf
       0.7855197 -0.2628634 -0.4614432 -1.9728205
000360 dd 2a f9 be f6 44 8e bf 8e 24 14 bf 96 95 c3 3e
       -0.48665515 -1.1114795 -0.5786828 0.38200063
000370 df 24 44 3f 10 bf b1 3e 50 8f 81 bf 0b b6 19 3e
       0.7661876 0.34716082 -1.012186 0.1501085
000380 8c 08 2a bf ec 98 dd 3c 3b 50 ba be 0d f9 9b bf
       -0.6641929 0.027050458 -0.36389336 -1.2185379
000390 2f be ec 3e 6e 76 bf be bf 50 de be da d7 b1 be
       0.4623885 -0.37395042 -0.4342098 -0.34734994
0003a0 99 05 9c 3e 13 80 84 be 4c 4b ee 3e 44 b2 59 bf
       0.3047302 -0.25878963 0.46541822 -0.85037637
0003b0 a3 ff ff 3f ce c1 58 c0 35 3e ea 3f 46 a0 3b 3b
       1.9999889 -3.386829 1.8300234 0.0028629466
0003c0 ab f0 28 bf 8b 4b dd 3e 1e 21 5c 3f d7 5a 5d 3e
       -0.6599223 0.43221697 0.8598803 0.21616684
0003d0 3f 69 01 40 8c c5 b8 be b3 0b a7 bf 02 73 d8 bf
       2.0220487 -0.36088216 -1.3050445 -1.6910098
0003e0 c0 e1 f2 bf 53 66 80 3e a4 9b 9b bd e4 f4 eb 3d
       -1.8975143 0.25078067 -0.075980455 0.115213186
0003f0 e3 b3 35 bf d0 a7 13 3f 6a b2 97 bf 94 e3 84 3e
       -0.7097761 0.57677937 -1.1851323 0.25954878
