crowd_nav/our_circle/rl_model_1.pth (torch, 143871 bytes, 33 tensors)

w_a f4 [32, 32]
0	0xbec607bd	-0.3867778
1	0xbeaa406e	-0.3325228
2	0x3fbed528	1.49088
3	0xbfe3509d	-1.7758976
4	0xbedccef1	-0.43126634
5	0xbf8ce376	-1.1006916
6	0x3f805f74	1.002913
7	0xbee1717a	-0.44031888
8	0x3ffba6f8	1.966033
9	0x3ebf27b7	0.37334988
10	0xbf8f5f2f	-1.1200923
11	0xbdc6eefd	-0.09713552
12	0xbdf32d1b	-0.118738376
13	0xbfb91741	-1.4460222
14	0xbe45beed	-0.19311114
15	0xbf3a5c2d	-0.727969
16	0xbf34be07	-0.7060246
17	0xbf5c990c	-0.8617103
18	0x3f1fe8aa	0.6246439
19	0x3e6b0d1f	0.22954224
20	0x401a7157	2.4131677
21	0xbed5dec7	-0.41771528
22	0x3e907cf3	0.2822033
23	0xbea55da7	-0.32298014
24	0xbec05ed5	-0.3757235
25	0x3de981b8	0.11401695
26	0xbe642361	-0.22279121
27	0xbf27b46b	-0.6550967
28	0xbf829060	-1.020031
29	0xbf143b84	-0.57903314
30	0xc0075361	-2.114464
31	0x3e359384	0.17732054
32	0xbee3badf	-0.4447851
33	0x3ee5f680	0.44914627
34	0xbf6562cf	-0.89603895
35	0xbfa90c47	-1.3206872
36	0x3f0c803a	0.5488316
37	0xbdd78c63	-0.105248235
38	0x3deb4e07	0.11489492
39	0x3ebea1c1	0.37232783
40	0x3c3b614e	0.011436773
41	0xbebe388b	-0.37152514
42	0xbf1edf00	-0.6205902
43	0x3f074208	0.5283513
44	0x3f0412e6	0.51591337
45	0xbffd2722	-1.9777567
46	0xbf5943e8	-0.8486924
47	0xbf768846	-0.96301687
48	0x3e923627	0.2855694
49	0x3ea9495a	0.33063775
50	0xbfa801aa	-1.3125508
51	0xbe1875b6	-0.14888653
52	0x3fb371d6	1.4019115
53	0xbf71de2d	-0.9447964
54	0xbfca8a28	-1.5823412
55	0xbff4c319	-1.9122039
56	0x3ee1459a	0.43998414
57	0x3f37990b	0.717179
58	0xbf25b5bc	-0.6473043
59	0xbe8a6219	-0.27027968
60	0x3ec71393	0.3888212
61	0x3f89e273	1.0772232
62	0x3fbb293b	1.4621958
63	0xbe5b1feb	-0.21398894
64	0xbf0f93e7	-0.56085056
65	0xbf6f77fe	-0.9354247
66	0xbf09f5cc	-0.5389068
67	0x3ebe6412	0.37185723
68	0x3d5a1c0d	0.053249408
69	0xbe5a7547	-0.213338
70	0xbe6cc15e	-0.23120639
71	0xbef9dec6	-0.48802775
72	0xbdf24fd6	-0.11831634
73	0x3f06c2a0	0.52640724
74	0x3f151452	0.5823413
75	0xbecbc67b	-0.39799866
76	0xbf573542	-0.8406564
77	0x3f4c70f1	0.79859835
78	0xbf6d3620	-0.92660713
79	0x3e821151	0.25403836
80	0xbf3f02e2	-0.74613774
81	0xbe9c5172	-0.30530888
82	0xbfe1c9e5	-1.7639738
83	0x3f784434	0.9697907
84	0x3e94a55d	0.29032412
85	0x3e38da94	0.18052131
86	0x3f81157f	1.0084685
87	0xbfcc2932	-1.5950072
88	0xbfc9e01a	-1.5771515
89	0x3f50f29e	0.81620204
90	0xbf0e9da7	-0.5570931
91	0x3fc0bd7d	1.5057827
92	0xbd9ab30e	-0.07553683
93	0xbf0ba63a	-0.54550517
94	0x400ba729	2.1820776
95	0xbfa798a3	-1.3093456
96	0xbd576189	-0.05258325
97	0x3f9b6440	1.2139969
98	0xbe92ecd0	-0.286963
99	0x3adc3282	0.001679972
100	0xbe560526	-0.20900401
101	0x3f995356	1.1978557
102	0x3fa772c3	1.3081897
103	0x3e908a80	0.28230667
104	0x3f9d64d1	1.2296392
105	0xbef3b8de	-0.4760198
106	0xbf2ea1ef	-0.6821584
107	0xbf275a02	-0.65371716
108	0x3f4885a8	0.78328943
109	0xbe8a33fa	-0.2699278
110	0xbe3c01a2	-0.18359998
111	0xbf2ef6d6	-0.6834539
112	0xbd78ac15	-0.060710985
113	0x3d5c0d5e	0.053723685
114	0x3cd28960	0.025700271
115	0xbf47c5d4	-0.78036237
116	0xbe647622	-0.22310689
117	0xbf3d9870	-0.74060726
118	0xc03352f5	-2.8019383
119	0x3eb45aa5	0.35225406
120	0x3ecc7a8a	0.3993724
121	0x3d1308a6	0.03589692
122	0xbfb34fc3	-1.4008716
123	0x3f9cd441	1.2252275
124	0xbf54216f	-0.82863516
125	0xbeaa0152	-0.33204132
126	0xbe928503	-0.28617105
127	0x3eeef462	0.46670824
128	0x3fa4dd4b	1.2880033
129	0xbec54c46	-0.38534755
130	0xbf981a4f	-1.1883029
131	0xbf37d799	-0.7181335
132	0xbe44bb8e	-0.19212171
133	0xbf5578bd	-0.83387357
134	0x3f305037	0.688724
135	0xbe6c301b	-0.23065226
136	0x3d862f95	0.06552044
137	0x3f9c4a6b	1.221021
138	0xbcd08e7d	-0.025458569
139	0xbf25ba34	-0.6473725
140	0xbfc0bb6f	-1.50572
141	0x3f8fe633	1.1242126
142	0x3f3274b4	0.69709325
143	0x3fa56177	1.2920369
144	0xbe657516	-0.22407946
145	0x3e88a47f	0.26688
146	0xbf08eb6d	-0.5348423
147	0x3e9232b3	0.28554305
148	0xbfae5707	-1.3620309
149	0xbee59f6e	-0.44848198
150	0xbf40d4b8	-0.75324583
151	0x3f473c09	0.7782598
152	0xbf31b21e	-0.6941241
153	0x3ed2fc7c	0.41208255
154	0x3f0d4c0a	0.5519415
155	0x3f06ee48	0.5270734
156	0xbe467368	-0.19379961
157	0xbfd23150	-1.6421299
158	0xbeae54b1	-0.3404899
159	0x3c8c372e	0.017116155
160	0x3e94b6f3	0.2904583
161	0x3f00fc6e	0.5038518
162	0xbfb0250a	-1.3761303
163	0x3e88e30a	0.26735717
164	0xbeb9d300	-0.36293793
165	0xbfb04667	-1.3771485
166	0x3feed4fc	1.8658748
167	0x3ec6f49f	0.38858506
168	0xbe1ee83b	-0.15518276
169	0x3e250d1e	0.16118285
170	0xbf62250b	-0.88337773
171	0x3f84fd07	1.0389718
172	0xbf9244e6	-1.1427276
173	0x3abf25e5	0.0014583437
174	0xbf9696ba	-1.1764748
175	0xbeb3539a	-0.3502472
176	0xbf7ec5e9	-0.99520737
177	0x3d193c83	0.037411224
178	0xbe112ad1	-0.1417649
179	0xbfb99933	-1.4499878
180	0xc0050577	-2.0784585
181	0x3f181444	0.5940592
182	0x3ec89f83	0.39184198
183	0xbf3ef289	-0.7458883
184	0xbf02ed73	-0.5114357
185	0xbf936c93	-1.1517509
186	0x3e39f6fd	0.18160625
187	0x3f32e421	0.6987935
188	0xc006b0ed	-2.1045487
189	0xc00be311	-2.185734
190	0x3f2f83ac	0.6856029
191	0x3c829e14	0.015944518
192	0xbf415654	-0.7552235
193	0xbf81b88d	-1.0134445
194	0xbf7b1e22	-0.98092854
195	0x3ec9dfdd	0.39428607
196	0x3e96dc77	0.29465076
197	0x3fbaea5a	1.4602768
198	0xbfd92e6f	-1.6967295
199	0xbf9fd8b4	-1.2488008
200	0x3ead3e52	0.3383661
201	0xbec93fde	-0.3930654
202	0x3e9134cb	0.2836059
203	0xbf5fe793	-0.8746273
204	0xbe3afbb7	-0.18260084
205	0xbc8faef9	-0.017539488
206	0x3e6cd63f	0.23128603
207	0xbf149853	-0.5804493
208	0xbec9bc4c	-0.39401472
209	0xbf99fa50	-1.2029514
210	0x3f4552e1	0.7707959
211	0xbfbac507	-1.4591378
212	0xbf0fd366	-0.56181943
213	0x3f1ba361	0.6079617
214	0xbf9ee420	-1.2413368
215	0x3dbd010a	0.09228714
216	0xbebfa6b7	-0.3743188
217	0xbffcf9ac	-1.9763694
218	0xbf37730f	-0.7165994
219	0x3db81857	0.089890175
220	0x3f0a1970	0.53945065
221	0x3eae51b8	0.3404672
222	0x3f504758	0.8135886
223	0xbf98b059	-1.1928817
224	0x3e9b3b7a	0.30318815
225	0x3efa6167	0.48902437
226	0xbf6244da	-0.8838631
227	0x3e6cc044	0.23120219
228	0x3f288cc2	0.6583978
229	0x3f4415e7	0.7659592
230	0xbf949835	-1.160895
231	0xbd5a2b75	-0.0532641
232	0xbfdc929a	-1.7232239
233	0x3f8d96e5	1.1061674
234	0xbfa08cd3	-1.2542976
235	0xbf86e3d0	-1.0538273
236	0xbe83f26a	-0.25770885
237	0xbf38da90	-0.722085
238	0xbf4efb9c	-0.80852675
239	0xbeb1ab7f	-0.34701154
240	0x402422bd	2.5646203
241	0xbfefd9dd	-1.8738362
242	0xbf120bda	-0.57049334
243	0xbeb89cfb	-0.36057267
244	0xbfa3ccad	-1.2796837
245	0xbec1e682	-0.37871176
246	0x3cd158c8	0.02555503
247	0xc017091e	-2.3599315
248	0xbfc2e00a	-1.5224621
249	0xbeace367	-0.33767244
250	0xbeae42a2	-0.34035212
251	0x40352217	2.8302057
252	0xbf04b3ee	-0.5183705
253	0xbec7e1f9	-0.3903959
254	0x3fb9e5d2	1.452326
255	0x3f8ed045	1.1157309

w_r.0.weight f4 [64, 9]
0	0xbd8e03dd	-0.069343306
1	0x3eaefe06	0.3417818
2	0x3f06f308	0.52714586
3	0xbe55a536	-0.20863804
4	0xbea0a88e	-0.31378597
5	0x3d06e260	0.03293073
6	0xbedda947	-0.4329321
7	0xbea5b970	-0.3236804
8	0xbcad3e2b	-0.021147808
9	0xbe5aaa7d	-0.21354099
10	0xbe9fe217	-0.3122718
11	0xbe9a1303	-0.3009263
12	0xbf03084f	-0.5118455
13	0xbe521636	-0.20516285
14	0xbdc6dfdb	-0.09710666
15	0xbe246ff1	-0.16058327
16	0xbe9c9387	-0.30581304
17	0xbe755fd3	-0.23962335
18	0x3e9e50a3	0.30920896
19	0x3e080945	0.13284786
20	0xbf928a04	-1.1448369
21	0x3efa7a65	0.48921505
22	0xbdaf87f0	-0.0857085
23	0xbea18102	-0.31543738
24	0xbeee5ddf	-0.46555993
25	0xbd94caef	-0.07265269
26	0x3d6bdc40	0.057583094
27	0xbed4c1c8	-0.41554093
28	0xbe99d712	-0.30046898
29	0xbe843051	-0.25818112
30	0xbf01d004	-0.5070803
31	0x3e55782e	0.20846626
32	0xbe2bcadb	-0.16776602
33	0xbe0cf893	-0.13766699
34	0x3e3cdd20	0.18443727
35	0x3e0cd9d8	0.13754976
36	0x3e542d6e	0.20720455
37	0x3ea42a7f	0.32063672
38	0xbe27d5fa	-0.1639022
39	0xbe2a35dc	-0.16622108
40	0xbe40a8f0	-0.18814445
41	0xbe1a7550	-0.15083814
42	0xbde531be	-0.11191128
43	0xbecc33da	-0.3988331
44	0xbd98b826	-0.074569985
45	0x3e88149c	0.26578224
46	0x3e90a1dd	0.28248492
47	0xbd3fe168	-0.046845824
48	0xbddaa17b	-0.10675331
49	0x3d53f8cb	0.05175094
50	0x3e67b330	0.22626948
51	0x3e6a030d	0.22852726
52	0x3b650906	0.0034948005
53	0xbe1a26be	-0.15053841
54	0xbe01f4b6	-0.12691006
55	0x3bdd8dc6	0.0067612855
56	0x3f16ecc0	0.58955
57	0xbec090f9	-0.37610605
58	0x3e637e9e	0.2221627
59	0xbe54eb18	-0.20792806
60	0x3e5c0419	0.21485938
61	0xbe79b1ff	-0.24384306
62	0x3e60b59b	0.21944277
63	0xbeb1fe44	-0.34764302
64	0xbd629672	-0.055319257
65	0xbf7354cf	-0.9505128
66	0xbf11e287	-0.5698628
67	0xbe39f986	-0.18161592
68	0x3c567700	0.013089895
69	0xbe7d22b1	-0.24720265
70	0x3db171e1	0.08664299
71	0x3dbb7f2b	0.09155115
72	0xbef557d0	-0.47918558
73	0xbeb50370	-0.35354185
74	0x3e2587f1	0.16165139
75	0xbec0c461	-0.37649825
76	0x3e8f041b	0.2793282
77	0x3deea7c6	0.11653094
78	0xbe5c9bc5	-0.21543796
79	0xbed583fb	-0.41702256
80	0xbe88597b	-0.26630768
81	0x3e919946	0.2843725
82	0x3da8b9d4	0.08238569
83	0x3edd4139	0.43213823
84	0x3f1e00fe	0.61720264
85	0xbda906f0	-0.08253276
86	0x3e2f28de	0.17105433
87	0xbc9b7c35	-0.018980125
88	0xbf0ecb0d	-0.5577858
89	0x3e36866b	0.17824714
90	0xbe732319	-0.23743857
91	0x3ebd0979	0.3692129
92	0xbde96467	-0.11396103
93	0x3cf4cb89	0.02988221
94	0xbe0f4c38	-0.13993919
95	0xbd3b772b	-0.045767944
96	0x3e983800	0.29730225
97	0xbe3518b2	-0.17685202
98	0x3c8d0aeb	0.01721712
99	0x3c8d9e97	0.017287536
100	0xba8881ef	-0.00104147
101	0xbe39db04	-0.18149954
102	0xbe4f8f66	-0.20269546
103	0xbea4c12a	-0.32178622
104	0x3e94c6ea	0.2905801
105	0xbde58c11	-0.11208356
106	0xbcc545b8	-0.024081096
107	0x3e3f9b23	0.18711524
108	0xbee6b6d5	-0.45061365
109	0x3dfdcde4	0.12392786
110	0xbf423784	-0.7586596
111	0xbeeffbd4	-0.46871817
112	0xbd965470	-0.07340324
113	0xbe431cf8	-0.1905402
114	0xbf1a0d6f	-0.6017675
115	0xbde3b655	-0.111187615
116	0x3e5a5040	0.21319675
117	0x3e656d6c	0.22405022
118	0xbe982507	-0.2971575
119	0xbf9a9c90	-1.2079029
120	0xbec646d1	-0.38725904
121	0x3e092c86	0.1339589
122	0xbe015ea8	-0.12633765
123	0xbe95deda	-0.29271585
124	0xbd8f8b42	-0.07008983
125	0x3e31240b	0.17298906
126	0x3db3d211	0.08780301
127	0x3e3c05bc	0.18361562
128	0xbf33c872	-0.7022773
129	0xbf6255c0	-0.88412094
130	0xbea4721e	-0.32118315
131	0xbe62984b	-0.22128408
132	0xbe9b3833	-0.30316314
133	0xbf37cc73	-0.7179634
134	0x3dd60520	0.10450196
135	0x3f119ead	0.56882745
136	0xbe7a322e	-0.24433205
137	0xbf495661	-0.7864743
138	0xbea7f74d	-0.32805863
139	0x3db2db26	0.087332055
140	0xbe89d68f	-0.26921508
141	0xbf116e1f	-0.56808656
142	0xbeef8650	-0.4678216
143	0x3dbe2366	0.092840955
144	0x3ca53b5b	0.020169904
145	0x3e37ea98	0.17960584
146	0xbe796ce3	-0.24357943
147	0xbf12c8a8	-0.5733743
148	0xbe5a4218	-0.21314275
149	0xbb484756	-0.0030560098
150	0x3d81b95e	0.06334184
151	0xbd358506	-0.044316314
152	0x3e40ba10	0.18820977
153	0xbe94e20b	-0.29078707
154	0x3db373f1	0.087623484
155	0xbf67adca	-0.90499556
156	0x3f5dc299	0.8662506
157	0x3e5533d8	0.20820558
158	0xbd23d700	-0.03999996
159	0xbdba0078	-0.09082121
160	0xbe376c24	-0.17912346
161	0xbe991e42	-0.29905897
162	0x3f28f6bb	0.6600148
163	0x3e66a3fa	0.2252349
164	0xbbaed935	-0.0053359517
165	0x3cc59f27	0.024123741
166	0xbd6370e0	-0.055527568
167	0xbe9c2ffa	-0.30505353
168	0xbe90ea13	-0.28303584
169	0xbea62691	-0.324513
170	0x3e6bca78	0.23026454
171	0x3e0dd948	0.13852417
172	0xbedf0e2b	-0.43565497
173	0x3cd71529	0.026255207
174	0xbf1f7fcd	-0.62304384
175	0xbe9eac0a	-0.3099063
176	0x3e6aef76	0.2294291
177	0xbebb37fd	-0.36566153
178	0x3dea566c	0.11442265
179	0xbc866feb	-0.016410789
180	0xbf22f4a8	-0.63654566
181	0xbed70fec	-0.42004335
182	0x3e19ed44	0.15031916
183	0x3dcbc35c	0.09949371
184	0x3e92ac47	0.28647062
185	0xbd3097c0	-0.04311347
186	0xbea85a6e	-0.32881492
187	0xbe909be9	-0.2824395
188	0x3c8759eb	0.016522368
189	0x3dde3339	0.10849614
190	0xbb6a4bf9	-0.003575085
191	0x3f450212	0.76956284
192	0x3f81a2ac	1.0127769
193	0xbe0525eb	-0.13002746
194	0x3d08dc6b	0.033413332
195	0xbdf1e36c	-0.118109554
196	0xbe68cea9	-0.22735085
197	0x3e8c943a	0.27456838
198	0x3ec93159	0.39295462
199	0xbe89a37a	-0.26882535
200	0x3e759ac1	0.23984815
201	0xbe375891	-0.17904879
202	0x3e2697c3	0.1626883
203	0x3ea129f4	0.3147732
204	0xbcdb0baa	-0.02673896
205	0xbe193410	-0.14961267
206	0x3e128413	0.14308195
207	0x3e8221a4	0.2541629
208	0x3ede213a	0.43384725
209	0x3aa85a2f	0.001284426
210	0x3e0eb9e8	0.13938105
211	0xbd7f37f6	-0.062309228
212	0x3d2bce56	0.041944824
213	0xbd73af64	-0.059493437
214	0xbeb36c7a	-0.350437
215	0x3e6b82d0	0.2299912
216	0xbe264293	-0.16236334
217	0x3e1d3df0	0.15355659
218	0x3f1e1691	0.61753184
219	0x3f72583e	0.94665897
220	0xbe357403	-0.17720036
221	0xbc44842b	-0.011994402
222	0xbebc7dd1	-0.3681474
223	0x3ca75ba3	0.020429438
224	0xbc9acfd6	-0.018897932
225	0xbf1f540d	-0.62237626
226	0x3e952d51	0.29136136
227	0xbd174911	-0.036934916
228	0x3d960054	0.07324281
229	0xbea6ede4	-0.3260337
230	0xbe139028	-0.1441046
231	0xbe9cbc10	-0.3061223
232	0xbe688cc9	-0.22709955
233	0xbe801237	-0.25013897
234	0x3f14e3a5	0.5815986
235	0xbe94aa00	-0.2903595
236	0xbf536c81	-0.8258744
237	0x3e6bf6ef	0.23043416
238	0xbce916c0	-0.02845323
239	0xbd4bdb40	-0.04976964
240	0xbde3dde5	-0.111263074
241	0xbead216b	-0.33814558
242	0xbd3b7896	-0.045769297
243	0xbe703701	-0.23458482
244	0xbed52c4c	-0.41635358
245	0xbf45e0ee	-0.7729634
246	0x3f4fe32b	0.81206006
247	0x3ea27604	0.31730664
248	0xbcc40f00	-0.023932934
249	0xbeda816b	-0.42676863
250	0xbe46d17d	-0.19415851
251	0xbd86291b	-0.06550809
252	0xbe8d735c	-0.27627075
253	0xbe79413a	-0.24341288
254	0xbf9d8d7e	-1.2308805
255	0xbe36056a	-0.17775503

w_r.0.bias f4 [64]
0	0xbde24bf6	-0.11049645
1	0xbdfb9ad3	-0.1228539
2	0xbe8754fc	-0.26432025
3	0xbe17e396	-0.14832911
4	0xbdf750ce	-0.12075959
5	0x3e2857a9	0.1643969
6	0xbe64fa00	-0.22360992
7	0xbd8b3984	-0.067980796
8	0xbe1e3085	-0.15448196
9	0xbd522730	-0.051306903
10	0x3e48da55	0.19614537
11	0x3c441ca0	0.011969715
12	0xbef3e153	-0.47632846
13	0xbe312c66	-0.17302093
14	0xbeb56697	-0.35429832
15	0xbe88358a	-0.26603347
16	0x3d18dcb6	0.03731986
17	0xbec58af7	-0.38582584
18	0x3e4098d2	0.18808296
19	0xbea84248	-0.3286307
20	0xbe9cd484	-0.30630887
21	0xbecbd403	-0.3981019
22	0xbedba535	-0.4289948
23	0xbe93d20c	-0.2887119
24	0xbd316002	-0.04330445
25	0x3e1d6b95	0.1537307
26	0xbf00a010	-0.50244236
27	0x3def4f45	0.11685041
28	0xbe03c369	-0.12867512
29	0xbe91a4e0	-0.28446102
30	0x3de23af2	0.11046399
31	0xbe47bb63	-0.19505076
32	0xbdeb956c	-0.11503109
33	0xbe9c6f8b	-0.3055385
34	0x3c340c72	0.010989295
35	0xbc8f54fb	-0.017496577
36	0xbe9385cd	-0.2881302
37	0x3e877f75	0.2646443
38	0x3d6f7af8	0.05846688
39	0xbec176f8	-0.37786078
40	0xbe6bb2ea	-0.23017469
41	0xbdd19766	-0.10233955
42	0xbe7eb126	-0.24872264
43	0xbecf3ffe	-0.4047851
44	0x3dec410d	0.11535845
45	0xbedd7916	-0.43256444
46	0xbe39e7c1	-0.18154813
47	0xbec3dca4	-0.38254273
48	0xbf09bdfa	-0.53805506
49	0xbe25d59a	-0.16194764
50	0xbe895f38	-0.2683046
51	0xbc7087e6	-0.014680838
52	0xbe2442e2	-0.16041139
53	0x3b9f1e3a	0.004855898
54	0xbebded56	-0.37095135
55	0xbe393db8	-0.1808995
56	0x3c4b0c78	0.0123931095
57	0xbefa37e2	-0.4887076
58	0xbe0b68a9	-0.13614143
59	0xbd82cd03	-0.06386759
60	0xbeba4030	-0.36377096
61	0xbf15092e	-0.5821713
62	0xbeca6855	-0.39532724
63	0xbe8f5e74	-0.2800175

w_r.2.weight f4 [32, 64]
0	0x3e500e0d	0.2031786
1	0x3dae4427	0.08509093
2	0xbe9061b5	-0.28199545
3	0xbed7acd9	-0.4212406
4	0xbe126023	-0.14294486
5	0x3d490906	0.04908087
6	0x3d62a342	0.055331476
7	0x3eab4000	0.33447266
8	0xbf76cff5	-0.9641107
9	0x3df67c92	0.12035479
10	0xbd659de9	-0.056058798
11	0xbda4fd07	-0.08056074
12	0x3efe6683	0.49687585
13	0x3eb84924	0.35993302
14	0xbea2a6d2	-0.317679
15	0xbd01fce8	-0.03173533
16	0xbec299c5	-0.38007942
17	0x3dce4164	0.10071066
18	0x3e8601ba	0.26173192
19	0x3ef747c0	0.48296928
20	0x3e0b17f6	0.13583359
21	0x3e865dc8	0.26243424
22	0x3e17a44d	0.1480877
23	0xbecd8b22	-0.40145212
24	0x3b95b9ae	0.004569254
25	0xbeaf1e04	-0.34202588
26	0xbe8558e6	-0.26044387
27	0xbf106e34	-0.56418157
28	0x3eee463a	0.46537954
29	0x3d1a2ba3	0.03763927
30	0xbed36b18	-0.41292644
31	0x3dcd0cc7	0.10012203
32	0x3e249976	0.16074166
33	0xbc43e074	-0.011955369
34	0x3dd35d4e	0.10320531
35	0x3e8e8c1b	0.27841267
36	0xbf440a59	-0.7657829
37	0x3d26b9fd	0.040704716
38	0x3d8c91df	0.0686376
39	0xbc7733d5	-0.015088041
40	0x3e25f3fc	0.16206354
41	0x3d35fc43	0.04443003
42	0x3b34258e	0.0027488205
43	0x3e13bb01	0.14426805
44	0xbf3644fe	-0.71199024
45	0xbf58a2a9	-0.846232
46	0x3d88e8ea	0.0668505
47	0x3f02d96e	0.5111302
48	0x3ded5b2d	0.11589656
49	0x3cc7c70a	0.024386901
50	0x3eec2e2b	0.46128973
51	0xbf67ae35	-0.90500194
52	0x3e1dca0c	0.15409106
53	0xbfd634af	-1.6734828
54	0x3f46f4c8	0.77717257
55	0x3d0576c0	0.032583952
56	0x3da287e5	0.07936076
57	0xbe75df3a	-0.24010935
58	0x3c873f9f	0.01650983
59	0xbed11cc8	-0.4084227
60	0xbe162247	-0.14661513
61	0x3ec68058	0.38769794
62	0x3ece7249	0.40321568
63	0xbd2cf178	-0.04222247
64	0x3db2a046	0.08721976
65	0xbdac9213	-0.08426299
66	0xbd70bd45	-0.05877425
67	0x3dc048dc	0.09388897
68	0x3dd8f287	0.105931334
69	0x3d1a347c	0.03764771
70	0x3e13a8d1	0.14419867
71	0xbd607ebd	-0.054808367
72	0x3dbae551	0.0912577
73	0x3cd7c308	0.026338115
74	0x3e7caac3	0.24674515
75	0xbda48167	-0.08032494
76	0xbdf470ee	-0.11935602
77	0x3dba2200	0.09088516
78	0xbe9cb34e	-0.3060555
79	0xbecd2075	-0.40063825
80	0x3ded57b6	0.11588995
81	0x3e8a4d77	0.27012226
82	0x3d1898fc	0.037255272
83	0xbd336223	-0.043794762
84	0xbd712355	-0.058871586
85	0xbcc5aca6	-0.024130177
86	0xbc5b53bb	-0.013386662
87	0x3e9529a3	0.2913333
88	0xbe996306	-0.2995836
89	0x3eceae98	0.4036758
90	0x3dcd1bed	0.10015092
91	0x3ca55564	0.020182319
92	0x3d2897df	0.04116046
93	0x3d155b2a	0.036463894
94	0xbdac2b81	-0.08406735
95	0x3e07b558	0.13252771
96	0xbc8f64e8	-0.01750417
97	0x3dfbb33e	0.12290047
98	0xbdc3a417	-0.09552782
99	0xbda20d80	-0.07912731
100	0x3d969ebb	0.07354494
101	0x3d477d2b	0.048703354
102	0xbc7bbeb9	-0.015365296
103	0xbc886482	-0.016649488
104	0x3d4955b4	0.049154
105	0xbd080419	-0.033207033
106	0x3d354f9f	0.044265386
107	0xbdf35e49	-0.11883218
108	0xbcedd85f	-0.029033838
109	0x3e7088aa	0.23489633
110	0xbe0823f9	-0.13294972
111	0xbe3c89e6	-0.18411979
112	0xbdfcce20	-0.12344003
113	0xbe468165	-0.19385298
114	0x3e366230	0.17810893
115	0x3e666fff	0.2250366
116	0xbdaf54f4	-0.085611254
117	0x3bf2efcb	0.0074138395
118	0xbf0b5dc1	-0.5443993
119	0xbeabf417	-0.33584663
120	0xbddeaa69	-0.10872347
121	0xbde7b232	-0.11313285
122	0x3d586778	0.05283305
123	0xbc242827	-0.010019339
124	0x3dbfa3f8	0.093574464
125	0xbe13230a	-0.14368835
126	0xbdb0912d	-0.0862144
127	0xbb7e7100	-0.0038824677
128	0xbd9646ff	-0.0733776
129	0xbd085870	-0.033287466
130	0x3f435728	0.76304865
131	0xbe258829	-0.16165222
132	0xbe6b7bd0	-0.2299645
133	0x3ecf5683	0.4049569
134	0xbdedd29a	-0.11612435
135	0x3d4f860b	0.050664943
136	0x3d1c5ce1	0.038174514
137	0xbe49b21f	-0.19696854
138	0x3ea4711d	0.3211755
139	0x3cc1d9bf	0.0236634
140	0xbe91894f	-0.2842507
141	0x3d9b14c2	0.075723186
142	0x3e439c93	0.19102697
143	0xbe818006	-0.25292987
144	0xbd237445	-0.039905805
145	0x3e4a979b	0.19784395
146	0xbee29fe3	-0.4426261
147	0xbd053bcd	-0.032527734
148	0xbdaaf8a9	-0.083482094
149	0x3e28f837	0.16500936
150	0xbd409f77	-0.047027078
151	0xbe9fb68e	-0.31193966
152	0xbc807f78	-0.015685782
153	0xbdf2b3ca	-0.11850698
154	0xbc098994	-0.008394618
155	0xbd4d0d51	-0.050061528
156	0xbd3c5963	-0.045983683
157	0xbbe0ac18	-0.0068564527
158	0x3d313787	0.043265846
159	0x3d2e4de9	0.04255477
160	0xbc85ee5a	-0.016349006
161	0xbd32c30c	-0.043643042
162	0x3ce561ac	0.028000675
163	0x3ead6a5a	0.33870202
164	0xbdecfc80	-0.11571598
165	0xbd6cd528	-0.05782047
166	0xbe4c4814	-0.1994937
167	0xbe547bc5	-0.2075034
168	0x3c94d65a	0.018168617
169	0xbdeb3215	-0.11484162
170	0x3d544e57	0.051832523
171	0xbdd92486	-0.106026694
172	0xbda5788e	-0.080796346
173	0x3e98240d	0.29715005
174	0xbe1641ca	-0.14673534
175	0x3d90b98e	0.07066642
176	0x3d1b4996	0.037911974
177	0xbdb000ed	-0.085939266
178	0x3dcfa8dd	0.1013963
179	0x3d516906	0.05112555
180	0x3e27592c	0.1634261
181	0xbdc53b22	-0.09630419
182	0xbf4f96ac	-0.8108928
183	0xbe118cc8	-0.1421386
184	0x3aadbb44	0.0013254662
185	0xbecc81a7	-0.39942667
186	0xbc222f52	-0.009898977
187	0x3e07656b	0.13222282
188	0x3d939c34	0.07207528
189	0xbd392c50	-0.045208275
190	0xbe208396	-0.15675196
191	0xbd868ec0	-0.06570196
192	0x3e15a31a	0.14613
193	0xbb1b3e32	-0.0023688194
194	0xbcf0b1a7	-0.029381586
195	0xbe31f7fd	-0.17379756
196	0xbf24344d	-0.64142305
197	0x3dbd3bf6	0.09239952
198	0xbe6207c0	-0.22073269
199	0x3f22e1e3	0.63625926
200	0x3ead30a5	0.33826175
201	0xc0630b55	-3.5475667
202	0x3e60be0b	0.21947496
203	0xbd8a25df	-0.067455046
204	0xbdc14282	-0.094365135
205	0xc000812c	-2.007884
206	0x3e0c94e7	0.13728677
207	0xbd8d33d0	-0.06894648
208	0xbe34835b	-0.17628233
209	0x3e940f6c	0.28918016
210	0xc0974212	-4.726815
211	0xbf190f31	-0.59788805
212	0xbebcbd92	-0.3686338
213	0xc0ab3a9b	-5.350904
214	0xbf5a8a09	-0.85366875
215	0xbeff431a	-0.49855882
216	0xbde7c527	-0.11316901
217	0x3e7e3b16	0.24827227
218	0xbe093cea	-0.13402143
219	0xbe9b2811	-0.30304006
220	0x3eb41924	0.3517543
221	0xbeff1c4a	-0.4982627
222	0xbf40a395	-0.75249606
223	0xbf3051b9	-0.688747
224	0xbe90222d	-0.28151074
225	0xbeaee035	-0.3415543
226	0xbd30052f	-0.042973693
227	0xbed610c8	-0.41809678
228	0xbe7a2c5d	-0.24430986
229	0x3b540094	0.0032348977
230	0x3e05126a	0.12995306
231	0x3e88221b	0.2658852
232	0xbf7d2da7	-0.98897785
233	0xbfa47e2e	-1.2851007
234	0xba953c98	-0.0011385856
235	0xbd472566	-0.04861965
236	0x3e14ac88	0.1451894
237	0x3dcc1ac0	0.0996604
238	0x3e32d041	0.17462255
239	0x3d2d9d32	0.04238624
240	0x3c927b46	0.017881047
241	0xbf33cbb0	-0.7023268
242	0x3eedb924	0.46430314
243	0xbf7a26ad	-0.97715265
244	0xbdddce17	-0.10830324
245	0xbdbee0c9	-0.09320218
246	0x3daac4b6	0.08338301
247	0x3e1042c4	0.14087969
248	0x3bb9c169	0.0056688082
249	0xbd84612a	-0.06463845
250	0xbcb1c995	-0.021702567
251	0xbf34dd33	-0.70650023
252	0xbf7aa1f9	-0.979034
253	0xbf3e1ca5	-0.7426246
254	0x3ef68caa	0.48154193
255	0x3d6df73c	0.05809711

w_r.2.bias f4 [32]
0	0xbdc0a634	-0.09406701
1	0x3ec6bd57	0.3881633
2	0x3e62d2ac	0.22150677
3	0xbe64e0d4	-0.2235139
4	0x3de80eac	0.113309234
5	0xbeb97902	-0.36225134
6	0x3c54860f	0.012971415
7	0xbdb1ef44	-0.086882144
8	0xbcfa3e58	-0.030547306
9	0xbdb0a986	-0.08626084
10	0x3e8335ca	0.25626975
11	0xbebf323e	-0.3734302
12	0xbe443304	-0.19160086
13	0x3d6e3f9c	0.05816613
14	0xbadb8057	-0.0016746622
15	0xbde0c6f7	-0.109754495
16	0xbe4f925a	-0.20270672
17	0xbdd611cc	-0.10452613
18	0x3e2ec45c	0.17067093
19	0xbde1e4ee	-0.11029993
20	0xbec811fc	-0.3907622
21	0x3dcd39cc	0.100207895
22	0xbcd27b4a	-0.025693554
23	0x3ec90cce	0.39267582
24	0xbe32032d	-0.17384024
25	0x3f2fa4cf	0.6861085
26	0x3dca1ea1	0.09869123
27	0xbd21ac9a	-0.039471246
28	0x3e769c08	0.24082959
29	0xbd85e974	-0.06538668
30	0x3dff6ab6	0.12471525
31	0x3deba163	0.115053914

w_h.0.weight f4 [64, 5]
0	0x3bcf5445	0.0063271844
1	0xbe32c861	-0.17459251
2	0xbf8a2200	-1.0791626
3	0xbf3aead6	-0.7301458
4	0xbf35d79f	-0.71032137
5	0x3e07ebb4	0.13273507
6	0x3c6e73ba	0.014553959
7	0xbeee940f	-0.46597335
8	0x3f27bbf3	0.6552116
9	0xbf151d7c	-0.58248115
10	0x3b2bf89e	0.0026240717
11	0xbaffdb48	-0.0019520307
12	0xbd4124c8	-0.047154218
13	0x3dd62f8c	0.104582876
14	0xbd9a189e	-0.075242266
15	0xbe010818	-0.12600744
16	0x3e6cce15	0.23125489
17	0xbf8238ce	-1.0173585
18	0xbf59c60b	-0.85067815
19	0xbeb03b73	-0.34420356
20	0x3ddc095d	0.107439734
21	0x3e29fc00	0.16600037
22	0xbf5b7484	-0.85724664
23	0x3f57c3ac	0.84282947
24	0xbf0789df	-0.5294475
25	0xbbacf689	-0.0052784127
26	0xbd0f82e5	-0.03503694
27	0xbd2f9e66	-0.04287567
28	0x3e9a579c	0.30144966
29	0xbf13289d	-0.57483846
30	0xbea1cda0	-0.31602192
31	0x3d9e4952	0.077288285
32	0xbf99305f	-1.1967887
33	0x3c780040	0.015136778
34	0x3dc41676	0.095745966
35	0xb7da462f	-2.6020307e-05
36	0x3b855ba0	0.0040697604
37	0xbe26bf07	-0.16283809
38	0xbe435b14	-0.19077712
39	0xbf2a18c6	-0.6644405
40	0xbd2e8aed	-0.04261296
41	0x3e3b1486	0.18269548
42	0x3e796749	0.24355806
43	0xbd23e143	-0.04000975
44	0x3f097dde	0.53707683
45	0x3d6a164b	0.057150166
46	0xbe972d80	-0.295269
47	0xbf17b38d	-0.5925835
48	0xbf807cf8	-1.0038137
49	0xbf66ef2d	-0.90208703
50	0x3e6d6f4f	0.23186992
51	0xbea1c6d7	-0.31597015
52	0xbd8c9ffb	-0.06866451
53	0xbf6fe60d	-0.93710405
54	0xbf1aad0c	-0.604203
55	0xbe1ce8b0	-0.15323138
56	0x3d99032e	0.074713096
57	0xbf53c4d7	-0.8272223
58	0xbf3e77f3	-0.7440178
59	0xbdd659af	-0.104663245
60	0x3e0c9a64	0.1373077
61	0x3ea48594	0.32133162
62	0x3d931586	0.0718184
63	0x3f163fd9	0.58691174
64	0x3db125a6	0.08649759
65	0x3c8318c1	0.016003015
66	0xbdbe07b4	-0.09278813
67	0xbe5b0acd	-0.21390839
68	0x3e73c18f	0.23804305
69	0xbf886fd4	-1.0659127
70	0x3eb24b47	0.34823057
71	0xbd9157ca	-0.070968226
72	0x3f1f7772	0.62291634
73	0xbed30a48	-0.4121878
74	0xbf1b7beb	-0.6073596
75	0xbe1be2c4	-0.15223223
76	0xbd58abba	-0.052898146
77	0xbe187bfd	-0.14891048
78	0xbf2e7f98	-0.6816344
79	0xbca780ce	-0.020447161
80	0xbe57093b	-0.20999615
81	0x3ead4cf1	0.33847764
82	0x3f1f3bf0	0.6220083
83	0x3f324e77	0.6965098
84	0xbe1017e9	-0.14071621
85	0xbd7969d9	-0.06089196
86	0xbd43d53b	-0.047810774
87	0xbf4ab83e	-0.7918738
88	0xbf58fda8	-0.8476205
89	0x3f27320a	0.6531073
90	0x3dd8dbbc	0.10588786
91	0x3e091608	0.1338731
92	0xbe0baa51	-0.1363919
93	0x3f43f4e9	0.7654558
94	0x3e956b0b	0.2918323
95	0xbeab1641	-0.33415416
96	0x3d91a242	0.07111026
97	0x3eec6eae	0.46178192
98	0xbde8a1a2	-0.11358954
99	0x3f127410	0.5720835
100	0xbe98b057	-0.29822037
101	0x3e748f39	0.2388276
102	0xbf07b85c	-0.53015685
103	0xbe3dc999	-0.18533935
104	0xbe43f9b0	-0.19138217
105	0xbdef5394	-0.11685863
106	0x3cd26dbb	0.02568709
107	0x3f2b404a	0.6689497
108	0xbd90e7a5	-0.07075433
109	0xbfae95d2	-1.3639472
110	0x3e953138	0.29139113
111	0x3e660a5a	0.22464886
112	0xbf30bdb2	-0.6903945
113	0xbebffbea	-0.37496883
114	0xbeb6e209	-0.35719326
115	0xbdd79482	-0.105263725
116	0xbee6811c	-0.45020378
117	0x3f29b445	0.66290694
118	0xbf17f9bb	-0.59365433
119	0x3e9c2f39	0.30504778
120	0x3e86e2d4	0.2634493
121	0x3aba101d	0.0014195476
122	0x3f90dcca	1.131738
123	0xbf0a8da0	-0.5412235
124	0xbf353580	-0.7078476
125	0x3d6937e4	0.056938067
126	0x3e74f57e	0.23921773
127	0xbf47d361	-0.78056914
128	0x3d204b68	0.039134413
129	0xbf8e5526	-1.1119735
130	0xbdfcdda2	-0.123469606
131	0x3d62c622	0.055364735
132	0x3d7be183	0.06149436
133	0xbf27bbf6	-0.6552118
134	0xbf704ecd	-0.9387024
135	0xbe3a370e	-0.18185064
136	0xbe363dad	-0.17796965
137	0xbf49bd00	-0.78804016
138	0xbf46f52d	-0.7771786
139	0xbf2db529	-0.67854553
140	0xbebe86c8	-0.37212205
141	0xbe82ff20	-0.2558527
142	0xbedfd62b	-0.43718085
143	0xbf99cba3	-1.201527
144	0xbe009f40	-0.12560749
145	0xbe30641e	-0.17225692
146	0xbe759cb0	-0.23985553
147	0xbe15c8c1	-0.14627363
148	0xbdb6447f	-0.08899783
149	0xbf108a3c	-0.5646093
150	0xbc999765	-0.018748948
151	0x3da5e91e	0.08101104
152	0xbee4c0ed	-0.4467844
153	0xbf1dd9f9	-0.61660725
154	0x3e9bd877	0.30438587
155	0x3d62b596	0.055348955
156	0xbe0e3962	-0.13889077
157	0x3f38e5c2	0.7222558
158	0xbf1a4eec	-0.60276675
159	0x3e912553	0.2834879
160	0x3dd29adf	0.102834456
161	0xba81c415	-0.0009900356
162	0x3e57d067	0.21075593
163	0xbefc7d3c	-0.49314296
164	0x3f246f4e	0.6423234
165	0x3e06cff9	0.13165273
166	0xbdb595d8	-0.08866471
167	0x3f4b1b91	0.7933894
168	0x3e94d4aa	0.290685
169	0x3e7b84d1	0.24562384
170	0xbe600003	-0.21875004
171	0x3d9e189e	0.07719539
172	0x3eb86dae	0.3602118
173	0xbd4f9708	-0.050681144
174	0x3e7bb782	0.24581721
175	0xbc342538	-0.010995202
176	0xbeaee888	-0.34161782
177	0xbeb204b8	-0.34769225
178	0xbe576ae7	-0.21036874
179	0xbe2905b0	-0.16506076
180	0xbe3048b1	-0.1721523
181	0xbe0ab453	-0.1354535
182	0xbe917d34	-0.28415835
183	0x3f3386a5	0.70127326
184	0x3e9d3eb2	0.30711895
185	0xbe910b29	-0.28328827
186	0xbea6acfc	-0.32553852
187	0xbf11e9e5	-0.5699752
188	0x3f1618c8	0.58631563
189	0xbf69d9c8	-0.9134793
190	0x3ea8e495	0.32986894
191	0xbe009fdc	-0.12560982
192	0xbdfdad02	-0.12386514
193	0x3efdc166	0.49561614
194	0x3ec532f2	0.3851543
195	0x3d73de38	0.059538096
196	0xbd42b95d	-0.047540057
197	0xbf44e6fd	-0.7691496
198	0x3ec8b931	0.3920379
199	0xbf345701	-0.7044526
200	0x3ae72a4c	0.0017636507
201	0xbc677d1b	-0.014128949
202	0xbda047a1	-0.07826162
203	0xbc769225	-0.015049492
204	0xbdd9229c	-0.10602304
205	0xbcbd2576	-0.023089152
206	0xbc5dff0e	-0.013549579
207	0x3f8eae74	1.1146989
208	0x3f32119d	0.69558126
209	0xbf411f43	-0.75438327
210	0xb9859c0a	-0.00025483995
211	0xb99124fe	-0.00027684117
212	0x3c21a929	0.009866991
213	0xbe237239	-0.15961541
214	0xbed6f93c	-0.41987026
215	0x3e3bb982	0.18332484
216	0x3e127592	0.14302662
217	0x3edd336a	0.43203288
218	0x3f158715	0.58409244
219	0xbeb7505d	-0.358035
220	0x3e15ae7a	0.14617339
221	0x3e161bcf	0.14659046
222	0x3e031b25	0.12803324
223	0xbf0d0078	-0.5507884
224	0xbe93c8f5	-0.28864256
225	0x3e274150	0.16333508
226	0x3e845e0e	0.25853008
227	0xbf0db503	-0.55354327
228	0xbf4c8c6e	-0.7990178
229	0xbf17eae2	-0.5934278
230	0xbe315476	-0.17317376
231	0x3ec6c19a	0.3881958
232	0x3e8efe56	0.27928418
233	0xbf1f4f41	-0.62230307
234	0x3deee11d	0.11664031
235	0xbe11d709	-0.14242186
236	0x3e066cbd	0.13127418
237	0x3dc629cc	0.09675941
238	0x3f4d33ec	0.8015735
239	0xbec1240b	-0.3772281
240	0xbe312be6	-0.17301902
241	0x3e3c909d	0.1841454
242	0x3e037fe7	0.1284176
243	0x3f690615	0.91024905
244	0xbdd681bd	-0.10473964
245	0xbc2c7d16	-0.01052787
246	0xba1a0d7b	-0.00058766425
247	0xbdb0137d	-0.08597467
248	0xbe27c215	-0.1638263
249	0x3d3fb286	0.046801113
250	0x3e5a53e5	0.21321066
251	0x3e150bdf	0.1455531
252	0xbed6ff7f	-0.41991803
253	0xbe1b192d	-0.15146323
254	0xbe60d2a9	-0.2195536
255	0x3ec4cc73	0.38437232

w_h.0.bias f4 [64]
0	0xbec6098a	-0.38679153
1	0xbec1386c	-0.3773836
2	0xbde2eafe	-0.110799775
3	0xbf3df4f9	-0.74201924
4	0xbf300f58	-0.6877341
5	0xbe8b6b95	-0.27230516
6	0xbf37aa88	-0.71744585
7	0xbda71fff	-0.081604
8	0xbe1287b8	-0.14309585
9	0xbf2b8066	-0.66992795
10	0x3d5d828f	0.05407959
11	0x3ea5f88d	0.32416192
12	0xbf1b6dbc	-0.60714316
13	0x3eb889fc	0.36042774
14	0xbdd62dd3	-0.10457959
15	0x3e173c7b	0.14769165
16	0xbf2d4b67	-0.6769318
17	0xbe33eada	-0.17570058
18	0xbe942a7f	-0.28938672
19	0xbf266d2d	-0.6501034
20	0xbefcb50d	-0.4935688
21	0x3d537fcc	0.05163555
22	0xbf802a74	-1.0012956
23	0xbf8addb9	-1.0848914
24	0xbf39eeff	-0.72630304
25	0xbcf5f894	-0.030025758
26	0x3db3ae06	0.08773427
27	0xbd35671f	-0.044287797
28	0xbf2b35d5	-0.66879016
29	0xbd8cced5	-0.068753876
30	0x3ed94aaf	0.42439792
31	0xbdfa1f49	-0.122129984
32	0xbd812e94	-0.06307712
33	0xbf18ac6a	-0.59638083
34	0xbe38f6c1	-0.18062879
35	0xbf9272f2	-1.1441329
36	0xbe33f47c	-0.17573732
37	0xbf6150b0	-0.88013744
38	0xbf04bbb0	-0.5184889
39	0xbf156ade	-0.5836619
40	0xbe75b530	-0.23994899
41	0xbf2988ed	-0.6622456
42	0xbd0cd42f	-0.03438204
43	0xbd08ff03	-0.033446323
44	0x3e9d7652	0.30754334
45	0xbad8ea5f	-0.001654934
46	0xbf01bba5	-0.5067695
47	0xbe900970	-0.281322
48	0xbd0d9742	-0.03456808
49	0xbec13671	-0.37736848
50	0xbe2231bb	-0.15839283
51	0xbfa5ac84	-1.2943273
52	0xbf6fdd5b	-0.93697137
53	0xbf80054c	-1.0001616
54	0x3da0e0ee	0.07855402
55	0xbf50e236	-0.8159517
56	0xbd94301d	-0.072357394
57	0xbe945dfe	-0.2897796
58	0xbe947246	-0.28993434
59	0x3e892ff3	0.26794395
60	0xbe9dac3f	-0.30795476
61	0xbed15052	-0.40881592
62	0xbed95963	-0.4245101
63	0xbe970f5b	-0.29503903

w_h.2.weight f4 [32, 64]
0	0xbda7b7ab	-0.08189329
1	0x3d9afdec	0.07567963
2	0x3d0b6ec2	0.034041174
3	0xbee47ec9	-0.4462798
4	0x3d5da196	0.05410918
5	0x3d8f09ef	0.069843166
6	0x3ea49e4d	0.32152024
7	0x3db62f8d	0.08895788
8	0x3ec81367	0.39077303
9	0x3e96201e	0.29321378
10	0x3e5bce5c	0.21465439
11	0x3d0eae72	0.034834333
12	0x3ed8eff6	0.42370576
13	0xbd5c3e6c	-0.053770468
14	0x3e3412d5	0.17585309
15	0x3e4cf19a	0.20014039
16	0xbe6c529b	-0.23078386
17	0x3d39f8f2	0.04540343
18	0xbe310db7	-0.17290388
19	0xbe0d8a32	-0.13822249
20	0x3f54c435	0.8311189
21	0x3ea34805	0.31890884
22	0xbde80148	-0.113283694
23	0x3e10205a	0.14074841
24	0xbe185aab	-0.14878337
25	0xbf065bf8	-0.52484083
26	0xbe110fca	-0.1416618
27	0x3eb6ead3	0.35726032
28	0x3e9849e7	0.29743883
29	0x3ce29ed7	0.027663631
30	0x3e14f3c1	0.1454611
31	0xbe1691ed	-0.14704104
32	0xbd5affd3	-0.05346663
33	0xbe0d12ba	-0.13776675
34	0x3dfc1f01	0.12310601
35	0xbdf2dde2	-0.11858727
36	0xbe1431b8	-0.14472091
37	0xbe8b2f6f	-0.27184626
38	0xbdf666dd	-0.12031338
39	0x3d4806ae	0.048834495
40	0xbb094a10	-0.0020948686
41	0x3e79bcd7	0.24388443
42	0xbcf9676a	-0.03044482
43	0x3e690adf	0.22758053
44	0x3e037498	0.12837446
45	0x3e482343	0.19544701
46	0xbeef748e	-0.46768612
47	0x3da6cee2	0.081449285
48	0x3f0f90eb	0.560805
49	0xbc5ad0cb	-0.013355444
50	0x3e01d527	0.12678967
51	0x3e0c0e56	0.13677344
52	0xbe14c43d	-0.14527984
53	0x3e2c987e	0.16855046
54	0x3e6d066d	0.23146982
55	0x3f0ae883	0.54261035
56	0x3b6f4e9f	0.0036515368
57	0x3f1e8b55	0.61931354
58	0xbe0e8ad7	-0.1392015
59	0xbd1483f0	-0.036258638
60	0xbdee2dc5	-0.116298236
61	0x3f0da2d9	0.5532661
62	0xbdbec932	-0.09315719
63	0x3ea4464a	0.32084876
64	0x3e0888db	0.13333456
65	0xbdac6a14	-0.0841867
66	0xbe22673a	-0.1585969
67	0xbf27f5d6	-0.6560949
68	0xbec7ce48	-0.39024568
69	0x3d3ab46f	0.04558223
70	0x3e0462d5	0.12928326
71	0xbd4372af	-0.047716793
72	0x3a206067	0.00061178807
73	0x3e42d4a2	0.19026425
74	0x3e32cd03	0.17461018
75	0xbf196b0e	-0.5992898
76	0xbf19c3a9	-0.6006418
77	0x3c825fba	0.015914787
78	0x3dce37f6	0.100692675
79	0xbe01af6c	-0.12664574
80	0x3e356cae	0.1771724
81	0x3c28dbce	0.010306312
82	0xbe5b3d92	-0.21410206
83	0x3e93b024	0.28845322
84	0xbe80cc52	-0.25155884
85	0x3e2e9eb4	0.17052728
86	0xbdb1f095	-0.086884655
87	0x3d4058b3	0.04695959
88	0x3ecec843	0.40387163
89	0xbdd46567	-0.103709035
90	0xbecc5997	-0.39912102
91	0x3e51c159	0.20483913
92	0xbe92af1b	-0.2864922
93	0xbd4e31bf	-0.05034041
94	0x3e9b4360	0.3032484
95	0x3e89685f	0.2683744
96	0x3e9da622	0.30790812
97	0xbee2dd44	-0.44309437
98	0x3d8bdb7b	0.06828972
99	0xbe04f934	-0.12985688
100	0xbe781ec2	-0.24230483
101	0xbda759fd	-0.08171461
102	0xbe5ea6e3	-0.2174335
103	0xbe98cff9	-0.2984617
104	0xbdc86993	-0.09785762
105	0xbe98b9c8	-0.2982924
106	0x3e31db4a	0.17368808
107	0xbe4d2c22	-0.20036367
108	0x3f1627fd	0.5865477
109	0x3ea1df5a	0.31615716
110	0xbe100e43	-0.1406794
111	0x3e651b18	0.22373617
112	0x3ceb11cc	0.02869501
113	0x3e325a19	0.17417182
114	0x3e79334f	0.24335979
115	0x3f1539a0	0.58291054
116	0x3f0695bb	0.5257222
117	0x3f698bba	0.9122883
118	0xbd8cd1a6	-0.06875925
119	0xbdd78549	-0.10523469
120	0x3e8f1edf	0.2795324
121	0xbf7fcc60	-0.99921227
122	0x3ea0169c	0.3126725
123	0xbdee51d9	-0.11636705
124	0x3d6d3c5b	0.057918888
125	0x3e6f3258	0.23359048
126	0x3d661a62	0.056177504
127	0x3eb795f3	0.3585659
128	0xbdb930eb	-0.090425335
129	0xbcc43b6d	-0.023954118
130	0xbcb357f5	-0.021892527
131	0x3db4b72e	0.08824001
132	0x3da8783e	0.082260594
133	0x3be7afe8	0.00707053
134	0xbdd7cbfe	-0.10536955
135	0x3da13093	0.07870593
136	0xbe4b8f80	-0.1987896
137	0x3d2939d4	0.041314915
138	0x3a1e0b73	0.0006028928
139	0xbdf1240e	-0.11774455
140	0xbe194b5d	-0.14970155
141	0xbda9a421	-0.08283258
142	0xbdd6225f	-0.104557745
143	0x3d0e3688	0.034719974
144	0xbc2dce97	-0.010608337
145	0xbd30ccff	-0.04316425
146	0xbd21c737	-0.039496627
147	0x3d87ef51	0.06637443
148	0xbd2108bd	-0.039314974
149	0xbe18f115	-0.14935715
150	0xbd724cbc	-0.05915521
151	0xbd8998c7	-0.06718593
152	0x3c88df47	0.01670803
153	0x3c0c04e3	0.008546087
154	0x3d788080	0.060669422
155	0xbdba45c7	-0.0909534
156	0x3d4cc33f	0.04999089
157	0xbd85aec1	-0.06527472
158	0xbd51ac34	-0.051189616
159	0xbda47ef6	-0.080320284
160	0x3d8f61f0	0.07001102
161	0xbdb324a5	-0.08747224
162	0xbd2323c9	-0.03982905
163	0xbda59e78	-0.08086866
164	0x3d6d81d8	0.057985157
165	0x3d3a8132	0.045533367
166	0xbe28b207	-0.16474162
167	0xbb600c28	-0.0034186933
168	0xbdf5002a	-0.11962922
169	0x3d5b29f1	0.053506795
170	0xbe0588fc	-0.13040537
171	0x3da03c28	0.07823974
172	0xbb3463b4	-0.0027525248
173	0x3d1e0b98	0.038585275
174	0xbd219ad4	-0.039454296
175	0xba477569	-0.0007608743
176	0xbe231617	-0.15926395
177	0xbe33f45f	-0.17573689
178	0xbd74d96a	-0.059777655
179	0xbcc875b2	-0.024470184
180	0xbb1964cd	-0.002340603
181	0xbdec9a2c	-0.115528435
182	0x3d71b689	0.05901197
183	0x3d2d009f	0.04223692
184	0x3c97ab0a	0.018514175
185	0x3d26f50c	0.04076104
186	0x3d818aa0	0.06325269
187	0x3bba087a	0.00567728
188	0xbdb37a36	-0.08763544
189	0x3dc9121e	0.09817909
190	0xbdcf16b1	-0.1011175
191	0xbc0cb1b3	-0.008587289
192	0xbd91c126	-0.07116918
193	0x3daacc81	0.08339787
194	0x3e4bb06f	0.19891523
195	0x3e97b9f1	0.2963405
196	0xbd97d403	-0.07413485
197	0x3ddc3019	0.107513614
198	0x3f249d5c	0.6430261
199	0x3d137f02	0.036009796
200	0xbe8442db	-0.25832257
201	0x3cf553f3	0.029947257
202	0xbf01031f	-0.5039539
203	0x3e8ce077	0.27515003
204	0x3e424273	0.18970661
205	0x3d43aed9	0.04777417
206	0xbeddb398	-0.43301082
207	0xbeb9674c	-0.36211622
208	0x3ccf28bc	0.025287978
209	0x3e9aa707	0.30205557
210	0x3e826714	0.25469267
211	0xbfd1ab1e	-1.6380346
212	0x3be562ee	0.0070003187
213	0xbf4ec71a	-0.80772555
214	0xbda34b20	-0.07973313
215	0x3e65347d	0.22383304
216	0x3e555583	0.20833401
217	0x3dcb037a	0.099127725
218	0xbef5fc15	-0.48043886
219	0xbdffaac3	-0.12483742
220	0x3f3e0391	0.7422419
221	0xbe931e97	-0.28734276
222	0x3e9f4cee	0.3111338
223	0xbed0e0fd	-0.40796652
224	0xbeb0152f	-0.34391162
225	0xbd9bd1c1	-0.07608367
226	0xbfac0cbb	-1.3441385
227	0xbe684ca8	-0.22685492
228	0x3ede0af3	0.4336773
229	0xbf04203d	-0.5161169
230	0xbd0d4695	-0.03449114
231	0x3df91776	0.12162678
232	0x3d3fa51b	0.046788316
233	0xbef021a6	-0.46900672
234	0xbd9869cb	-0.074420534
235	0xbc8f366d	-0.017482007
236	0xbe95a32c	-0.29226053
237	0xbd260392	-0.04053075
238	0xbe6be476	-0.2303637
239	0xbb862114	-0.0040932987
240	0x3e41c5e4	0.18923146
241	0x3e603712	0.21896008
242	0xbe547437	-0.20747457
243	0x3ec1b7bc	0.3783549
244	0x3f307c0f	0.689393
245	0xbf23ebef	-0.6403188
246	0x3e1b58da	0.15170613
247	0x3e97a475	0.29617658
248	0x3dee013c	0.11621329
249	0x3eeb0021	0.45898536
250	0xbc798d04	-0.015231375
251	0xbde25e3e	-0.110531315
252	0xbefff6cc	-0.4999298
253	0xbf1dbfce	-0.61620796
254	0x3ec297b0	0.38006353
255	0x3f159b44	0.5844004

w_h.2.bias f4 [32]
0	0x3d4c1803	0.049827587
1	0x3d3da3cd	0.04629879
2	0xbdf36bce	-0.118857965
3	0x3edb4a66	0.428302
4	0xbe031324	-0.1280027
5	0xbe8634c0	-0.2621212
6	0x3e4153b5	0.18879588
7	0x3e70a6c8	0.23501122
8	0xbe53bdcb	-0.20677869
9	0xbe3bce53	-0.18340425
10	0xbdd07a87	-0.1017962
11	0x3d1fa92d	0.038979698
12	0x3e4adf25	0.19811685
13	0x3e1c3d5d	0.15257783
14	0xbd71e7d7	-0.05905899
15	0xbe50ffde	-0.20410106
16	0xbe8a22da	-0.26979715
17	0xbe0793de	-0.1324
18	0x3e886af2	0.26644093
19	0xbcdf5798	-0.027263448
20	0xbe5b4f20	-0.21416903
21	0xbe8fd41b	-0.2809151
22	0xbe3fdef0	-0.18737388
23	0xbd6b6694	-0.057470873
24	0x3ea21d28	0.3166287
25	0x3b713424	0.003680476
26	0xbdc1da4b	-0.09465464
27	0x3e98eb3f	0.2986698
28	0xbd21d478	-0.039509267
29	0xbe01ee7f	-0.12688635
30	0xbe38dfd3	-0.18054132
31	0xbe5a8708	-0.21340573

Ws.0 f4 [32, 32]
0	0xc007d18e	-2.1221652
1	0x3f83ec46	1.030648
2	0xbf577069	-0.841559
3	0xbe71ff7f	-0.2363262
4	0x3f4cadf3	0.79952925
5	0xbf021f1c	-0.5082872
6	0xbea89617	-0.3292701
7	0x3ff69a63	1.9265865
8	0xbe83a636	-0.25712746
9	0x3f990230	1.1953793
10	0xc008231c	-2.127143
11	0xbec244f0	-0.3794322
12	0x3efed397	0.49770805
13	0xbe93a634	-0.2883774
14	0x3e7bd44e	0.24592707
15	0xbdca542a	-0.09879334
16	0xbe5cc920	-0.21561098
17	0xbf12a74f	-0.5728654
18	0x3f2c8837	0.6739535
19	0x4003c486	2.0588698
20	0xbf9eebf3	-1.2415756
21	0xbf1f78cf	-0.62293714
22	0xbf2a003e	-0.6640662
23	0x3efdd563	0.49576864
24	0xbe1aef92	-0.15130451
25	0xbe6bf9bc	-0.23044485
26	0x3f4e71fe	0.8064269
27	0x3fe1e76f	1.7648753
28	0xbe5ef7c8	-0.21774209
29	0xbf833764	-1.0251279
30	0xbecb7078	-0.39734244
31	0xbeaa217b	-0.3322867
32	0xbf60882f	-0.877078
33	0xbf60ee5f	-0.87863725
34	0x3eb41309	0.35170773
35	0x3fccce40	1.6000443
36	0xbfe00a17	-1.7503079
37	0x3f57377a	0.84069026
38	0x3e96a0e6	0.2941963
39	0xbde67ead	-0.1125463
40	0x3e8997fc	0.26873767
41	0xbf6d45ca	-0.92684615
42	0xbde813e4	-0.11331919
43	0x3d32a2d0	0.0436123
44	0x3dc300db	0.095216475
45	0xbf7d2a65	-0.98892814
46	0x3f3cee52	0.7380115
47	0xbfb8139f	-1.4380988
48	0xbe80aa84	-0.25130093
49	0x3fc38dde	1.527767
50	0xbf96037f	-1.1719817
51	0x3f156ea4	0.5837195
52	0xc011c61f	-2.2777174
53	0xbfa7c8ef	-1.3108195
54	0x3ea7632f	0.3269286
55	0xbe2b7a57	-0.16745888
56	0x3e19ad74	0.15007573
57	0x3f9ebb3d	1.240089
58	0x3f9013f6	1.1256092
59	0xbe07a9bc	-0.13248342
60	0xbe872be3	-0.2640067
61	0xc012e743	-2.295365
62	0x3f431aaf	0.7621259
63	0x3ebdcee1	0.370719
64	0x3fcc444b	1.5958341
65	0xc08d8de8	-4.4235725
66	0xbf000042	-0.50000393
67	0x3e0013f1	0.12507607
68	0xbfb7994f	-1.4343661
69	0x3f9c6eb1	1.222128
70	0xbf3f350f	-0.74690336
71	0xbf469251	-0.7756701
72	0xc0513645	-3.2689373
73	0x3f331935	0.6996034
74	0x3fa22d31	1.2670041
75	0x3f6a94ee	0.916335
76	0xc03b711a	-2.9287782
77	0xbfaeb2a4	-1.3648267
78	0x3f0f4b28	0.55974054
79	0xc005120d	-2.0792267
80	0x401263a4	2.2873316
81	0x3ebedef5	0.37279478
82	0x3ebeb374	0.37246287
83	0x3fbab372	1.4586012
84	0xbf0063b7	-0.5015215
85	0x3e9caf51	0.30602506
86	0xbf2575f2	-0.64633095
87	0xbeddbc9e	-0.43307966
88	0x4020b71f	2.5111768
89	0xbf2331e0	-0.6374798
90	0xbf1eca7d	-0.6202772
91	0xbfd02044	-1.6259847
92	0x3f1e6d45	0.6188548
93	0x3f872fa6	1.0561416
94	0x3ec893fb	0.391754
95	0x3f1e0f31	0.6174193
96	0xc033e2f1	-2.8107264
97	0x3da2914a	0.07937868
98	0x3dd88da9	0.105738945
99	0xc04937cf	-3.1440313
100	0x3edb3533	0.42814025
101	0x3fae1fbf	1.3603438
102	0x3fa22b0f	1.266939
103	0xbf00345b	-0.5007989
104	0x3edeaeb7	0.43492672
105	0x3f6132f8	0.879684
106	0xbf424a97	-0.75895065
107	0x3f00443e	0.5010413
108	0x3f0bd22d	0.5461758
109	0x3ea11676	0.3146245
110	0x3df119a0	0.11772466
111	0x3ec25bd2	0.37960678
112	0xbccb31a1	-0.024803938
113	0x3c05d845	0.008169238
114	0x3fb2b95c	1.3962817
115	0x4001511f	2.0205762
116	0x3fef5aa6	1.8699539
117	0x3ec48ad3	0.38387164
118	0xc00df1c4	-2.2178812
119	0xbf655902	-0.8958894
120	0x3fdea94e	1.7395418
121	0xbf74aefa	-0.95579493
122	0x3ecb1ca0	0.39670277
123	0xbed0c233	-0.40773162
124	0xbd5e0b60	-0.054210067
125	0xbfa8e5a1	-1.3195077
126	0x3f739f50	0.95164967
127	0xbf5b946b	-0.8577334
128	0x3ea8dd5c	0.32981384
129	0xbf0ef877	-0.5584788
130	0xbed8ed55	-0.4236857
131	0xc05a9cb6	-3.4158149
132	0x3e53b503	0.20674519
133	0x3f1d9232	0.615512
134	0xc03ed0f5	-2.9815037
135	0xc01781fd	-2.3673089
136	0xbef8df74	-0.4860798
137	0x3fa8a4f8	1.3175344
138	0x401c0777	2.4379556
139	0x3ef1a329	0.47194794
140	0xbf1533d1	-0.5828219
141	0xbf31c561	-0.694418
142	0x3f67e7fa	0.90588343
143	0xbf9edb5e	-1.2410696
144	0x3f61bc9b	0.88178414
145	0xbfb05f48	-1.3779078
146	0xc00da4b6	-2.2131782
147	0xbf131205	-0.5744937
148	0xbff10e3e	-1.8832471
149	0xbddda81a	-0.108230785
150	0x3f62138e	0.8831109
151	0x3f7299ed	0.9476612
152	0x3e602135	0.21887667
153	0xc00034bd	-2.003219
154	0xbf5f41c0	-0.872097
155	0xc0b24055	-5.570353
156	0x3df27436	0.11838572
157	0x3f5973c8	0.84942293
158	0xbe932de2	-0.28745943
159	0xbef7abbd	-0.48373213
160	0x3ee944b6	0.45560235
161	0xc000b59e	-2.011085
162	0xbf9572a4	-1.167561
163	0x3da3407d	0.079712845
164	0x3e2f84d5	0.17140515
165	0xbfa14135	-1.2598025
166	0x3df50579	0.119639345
167	0x3fb820bb	1.4384989
168	0x3f1a3b80	0.6024704
169	0x3ea67ed7	0.32518646
170	0xbe7dfcde	-0.24803492
171	0xbd52d586	-0.051473163
172	0x3eedbc47	0.46432707
173	0x3ef7b86b	0.48382887
174	0xbe34f51b	-0.17671625
175	0xbf16ce0b	-0.58908147
176	0xbebbb57a	-0.36661893
177	0xbe6bc2df	-0.23023556
178	0xc02428da	-2.5649934
179	0x3ef9703e	0.48718446
180	0x3fa29963	1.270306
181	0xbf868e27	-1.0512131
182	0x3f74c188	0.95607805
183	0xbf1cff15	-0.61326724
184	0xbee4395f	-0.4457502
185	0xbebb7ee4	-0.36620247
186	0x3f43c059	0.76465374
187	0xc01b5874	-2.4272738
188	0xbf31e05e	-0.6948298
189	0x3e15b867	0.14621125
190	0x3d9bb1b8	0.076022565
191	0xbf360c98	-0.71112967
192	0xbf00ff9d	-0.50390035
193	0x3e01fddb	0.12694494
194	0x3f5f8afd	0.87321454
195	0x40231512	2.548161
196	0xbe107986	-0.14108858
197	0xbf5fe814	-0.874635
198	0x3ed4b6dc	0.4154576
199	0x3fb96df8	1.4486685
200	0x402a1cfa	2.6580186
201	0xbea781e3	-0.32716283
202	0xbf9bfd1e	-1.218662
203	0xbf94b421	-1.1617471
204	0x3f395ce8	0.7240739
205	0x3eece9f7	0.4627225
206	0x3f183a1a	0.59463656
207	0xbf5134b2	-0.8172103
208	0xbf94f798	-1.163806
209	0xbd7ad666	-0.061239623
210	0xc026a90f	-2.6040685
211	0x3f62f872	0.8866035
212	0x3e1e3494	0.15449744
213	0x3d10cbc6	0.035350583
214	0xc02beafd	-2.6862175
215	0xbf47c546	-0.7803539
216	0xbdf70f70	-0.12063491
217	0xbfe50f95	-1.789538
218	0xbf1413c2	-0.5784265
219	0x3f3ae3b1	0.7300368
220	0x3f9d532b	1.2291006
221	0x400631b6	2.096784
222	0xbf8cfae7	-1.1014069
223	0x3f0f4003	0.5595705
224	0x3f7b8f97	0.98265976
225	0x3e90e4e1	0.2829962
226	0xbe4336c3	-0.19063859
227	0x3e9a5406	0.3014223
228	0x3e7cf5b7	0.24703108
229	0x3ed81033	0.4219986
230	0xbfba3634	-1.4547791
231	0xbeb48b56	-0.35262555
232	0x3f833960	1.0251884
233	0x3e470426	0.19435176
234	0x3f029d72	0.5102149
235	0xbf8ae72d	-1.0851799
236	0xbf878e06	-1.0590217
237	0xc02301a3	-2.546975
238	0x3fd64ad0	1.6741581
239	0xbf9b814c	-1.2148833
240	0xbe99ca01	-0.3003693
241	0x3ede5774	0.43426096
242	0x3f22c0d0	0.6357546
243	0x3e5030f7	0.20331179
244	0x3f9b4d6b	1.2133001
245	0xbe6a71d5	-0.22894986
246	0xbf9417fc	-1.156982
247	0xbfa64a73	-1.299147
248	0xbfaa3ca3	-1.3299755
249	0x3e87bfd6	0.26513547
250	0xbe83ab94	-0.2571684
251	0xbdfe2843	-0.12410023
252	0xbf90c31f	-1.1309546
253	0x3f70ff89	0.94139916
254	0xbf211e31	-0.62936693
255	0x3fe56d0d	1.7923905
