crowd_nav/data/output/il_model.pth (torch, 392355 bytes, 20 tensors)

mlp1.0.weight f4 [150, 13]
0	0xbd46a77d	-0.048499573
1	0x3e2a116e	0.16608211
2	0xbe6ae1a4	-0.22937638
3	0x3e6db051	0.2321179
4	0x3eac4e44	0.33653462
5	0x3e448b05	0.19193657
6	0xbd7e3e12	-0.062070914
7	0xbda39417	-0.0798723
8	0xbe0ab55e	-0.13545749
9	0xbea9ab89	-0.33138683
10	0xbddc7b1d	-0.107656695
11	0xbb1d3f41	-0.0023994
12	0x3e38096a	0.17972341
13	0x3e1b5118	0.15167654
14	0x3e191331	0.14948727
15	0xbdbbfe61	-0.09179378
16	0x3e8a76b9	0.27043703
17	0xbe6ed151	-0.23322035
18	0x3db4cea1	0.08828474
19	0xbebbbec0	-0.36668968
20	0x3ea771c0	0.32703972
21	0xbea0aa1d	-0.31379786
22	0x3dd94b44	0.10610059
23	0x3db7d573	0.08976259
24	0x3e05f608	0.13082135
25	0xbe7ec131	-0.24878384
26	0x3e179654	0.1480344
27	0xbe80a1a7	-0.2512333
28	0x3dc0de5a	0.0941741
29	0x3e534e63	0.20635371
30	0xbe031646	-0.12801465
31	0x3d8f679e	0.07002185
32	0xbdcd2609	-0.1001702
33	0xbd332b99	-0.04374275
34	0x3dae38a8	0.085069
35	0xbe9aab5e	-0.30208868
36	0xbe7a017e	-0.24414632
37	0x3e8ccb94	0.27499068
38	0x3e038529	0.12843765
39	0x3d3560f4	0.044281915
40	0xbe9065df	-0.2820272
41	0xbdbad78e	-0.09123145
42	0xbdda2457	-0.106514625
43	0x3db81033	0.08987465
44	0xbe1aee91	-0.15130068
45	0x3e16e7b3	0.14736824
46	0x3ea27820	0.31732273
47	0x3eb4cecf	0.35314032
48	0x3e5ce265	0.21570738
49	0xbe84700c	-0.25866735
50	0x3d93da44	0.07219365
51	0xbe5af0c8	-0.21380913
52	0x3da32a0a	0.07967003
53	0xbe5d101f	-0.21588181
54	0x3e32923f	0.17438601
55	0x3e58a634	0.21157151
56	0x3e251afe	0.16123578
57	0x3e96606d	0.29370442
58	0xbe8262f8	-0.25466132
59	0x3dc128d1	0.09431613
60	0x3e8af427	0.27139398
61	0xbe23921c	-0.15973705
62	0x3e012edd	0.12615533
63	0x3e14ac1d	0.14518781
64	0x3d331dad	0.043729473
65	0x3df50291	0.1196338
66	0x3dae2793	0.08503642
67	0x3dbca1e5	0.092105664
68	0x3e85a586	0.26102847
69	0x3e4a7d3a	0.19774333
70	0x3e2afa81	0.16697122
71	0xbe8c1cdf	-0.27365777
72	0x3dd0b27f	0.101902954
73	0xbe0105ad	-0.12599821
74	0xbe491618	-0.19637334
75	0xbe42cf92	-0.19024494
76	0xbd565670	-0.052328527
77	0xbe414a59	-0.18876018
78	0x3d2dea2d	0.042459656
79	0xbcbd2778	-0.02309011
80	0x3e65a115	0.22424729
81	0xbd4c8acb	-0.04993705
82	0xbe437723	-0.19088416
83	0xbd187fdf	-0.037231322
84	0x3d2a9539	0.041646216
85	0xbd761f1f	-0.060088273
86	0xbdf6137f	-0.12015437
87	0x3dac4165	0.084109105
88	0x3e0099ab	0.1255862
89	0xbc99b2c5	-0.018762002
90	0xbe246cb3	-0.1605709
91	0x3d334d33	0.043774795
92	0x3e3efe9b	0.18651812
93	0x3dbd0560	0.09229541
94	0xbdc14db7	-0.09438651
95	0x3e102b00	0.14078903
96	0xbe35c200	-0.17749786
97	0x3e3de874	0.18545705
98	0xbd4321d7	-0.047639694
99	0x3e1d8392	0.15382221
100	0x3a3e3dac	0.00072571146
101	0xbc5b4248	-0.013382502
102	0x3d498807	0.04920199
103	0xbe6e839d	-0.23292394
104	0x3da20b6e	0.07912336
105	0x3e45284a	0.1925365
106	0x3dbf8af1	0.09352673
107	0x3e808b02	0.25106055
108	0xbdc4607c	-0.095887154
109	0xbd599209	-0.053117786
110	0x3e3100b8	0.1728543
111	0x3d8ddf43	0.069273494
112	0x3da519cc	0.08061561
113	0xbdc0ec92	-0.09420122
114	0xbdd11509	-0.1020909
115	0x3d126417	0.035739984
116	0xbba408cc	-0.0050059315
117	0xbdd8b740	-0.10581827
118	0xbe55377e	-0.2082195
119	0xbe03c72f	-0.12868951
120	0xbe529143	-0.20563225
121	0x3cefe994	0.029286183
122	0x3e293219	0.16523017
123	0xbdd3a63a	-0.103344396
124	0x3e3cb706	0.18429193
125	0xbc070fac	-0.008243483
126	0x3d81fc83	0.06346991
127	0xbd6882f1	-0.0567655
128	0x3e012617	0.12612186
129	0x3e15353b	0.14571087
130	0xbe89175c	-0.26775634
131	0xbc13e6d9	-0.009027206
132	0x3e1c397a	0.152563
133	0x3e219331	0.15778805
134	0x3d912d15	0.07088677
135	0xbe1d4324	-0.15357643
136	0x3cd2fb33	0.025754547
137	0xbe38b8c8	-0.18039238
138	0x3cb3d8c3	0.021953946
139	0xbd8218ac	-0.06352362
140	0xbe2bba82	-0.16770366
141	0x3d8de436	0.069282934
142	0xbc552bb1	-0.013010905
143	0x3df63d64	0.12023428
144	0x3e6cd629	0.2312857
145	0x3de3021a	0.11084385
146	0x3e5e8c62	0.2173324
147	0xbcc19207	-0.023629202
148	0xbe29c354	-0.16578418
149	0x3e86a5b5	0.262983
150	0xbe03384e	-0.12814447
151	0x3e844bd6	0.25839108
152	0xbe870d93	-0.26377544
153	0x3d49ef36	0.049300395
154	0xbe9d178e	-0.30682033
155	0x3e2447ad	0.16042967
156	0xbe055765	-0.1302162
157	0x3e850941	0.25983623
158	0x3dd44f6a	0.103667095
159	0xbe6e14f6	-0.23250183
160	0x3e2edf38	0.17077339
161	0xbe7f42b6	-0.24927792
162	0xbe07af83	-0.13250546
163	0xbe3ca917	-0.18423878
164	0xbe176aba	-0.14786807
165	0x3e8dc027	0.27685663
166	0x3e78c922	0.24295476
167	0xbe44919d	-0.19196172
168	0xbe4e1ce9	-0.20128216
169	0xbe82c198	-0.25538325
170	0xbddf60aa	-0.10907109
171	0xbda4b60a	-0.08042534
172	0x3e6a6461	0.22889854
173	0x3e19d4a8	0.15022528
174	0xbd5aefad	-0.05345123
175	0x3e8311b8	0.25599456
176	0x3e03eb4c	0.12882727
177	0x3c09e560	0.008416504
178	0xbdb96da3	-0.09054115
179	0xbe3dc127	-0.18530713
180	0xbe6824f9	-0.22670354
181	0xbd7d1289	-0.061785255
182	0x3e34bbd2	0.17649773
183	0xbd1ac62f	-0.03778666
184	0xbdb9b7f6	-0.09068291
185	0x3d127b1e	0.035761945
186	0x3e32edbd	0.17473502
187	0x3e18f3f4	0.1493681
188	0xbe875357	-0.2643077
189	0x3e8259e8	0.25459218
190	0x3d5b68de	0.053566806
191	0x3da81f79	0.08209128
192	0xbdeec82f	-0.11659276
193	0xbdfba3ef	-0.12287127
194	0x3cc649da	0.024205137
195	0xbe8d9714	-0.27654326
196	0x3e154c9b	0.14580004
197	0x3d6dcab5	0.058054645
198	0x3d60d99e	0.054895036
199	0xbe8317d2	-0.2560411
200	0xbe5e050e	-0.21681616
201	0x3e78d957	0.24301659
202	0xbd204224	-0.039125577
203	0xbe762994	-0.24039298
204	0x3df6547c	0.12027833
205	0x3e33d551	0.17561843
206	0x3e563b67	0.20921098
207	0xbe1674f9	-0.14693059
208	0xbe0ae908	-0.13565457
209	0xbe4dcbef	-0.20097326
210	0x3e8250ce	0.25452274
211	0xbe0c2a8f	-0.1368811
212	0xbe7739dd	-0.24143167
213	0x3e321a37	0.17392813
214	0xbd6205ae	-0.055181198
215	0x3dfab561	0.122416265
216	0x3dbab4d1	0.09116519
217	0x3e8c264a	0.27372962
218	0x3d59392e	0.053033046
219	0xbe8c1458	-0.2735927
220	0x3da27bff	0.07933807
221	0xbe027c4f	-0.12742732
222	0x3e790fa4	0.24322373
223	0x3cedf1c7	0.029045952
224	0xbe5b5e60	-0.2142272
225	0xbd80115b	-0.0625331
226	0x3e419bb0	0.18907046
227	0xbe8a4263	-0.27003774
228	0x3de412b5	0.111363806
229	0x3be1e83e	0.0068941405
230	0xbda16809	-0.07881171
231	0x3d184b72	0.037181325
232	0x3e194f06	0.14971551
233	0xbe1279f5	-0.14304335
234	0xbdef521f	-0.11685585
235	0xbe817ce9	-0.2529061
236	0x3cb9376d	0.022609437
237	0xbe7cf5cb	-0.24703138
238	0xbe3186fa	-0.17336646
239	0x3ddc63b3	0.107612036
240	0xbe577c6f	-0.21043561
241	0xbe6dbba6	-0.23216113
242	0xbe5565a5	-0.20839556
243	0xbdc5dae5	-0.096608914
244	0xbe28b0d6	-0.16473708
245	0x3e946b56	0.2898814
246	0xbd32d51b	-0.043660264
247	0xbe6ec0af	-0.2331569
248	0x3d1cb007	0.03825381
249	0xbe70c909	-0.23514189
250	0x3e57952e	0.21053001
251	0x3c2320af	0.009956523
252	0xbe1cf690	-0.15328431
253	0xbe7d2f04	-0.24724966
254	0x3db89c66	0.09014206
255	0x3e032556	0.12807211

mlp1.0.bias f4 [150]
0	0x3e642929	0.22281326
1	0x3e835947	0.2565405
2	0xbe7c15aa	-0.24617639
3	0x3e5d9d60	0.21642065
4	0x3e3a4286	0.18189439
5	0xbe2361bf	-0.15955256
6	0x3da8e85a	0.082474425
7	0x3e5909b4	0.21195108
8	0x3e145edf	0.14489315
9	0x3d9d8980	0.07692242
10	0x3dfaf9f2	0.122547045
11	0xbe310130	-0.17285609
12	0xbdd4428f	-0.103642575
13	0x3d8e85ff	0.069591515
14	0xbdb8a9ad	-0.09016738
15	0xbe777bae	-0.24168274
16	0x3dae9df9	0.08526225
17	0xbd666978	-0.056252927
18	0x3e6d93cd	0.23200913
19	0x3cccb558	0.024988815
20	0x3e32542a	0.17414919
21	0xbcb286cd	-0.021792794
22	0xbc1a30b8	-0.0094110295
23	0x3e00ebee	0.1259
24	0x3afb9c70	0.0019196402
25	0xbe7b02fb	-0.24512856
26	0xbe71760d	-0.23580189
27	0xbd824a14	-0.063617855
28	0x3daf6b38	0.08565372
29	0xbe6fa0a9	-0.2340113
30	0xbe84cb43	-0.25936326
31	0x3d93e973	0.07222261
32	0x3e2f4a73	0.17118244
33	0xbcef30f0	-0.02919814
34	0xbd8e87be	-0.069594845
35	0xbd729cfb	-0.05923174
36	0x3cc34735	0.023837665
37	0xbe6e20c2	-0.23254684
38	0x3e0e68ef	0.13907216
39	0x3e613b7b	0.21995346
40	0x3d62eb71	0.055400316
41	0xbe333265	-0.17499693
42	0x3e743bcb	0.23850934
43	0xbdd19b05	-0.10234646
44	0xbe0e8be4	-0.13920552
45	0x3e80dc4c	0.25168073
46	0x3c715248	0.01472909
47	0x3ce35baf	0.02775368
48	0xbd92d83c	-0.0717015
49	0xbe6b9bfa	-0.23008719
50	0x3d8452ce	0.06461106
51	0x3e53cfc0	0.20684719
52	0xbd94a603	-0.07258227
53	0x3e112c1b	0.14176981
54	0x3db94260	0.09045863
55	0x3d71ab52	0.059001274
56	0x3e05e472	0.13075426
57	0xbe84e540	-0.25956154
58	0x3e7d75bb	0.24751942
59	0xbd49d0c0	-0.049271345
60	0x3e5764c9	0.2103454
61	0x3e807002	0.25085455
62	0x3e971c7a	0.29513913
63	0x3e4b211c	0.19836849
64	0x3ce09776	0.027415972
65	0xbe51cba3	-0.20487837
66	0x3d9620c0	0.07330465
67	0x3e52cdd3	0.20586328
68	0xbdcac755	-0.09901301
69	0x3e34491d	0.17606016
70	0x3c507613	0.012723464
71	0x3d9af246	0.07565741
72	0xbc295900	-0.010336161
73	0xbc6945ff	-0.01423788
74	0xbe83fd35	-0.2577912
75	0xbd4c5b58	-0.0498918
76	0x3dd38b31	0.10329283
77	0x3e5a821a	0.21338692
78	0xb99e4fc2	-0.00030195533
79	0x3e44ebea	0.19230619
80	0x3e415117	0.1887859
81	0xbd3b2008	-0.045684844
82	0x3d577f67	0.052611735
83	0x3cf37f94	0.02972392
84	0x3e82d943	0.25556383
85	0xbe7396d3	-0.23788004
86	0xbd20caf7	-0.039256062
87	0xbe16c51d	-0.1472363
88	0x3dc23ad2	0.09483875
89	0xbc59d287	-0.013294823
90	0x3dd2848e	0.10279189
91	0x3e9c32e4	0.30507576
92	0x3e216de0	0.1576457
93	0x3dffee20	0.124965906
94	0x3e704980	0.23465538
95	0x3dc9d907	0.09855848
96	0xbddaddf4	-0.106868654
97	0x3de244c9	0.11048276
98	0xbdaa327e	-0.08310412
99	0x3e00fd77	0.12596689
100	0x3e5d90b3	0.2163723
101	0xbdaae717	-0.08344858
102	0x3cde404e	0.027130272
103	0xbe50a3f0	-0.20375037
104	0xbe3fa5df	-0.18715619
105	0xbd9cbd41	-0.07653285
106	0x3dfb10be	0.12259053
107	0x3dcdd023	0.100494646
108	0xbbeddb1a	-0.007258785
109	0xbd45fa07	-0.048334148
110	0x3de5b600	0.11216354
111	0x3d7cf28d	0.061754752
112	0xbe1cfd66	-0.15331039
113	0x3db1989a	0.086716846
114	0xbe5466fe	-0.20742413
115	0x3e821d0d	0.2541279
116	0xbe6a2df3	-0.2286909
117	0xbdf40cdb	-0.119165145
118	0xbe06bff0	-0.13159156
119	0x3e95fa79	0.29292658
120	0xbe6eb5b8	-0.23311508
121	0x3e22a3e5	0.15882833
122	0x3d98f897	0.0746929
123	0x3ce14104	0.027496822
124	0xbd106357	-0.035250988
125	0xbe40e7d5	-0.18838437
126	0x3e2a57b6	0.16635022
127	0x3e9af001	0.30261233
128	0xbdbb05da	-0.091319755
129	0x3e3d3c10	0.18479943
130	0x3df3302b	0.11874422
131	0x3dfff46f	0.12497794
132	0xbd01a29d	-0.03164922
133	0x3dda12ce	0.10648118
134	0x3d0c9616	0.03432282
135	0xbe397861	-0.18112327
136	0xbe1103de	-0.14161631
137	0xbe9ac51f	-0.30228516
138	0x3e9449f6	0.28962678
139	0xbe7c5c6e	-0.24644634
140	0x3e8a0b32	0.26961666
141	0xbdeb0c09	-0.11476905
142	0x3df51699	0.11967201
143	0xbd325b56	-0.043544136
144	0xbe72cd26	-0.2371107
145	0xbe936dc0	-0.2879467
146	0x3d84f0af	0.06491219
147	0x3c2d076e	0.010560853
148	0x3d408851	0.047005
149	0x3e21f4d8	0.15816057

mlp1.2.weight f4 [100, 150]
0	0x3d93b5fb	0.072124444
1	0x3cb3b6a6	0.02193768
2	0xbd74c2f6	-0.05975624
3	0xbe3f4951	-0.18680312
4	0xbbd1bcbe	-0.0064006737
5	0xbda31b36	-0.079641744
6	0x3d2c79e8	0.042108446
7	0x3d10c5b8	0.03534481
8	0x3cc82daf	0.024435846
9	0x3d349cd1	0.044094864
10	0x3da31023	0.07962062
11	0xbbe62a20	-0.0070240647
12	0xbd1d8ccf	-0.038464364
13	0x3d63b190	0.05558926
14	0x3dae9aeb	0.08525642
15	0xbd07024e	-0.032961182
16	0x3d577ca2	0.052609093
17	0x3d465286	0.048418544
18	0xbbd5d9aa	-0.0065261917
19	0x3cec57c1	0.028850438
20	0xbc5d7d68	-0.013518669
21	0x3d780868	0.06055489
22	0x3d2bbf7f	0.04193067
23	0x3dc9abd8	0.0984723
24	0xbd4918c5	-0.049095888
25	0x3da9a894	0.08284107
26	0x3c9bffd5	0.019042889
27	0xbdab0c93	-0.08352008
28	0xbcd668d2	-0.02617303
29	0x3df94265	0.12170867
30	0xbce5015d	-0.027954752
31	0xbd55e0d0	-0.05221635
32	0xbc23d272	-0.009998905
33	0x3d4c07e9	0.04981223
34	0xbbce82a4	-0.0063021947
35	0xbdcd62a0	-0.10028577
36	0xbc9c7b03	-0.019101625
37	0x3db96361	0.09052158
38	0xbd7f1a50	-0.062280953
39	0x3daeed98	0.08541411
40	0xbd75f7d6	-0.060050808
41	0xbd9a0e9c	-0.07522318
42	0x3c02ed61	0.007991166
43	0x3d666801	0.05625153
44	0xbc81c998	-0.015843198
45	0x3ccc5229	0.02494152
46	0x3d9635ef	0.07334506
47	0x3d2ad073	0.0417027
48	0x3d094ee2	0.033522494
49	0xbdad3fa0	-0.08459401
50	0xbc234525	-0.009965216
51	0xbd64c77d	-0.05585431
52	0x3d30b319	0.04313955
53	0x3d13d343	0.036090147
54	0xbc7c1335	-0.015385439
55	0xbd26bd70	-0.040708005
56	0xbda111ab	-0.07864698
57	0xbc944956	-0.018101376
58	0x3d287ec7	0.04113653
59	0x3d4a64ce	0.04941254
60	0x3df314fa	0.11869235
61	0xbdbe1414	-0.09281173
62	0x3dbaf996	0.09129636
63	0xbd92dbc8	-0.07170826
64	0x3cdf277d	0.02724051
65	0x3d3254b4	0.04353781
66	0xbca24744	-0.019809373
67	0xbd810b8f	-0.06301033
68	0x3bc9bb5a	0.0061563672
69	0xbb970118	-0.0046082847
70	0x3bcaea13	0.0061924546
71	0x3d7d7360	0.06187761
72	0x3cfc0644	0.030764706
73	0xbd4ac791	-0.049506728
74	0x3da0ff3f	0.07861184
75	0xbd3a39cf	-0.045465287
76	0x3d801875	0.06254665
77	0xbbfa317b	-0.007635293
78	0x3d9ef818	0.07762164
79	0xbdc5ab86	-0.09651856
80	0x3d9c192a	0.07621987
81	0x3d44b739	0.048026297
82	0x3d4a5923	0.049401414
83	0x3de85ecb	0.11346205
84	0x3d0e3206	0.034715675
85	0x3cde5afd	0.027142996
86	0x3d4600ef	0.048340734
87	0x3d207e5b	0.039183002
88	0xbd26dc1a	-0.04073725
89	0xbd1c3569	-0.038136873
90	0x3d7ee475	0.062229592
91	0x3ddca733	0.10774078
92	0xbc91bd3d	-0.017790431
93	0x3d8b7beb	0.06810745
94	0x3ddc95ee	0.10770784
95	0xbc42183a	-0.011846596
96	0xbe105c9f	-0.14097832
97	0x3d09ed8d	0.03367381
98	0xbca20044	-0.019775517
99	0x3bd2ad8d	0.0064293803
100	0x3de8e590	0.113719106
101	0xbd9ee879	-0.077591844
102	0xbe0aa9ec	-0.13541383
103	0xb9aeefe9	-0.00033366613
104	0x3b090304	0.0020906338
105	0x3dc10f65	0.094267644
106	0xbc33568e	-0.010945929
107	0x3da48fa8	0.08035213
108	0xbdbce752	-0.09223808
109	0xbcefdde7	-0.029280616
110	0xbd0c714f	-0.034287747
111	0xbded9bb8	-0.116019666
112	0xbb034f0d	-0.0020036132
113	0xbda623b3	-0.08112278
114	0x3de1f851	0.11033691
115	0xbd026689	-0.031836066
116	0xb9b15c5c	-0.00033828884
117	0x3caf40c6	0.021393191
118	0xbc642510	-0.013924852
119	0xbd1a7d20	-0.037716985
120	0xbe2532f5	-0.1613272
121	0xbd649653	-0.055807423
122	0xbda58460	-0.08081889
123	0xbbfdfdce	-0.007751203
124	0x3c9e18ed	0.019298995
125	0xbd5b4e42	-0.05354143
126	0xbd7a6c5c	-0.061138496
127	0xbde1aea8	-0.11019641
128	0xbc129258	-0.008946024
129	0x3d1f0cd2	0.038830586
130	0x3db9ed5c	0.09078476
131	0xbca71081	-0.020393612
132	0xbd81c577	-0.063364916
133	0x3d9deb9b	0.07710954
134	0x3d8e3601	0.06943894
135	0xbd88ce37	-0.06679957
136	0xbc3f28d6	-0.011667451
137	0x3d625b2f	0.05526274
138	0x3db707f8	0.08937067
139	0xbd7cac53	-0.06168778
140	0xbd2f65e3	-0.042821776
141	0xbdac548a	-0.08414562
142	0x3c43b836	0.011945775
143	0xbd679b9f	-0.056544896
144	0xbd4e1727	-0.05031505
145	0xbded165d	-0.11576531
146	0xbb83743a	-0.004011658
147	0xbd399d6d	-0.04531615
148	0xbd4b8352	-0.049685784
149	0xbd7f0f38	-0.062270373
150	0x36e5ddb1	6.85054e-06
151	0x3dc27d5c	0.09496567
152	0x3d7d789c	0.0618826
153	0xbdb56bd9	-0.08858461
154	0xbba7eebd	-0.0051248954
155	0x3db28b71	0.087180026
156	0xbd035387	-0.03206208
157	0x3d621231	0.05519313
158	0xbd8dd041	-0.06924487
159	0xbdbb5549	-0.09147126
160	0xbc27bc80	-0.010237813
161	0x3c9a1935	0.018810848
162	0xbc5ae574	-0.01336037
163	0xbd7f658c	-0.062352702
164	0x3d85bfae	0.065307006
165	0xbcefeef4	-0.029288746
166	0xbc714f9a	-0.014728451
167	0x3cf99a1c	0.030468993
168	0xbccd9a7b	-0.025098076
169	0x3d0a3766	0.03374424
170	0x3d46f187	0.048570182
171	0xbd3f8e1c	-0.046766385
172	0x3d2184aa	0.03943316
173	0xbc50f45d	-0.012753573
174	0xbc9ac398	-0.018892094
175	0xbd8368d6	-0.0641648
176	0xbc41e450	-0.011834219
177	0xbd3d60f2	-0.046235032
178	0xbcc1183d	-0.023571128
179	0x3d516659	0.051122997
180	0x3d79ad91	0.06095654
181	0x3b978453	0.0046239286
182	0xbd3173d0	-0.043323338
183	0xbda2dea5	-0.07952622
184	0xbd26a535	-0.040684897
185	0xbd0cf592	-0.03441388
186	0x3d97ed87	0.074183516
187	0x3c71f5d0	0.014768079
188	0xbc96731b	-0.018365433
189	0x3ca35efb	0.019942751
190	0xbd9d2e35	-0.07674829
191	0xbc91c3ad	-0.0177935
192	0xbcb423ec	-0.021989785
193	0xbc3519b6	-0.011053493
194	0x3cbeea89	0.023305194
195	0xbcc270de	-0.02373546
196	0x3cdc4869	0.026889997
197	0xbab04994	-0.0013449662
198	0x3d2c0f4a	0.04200677
199	0xbcdb45ae	-0.026766624
200	0x3d7fec31	0.06248111
201	0x3d1022a1	0.035189275
202	0x3cac72b5	0.02105079
203	0x3ca0c7ca	0.019626517
204	0x3c92eba5	0.01793463
205	0x3c284467	0.010270215
206	0x3cc647c9	0.024204152
207	0x3d9c3ab7	0.076283865
208	0x3d65038a	0.05591158
209	0xbb776397	-0.003774857
210	0xbc27777a	-0.0102213565
211	0xbcf96241	-0.030442359
212	0x3c88fa8d	0.016721034
213	0xbd857ff0	-0.06518543
214	0xbcee542c	-0.02909287
215	0x3d2fa74e	0.042884164
216	0xbd135766	-0.03597202
217	0xbcbd17d4	-0.023082651
218	0xbcf5456b	-0.029940328
219	0x3d99d206	0.07510762
220	0x3d7d7c7c	0.061886296
221	0xbd891f06	-0.066953704
222	0xbd7769db	-0.060403686
223	0x3c5bce6a	0.013415912
224	0xbd810a7d	-0.063008286
225	0xbc6fa5f6	-0.0146269705
226	0x3d3aa43d	0.045566786
227	0x3d2406d5	0.040045578
228	0xbbe4ac9c	-0.0069785845
229	0x3da59688	0.08085352
230	0x3c718b95	0.014742752
231	0xbd58f185	-0.052964706
232	0x3d79f7e8	0.061027437
233	0x3d0c1ce6	0.034207247
234	0x3d93b2ca	0.07211836
235	0x3dc3f9b5	0.09569112
236	0xbd7e469f	-0.06207907
237	0x3d2a046c	0.041508123
238	0x3dc51acb	0.09624251
239	0x3d10c09f	0.035339948
240	0x3d8611e3	0.0654638
241	0xbd47af7b	-0.048751336
242	0xbd51ff41	-0.05126882
243	0xbd50a7e7	-0.050941374
244	0xbd76c0c1	-0.06024242
245	0x3ce00b49	0.027349131
246	0x3d7d1bf9	0.061794255
247	0x3c98d4ef	0.018656222
248	0x3d946250	0.07245314
249	0xbd26dc3e	-0.040737383
250	0xbdc00e60	-0.09377742
251	0xbdc7377d	-0.097273804
252	0x3c2010ce	0.009769632
253	0xbd6d4008	-0.057922393
254	0xbd0d19f3	-0.034448575
255	0xbd793fae	-0.060851745

mlp1.2.bias f4 [100]
0	0x3d575d95	0.05257948
1	0xbb9ed591	-0.0048472364
2	0x3bce5728	0.006297011
3	0x3d26dc1c	0.040737256
4	0xbd219e93	-0.03945787
5	0x3cb606de	0.022220071
6	0x3d74d831	0.05977649
7	0x3d7f0a55	0.062265713
8	0xbcae5c6e	-0.021284308
9	0x3cb46a14	0.022023238
10	0x3cdd15a3	0.026987856
11	0x3c8d8a03	0.017277723
12	0x3b544fd7	0.003239622
13	0xbd2a803c	-0.0416262
14	0xbd4431e0	-0.047899127
15	0x3c934714	0.017978229
16	0xbd2232da	-0.039599277
17	0xbc14fe83	-0.009093883
18	0xbd868dba	-0.06570001
19	0x3ce0b3b7	0.027429445
20	0xbd11030e	-0.035403304
21	0xbde57fba	-0.112060025
22	0xbbff8719	-0.0077980873
23	0xbc420f47	-0.011844463
24	0xbd031e3e	-0.032011263
25	0xbe289e70	-0.16466689
26	0x3d47b973	0.048760843
27	0xbce41330	-0.02784118
28	0x3d0896a8	0.033346802
29	0x3da641d7	0.08118027
30	0xbd603850	-0.054741204
31	0x3d601014	0.054702833
32	0xbc9aa52b	-0.018877586
33	0xbcfdd83b	-0.030986896
34	0xbc335f2a	-0.010947982
35	0x3cb5ddd3	0.0222005
36	0xbcc0e049	-0.023544447
37	0xbd019d19	-0.03164396
38	0xbd3ed83c	-0.046592936
39	0xbc5e937f	-0.0135849705
40	0xbd63efe7	-0.05564871
41	0x3d9ccd38	0.0765633
42	0xbc7dc803	-0.015489581
43	0x3d2b124e	0.041765504
44	0x3dc15f31	0.094419844
45	0x3c4971ed	0.012295228
46	0x3d452ac8	0.048136503
47	0x3d0ad846	0.03389766
48	0x3d27a25d	0.040926326
49	0x3c61371b	0.013746048
50	0xbcc0f994	-0.023556508
51	0xbc84355d	-0.016138727
52	0x3d547332	0.05186767
53	0xbd2e34a4	-0.04253067
54	0xbd30c33c	-0.04315494
55	0xbd85fe78	-0.06542677
56	0x3db3f581	0.087870605
57	0xbd46cccc	-0.048535153
58	0xbc993cfb	-0.018705836
59	0xb8e29e6f	-0.0001080603
60	0xbd482415	-0.048862536
61	0x3da48eef	0.08035075
62	0x3d8af7c7	0.06785541
63	0x3d35001c	0.044189557
64	0x3cd86ff9	0.02642058
65	0xba6396ab	-0.0008681814
66	0x3c6b3a95	0.014357229
67	0x3c042ec6	0.008067792
68	0xbd7bd1fe	-0.06147956
69	0x3d8afba3	0.06786277
70	0x3b3fe5ab	0.002928118
71	0xbda09265	-0.078404225
72	0x3dbded3b	0.09273764
73	0x3b905913	0.0044051497
74	0x3c2961f1	0.010338292
75	0xbd95dff2	-0.07318105
76	0xbd8bf405	-0.068336524
77	0x3bb73ea6	0.005592185
78	0xbc7eca04	-0.015551094
79	0xbd2b830a	-0.041873015
80	0x3c843888	0.016140237
81	0xbd0f1e5f	-0.034941074
82	0x3cc78739	0.024356471
83	0xbda3aad5	-0.07991568
84	0x3d8b5cf0	0.06804836
85	0x3da2747a	0.079323724
86	0x3b833506	0.0040041236
87	0x3d3c6b59	0.046000812
88	0x3d88650a	0.06659897
89	0x3da7d8ee	0.08195673
90	0xbd7631a9	-0.060105953
91	0x3c45ce8e	0.012073172
92	0xbc923fe9	-0.01785274
93	0xbb8df319	-0.004331958
94	0x3d59f63a	0.053213336
95	0xbdb7c491	-0.08973039
96	0x3d163572	0.036672063
97	0x3d4707ff	0.04859161
98	0xbd8b03e2	-0.0678785
99	0xbda6d23a	-0.08145566

mlp2.0.weight f4 [100, 100]
0	0xbcd2f2e1	-0.02575058
1	0x3ac2c24a	0.0014858928
2	0x3d5619da	0.052270748
3	0xbdb5cec5	-0.08877329
4	0xbd8e14bf	-0.06937551
5	0xbd3649a5	-0.044503827
6	0x3d545775	0.051841218
7	0xbcee4bc0	-0.029088855
8	0xbd7eef2b	-0.062239807
9	0xbda3c5ea	-0.079967335
10	0xbda62b7f	-0.08113765
11	0x3db1abee	0.08675371
12	0xbd1f04d6	-0.03882297
13	0x3d7686e1	0.060187224
14	0xbd6ea5b6	-0.058263503
15	0xbdb48c3d	-0.08815811
16	0x3d159cfc	0.036526665
17	0xbda96110	-0.08270466
18	0xbd7a4280	-0.061098576
19	0x3ce20eb3	0.0275949
20	0xbd6a98ee	-0.05727475
21	0x3cf9b70a	0.030482788
22	0xbd7f4331	-0.062319938
23	0x3db95ae4	0.09050539
24	0xbd63245e	-0.055454604
25	0x3d1643c1	0.03668571
26	0x3d553e9a	0.052061655
27	0x3d009d6c	0.03140013
28	0x3c712eba	0.014720613
29	0x3a38c71b	0.0007048712
30	0xbdb4946d	-0.088173725
31	0xbd9a8477	-0.07544797
32	0x3d427903	0.047478687
33	0xbd8932c6	-0.066991374
34	0x3d9c430d	0.076299764
35	0x3d3df12f	0.04637259
36	0xbca303f7	-0.019899352
37	0xbb1c9953	-0.00238951
38	0x3bee40d9	0.007270914
39	0x3d1a8239	0.037721846
40	0xbd82b26a	-0.06381686
41	0x3c44f284	0.012020711
42	0xbb1ca683	-0.002390296
43	0xbc0f7694	-0.008756299
44	0xbcd18b64	-0.025579162
45	0x3d7c312b	0.061570328
46	0x3d85645b	0.06513282
47	0x3d78cfdd	0.06074511
48	0x3dbdeeb5	0.092740454
49	0xbd1d6557	-0.038426723
50	0xbd3ffb30	-0.04687041
51	0xbd8185bd	-0.06324337
52	0xbd4b397b	-0.049615365
53	0xbd11e63d	-0.035619963
54	0x3b1318aa	0.002244512
55	0x3d67f207	0.0566273
56	0x3dc098d7	0.09404152
57	0x3d7bdae1	0.061488036
58	0xbd639bcb	-0.055568498
59	0x3bc5d82d	0.006037733
60	0xbd52bb06	-0.05144789
61	0xbac7ce83	-0.001524404
62	0x3da486fe	0.0803356
63	0x3ce6a0be	0.02815282
64	0x3dcbdddf	0.09954428
65	0xbdbd60b3	-0.092469595
66	0xbd3e1aaa	-0.046412148
67	0xbd3275f8	-0.043569535
68	0xbc680fcb	-0.014163922
69	0x3db5132a	0.08841546
70	0xbd18b96c	-0.037286207
71	0xbbc988ae	-0.0061503267
72	0x3dd2e000	0.10296631
73	0xbdb41ce2	-0.087945715
74	0x3d93b337	0.07211917
75	0xbcb97a03	-0.022641188
76	0x3d6b08f0	0.05738157
77	0x3ca36253	0.019944346
78	0x3d4042fc	0.04693888
79	0x3d75ae07	0.05998042
80	0xbc2144ff	-0.00984311
81	0x3da87173	0.08224764
82	0xbdb52420	-0.08844781
83	0xbd2a35c0	-0.041555166
84	0xbd772382	-0.060336597
85	0xbb775eab	-0.0037745635
86	0x3dc76efc	0.097379655
87	0xbdbf78d5	-0.09349219
88	0x3db7911f	0.089632265
89	0x3cf5b19c	0.029991917
90	0x3d1c672c	0.03818433
91	0xbc8d6a49	-0.017262595
92	0x3d545900	0.05184269
93	0xbca27d49	-0.019835131
94	0x3b976bcf	0.004621006
95	0xbdaa4306	-0.08313565
96	0xbd5057da	-0.05086503
97	0xbd0d9f31	-0.034575645
98	0x3d4d467a	0.05011604
99	0x3d8d8eeb	0.06912025
100	0xbb81dcb2	-0.0039630765
101	0x3c5b4c81	0.013384939
102	0xbcd4f720	-0.025996745
103	0xbd9ca863	-0.07649305
104	0x3adc69e7	0.0016816229
105	0x3db32ff1	0.087493785
106	0x3cca5595	0.024699012
107	0xbd8915b1	-0.066935904
108	0xbc520e9b	-0.012820865
109	0xbd06884d	-0.03284483
110	0x3daa7413	0.08322921
111	0x3d8075ae	0.062724456
112	0xbd262faa	-0.0405728
113	0xbd8d91ad	-0.06912551
114	0x3dadf7dd	0.08494542
115	0x3cffe701	0.031238081
116	0xbc9f0b6a	-0.019414622
117	0x3d9705d6	0.0737416
118	0x3c8b7966	0.01702566
119	0xbd2838ca	-0.041069783
120	0x3db9cefc	0.09072682
121	0x3d65725f	0.056017276
122	0xbcf327cf	-0.029682068
123	0xbc2a8641	-0.010407985
124	0x3da09473	0.078408144
125	0x3d7c79d9	0.06163964
126	0xbd2223f3	-0.039585065
127	0x3ba7c396	0.005119751
128	0x3d0ec008	0.034851104
129	0xbdc97866	-0.09837417
130	0x3d0c28ad	0.03421848
131	0x3ce3797d	0.027767891
132	0xbd09e4a0	-0.0336653
133	0x3ce77657	0.028254671
134	0x3d8e7511	0.069559224
135	0x3d6d5cc6	0.057949804
136	0x3d6ec5a8	0.05829397
137	0xbdb99d01	-0.09063149
138	0x3d8f276b	0.0698994
139	0xbc8c9008	-0.017158523
140	0xbc0e8614	-0.008698959
141	0xbdbacfa9	-0.09121639
142	0x3c05bcd4	0.008162696
143	0x3d9dd0c2	0.07705833
144	0x3b2adbe5	0.0026071009
145	0xbd836777	-0.06416219
146	0x3d807429	0.06272156
147	0xbd4f81c2	-0.050660856
148	0xbd5f5fa3	-0.054534566
149	0x3c5c6eeb	0.013454179
150	0x3d92806e	0.07153402
151	0x3dc2fd3e	0.09520958
152	0xbd90a5fc	-0.07062909
153	0x3cf589f3	0.029973006
154	0xbca8e28c	-0.020615838
155	0x3da09790	0.07841408
156	0xbd9aa53e	-0.07551049
157	0xbd2bb210	-0.04191786
158	0xbdaf5c7b	-0.08562561
159	0xbcf428ba	-0.029804576
160	0x3dbf2a83	0.0933428
161	0x3be508a5	0.006989556
162	0xbda607ec	-0.0810698
163	0xbcafb1b7	-0.021447046
164	0x3dab0ff9	0.08352656
165	0xbccc4098	-0.024933144
166	0x3cd8f624	0.026484556
167	0xbdb9c1b3	-0.09070148
168	0xbd12c8f0	-0.03583616
169	0xbdd0ac69	-0.10189135
170	0x3dc1a448	0.09455162
171	0xbc252ea3	-0.01008192
172	0xbd918ce1	-0.07106949
173	0x3d29a3c0	0.04141593
174	0xbda97c3b	-0.08275648
175	0xbd86dff6	-0.06585686
176	0xbcf2d8ad	-0.029644335
177	0x3c582799	0.013193035
178	0x3a6e07d3	0.00090801454
179	0x3d4dddec	0.05026047
180	0x3c379ecb	0.011207293
181	0xbba523f4	-0.0050396863
182	0x3d5fa34e	0.0545991
183	0xbdb263ad	-0.08710418
184	0xbdc12a48	-0.09431893
185	0x3d5f0dd4	0.054456547
186	0xbd611f62	-0.05496157
187	0xbd35b5cb	-0.044362824
188	0xbcca5626	-0.024699282
189	0xbdb6a859	-0.089188285
190	0xbd683862	-0.056694396
191	0x3d5ce9a0	0.05393374
192	0x3d5b1fcd	0.053497124
193	0x3d51ad0c	0.05119042
194	0x3d52d4b5	0.051472384
195	0xbd2d0ef5	-0.042250592
196	0x3dbb9158	0.091585815
197	0xbd14adec	-0.036298677
198	0x3d854557	0.06507366
199	0xbadd0fdf	-0.0016865692
200	0x3dd54336	0.1041321
201	0xbba48bc7	-0.0050215456
202	0xbb9e8017	-0.004837047
203	0xbc8b8dbd	-0.01703536
204	0x3c8c8554	0.01715342
205	0x3cfcb8bf	0.030849813
206	0x3d5e84e2	0.054325946
207	0x3d90b9e7	0.07066708
208	0xbc3b2ec1	-0.011424721
209	0xbce6cb8f	-0.028173236
210	0x3d80f746	0.06297164
211	0xbdb90bf1	-0.09035481
212	0x3df4be81	0.11950398
213	0x3d2d67c9	0.042335305
214	0xbdbcdf55	-0.09222285
215	0xbc77a8b6	-0.015115907
216	0x3d8cec5e	0.06881021
217	0x3d95a73e	0.073072895
218	0x3da63793	0.08116069
219	0x3d96c715	0.07362191
220	0xbb5b92c2	-0.0033504223
221	0xbe0881b4	-0.13330728
222	0xbb8ebcf1	-0.0043560197
223	0xbd88a38c	-0.06671819
224	0xbd95e87e	-0.07319735
225	0xbcfc23ae	-0.030778732
226	0xbcd2a97a	-0.025715578
227	0x3d951fd1	0.07281459
228	0xbc23b7ff	-0.009992599
229	0x3e0f3bab	0.13987605
230	0x3d914a19	0.07094211
231	0xbcd6f78e	-0.02624109
232	0x3dd710ba	0.10501237
233	0x3d285384	0.04109527
234	0x3d33bc51	0.043880764
235	0x3d896871	0.06709374
236	0xbb07d11e	-0.0020724009
237	0xbd9b0bc2	-0.07570602
238	0x3dba248d	0.09089003
239	0xbd2c277e	-0.04202985
240	0xbdf1d96f	-0.1180905
241	0x3d5cd316	0.053912245
242	0x3d874a0a	0.06605919
243	0x3d763179	0.060105775
244	0x3d5f213a	0.054475047
245	0x3c8c4231	0.017121406
246	0xbbbca8cc	-0.005757427
247	0x3df0fcc5	0.11766962
248	0x3bb776aa	0.0055988627
249	0x3d03cd9b	0.032178503
250	0x3c56de23	0.013114485
251	0x3dbd498f	0.09242546
252	0x3b18e35a	0.0023328871
253	0xbd08b966	-0.033379935
254	0xbd3546d4	-0.044257
255	0x3d614f6a	0.055007376

mlp2.0.bias f4 [100]
0	0xbcb4818a	-0.022034425
1	0xbd758d86	-0.05994942
2	0x3c7441a1	0.014908225
3	0x3da114c0	0.07865286
4	0xbbbcfdf0	-0.0057675764
5	0x3dfb406a	0.122681454
6	0x3da56292	0.080754414
7	0x3d9a11bf	0.07522916
8	0x3b652f60	0.0034970865
9	0x3df5ac77	0.11995786
10	0xbd1bcef8	-0.038039178
11	0xbbecf4a1	-0.0072313105
12	0xbd3d8960	-0.04627359
13	0xbc37607d	-0.011192438
14	0x3d816f66	0.06320076
15	0xbd15057a	-0.036382176
16	0xbc853b9f	-0.016263781
17	0xbd013ad9	-0.031550262
18	0x3ddfd94e	0.109301195
19	0x3dd84d49	0.10561616
20	0xbdceac02	-0.10091402
21	0xbd53e2c4	-0.051729932
22	0xbd6bc254	-0.057558373
23	0xbd3a0660	-0.045416236
24	0x3d6bd5da	0.05757699
25	0x3de1ad1f	0.11019348
26	0x3ce40d43	0.027838355
27	0x3d1ac2e3	0.037783515
28	0x3d497372	0.049182363
29	0xbd66900a	-0.05628971
30	0xbd19f745	-0.03758933
31	0x3d88b667	0.066754155
32	0x3d9a8dea	0.07546599
33	0x3daa84e0	0.08326125
34	0xbc3fc7bc	-0.011705335
35	0x3e04d8b3	0.12973289
36	0x3d04c0de	0.032410495
37	0x3e084b41	0.13309957
38	0x3b97154d	0.0046106935
39	0x3d769c85	0.060207862
40	0xbcf5914f	-0.029976515
41	0xbdd05142	-0.10171749
42	0x3dc5e1f9	0.096622415
43	0xbd105437	-0.035236564
44	0xbd7ce07f	-0.061737534
45	0x3bc38dfc	0.0059678536
46	0x3cb58030	0.022155851
47	0x3d5a921f	0.05336201
48	0x3d07acf2	0.033123918
49	0x3dd6b699	0.104840465
50	0x3d1f4c3a	0.038891055
51	0xbcc3db32	-0.023908231
52	0x3d28a6d9	0.041174743
53	0xbdc918f8	-0.098192155
54	0xbb90889d	-0.004410817
55	0xbdade1e9	-0.084903546
56	0xbc803fbb	-0.015655389
57	0x3c81bb94	0.015836515
58	0xbd16c722	-0.036811
59	0xbd8886f4	-0.06666365
60	0x3cca228b	0.024674674
61	0x3cfc10d7	0.030769749
62	0xbdb4338b	-0.087988935
63	0xbd0480bd	-0.032349337
64	0x3d4fbbe3	0.050716292
65	0x3c27fdae	0.010253353
66	0x3d826bf8	0.0636825
67	0xbd401abb	-0.046900492
68	0x3d503069	0.050827418
69	0x3c871981	0.016491653
70	0x3d86de8c	0.06585416
71	0xbdc2bdcd	-0.09508858
72	0x3d5c1e43	0.053739797
73	0xbd10b5b4	-0.035329536
74	0x3bb053e9	0.0053810966
75	0x3da12c3e	0.07869767
76	0x3c502bd2	0.01270576
77	0x3e08999a	0.13339844
78	0x3d49064e	0.04907828
79	0xbd00eb37	-0.03147432
80	0x3dd00952	0.10158028
81	0xbcf37a9c	-0.02972155
82	0x3cbe65c9	0.023241894
83	0x3ce7314b	0.028221747
84	0x3a9e5bb5	0.0012081774
85	0xbdda7eb6	-0.106686994
86	0xbb87e946	-0.0041476814
87	0xbd057ac4	-0.03258778
88	0xbcb938ef	-0.022610156
89	0xbd68ff88	-0.05688432
90	0xbdafb449	-0.085793085
91	0x3d1b8317	0.037966814
92	0x3d9a9246	0.07547431
93	0xbdbedfc4	-0.09320024
94	0x3c60d4c2	0.0137226
95	0x3dbb6325	0.0914977
96	0x3c818d57	0.015814466
97	0x3d935f09	0.07195861
98	0x3ce8765d	0.028376753
99	0xbbd589e5	-0.0065166824

mlp2.2.weight f4 [50, 100]
0	0x3daa71ed	0.08322511
1	0xbd9aa8fd	-0.07551763
2	0x3dedcacc	0.11610946
3	0x3de5e2fa	0.11224933
4	0x3d3647aa	0.044501938
5	0xbdea21c8	-0.114322245
6	0x3c9825cf	0.018572716
7	0x3cbd91f5	0.023140887
8	0xbda8fbcb	-0.08251151
9	0xbdeabf80	-0.11462307
10	0xbdbd2fe0	-0.09237647
11	0x3d41dc9f	0.04732954
12	0xbbc1a000	-0.005908966
13	0xbdc4507f	-0.09585666
14	0x3b597acf	0.0033184772
15	0xbd3b88c9	-0.045784745
16	0x3e0cbc40	0.13743687
17	0xbd3ac997	-0.045602407
18	0x3d3a3dc7	0.04546907
19	0xbdebf234	-0.11520806
20	0xba289934	-0.00064315205
21	0x3cedc55c	0.029024772
22	0xbd89498e	-0.067034826
23	0xbca386ff	-0.019961832
24	0x3d43fbea	0.047847666
25	0x3db4a5f9	0.08820719
26	0x3d03e822	0.0322038
27	0x3d605637	0.05476972
28	0x3d06cbca	0.032909192
29	0x3d5d92de	0.05409514
30	0x3c968a8e	0.018376615
31	0xbd3ec5e0	-0.046575427
32	0x3ccdd628	0.025126532
33	0x3dbd234d	0.09235249
34	0xbd4da5b1	-0.050206844
35	0x3dc281a5	0.09497384
36	0xbd8df98e	-0.069323644
37	0x3de5d3d8	0.112220466
38	0x3d417e25	0.04723944
39	0x3d4a7033	0.049423408
40	0xbdcb888c	-0.099381536
41	0x3da4512b	0.08023294
42	0xbdc24c98	-0.09487265
43	0x3d4d9ef1	0.050200406
44	0xbc8ad4e6	-0.016947221
45	0xbd96cd32	-0.07363357
46	0xbd880faa	-0.06643613
47	0xbc84572a	-0.016154844
48	0x3deb6abe	0.11494969
49	0x3c21e9f6	0.009882441
50	0x3b0f8626	0.0021900027
51	0x3da5035c	0.080572814
52	0x3d8d550b	0.06900986
53	0xbd372129	-0.04470936
54	0x3bf5dfb2	0.007503473
55	0x3bdb9674	0.006701285
56	0xbdc49426	-0.095985696
57	0x3ddc89dc	0.10768482
58	0x3da51fa3	0.08062675
59	0x3db7d48a	0.089760855
60	0xbd160922	-0.036629803
61	0xbd9383c5	-0.072028674
62	0xbd7386a6	-0.059454583
63	0x3d00a7a8	0.03140989
64	0xbaa5e847	-0.0012657725
65	0xbd72b095	-0.059250433
66	0xbda647c3	-0.08119156
67	0xbc1c0fa7	-0.009525216
68	0x3d4b0c08	0.04957202
69	0xbd829ed4	-0.0637795
70	0xbdf6f450	-0.12058318
71	0x3d952f5e	0.07284425
72	0xbdae85d1	-0.08521617
73	0x3d25c475	0.04047056
74	0xbcbb4834	-0.022861578
75	0x3d7e6080	0.06210375
76	0xbac2be3e	-0.0014857722
77	0xbc4a30cb	-0.012340735
78	0xbd026fca	-0.03184489
79	0xbd8fae7c	-0.07015702
80	0xbd589977	-0.05288073
81	0x3c826047	0.01591505
82	0xbc14f5d1	-0.00909181
83	0xbdc797aa	-0.097457245
84	0xbc977bb5	-0.018491605
85	0x3c8c3a4d	0.017117644
86	0xbd841e77	-0.06451123
87	0x3d7b3c57	0.06133684
88	0xbd176e0b	-0.03697018
89	0x3ddb4e65	0.10708312
90	0x3d9b869b	0.07594033
91	0x3bc1d276	0.0059149815
92	0xbd814930	-0.063127875
93	0x3cb36995	0.021900931
94	0xbd411fa2	-0.047149308
95	0xbd3b73df	-0.0457648
96	0xbc8a5357	-0.016885443
97	0x3db37487	0.0876246
98	0xbb5cdcc3	-0.003370092
99	0xbd3ba2b0	-0.045809448
100	0xbd4c50d6	-0.04988178
101	0xbd323e69	-0.04351655
102	0x3da02f7c	0.07821557
103	0xbda5c667	-0.08094483
104	0xbdbbafbe	-0.091643795
105	0xbcbf2b16	-0.023335975
106	0x3cc115b4	0.02356992
107	0x3cfbfbe8	0.030759767
108	0xbd9c83fd	-0.07642362
109	0xbd06192f	-0.03273886
110	0x3c94e0b5	0.018173555
111	0x3b0d20ec	0.0021534516
112	0xbd54ee15	-0.051984865
113	0xbd42d763	-0.04756869
114	0xbd7ae033	-0.06124897
115	0x3e02edc7	0.12786017
116	0x3d59d8ea	0.05318538
117	0xbd4f8d35	-0.050671775
118	0x3dc7393c	0.097277135
119	0xbc80ab5d	-0.015706712
120	0x3d916164	0.07098654
121	0xbbeca774	-0.0072221104
122	0x3cfa0b96	0.030523103
123	0x3d83ab62	0.06429173
124	0x3d866a80	0.06563282
125	0xbdcfe6d8	-0.10151452
126	0x3d1cf6f1	0.03832144
127	0xbca99354	-0.020700134
128	0x3d47e749	0.048804555
129	0x3d204178	0.039124936
130	0x3d8d569f	0.06901287
131	0xbdc23b93	-0.09484019
132	0x3cf1c522	0.029512946
133	0xbd65ca6b	-0.056101244
134	0x3d27ff90	0.041015208
135	0xbd394ded	-0.04524033
136	0x3dae9c05	0.08525852
137	0x3dbf854f	0.093515985
138	0xbdb4c6bc	-0.08826968
139	0xbda63c26	-0.08116941
140	0x3d8e8888	0.06959635
141	0xbdadb67b	-0.08482071
142	0xbd8c9f62	-0.06866337
143	0xbdc3c568	-0.09559137
144	0xbda8e128	-0.0824607
145	0x3d6f73ea	0.058460154
146	0x3c52a893	0.012857574
147	0x3d185049	0.03718594
148	0xbd787840	-0.060661554
149	0x3e0df9cf	0.13864826
150	0x3c9721d2	0.018448744
151	0xbdb7ff16	-0.08984201
152	0xbd30e389	-0.043185744
153	0xbd138968	-0.036019713
154	0xbadf173c	-0.0017020474
155	0x3dcca824	0.09993008
156	0x3db21dbb	0.08697077
157	0x3d864741	0.06556559
158	0x3d506a7a	0.050882794
159	0x3d5826f3	0.05277152
160	0xbd4d8090	-0.050171435
161	0x3d855167	0.06509667
162	0xbc3a6394	-0.01137628
163	0x3d06bf07	0.03289702
164	0xbd467c55	-0.048458416
165	0x3ccc73ca	0.024957556
166	0xbd6bbc84	-0.05755283
167	0xbc248b0b	-0.010042916
168	0xbd05be5e	-0.03265225
169	0xbd2e2505	-0.042515773
170	0xbd091471	-0.03346676
171	0x3db8cdbb	0.09023615
172	0xbd857da1	-0.065181024
173	0x3c5b4920	0.013384134
174	0xbc2c7de4	-0.010528062
175	0x3d170f85	0.036880035
176	0x3d717a73	0.058954667
177	0xbcb67cec	-0.022276364
178	0x3cb2b9bc	0.02181708
179	0x3cdabe50	0.026702076
180	0xbd4f4e8f	-0.05061203
181	0x3d2928d0	0.041298687
182	0xbd494dcd	-0.049146462
183	0x3cccc1a9	0.024994688
184	0xbdb490e5	-0.08816699
185	0x3cf54b13	0.029943025
186	0x3d10b2d0	0.03532678
187	0x3d464f18	0.048415273
188	0xbba78c8d	-0.0051131905
189	0xbd92dbe9	-0.07170851
190	0xbce0f057	-0.027458353
191	0x3d14bc50	0.0363124
192	0xbc200f52	-0.009769278
193	0xbd614455	-0.054996807
194	0x3c9f7a54	0.01946751
195	0xbd2e149b	-0.04250012
196	0xbcf1bfdd	-0.029510433
197	0xbbb572bf	-0.0055373604
198	0xbbdf1f6a	-0.006809165
199	0x3c1d5b54	0.009604294
200	0x3cdf815c	0.027283363
201	0xbc62150b	-0.013798962
202	0xbd6dd705	-0.058066387
203	0x3dd5e077	0.10443204
204	0xbdc062e1	-0.0939386
205	0x3da6fa11	0.08153165
206	0xbdb5993f	-0.0886712
207	0x3cec85da	0.02887242
208	0xbb92e510	-0.004482873
209	0xbd370293	-0.04468019
210	0x3dac1574	0.08402529
211	0x3d96b9b2	0.07359637
212	0xbb8a9ae9	-0.0042298925
213	0xbd38d3d7	-0.0451239
214	0x3df9500c	0.12173471
215	0xbd6ac5c1	-0.0573175
216	0x3dba225a	0.09088583
217	0xbd824c9c	-0.06362268
218	0xbd7a6237	-0.06112882
219	0x3dc18c99	0.09450645
220	0xbdc4b20c	-0.09604272
221	0xbde58567	-0.11207085
222	0xbd9c9019	-0.07644672
223	0xbc277c67	-0.010222531
224	0xbcfb65d9	-0.030688213
225	0xbe1519dd	-0.14560647
226	0xbdb8bcb5	-0.09020368
227	0xbda45162	-0.08023335
228	0x3d7bc28c	0.06146483
229	0xbd56d2cb	-0.05244712
230	0x3d7939b9	0.060846064
231	0x3d835b81	0.06413937
232	0xbd441b65	-0.047877688
233	0xbd438074	-0.047729924
234	0xbb5c4d71	-0.0033615495
235	0xbd1fd13a	-0.039017893
236	0xbccfb80f	-0.02535632
237	0xbba0d148	-0.004907761
238	0x3dfd2ca2	0.12362029
239	0x3ce20bf6	0.027593594
240	0x3de0b5c1	0.10972167
241	0x3d7bf809	0.06151584
242	0xbc24fdf5	-0.010070314
243	0x3d82329c	0.06357309
244	0xbe47e723	-0.19521765
245	0x3c81645d	0.015794927
246	0xbd97c445	-0.07410482
247	0x3e091c0d	0.13389607
248	0x3d4b9cf4	0.04971023
249	0x3e23cad8	0.15995347
250	0x3d570312	0.052493162
251	0xbc9ea738	-0.019366845
252	0x3d3c214e	0.0459302
253	0x3d8c0bd2	0.06838192
254	0x3d12e057	0.03585848
255	0xbd0d59b0	-0.03450936

mlp2.2.bias f4 [50]
0	0x3d84d3c5	0.06485704
1	0xbd4202ab	-0.047365826
2	0x3db59d89	0.08867938
3	0x3dcb6a85	0.09932426
4	0x3dc4b05e	0.09603952
5	0xbcd56a80	-0.02605176
6	0x3be02368	0.0068401583
7	0xbbbc9f91	-0.0057563265
8	0x3dbe0ad2	0.092794076
9	0x3dcfd1e7	0.101474576
10	0xbd4313eb	-0.047626417
11	0xbd8f62f6	-0.07001297
12	0xbbbcb302	-0.005758644
13	0x3d3ecb66	0.046580695
14	0x3ddac2d8	0.10681695
15	0x3d4d68f9	0.050148938
16	0x3c925035	0.017860511
17	0x3d8597c1	0.065230854
18	0xbcad9a43	-0.021191722
19	0x3d1d891d	0.03846084
20	0x3d29c4d0	0.04144746
21	0x3cfea5dc	0.031084947
22	0x3c2b0b9c	0.01043978
23	0xbd7ee406	-0.06222918
24	0x3d88caad	0.06679282
25	0xbb94396c	-0.004523447
26	0xbddfedb5	-0.10934011
27	0xbd8ad1b2	-0.067782775
28	0x3d55b65a	0.052175857
29	0xbb38c55f	-0.0028193814
30	0x3dcba32d	0.09943233
31	0x3d953fd1	0.07287563
32	0xbd37149f	-0.0446974
33	0xbcd69e0b	-0.026198408
34	0x3dafa0ce	0.08575593
35	0xbd556052	-0.05209381
36	0x3d81e7fb	0.06343075
37	0xbd817ac9	-0.063222475
38	0xbc8657a4	-0.016399212
39	0x3d54aab0	0.051920593
40	0x3d936d59	0.07198591
41	0xbc0d0fc0	-0.008609712
42	0x3d590ae1	0.05298889
43	0xbdc2637d	-0.09491632
44	0xbd99fdbd	-0.075191
45	0x3d9fe0cb	0.07806548
46	0x3d974acb	0.073873125
47	0xbdbcfb41	-0.092276104
48	0x3d4bbbdf	0.049739715
49	0x3d82afee	0.06381212

attention.0.weight f4 [100, 200]
0	0x3d3d4cba	0.04621575
1	0x3cdfb7c0	0.027309299
2	0xbc9d705b	-0.019218614
3	0x3ce593db	0.028024605
4	0xbb171fb9	-0.002305968
5	0x3d3ee26e	0.04660266
6	0x3d79cfe3	0.06098927
7	0x3cbb8bf2	0.02289388
8	0x3d46d03f	0.048538443
9	0xbd083ca2	-0.03326095
10	0xbb976ea3	-0.004621343
11	0xbb0d69ac	-0.0021577878
12	0xbc7c3537	-0.015393547
13	0x3d81eeb7	0.06344359
14	0xbca53fde	-0.020172056
15	0xbd02e1d7	-0.03195366
16	0x3d6cdcd5	0.05782779
17	0x3d7cfb27	0.061762955
18	0xbcad4cf2	-0.021154854
19	0xbd217b44	-0.039424196
20	0xbd467725	-0.04845347
21	0x3d85823e	0.06518982
22	0xbd2b785d	-0.041862834
23	0xbd8431f2	-0.06454839
24	0x3c7cd8ef	0.01543258
25	0xbcc97a18	-0.024594352
26	0xbc2d2560	-0.010567993
27	0xbd553801	-0.052055363
28	0xba593f14	-0.00082872924
29	0xbd718d45	-0.058972616
30	0x3cb86fec	0.022514306
31	0xbd6d2d34	-0.057904437
32	0x3d2a13a0	0.041522622
33	0xbd4309ec	-0.047616884
34	0x3cffdf93	0.031234538
35	0x3d3d1e0f	0.046171244
36	0xbd397e1d	-0.045286287
37	0x3c2f1aae	0.010687513
38	0x3cd69b9e	0.026197251
39	0xbc839bc2	-0.016065482
40	0x3d641522	0.055684216
41	0xbd863648	-0.06553322
42	0x3d42c09e	0.047546975
43	0x3d82cff7	0.063873224
44	0xbd5b0f01	-0.053481106
45	0xbcd1f045	-0.025627265
46	0x3c76f189	0.015072235
47	0xbd31f047	-0.043442037
48	0xbd6fd92b	-0.058556717
49	0xbc924fed	-0.017860377
50	0x3c70d0d1	0.014698223
51	0x3d8ad1f4	0.06778327
52	0xbd8966ce	-0.067090616
53	0x3c869045	0.016426215
54	0x3c8b7bf1	0.017026873
55	0xbc53509f	-0.01289764
56	0xbd89aa33	-0.06721916
57	0x3d53189a	0.051537134
58	0x3c960d45	0.018316874
59	0x3d227a49	0.0396674
60	0x3d36f291	0.044664923
61	0x3d8afaec	0.06786141
62	0x3c40dc3a	0.011771256
63	0xbcb454f4	-0.022013165
64	0xbd31da81	-0.043421272
65	0xbd702d64	-0.058637038
66	0x3cc16a13	0.02361015
67	0x3d8c5cbd	0.06853626
68	0xbd3f0897	-0.04663905
69	0xbb04f9b0	-0.0020290427
70	0xbd47b7bf	-0.04875922
71	0x3d4731a9	0.048631344
72	0x3d192c44	0.03739573
73	0xbd0b55d4	-0.0340174
74	0xbbad3c78	-0.0052867495
75	0xbd22cb7f	-0.03974485
76	0xbb419b3d	-0.0029541992
77	0xbccbfda0	-0.024901211
78	0x3d639119	0.055558298
79	0xbc91eff8	-0.017814621
80	0x3b388b8d	0.002815935
81	0x3ce14cda	0.027502466
82	0x3ca5968d	0.02021339
83	0xbc8c1db5	-0.01710401
84	0x3c4f5383	0.012654188
85	0x3d3c566b	0.045980852
86	0x3d648ff7	0.055801358
87	0xbd4a1cdb	-0.049343925
88	0xbd4df284	-0.05028011
89	0xbd85e24d	-0.06537304
90	0xbb521c80	-0.0032060444
91	0xbd35bb20	-0.04436791
92	0x3d0e6a19	0.03476915
93	0xbd68fef6	-0.056883775
94	0xbd4e98da	-0.05043874
95	0xbd776edd	-0.06040846
96	0x3d1b1209	0.037858997
97	0xbbf40324	-0.0074466635
98	0x3d0c0066	0.034180067
99	0x3cbd177a	0.023082484
100	0xb925f387	-0.00015826347
101	0xbd8d5764	-0.06901434
102	0xbd0378e1	-0.0320977
103	0x3d368bbc	0.044566855
104	0xbcac2932	-0.021015737
105	0x3d5367f6	0.051612817
106	0xbcd49af7	-0.0259528
107	0x3c2cd557	0.010548911
108	0x3d06b903	0.032891285
109	0x3d4e79b1	0.050409023
110	0x3bc90ac2	0.0061353156
111	0xbd4b107d	-0.04957627
112	0xbd07f2ed	-0.033190656
113	0xbd62bc0c	-0.055355117
114	0xbca0cee1	-0.019629898
115	0x3b7207f8	0.003693102
116	0x3d67b58f	0.056569632
117	0x3d261e2a	0.04055611
118	0xbd833c68	-0.06408006
119	0xbc1b5ab4	-0.0094820745
120	0xbc8a87db	-0.016910484
121	0xbd4d4578	-0.05011508
122	0xbd7728e2	-0.060341723
123	0x3d856c8e	0.06514846
124	0xbd4e98c0	-0.050438643
125	0x3d89faa0	0.06737256
126	0xbd0d3b55	-0.03448041
127	0xbd5aad19	-0.053387735
128	0xbd72e695	-0.05930193
129	0x3d4fa3a1	0.050693158
130	0xbd43f46e	-0.04784053
131	0x3d8031ff	0.06259536
132	0xbcf29fb0	-0.02961716
133	0x3d261628	0.040548474
134	0x3c3545a4	0.011063967
135	0xbd91473b	-0.07093664
136	0xbd053597	-0.03252181
137	0x3cf8d8d3	0.030376827
138	0xbd040b52	-0.03223736
139	0xbd7c3465	-0.061573405
140	0x3b9b1e58	0.004733842
141	0xbd20be35	-0.039243896
142	0xbccf2175	-0.025284508
143	0x3d12019b	0.035646062
144	0xbd6af569	-0.057362948
145	0xbcd03b81	-0.025418999
146	0x3d1c0413	0.038089823
147	0x3d406ebe	0.046980612
148	0xbc885b49	-0.01664509
149	0x3d38c0a9	0.04510561
150	0xbcc1696c	-0.02360984
151	0xbbf82b1d	-0.007573499
152	0x3d8be218	0.06830233
153	0x3d1c8951	0.038216893
154	0x3c38769e	0.011258749
155	0x3d5840dc	0.05279623
156	0x3d0f3e2b	0.034971397
157	0x3d2ff3da	0.042957164
158	0xbd86b917	-0.06578272
159	0xbd6f5156	-0.058427177
160	0x3d710e80	0.05885172
161	0xbd72b727	-0.0592567
162	0x3d2fde54	0.042936638
163	0xbd6f77e3	-0.058463942
164	0x3be37745	0.0069417083
165	0xbd115558	-0.03548178
166	0xbcd4feda	-0.026000429
167	0xbd2048ad	-0.03913181
168	0xbca164c1	-0.019701364
169	0xbd0f59fd	-0.03499793
170	0xbd8f9081	-0.07009984
171	0x3d446c80	0.047955036
172	0xbd7e622b	-0.06210534
173	0xbd0e41eb	-0.034730833
174	0x3b70ce2d	0.0036743984
175	0x3d3dc6a6	0.046332024
176	0x3c1cc601	0.009568692
177	0x3d6811f7	0.056657758
178	0x3d3721e3	0.04471005
179	0xbd8f2304	-0.069891006
180	0x3b82169e	0.0039699813
181	0x3d75d0b4	0.060013488
182	0x3ca93529	0.020655232
183	0x3d4a9fc1	0.04946876
184	0x3b284de3	0.002568119
185	0xbd295918	-0.041344732
186	0x3d8c6ddf	0.06856894
187	0xbd691e5b	-0.056913715
188	0xbd6c9024	-0.05775465
189	0xbd80feba	-0.06298585
190	0xbd66f0e5	-0.05638208
191	0x3ce7a12c	0.028275095
192	0xbd8d1be2	-0.06890084
193	0xbd63190a	-0.0554438
194	0xbd6599bf	-0.056054827
195	0xbb9344af	-0.0044942717
196	0xbb761679	-0.0037550016
197	0x3d32c8e5	0.04364862
198	0x3ca3af6a	0.019981105
199	0xbcc70b64	-0.024297424
200	0x3cbcc297	0.023042006
201	0xbd8294c3	-0.0637603
202	0xbd3c33ea	-0.045947947
203	0x3d2fe479	0.042942498
204	0xbd51771e	-0.05113899
205	0x3ceba6a2	0.02876598
206	0xbcf934cb	-0.030420681
207	0xbd45b0ef	-0.04826444
208	0x3d85f31a	0.065405086
209	0x3d255bcd	0.04037075
210	0xbd726c4d	-0.059185315
211	0xbd522192	-0.051301546
212	0x3c946ff7	0.018119795
213	0x3b79521f	0.0038043333
214	0xbd16de82	-0.036833294
215	0x3cf72d80	0.030173063
216	0x3d4df5ef	0.05028337
217	0x3b8592cf	0.004076339
218	0x3cb6282e	0.022235956
219	0xbd6250fa	-0.055253007
220	0xbd084aec	-0.033274576
221	0x3c5bd9c6	0.01341862
222	0xbcd92fd8	-0.026512071
223	0xbd237ae4	-0.03991212
224	0x3d646864	0.055763617
225	0xbd4e80a5	-0.050415654
226	0xbd7527d9	-0.059852455
227	0x3d830b97	0.06398695
228	0xbcb4c900	-0.0220685
229	0xbd817f68	-0.06323129
230	0x3cba466d	0.02273866
231	0x3d830fd5	0.06399504
232	0xbcbbf1b4	-0.022942401
233	0x3cfcf867	0.030880166
234	0x3d693358	0.05693373
235	0x3cb4c49f	0.022066412
236	0xbd5b1136	-0.05348321
237	0x3d7fced2	0.0624531
238	0x3ca789de	0.020451482
239	0x3cecdf2b	0.028915009
240	0x3c3e8e71	0.01163064
241	0x3cfcbb2c	0.03085097
242	0xbd662e2b	-0.056196373
243	0x3cea8385	0.028627167
244	0x3b990cfa	0.0046707364
245	0xbd6abc96	-0.057308756
246	0xbd1dd783	-0.038535606
247	0x3cc2384a	0.023708481
248	0xbd7ec855	-0.06220277
249	0xbcef800b	-0.02923586
250	0x3d8b22ec	0.0679377
251	0x3d42dc6e	0.0475735
252	0xbd1d0ec8	-0.038344175
253	0x3d020ee3	0.03175248
254	0xbcd66040	-0.026168942
255	0xbd3bc2b3	-0.045839977

attention.0.bias f4 [100]
0	0xbd5b8c19	-0.053600404
1	0xbd754da5	-0.0598885
2	0x3c982a0d	0.018574739
3	0x3d48221b	0.04886065
4	0x3d400214	0.04687698
5	0x3d1896d4	0.037253216
6	0x3d43bdf8	0.04778859
7	0x3d4f2940	0.05057645
8	0x3d39f18e	0.04539638
9	0xbd4f2511	-0.05057246
10	0x3cd70f4d	0.026252413
11	0xbd2802f9	-0.04101846
12	0x3d84b277	0.06479352
13	0x3d6ddebe	0.05807375
14	0x3c8e83fb	0.017396918
15	0xbbb4c58b	-0.005516713
16	0xbd0c0253	-0.034181904
17	0x3c922a92	0.017842565
18	0xbc9d3a93	-0.01919297
19	0x3d06a1b4	0.032869056
20	0xbd085e2a	-0.033292927
21	0xbab60b19	-0.0013888805
22	0xbd2dcd20	-0.04243195
23	0x3d467e95	0.04846056
24	0xbc857205	-0.01628972
25	0x3d1f924d	0.038957883
26	0xbd6392b8	-0.055559844
27	0xbcee0634	-0.029055692
28	0xbcd859df	-0.026410041
29	0x3c97e709	0.018542783
30	0xbd5dee34	-0.054182246
31	0x3b85c35a	0.0040821256
32	0xbcf2987b	-0.029613724
33	0xbcbe08cb	-0.023197552
34	0x3d3603a2	0.04443706
35	0xbc788a95	-0.015169759
36	0x3d78ea45	0.06077029
37	0x3b95f9fa	0.0045769187
38	0x3ce7dcd0	0.028303534
39	0xbd14fe6b	-0.036375444
40	0xbd2af7d6	-0.04174026
41	0x3d149e30	0.03628367
42	0x3d7788f0	0.06043333
43	0xbcc31583	-0.023813969
44	0x3d3a8bec	0.045543596
45	0x3c8ed07f	0.017433403
46	0xbd421649	-0.047384534
47	0x3d793f70	0.060851514
48	0xbc94e76c	-0.018176757
49	0xbd8332bb	-0.064061604
50	0x3d07adbf	0.03312468
51	0x3d849c89	0.06475169
52	0x3d4d7abe	0.050165884
53	0xbd04fb4f	-0.03246623
54	0x3b9658d8	0.0045882277
55	0x3af1bddf	0.0018443427
56	0x3d1da784	0.038489833
57	0xbb5fbaed	-0.0034138516
58	0xbcd4187d	-0.025890583
59	0xbb264267	-0.0025369169
60	0x3d7c1588	0.06154397
61	0x3cf9af7c	0.030479185
62	0xbd80ac49	-0.06282861
63	0xbbccda8e	-0.0062516397
64	0x39c121ea	0.00036837097
65	0xbc2c5bd5	-0.010519941
66	0xbd4123ee	-0.047153406
67	0x3cfe71d0	0.03106013
68	0xbd84170e	-0.0644971
69	0x3d649844	0.055809274
70	0x3d86e6c2	0.06586982
71	0x3d2a24ba	0.04153893
72	0x3d8dcbf8	0.069236696
73	0x3c6c55f1	0.014424787
74	0x3d31944b	0.043354314
75	0xbd5b8b26	-0.0535995
76	0x3d36192a	0.044457592
77	0x3d33fabd	0.043940295
78	0x3d3ca591	0.046056334
79	0xbc8e0ce4	-0.017340131
80	0x3d881c90	0.06646073
81	0x3b0a220f	0.002107743
82	0xbcab1774	-0.020885207
83	0xbcd635c2	-0.02614868
84	0xbd42266c	-0.047399923
85	0xbc047a5e	-0.008085815
86	0x3d43db14	0.04781635
87	0xbd8ad9ee	-0.06779848
88	0x3c68749c	0.014187958
89	0x3ca96cea	0.020681817
90	0x3d6cb0c0	0.05778575
91	0x3d3e9ef2	0.0465383
92	0xbc30c1d0	-0.010788396
93	0xbcd4b10f	-0.025963334
94	0xbd1142ac	-0.035463974
95	0x3cffc4c9	0.031221764
96	0xbb7cec56	-0.0038593016
97	0x3d4d78cd	0.050164033
98	0x3ac2ca63	0.0014861341
99	0x3d52af19	0.051436517
