crowd_nav/data/output/rl_model.pth (torch, 392355 bytes, 20 tensors)

mlp1.0.weight f4 [150, 13]
-0.05988877 0.16289614 -0.22937638 0.23116039 0.31530726 0.19519088 -0.06373621 -0.09233581
-0.15919586 -0.3491521 -0.10861709 -0.016659934 0.17780262 0.17656313 0.16017063 -0.09179378
0.27363697 -0.27690417 0.11414392 -0.3681732 0.32329935 -0.34060335 0.13431168 0.09296768
0.14731023 -0.24237366 0.1761316 -0.24779657 0.0941741 0.207388 -0.116578065 0.05231063
-0.10555784 -0.059769996 0.10642275 -0.31881395 -0.24311203 0.3071311 0.13050763 0.04826274
-0.28879535 -0.09123145 -0.1085386 0.028286729 -0.07599154 0.1635366 0.4341983 0.32111666
0.2593158 -0.26069352 0.029556584 -0.21785708 0.10340625 -0.21648511 0.17438601 0.21139379
0.15847836 0.29165354 -0.25754768 0.09533318 0.2551309 -0.16655344 0.1259776 0.14053583
0.043371104 0.17500585 0.08928166 0.092105664 0.26226863 0.19346495 0.17891628 -0.2758516
0.10670056 -0.13306591 -0.17826027 -0.18897338 -0.037028678 -0.18621105 0.05279648 -0.019696327
0.22424729 -0.048919983 -0.19802602 -0.039245944 0.04943835 -0.052848328 -0.13693883 0.09027338
0.12661593 -0.02457458 -0.15853544 0.01954429 0.18188652 0.09229541 -0.0957745 0.14961614
-0.16825257 0.19417626 -0.049165297 0.15540707 0.0028952272 -0.0147709 0.040325347 -0.23569992
0.085674174 0.1922664 0.09352673 0.25089473 -0.092313536 -0.058501467 0.17739053 0.06487505
0.0921071 -0.09479342 -0.10217253 0.047608837 -0.005169687 -0.0967923 -0.20738272 -0.12868951
-0.20574217 0.028967902 0.16489203 -0.09863357 0.19222985 -0.0074500972 0.06433532 -0.056517597
0.13726102 0.14612213 -0.26766095 -0.009512052 0.152563 0.15775724 0.07083874 -0.15246227
0.024907863 -0.18527156 0.021563565 -0.0627762 -0.16773447 0.07411525 -0.0133018885 0.1420891
0.22808073 0.11084385 0.21637008 0.0027943717 -0.18641907 0.27077734 -0.117445104 0.26556674
-0.27268225 0.04833542 -0.31594726 0.15850164 -0.13272119 0.25919238 0.103667095 -0.232723
0.17032227 -0.24899542 -0.132358 -0.18364345 -0.14760351 0.27614614 0.2427336 -0.19258498
-0.20164633 -0.25544706 -0.10913209 -0.08042534 0.22888693 0.15024865 -0.053385828 0.2555602
0.1283786 0.008405327 -0.0905329 -0.18531874 -0.22738431 -0.061818276 0.21047945 -0.033501264
-0.09068291 0.03704825 0.16887072 0.16594125 -0.250025 0.26023677 0.0325386 0.089459434
-0.115307614 -0.12528133 0.026777253 -0.29731834 0.14611872 0.058054645 0.054978237 -0.25764662
-0.21705742 0.23744918 -0.04470105 -0.23611191 0.12008163 0.17587705 0.21268816 -0.14663029
-0.13565457 -0.20097306 0.25452274 -0.1368811 -0.24143168 0.17392813 -0.055181574 0.12241629
0.09116519 0.27372962 0.05303317 -0.2735927 0.07933831 -0.12301698 0.24415722 0.029045952
-0.21406418 -0.06262642 0.18985091 -0.2702562 0.11322667 0.006359629 -0.07905721 0.037458986
0.14990966 -0.14252332 -0.110898785 -0.25240618 0.022609437 -0.24722189 -0.17480607 0.103989854
-0.21299231 -0.23928173 -0.20825604 -0.09823556 -0.16492759 0.28988442 -0.043205127 -0.23562835
0.03717117 -0.23514189 0.2103929 0.011723791 -0.15370265 -0.24335337 0.09100472 0.12799525
00000000: ed4d 75bd 3fce 263e a4e1 6abe 4fb5 6c3e
00000010: f46f a13e 1ee0 473e 2188 82bd 8f1a bdbd
00000020: 3d04 23be 10c4 b2be a372 debd 6a7a 88bc
00000030: e411 363e f7cc 343e c503 243e 61fe bbbd
00000040: 251a 8c3e 62c6 8dbe 4ac4 e93d 3381 bcbe
00000050: 7e87 a53e 9063 aebe 0089 093e d765 be3d
00000060: 7ed8 163e cd30 78be d85b 343e 62be 7dbe
00000070: 5ade c03d 855d 543e 7bc0 eebd ac43 563d
00000080: b52e d8bd 62d1 74bd 2cf4 d93d 953b a3be
00000090: 5cf2 78be 4a40 9d3e cba3 053e 27af 453d
000000a0: fcdc 93be 8ed7 babd 7c49 debd 92b9 e73c
000000b0: 74a1 9bbd 2376 273e 3d4f de3e 6769 a43e
000000c0: 0ac5 843e 9f79 85be a620 f23c ed15 5fbe
000000d0: a8c6 d33d 46ae 5dbe 3f92 323e 9d77 583e
000000e0: 2748 223e 9d53 953e 4add 83be 0b3e c33d
000000f0: 84a0 823e fc8c 2abe 4600 013e a0e8 0f3e
00000100: e6a5 313d bc34 333e 4ed9 b63d e5a1 bc3d
00000110: 1348 863e ad1b 463e d435 373e 6c3c 8dbe
00000120: d385 da3d 6e42 08be dc89 36be 3d82 41be
00000130: 62ab 17bd 1cae 3ebe 1f41 583d 315a a1bc
00000140: 15a1 653e 5260 48bd 55c7 4abe 5bc0 20bd
00000150: de7f 4a3d 7d77 58bd b139 0cbe 40e1 b83d
00000160: 9ba7 013e a150 c9bc 1d57 22be 591b a03c
00000170: 7640 3a3e 6005 bd3d 6c25 c4bd f934 193e
00000180: 674a 2cbe 24d6 463e 8d61 49bd 0823 1f3e
00000190: dabd 3d3b a501 72bc 312c 253d 525b 71be
000001a0: f175 af3d 7ce1 443e f18a bf3d 4675 803e
000001b0: e10e bdbd 3c9f 6fbd dda5 353e 36dd 843d
000001c0: a6a2 bc3d 0d23 c2bd d53f d1bd 7c01 433d
000001d0: 7a66 a9bb 0b3b c6bd 235c 54be 2fc7 03be
000001e0: 13ae 52be 184e ed3c 75d9 283e 6600 cabd
000001f0: e7d7 443e f21f f4bb 3cc2 833d ff7e 67bd
00000200: 278e 0c3e 0aa1 153e db0a 89be 70d8 1bbc
00000210: 7a39 1c3e 1d8b 213e e713 913d 121f 1cbe
00000220: 930b cc3c d4b7 3dbe 13a6 b03c cf90 80bd
00000230: 96c2 2bbe bcc9 973d 2af0 59bc ce7f 113e
00000240: ff8d 693e 1a02 e33d 1e90 5d3e c721 373b
00000250: a4e4 3ebe 54a3 8a3e 0f87 f0bd 5df8 873e
00000260: 029d 8bbe 5dfb 453d d7c3 a1be 414e 223e
00000270: 10e8 07be ddb4 843e 6a4f d43d f04e 6ebe
00000280: f668 2e3e a8f8 7ebe db88 07be 070d 3cbe
00000290: 6025 17be 0763 8d3e 288f 783e ff34 45be
000002a0: 607c 4ebe f5c9 82be a580 dfbd 0ab6 a4bd
000002b0: 5661 6a3e c8da 193e 19ab 5abd c9d8 823e
000002c0: ae75 033e 7fb6 093c 5069 b9bd 32c4 3dbe
000002d0: 6fd7 68be 2935 7dbd ed87 573e 9f38 09bd
000002e0: f6b7 b9bd e8bf 173d 72ec 2c3e 81ec 293e
000002f0: 4703 80be c13d 853e 3247 053d 8236 b73d
00000300: 6626 ecbd c049 00be f85b db3c 1c3a 98be
00000310: 25a0 153e b5ca 6d3d dc30 613d 42ea 83be
00000320: 4d44 5ebe e125 733e 7318 37bd 52c7 71be
00000330: 5ced f53d 1d19 343e edca 593e 4026 16be
00000340: 08e9 0abe e2cb 4dbe ce50 823e 8f2a 0cbe
00000350: de39 77be 371a 323e 1306 62bd 64b5 fa3d
00000360: d1b4 ba3d 4a26 8c3e 4f39 593d 5814 8cbe
00000370: 207c a23d 54f0 fbbd 5a04 7a3e c7f1 ed3c
00000380: a433 5bbe 4842 80bd 4768 423e 055f 8abe
00000390: 62e3 e73d 6f64 d03b bfe8 a1bd 986e 193d
000003a0: eb81 193e a2f1 11be e71e e3bd 623b 81be
000003b0: 6d37 b93c bc27 7dbe 5d00 33be a2f8 d43d
000003c0: a81a 5abe 4506 75be 1241 55be ba2f c9bd
000003d0: c7e2 28be bb6b 943e dcf7 30bd 8f48 71be
000003e0: cc40 183d 09c9 70be 3d71 573e 2515 403c
000003f0: 3a64 1dbe a031 79be af60 ba3d 3011 033e

mlp1.0.bias f4 [150]
0.21962735 0.26721752 -0.2427387 0.20965756 0.1812911 -0.15531033 0.08586579 0.2073195
0.14462306 0.07775931 0.122076064 -0.17606102 -0.10407211 0.06953052 -0.085878685 -0.24136406
0.08526299 -0.055316582 0.23277058 0.023906998 0.17219634 -0.013375561 -0.020756405 0.12536637
0.001238213 -0.25951907 -0.23533034 -0.059860166 0.080551445 -0.23353702 -0.25859156 0.0722247
0.17572081 -0.02919814 -0.07084107 -0.053713914 0.023328148 -0.23104334 0.1386055 0.22184733
0.05513054 -0.17499164 0.2405716 -0.10356605 -0.1389021 0.25080776 0.01937544 0.027067214
-0.07300627 -0.23531656 0.06125283 0.20318906 -0.07228569 0.14269823 0.089038745 0.04376177
0.12641005 -0.25956154 0.25360113 -0.038457308 0.21304531 0.25880736 0.30084258 0.20496438
0.035064362 -0.2051285 0.07394427 0.20850666 -0.116490096 0.16680612 0.017698431 0.06845387
-0.010422134 -0.017140867 -0.24506989 -0.050199922 0.10226101 0.20935796 -0.0018772306 0.18744212
0.18626663 -0.045658667 0.055167753 0.025992164 0.25558972 -0.2370145 -0.034178965 -0.1472363
0.08249735 -0.008717407 0.10274973 0.29588452 0.16087374 0.1271998 0.2458715 0.10043199
-0.09813032 0.10958794 -0.079131655 0.1298036 0.21753077 -0.088842966 0.025640469 -0.20395063
-0.18715426 -0.07071416 0.117603466 0.101635285 0.0060345707 -0.046472657 0.11331827 0.06227403
-0.15085663 0.09499095 -0.20886475 0.26145133 -0.22981457 -0.118675366 -0.13159156 0.30243275
-0.23824021 0.16375487 0.074407436 0.02818506 -0.024918275 -0.1820688 0.16576537 0.3045148
-0.0996657 0.18479098 0.12301516 0.13026354 -0.030391293 0.10649823 0.033341583 -0.18112327
-0.13361794 -0.3008012 0.29367045 -0.24593943 0.2685459 -0.104159266 0.119672 -0.033701546
-0.2371107 -0.28755954 0.06361631 0.01035498 0.042552017 0.14914165
00000000: fee5 603e bcd0 883e 7e90 78be 79b0 563e
00000010: 60a4 393e ac09 1fbe 67da af3d 904b 543e
00000020: 1118 143e 4640 9f3d 0403 fa3d 5749 34be
00000030: c223 d5bd 0466 8e3d 2ae1 afbd 2428 77be
00000040: 5d9e ae3d a493 62bd 695b 6e3e 9cd8 c33c
00000050: 3d54 303e 2b25 5bbc 5609 aabc 0b60 003e
00000060: 894b a23a afdf 84be 70fa 70be ef2f 75bd
00000070: 28f8 a43d 5424 6fbe 1d66 84be 8bea 933d
00000080: 28f0 333e f030 efbc 1f15 91bd 1f03 5cbd
00000090: ac1a bf3c a096 6cbe 9aee 0d3e f22b 633e
000000a0: 90d0 613d 0231 33be 6758 763e 701a d4bd
000000b0: 5a3c 0ebe e069 803e 3eb9 9e3c 10bc dd3c
000000c0: 5084 95bd d3f6 70be 3fe4 7a3d cb10 503e
000000d0: 850a 94bd 7c1f 123e f259 b63d 8b3f 333d
000000e0: a371 013e 40e5 84be 02d8 813e 6985 1dbd
000000f0: 8d28 5a3e 6682 843e 0a08 9a3e 2fe2 513e
00000100: a69f 0f3d 350d 52be 1870 973d c582 553e
00000110: 5c92 eebd 39cf 2a3e 4dfc 903c 8b31 8c3d
00000120: 99c1 2abc 016b 8cbc 9af3 7abe 6f9e 4dbd
00000130: 386e d13d ef61 563e 680d f6ba d4f0 3f3e
00000140: aebc 3e3e 9504 3bbd 95f7 613d 85ed d43c
00000150: a8dc 823e eeb3 72be 3eff 0bbd 1dc5 16be
00000160: 5ff4 a83d 74d3 0ebc 736e d23d 2d7e 973e
00000170: 16bc 243e aa40 023e bdc5 7b3e 4aaf cd3d
00000180: 8df8 c8bd a46f e03d c70f a2bd 3ceb 043e
00000190: 63c0 5e3e 4df3 b5bd f60b d23c 6fd8 50be
000001a0: 5ea5 3fbe 96d2 90bd 16da f03d 2926 d03d
000001b0: a6bd c53b 1d5a 3ebd 6913 e83d 0e13 7f3d
000001c0: 297a 1abe 9d8a c23d a4e0 55be f3dc 853e
000001d0: 8354 6bbe 120c f3bd f0bf 06be 77d8 9a3e
000001e0: 3ef5 73be 5baf 273e ed62 983d 5be4 e63c
000001f0: 6921 ccbc 3e70 3abe 66be 293e 5de9 9b3e
00000200: 881d ccbd d939 3d3e 5fef fb3d ce63 053e
00000210: 29f7 f8bc be1b da3d 2f91 083d 6178 39be
00000220: 24d3 08be 9d02 9abe f95b 963e 8cd7 7bbe
00000230: d97e 893e 7451 d5bd 9816 f53d a20a 0abd
00000240: 26cd 72be 013b 93be 4549 823d efa7 293c
00000250: 064b 2e3d 97b8 183e

mlp1.2.weight f4 [100, 150]
0.06924254 0.007401356 -0.08012584 -0.24152942 -0.048779182 -0.09045459 0.060456883 0.031559486
0.029422631 0.04274344 0.077767156 0.005606469 -0.038577586 0.055385254 0.06293428 -0.032682493
0.052608997 0.047592215 -0.006117799 0.028459508 -0.010878632 0.056273233 0.072140254 0.103383556
-0.07136013 0.08735674 0.019042889 -0.09135549 -0.019105779 0.10370268 -0.028267251 -0.052207123
-0.011925543 0.04981223 -0.008547935 -0.11317257 -0.022344027 0.10814924 -0.062276844 0.077803634
-0.06910098 -0.07522326 0.023188109 0.0370273 -0.026520915 0.024745181 0.07613713 0.041077267
0.03668539 -0.08614941 0.015455003 -0.034793835 0.043229625 0.034221716 -0.008265066 0.0028915913
-0.11436372 -0.018101376 0.035922706 0.033307638 0.116204016 -0.09274166 0.12303474 -0.07658142
0.02582617 0.043264583 -0.020332191 -0.025630841 0.009506922 -0.042334758 0.014420738 0.07258313
0.042302072 -0.026009887 0.0964423 -0.045537494 0.08032931 -0.0005644785 0.07990256 -0.10661256
0.11605727 0.04797442 0.05761682 0.12115789 0.03472999 0.03351295 0.048337422 0.039183002
-0.0289415 -0.045376953 0.06193708 0.11108829 -0.018918915 0.06673175 0.09385399 -0.012473286
-0.13477136 0.018393064 -0.026652975 -0.004937665 0.12761663 -0.092596106 -0.15345939 -0.00033366613
0.0020481804 0.082843974 -0.014073985 0.078834094 -0.12609413 -0.03350478 -0.03674715 -0.11974113
-0.0028975715 -0.08975273 0.09998186 -0.041109636 -0.00039682857 0.0058049955 -0.013924852 -0.027665058
-0.18115693 -0.07875161 -0.079767674 -0.0040928135 0.029064137 -0.05475155 -0.060717724 -0.11141509
0.019366493 0.037661895 0.10286673 -0.023381747 -0.064092256 0.07710446 0.07044599 -0.06679957
-0.0048649814 0.06228239 0.09899009 -0.061631795 -0.042848315 -0.09914931 0.011945775 -0.05397058
-0.05031505 -0.16216971 0.0055291406 -0.045294534 -0.051266182 -0.05732089 -0.0034081428 0.078247815
0.06231399 -0.090675384 -0.005863714 0.08397834 -0.033779357 0.055364635 -0.07713927 -0.09471838
-0.0097870305 0.010133956 -0.0134120425 -0.062352702 0.061599597 -0.025867049 -0.014728451 0.027709953
-0.02878302 0.030831764 0.04603951 -0.046726692 0.035128187 -0.004865415 -0.022377566 -0.06609686
-0.01562993 -0.05058387 -0.035729166 0.05608662 0.05799924 0.0046238494 -0.05887535 -0.07952622
-0.04292425 -0.038699534 0.07562215 0.015143341 -0.01835891 0.010022964 -0.06800543 -0.017803734
-0.015961424 -0.011767099 0.021487031 -0.023711793 0.02579517 -0.0015968332 0.049580205 -0.037204754
0.056472532 0.017636232 0.020280447 0.019626312 0.022126513 -0.000414509 0.025607659 0.076283865
0.055473134 -0.009089055 -0.013186095 -0.030083958 0.0026001285 -0.06789366 -0.025694743 0.042883474
-0.03597202 -0.035087723 -0.025425706 0.07382534 0.06942915 -0.075576134 -0.062109876 0.013143868
-0.052078947 -0.0147343 0.05481083 0.03381452 -0.008615954 0.07850192 0.0011275989 -0.05298994
0.053296167 0.034186397 0.07199981 0.08273599 -0.060581528 0.041508123 0.094932474 0.035610415
0.0654638 -0.050352283 -0.055332318 -0.04988704 -0.060288917 0.024865026 0.06077709 0.016340932
0.07230202 -0.04117162 -0.100398764 -0.09717486 0.007281135 -0.058071584 -0.034451686 -0.059424005
00000000: 08cf 8d3d 1387 f23b 0419 a4bd 7d53 77be
00000010: aecc 47bd 4240 b9bd a3a1 773d 8544 013d
00000020: bb07 f13c bf13 2f3d 6344 9f3d 79b6 b73b
00000030: 8803 1ebd a6db 623d b0e3 803d 14de 05bd
00000040: 887c 573d 0ef0 423d d177 c8bb ea23 e93c
00000050: 4a3c 32bc c37e 663d 45be 933d c2ba d33d
00000060: 4325 92bd 17e8 b23d d5ff 9b3c 9618 bbbd
00000070: b983 9cbc 1262 d43d b990 e7bc 23d7 55bd
00000080: 5a63 43bc e907 4c3d a30c 0cbc 05c7 e7bd
00000090: d20a b7bc 597d dd3d 0116 7fbd 8357 9f3d
000000a0: d184 8dbd a70e 9abd fdf4 bd3c f0a9 173d
000000b0: 6442 d9bc 68b6 ca3c c9ed 9b3d a340 283d
000000c0: 6b43 163d 1a6f b0bd fb36 7d3c fb83 0ebd
000000d0: 8c11 313d 122c 0c3d 336a 07bc da80 3d3b
000000e0: 8737 eabd 5649 94bc b023 133d 976d 083d
000000f0: 5ffc ed3d 57ef bdbd a3f9 fb3d b8d6 9cbd
00000100: 6791 d33c 3436 313d b28f a6bc c5f7 d1bc
00000110: ecc2 1b3c 3667 2dbd f644 6c3c 77a6 943d
00000120: f044 2d3d b012 d5bc 8a83 c53d 8685 3abd
00000130: b183 a43d 83f9 13ba f4a3 a33d b057 dabd
00000140: 6faf ed3d d380 443d 9dff 6b3d a121 f83d
00000150: 0941 0e3d e044 093d 76fd 453d 5b7e 203d
00000160: b916 edbc 2fdd 39bd bcb1 7d3d 4282 e33d
00000170: d7fb 9abc a8aa 883d 8536 c03d c15c 4cbc
00000180: 8101 0abe 0dad 963c 5757 dabc 23cc a1bb
00000190: efad 023e 07a3 bdbd 7524 1dbe e9ef aeb9
000001a0: c43a 063b 1aaa a93d 9296 66bc c573 a13d
000001b0: d21e 01be 4f3c 09bd 2e84 16bd d63a f5bd
000001c0: 2fe5 3dbb 48d0 b7bd 4ac3 cc3d 9462 28bd
000001d0: 6e0d d0b9 d537 be3b 1025 64bc d5a1 e2bc
000001e0: 3481 39be 8648 a1bd 3c5d a3bd 021d 86bb
000001f0: ea17 ee3c 2943 60bd 26b3 78bd 982d e4bd
00000200: 7ba6 9e3c 5c43 1a3d cbab d23d 148b bfbc
00000210: cd42 83bd f1e8 9d3d fd45 903d 37ce 88bd
00000220: 6c6a 9fbb d21b 7f3d 51bb ca3d 9f71 7cbd
00000230: b781 2fbd cb0e cbbd 36b8 433c 4110 5dbd
00000240: 2717 4ebd d10f 26be cb2d b53b c386 39bd
00000250: 7dfc 51bd 4fc9 6abd 265b 5fbb 6440 a03d
00000260: f43c 7f3d 04b4 b9bd 6624 c0bb d6fc ab3d
00000270: 395c 0abd 07c6 623d 32fb 9dbd b6fb c1bd
00000280: c859 20bc e408 263c 2fbe 5bbc 8c65 7fbd
00000290: dc4f 7c3d 22e7 d3bc 9a4f 71bc fcff e23c
000002a0: 5eca ebbc e592 fc3c ed93 3c3d 7d64 3fbd
000002b0: 93e2 0f3d 0f6e 9fbb 2851 b7bc ca5d 87bd
000002c0: 570a 80bc 0831 4fbd bf58 12bd 15bb 653d
000002d0: 9c90 6d3d a983 973b 4727 71bd a5de a2bd
000002e0: 57d1 2fbd 6783 1ebd c9df 9a3d c71b 783c
000002f0: 6d65 96bc 5c37 243c 6e46 8bbd 23d9 91bc
00000300: 88c1 82bc caca 40bc 9205 b03c 3c3f c2bc
00000310: 6450 d33c d54c d1ba 9d14 4b3d 0364 18bd
00000320: be4f 673d dc79 903c 2e23 a63c 5cc7 a03c
00000330: a942 b53c 7552 d9b9 27c7 d13c b73a 9c3d
00000340: cc37 633d 42ea 14bc 7e0a 58bc a272 f6bc
00000350: eb66 2a3b d50b 8bbd c87d d2bc 95a6 2f3d
00000360: 6657 13bd 25b8 0fbd 9249 d0bc bd31 973d
00000370: df30 8e3d a9c7 9abd ed66 7ebd 6159 573c
00000380: bc50 55bd 2268 71bc 5281 603d 1881 0a3d
00000390: ee29 0dbc 9dc5 a03d f1cb 933a fb0b 59bd
000003a0: 154d 5a3d 0907 0c3d a374 933d 7d71 a93d
000003b0: 5624 78bd 6c04 2a3d f56b c23d 3adc 113d
000003c0: e311 863d 323e 4ebd 24a4 62bd 5a56 4cbd
000003d0: 83f1 76bd bdb1 cb3c 66f1 783d 6bdd 853c
000003e0: 1513 943d 93a3 28bd de9d cdbd 9d03 c7bd
000003f0: 9696 ee3b 78dc 6dbd 361d 0dbd 9666 73bd

mlp1.2.bias f4 [100]
0.057453934 -0.015195478 0.005899978 0.042497825 -0.039196394 0.014621322 0.077160046 0.05883151
-0.02162602 0.026876822 0.026980268 0.017016463 0.010878541 -0.03651059 -0.056642704 0.0148496125
-0.038013358 -0.0024355878 -0.070934035 0.025942618 -0.03171017 -0.1118734 -0.010350167 -0.010667651
-0.02747773 -0.1635048 0.047719363 -0.022190217 0.03035177 0.08945025 -0.053286344 0.04771571
-0.024077877 -0.037254907 -0.0050327186 0.028285513 -0.016158896 -0.03374128 -0.046689816 -0.006464513
-0.060841434 0.06847338 -0.019734798 0.05015255 0.07505323 0.026315425 0.063040376 0.035297643
0.03815125 0.021506956 -0.007046574 -0.024960341 0.052751232 -0.042082343 -0.054349225 -0.05987529
0.078477435 -0.048523106 -0.014177463 0.0046963706 -0.045949254 0.07636307 0.07106081 0.039187003
0.027735934 0.0020566478 0.016163195 0.004773777 -0.060664944 0.08103226 0.008663637 -0.08220194
0.0906046 0.0043792273 0.0040730983 -0.06877124 -0.07077791 0.0069334903 -0.007876615 -0.050647024
0.032023333 -0.032966174 0.026868533 -0.083217934 0.078041606 0.09999783 0.011288245 0.04463731
0.073291995 0.10035013 -0.0529656 0.02301413 -0.023400292 0.0011524269 0.049064633 -0.100077346
0.045577504 0.055146657 -0.0678785 -0.07603844
00000000: d154 6b3d 74f6 78bc 9a54 c13b 3312 2e3d
00000010: 668c 20bd 458e 6f3c 1606 9e3d 4ff9 703d
00000020: 0d29 b1bc c82c dc3c b905 dd3c 1c66 8b3c
00000030: e83b 323c 218c 15bd 2e02 68bd ca4b 733c
00000040: e5b3 1bbd 629e 1fbb dd45 91bd 9d85 d43c
00000050: 86e2 01bd e21d e5bd bf93 29bc 5fc7 2ebc
00000060: fa18 e1bc cd6d 27be 6175 433d 42c8 b5bc
00000070: 46a4 f83c b131 b73d c842 5abd 8c71 433d
00000080: f83e c5bc 9a98 18bd 81e9 a4bb 05b7 e73c
00000090: a95f 84bc 4c34 0abd d23d 3fbd 44d4 d3bb
000000a0: de34 79bd c53b 8c3d dfaa a1bc c36c 4d3d
000000b0: 82b5 993d 7293 d73c 501b 813d 4394 103d
000000c0: 7c44 1c3d 5b2f b03c f2e6 e6bb a179 ccbc
000000d0: ad11 583d 895e 2cbd 4b9d 5ebd cb3f 75bd
000000e0: c7b8 a03d 2ac0 46bd 9748 68bc 03e4 993b
000000f0: 4935 3cbd 3e64 9c3d 5488 913d 8d82 203d
00000100: 7836 e33c d3c8 063b ad68 843c 586d 9c3b
00000110: ce7b 78bd 3ef4 a53d edf1 0d3c 7e59 a8bd
00000120: e88e b93d 9f7f 8f3b a077 853b f0d7 8cbd
00000130: 02f4 90bd 5532 e33b eb0c 01bc 4173 4fbd
00000140: e62a 033d 8a07 07bd 661b dc3c 2a6e aabd
00000150: 47d4 9f3d aacb cc3d 55f2 383c 9dd5 363d
00000160: 1d1a 963d 5e84 cd3d 75f2 58bd 2188 bc3c
00000170: f8b1 bfbc 080d 973a fff7 483d 5af5 ccbd
00000180: 7aaf 3a3d 76e1 613d e203 8bbd 0bba 9bbd

mlp2.0.weight f4 [100, 100]
-0.027574655 0.0038991596 0.0516834 -0.090996586 -0.06885189 -0.04214577 0.053453807 -0.030269237
-0.06126896 -0.081223615 -0.08113765 0.08675371 -0.036294874 0.061331276 -0.064750455 -0.08418022
0.03723738 -0.078651495 -0.062456988 0.025617119 -0.057380725 0.02562981 -0.061426494 0.08675873
-0.0552563 0.038106337 0.05206484 0.037191827 0.012269949 0.008552442 -0.09534493 -0.07578795
0.047701035 -0.06841108 0.07754117 0.049262423 -0.019612659 -0.004993168 0.0072733876 0.037798874
-0.07150909 0.005321383 -0.001889944 -0.010719631 -0.040411107 0.063662775 0.06453071 0.058742028
0.09911656 -0.038608074 -0.059597455 -0.061695486 -0.04862468 -0.035512812 0.0044783084 0.056055874
0.08965322 0.061489016 -0.051118046 0.0031381017 -0.052574933 -0.002327007 0.08194992 0.019745221
0.09721674 -0.095862344 -0.04470119 -0.040457174 -0.012962126 0.08853125 -0.033399783 -0.0064445
0.10420295 -0.087945715 0.071683936 -0.02259201 0.057381578 0.019944346 0.04643348 0.05579514
-0.0051879077 0.069234416 -0.088938214 -0.04128127 -0.06331174 -0.0009892376 0.09195136 -0.09780708
0.08864302 0.029677141 0.04004617 -0.013019549 0.048041567 -0.015668696 -0.003423036 -0.08335406
-0.05076267 -0.030381156 0.05011604 0.07016357 -0.0016661873 0.015685461 -0.023862043 -0.072176635
0.0014679555 0.083865784 0.023126086 -0.068418376 -0.012115274 -0.026060198 0.08322921 0.062724456
-0.035967764 -0.07298733 0.097979456 0.030523589 -0.010904235 0.07629443 0.013314566 -0.03812331
0.091699615 0.04973852 -0.030854901 -0.012457154 0.07833862 0.06676651 -0.038798448 0.013606788
0.03798554 -0.09100674 0.039906632 0.02557098 -0.03091615 0.03782004 0.07007978 0.06213953
0.058858648 -0.08652592 0.0698994 -0.018628202 -0.009332175 -0.09388732 0.009474337 0.073112175
0.010559954 -0.06391761 0.06336166 -0.049023774 -0.058574885 0.017819017 0.07728057 0.0911586
-0.06888472 0.030057356 -0.02282601 0.07982007 -0.07701867 -0.04191708 -0.086897776 -0.032928
0.09210217 0.0062212753 -0.08080327 -0.017171936 0.090545915 -0.021006202 0.03309732 -0.09300793
-0.035832465 -0.10412035 0.10165135 -0.0038156703 -0.071538076 0.04141593 -0.08498668 -0.06451558
-0.029356917 0.013312999 -0.00027196703 0.04788221 0.007681787 0.0034375296 0.054992594 -0.08249577
-0.09724839 0.053256564 -0.057701837 -0.040627386 -0.021011999 -0.090373695 -0.058225017 0.057650242
0.04918156 0.046038933 0.054780953 -0.038941253 0.09455983 -0.03213605 0.06507366 0.005964737
0.117506765 -0.0070110145 -7.5057906e-05 -0.009751871 0.018000787 0.024623286 0.060037185 0.0721788
-0.0067303726 -0.04211008 0.06297164 -0.09035456 0.12143199 0.04683355 -0.094435096 -0.027211014
0.068011425 0.07449392 0.080420285 0.071928 -0.004603297 -0.13991345 -0.00077515503 -0.0663102
-0.07607324 -0.027740879 -0.024782183 0.08333716 -0.0101658655 0.13793212 0.05553374 -0.010667573
0.10982993 0.044964433 0.046827115 0.06122265 -0.008571705 -0.0691214 0.090890035 -0.041829914
-0.11512848 0.05491913 0.06722471 0.060318608 0.04665099 0.031629894 -0.004555744 0.1312476
-0.0043107197 0.03760938 0.013803856 0.10301232 0.0006091119 -0.03342069 -0.052221093 0.049488764
00000000: 3ee4 e1bc 0b89 7f3b f9b1 533d 6b5c babd
00000010: 3802 8dbd 0ba1 2cbd 61f2 5a3d 31f7 f7bc
00000020: 29f5 7abd 9158 a6bd 7f2b a6bd eeab b13d
00000030: efa9 14bd 8136 7b3d e39b 84bd ae66 acbd
00000040: 3986 183d 0914 a1bd e6d2 7fbd feda d13c
00000050: 0d08 6bbd 9bf5 d13c 599a 7bbd 90ae b13d
00000060: 6e54 62bd 6415 1c3d f141 553d 7556 183d
00000070: e507 493c 8b1f 0c3c 3444 c3bd b636 9bbd
00000080: 2962 433d 1c1b 8cbd e8cd 9e3d 65c7 493d
00000090: baaa a0bc bb9d a3bb 9955 ee3b fed2 1a3d
000000a0: 5c73 92bd ff5e ae3b ffb7 f7ba 64a1 2fbc
000000b0: 1e86 25bd a161 823d ad28 843d 7b9b 703d
000000c0: 9ffd ca3d 8023 1ebd 761c 74bd 68b4 7cbd
000000d0: ac2a 47bd e275 11bd c6be 923b d89a 653d
000000e0: 1b9c b73d e8db 7b3d 2861 51bd 9ca8 4d3b
000000f0: d058 57bd b380 18bb 5cd5 a73d bbc0 a13c
00000100: 9219 c73d 7a53 c4bd 9818 37bd 6cb6 25bd
00000110: 195f 54bc df4f b53d 36ce 08bd 622c d3bb
00000120: 5b68 d53d e21c b4bd 07cf 923d e112 b9bc
00000130: f208 6b3d 5362 a33c 0831 3e3d 7289 643d
00000140: 53ff a9bb c6ca 8d3d 3d25 b6bd 8d16 29bd
00000150: 96a9 81bd 4ea9 81ba ff50 bc3d 144f c8bd
00000160: 798a b53d 7a1d f33c 7407 243d f24f 55bc
00000170: 3cc7 443d a35b 80bc 0455 60bb 89b5 aabd
00000180: 84ec 4fbd e7e1 f8bc 7a46 4d3d ebb1 8f3d
00000190: f863 daba cc7e 803c 557a c3bc 58d1 93bd
000001a0: 6a68 c03a d3c1 ab3d eb72 bd3c ef1e 8cbd
000001b0: 247f 46bc 327c d5bc 1374 aa3d ae75 803d
000001c0: ef52 13bd 627a 95bd 74a9 c83d 9b0c fa3c
000001d0: ada7 32bc 4140 9c3d 5625 5a3c 3027 1cbd
000001e0: 02cd bb3d 9eba 4b3d 6bc3 fcbc 1719 4cbc
000001f0: 0070 a03d e1bc 883d 1feb 1ebd 01ef 5e3c
00000200: ba96 1b3d be61 babd 2375 233d 3b7a d13c
00000210: de43 fdbc 30e9 1a3d fd85 8f3d 0586 7e3d
00000220: c415 713d 8034 b1bd 6b27 8f3d 2c9a 98bc
00000230: fbe5 18bc ff47 c0bd 403a 1b3c d6bb 953d
00000240: a803 2d3c 3ce7 82bd c2c3 813d 27cd 48bd
00000250: 38ec 6fbd 30f9 913c 4745 9e3d 5cb1 ba3d
00000260: 6f13 8dbd d83a f63c 9dfd babc b478 a33d
00000270: f7bb 9dbd 3eb1 2bbd 76f7 b1bd 83df 06bd
00000280: 10a0 bc3d d7db cb3b 2f7c a5bd 29ac 8cbc
00000290: 2370 b93d 3315 acbc 0e91 073d f17a bebd
000002a0: 10c5 12bd 0d3d d5bd 952e d03d 5310 7abb
000002b0: 8e82 92bd c0a3 293d 7f0d aebd bf20 84bd
000002c0: eb7d f0bc c41e 5a3c cc96 8eb9 2320 443d
000002d0: 80b7 fb3b 2d48 613b ea3f 613d 8bf3 a8bd
000002e0: 2a2a c7bd 8e23 5a3d c358 6cbd e768 26bd
000002f0: 5b21 acbc d815 b9bd 5b7d 6ebd a922 6c3d
00000300: 9a72 493d 5293 3c3d fe61 603d dd80 1fbd
00000310: 96a8 c13d 17a1 03bd 5745 853d d773 c33b
00000320: 63a7 f03d a7bc e5bb 6868 9db8 50c6 1fbc
00000330: 6376 933c c6b6 c93c 8de9 753d 7bd2 933d
00000340: 758a dcbb 9f7b 2cbd 46f7 803d d00b b9bd
00000350: 56b1 f83d 89d4 3f3d 3067 c1bd a2e9 debc
00000360: 9349 8b3d 4590 983d 64b3 a43d fd4e 933d
00000370: 41d7 96bb 7945 0fbe c633 4bba a4cd 87bd
00000380: 49cc 9bbd d740 e3bc 0104 cbbc acac aa3d
00000390: bb8e 26bc 143e 0d3e 5977 633d 0bc7 2ebc
000003a0: 84ee e03d a02c 383d cacd 3f3d 9ac4 7a3d
000003b0: 5670 0cbc 858f 8dbd 8e24 ba3d d855 2bbd
000003c0: 7bc8 ebbd e2f2 603d 1cad 893d a510 773d
000003d0: 1c15 3f3d 598e 013d 5a48 95bb c565 063e
000003e0: f040 8dbb 4b0c 1a3d 9229 623c 20f8 d23d
000003f0: cfac 1f3a 22e4 08bd c9e5 55bd bbb4 4a3d

mlp2.0.bias f4 [100]
-0.030472254 -0.052533034 0.025988609 0.082490474 -0.0057567228 0.09742882 0.06838154 0.071028315
-0.006376212 0.1059502 -0.026009196 -0.009486942 -0.043243147 -0.017795514 0.06485693 -0.034823835
-0.00069492834 -0.022313792 0.110030666 0.091430634 -0.10889821 -0.06933666 -0.057502504 -0.04538605
0.056032535 0.09745014 0.025525004 0.036139194 0.044405866 -0.048509993 -0.03722412 0.078211986
0.07665166 0.095495634 -0.012454803 0.14152402 0.017542882 0.1248925 -0.004202915 0.05218737
-0.05640539 -0.10020932 0.09721331 -0.034790598 -0.038452726 0.02108419 0.01797088 0.05012653
0.023394734 0.106637895 0.043330226 -0.013975632 0.045620613 -0.09913262 -0.011890954 -0.09224663
-0.016716925 0.01633494 -0.043984454 -0.07208078 0.026819136 0.027143521 -0.088204265 -0.032954376
0.046445232 0.018625835 0.060919974 -0.03667798 0.0513946 0.0256005 0.05589936 -0.1018409
0.05365714 -0.029210668 0.006998352 0.08362874 0.025291832 0.13546951 0.050414294 -0.017905962
0.076775335 -0.01915786 0.026686335 0.039550003 0.002124638 -0.11352785 -0.005258385 -0.029724464
-0.024716599 -0.04983582 -0.08528101 0.04074141 0.06947579 -0.093051575 0.011428964 0.0942421
0.028015804 0.06725382 0.029756313 0.0009616379
00000000: f3a0 f9bc e12c 57bd 10e6 d43c c4f0 a83d
00000010: e4a2 bcbb c388 c73d 9f0b 8c3d 4b77 913d
00000020: 8bef d0bb 6bfc d83d 3d11 d5bc 1e6f 1bbc
00000030: ba1f 31bd e6c7 91bc b6d3 843d 70a3 0ebd
00000040: da2b 36ba 6acb b6bc c257 e13d fc3f bb3d
00000050: 0606 dfbd 6100 8ebd bf87 6bbd b9e6 39bd
00000060: 5f82 653d f093 c73d d019 d13c b106 143d
00000070: ede2 353d 6ab2 46bd 5278 18bd 9b2d a03d
00000080: 8cfb 9c3d 3793 c33d 3b0f 4cbc aceb 103e
00000090: 17b6 8f3c a4c7 ff3d 9bb8 89bb 6cc2 553d
000000a0: 5709 67bd 8b3a cdbd c617 c73d 9680 0ebd
000000b0: 9b80 1dbd c0b8 ac3c ab37 933c 7a51 4d3d
000000c0: 50a6 bf3c f864 da3d 097b 313d 0dfa 64bc
000000d0: aedc 3a3d 0b06 cbbd 47d2 42bc cdeb bcbd
000000e0: eff1 88bc dad0 853c 0b29 34bd 179f 93bd
000000f0: ceb3 db3c 175c de3c 70a4 b4bd 2bfb 06bd
00000100: 5b3d 3e3d 3595 983c 3987 793d a63b 16bd
00000110: 2583 523d 24b8 d13c baf6 643d f691 d0bd
00000120: 97c7 5b3d 364b efbc 6e52 e53b 8b45 ab3d
00000130: d130 cf3c 85b8 0a3e 387f 4e3d 86af 92bc
00000140: 633c 9d3d f2f0 9cbc 4d9d da3c 2fff 213d
00000150: 833d 0b3b 4a81 e8bd 884e acbb b880 f3bc
00000160: 777a cabc a520 4cbd cfa7 aebd 77e0 263d
00000170: 5349 8e3d d391 bebd 8d40 3b3c 0102 c13d
00000180: 6681 e53c 5fbc 893d 83c3 f33c 6d16 7c3a

mlp2.2.weight f4 [50, 100]
0.08958304 -0.078606725 0.12170525 0.11456516 0.044697206 -0.119173504 0.008370626 0.018393733
-0.08266601 -0.12682624 -0.090583146 0.04799389 -0.004910031 -0.09953141 0.0067912494 -0.042740922
0.14184919 -0.056197062 0.045556612 -0.114183664 0.0018741848 0.026070366 -0.06535312 -0.019956868
0.043768365 0.086739935 0.026126362 0.054310117 0.033978928 0.055111922 0.019236546 -0.04547606
0.025217287 0.096659295 -0.050320987 0.09048465 -0.07203684 0.11475392 0.04923905 0.048585597
-0.10243656 0.080618024 -0.09286697 0.05035754 -0.029513095 -0.08092739 -0.061324704 -0.018555755
0.11135516 0.00786065 0.002359658 0.08166925 0.06858969 -0.04470804 0.0051287133 0.008443665
-0.09597766 0.108320795 0.08446598 0.09375709 -0.03580619 -0.07413275 -0.0594447 0.031355698
-0.00962442 -0.059336364 -0.07704314 -0.00859784 0.05029192 -0.06146674 -0.12358173 0.07484512
-0.08624123 0.04184853 -0.024468599 0.059760764 -0.0020730586 -0.01593713 -0.032004926 -0.06974812
-0.05611603 0.01671369 -0.0037260852 -0.095044926 -0.020754782 0.01755977 -0.06358297 0.059666757
-0.03831408 0.11061182 0.07602572 0.007226914 -0.06655038 0.021905182 -0.04652748 -0.046645828
-0.017055564 0.08995093 -0.002650635 -0.045185357 -0.050122228 -0.040871684 0.077336214 -0.08058202
-0.09173451 -0.023998631 0.023656117 0.027863892 -0.07631245 -0.036071036 0.01750949 0.0016888436
-0.051470775 -0.04615372 -0.0581563 0.13235655 0.04685956 -0.053993024 0.09481106 -0.01758544
0.06970297 -0.010396808 0.029133108 0.06429183 0.064139664 -0.103160284 0.039860144 -0.020076169
0.046331596 0.039804008 0.07004452 -0.094863914 0.029514283 -0.054223515 0.044794243 -0.04183862
0.08375098 0.09727552 -0.09099377 -0.08249355 0.06800863 -0.08396032 -0.0721154 -0.09554389
-0.07708129 0.05579087 0.01241799 0.03529066 -0.059795592 0.14437117 0.0195858 -0.08819833
-0.03970872 -0.036022633 -6.271665e-05 0.09863422 0.086972944 0.065360665 0.052473534 0.0545264
-0.05065253 0.07092984 -0.01136029 0.032826405 -0.047281716 0.025263166 -0.058254424 -0.009430244
-0.034239024 -0.03966792 -0.034303147 0.0909912 -0.06592708 0.015693968 -0.01165334 0.038879976
0.05844759 -0.017989859 0.021620743 0.029556219 -0.049046148 0.046860453 -0.052398268 0.025012637
-0.09013132 0.03028803 0.03584201 0.050151367 -0.008286776 -0.075591385 -0.02736031 0.034807723
-0.012364729 -0.054956727 0.019107996 -0.039366648 -0.030195203 -0.0008659924 -0.0076159 0.009408346
0.026963972 -0.013474309 -0.04431822 0.10791009 -0.093761906 0.08765401 -0.0889632 0.029321356
-0.00036213014 -0.041250803 0.088749126 0.075560845 -0.0035157118 -0.044547956 0.13070883 -0.057493776
0.10427238 -0.06379476 -0.050691426 0.09094741 -0.10055376 -0.1088301 -0.07730354 -0.010209373
-0.025737716 -0.14095737 -0.09272208 -0.08143394 0.059031487 -0.04819155 0.060603693 0.061562788
-0.0476416 -0.04086018 -0.0021359483 -0.03543104 -0.03111676 0.0008799148 0.12742223 0.026333567
0.11229685 0.06211722 -0.002642965 0.063604355 -0.1981901 0.015365701 -0.07409893 0.13096374
0.0568805 0.16576062 0.05960959 -0.01952748 0.041366763 0.06838532 0.03692883 -0.032642856
00000000: 5077 b73d 90fc a0bd 9a40 f93d 23a1 ea3d
00000010: 6b14 373d 3d11 f4bd f324 093c 74ae 963c
00000020: cc4c a9bd bdde 01be a883 b9bd 3e95 443d
00000030: 53e4 a0bb 20d7 cbbd 2189 de3b 1b11 2fbd
00000040: ea40 113e e42e 66bd 9299 3a3d 20d9 e9bd
00000050: 35a7 f53a 8591 d53c dbd7 85bd 967c a3bc
00000060: 7546 333d b5a4 b13d f406 d63c 4974 5e3d
00000070: 7d2d 0b3d 0abd 613d f695 9d3c 1b45 3abd
00000080: 7c94 ce3c 4ff5 c53d 611d 4ebd 0450 b93d
00000090: 0d88 93bd 1a04 eb3d e3ae 493d b101 473d
000000a0: 42ca d1bd 101b a53d 0a31 bebd b543 4e3d
000000b0: 72c5 f1bc 42bd a5bd 9d2f 7bbd 3d02 98bc
000000c0: 2d0e e43d f5c9 003c 7ea4 1a3b 3542 a73d
000000d0: c078 8c3d c71f 37bd c40e a83b 4c57 0a3c
000000e0: ef8f c4bd 4bd7 dd3d 80fc ac3d b803 c03d
000000f0: 83a9 12bd e9d2 97bd 497c 73bd d56e 003d
00000100: beaf 1dbc b00a 73bd cbc8 9dbd f4dd 0cbc
00000110: e6fe 4d3d 8cc4 7bbd 6b18 fdbd 6648 993d
00000120: 3e9f b0bd 5d69 2b3d 5f72 c8bc b4c7 743d
00000130: 27dc 07bb 968e 82bc 9917 03bd 1ad8 8ebd
00000140: ecd9 65bd 26eb 883c 5631 74bb eaa6 c2bd
00000150: ef05 aabc 82d9 8f3c ca37 82bd 2165 743d
00000160: 3aef 1cbd 7388 e23d 5fb3 9b3d c0cf ec3b
00000170: 914b 88bd 7f72 b33c 9993 3ebd b20f 3fbd
00000180: 1cb8 8bbc 3138 b83d 47b6 2dbb 4814 39bd
00000190: f74c 4dbd 1169 27bd 7362 9e3d 3008 a5bd
000001a0: 4edf bbbd c798 c4bc 79ca c13c d142 e43c
000001b0: b449 9cbd 39bf 13bd 1070 8f3c 305c dd3a
000001c0: 05d3 52bd af0b 3dbd 4d35 6ebd 7a88 073e
000001d0: cfef 3f3d ca27 5dbd 4d2c c23d 570f 90bc
000001e0: 6ec0 8e3d 6057 2abc 8ea8 ee3c 6fab 833d
000001f0: a85b 833d b345 d3bd 6444 233d c776 a4bc
00000200: 33c6 3d3d 8709 233d 8073 8f3d 0348 c2bd
00000210: f0c7 f13c 7a19 5ebd 2b7a 373d f95e 2bbd
00000220: a285 ab3d 6338 c73d f15a babd 61f2 a8bd
00000230: 1c48 8b3d 63f3 abbd 3db1 93bd 84ac c3bd
00000240: ccdc 9dbd f884 643d d374 4b3c f08c 103d
00000250: 39ec 74bd 09d6 133e 6672 a03c 53a1 b4bd
00000260: 9ca5 22bd 788c 13bd bf86 83b8 bd00 ca3d
00000270: df1e b23d d0db 853d 7dee 563d 1357 5f3d
00000280: 0779 4fbd aa43 913d 8320 3abc fb74 063d
00000290: 79aa 41bd b3f4 ce3c 319c 6ebd 4f81 1abc
000002a0: 383e 0cbd d47a 22bd 7581 0cbd 9859 ba3d
000002b0: c704 87bd a390 803c a7ed 3ebc 9c40 1f3d
000002c0: bd66 6f3d 785f 93bc fc1d b13c e21f f23c
000002d0: 9de4 48bd bff0 3f3d 919f 56bd 4de7 cc3c
000002e0: c596 b8bd 9a1e f83c 12cf 123d 856b 4d3d
000002f0: 42c5 07bc a8cf 9abd bb22 e0bc 8b92 0e3d
00000300: 6f95 4abc 4e1a 61bd 5f88 9c3c ec3e 21bd
00000310: ee5b f7bc c403 63ba cd8e f9bb 7725 1a3c
00000320: 8ce3 dc3c 59c3 5cbc 0687 35bd f7ff dc3d
00000330: 3e06 c0bd f283 b33d 5732 b6bd 5733 f03c
00000340: 49dc bdb9 9af6 28bd 1ac2 b53d a5bf 9a3d
00000350: db67 66bb eb77 36bd 89d8 053e 987e 6bbd
00000360: c28c d53d d4a6 82bd d0a1 4fbd a342 ba3d
00000370: 21ef cdbd 51e2 debd 5251 9ebd 3745 27bc
00000380: e7d7 d2bc 2157 10be 13e5 bdbd d6c6 a6bd
00000390: 00cb 713d 8164 45bd 943b 783d 4329 7c3d
000003a0: d723 43bd 015d 27bd 44fb 0bbb 2320 11bd
000003b0: 93e8 febc 15aa 663a f97a 023e 7eb9 d73c
000003c0: e4fb e53d a06e 7e3d 9835 2dbb 0043 823d
000003d0: 58f2 4abe 6cc0 7b3c 2ec1 97bd 5c1b 063e
000003e0: 87fb 683d 27bd 293e 2f29 743d 18f8 9fbc
000003f0: 3270 293d 9a0d 8c3d af42 173d 84b4 05bd

mlp2.2.bias f4 [50]
0.06765725 -0.052256122 0.09782911 0.09877329 0.107827306 -0.008910288 0.006004265 -0.006679625
0.099990025 0.0967415 -0.04370623 -0.07572303 -0.0006834792 0.030753808 0.118382 0.05565611
0.009372104 0.06264527 -0.006555819 0.038379364 0.03981612 0.042571116 0.010562523 -0.06891404
0.07008523 -0.013784581 -0.10475711 -0.07093382 0.058666784 -0.0035550361 0.104471564 0.07663448
-0.035249256 -0.023474326 0.082229964 -0.07129552 0.06724923 -0.07093046 -0.018984906 0.055372503
0.06780249 -0.00023975899 0.057102047 -0.11387695 -0.08392673 0.077182196 0.07249947 -0.10306023
0.058008716 0.07750006
00000000: e28f 8a3d 840a 56bd a15a c83d a749 ca3d
00000010: 90d4 dc3d 75fc 11bc 6dbf c43b c1e0 dabb
00000020: 92c7 cc3d 6820 c63d 4e05 33bd ad14 9bbd
00000030: 832b 33ba 69ef fb3c 4372 f23d a9f7 633d
00000040: 748d 193c 2a4c 803d 32d2 d6bb ae33 1d3d
00000050: 3a16 233d 0d5f 2e3d 6f0e 2d3c ce22 8dbd
00000060: d888 8f3d b9d8 61bc e58a d6bd c045 91bd
00000070: 954c 703d 9cfb 68bb 30f5 d53d 8af2 9c3d
00000080: 8661 10bd 3b4d c0bc 2f68 a83d 6303 92bd
00000090: f7b9 893d fd43 91bd 3c86 9bbc 47ce 623d
000000a0: 08dc 8a3d d067 7bb9 d6e3 693d 5238 e9bd
000000b0: c7e1 abbd b311 9e3d 9a7a 943d 3e11 d3bd
000000c0: 8c9a 6d3d 5ab8 9e3d

attention.0.weight f4 [100, 200]
0.046310212 0.027339067 -0.019254046 0.02809076 -0.0018863019 0.048885208 0.061664164 0.023185126
0.04928647 -0.03373341 -0.004621343 -0.0021583582 -0.01583675 0.06397956 -0.02024108 -0.030755162
0.05784791 0.062362567 -0.020794041 -0.03937375 -0.047464702 0.0661852 -0.041730378 -0.06450633
0.015642408 -0.024597753 -0.010566953 -0.051601525 -0.0009264651 -0.058431577 0.022529183 -0.05770526
0.04146876 -0.047639716 0.032024693 0.047181882 -0.045235123 0.010471799 0.026197251 -0.015567516
0.055747837 -0.0654808 0.047545157 0.06517379 -0.053522773 -0.024046432 0.01547563 -0.043486707
-0.054771587 -0.017945295 0.014600579 0.06820223 -0.06708852 0.016426144 0.017645482 -0.012755003
-0.067189306 0.051537134 0.019058416 0.0411125 0.04518211 0.067869194 0.013580992 -0.022011181
-0.043363288 -0.058620345 0.023474194 0.06869823 -0.046644475 -0.0017662697 -0.04816022 0.048434325
0.037489552 -0.0340174 -0.0052444916 -0.039744828 -0.0029541992 -0.024901217 0.055514865 -0.017254865
0.0061205295 0.02751654 0.020225883 -0.017098298 0.0147201335 0.047318053 0.057086665 -0.04947655
-0.04959196 -0.066331945 -0.0022193352 -0.04333127 0.03581454 -0.05585207 -0.05038594 -0.060404614
0.03738139 -0.00563671 0.034180067 0.022935042 -0.00014445356 -0.069150254 -0.032184612 0.044611014
-0.020882215 0.05249246 -0.025682563 0.010776206 0.033210848 0.0500441 0.0061353156 -0.04957627
-0.033507288 -0.05512196 -0.019761566 0.0038886338 0.05660748 0.040710643 -0.064062856 -0.009419198
-0.016374128 -0.049671352 -0.060266677 0.06515186 -0.05038559 0.067373686 -0.034449607 -0.05301165
-0.05939459 0.0507258 -0.047881573 0.06285306 -0.029686205 0.04033243 0.011433342 -0.07076061
-0.032455623 0.030231189 -0.03223736 -0.061530992 0.0048350547 -0.039172728 -0.025302142 0.036347568
-0.05736837 -0.024770664 0.038159084 0.046875685 -0.015219461 0.044957574 -0.023640104 -0.0072488063
0.068244755 0.038216893 0.011400704 0.052822392 0.034955945 0.042957164 -0.06555351 -0.05781462
0.0589941 -0.05929619 0.043711636 -0.05835291 0.007129348 -0.035497792 -0.026189072 -0.039004236
-0.019685745 -0.03488064 -0.07004006 0.047770143 -0.062052686 -0.034730833 0.0037351714 0.046331935
0.009568692 0.056657758 0.044606224 -0.06970784 0.005247039 0.060098983 0.020655317 0.049396876
0.003387492 -0.040837683 0.069130205 -0.056926195 -0.057449903 -0.06374006 -0.05597236 0.028538931
-0.06856475 -0.055006575 -0.055951692 -0.004491883 -0.003940844 0.04422045 0.019981105 -0.024463153
0.01871668 -0.062770225 -0.049259663 0.041667417 -0.051114835 0.029376721 -0.030142508 -0.04749574
0.06559092 0.041945223 -0.059185315 -0.051301546 0.015934173 0.0036573934 -0.035641734 0.03242321
0.052188266 0.0046981825 0.02233075 -0.054715004 -0.031363856 0.016305672 -0.028124068 -0.039691404
0.056423325 -0.04809164 -0.0598133 0.065622166 -0.022452217 -0.06160322 0.023908589 0.06300615
-0.022137295 0.030510562 0.059473824 0.027810453 -0.051548652 0.061915867 0.020451482 0.028939541
0.009437397 0.030654144 -0.057313416 0.029526861 0.0044625546 -0.055556696 -0.038622387 0.02592833
-0.058549445 -0.026883513 0.06722967 0.046305325 -0.039271433 0.03175265 -0.025542568 -0.04421402
00000000: c7af 3d3d 2ef6 df3c a9ba 9dbc 981e e63c
00000010: ca3d f7ba db3b 483d 9093 7c3d bcee bd3c
00000020: 9ce0 493d 0b2c 0abd a36e 97bb 3e73 0dbb
00000030: 12bc 81bc b707 833d 9fd0 a5bc 40f2 fbbc
00000040: eef1 6c3d e46f 7f3d 4458 aabc 5f46 21bd
00000050: 596a 42bd 1b8c 873d 79ed 2abd e51b 84bd
00000060: 8224 803c 3a81 c9bc 0321 2dbc 1f5c 53bd
00000070: 05de 72ba f355 6fbd 1f8f b83c 5a5c 6cbd
00000080: 26db 293d dd21 43bd 532c 033d ca41 413d
00000090: 7748 39bd e991 2b3c 9e9b d63c e50e 7fbc
000000a0: d857 643d cc1a 86bd b6be 423d d679 853d
000000b0: b23a 5bbd 06fd c4bc 7f8d 7d3c 1e1f 32bd
000000c0: 2c58 60bd 0302 93bc 4437 6f3c 9cad 8b3d
000000d0: b565 89bd 1f90 863c 428d 903c 5cfa 50bc
000000e0: 8c9a 89bd 9a18 533d 6520 9c3c 9565 283d
000000f0: e010 393d 01ff 8a3d cf82 5e3c cb50 b4bc
00000100: b49d 31bd e31b 70bd f44c c03c a8b1 8c3d
00000110: 470e 3fbd 2d82 e7ba a743 45bd 1263 463d
00000120: a58e 193d d455 0bbd fcd9 abbb 79cb 22bd
00000130: 3d9b 41bb a3fd cbbc 8e63 633d 135a 8dbc
00000140: b98e c83b 5e6a e13c c0b0 a53c bb11 8cbc
00000150: b72c 713c 93d0 413d b5d3 693d eca7 4abd
00000160: f020 4bbd 0bd9 87bd 4472 11bb 217c 31bd
00000170: 44b2 123d 24c5 64bd 7d61 4ebd d46a 77bd
00000180: 3a1d 193d 27b4 b8bb 6600 0c3d 45e2 bb3c
00000190: 7578 17b9 a69e 8dbd 03d4 03bd 0aba 363d
000001a0: 2e11 abbc 5502 573d 3d64 d2bc af8e 303c
000001b0: 1908 083d 0bfb 4c3d c20a c93b 7d10 4bbd
000001c0: f03e 09bd 90c7 61bd 02e3 a1bc 73d8 7e3b
000001d0: 3fdd 673d 34c0 263d 6333 83bd fb52 1abc
000001e0: 0923 86bc 3074 4bbd 31da 76bd 576e 853d
000001f0: 1f61 4ebd 37fb 893d 081b 0dbd be22 59bd
00000200: be47 73bd dbc5 4f3d 781f 44bd 1bb9 803d
00000210: 7c30 f3bc 9e33 253d e952 3b3c f0ea 90bd
00000220: 30f0 04bd 66a7 f73c 520b 04bd ec07 7cbd
00000230: 616f 9e3b 9573 20bd 7046 cfbc 30e1 143d
00000240: 19fb 6abd d9eb cabc b34c 1c3d b800 403d
00000250: 0c5b 79bc 6f25 383d e4a8 c1bc 6587 edbb
00000260: e8c3 8b3d 5189 1c3d 05ca 3a3c 4b5c 583d
00000270: f72d 0f3d daf3 2f3d eb40 86bd 06cf 6cbd
00000280: cca3 713d 90e0 72bd f90a 333d 7603 6fbd
00000290: 4e9d e93b 2266 11bd 778a d6bc e8c2 1fbd
000002a0: 0044 a1bc 01df 0ebd 2a71 8fbd a0aa 433d
000002b0: f52a 7ebd eb41 0ebd c7c9 743b 8ec6 3d3d
000002c0: 01c6 1c3c f711 683d 04b5 363d fcc2 8ebd
000002d0: 5aef ab3b 5a2a 763d 5735 a93c 6154 4a3d
000002e0: af00 5e3b 6a45 27bd 2394 8d3d 712b 69bd
000002f0: 9750 6bbd 268a 82bd 4643 65bd 7aca e93c
00000300: ad6b 8cbd 934e 61bd 9a2d 65bd a530 93bb
00000310: 3222 81bb 8120 353d 6aaf a33c f366 c8bc
00000320: b953 993c ad8d 80bd 80c4 49bd 74ab 2a3d
00000330: ca5d 51bd 73a7 f03c 6ced f6bc e58a 42bd
00000340: 8854 863d c1ce 2b3d 4d6c 72bd 9221 52bd
00000350: 6288 823c e1b0 6f3b 11fd 11bd 33ce 043d
00000360: 5dc3 553d 36f3 993b faee b63c d71c 60bd
00000370: 6377 00bd 7993 853c 7264 e6bc 7493 22bd
00000380: 251c 673d bdfb 44bd cafe 74bd ea64 863d
00000390: b6ed b7bc a853 7cbd f2db c33c 5e09 813d
000003a0: 4659 b5bc 49f1 f93c d39a 733d bfd2 e33c
000003b0: ae24 53bd 7e9b 7d3d de89 a73c 9e12 ed3c
000003c0: 509f 1a3c 661e fb3c 79c1 6abd 51e2 f13c
000003d0: 9f3a 923b 6b8f 63bd 8232 1ebd a667 d43c
000003e0: 8bd1 6fbd d03a dcbc b6af 893d a7aa 3d3d
000003f0: 15db 20bd 110f 023d a63e d1bc c319 35bd

attention.0.bias f4 [100]
-0.053230062 -0.058329687 0.016738527 0.04863343 0.04915156 0.03755778 0.0511231 0.05351475
0.046901055 -0.05067722 0.027610213 -0.041778848 0.07356334 0.060934335 0.0166329 -0.0061476473
-0.034588415 0.015809739 -0.021017171 0.0340952 -0.033292927 -0.0037831052 -0.042160824 0.05817447
-0.011532061 0.040589467 -0.051902603 -0.029055692 -0.02517353 0.017791215 -0.054091416 0.0021676298
-0.02558108 -0.024013165 0.050288603 -0.011722375 0.06376062 0.004698473 0.034208372 -0.035030335
-0.041901734 0.036909968 0.064469464 -0.021825088 0.04909272 0.02129153 -0.04774202 0.059544858
-0.018738642 -0.064088635 0.036437187 0.06539709 0.053502332 -0.034827422 -0.0014879502 0.0018246683
0.038938373 -0.0025755402 -0.025890583 -0.0028969091 0.06292003 0.032264467 -0.06470324 -0.0053819073
0.0003540845 -0.0056166262 -0.04808757 0.028792337 -0.06471458 0.056975976 0.06943821 0.041133158
0.069236696 0.015319508 0.04642318 -0.049459703 0.050871685 0.045270193 0.04615882 -0.015175117
0.06974225 0.0021579368 -0.021072876 -0.025565164 -0.04691433 -0.004908034 0.045475896 -0.06922742
0.0141927665 0.022427123 0.057417665 0.051313084 -0.011968173 -0.026791377 -0.033762634 0.02910027
-0.0028311478 0.05093383 0.0014791336 0.046034697
00000000: c407 5abd 1ceb 6ebd 3c1f 893c d933 473d
00000010: 2553 493d 30d6 193d 7566 513d 4832 5b3d
00000020: 521b 403d eb92 4fbd d02e e23c 4c20 2bbd
00000030: 60a8 963d 4896 793d b841 883c 3472 c9bb
00000040: 95ac 0dbd 6d83 813c 342c acbc 69a7 0b3d
00000050: 2a5e 08bd f9ed 77bb d4b0 2cbd 5a48 6e3d
00000060: f8f0 3cbc 2441 263d d397 54bd 3406 eebc
00000070: b838 cebc e2be 913c f68e 5dbd cb0e 0e3b
00000080: 6a8f d1bc 42b7 c4bc 6cfb 4d3d 340f 40bc
00000090: ee94 823d a6f5 993b 141e 0c3d f87b 0fbd
000000a0: 27a1 2bbd e82e 173d 9108 843d 87ca b2bc
000000b0: 7315 493d 936b ae3c 238d 43bd 4fe5 733d
000000c0: c881 99bc e740 83bd 293f 153d e9ee 853d
000000d0: 4325 5b3d 33a7 0ebd 5307 c3ba b529 ef3a
000000e0: d87d 1f3d 65ca 28bb 7d18 d4bc 12da 3dbb
000000f0: 37dc 803d bf27 043d 2283 84bd b65a b0bb
00000100: 6ba4 b939 ad0b b8bb 79f7 44bd e8dd eb3c
00000110: 1489 84bd a45f 693d 9f35 8e3d 3e7b 283d
00000120: f8cb 8d3d acfe 7a3c 3b26 3e3d 4296 4abd
00000130: d45e 503d 3d6d 393d 0811 3d3d 0ea1 78bc
00000140: 06d5 8e3d 2c6c 0d3b 06a1 acbc 096e d1bc
00000150: 3e29 40bd 93d3 a0bb ef44 3a3d 1bc7 8dbd
00000160: c788 683c 16b9 b73c c92e 6b3d ab2d 523d
00000170: 2816 44bc 9779 dbbc b04a 0abd b063 ee3c
00000180: c78a 39bb fe9f 503d 7ddf c13a e18e 3c3d

attention.2.weight f4 [100, 100]
0.020400697 -0.048252154 0.050528347 -0.017005272 0.025987953 -0.02655751 -0.0016553445 0.018775677
-0.015199855 0.011067196 -0.09094812 0.011329366 -0.091387205 0.09595088 0.08749421 -0.053073704
0.11308145 -0.021108069 -0.053261213 0.060287688 -0.03701588 0.004602387 0.028656878 0.01478208
0.050636027 -0.10719736 0.042223584 0.07795353 -0.027258465 -0.053287793 -0.0762434 0.06915079
0.0582964 0.008853485 -0.07756086 0.046081237 -0.016396454 -0.012337087 -0.05236409 0.043765076
0.05308777 0.08901959 -0.007402708 -0.044143908 -0.09107193 -0.0090939645 0.020278245 0.07514869
-0.044940427 -0.05126944 0.06114174 -0.08564784 -0.039489355 0.0173339 -0.027819457 0.0042480063
0.0049943835 0.066405594 -0.0019334912 0.059970707 0.07781722 -0.07570025 0.0007768251 -0.07463779
0.0719325 0.044566814 -0.088761345 0.037220225 -0.087181374 -0.015278601 0.057208873 -0.089786075
-0.08365697 0.081898555 0.09951426 -0.088552855 0.07158264 0.059531156 0.05486186 -0.07217281
0.01300823 0.04028549 0.03651001 0.020145025 -0.079335876 0.047468536 0.035956036 0.01429465
-0.048458837 0.024707053 -0.038825378 0.004548152 0.05756056 0.051622402 -0.044214625 0.07600582
0.079771735 0.024452358 -0.023851408 0.10775132 -0.06810689 0.021458376 -0.042891443 0.08076323
-0.054994024 -0.07414057 -0.08153402 -0.08194635 -0.063379414 0.0132328365 -0.015981568 -0.0029408524
0.04097779 -0.06711267 0.06938957 -0.013405943 0.09025991 -0.08364396 0.009036453 0.031589385
0.059059408 -0.0018727627 -0.02299184 -0.07333128 -0.075743705 -0.03439935 0.06733926 0.0027640462
-0.052435625 -0.0940008 -0.0832577 0.08602819 0.0729513 -0.064865425 -0.0058247373 -0.058741115
0.10234583 0.033628915 0.0054929852 0.07124265 -0.022218242 0.10610713 -0.058019213 0.079202764
-0.0810863 -0.057901803 0.032474484 -0.041358635 -0.046348188 0.052771233 0.09028504 0.038388234
-0.014543679 0.07944025 -0.075328626 -0.0056774006 0.002504278 0.0019727966 0.059932925 -0.07087333
0.041876163 0.069061175 0.0026453969 0.08948946 -0.027859712 0.025059894 0.01662496 0.106780075
0.075686954 0.07085183 0.070281215 -0.08342256 0.028183674 0.09387859 -0.040298812 0.042419203
0.0034613146 0.029252345 0.05384309 -0.034882683 -0.086371824 -0.02819366 0.06462716 0.028156763
0.072115496 -0.012717246 -0.04638416 -0.027077414 0.036185842 -0.045105804 -0.034964796 0.06719297
-0.09713152 -0.001565887 -0.040861595 -0.08168413 0.01655983 0.046826743 -0.017820591 0.051614
0.030521104 0.08008645 -0.0014787016 -0.099329196 0.046576064 -0.064223625 -0.07801202 0.078353114
0.08032221 -0.044264838 0.045381665 -0.043425422 -0.015312061 -0.0484355 -0.06834518 0.0016832227
-0.001959067 -0.069937386 0.08648858 -0.013825259 0.05869181 -0.09006643 0.032149866 -0.021386376
0.029870747 -0.06182862 -0.037084185 0.07380785 -0.07198249 -0.0874213 -0.022640431 0.015375364
0.05849958 0.0853878 0.036694147 -0.082416974 -0.049616475 -0.06014529 0.025360717 -0.018874737
0.08921433 -0.025631363 0.06965322 -0.0455486 0.078217566 -0.04809207 -0.0006362809 0.048598588
0.0768133 -0.04274453 -0.023900436 -0.02842998 0.0402908 0.07376955 0.02894177 -0.021268928
00000000: 5d1f a73c 0da4 45bd d0f6 4e3d a44e 8bbc
00000010: b0e4 d43c 238f d9bc 25f8 d8ba 73cf 993c
00000020: d008 79bc 2f53 353c 0243 babd ce9e 393c
00000030: 3729 bbbd e581 c43d 2a30 b33d d063 59bd
00000040: 3f97 e73d d4ea acbc 6e28 5abd 39f0 763d
00000050: f79d 17bd 9fcf 963b d4c1 ea3c 8a30 723c
00000060: b967 4f3d 4a8a dbbd a3f2 2c3d 1aa6 9f3d
00000070: 254d dfbc 4d44 5abd 8025 9cbd ee9e 8d3d
00000080: 35c8 6e3d 350e 113c 3ad8 9ebd aebf 3c3d
00000090: db51 86bc 7e21 4abc ba7b 56bd 0243 333d
000000a0: 9072 593d e74f b63d 6a92 f2bb 3ed0 34bd
000000b0: ec83 babd dafe 14bc 901e a63c 8ee7 993d
000000c0: 7413 38bd e8ff 51bd c36f 7a3d 2268 afbd
000000d0: 97bf 21bd d3ff 8d3c a1e5 e3bc dc32 8b3b
000000e0: eda7 a33b a8ff 873d 336d fdba d8a3 753d
000000f0: a25e 9f3d bc08 9bbd daa3 4b3a b3db 98bd
00000100: 5951 933d b18b 363d 82c8 b5bd 3c74 183d
00000110: 268c b2bd 1953 7abc da53 6a3d c3e1 b7bd
00000120: 5854 abbd 6eba a73d 22ce cb3d 335b b5bd
00000130: eb99 923d f1d6 733d d4b6 603d 57cf 93bd
00000140: 7920 553c 6602 253d 858b 153d 2e07 a53c
00000150: d97a a2bd 5e6e 423d a346 133d 1c34 6a3c
00000160: c67c 46bd 7266 ca3c 5c07 1fbd aa08 953b
00000170: 9fc4 6b3d 0372 533d 651a 35bd f0a8 9b3d
00000180: 5d5f a33d 5050 c83c 0764 c3bc b9ac dc3d
00000190: a07b 8bbd 7ac9 af3c f0ae 2fbd 3167 a53d
000001a0: 6a41 61bd 03d7 97bd 4ffb a6bd 7dd3 a7bd
000001b0: 11cd 81bd 8ace 583c c7eb 82bc 51bb 40bb
000001c0: 54d8 273d 5e72 89bd 1e1c 8e3d 9aa4 5bbc
000001d0: 30da b83d 864d abbd a20d 143c df63 013d
000001e0: 47e8 713d 7d77 f5ba 6259 bcbc b62e 96bd
000001f0: 841f 9bbd 55e6 0cbd 2ae9 893d 0025 353b
00000200: bdc6 56bd 7e83 c0bd 0383 aabd 8c2f b03d
00000210: 7e67 953d 2ad8 84bd 70dd bebb 869a 70bd
00000220: b19a d13d 79be 093d 80fe b33b abe7 913d
00000230: 0803 b6bc b24e d93d 8ea5 6dbd 0f35 a23d
00000240: 9310 a6bd 712a 6dbd f703 053d ac67 29bd
00000250: 99d7 3dbd a626 583d 5de7 b83d fb3c 1d3d
00000260: 9c48 6ebc 92b1 a23d e545 9abd 7d09 babb
00000270: d01e 243b 094a 013b 3a7c 753d 0926 91bd
00000280: 5786 2b3d f26f 8d3d 655e 2d3b 4046 b73d
00000290: 0d3a e4bc 684a cd3c 1131 883c 83af da3d
000002a0: c301 9b3d c41a 913d 99ef 8f3d 72d9 aabd
000002b0: 73e1 e63c 6b43 c03d 5e10 25bd c2bf 2d3d
000002c0: 39d7 623b 9da2 ef3c 928a 5c3d 25e1 0ebd
000002d0: b6e3 b0bd 64f6 e6bc 3f5b 843d 03a9 e63c
000002e0: 4ab1 933d ff5b 50bc 51fd 3dbd 74d1 ddbc
000002f0: 9b37 143d ddc0 38bd 3f37 0fbd 789c 893d
00000300: e4ec c6bd 733e cdba 7d5e 27bd 024a a7bd
00000310: 7ba8 873c 66cd 3f3d 7dfc 91bc 3469 533d
00000320: 6507 fa3c 5d04 a43d fed0 c1ba 1b6d cbbd
00000330: 8bc6 3e3d ad87 83bd c4c4 9fbd 9977 a03d
00000340: f97f a43d 0c4f 35bd 20e2 393d dbde 31bd
00000350: 70df 7abc 4e64 46bd 8ff8 8bbd 959f dc3a
00000360: b163 00bb 553b 8fbd ed20 b13d 5783 62bc
00000370: d366 703d c074 b8bd 94af 033d 7b32 afbc
00000380: 7fb3 f43c 0240 7dbd 96e5 17bd 9228 973d
00000390: 8e6b 93bd f009 b3bd 6d78 b9bc f3e8 7b3c
000003a0: 419d 6f3d cddf ae3d 9a4c 163d 3bca a8bd
000003b0: a53a 4bbd e85a 76bd 47c1 cf3c 319f 9abc
000003c0: 01b6 b63d ddf8 d1bc 59a6 8e3d 2b91 3abd
000003d0: 8830 a03d 31fc 44bd 17cc 26ba 500f 473d
000003e0: 4b50 9d3d e314 2fbd d9ca c3bc fde5 e8bc
000003f0: f707 253d 7d14 973d 4a17 ed3c 2d3c aebc
