crowd_nav/GRL_output/il_model.pth (torch, 143871 bytes, 33 tensors)

w_a f4 [32, 32]
0	0xbf02b4ad	-0.5105694
1	0xbe060a52	-0.13089874
2	0x4005393f	2.081619
3	0xc01662e6	-2.3497863
4	0xbe54a74b	-0.20766942
5	0xc043e8e4	-3.0610895
6	0x3f857684	1.0426793
7	0x3e849d59	0.25901297
8	0x3fc5e2f9	1.5459892
9	0x3ed99f46	0.42504328
10	0xbf9f11f5	-1.2427355
11	0xbee94ee2	-0.45567995
12	0xbfbb52f7	-1.4634694
13	0xc003afb2	-2.0575986
14	0x3ed957ed	0.42449895
15	0xbcaa4a4e	-0.020787384
16	0x3e98e104	0.29859173
17	0xbff3b9f0	-1.9041119
18	0x3f21aca2	0.6315404
19	0x3b962719	0.0045822975
20	0x3fcaac3e	1.5833814
21	0xbefaa4eb	-0.48953947
22	0x3ff91f7b	1.9462732
23	0xbf403d5c	-0.75093627
24	0xbfbd9516	-1.4811122
25	0x3f73ea86	0.9527973
26	0xbec4ff12	-0.38475853
27	0xc0096b1d	-2.1471627
28	0xbf9c149b	-1.2193788
29	0xbedafef3	-0.42772636
30	0xbfc9be29	-1.5761157
31	0x40009960	2.0093613
32	0xbf01b583	-0.5066759
33	0x3f404433	0.75104064
34	0xbf941571	-1.1569043
35	0xbf9f60f8	-1.2451468
36	0x3f490aff	0.78532404
37	0x3e83245f	0.25613686
38	0x3e4e7075	0.20160086
39	0x3e8b304c	0.27185285
40	0xbceb3249	-0.028710501
41	0xbecff276	-0.4061467
42	0xbf5f3aed	-0.8719929
43	0xbe127d61	-0.14305641
44	0x3e840d0f	0.25791213
45	0xc00d15f2	-2.2044644
46	0xbee8ac3c	-0.45443904
47	0xbf5cd2f7	-0.86259407
48	0x3e5e3e32	0.21703413
49	0x3e9d47f8	0.3071897
50	0xbf86e983	-1.0540012
51	0xbe76e2cd	-0.24109955
52	0x3f86b4d2	1.0523932
53	0xbfe48da6	-1.7855728
54	0xc001a320	-2.0255814
55	0xbfe1b600	-1.7633667
56	0x3dfb9df6	0.12285988
57	0x3f9ba9df	1.2161216
58	0xbf5d3d04	-0.8642123
59	0xbf11d3e2	-0.5696393
60	0x3d11786c	0.035515234
61	0x3fc7ddac	1.5614524
62	0x3fc0852c	1.5040641
63	0xbe0ebdad	-0.13939543
64	0xbf26cda2	-0.6515752
65	0xbf34648a	-0.7046591
66	0xbfb91952	-1.4460852
67	0x3edf94f9	0.43668345
68	0xbf8062f5	-1.0030199
69	0x3f641321	0.8909169
70	0xbf3efe39	-0.74606663
71	0xbf8c84f9	-1.097808
72	0xbfdd308e	-1.7280443
73	0x3e951106	0.2911455
74	0x3f6f1805	0.93396026
75	0xbf80a13b	-1.0049204
76	0xbf88d824	-1.0690961
77	0x3ee802dc	0.45314682
78	0xbfaaf53b	-1.3356088
79	0xbdbfea7f	-0.093708985
80	0xbd96e674	-0.07368174
81	0x3e4e4782	0.20144466
82	0xbfb51c9d	-1.4149357
83	0x3f66167d	0.89878064
84	0xbec88de3	-0.3917075
85	0x3e5c2ef0	0.2150228
86	0x3f92d8eb	1.1472448
87	0xbfeb6ae4	-1.8391995
88	0xbfe34d3e	-1.7757947
89	0x3f8fd36e	1.1236398
90	0xbf64150a	-0.89094603
91	0x3f5b7954	0.8573201
92	0xbe3e8b96	-0.18607935
93	0xbcdcdf8b	-0.026962062
94	0x4017c68f	2.371494
95	0xbf4dd4e4	-0.8040297
96	0xbe8a6645	-0.2703115
97	0x40079a25	2.1187832
98	0xbede9714	-0.43474638
99	0x3ed6823e	0.41896242
100	0xbfb3d547	-1.4049462
101	0x3eb3e0b0	0.3513236
102	0x3fb8abfe	1.4427488
103	0xbf2e45ff	-0.68075556
104	0x3e1f6e0c	0.15569323
105	0xbf480a06	-0.78140295
106	0xbdc7981f	-0.09745812
107	0xbf8860cb	-1.0654539
108	0x3e419fcf	0.18908618
109	0xbec7ff4e	-0.3906197
110	0x3f20688c	0.62659526
111	0xbf88e790	-1.0695667
112	0xbf6253fb	-0.88409394
113	0x3f18be76	0.5966562
114	0xbec42782	-0.38311392
115	0x3f23d8c9	0.6400266
116	0xbf403944	-0.7508738
117	0xbe7212b9	-0.23639955
118	0xbfa4d1ea	-1.2876561
119	0x3f3987ea	0.72473013
120	0x3ee743ec	0.45169008
121	0x3eebdfff	0.46069333
122	0xbfb4bc96	-1.4120052
123	0x3fc2e36a	1.5225651
124	0xbf87c0b8	-1.0605688
125	0x3e72ebed	0.23722811
126	0xbefe87ae	-0.4971289
127	0x3ede32e0	0.4339819
128	0x3f0464aa	0.517161
129	0x3e9afb84	0.30270016
130	0xbf221cf8	-0.6332545
131	0xbf76f30f	-0.9646463
132	0xbf92667a	-1.1437523
133	0x3cebc12c	0.028778635
134	0x3f5cb942	0.8622018
135	0xbf8083ff	-1.0040282
136	0xbfa64f51	-1.2992955
137	0x3f9de019	1.2334014
138	0xbcf067a0	-0.029346287
139	0x3defb460	0.11704326
140	0xbfd23962	-1.6423762
141	0x3fda2387	1.7042092
142	0x3ed807e2	0.42193514
143	0x3f97701b	1.1831087
144	0x3c62654b	0.013818095
145	0xbe9fe0aa	-0.31226093
146	0xbf82fecd	-1.0234009
147	0xbeab2e97	-0.33433983
148	0x3e13b58f	0.14424728
149	0x3e7626e0	0.24038267
150	0xbe48cb42	-0.19608787
151	0x3eda34b7	0.42618343
152	0xbfa2cccb	-1.2718748
153	0x3fc26553	1.5187172
154	0xbf734070	-0.950202
155	0x3dff931d	0.124792315
156	0xbe8e3273	-0.27772865
157	0xbf5736d6	-0.8406805
158	0xbe965d59	-0.29368094
159	0xbef1970f	-0.4718556
160	0x3f0c5743	0.5482065
161	0x400e670a	2.225039
162	0xbfb389ac	-1.4026389
163	0xbf13b457	-0.5769705
164	0x3f14fb83	0.58196276
165	0xbf07a1db	-0.52981347
166	0xbd4fa452	-0.050693817
167	0x3d08291f	0.03324234
168	0xbddcd11d	-0.10782073
169	0x3ebee2eb	0.372825
170	0x3f5b0f6b	0.855704
171	0x3fd9d14f	1.7017001
172	0xbfe7409f	-1.8066596
173	0x3f32cfde	0.6984843
174	0xbf531b55	-0.8246358
175	0xbd058c6d	-0.032604624
176	0x3fdf61a5	1.7451674
177	0x3fa87863	1.3161739
178	0xbea9c863	-0.33160695
179	0x3d193cc4	0.037411466
180	0xbedc2316	-0.42995518
181	0xbebeebbe	-0.37289232
182	0x3fcbb6e7	1.5915192
183	0x3ee847e1	0.4536734
184	0xbf33a1db	-0.70168847
185	0x3f47d8b9	0.7806507
186	0x3f2d3ef4	0.67674184
187	0xbcf3252e	-0.029680815
188	0xbb926681	-0.004467786
189	0x3ec1f59b	0.37882695
190	0x4009e7b9	2.1547682
191	0xbdd945f5	-0.10609046
192	0xbf51791e	-0.81825435
193	0xbf918aad	-1.1370445
194	0xbf5ded70	-0.86690426
195	0xbe8d4782	-0.2759362
196	0x3e5aca64	0.21366268
197	0x3f0ffa71	0.5624152
198	0xbe5150cc	-0.20440978
199	0x3f03beaf	0.51462835
200	0xbd15c63a	-0.036565997
201	0xbf2715bc	-0.6526754
202	0x3fa46523	1.2843364
203	0xbe642ff7	-0.22283922
204	0xbf77140e	-0.96514976
205	0xbf5ce385	-0.8628467
206	0x3e09b75f	0.13448857
207	0xbf26030d	-0.64848405
208	0xbf8d6f34	-1.1049562
209	0xbf1ac601	-0.6045838
210	0xbf273e69	-0.65329605
211	0xbf1f2ba8	-0.6217599
212	0xc009ef9a	-2.155249
213	0xbe37da0d	-0.17954274
214	0x3f1d139b	0.6135804
215	0x3c589a54	0.013220388
216	0x3e9dda58	0.30830646
217	0xc0296a71	-2.6471217
218	0xbfc1385f	-1.5095328
219	0xbd6aefbb	-0.05735753
220	0xbe644f17	-0.22295795
221	0x3bb0b7ed	0.0053930194
222	0xbe556f26	-0.20843181
223	0xbfbf70c9	-1.4956294
224	0x3f029cbb	0.510204
225	0x3f756e7e	0.9587172
226	0xbf561aac	-0.8363445
227	0xbe2d5b8a	-0.1692945
228	0x3ed4171a	0.41423875
229	0x3e55fd39	0.20897378
230	0xbedbc356	-0.42922467
231	0x3f8d4ae3	1.1038479
232	0xbec4630c	-0.38356817
233	0x3f80e6b4	1.0070405
234	0xc0039bd0	-2.056385
235	0x3c108659	0.0088210935
236	0xbedc3386	-0.4300806
237	0x3e8ac2be	0.27101701
238	0xbde144fa	-0.10999484
239	0xbf06c53c	-0.52644706
240	0xbebf4d5c	-0.37363708
241	0xbf366226	-0.7124351
242	0xbd8acf7d	-0.067778565
243	0xbf273687	-0.6531758
244	0xbcafc201	-0.021454813
245	0x3f99ba36	1.2009952
246	0x3ea915fa	0.3302458
247	0xbff1481a	-1.8850129
248	0xbfb9b134	-1.4507203
249	0xbfb0ceaf	-1.3813075
250	0xbfbbe2b8	-1.4678564
251	0x40117294	2.2726183
252	0xbfc9a5c8	-1.5753717
253	0xbf241e5b	-0.6410882
254	0x3f6f73e0	0.93536186
255	0x3fdc4a32	1.7210143

w_r.0.weight f4 [64, 9]
0	0x3eb39f35	0.35082403
1	0xbde3734e	-0.11105977
2	0x3f0903be	0.53521335
3	0xbf2ae48b	-0.6675498
4	0xbea599ce	-0.32343906
5	0x3d06e260	0.03293073
6	0xbdb43475	-0.08799068
7	0x3cad9160	0.021187484
8	0xbcfc4f69	-0.030799584
9	0xbf1caf1e	-0.6120471
10	0xbeab18b0	-0.33417273
11	0xbf587902	-0.84559643
12	0xbe7b9038	-0.24566734
13	0xbe245dc1	-0.1605139
14	0xbdc6dfdb	-0.09710666
15	0xbe12c94b	-0.143346
16	0xbe93c15b	-0.28858456
17	0xbe479e33	-0.19493942
18	0x3d863772	0.06553544
19	0x3d120583	0.035649788
20	0xbe86e706	-0.26348132
21	0xbe8028bb	-0.25031075
22	0xbdc0ed01	-0.09420205
23	0xbea18102	-0.31543738
24	0xbe591048	-0.21197617
25	0x3e394cbb	0.18095677
26	0x3d491061	0.049087886
27	0xbe6c3fab	-0.23071162
28	0xbe442386	-0.19154176
29	0x3f292970	0.66078854
30	0xbf0d42d3	-0.5518009
31	0x3e5bd2a4	0.21467072
32	0xbe2bcadb	-0.16776602
33	0xbbe45e22	-0.0069692293
34	0x3ea15971	0.3151355
35	0x3e133493	0.14375524
36	0x3dfc6810	0.12324536
37	0xbc1935ad	-0.009351176
38	0xbea8b48c	-0.32950246
39	0xbcdba21d	-0.0268107
40	0xbeaad640	-0.33366585
41	0xbe1a7550	-0.15083814
42	0x3c98cd0e	0.018652465
43	0xbe895e04	-0.2682954
44	0xbe6162b3	-0.22010307
45	0x3e3e3dc9	0.18578257
46	0x3e1b14ea	0.15144697
47	0xbf33e3cf	-0.70269483
48	0xbe985309	-0.2975085
49	0xbd663f2b	-0.056212585
50	0x3e67b330	0.22626948
51	0x3e521199	0.20514525
52	0xbca2ee95	-0.019889155
53	0xbe845acf	-0.2585053
54	0xbdf4fa2b	-0.11961778
55	0x3d8b3947	0.06798034
56	0x3ef81ea3	0.48460874
57	0xbf302917	-0.688127
58	0x3e067134	0.13129121
59	0xbe54eb18	-0.20792806
60	0x3e2a881b	0.16653483
61	0xbe9596b6	-0.29216546
62	0x3e03a7b0	0.12856936
63	0xbf3fdb41	-0.7494393
64	0xbde70504	-0.112802535
65	0xbf81e5e7	-1.0148286
66	0xbe9bbbe9	-0.30416802
67	0xbe0b84a0	-0.13624811
68	0x3c567700	0.013089895
69	0xbe2354ec	-0.15950364
70	0x3e32872b	0.17434375
71	0x3e0c39c6	0.13693914
72	0xbe2159bb	-0.15756886
73	0xbe887403	-0.2665101
74	0xbdd1e7c6	-0.102492854
75	0xbe6ec321	-0.23316623
76	0x3e81da2c	0.25361764
77	0x3deea7c6	0.11653094
78	0xbe12de6b	-0.14342658
79	0xbeb0a1d9	-0.3449848
80	0xbe958945	-0.2920629
81	0x3e9b3104	0.30310833
82	0xbe5891c1	-0.2114935
83	0x3ef948e1	0.48688415
84	0x3e57b77d	0.21066089
85	0xbeaeba11	-0.34126332
86	0x3e2f28de	0.17105433
87	0xbd47e548	-0.048802644
88	0xbf166e0b	-0.5876166
89	0xbda4d3b6	-0.08048193
90	0xbdf7cfc4	-0.12100175
91	0xbc357541	-0.011075319
92	0x3cd2339b	0.025659373
93	0xbebd3c6f	-0.3696017
94	0xbebe594c	-0.37177503
95	0xbd3b772b	-0.045767944
96	0x3d1db65a	0.038503982
97	0xbedf0d53	-0.43564853
98	0xbe5bc2b3	-0.2146099
99	0x3d080e20	0.033216596
100	0x3cc711f1	0.024300547
101	0x3d57813e	0.05261349
102	0xbee2ec56	-0.44320935
103	0xbf169c02	-0.588318
104	0x3e94c6ea	0.2905801
105	0xbd820e53	-0.063503884
106	0x3cc87a1a	0.024472285
107	0xbda2a56e	-0.079417095
108	0xbe146d5e	-0.14494845
109	0xbcedf6d6	-0.029048365
110	0xbe5d9753	-0.21639757
111	0xbe92f86e	-0.28705162
112	0xbd965470	-0.07340324
113	0xbe431cf8	-0.1905402
114	0xbea9ebae	-0.33187622
115	0x3e228826	0.15872249
116	0x3e5a5040	0.21319675
117	0x3d01eed7	0.031721916
118	0xbe3135cd	-0.1730568
119	0xbf964dd4	-1.1742501
120	0x3e893f38	0.26806045
121	0x3d532648	0.05155018
122	0xbe015ea8	-0.12633765
123	0xbe8cac3c	-0.27475154
124	0xbd55010f	-0.052002963
125	0x3db98320	0.09058213
126	0xbe16a82b	-0.14712588
127	0xbe84981e	-0.25897306
128	0x3d8a0c17	0.06740587
129	0xbf2f9f38	-0.68602324
130	0xbecf3aa9	-0.40474442
131	0xbe62984b	-0.22128408
132	0x3d000781	0.031257156
133	0xbec4f508	-0.38468194
134	0x3cab8a3c	0.020939939
135	0xbe3ba6c9	-0.18325342
136	0xbe43ea61	-0.19132377
137	0x3d3e78a4	0.04650177
138	0xbe9f08e2	-0.31061465
139	0xbda13035	-0.07870523
140	0xbe89d68f	-0.26921508
141	0xbe842eac	-0.25816858
142	0xbe20bf4c	-0.15697974
143	0xbd95e0e4	-0.07318285
144	0xbd9c3c3e	-0.07628678
145	0x3e309275	0.17243369
146	0xbde27c41	-0.11058856
147	0xbebac190	-0.364758
148	0xbeb66cf5	-0.35630003
149	0xbb484756	-0.0030560098
150	0x3e0f3714	0.13985854
151	0x3d03e731	0.032202903
152	0x3d388698	0.045050234
153	0xbecf7061	-0.40515426
154	0xbe09a65e	-0.1344237
155	0xbf3b872a	-0.7325312
156	0x3f038a08	0.51382494
157	0x3e414df3	0.18877392
158	0xbd23d700	-0.03999996
159	0xbc96437f	-0.018342732
160	0xbdda68f2	-0.10664548
161	0xbea31086	-0.31848544
162	0x3d2dc343	0.042422544
163	0x3ed4aba2	0.41537195
164	0xbf42f817	-0.76159805
165	0xbc7be380	-0.015374064
166	0xbe16238c	-0.14661998
167	0xbe9c2ffa	-0.30505353
168	0xbea3ca6d	-0.31990376
169	0xbeb905f6	-0.3613736
170	0x3e0e80ec	0.13916367
171	0x3eae0213	0.33985958
172	0xbe9e4d2e	-0.30918258
173	0xbf876728	-1.0578356
174	0xbea0d9cb	-0.31416163
175	0xbea30502	-0.31839758
176	0x3e6aef76	0.2294291
177	0xbe832a4c	-0.25618207
178	0x3e6543ae	0.22389099
179	0xbccbb0a3	-0.0248645
180	0x3ce4eadc	0.02794402
181	0xbed08cb3	-0.40732345
182	0x3f997e1d	1.1991612
183	0xbed3077c	-0.41216648
184	0x3e8fa03a	0.2805193
185	0xbd3097c0	-0.04311347
186	0xbe48aca4	-0.19597107
187	0xbe193182	-0.14960292
188	0x3c2d4a97	0.010576866
189	0x3e38bfe4	0.1804195
190	0x3ccb033f	0.024781821
191	0x3ed5d6be	0.41765398
192	0x3f21b44e	0.6316575
193	0xbe5165ca	-0.20448986
194	0x3d08dc6b	0.033413332
195	0xbc9441a7	-0.018097712
196	0xbe026540	-0.12733936
197	0x3e4ce80b	0.20010392
198	0x3ded1efd	0.11578176
199	0xbd0a4c2f	-0.03376406
200	0x3f35e111	0.7104655
201	0xbef5fcbc	-0.48044384
202	0x3daed2bd	0.08536289
203	0x3ea129f4	0.3147732
204	0x3dcadb63	0.09905126
205	0xbcc32da5	-0.023825476
206	0x3d86aaaa	0.0657552
207	0x3d1b8f41	0.037978414
208	0x3db5f961	0.08885456
209	0x3f1e2600	0.61776733
210	0x3d1a6013	0.03768928
211	0xbe6005bd	-0.21877189
212	0x3d2bce56	0.041944824
213	0x3d37f110	0.04490763
214	0xbe7bf386	-0.24604616
215	0x3d9693bd	0.073523976
216	0x3f0366aa	0.5132853
217	0x3e921b34	0.2853638
218	0x3f0dc0f2	0.55372536
219	0x3e810372	0.2519794
220	0xbe7bdf6b	-0.24596946
221	0xbc44842b	-0.011994402
222	0xbe9bf5fd	-0.30461112
223	0x3dabee8c	0.083951086
224	0xbdb38ce3	-0.087671064
225	0xbf1317df	-0.574583
226	0x3d8e7d39	0.06957478
227	0xbf43dc52	-0.7650806
228	0xbe9a6980	-0.30158615
229	0xbe99dd1e	-0.30051512
230	0xbe139028	-0.1441046
231	0xbe64f603	-0.22359471
232	0xbe140ae7	-0.14457284
233	0xbe65fec9	-0.22460474
234	0x3f07a262	0.5298215
235	0xbe3b6e48	-0.18303788
236	0x3f443c61	0.7665463
237	0x3e8e0680	0.27739334
238	0xbdbb8b31	-0.09157408
239	0xbd4bdb40	-0.04976964
240	0x3c300136	0.010742476
241	0xbe5d507a	-0.2161273
242	0xbddf0245	-0.10889105
243	0xbeb6b8c3	-0.35687837
244	0xbe6ce0ef	-0.2313268
245	0xbf7bea6e	-0.98404586
246	0x3f1d7a84	0.6151507
247	0x3ebcff6b	0.36913618
248	0xbcc40f00	-0.023932934
249	0xbe88615e	-0.26636785
250	0xbd0a21ae	-0.033723526
251	0xbc600a75	-0.013674368
252	0xbf08dc29	-0.5346094
253	0xbe1f888d	-0.15579434
254	0xbf7c2888	-0.98499346
255	0xbeccc0ca	-0.39990836

w_r.0.bias f4 [64]
0	0x3e6fff5e	0.23437259
1	0xbdd8532e	-0.1056274
2	0xbc2f698c	-0.010706317
3	0xbc9070fc	-0.017632
4	0x3c203789	0.009778866
5	0x3e1065c4	0.1410132
6	0xbe8b3ac3	-0.2719327
7	0x3ca19570	0.019724578
8	0xbda8db25	-0.082449235
9	0xbda62a47	-0.081135325
10	0xbd805003	-0.06265261
11	0x3d77e856	0.060524307
12	0xbe535ee0	-0.2064166
13	0xbe1ea909	-0.1549417
14	0xbcac1cf9	-0.021009909
15	0x3d378be9	0.044811163
16	0x3de92480	0.11383915
17	0xbea06f87	-0.3133509
18	0x3e1ad9a3	0.15122084
19	0xbe606a76	-0.21915612
20	0xbe31a282	-0.17347148
21	0xbe989f23	-0.29808912
22	0xbe9b3e35	-0.30320898
23	0xbe3cbfdf	-0.18432568
24	0x3ca59cdb	0.020216396
25	0x3e71ed22	0.23625615
26	0xbec2c71a	-0.38042527
27	0x3e8df861	0.2772856
28	0x3df39641	0.11893893
29	0xbe54da8d	-0.20786496
30	0x3d585ac5	0.05282094
31	0x3e0b3dcb	0.13597791
32	0x3d6f374b	0.05840234
33	0xbe2a5a18	-0.1663593
34	0x3dda72b4	0.10666409
35	0x3e688a2d	0.2270896
36	0xbe3da6a6	-0.18520603
37	0x3e742430	0.2384193
38	0x3e7fdd19	0.24986686
39	0xbec02209	-0.37525967
40	0xbdd91b16	-0.10600869
41	0xbdb0d337	-0.08634036
42	0xbe93d67b	-0.28874573
43	0xbebc904f	-0.3682885
44	0x3e3b4add	0.18290277
45	0xbdd271ea	-0.10275634
46	0xbe3143bf	-0.17311
47	0xbea95a80	-0.3307686
48	0xbee60ef0	-0.4493327
49	0x3c2b0b74	0.010439742
50	0x3ce848bc	0.028354995
51	0xbcab3116	-0.02089743
52	0xbd917dde	-0.071040854
53	0xbca66dc5	-0.020316014
54	0xbdd5ee0b	-0.10445794
55	0xbe027b72	-0.12742403
56	0x3e2fa279	0.17151822
57	0xbe99db42	-0.30050093
58	0xbcf022c2	-0.029313449
59	0xbcebabba	-0.028768409
60	0xbe0a7d6b	-0.13524406
61	0xbed80c35	-0.42196813
62	0xbe2a5e25	-0.16637476
63	0xbe8f5e74	-0.2800175

w_r.2.weight f4 [32, 64]
0	0x3e77275b	0.24136107
1	0xbe6be446	-0.23036298
2	0x3dc76314	0.097356945
3	0x3e08942c	0.13337773
4	0xbd18ede1	-0.037336234
5	0xba9db86e	-0.0012033114
6	0x3e1fe9f9	0.15616597
7	0x3ea0f3ab	0.31435904
8	0xbdd8551f	-0.105631106
9	0xbe1d39d8	-0.15354097
10	0xbd4255b0	-0.047445
11	0xbdd0795b	-0.10179397
12	0xbdb61dd2	-0.088924065
13	0x3eef827c	0.4677924
14	0x3dde4639	0.10853238
15	0x3d7b2ef4	0.061324075
16	0x3d2959be	0.04134535
17	0x3e81892e	0.25299972
18	0xbe8568b9	-0.2605646
19	0x3defb1b8	0.11703819
20	0xbe3a7634	-0.18209153
21	0xbe7c15f8	-0.24617755
22	0x3dca36fe	0.0987377
23	0xbe24aabd	-0.16080756
24	0xbef68d18	-0.4815452
25	0xbf0bea9e	-0.5465487
26	0xbf0bf68a	-0.54673064
27	0x3c3b7e54	0.011443693
28	0x3e102fd9	0.14080752
29	0x3e6063ac	0.21913022
30	0xbe2a1be3	-0.166122
31	0xbdd03bd3	-0.101676606
32	0xbe480df6	-0.19536576
33	0x3b9b2f15	0.004735837
34	0xbcac1264	-0.021004863
35	0xbc8531c0	-0.016259074
36	0xbe5f685a	-0.2181715
37	0x3bf091c8	0.007341597
38	0xbd08c1b0	-0.03338784
39	0x3def3e5b	0.11681815
40	0xbdb898f2	-0.09013547
41	0x3e0bdd5d	0.13658662
42	0xbd8b49a4	-0.06801155
43	0xbee03ff4	-0.43798792
44	0x3cc5ffd2	0.024169836
45	0xbe207a1d	-0.15671583
46	0xbe832daf	-0.2562079
47	0x3dc30648	0.095226824
48	0xbe26d38a	-0.16291633
49	0x3ec41567	0.3829758
50	0xbd429388	-0.047503978
51	0xbcacd80d	-0.021099115
52	0xbe025288	-0.12726796
53	0x3e15e16d	0.14636774
54	0x3cb84f88	0.022498861
55	0x3c89e413	0.016832387
56	0x3db4129b	0.08792611
57	0x3dbf1452	0.09330048
58	0x3def3982	0.116808906
59	0xbd47607c	-0.048676
60	0x3da866ee	0.08222757
61	0xbda51c59	-0.080620475
62	0xbd454827	-0.048164513
63	0xbd2cf178	-0.04222247
64	0xbe9301ab	-0.2871221
65	0xbe55648e	-0.2083914
66	0xbcd45e2a	-0.025923807
67	0xbcd45fc0	-0.025924563
68	0xbd2443f3	-0.040103864
69	0x3c5a1229	0.013309994
70	0x3e257c4d	0.16160698
71	0x3c8d6d16	0.01726393
72	0x3dc8ce45	0.09804968
73	0xbe94b7d0	-0.29046488
74	0x3c01da96	0.00792565
75	0xbd478646	-0.048712038
76	0xbdce6ace	-0.10078965
77	0x3eab093f	0.33405492
78	0xbe4c8af2	-0.19974878
79	0xbd85e835	-0.065384306
80	0x3d82606f	0.063660495
81	0xbd62a124	-0.055329457
82	0x3e5ca768	0.21548235
83	0x3dfbd340	0.12296152
84	0xbd60b482	-0.054859646
85	0xbccfab12	-0.025350127
86	0x3e18d60b	0.14925401
87	0x3e13b471	0.14424302
88	0xbec1949a	-0.37808686
89	0xbe236470	-0.15956283
90	0xbe40d869	-0.18832554
91	0x3d2d7b14	0.042353705
92	0xbda3bd13	-0.079950474
93	0x3e541c11	0.20713831
94	0x3cbbe9de	0.022938665
95	0xbd598a4e	-0.053110413
96	0xbda61b66	-0.081106946
97	0x3cd779b0	0.026303142
98	0x3df4124e	0.11917554
99	0x3dfa9920	0.122362375
100	0x3dd0b621	0.10190988
101	0xbe44ac9e	-0.19206473
102	0x3d92ed1b	0.071741305
103	0x3dbe818d	0.093020536
104	0x3d756e35	0.059919555
105	0x3daf2af7	0.08553117
106	0x3dfad9f3	0.12248602
107	0xbe4f9261	-0.20270683
108	0xbdd2c831	-0.1029209
109	0x3d301884	0.04299213
110	0xbdfb3d45	-0.122675456
111	0x3cbe6488	0.023241296
112	0xbd5d151c	-0.05397521
113	0xbd121a3e	-0.035669558
114	0x3c62b754	0.013837654
115	0xbed9f581	-0.42570117
116	0x3d982c78	0.07430357
117	0x3db5fb5c	0.088858336
118	0xbddf159a	-0.10892792
119	0x3e8cf134	0.27527773
120	0x3d0cf806	0.03441622
121	0x3c961a50	0.018323094
122	0x3da288c8	0.07936245
123	0x3d1a96fb	0.037741642
124	0xbd0d96db	-0.034567695
125	0xbe396b4c	-0.18107337
126	0x3da75a7e	0.08171557
127	0xbb7e7100	-0.0038824677
128	0x3eb225a6	0.34794348
129	0xbee673b3	-0.45010146
130	0x3dfaa9fc	0.12239453
131	0x3e32fd7c	0.17479509
132	0xbd766027	-0.06015029
133	0xbe2cd2c6	-0.16877279
134	0xbe674d21	-0.22588016
135	0x3defd407	0.11710363
136	0xbdcce591	-0.10004724
137	0x3eb0c1ac	0.3452276
138	0xbcbd1897	-0.023083014
139	0x3c236303	0.009972337
140	0x3c50bd60	0.012740463
141	0x3e8392ee	0.25698036
142	0xbdb09930	-0.08622968
143	0x3d1c9e90	0.038237154
144	0xbdc6f552	-0.0971476
145	0x3e479a1b	0.1949238
146	0xbdc7012a	-0.09717019
147	0xbe436aa4	-0.19083649
148	0x3ea1d16c	0.3160509
149	0x3d9e83e4	0.0774
150	0xbdd95ba8	-0.10613185
151	0x3e166b10	0.14689279
152	0x3e9ec5af	0.31010196
153	0xbec7f715	-0.39055696
154	0xbcd1df53	-0.025619185
155	0x3e208a79	0.15677823
156	0x3e413655	0.18868382
157	0x3dd9297b	0.10603615
158	0xbef05d50	-0.46946192
159	0x3db04e2f	0.08608662
160	0xbdf6b60c	-0.120464414
161	0x3e283f68	0.16430438
162	0x3da91a1f	0.08256935
163	0xbde95209	-0.113926
164	0xbe551054	-0.2080701
165	0xbee5cbe1	-0.4488211
166	0xbdbf49de	-0.09340261
167	0xbed9e52f	-0.42557666
168	0xbdef5e20	-0.11687875
169	0x3c962cd5	0.018331924
170	0x3cead3bb	0.028665414
171	0x3b45da20	0.0030189827
172	0x3b41ba3c	0.0029560467
173	0x3d250929	0.04029194
174	0xbe100f36	-0.14068303
175	0x3dfe5894	0.12419239
176	0x3e830068	0.25586247
177	0xbc816761	-0.015796365
178	0x3e537191	0.20648791
179	0xbda8ae4a	-0.08236368
180	0x3d540956	0.051766716
181	0x3e35e970	0.1776483
182	0xbda0e0b4	-0.07855359
183	0x3e27728e	0.16352293
184	0x3e06d866	0.13168487
185	0x3c0b6fa0	0.0085105
186	0x3d786b41	0.06064916
187	0x3ced24a7	0.028948141
188	0xbe213908	-0.15744412
189	0xbdc7b002	-0.09750368
190	0xbeb40fd6	-0.35168332
191	0xbd868ec0	-0.06570196
192	0xbed43df3	-0.41453514
193	0xbf047bd9	-0.51751477
194	0xbd242f8a	-0.0400844
195	0x3bcf817d	0.006332575
196	0x3db2132f	0.08695065
197	0x3e8e6df3	0.2781826
198	0xbe6e2d65	-0.23259504
199	0xbf0b695a	-0.5445763
200	0x3db73a74	0.08946696
201	0xbd5f8d7b	-0.054578286
202	0xbd86e96f	-0.06587493
203	0x3d8153fa	0.063148454
204	0xbd928c98	-0.071557224
205	0xbeb6e8be	-0.35724443
206	0xbc40404d	-0.0117340805
207	0xbde86cb6	-0.1134886
208	0x3e027397	0.12739407
209	0xbe5ca062	-0.21545556
210	0xbee6a9e1	-0.45051482
211	0x3e8b6de6	0.27232283
212	0x3d03cf6a	0.032180227
213	0x3ddc3db4	0.107539564
214	0xbd3f2ec7	-0.04667547
215	0x3c2f217a	0.010689134
216	0xbe97d22b	-0.29652533
217	0xbc1223fa	-0.00891971
218	0x3e03658f	0.1283171
219	0x3dbb4fa2	0.09146048
220	0xbeb8e425	-0.3611156
221	0xbd22ce0c	-0.039747283
222	0x3de727f5	0.11286918
223	0x3e142a15	0.14469178
224	0xbd9f71f3	-0.07785406
225	0x3c9e875d	0.019351656
226	0x3cc7cbd8	0.024389192
227	0xbea954fd	-0.33072653
228	0xbcdcd001	-0.026954653
229	0xbd0678ff	-0.032830235
230	0xbe29aefa	-0.16570655
231	0x3c60f2d4	0.01372977
232	0xbe3f72bf	-0.18696116
233	0x3d125fe9	0.035736
234	0xbd0c15b9	-0.034200404
235	0x3d9bd943	0.07609799
236	0x3e75e3a3	0.24012618
237	0x3e1e7e11	0.15477778
238	0x3e112fd7	0.14178406
239	0xba837980	-0.0010030717
240	0x3e7a3a27	0.24436246
241	0x3f01a5cf	0.5064363
242	0xbda0af7b	-0.0784597
243	0xbe048ceb	-0.12944381
244	0xbd9a42f9	-0.07532305
245	0x3e33c35d	0.17554994
246	0x3dfefe00	0.124507904
247	0xbed350fb	-0.4127272
248	0x3d951313	0.07279029
249	0xbd89f9bc	-0.06737086
250	0xbe426ea2	-0.18987516
251	0x3e1ae0b7	0.15124784
252	0xbddb7851	-0.10716308
253	0xbcf70802	-0.030155186
254	0xbe6f998d	-0.23398419
255	0x3d6df73c	0.05809711

w_r.2.bias f4 [32]
0	0xbe53ebe7	-0.20695458
1	0x3e2bf177	0.1679133
2	0x3e0fa79d	0.14028783
3	0x3ea1ce23	0.31602582
4	0xbd9cad33	-0.07650223
5	0xbe1f669e	-0.15566489
6	0x3cd6c90f	0.02621892
7	0x3db7e499	0.089791484
8	0x3e29f12b	0.16595905
9	0xbdc8a61b	-0.09797307
10	0xbda3318a	-0.07968433
11	0x3c67064d	0.014100623
12	0xbd23146c	-0.039814398
13	0xbb1c758c	-0.0023873774
14	0xbd48f7be	-0.04906439
15	0xbd77bdd1	-0.060483757
16	0xbe1d5d4f	-0.15367626
17	0xbd72910b	-0.059220355
18	0x3eb0d650	0.34538507
19	0x3dab86e1	0.083753355
20	0x3e3adade	0.18247554
21	0xbd1ded8e	-0.038556628
22	0x3d096528	0.033543736
23	0x3e433403	0.1906281
24	0xbe021039	-0.12701501
25	0x3e8f5568	0.27994847
26	0x3dbaf4b7	0.09128707
27	0xbc199d43	-0.009375873
28	0x3dbf2077	0.09332364
29	0xbdd1134e	-0.1020876
30	0x3e0527bc	0.13003439
31	0x3e411865	0.18856962

w_h.0.weight f4 [64, 5]
0	0x3dba5f3f	0.09100198
1	0xbe4e9fe6	-0.20178184
2	0xbf0e07cc	-0.5548065
3	0xbf2d67e2	-0.6773664
4	0xbee35df5	-0.4440762
5	0x3e1dc951	0.15408827
6	0x3dfeab25	0.12434987
7	0xbdfc6df5	-0.1232566
8	0x3f3f94b2	0.74836266
9	0xbe76b155	-0.24091084
10	0xbd9bcef1	-0.0760783
11	0xbec07b5e	-0.37594122
12	0xbd281585	-0.041036148
13	0xbe518dfc	-0.20464319
14	0x3e1e637c	0.15467638
15	0xbe145a8e	-0.14487669
16	0x3ea09a83	0.31367883
17	0xbe861300	-0.2618637
18	0xbf519f16	-0.8188337
19	0x3e0e67e7	0.13906823
20	0x3d86753b	0.06565329
21	0xbd80d5c4	-0.062907726
22	0xbed212b2	-0.41029888
23	0x3f2a0e84	0.664284
24	0xbe6c7f2b	-0.23095386
25	0xbdf58993	-0.11989131
26	0xbc83a2a1	-0.016068758
27	0xbed7a0d7	-0.421149
28	0x3de2bc09	0.11071021
29	0xbd76c95e	-0.060250632
30	0xbee24bae	-0.44198364
31	0xbd0fd4ad	-0.035114933
32	0xbf460b38	-0.7736087
33	0xbe709c0e	-0.2349703
34	0xbdb00103	-0.08593943
35	0xbe88ca31	-0.2671676
36	0xbd77792b	-0.06041829
37	0xbf3583fe	-0.7090453
38	0x3cfe410a	0.031036872
39	0xbe190092	-0.14941624
40	0xbe0d0ccd	-0.13774414
41	0xbd5f224b	-0.054476064
42	0xbcad17b7	-0.021129472
43	0xbd887056	-0.066620514
44	0x3e04d23e	0.12970826
45	0xbca1d561	-0.019755067
46	0xbd330f05	-0.043715496
47	0x3d07999d	0.03310548
48	0xbb4580ba	-0.0030136541
49	0xbe270ef3	-0.16314296
50	0x3eca85f2	0.39555317
51	0xbec6dd66	-0.3884079
52	0xbd977edb	-0.07397243
53	0xbe6dba3a	-0.23215571
54	0xbe111619	-0.14168586
55	0xbe2171be	-0.15766045
56	0xbce0751e	-0.027399596
57	0xbf311562	-0.6917325
58	0xbeacee0a	-0.3377536
59	0xbe956533	-0.2917877
60	0x3e378ed5	0.1792558
61	0x3e9dd0f9	0.30823496
62	0xbd85cee3	-0.06533601
63	0x3ec32766	0.38115996
64	0xbe9037b6	-0.28167504
65	0xbdb953aa	-0.09049161
66	0xbe2e81b5	-0.17041667
67	0xbedd956d	-0.43278065
68	0xbf1546a8	-0.5831094
69	0xbefbeab5	-0.49202505
70	0x3e9d2771	0.30694154
71	0xbd624872	-0.05524487
72	0x3f3853cc	0.72002864
73	0xbda017ee	-0.07817064
74	0xbea30339	-0.31838396
75	0xbe9afc2d	-0.3027052
76	0xbe8a2d27	-0.26987574
77	0xbe3c6d9a	-0.18401185
78	0xbeea5368	-0.4576676
79	0xbdc2f146	-0.095186755
80	0xbe88911f	-0.2667322
81	0x3e3456d2	0.17611244
82	0x3f2ce40c	0.6753547
83	0xbc282250	-0.010262087
84	0xbd9360f3	-0.07196226
85	0xbe75192b	-0.23935382
86	0xbe8bb6e1	-0.27287963
87	0xbeff2121	-0.49829963
88	0xbf3cf73b	-0.73814744
89	0x3e4f4b53	0.20243578
90	0x3e4e33b1	0.20136906
91	0x3e88bb6e	0.26705498
92	0xbf10bf17	-0.5654158
93	0x3e4c3f8c	0.19946116
94	0x3da6add2	0.08138622
95	0xbe987f69	-0.29784706
96	0x391b26c3	0.00014796392
97	0x3e78936e	0.2427499
98	0xbf08df58	-0.53465796
99	0xbe0d5ed9	-0.13805713
100	0xbe8da286	-0.27663058
101	0x3de5b83b	0.1121678
102	0x3e965891	0.29364446
103	0x3eb286ec	0.34868562
104	0xbea3128b	-0.31850085
105	0x3d45d9b0	0.048303306
106	0xbc161cd1	-0.009162144
107	0x3ec3e793	0.38262615
108	0x3e2c17aa	0.16805902
109	0xbeb9d9ab	-0.3629888
110	0x3ebf75ed	0.37394658
111	0x3e85641f	0.2605295
112	0xbebc089f	-0.36725327
113	0xbd5be025	-0.053680558
114	0xbe950f98	-0.2911346
115	0xbe3bacf6	-0.18327698
116	0xbe61b119	-0.22040214
117	0x3ed95998	0.42451167
118	0x3e842eea	0.25817043
119	0x3ec71662	0.38884264
120	0x3e44cee6	0.1921955
121	0x3df8b3d9	0.12143678
122	0x3f365ac1	0.7123223
123	0xbf28f9c9	-0.6600614
124	0xbdf272f7	-0.11838334
125	0x3d931dd5	0.071834244
126	0x3e0e9cc0	0.13926983
127	0xbe4e3b3b	-0.20139782
128	0x3f40d82e	0.75329864
129	0xbea5df6c	-0.3239702
130	0xbe5856df	-0.21126889
131	0x3e47a227	0.1949545
132	0xbdefefb7	-0.11715644
133	0x3e3959b1	0.18100621
134	0xbe99edf2	-0.3006435
135	0xbea82a0f	-0.32844588
136	0xbe7aff85	-0.24511535
137	0xbebbab06	-0.36653918
138	0xbf38875e	-0.72081554
139	0xbf0c051d	-0.546953
140	0xbc6c4b8e	-0.0144223105
141	0xbe4e7071	-0.2016008
142	0x3f077b18	0.529222
143	0x3dc273ca	0.09494741
144	0xbde355c5	-0.111003436
145	0xbe95aec3	-0.29234895
146	0xbe8b2a6c	-0.27180803
147	0xbe31e4d5	-0.17372449
148	0x3eac02aa	0.33595783
149	0xbe7086cc	-0.23488921
150	0x3b9ab73a	0.0047215493
151	0x3e029b8b	0.12754647
152	0xbf1fb45b	-0.62384576
153	0xbec2e6f2	-0.38066822
154	0xbd09bd39	-0.033627722
155	0x3dfdf954	0.12401071
156	0xbe2daa71	-0.1695955
157	0x3f0cca93	0.54996604
158	0xbf344493	-0.70417136
159	0x3daafb83	0.08348753
160	0x3dd8c790	0.105849385
161	0xbd9111d1	-0.07083476
162	0x3e9f0ebb	0.31065926
163	0xbe7c8c61	-0.24662925
164	0x3e24c1fa	0.16089621
165	0x3ea6fe8f	0.32616088
166	0x3d3120f1	0.043244306
167	0x3ea8ef0a	0.32994872
168	0x3d4d929c	0.050188646
169	0x3e36be98	0.17846143
170	0xbe61937e	-0.2202892
171	0xbda25653	-0.07926621
172	0x3ec64018	0.38720775
173	0xbeba1c6c	-0.3634981
174	0x3dbe060a	0.092784956
175	0xbecb8670	-0.39751005
176	0xbe46853f	-0.19386767
177	0xbde288e5	-0.11061267
178	0xbe05cbe8	-0.13066065
179	0xbdebb6b5	-0.11509458
180	0xbeb36d87	-0.350445
181	0xbe9be132	-0.30445248
182	0xbf3221b6	-0.6958269
183	0x3ea22874	0.31671488
184	0x3e85b82d	0.26117077
185	0xbea298df	-0.31757256
186	0xbe72b089	-0.23700155
187	0x3a13c5f8	0.00056371046
188	0x3deb2a86	0.1148272
189	0xbec1ffc4	-0.37890446
190	0x3ead4dd3	0.33848438
191	0x3ce7c536	0.02829228
192	0xbe58e06e	-0.21179363
193	0x3e863a26	0.2621624
194	0x3decbb9f	0.115592234
195	0xbe549be2	-0.2076259
196	0x3c5a7fca	0.013336131
197	0xbf420c5b	-0.758001
198	0x3f07b813	0.5301525
199	0xbec0cc5f	-0.37655923
200	0x3c59b249	0.013287135
201	0xbd9497e3	-0.072555326
202	0xbe639237	-0.22223745
203	0xbe433e9b	-0.19066851
204	0x3e0422fc	0.1290397
205	0xbdaf4fb7	-0.08560126
206	0x3e81ee96	0.2537734
207	0x3f4a347f	0.7898635
208	0x3f1316ac	0.5745647
209	0xbf067d31	-0.52534777
210	0x3c1174de	0.008877961
211	0x3ceb5d54	0.028731026
212	0xbea4cc94	-0.3218733
213	0xbecc42b6	-0.39894646
214	0xbe35e550	-0.17763257
215	0x3e230598	0.15920103
216	0x3e338174	0.17529851
217	0x3f5d6757	0.8648581
218	0x3f461a38	0.77383757
219	0xbe400314	-0.18751174
220	0x3df89714	0.12138191
221	0x3d0c5920	0.034264684
222	0x3ea6f5eb	0.32609496
223	0xbea3468a	-0.31889755
224	0xbf096954	-0.5367634
225	0x3cba3994	0.022732534
226	0x3dbdf2ea	0.09274848
227	0xbeaadc31	-0.33371118
228	0xbd6a1de0	-0.057157397
229	0xbee2ce22	-0.44297892
230	0xbb5a7c56	-0.003333827
231	0x3e601379	0.21882428
232	0x3f63307c	0.88745856
233	0xbe30f48b	-0.17280786
234	0xbe309082	-0.17242625
235	0xbd43e7bb	-0.047828417
236	0xbcc195db	-0.023631027
237	0x3f040866	0.51575315
238	0x3f167922	0.58778584
239	0x3d4e75dc	0.05040537
240	0xbe5f2595	-0.2179168
241	0x3df896ba	0.12138124
242	0xbe603659	-0.21895732
243	0x3f38e8fe	0.7223052
244	0xbd85b582	-0.065287605
245	0x3dcf6f9b	0.10128709
246	0x3c4ba084	0.012428407
247	0x3e5c0344	0.2148562
248	0x3e9ac0e8	0.302253
249	0xbdb1f9fc	-0.08690259
250	0x3e53d53a	0.20686808
251	0x3e55bca2	0.20872739
252	0x3dc81209	0.09769065
253	0xbe4cb855	-0.19992192
254	0xbf0b33c7	-0.5437588
255	0x3e7f7548	0.24947083

w_h.0.bias f4 [64]
0	0xbd5a9638	-0.053365916
1	0xbe856cc0	-0.26059532
2	0xbe55ba82	-0.20871928
3	0xbe979f63	-0.2961379
4	0xbe8d7add	-0.276328
5	0x3ba304c5	0.004974934
6	0xbea52e8c	-0.32262075
7	0x3d362d77	0.044476952
8	0x3da57a7b	0.08080002
9	0xbe50a8de	-0.20376918
10	0x3d3fdf62	0.046843894
11	0x3d7c93bb	0.061664324
12	0xbf1cf81e	-0.61316097
13	0x3e057624	0.13033348
14	0x3cc8fd5b	0.024534872
15	0x3d3da9ca	0.0463045
16	0xbee629fe	-0.44953912
17	0xbed11b5d	-0.4084119
18	0xbe968874	-0.2940098
19	0xbf27efa0	-0.65600014
20	0xbf14cd6e	-0.5812596
21	0x3d98f5d5	0.07468764
22	0xbefa98a8	-0.48944592
23	0xbee1f951	-0.44135526
24	0xbec58095	-0.38574663
25	0x3d20c91b	0.03925429
26	0x3daddcb5	0.08489362
27	0xbec7cf0c	-0.39025152
28	0xbec8f8bc	-0.3925227
29	0x3a9790ef	0.0011563579
30	0x3e476801	0.19473268
31	0xbd92edf0	-0.07174289
32	0xbcc9e656	-0.024645966
33	0xbee2e556	-0.44315594
34	0xbe5b2b03	-0.21403126
35	0xbf269719	-0.65074307
36	0xbed2f8f2	-0.41205555
37	0xbe884f3f	-0.2662296
38	0xbf19338c	-0.5984428
39	0xbdfb7d39	-0.12279744
40	0xbe46963c	-0.19393247
41	0xbed8fb04	-0.4237901
42	0x3e3ce652	0.18447235
43	0x3e510796	0.2041305
44	0xbe2ae675	-0.16689475
45	0xbdacbb5b	-0.08434173
46	0xbec36094	-0.3815962
47	0xbd52ba14	-0.05144699
48	0xbe041c1e	-0.12901351
49	0xbe30c28d	-0.17261715
50	0xbeb7686b	-0.35821852
51	0xbf14fbf4	-0.5819695
52	0xbe331a71	-0.17490555
53	0xbf145845	-0.5794719
54	0x3c45dba7	0.012076295
55	0xbee7cd10	-0.45273638
56	0xbe27f807	-0.16403209
57	0xbdb2c723	-0.087293886
58	0xbed89267	-0.42299196
59	0x3e546fae	0.20745727
60	0xbe17041f	-0.14747666
61	0x3e3f2953	0.18668108
62	0xbec6fd08	-0.38864923
63	0xbe12af8c	-0.14324778

w_h.2.weight f4 [32, 64]
0	0x3c1fcc18	0.00975325
1	0x3e4d5a72	0.20054033
2	0xbe3694a4	-0.1783014
3	0xb9f842f2	-0.00047352124
4	0x3f13b1f0	0.57693386
5	0x3c134949	0.0089896405
6	0x3e42e773	0.19033603
7	0xbc7faa07	-0.0156045025
8	0x3deaa762	0.11457707
9	0xbdf87de7	-0.12133389
10	0xbd29a79d	-0.041419614
11	0xbe1ef31a	-0.15522423
12	0xbeb85b68	-0.36007237
13	0xbfb31c58	-1.3993025
14	0xbe377ce1	-0.17918731
15	0xbf367f6c	-0.7128818
16	0xbedb0951	-0.42780545
17	0xbf03cbfd	-0.51483136
18	0x3e16ccda	0.14726582
19	0x3e81eb36	0.25374764
20	0xbf46c9f5	-0.7765191
21	0xbf64cb1f	-0.8937244
22	0x3dc4d0ed	0.09610162
23	0x3f04a37a	0.51811945
24	0xbc7f50a7	-0.015583194
25	0x3bf94227	0.007606763
26	0x3e829dde	0.25511068
27	0x3ebce2ce	0.36891788
28	0xbd7d68b9	-0.06186745
29	0xbe56be8c	-0.20971125
30	0xbe2451bd	-0.16046806
31	0xbe899d04	-0.26877606
32	0xbf1170c2	-0.5681268
33	0x3d344b77	0.04401728
34	0xbe2d6197	-0.16931759
35	0xbe16a260	-0.14710379
36	0x3d7bf72b	0.061515015
37	0xbedd71b9	-0.43250826
38	0x3e9cd1ab	0.30628714
39	0x3ee6bc70	0.4506564
40	0x3d572d02	0.052533157
41	0xbf51b7c1	-0.8192101
42	0xbeb1805d	-0.34668246
43	0xbd88e095	-0.066834606
44	0x3cd78992	0.026310716
45	0x3e5171b6	0.20453534
46	0xbeeb21d4	-0.45924246
47	0xbee10514	-0.43949187
48	0x3e4bbc40	0.1989603
49	0x3d8d934c	0.0691286
50	0xbc0bdfc3	-0.008537236
51	0x3e15f31f	0.14643525
52	0xbf1311df	-0.57449144
53	0xbe5a3a83	-0.21311383
54	0x3b99b8f1	0.004691236
55	0x3de5e712	0.11225714
56	0xbdca50ab	-0.098786674
57	0x3e3dad5f	0.18523167
58	0xbeb695a8	-0.35661054
59	0xbe2ea79d	-0.17056127
60	0xbf356a48	-0.708653
61	0xbed2caff	-0.411705
62	0x3f0b24d8	0.54353094
63	0x3e9a67f5	0.30157438
64	0xbeb11b32	-0.3459106
65	0xbe6bdcd7	-0.23033462
66	0xbdca4dd6	-0.09878127
67	0x3e511a67	0.20420228
68	0xbea222e1	-0.31667235
69	0x3e275986	0.16342744
70	0x3e25c37c	0.16187853
71	0x3dd6a1af	0.104800574
72	0x3d008457	0.03137621
73	0x3d966a59	0.07344503
74	0xbe738a59	-0.23783244
75	0x3e2ac143	0.16675286
76	0x3e9a4c7a	0.30136472
77	0x3e58a1e7	0.21155511
78	0xbdb79c5b	-0.08965369
79	0x3e985197	0.29749748
80	0xbd2755b1	-0.040853206
81	0x3e05d1d6	0.13068327
82	0x3dd1f94c	0.10252628
83	0x3eb1922a	0.34681827
84	0x3e1716c8	0.14754784
85	0xbdf1f737	-0.118147306
86	0xbb10ef74	-0.0022115381
87	0xbec546a9	-0.38530472
88	0x3e8cf632	0.27531582
89	0x3d6c1bf1	0.057643835
90	0xbdad3ed0	-0.08459246
91	0x3c97e03d	0.018539542
92	0x3f06fcaa	0.52729285
93	0xbedb22c3	-0.4279996
94	0x3ddf060c	0.10889825
95	0x3e784fc1	0.24249174
96	0x3c3804cf	0.011231615
97	0xbec92c39	-0.39291552
98	0x3e7e9f3d	0.24865432
99	0xbf2371b1	-0.63845354
100	0xbed0c6c8	-0.40776658
101	0xbf1c76af	-0.61118597
102	0xbf011785	-0.5042651
103	0xbf5d586d	-0.8646305
104	0xbea47a56	-0.32124585
105	0xbddf0e22	-0.108913675
106	0x3e44b644	0.19210154
107	0xbebc4e67	-0.36778566
108	0x3d7abf4e	0.0612176
109	0x3c6d84c1	0.014496983
110	0xbe14cab0	-0.14530444
111	0xbe7b3b28	-0.24534285
112	0x3e886e44	0.26646626
113	0xbe76e67f	-0.24111365
114	0x3d18cc72	0.03730435
115	0x3e384fa7	0.17999135
116	0xbe906fd3	-0.28210315
117	0xbe68e529	-0.22743668
118	0xbea17641	-0.31535533
119	0xbe51e5b2	-0.20497778
120	0x3e585ee5	0.2112995
121	0x3d42ee61	0.047590617
122	0xbed1b1f4	-0.4095608
123	0x3ea3593b	0.31904015
124	0xbeb4a70c	-0.35283697
125	0x3eb589a6	0.3545658
126	0xbd977690	-0.07395661
127	0xbecb01f7	-0.39649937
128	0x3d8f2bc7	0.06990772
129	0x3bd0ae71	0.0063684513
130	0x3b440dc8	0.002991544
131	0x3e606418	0.21913183
132	0xbe3f0401	-0.18653871
133	0x3c775b68	0.015097477
134	0xbe480e9c	-0.19536823
135	0xbd7dd0c5	-0.061966676
136	0xbe17e0a8	-0.14831793
137	0x3d5531fb	0.05204962
138	0x3dbf6e8a	0.093472555
139	0xbde833b4	-0.113379866
140	0xbd6a848f	-0.057255324
141	0xbe06b86c	-0.13156289
142	0x3ca49a3b	0.020093074
143	0xbe1966e3	-0.14980654
144	0xbe2caf38	-0.16863716
145	0xbf0cfa96	-0.55069864
146	0xbe6bb1b3	-0.23017006
147	0xbdcc1098	-0.099641025
148	0x3e06ca11	0.1316302
149	0xbbb94b91	-0.00565476
150	0x3d8c3482	0.068459526
151	0xbe3e2bc3	-0.18571381
152	0x3e998974	0.2998768
153	0x3d556a3e	0.052103274
154	0x3d83d307	0.06436735
155	0xbebffbc8	-0.3749678
156	0xbd1b990c	-0.037987754
157	0xb9011540	-0.00012310315
158	0x3e374dfa	0.1790084
159	0x3db26180	0.08710003
160	0x3e16c1dc	0.14722389
161	0xbe9d015e	-0.30665106
162	0xbe48990e	-0.19589636
163	0xbe2e17eb	-0.17001311
164	0x3e661361	0.2246833
165	0xbca5b6c0	-0.020228744
166	0xbeb0fd21	-0.34568122
167	0xbe298965	-0.16556318
168	0xbd6be279	-0.057589028
169	0x3ea0ee1a	0.31431657
170	0x3e3dcd9f	0.1853547
171	0x3e664ea0	0.2249093
172	0x3e9f486a	0.31109935
173	0xbd945bf7	-0.072441034
174	0x3e42a407	0.19007884
175	0x3e10b07d	0.14129825
176	0xbb158fc0	-0.0022821277
177	0xbd74eb4c	-0.05979471
178	0x3c7d0d76	0.015445104
179	0x3e13bab4	0.1442669
180	0x3ca4e64f	0.020129351
181	0xbe9ccaa8	-0.30623364
182	0x3db86151	0.09002937
183	0x3edf15b5	0.4357125
184	0xbe0b49d6	-0.13602385
185	0x3d666e42	0.056257494
186	0x3ec9d160	0.39417553
187	0x3e4bb90c	0.19894809
188	0xbda03f7d	-0.078246094
189	0x3c81731a	0.015801955
190	0xbe60624b	-0.21912496
191	0x3ba04e12	0.004892119
192	0xbdd2b723	-0.10288837
193	0x3d85c7ff	0.06532287
194	0x3d34ed51	0.044171635
195	0x3cb6d1ce	0.02231684
196	0x3d8340cd	0.06408844
197	0xbc2fdc02	-0.010733606
198	0x3d99e8b6	0.07515089
199	0xbdc56b73	-0.09639635
200	0xbd8b7b84	-0.06810668
201	0x3d1f98f0	0.038964212
202	0xbdf8a1b2	-0.12140216
203	0xbd4b01df	-0.04956233
204	0xbc04eef2	-0.00811361
205	0xbc75d017	-0.015003226
206	0xbdda3e04	-0.1065636
207	0xbe065a30	-0.13120341
208	0x3c494dcb	0.012286614
209	0xbb7ea512	-0.0038855714
210	0x3c2d1754	0.010564644
211	0xbd752810	-0.05985266
212	0xbce5ee78	-0.028067812
213	0x3c98fefd	0.018676275
214	0x3ce0ad07	0.027426256
215	0xbdd8ba25	-0.10582379
216	0x3ceffdbc	0.029295795
217	0xbe1eda05	-0.15512855
218	0xbe4bd17f	-0.19904135
219	0xbd9c1612	-0.07621397
220	0x3d972e45	0.07381872
221	0xbdf65cbe	-0.12029408
222	0x3c6194e2	0.013768407
223	0x3d17dc76	0.037075482
224	0xbc0481a3	-0.008087548
225	0x3d4be997	0.049783316
226	0xbe01143c	-0.12605375
227	0xbce63036	-0.02809916
228	0xbd1383ac	-0.036014244
229	0xbc901b93	-0.017591273
230	0xbdf4c6c9	-0.11951978
231	0xbb11a443	-0.0022223152
232	0xbe037d04	-0.12840658
233	0xbd8eea2d	-0.06978259
234	0xbda61d49	-0.081110545
235	0xbdf22587	-0.11823564
236	0xbdc3c5f4	-0.09559241
237	0xbddc0756	-0.10743587
238	0xbdca89b3	-0.09889545
239	0xbd945306	-0.07242398
240	0x3d6f67bf	0.05844855
241	0xbdfc09f2	-0.123065844
242	0xbd2f91a7	-0.042863514
243	0x3c749ab8	0.014929466
244	0x3da9afcd	0.082854845
245	0x3d641e6d	0.05569308
246	0x3d055677	0.032553162
247	0xbdabcae9	-0.083883114
248	0x3d9353fb	0.071937524
249	0xbd6920ac	-0.056915924
250	0xbd2d38dd	-0.042290557
251	0xbd5f13bc	-0.05446218
252	0xbe0505ba	-0.12990466
253	0xbe4e4342	-0.20142844
254	0xbd8df2af	-0.06931054
255	0x3d48d4f3	0.04903121

w_h.2.bias f4 [32]
0	0xbe78918e	-0.24274275
1	0x3e5939a5	0.21213396
2	0x3e0ceac9	0.13761438
3	0xbd0e5a53	-0.03475411
4	0x3e3dbd5f	0.1852927
5	0xbe4a13d9	-0.19734134
6	0x3e530991	0.20609118
7	0xbdc2ad55	-0.09505717
8	0x3e030402	0.12794498
9	0xbe2c280e	-0.16812155
10	0x3ad3d6cc	0.0016162037
11	0x3b8e9aef	0.0043519656
12	0x3e32d7e5	0.1746517
13	0xbd8bc26c	-0.068241924
14	0x3e4971ca	0.19672313
15	0xbe4f7b40	-0.2026186
16	0xbe86ad10	-0.2630391
17	0x3d5722ab	0.052523296
18	0x3a00b790	0.00049101654
19	0xbc6863ce	-0.014183952
20	0xbdc49bda	-0.09600039
21	0xbe94b6c5	-0.29045692
22	0x3dd878fb	0.1056995
23	0xbd188ca7	-0.03724351
24	0x3e02af75	0.12762244
25	0x3ccc9603	0.024973875
26	0xbbb3754c	-0.0054766294
27	0xbe79003d	-0.24316497
28	0x3d647ed8	0.05578503
29	0xbe16a09b	-0.14709704
30	0xbd7784f3	-0.060429525
31	0xbdf4f875	-0.11961452

Ws.0 f4 [32, 32]
0	0xbf8e6dd9	-1.1127273
1	0x3efe6fba	0.49694616
2	0xbf1238d4	-0.5711796
3	0x3f39847f	0.724678
4	0x40162a47	2.3463304
5	0x3e0e95c2	0.13924316
6	0xbec9d742	-0.3942204
7	0x404827bd	3.1274254
8	0xbe0b5ee0	-0.1361041
9	0x3faf6b8a	1.3704693
10	0xc012495e	-2.285728
11	0xbfa9a874	-1.3254533
12	0x3fb313da	1.3990433
13	0x3e8a6c75	0.2703587
14	0xbeba51cb	-0.36390528
15	0x3f52f9f2	0.82412636
16	0xbea57a9f	-0.32320115
17	0x3f81ac0b	1.0130628
18	0x3fbb8cd8	1.4652357
19	0x401b472b	2.4262187
20	0xbf087696	-0.5330595
21	0xbed2820d	-0.41114846
22	0xbf2efe3e	-0.6835669
23	0x3ef89a49	0.4855521
24	0x3e99175a	0.29900628
25	0xbe90e041	-0.28296092
26	0x3e4a41a8	0.19751608
27	0x3ffab40a	1.9586194
28	0x3efa1bf2	0.48849446
29	0xbe8ccadc	-0.2749852
30	0xbcea1d22	-0.028578345
31	0x3f34f6d4	0.7068913
32	0xbfbbda7a	-1.4676049
33	0xbeaaff17	-0.33397743
34	0x3ea5619b	0.3230103
35	0x3fb5bd6d	1.4198433
36	0xc007fecf	-2.1249273
37	0x3f1fae80	0.6237564
38	0x3e3a0c80	0.18168831
39	0xbe13e738	-0.14443672
40	0xbc4cb8d5	-0.012495239
41	0xbf9c5994	-1.2214837
42	0x3d21c2c7	0.039492395
43	0x3f4a79fa	0.7909237
44	0xbeedd758	-0.46453357
45	0xbe9ca7ae	-0.3059668
46	0x3ef64971	0.48102906
47	0xbed522e0	-0.4162817
48	0xbf57fe9c	-0.8437288
49	0x3fc0bd58	1.5057783
50	0xbef9368b	-0.48674425
51	0x3fa0c8e2	1.2561305
52	0xc0252693	-2.5804794
53	0xbfb6f1df	-1.4292563
54	0x3fd16c5f	1.6361197
55	0xbd0ed3a0	-0.03486979
56	0x3ee52569	0.44755104
57	0x3fb17ab7	1.3865575
58	0x3fa7c522	1.3107035
59	0x3df21575	0.11820499
60	0xbe3a05e3	-0.18166308
61	0xc01e514e	-2.4737124
62	0x3f666654	0.8999989
63	0x3e2e15ad	0.17000456
64	0xbe5e9285	-0.2173558
65	0xc02eca77	-2.7311075
66	0xbf5308a9	-0.8243509
67	0xbda775ac	-0.08176741
68	0x3e575d5c	0.21031708
69	0x3fb0c2d3	1.3809456
70	0xbf995db8	-1.1981726
71	0xbf32a1bc	-0.6977804
72	0xc0249701	-2.5717165
73	0x3f954433	1.1661438
74	0x3fe55283	1.7915806
75	0x3f635977	0.8880839
76	0xbfad2a3f	-1.3528517
77	0xbe8b2da0	-0.27183247
78	0x3dc7694f	0.09736883
79	0x3d641f05	0.055693645
80	0x40052b20	2.0807571
81	0x3deb0ff7	0.114776544
82	0x3bc197b4	0.005907977
83	0x3fc6f409	1.5543224
84	0x3e2670ea	0.16254011
85	0xbcc8ed72	-0.024527285
86	0xbfc522dc	-1.5401263
87	0xbf99a216	-1.200259
88	0x4007c561	2.121422
89	0xbf00dc05	-0.50335723
90	0xbf6613cf	-0.89873976
91	0xbf389825	-0.72107154
92	0x3ea64011	0.32470754
93	0x3fe77e22	1.8085368
94	0x3e858674	0.26079142
95	0x3eddba35	0.43306127
96	0xbfe50ed6	-1.7895153
97	0xbfeec3cc	-1.8653502
98	0x3e5d34cb	0.2160217
99	0xc046a144	-3.1035929
100	0xbe6beda5	-0.23039873
101	0x3f73941e	0.95147884
102	0x3ed10251	0.4082208
103	0x3e060ea4	0.13091522
104	0x3f3b4ee2	0.7316724
105	0x3fa79322	1.3091776
106	0x3f0189c7	0.50600857
107	0xbf02025b	-0.50784844
108	0xbf50eece	-0.8161439
109	0xbe645db2	-0.22301367
110	0x3ebb9a0c	0.36640966
111	0x3e7c9dec	0.24669617
112	0xbf698585	-0.9121936
113	0x3c91b632	0.017787073
114	0x3f3105b7	0.69149345
115	0x3fbd9b39	1.4812995
116	0x3f3863d6	0.7202734
117	0x3f3b0df5	0.7306817
118	0xbc8c9c99	-0.017164515
119	0xbfec8362	-1.8477595
120	0x3f9235a5	1.1422621
121	0xbe32721c	-0.17426342
122	0x3f47cebe	0.7804984
123	0xbf716835	-0.9429963
124	0xbe387739	-0.1801423
125	0xbfac7dad	-1.3475853
126	0x3ef62b63	0.48079976
127	0xbe7ab968	-0.2448479
128	0xbd9a2d55	-0.07528178
129	0x3e602f48	0.21893036
130	0xbf14dac1	-0.5814629
131	0xc060eb8f	-3.5143774
132	0xbf26a81a	-0.6510025
133	0x3e843823	0.2582408
134	0xc01206e0	-2.2816696
135	0xbfe09b05	-1.7547308
136	0xbf11a286	-0.56888616
137	0x3ee7642b	0.4519361
138	0x3fd3a895	1.6535822
139	0x3e3c6d55	0.18401082
140	0xbd1ff20b	-0.03904919
141	0xbef7f89b	-0.48431858
142	0x3f9a23f1	1.2042218
143	0x3f348fde	0.70532024
144	0x3fd39481	1.6529695
145	0xbf8979d0	-1.0740299
146	0xbfb95ab0	-1.4480801
147	0xc0221684	-2.5326242
148	0x3f167ad9	0.587812
149	0x3f2d3001	0.67651373
150	0x3f611222	0.87918293
151	0x3f03e9ba	0.51528513
152	0x3eac4167	0.33643648
153	0xc00169f1	-2.0220912
154	0xbf3e9458	-0.74445105
155	0xc018a560	-2.3850937
156	0x3e81a6e2	0.25322634
157	0x3f609a90	0.87735844
158	0x3f83b1b8	1.028861
159	0xbee75a72	-0.45186192
160	0x3ea1222f	0.31471393
161	0xbf72cbd2	-0.94842255
162	0xbfd58149	-1.668008
163	0x3e1c8e1a	0.15288582
164	0xbdfd8855	-0.12379519
165	0xbf91999b	-1.1375002
166	0x3f820ee1	1.0160791
167	0x3f4a9ef8	0.7914882
168	0x3fb5cf32	1.4203856
169	0x3ec9c455	0.39407602
170	0xbcec64f9	-0.028856741
171	0x3ed99f4a	0.4250434
172	0x3f05756b	0.5213229
173	0x3f82f302	1.023041
174	0x3fb1abe6	1.3880584
175	0x3edc62b0	0.43044043
176	0x3e927bb5	0.28610006
177	0xbf01a7df	-0.50646776
178	0xbf00e165	-0.50343925
179	0xbf68cabd	-0.90934354
180	0x3f22680b	0.63440007
181	0x3ea0e241	0.31422618
182	0x3f09849f	0.5371799
183	0xbeed2657	-0.46318313
184	0xbf4f14b1	-0.8089095
185	0xbee7a0a0	-0.45239735
186	0x3ed7429f	0.42043015
187	0xbff6afd6	-1.9272411
188	0xbddd9a58	-0.10820454
189	0x3de79cb6	0.11309187
190	0x3f79a4a1	0.9751683
191	0xbfc88d81	-1.5668184
192	0x3e8e50c5	0.27795997
193	0xbfcc25ae	-1.5948999
194	0x3f58534c	0.845021
195	0x4013327f	2.299957
196	0xbf17a427	-0.5923485
197	0x3f6cec8d	0.9254845
198	0x3f6c686a	0.92346823
199	0x3fbdb602	1.4821169
200	0x3fe734e9	1.8063022
201	0xbc35e690	-0.011102334
202	0x3cb34a6b	0.021886071
203	0xc02958c6	-2.6460433
204	0xbe7c62ed	-0.24647112
205	0x3e3d70e8	0.18500102
206	0x3ecbbb4b	0.3979133
207	0x3e46a80e	0.19400045
208	0xbf644106	-0.8916172
209	0x3f23010f	0.6367349
210	0xbfaf4479	-1.3692771
211	0x3fb1abe5	1.3880583
212	0x3ec60df5	0.38682523
213	0xbf20d62a	-0.6282679
214	0xc0056f92	-2.0849347
215	0x3e86661d	0.2624978
216	0xbd91b675	-0.07114879
217	0xbdcd8aef	-0.10036265
218	0xbd711745	-0.058860082
219	0x3f20efc8	0.6286588
220	0x3fff5aee	1.9949625
221	0x4028893f	2.6333768
222	0x3e754a61	0.23954155
223	0x3e8054f1	0.25064805
224	0x3fe85a87	1.8152627
225	0x3e63097a	0.22171584
226	0xbf4fbeb3	-0.8115036
227	0xbe70124e	-0.23444483
228	0xbe608ece	-0.21929476
229	0x4008d6a7	2.1381013
230	0xbfcebee6	-1.6152008
231	0x3ec5b37c	0.38613498
232	0x3eb12646	0.34599513
233	0xbf12f6d1	-0.5740786
234	0xbfada950	-1.3567295
235	0xbf67d42f	-0.9055814
236	0xbfcb7247	-1.589425
237	0xc0024ec8	-2.0360584
238	0x3fe3236d	1.7745186
239	0xbfba3267	-1.4546632
240	0x3df2b007	0.11849981
241	0x3f3adcfb	0.7299344
242	0x3d5e2988	0.054238826
243	0xbf36b745	-0.713734
244	0xbe38737c	-0.18012804
245	0x3d2dc1c9	0.042421136
246	0xbf879429	-1.059209
247	0x3f32ab06	0.6979221
248	0xbf3506d7	-0.7071356
249	0x3f534466	0.8252624
250	0x3fd575fb	1.667663
251	0xbfeb7ea6	-1.8398025
252	0xbf0d3fc9	-0.55175453
253	0x3f918372	1.1368239
254	0xbe45391d	-0.19260068
255	0x3ff4af5b	1.9116014
