crowd_nav/GRL_output/rl_model_4.pth (torch, 143871 bytes, 33 tensors)

w_a f4 [32, 32]
0.69656295 0.08146666 0.8601274 -2.2288442 -1.0581741 0.7054865 0.41250527 -2.01074
1.0060774 -1.2885928 -0.16799793 -0.13356642 -1.4113061 -1.0546628 -0.9692376 -1.7017444
0.24280827 -1.8469348 -0.19102985 0.21360125 -0.19126366 -0.69168836 0.2713558 -1.7025669
-0.6421443 0.44276625 -0.10346163 0.35205686 -0.06868749 -0.3976863 0.85110384 2.096354
0.17349648 0.60483974 -1.4577179 -1.5303628 0.2994177 0.75580394 -0.031515766 0.7789068
0.5419908 0.16044348 0.003836994 0.3997059 -0.11488342 -0.8468565 -0.14818142 -0.0077864686
-0.27663177 0.44516367 -1.1446135 0.027704015 0.9559153 -0.72196007 -2.0270708 -1.4941161
0.38484257 0.09487288 -0.7749061 -0.6685179 -1.3438466 0.8614607 0.5897133 -0.15141477
-0.89429 -0.6971064 -0.34301633 -0.01747014 -1.6075354 -0.38979632 -0.7280081 -1.9315275
-1.6134741 0.4726152 0.72960466 -1.4430212 -0.6111803 -0.009262653 -1.1087413 -0.89205766
0.16280335 0.29739693 -1.5916015 0.8697898 -0.33454657 0.5817526 0.57516176 -1.4589055
-1.2413396 1.391158 -0.55114293 0.879556 -1.0756474 -0.05144652 1.4356726 -0.45382994
-0.822066 0.9669234 0.0982393 -0.1645805 -0.4845073 0.615279 0.12348368 -0.47343028
-0.109301746 -1.1231719 -0.06509255 -0.8444027 0.74725014 -0.76195526 0.73493636 -0.019620804
0.039801776 0.55044687 -0.5700303 0.9629508 -0.72588974 -0.2044396 -0.019842137 0.65743214
-0.012143345 1.8593543 -1.2037148 -0.4546299 -0.79602265 0.5441061 -0.48037332 -1.7875494
-0.12851901 -0.4586798 -0.029851425 -0.54594433 -1.241947 -0.10975088 0.9679168 -0.0451187
-1.303015 0.08114932 1.1805315 -0.26555315 -2.301504 2.5268793 0.5550746 0.311052
0.88299423 -0.26147097 -0.6380073 0.3535501 -0.7432754 0.0823483 0.24445839 1.2820191
-1.5079918 1.0235817 -1.3545955 -0.9818938 0.5426055 -0.98485625 -1.1961162 0.068792365
0.2247734 1.0796007 -1.7174616 -0.46109617 0.9643732 1.3315227 -1.0202553 0.93525517
-0.09474632 3.6714017 0.8001544 1.4993879 -2.3437705 -1.0983453 -0.6147947 -0.042618986
1.2567041 1.3874098 -1.2372357 1.1843802 -1.0342422 0.53930753 0.6677074 0.88631636
-1.1328987 -0.4680918 1.2485201 2.224827 1.3765352 1.7873145 1.763224 -1.2078751
0.37364617 -0.09589325 0.5679404 1.3420415 -0.2841641 0.4114156 -0.94245493 1.0081891
0.21997204 -0.45776987 0.65445024 -0.21209225 -0.64709806 -0.70176756 -0.59640807 -0.18937634
0.16237327 -0.53123605 -1.1621767 -0.5771835 -2.089211 -0.11098224 0.38501707 -0.6501998
0.47119817 -1.4126035 -1.42525 -0.41715497 0.07475369 -1.1501803 0.036847755 -2.5481312
0.52559525 -0.08669071 -0.2562432 0.03811786 -0.020184629 0.12918015 -0.83670926 1.401801
-0.2262724 -0.49014375 -0.55058664 0.5050549 -0.44750986 0.5121982 0.13896771 -0.40679458
-0.4526527 -0.66649467 0.0076856976 -0.89767796 -0.35259908 0.5929015 0.94999874 -1.9742417
-1.7524121 -1.6198823 -1.3456138 1.2912127 -1.0969033 -1.4738587 1.4691575 1.5173792
00000000: f351 323f fed7 a63d 4f31 5c3f 62a5 0ec0
00000010: 4072 87bf c39a 343f e433 d33e f7af 00c0
00000020: 25c7 803f 9cf0 a4bf a607 2cbe a3c5 08be
00000030: aea5 b4bf 31ff 86bf f51f 78bf c3d2 d9bf
00000040: bba2 783e 5c68 ecbf 549d 43be 49ba 5a3e
00000050: 9fda 43be 7d12 31bf 26ef 8a3e b6ed d9bf
00000060: 9263 24bf 42b2 e23e b1e3 d3bd cc40 b43e
00000070: 07ac 8cbd 8a9d cbbe f1e1 593f aa2a 0640
00000080: 10a9 313e c7d6 1a3f 8096 babf eee2 c3bf
00000090: 474d 993e 5e7c 413f ad16 01bd 7066 473f
000000a0: e9bf 0a3f 4c4b 243e 1476 7b3b 40a6 cc3e
000000b0: 0048 ebbd 96cb 58bf dfbc 17be a225 ffbb
000000c0: aea2 8dbe 7eec e33e b282 92bf 88f3 e23c
000000d0: ddb6 743f 60d2 38bf 87bb 01c0 323f bfbf
000000e0: 160a c53e b64c c23d 3f60 46bf fd23 2bbf
000000f0: 2a03 acbf b088 5c3f 73f7 163f 790c 1bbe
00000100: 30f0 64bf 9175 32bf d69f afbe 8a1d 8fbc
00000110: b8c3 cdbf 6293 c7be bd5e 3abf 4b3c f7bf
00000120: 5286 cebf 9ffa f13e 5fc7 3a3f ebb4 b8bf
00000130: 5076 1cbf 62c2 17bc 3ceb 8dbf e45d 64bf
00000140: ecb5 263e 6944 983e 99b9 cbbf 8baa 5e3f
00000150: b049 abbe bded 143f cd3d 133f 6abd babf
00000160: 37e4 9ebf 7711 b23f b417 0dbf 952a 613f
00000170: d0ae 89bf 96b9 52bd 1fc4 b73f 665c e8be
00000180: eb72 52bf 4b88 773f b031 c93d ca87 28be
00000190: 5711 f8be ed82 1d3f 03e5 fc3d 7465 f2be
000001a0: 98d9 dfbd 19c4 8fbf 3e4f 85bd c62a 58bf
000001b0: c94b 3f3f 800f 43bf ca24 3c3f cfbb a0bc
000001c0: 3007 233d 16ea 0c3f 81ed 11bf f283 763f
000001d0: e9d3 39bf 9d58 51be fa8b a2bc 794d 283f
000001e0: e1f4 46bc 52ff ed3f 5413 9abf 40c5 e8be
000001f0: 24c8 4bbf 8a4a 0b3f 7ef3 f5be 6bce e4bf
00000200: 7d9a 03be 14d8 eabe fa8a f4bc 02c3 0bbf
00000210: 1ff8 9ebf 12c5 e0bd 65c9 773f 63ce 38bd
00000220: 32c9 a6bf 9d31 a63d a81b 973f 95f6 87be
00000230: d74b 13c0 64b8 2140 5e19 0e3f 3542 9f3e
00000240: e90b 623f 86df 85be 7254 23bf 8504 b53e
00000250: 4c47 3ebf 3aa6 a83d 4d53 7a3e 3419 a43f
00000260: e005 c1bf ba04 833f 6363 adbf 645d 7bbf
00000270: 32e8 0a3f 8a1f 7cbf 561a 99bf 03e3 8c3d
00000280: 002b 663e 5b30 8a3f c8d5 dbbf cc14 ecbe
00000290: 29e1 763f 566f aa3f ba97 82bf e26c 6f3f
000002a0: 5c0a c2bd 3ff8 6a40 ebd6 4c3f f1eb bf3f
000002b0: 5600 16c0 9496 8cbf 2f63 1dbf 3f91 2ebd
000002c0: aedb a03f a596 b13f bd5d 9ebf c599 973f
000002d0: 0c62 84bf 0f10 0a3f dfee 2a3f a1e5 623f
000002e0: d302 91bf baa9 efbe 82cf 9f3f 9163 0e40
000002f0: 4e32 b03f b9c6 e43f 53b1 e13f a79b 9abf
00000300: 8d4e bf3e ae63 c4bd 8b64 113f 04c8 ab3f
00000310: f57d 91be 11a5 d23e ba44 71bf 570c 813f
00000320: 5a40 613e d060 eabe 0d8a 273f b62e 59be
00000330: 38a8 25bf 0aa7 33bf 33ae 18bf dfeb 41be
00000340: 2e45 263e 16ff 07bf 35c2 94bf 4cc2 13bf
00000350: a2b5 05c0 a84a e3bd f520 c53e 7e73 26bf
00000360: e340 f13e 31d0 b4bf 986e b6bf 5695 d5be
00000370: 7618 993d 1c39 93bf aced 163d 9514 23c0
00000380: 698d 063f e68a b1bd 4f32 83be 7921 1c3d
00000390: 3c5a a5bc cd47 043e 9432 56bf 376e b33f
000003a0: f4b3 67be 1ff4 fabe 3ff3 0cbf 474b 013f
000003b0: 0320 e5be 6c1f 033f 8d4d 0e3e 6147 d0be
000003c0: 18c2 e7be 659f 2abf 4ed8 fb3b 39ce 65bf
000003d0: de87 b4be 65c8 173f 1e33 733f f4b3 fcbf
000003e0: 0a4f e0bf 4e58 cfbf 133d acbf 7546 a53f
000003f0: 5467 8cbf 67a7 bcbf 5a0d bc3f 7b39 c23f

w_r.0.weight f4 [64, 9]
0.39630392 0.075225 0.48766282 -0.8293717 -0.44461328 0.03293073 -0.20831405 -0.09934913
-0.15123083 0.028446417 -0.2741361 -0.7706207 -0.90078413 -0.14133853 -0.09710666 -0.119748734
-0.26609203 -0.17190985 0.034159895 0.004223107 -0.2328864 -0.22123155 -0.122618936 -0.31543738
-0.24346362 0.15027569 0.018021299 -0.58655185 0.13940614 0.38583773 -0.4103464 0.06426424
-0.16776602 -0.15539198 0.16621989 -0.0049167424 0.10712023 -0.01772392 -0.31165612 -0.040615052
-0.34962082 -0.15083814 0.0018781436 -0.28480583 -0.23673387 0.38634762 0.053095646 -1.1735667
0.8040214 -0.31694442 0.22626948 -0.055682454 -0.28069445 -0.5193122 -0.19184236 0.49266246
0.06511695 -0.017982295 0.08378611 -0.20792806 0.1190317 -0.33967793 0.08106674 -0.7558806
-0.27348474 -0.40322435 0.004790543 -0.23924725 0.013089895 -0.26221606 0.07156328 0.034194373
-0.88494647 -0.55016077 0.3835199 -0.17683071 0.115610324 0.11653094 -0.26832512 -0.47542733
-0.42023814 0.74761724 0.04364483 0.8625549 -0.025626004 -0.69016933 0.17105433 -0.3950665
-0.9345858 -0.42712107 -0.12100175 -0.011075319 0.025659373 -0.3696017 -0.37177503 -0.045767944
0.038503982 -0.43564853 -0.2146099 0.02857593 -0.0010615564 0.11848807 -0.42316106 -0.6102472
0.2905801 -0.08998499 -0.00042580985 -0.10502331 -0.14494845 -0.029048365 -0.21639757 -0.28705162
-0.07340324 -0.1905402 -0.33187622 0.15872249 0.21319675 -0.47332498 -0.22711779 -0.9036528
1.1876668 -0.24458317 -0.12633765 -0.5683262 -0.34622884 -0.20333506 -0.5011411 0.14906248
-0.96622795 -0.8082398 -0.55892324 -0.22128408 -0.120708995 -0.5372048 -0.13131133 -0.49031463
-0.47074226 -0.053203538 0.047449987 -0.3446703 -0.26921508 -0.5243192 -0.4230717 -0.33930194
-0.2835404 0.3540106 -0.019660752 -0.029109878 -0.2672317 -0.0030560098 0.22893167 0.12127558
0.13412663 -0.90195215 0.40093362 -1.0333071 1.0341401 -0.065483585 -0.03999996 -0.26928467
-0.3584147 -0.569847 0.71438676 0.90680367 0.013751064 0.002666333 -0.26375398 -0.30505353
-0.4370494 -0.47852072 0.022016518 0.70465547 -0.90645075 0.12296989 -0.02939131 -0.5813417
0.2294291 -0.51928884 -0.039174195 -0.28794944 0.15292773 -0.3982513 0.2950996 -0.42941925
0.040098727 -0.04311347 -0.44269684 -0.39445493 -0.23514338 0.7199049 0.47108287 0.6796645
0.8531307 -0.5544594 0.033413332 -0.36413237 -0.47435036 -0.14643893 0.27657884 0.48790318
1.2463306 -1.0469335 -0.34615886 0.3147732 -0.32279825 -0.44820327 -0.35742024 -0.10489884
0.18363218 1.1646428 0.8487838 -0.36028165 0.041944824 -0.09650686 -0.387476 -0.06790125
1.4073159 0.4110903 -0.0074834195 -0.12285919 -0.42155376 -0.011994402 -0.47995642 -0.09144631
-0.26304373 -0.6205969 0.2202775 -0.9520334 0.2814832 -0.6280461 -0.1441046 -0.55231225
-0.4729923 -0.5531617 0.9125566 0.36970448 0.5068684 0.6864843 -0.2543097 -0.04976964
-0.15088291 -0.37801307 -0.27065444 -0.22938032 -0.06310076 -0.96348834 1.1597325 0.274352
-0.023932934 -0.36088476 -0.12830608 -0.10822585 0.37734073 0.59134674 -0.60552627 -0.56822217
00000000: 59e8 ca3e 910f 9a3d f1ae f93e b451 54bf
00000010: 5aa4 e3be 60e2 063d 4750 55be 8f77 cbbd
00000020: 41dc 1abe 7608 e93c 915b 8cbe 6647 45bf
00000030: ca99 66bf 0cbb 10be dbdf c6bd d33e f5bd
00000040: 373d 88be 2309 30be 3feb 0b3d fd61 8a3b
00000050: c679 6ebe 868a 62be a31f fbbd 0281 a1be
00000060: 874e 79be dfe1 193e 67a1 933c 4328 16bf
00000070: 7cc0 0e3e 868c c53e ec18 d2be f89c 833d
00000080: dbca 2bbe 131f 1fbe 8c35 2a3e a01c a1bb
00000090: da61 db3d c131 91bc 6491 9fbe f85b 26bd
000000a0: 8001 b3be 5075 1abe 0b2c f63a 12d2 91be
000000b0: 5d6a 72be 5bcf c53e d27a 593d 6f37 96bf
000000c0: 59d4 4d3f 8a46 a2be 30b3 673e 4913 64bd
000000d0: 2fb7 8fbe a5f1 04bf 5372 44be 413e fc3e
000000e0: 095c 853d 9b4f 93bc 0d98 ab3d 18eb 54be
000000f0: e4c6 f33d 44ea adbe 5206 a63d 6481 41bf
00000100: 3106 8cbe 6c73 cebe fdf9 9c3b 3bfd 74be
00000110: 0077 563c 2f41 86be c58f 923d 660f 0c3d
00000120: da8b 62bf 56d7 0cbf b85c c43e 1c13 35be
00000130: 1bc5 ec3d c6a7 ee3d e961 89be 366b f3be
00000140: 7429 d7be d863 3f3f ecc4 323d 66d0 5c3f
00000150: a0ed d1bc f0ae 30bf de28 2f3e 2846 cabe
00000160: 0441 6fbf 9daf dabe c4cf f7bd 4175 35bc
00000170: 9b33 d23c 6f3c bdbe 4c59 bebe 2b77 3bbd
00000180: 5ab6 1d3d 530d dfbe b3c2 5bbe 1218 ea3c
00000190: ec23 8bba e0a9 f23d 91a8 d8be 2939 1cbf
000001a0: eac6 943e 0d4a b8bd 3b3f dfb9 7616 d7bd
000001b0: 5e6d 14be d6f6 edbc 5397 5dbe 6ef8 92be
000001c0: 7054 96bd f81c 43be aeeb a9be 2688 223e
000001d0: 4050 5a3e a757 f2be 9191 68be ca55 67bf
000001e0: 7705 983f 0374 7abe a85e 01be d37d 11bf
000001f0: e844 b1be 1137 50be c84a 00bf d6a3 183e
00000200: b75a 77bf cee8 4ebf 9815 0fbf 4b98 62be
00000210: 4736 f7bd 4186 09bf 7a76 06be 850a fbbe
00000220: 2105 f1be f4eb 59bd eb5a 423d a078 b0be
00000230: 8fd6 89be c839 06bf db9c d8be fcb8 adbe
00000240: 352c 91be e140 b53e 960f a1bc d777 eebc
00000250: 98d2 88be 5647 48bb 106d 6a3e 555f f83d
00000260: 7e58 093e 56e6 66bf 2c47 cd3e 6843 84bf
00000270: b45e 843f 421c 86bd 00d7 23bd aedf 89be
00000280: 2282 b7be 7ee1 11bf 0de2 363f 4924 683f
00000290: 254c 613c a5bd 2e3b c30a 87be fa2f 9cbe
000002a0: f0c4 dfbe ab00 f5be fc5b b43c 4d64 343f
000002b0: 280d 68bf a3d7 fb3d 0bc6 f0bc cfd2 14bf
000002c0: 76ef 6a3e 1df0 04bf 1f75 20bd 1c6e 93be
000002d0: 1699 1c3e 98e7 cbbe 4b17 973e d7dc dbbe
000002e0: 903e 243d c097 30bd 29a9 e2be fff5 c9be
000002f0: 6dc9 70be b04b 383f c631 f13e 7efe 2d3f
00000300: c666 5a3f 0df1 0dbf 6bdc 083d 8f6f babe
00000310: 0dde f2be 16f4 15be be9b 8d3e 72ce f93e
00000320: c387 9f3f eb01 86bf bc3b b1be f429 a13e
00000330: d045 a5be e67a e5be c9ff b6be 34d5 d6bd
00000340: 130a 3c3e 0413 953f e549 593f d676 b8be
00000350: 56ce 2b3d 63a5 c5bd 4163 c6be d00f 8bbd
00000360: ed22 b43f 6e7a d23e 7937 f5bb 999d fbbd
00000370: e5d5 d7be 2b84 44bc d9bc f5be 3448 bbbd
00000380: abad 86be 70df 1ebf 6d90 613e 76b8 73bf
00000390: 911e 903e a1c7 20bf 2890 13be 5664 0dbf
000003a0: 0c2c f2be 019c 0dbf 4f9d 693f e849 bd3e
000003b0: 21c2 013f 6fbd 2f3f e234 82be 40db 4bbd
000003c0: 0d81 1abe ee8a c1be 3893 8abe ade2 6abe
000003d0: f93a 81bd 2ca7 76bf 1d72 943f de77 8c3e
000003e0: 000f c4bc e3c5 b8be ab62 03be 84a5 ddbd
000003f0: ce32 c13e 8062 173f c503 1bbf 0277 11bf

w_r.0.bias f4 [64]
0.11383473 -0.08312685 -0.041387394 -0.16654256 -0.006731762 -0.11979398 -0.31944314 -0.08305427
-0.21288195 -0.42810985 -0.06265261 0.035626158 -0.2064166 -0.44916993 -0.17351687 -0.22128345
0.20290998 -0.5651238 0.034077957 -0.48221922 -0.41832218 -0.64509207 -0.7275928 -0.32575598
-0.15518075 -0.0921663 -0.5423082 0.1827072 -0.045568712 -0.29965237 -0.16508643 0.1253423
0.11074588 -0.5488931 0.0032637143 0.3937204 -0.42965573 -0.08003324 -0.09487749 -0.41224605
-0.3761191 -0.19999437 -0.31660238 -0.6234479 -0.0252089 -0.10275634 -0.17311 -0.3307686
-0.7179527 -0.25048316 -0.09396238 -0.34065208 -0.11243748 -0.047954265 -0.14006214 -0.36521807
0.098104715 -0.39591128 -0.37956083 -0.23575662 -0.3382289 -0.42196813 -0.4003525 -0.31126177
00000000: 2f22 e93d 693e aabd d485 29bd 228a 2abe
00000010: 1d96 dcbb 8c56 f5bd 0d8e a3be 5b18 aabd
00000020: bafd 59be 3731 dbbe 0350 80bd bcec 113d
00000030: e05e 53be 9af9 e5be 68ae 31be 2198 62be
00000040: a2c7 4f3e f4ab 10bf 5495 0b3d 70e5 f6be
00000050: 532e d6be c124 25bf 8643 3abf 7dc9 a6be
00000060: b4e7 1ebe afc1 bcbd b6d4 0abf 9917 3b3e
00000070: 42a6 3abd 096c 99be 6b0c 29be bb59 003e
00000080: bcce e23d 4284 0cbf 0ae4 553b b895 c93e
00000090: d6fb dbbe 78e8 a3bd 214f c2bd ea11 d3be
000000a0: af92 c0be 53cb 4cbe b519 a2be 489a 1fbf
000000b0: e582 cebc ea71 d2bd bf43 31be 805a a9be
000000c0: c0cb 37bf 543f 80be 596f c0bd f369 aebe
000000d0: 9f45 e6bd b16b 44bd 736c 0fbe ddfd babe
000000e0: 20eb c83d e2b4 cabe cc55 c2be 2f6a 71be
000000f0: 572c adbe 350c d8be 01fb ccbe b45d 9fbe

w_r.2.weight f4 [32, 64]
-0.4851253 0.14519228 0.097356945 -0.15018316 -0.037336234 -0.19016866 -1.3148834 -0.1725521
-0.1147114 -0.14175089 -0.047445 -0.043883067 -0.088924065 -0.10314484 0.014991681 -0.0034618038
0.28188345 -0.08299405 -0.43418303 -0.46032882 -0.12474839 0.13958816 -0.52045745 -0.62589043
-1.3448157 -0.46650955 -0.55304515 0.025581632 -0.25570253 -0.018455958 0.1801625 -0.17651497
-0.10066272 -0.3611064 -0.4690499 -0.341862 0.012739927 -0.3854803 -0.16434804 -0.36868033
0.17407368 -0.113175504 -0.06801155 0.099732324 -1.0378947 -0.15671583 -0.2562079 0.095226824
-0.3110882 0.34831607 0.08309307 -0.8494705 -0.25117916 0.14138444 -0.057733424 -0.12149917
-0.1633605 0.091106 -0.28970906 -1.7579646 -0.06760806 -0.080620475 0.6662274 -0.06372983
0.05103461 0.023438085 -0.025923807 0.010007121 -0.040103864 0.12429233 0.11919007 -0.032626502
0.018535538 -0.81608135 0.00792565 -0.021937886 -0.10078965 0.03624195 -0.13838564 -0.8690537
0.14478774 -0.36630994 0.34734035 -0.28960326 -0.12886643 -0.017052919 0.58632666 0.05810399
-0.30336422 -0.515611 0.021557298 -0.03395491 -0.066330425 -0.0639885 -0.070509486 0.010987729
-0.15789421 -0.07411829 -0.027643435 0.11356372 0.28554183 -0.3363024 -0.7303054 0.0211849
-0.15657578 0.07110279 0.12171705 -0.7573699 -0.06976332 0.04299213 -0.122675456 0.023241296
-0.13201442 0.29236215 -0.21457331 -1.2316518 0.30266204 0.088858336 -0.10892792 0.29810706
-0.055344872 0.0009199014 -0.119124636 -0.54952055 -0.038121093 -0.18107337 0.21217398 -0.0038824677
-0.06214609 0.087693214 0.12239453 -0.20638591 -0.06015029 -0.09731499 -0.044077042 -0.007920976
-0.2135482 -0.34140658 -0.023083014 -0.040562954 0.012740463 -0.08674523 -0.17667018 -0.41993794
-0.057549696 0.23516661 -0.09392752 -0.020431241 0.2200183 -0.31196794 -0.025638487 -0.015460851
-0.21599922 -0.9371536 -0.83191144 0.024060434 -0.09602505 0.026952734 -0.13173893 0.09394996
-0.10850187 -0.025759235 -0.18125948 -0.25544325 -0.08367007 -1.2283946 -0.5133081 -1.0825429
-0.30110726 0.09467035 0.028665414 -0.021105835 -0.6240186 0.04029194 -0.14068303 0.12419239
-0.061672807 -0.3299156 -0.026567683 0.07589602 0.10297059 0.1776483 -0.009517633 0.16352293
-0.0439264 0.02063266 -0.48716295 0.028175779 0.07166517 -0.09750368 0.032319505 -0.04355225
0.28574944 -0.30004 -0.04472791 -0.1899271 0.09020454 0.31251374 -1.0342999 -1.2125167
-0.3956476 -0.26911914 -0.06587493 0.038238354 -0.071557224 -0.21586835 -0.6304404 -0.009033576
-0.20743276 -0.58525103 0.7790781 0.008123208 0.07132721 -0.36997664 -0.42104623 -0.90588766
-0.21447554 -0.014993474 -0.15484072 -0.9324077 -0.009719388 -0.049401507 -0.33591402 0.11837201
-0.038987912 -0.07503805 -0.6054373 0.14653644 0.013079502 -1.217073 0.67681247 0.37760466
-0.5844788 -0.16565645 -0.034200404 -0.15159068 0.17699148 0.15477778 0.14178406 -0.0010030717
-0.53719026 -0.030566942 -0.086192876 0.16163512 -0.6437927 0.16173182 0.14051576 -0.25158927
0.28671926 -0.06737086 -1.1334028 -0.08473531 -0.27329332 -0.030155186 -0.12449857 0.05809711
00000000: 5862 f8be 49ad 143e 1463 c73d 9dc9 19be
00000010: e1ed 18bd 93bb 42be 194e a8bf 7fb1 30be
00000020: cfed eabd 2527 11be b055 42bd bbbe 33bd
00000030: d21d b6bd 9a3d d3bd ab9f 753c 6edf 62bb
00000040: 0753 903e c9f8 a9bd 3d4d debe 38b0 ebbe
00000050: 157c ffbd 33f0 0e3e b33c 05bf 5b3a 20bf
00000060: ec22 acbf 57da eebe 5e94 0dbf 9290 d13c
00000070: 71eb 82be f330 97bc 857c 383e 57c0 34be
00000080: 4228 cebd f0e2 b8be 4f27 f0be 8908 afbe
00000090: 20bb 503c ad5d c5be da4a 28be abc3 bcbe
000000a0: 5f40 323e 8fc8 e7bd a449 8bbd 7640 cc3d
000000b0: bcd9 84bf 1d7a 20be af2d 83be 4806 c33d
000000c0: f446 9fbe 7c56 b23e b32c aa3d e676 59bf
000000d0: 8e9a 80be 15c7 103e e279 6cbd 8fd4 f8bd
000000e0: fa47 27be c895 ba3d bf54 94be fc04 e1bf
000000f0: 1876 8abd 591c a5bd e18d 2a3f c984 82bd
00000100: ab09 513d 3a01 c03c 2a5e d4bc e8f4 233c
00000110: f343 24bd fa8c fe3d ec19 f43d 5ea3 05bd
00000120: d7d7 973c b5ea 50bf 96da 013c 15b7 b3bc
00000130: ce6a cebd 7072 143d f7b4 0dbe 4e7a 5ebf
00000140: 3d43 143e fa8c bbbe 98d6 b13e e146 94be
00000150: 90f5 03be 90b2 8bbc 8119 163f 73fe 6d3d
00000160: 8e52 9bbe 15ff 03bf ee98 b03c 4e14 0bbd
00000170: 3fd8 87bd 670c 83bd 4767 90bd e005 343c
00000180: 05af 21be 54cb 97bd 7c74 e2bc 1894 e83d
00000190: 8a32 923e d42f acbe 4bf5 3abf f58b ad3c
000001a0: 6755 20be 579e 913d ca46 f93d fee2 41bf
000001b0: 12e0 8ebd 8418 303d 453d fbbd 8864 be3c
000001c0: ca2e 07be 7eb0 953e 1bb9 5bbe c4a6 9dbf
000001d0: 85f6 9a3e 5cfb b53d 9a15 dfbd 7da1 983e
000001e0: 4eb1 62bd 8a25 713a 9ef7 f3bd 61ad 0cbf
000001f0: dd24 1cbd 4c6b 39be 2344 593e 0071 7ebb
00000200: e68c 7ebd 8098 b33d fca9 fa3d d456 53be
00000210: 2760 76bd 154d c7bd 218a 34bd fbc6 01bc
00000220: 61ac 5abe d8cc aebe 9718 bdbc 5725 26bd
00000230: 60bd 503c 7ca7 b1bd 07e9 34be 1b02 d7be
00000240: 3bb9 6bbd 84cf 703e 125d c0bd 6b5f a7bc
00000250: 7a4c 613e 43ba 9fbe ce07 d2bc 824f 7dbc
00000260: e62e 5dbe 4ce9 6fbf 26f8 54bf 631a c53c
00000270: c8a8 c4bd fbcb dc3c 92e6 06be d668 c03d
00000280: 3a36 debd 0805 d3bc 169c 39be 75c9 82be
00000290: 375b abbd 093c 9dbf 2968 03bf c490 8abf
000002a0: bb2a 9abe 87e2 c13d bbd3 ea3c 25e6 acbc
000002b0: afbf 1fbf 2909 253d 360f 10be 9458 fe3d
000002c0: a09c 7cbd b3ea a8be 78a4 d9bc 5f6f 9b3d
000002d0: 3fe2 d23d 70e9 353e d9ef 1bbc 8e72 273e
000002e0: 2bec 33bd d305 a93c 6c6d f9be e4d0 e63c
000002f0: 30c5 923d 02b0 c7bd 7561 043d d863 32bd
00000300: c04d 923e d89e 99be 9d34 37bd 407c 42be
00000310: 28bd b83d cd01 a03e f063 84bf bf33 9bbf
00000320: 5292 cabe fcc9 89be 6fe9 86bd d29f 1c3d
00000330: 988c 92bd 980c 5dbe 8b64 21bf 9001 14bc
00000340: 4169 54be 03d3 15bf aa71 473f 3417 053c
00000350: 0014 923d 946d bdbe 5f93 d7be 41e8 67bf
00000360: 7a9f 5bbe 30a7 75bc 918e 1ebe 45b2 6ebf
00000370: 113e 1fbc 3c59 4abd ecfc abbe 066d f23d
00000380: cab1 1fbd 8dad 99bd f0fd 1abf a60d 163e
00000390: 684b 563c 0cc9 9bbf 9543 2d3f 6655 c13e
000003a0: 67a0 15bf d8a1 29be b915 0cbd 963a 1bbe
000003b0: 413d 353e 117e 1e3e d72f 113e 8079 83ba
000003c0: 4d85 09bf 8667 fabc e485 b0bd ad83 253e
000003d0: 99cf 24bf 079d 253e 5de3 0f3e 4fd0 80be
000003e0: decc 923e bcf9 89bd 5813 91bf b589 adbd
000003f0: 1aed 8bbe 0208 f7bc 1bf9 febd 3cf7 6d3d

w_r.2.bias f4 [32]
0.04639694 -0.14787912 0.32987398 0.17907143 -0.16092871 -0.15566489 -0.03733311 0.0046499264
0.15923312 0.12768288 -0.004210851 -0.119409986 -0.733298 -0.24449411 -0.24574377 -0.24129374
-0.15367626 -0.16328822 0.65635747 0.43909863 0.0046294252 -0.067232504 -0.060114615 0.26206493
-0.1741511 0.3622371 -0.18961887 -0.12749399 0.15878136 -0.07699473 0.49846026 -0.038782172
00000000: b80a 3e3d a06d 17be 3ee5 a83e 805e 373e
00000010: 7fca 24be 9e66 1fbe 9aea 18bd 695e 983b
00000020: 020e 233e 4dbf 023e 2efb 89bb 398d f4bd
00000030: 6bb9 3bbf aa5c 7abe 41a4 7bbe b515 77be
00000040: 4f5d 1dbe 0735 27be 0b07 283f 89d1 e03e
00000050: 6fb2 973b 32b1 89bd be3a 76bd 602d 863e
00000060: aa54 32be 2477 b93e 732b 42be c98d 02be
00000070: 9597 223e 6aaf 9dbd 2f36 ff3e 0eda 1ebd

w_h.0.weight f4 [64, 5]
0.07963548 0.032782394 -0.96729034 -1.3762685 -0.6427637 0.24012968 0.1252135 0.04037337
1.3850214 -0.6122227 -0.15403771 -0.5373105 -0.2431895 -0.69244313 -0.120727055 -0.20223725
0.48247433 -0.5277936 -0.8362768 -0.09518085 -0.05064401 -0.33245242 -1.0056187 0.987296
-0.90901786 -0.34525767 -0.06988509 -1.1928242 0.6033716 -0.8773966 -0.5300448 0.022939146
-1.2590027 -0.18337063 -0.18028878 -0.44769368 -0.071535416 -0.92284966 0.19713907 -0.573293
-0.017979734 -0.009186001 -0.0984413 -0.10989516 -0.16270998 -0.019755067 -0.043715496 0.03310548
-0.0030136541 -0.16314296 0.2973469 -0.37219483 0.2808472 -0.50684726 -0.2635592 -0.22319573
-0.27138257 -1.5666898 -0.26424664 -1.032501 0.15875545 0.5038933 0.31493956 0.41551903
-0.6487046 -0.09575959 -0.21116984 -0.8750938 -0.85616374 -0.6671531 0.52392536 0.06088762
1.0645348 0.12310522 -0.7207262 -0.3204194 0.1500196 -1.153245 -0.42353442 -0.932576
-0.47882783 0.29582998 0.8057445 0.4734337 -0.44384295 -0.29352424 -0.43398577 -0.8153066
-0.99874747 -0.07504524 0.27934253 0.260497 -0.6783311 0.13843954 -0.07305154 -0.43835288
-0.15743141 0.27418676 -1.4972409 -0.5223371 -0.3873465 -0.013762663 -0.32221374 1.3375294
-0.83073086 0.48471156 -0.22687384 1.1927468 -0.33792296 -1.2942547 0.4321024 0.43661314
0.32477623 0.4477983 -0.8687575 -0.29469714 -0.44175157 0.90335816 -0.169567 0.032174736
0.34442028 0.2173081 0.7889502 -0.77047926 -0.31961173 0.117860004 0.17193362 -0.36370155
0.93958086 -0.5578059 -0.12737483 0.1742307 -0.07137749 1.3035824 -1.0553324 -0.20279273
-0.15935752 -0.5885915 -1.4115849 -0.88043004 -0.017607164 -0.33907548 1.3528259 0.24563704
-0.73581725 -0.4558173 -0.43532786 -0.6239924 -0.113214225 -0.28381357 -0.075940356 0.0037778867
-0.87758094 -0.28929192 -0.3079606 0.18139869 -0.20374538 1.0187083 -0.9039212 0.02046379
0.03697692 -0.0044844057 0.16843165 -0.049844053 -0.113885075 0.69643784 0.083510816 0.68206626
0.3497648 -0.64065164 -0.030773893 -0.01138514 0.92371243 -0.57983524 -0.16874707 -0.63286287
-0.35248408 -1.0814747 -0.48400882 -0.43117568 -0.22712453 -0.32694674 -1.049954 0.058349777
0.0007585247 -0.582649 0.006756523 -0.35781518 0.4347675 -1.2158493 0.6814234 0.15816803
-0.23768288 1.0685362 -0.27329624 -0.23796794 0.054023545 -0.91554874 0.5081236 -0.41296288
-0.14628309 -0.56209934 -0.26414603 -0.9536825 -0.5859784 -0.11971764 0.28753152 1.1169893
1.2462877 -0.8507929 -0.03228936 -0.0058142724 -0.1760158 -0.19463935 -0.6430229 0.14955056
0.17173542 0.9782018 1.0664891 -0.3077521 0.4355913 0.042175356 0.74557 -1.0153501
-0.99631053 0.008857266 0.054485768 -0.19487342 0.010823921 -0.65777737 0.08683908 0.26534417
1.292668 -0.08754379 -0.49859628 -0.26261163 -0.047581136 0.74717706 0.68626815 -0.40578815
-0.36475688 0.24385902 -0.5201498 1.0531776 -0.45803106 0.21075164 -0.019624919 1.1067419
0.91551125 -0.66282785 0.37454686 0.31686258 1.3274887 -0.2623462 -1.3539124 0.40513206
00000000: ed17 a33d d546 063d 57a0 77bf 9129 b0bf
00000010: 298c 24bf 8ee4 753e f837 003e 8c5e 253d
00000020: 6248 b13f a0ba 1cbf 10bc 1dbe 2e8d 09bf
00000030: ab06 79be f443 31bf bf3f f7bd 4817 4fbe
00000040: e006 f73e 7b1d 07bf 3d16 56bf 2dee c2bd
00000050: 1870 4fbd 3437 aabe 1db8 80bf 6ebf 7c3f
00000060: 65b5 68bf 9dc5 b0be ea1f 8fbd 77ae 98bf
00000070: 9076 1a3f 109d 60bf 04b1 07bf e0ea bb3c
00000080: 0027 a1bf 83c5 3bbe 9f9d 38be 1b38 e5be
00000090: 2981 92bd e03f 6cbf d3de 493e 54c3 12bf
000000a0: 3c4a 93bc e180 16bc 989b c9bd b710 e1bd
000000b0: 729d 26be 61d5 a1bc 050f 33bd 9d99 073d
000000c0: ba80 45bb f30e 27be da3d 983e 5290 bebe
000000d0: 34cb 8f3e bec0 01bf 3bf1 86be 6c8d 64be
000000e0: a8f2 8abe 4b89 c8bf 564b 87be fe28 84bf
000000f0: ca90 223e 27ff 003f c23f a13e e9be d43e
00000100: 8111 26bf 9b1d c4bd e83c 58be 2606 60bf
00000110: 8c2d 5bbf 8cca 2abf f91f 063f 4c65 793d
00000120: ad42 883f 971e fc3d 8381 38bf 030e a4be
00000130: bd9e 193e 889d 93bf 81d9 d8be 4dbd 6ebf
00000140: ec28 f5be 0777 973e 4645 4e3f e765 f23e
00000150: 623f e3be cf48 96be 6233 debe efb7 50bf
00000160: eaad 7fbf 52b1 99bd fc05 8f3e dd5f 853e
00000170: 1ba7 2dbf 18c3 0d3e 0c9c 95bd ca6f e0be
00000180: b335 21be 3562 8c3e 97a5 bfbf e2b7 05bf
00000190: 4852 c6be cb7c 61bc 33f9 a4be 2a34 ab3f
000001a0: c7aa 54bf 1d2c f83e 9e51 68be edab 983f
000001b0: 3d04 adbe 23aa a5bf 873c dd3e c28b df3e
000001c0: 1249 a63e d245 e53e e466 5ebf 8be2 96be
000001d0: 432d e2be 7b42 673f f9a2 2dbe a8c9 033d
000001e0: db57 b03e 0486 5e3e a4f8 493f 213e 45bf
000001f0: 26a4 a3be 9660 f13d 5e0f 303e 1737 babe
00000200: 5f88 703f 5ecc 0ebf 8c6e 02be 8869 323e
00000210: 5d2e 92bd cadb a63f 2215 87bf e6a8 4fbe
00000220: 9e2e 23be efad 16bf d0ae b4bf dd63 61bf
00000230: e63c 90bc 4d9b adbe 6629 ad3f 4788 7b3e
00000240: 855e 3cbf e360 e9be 4be3 debe f7bd 1fbf
00000250: dcdc e7bd 0350 91be 9e86 9bbd 6c96 773b
00000260: 25a9 60bf 121e 94be 03ad 9dbe 94c0 393e
00000270: a1a2 50be 0965 823f 6167 67bf aea3 a73c
00000280: 1c75 173d ecf1 92bb 5979 2c3e 4729 4cbd
00000290: 943c e9bd c049 323f b807 ab3d e59b 2e3f
000002a0: 5f14 b33e bf01 24bf 8819 fcbc bd88 3abc
000002b0: 6b78 6c3f 1570 14bf 08cc 2cbe 4d03 22bf
000002c0: cb78 b4be c36d 8abf 01d0 f7be 0fc3 dcbe
000002d0: 5593 68be 9065 a7be e564 86bf 2d00 6f3d
000002e0: bbd7 463a 7c28 15bf d365 dd3b 8d33 b7be
000002f0: d999 de3e f3a0 9bbf c471 2e3f cdf6 213e
00000300: 2463 73be cbc5 883f 7ced 8bbe dead 73be
00000310: cb47 5d3d 6761 6abf 6314 023f df6f d3be
00000320: 3ccb 15be bee5 0fbf 263e 87be 8924 74bf
00000330: ae02 16bf 862e f5bd 5537 933e 81f9 8e3f
00000340: 5b86 9f3f 90cd 59bf d941 04bd a785 bebb
00000350: 7c3d 34be 8a4f 47be 269d 24bf c823 193e
00000360: 69db 2f3e 6f6b 7a3f b782 883f af91 9dbe
00000370: d305 df3e 11c0 2c3d addd 3e3f fef6 81bf
00000380: 350e 7fbf 111e 113c 782c 5f3d e68c 47be
00000390: d156 313c 1964 28bf b0d8 b13d 31db 873e
000003a0: 2576 a53f 294a b3bd 0348 ffbe 0875 86be
000003b0: 70e4 42bd ff46 3f3f 45af 2f3f 77c3 cfbe
000003c0: 6ac1 babe 2eb6 793e 8a28 05bf 86ce 863f
000003d0: 0c83 eabe 47cf 573e 70c4 a0bc b8a9 8d3f
000003e0: f25e 6a3f 16af 29bf 9bc4 bf3e d03b a23e
000003f0: 26eb a93f 3e52 86be 004d adbf 786d cf3e

w_h.0.bias f4 [64]
-0.25208333 -0.6319137 -0.48425922 -0.5304105 -0.95446295 -0.81259197 -0.4169617 -0.37938294
-0.20840144 -0.20376918 -0.07506053 -0.67897725 -0.9805508 -0.044829547 -0.37790433 -0.79183733
-0.8214905 -0.6860322 -0.44847596 -1.040253 -1.0935522 -0.8567838 -1.067312 -0.79801255
-0.586886 -0.19456977 -0.67086124 -0.723857 -1.017451 -0.04780297 -0.07941081 -0.13474977
-0.3004832 -1.262573 -0.47532368 -0.96679664 -0.6724681 -1.0983804 -0.9873982 -0.15902713
-0.90876836 -0.7493522 -0.28118098 0.08389295 -0.62645966 -0.29497838 -0.7078848 -0.5077293
-0.5216256 -0.7487139 -1.1687952 -1.0457132 -0.42787784 -1.1273636 -0.7036734 -0.5777992
-0.8354191 -0.122545905 -0.8685022 0.030797232 -0.4802844 -0.5596147 -1.0493618 -0.23127148
00000000: 1111 81be 19c5 21bf d3f0 f7be fcc8 07bf
00000010: af57 74bf 0706 50bf 017c d5be 7b3e c2be
00000020: 3067 55be dea8 50be 56b9 99bd 74d1 2dbf
00000030: 6105 7bbf 309f 37bd ad7c c1be dab5 4abf
00000040: 344d 52bf ce9f 2fbf a49e e5be 0327 85bf
00000050: 85f9 8bbf 2f56 5bbf ae9d 88bf 8d4a 4cbf
00000060: 293e 16bf 4c3d 47be 90bd 2bbf b14e 39bf
00000070: d63b 82bf 0ccd 43bd 22a2 a2bd d8fb 09be
00000080: efd8 99be fe9b a1bf a05d f3be fc7f 77bf
00000090: df26 2cbf bb97 8cbf 21c6 7cbf 02d8 22be
000000a0: 0ba5 68bf 8cd5 3fbf f4f6 8fbe 11d0 ab3d
000000b0: a95f 20bf 6807 97be f037 35bf 8cfa 01bf
000000c0: 4189 05bf b7ab 3fbf 159b 95bf eed9 85bf
000000d0: ce12 dbbe 734d 90bf f123 34bf a6ea 13bf
000000e0: 07de 55bf 59f9 fabd 2956 5ebf 7a4a fc3c
000000f0: d6e7 f5be e942 0fbf 7d51 86bf 6ed2 6cbe

w_h.2.weight f4 [32, 64]
-0.15141937 0.4155098 -0.5305349 -0.017667225 -0.28482276 0.39271843 0.28863746 0.68597907
-0.07162058 -0.12133389 0.12467424 -0.35439348 -0.9923349 -2.0366142 -0.54337466 2.5277984
-1.9591062 0.32821298 0.15389837 0.69595397 0.118140884 0.19008137 -0.47389928 0.43309897
-0.0728032 0.2350131 0.48895878 0.93184525 0.22105345 -0.97570604 0.19027999 -1.1420194
-0.71485543 0.19743827 -0.27215365 0.14361013 -0.2347749 -3.9768164 0.4255447 1.0313926
-1.5175374 -0.36873984 -0.20804924 -0.13289478 -0.27563646 0.23211583 -1.9668643 1.1916457
0.9820586 -1.0900365 0.43859828 0.2758828 -0.37724584 -1.0343585 -2.5452414 0.53563315
-0.21306197 1.5649922 0.4444014 -0.5593637 -1.4063736 -1.7149305 0.37059984 0.6827293
-0.36618698 -0.55481255 0.133919 0.13774525 -0.108894415 -1.970242 0.61008155 0.73696035
0.018414838 0.07344503 -0.27823633 1.2956563 0.36978728 -0.061779916 -0.47330508 2.188049
0.13046502 0.26624733 0.21314605 0.39956415 -0.7305351 -0.789077 0.13403171 -1.3558307
0.32085094 0.08441754 0.08784297 0.44796795 0.23827437 -0.5796723 -0.33107537 0.53557885
0.084939644 -3.5829172 0.43719772 -1.8731817 -0.16896388 -1.0445911 -1.5994583 -1.4458477
0.40463254 -0.3500419 -0.048723344 -0.494348 0.16982916 -0.10698826 0.22764865 -0.5614141
-0.31667373 0.35095876 0.26119772 -0.20345946 -0.100051135 -0.23849104 -0.38081932 0.28905657
-0.43973032 -0.24675864 -0.44748145 0.28148165 -0.42545423 1.5015601 -0.4143851 -0.6607854
-0.27090165 0.37836987 0.37905326 0.49579403 0.5566636 -1.4379041 -0.31096834 -0.75258803
-0.026054753 0.05204962 -0.006208387 -0.8560678 -0.75246805 0.19511086 0.6520727 -0.07605901
-0.1910547 -0.754112 -0.3731004 -0.47220933 -0.12362705 -1.4269453 -0.21190402 -0.040550094
0.7278318 -0.397373 0.092122115 0.44033116 -0.15816979 0.117237255 -0.3900572 0.37755844
0.057385903 -1.4077983 -0.011176387 -0.07296001 0.5588095 1.1183933 -0.4185637 -0.15418828
-0.86122143 0.06289707 0.1893048 0.20203356 0.3785386 -0.060305238 0.40633276 0.11068613
0.8820939 0.4358396 -0.99754286 -1.65634 0.021911647 -0.8770029 0.29545277 0.67433906
0.038662735 -0.06740093 -0.753567 0.30146495 -0.07261852 1.5253798 0.7810227 0.4111052
-0.11140918 0.08858896 0.044171635 -0.033695698 0.013900509 -0.0818944 0.07532774 -0.13006115
-0.06810668 0.038964212 -0.12283686 -0.075317696 -0.07306666 -0.025975935 -0.108023636 -0.15807353
-0.005485413 -0.021448806 -0.11926732 -0.0835349 -0.023910232 0.018676275 0.018545166 -0.15441416
-0.06136669 -0.25631237 -0.1868251 -0.12835896 0.07381872 -0.15285717 -0.11843184 0.02309966
-0.008087548 0.049783316 -0.2094425 -0.17215556 -0.10359441 -0.10991471 -0.119464554 -0.12697037
-0.12255721 -0.04606741 -0.07190844 -0.17449717 -0.083962224 -0.10743587 -0.22975151 -0.09929358
0.08213168 -0.123065844 -0.04306873 0.014929466 0.082854845 0.03959137 0.0028216166 -0.20478742
0.04180967 -0.0715155 -0.042290557 -0.21303606 -0.16240482 -0.2249474 -0.13799962 0.045975123
00000000: ae0d 1bbe b3bd d43e 23d1 07bf dbba 90bc
00000010: 4ad4 91be 6412 c93e 4ac8 933e 539c 2f3f
00000020: d0ad 92bd e77d f8bd 3555 ff3d 1073 b5be
00000030: a909 7ebf e357 02c0 9a1a 0bbf 73c7 2140
00000040: fec3 fabf 880b a83e 8997 1d3e 0a2a 323f
00000050: d9f3 f13d b1a4 423e eda2 f2be 26bf dd3e
00000060: d819 95bd 46a7 703e ce58 fa3e 698d 6e3f
00000070: d65b 623e dfc7 79bf c2d8 423e b12d 92bf
00000080: c400 37bf 422d 4a3e b957 8bbe 890e 133e
00000090: d568 70be 2984 7ec0 ffe0 d93e ac04 843f
000000a0: aa3e c2bf 78cb bcbe dc0a 55be 9215 08be
000000b0: 3920 8dbe c6af 6d3e 36c2 fbbf d987 983f
000000c0: 3168 7b3f 5186 8bbf f48f e03e 8340 8d3e
000000d0: 5e26 c1be dc65 84bf 3ce5 22c0 411f 093f
000000e0: eb2c 5abe aa51 c83f 9588 e33e 7632 0fbf
000000f0: 0d04 b4bf d882 dbbf 43bf bd3e 59c7 2e3f
00000100: dc7c bbbe 3208 0ebf 1022 093e 170d 0d3e
00000110: 0904 dfbd e430 fcbf 4e2e 1c3f 6fa9 3c3f
00000120: b7da 963c 596a 963d fe74 8ebe 11d8 a53f
00000130: c254 bd3e f00c 7dbd 0b55 f2be ff08 0c40
00000140: 9f98 053e 9251 883e f542 5a3e ac93 cc3e
00000150: 5904 3bbf f300 4abf 9c3f 093e dc8b adbf
00000160: 9346 a43e 1ae3 ac3d 04e7 b33d 0e5c e53e
00000170: 32fe 733e 6765 14bf b682 a9be b21b 093f
00000180: d6f4 ad3d 844e 65c0 61d8 df3e 6bc4 efbf
00000190: de04 2dbe 29b5 85bf 0dbb ccbf 8a11 b9bf
000001a0: ff2b cf3e b138 b3be 2192 47bd 2e1b fdbe
000001b0: b2e7 2d3e a91c dbbd ba1c 693e d6b8 0fbf
000001c0: 0f23 a2be deb0 b33e b5bb 853e ad57 50be
000001d0: 9ce7 ccbd ff36 74be c0fa c2be 39ff 933e
000001e0: 5524 e1be 4cae 7cbe 4a1c e5be 5d1e 903e
000001f0: 23d5 d9be 1f33 c03f 492a d4be 3b29 29bf
00000200: 9fb3 8abe b2b9 c13e 4513 c23e b7d8 fd3e
00000210: 8181 0e3f 3e0d b8bf 3e37 9fbe 9ca9 40bf
00000220: c770 d5bc fb31 553d ba6f cbbb 4227 5bbf
00000230: bfa1 40bf 24cb 473e 3dee 263f d4c4 9bbd
00000240: d8a3 43be 7c0d 41bf 0407 bfbe 6cc5 f1be
00000250: 2e30 fdbd 25a6 b6bf 5efd 58be db17 26bd
00000260: 2f53 3a3f 7974 cbbe 85aa bc3d 1673 e13e
00000270: 43f7 21be 161a f03d 94b5 c7be 574f c13e
00000280: 7b0d 6b3d bc32 b4bf 2a1d 37bc 0f6c 95bd
00000290: 240e 0f3f 8327 8f3f fb4d d6be 88e3 1dbe
000002a0: 0279 5cbf 2ed0 803d 1ed9 413e e3e1 4e3e
000002b0: d0cf c13e a002 77bd d90a d03e 69af e23d
000002c0: e8d0 613f 5e26 df3e f85e 7fbf f302 d4bf
000002d0: 0e80 b33c 4383 60bf 9645 973e 7ca1 2c3f
000002e0: d15c 1e3d 8009 8abd c4e9 40bf 9d59 9a3e
000002f0: 05b9 94bd a53f c33f 1bf1 473f 617c d23e
00000300: 7f2a e4bd 216e b53d 51ed 343d 8004 0abd
00000310: f6be 633c 40b8 a7bd 6e45 9a3d c02e 05be
00000320: 847b 8bbd f098 1f3d e491 fbbd 2a40 9abd
00000330: f9a3 95bd 7ccb d4bc 7f3b ddbd 07de 21be
00000340: fbbe b3bb 68b5 afbc 6d42 f4bd 5814 abbd
00000350: 64df c3bc fdfe 983c 08ec 973c bf1e 1ebe
00000360: a35b 7bbd 603b 83be 144f 3fbe 8870 03be
00000370: 452e 973d 9786 1cbe 648c f2bd 803b bd3c
00000380: a381 04bc 97e9 4b3d 1878 56be 8c49 30be
00000390: 4e29 d4bd f71a e1bd d5a9 f4bd 8504 02be
000003a0: 46ff fabd 2eb1 3cbd bb44 93bd 63af 32be
000003b0: 63f4 abbd 5607 dcbd fb43 6bbe 6f5a cbbd
000003c0: a734 a83d f209 fcbd d668 30bd b89a 743c
000003d0: cdaf a93d 8f2a 223d dfea 383b cbb3 51be
000003e0: 9e40 2b3d b876 92bd dd38 2dbd 2026 5abe
000003f0: 734d 26be 9c58 66be c64f 0dbe 6950 3c3d

w_h.2.bias f4 [32]
-0.7203461 0.59674186 -0.24916528 -0.109127946 0.379994 -0.028066916 0.27856675 -0.12322829
-0.06955317 -0.19351132 -0.12230383 0.11509376 0.32882497 0.18706731 0.22465605 -0.23844622
-0.3691488 -0.01613462 -0.08427251 -0.08615658 -0.019898083 -0.20410325 -0.041947234 -0.06386715
0.06878943 -0.08209958 0.2686538 -0.22794066 -0.2544092 -0.19676718 -0.013913272 -0.15109116
00000000: 9a68 38bf 13c4 183f 2f25 7fbe 797e dfbd
00000010: 938e c23e 97ec e5bc 4da0 8e3e 1d5f fcbd
00000020: e471 8ebd d527 46be 6e7a fabd 47b6 eb3d
00000030: bf5b a83e 938e 3f3e 3c0c 663e 3f2b 74be
00000040: 1201 bdbe c02c 84bc 1197 acbd dc72 b0bd
00000050: 4e01 a3bc 7100 51be ddd0 2bbd c8cc 82bd
00000060: 79e1 8c3d d323 a8bd fe8c 893e 4769 69be
00000070: ec41 82be 567d 49be 7ef4 63bc a4b7 1abe

Ws.0 f4 [32, 32]
-2.3064156 -0.45542696 0.5584852 1.0900133 2.2779322 0.29454148 0.35201344 3.7080045
-5.568191 -0.23044285 -2.224253 1.1808622 0.5835708 0.40955403 0.26490757 0.16555429
-0.033178166 -0.19630338 0.51439124 1.1611017 0.94374573 -0.4768208 1.0625812 0.4638939
-0.35363534 0.316848 0.39771014 0.4717544 0.414898 -0.15825254 0.72179484 1.7774394
-4.355218 -1.753248 -0.018608568 1.4044574 -2.46653 0.3049976 1.0846981 -0.050456885
-0.17170759 -1.6541158 0.12716727 0.8223954 0.45016158 0.107145265 -0.11340254 -1.8358617
-1.026681 0.64052254 0.32733873 1.9132423 -3.0145214 -1.5547928 1.7765148 -0.3009645
0.21256587 1.0246028 1.2294887 0.5028059 -0.6033288 -2.33503 1.0914559 0.9454081
-2.8875225 -1.6626241 -1.3147595 0.3445352 0.20040436 1.4201305 -1.0375508 -0.6525563
-4.83456 0.8780685 1.0315958 -0.2991174 -0.14328513 0.06877693 0.11431305 -0.5559269
1.1992005 0.55397284 -1.3625389 1.2200929 0.6674816 -0.56165034 -1.1508126 -1.8196062
1.1023066 -0.40875158 -1.1409253 0.021487655 -0.61666775 0.6429011 -0.4216145 0.4781854
-3.2000751 -1.236613 -0.1674292 -3.1615198 -0.040763523 0.8774382 -0.9143851 1.0919969
-0.21528743 0.34754324 0.21679136 -2.8801463 -0.10965611 -1.4289651 -1.2119625 -0.54864156
-0.2610714 -0.4642793 1.8944483 1.7128984 1.2782688 0.6357305 -3.5244927 -3.9270048
0.7196435 -0.054692015 1.0378914 -1.2431954 -1.4415414 -1.0090332 0.24157323 -0.5068633
0.06732698 -1.7431452 -0.8003101 -3.9443755 -0.6226215 -0.5353589 -2.7111738 -1.3832277
0.4918163 0.50159836 1.2718667 0.05332788 0.16978768 -0.43617263 0.2995476 1.0896052
0.8417299 -0.9990125 -0.12871636 -3.1099088 0.011729929 0.7238372 -0.5476668 -2.2346494
0.19501315 -2.7205281 -0.923528 -3.7180467 0.19933206 0.58877987 1.0639133 0.16580917
-2.4525886 -0.59357166 -0.92556983 -0.059851676 0.30399695 0.2731277 1.4209005 -0.101736344
0.93738705 0.53147006 0.7370011 0.49113402 -0.6302232 -1.2029839 0.9942707 -0.58403015
1.5470985 0.77052695 0.20562007 -0.59011835 -0.9212083 0.8924987 1.3432622 0.90290195
-0.5391866 0.9466402 -0.22610082 -1.5148665 -0.012308176 -0.05918175 0.57241124 -2.3271494
-3.5659437 -0.21627904 0.59688 2.1441083 -0.4105402 0.34486243 0.6404362 1.4962022
2.141906 0.40873852 0.49537346 -2.4089363 -0.8457398 0.35041523 0.45832825 0.9772529
-0.9913637 -0.4343001 -0.24872561 1.093436 -0.46386734 -0.71527034 -3.2407312 -0.0884959
0.059400752 0.33220235 -0.5717806 1.3377169 1.9156777 2.7636416 0.47034404 0.7347485
1.5431346 1.5476366 -0.79356295 -1.7860919 -0.902365 1.705087 -3.367356 0.046167336
-0.25443777 -0.17855634 -3.0254548 -2.735953 -2.1493883 -3.6053956 1.3877162 -1.1253719
0.9774567 1.0881367 -0.9462374 -0.7734254 -0.56473124 -0.27384895 -3.3770144 1.1344799
0.71615285 0.6298278 1.4158201 -2.4586422 -0.2128994 1.332429 -0.3780888 1.6050122
00000000: 509c 13c0 b92d e9be e3f8 0e3f 8e85 8b3f
00000010: a4c9 1140 24ce 963e 1b3b b43e f24f 6d40
00000020: 9f2e b2c0 36f9 6bbe 295a 0ec0 7e26 973f
00000030: e564 153f 11b1 d13e f7a1 873e 1087 293e
00000040: d4e5 07bd c103 49be 25af 033f fb9e 943f
00000050: 5299 713f db21 f4be a902 883f 8083 ed3e
00000060: b10f b5be e739 a23e aaa0 cb3e cb89 f13e
00000070: 836d d43e f40c 22be 8cc7 383f 2283 e33f
00000080: f25d 8bc0 6e6a e0bf ff70 98bc 43c5 b33f
00000090: a1db 1dc0 a528 9c3e 63d7 8a3f e1ab 4ebd
000000a0: 1dd4 2fbe 11ba d3bf 2338 023e 8188 523f
000000b0: 947b e63e fa6e db3d 973f e8bd 84fd eabf
000000c0: 486a 83bf 49f9 233f f198 a73e 20e5 f43f
000000d0: ebed 40c0 7303 c7bf d664 e33f 0518 9abe
000000e0: deaa 593e 2f26 833f e35f 9d3f e3b7 003f
000000f0: c273 1abf 2271 15c0 d4b4 8b3f 4406 723f
00000100: 2bcd 38c0 ded0 d4bf 0a4a a8bf eb66 b03e
00000110: cd36 4d3e d6c6 b53f 77ce 84bf ee0d 27bf
00000120: b7b4 9ac0 19c9 603f 550b 843f ea25 99be
00000130: 56b9 12be ebda 8c3d f61c ea3d 3a51 0ebf
00000140: 677f 993f 2ad1 0d3f ad67 aebf 012c 9c3f
00000150: 13e0 2a3f 51c8 0fbf d44d 93bf dbe8 e8bf
00000160: 6218 8d3f e347 d1be d709 92bf e106 b03c
00000170: f0dd 1dbf 2b95 243f dbdd d7be b7d4 f43e
00000180: 08ce 4cc0 5649 9ebf 8f72 2bbe 5756 4ac0
00000190: a7f7 26bd ca9f 603f 2415 6abf 8ec6 8b3f
000001a0: 4f74 5cbe 30f1 b13e 8efe 5d3e 5154 38c0
000001b0: 6293 e0bd 54e8 b6bf 9621 9bbf c673 0cbf
000001c0: 27ab 85be 04b6 edbe 487d f23f 4140 db3f
000001d0: 509e a33f 3cbf 223f 4a91 61c0 0c54 7bc0
000001e0: 8e3a 383f bc04 60bd a0d9 843f 0721 9fbf
000001f0: 6e84 b8bf 0028 81bf f95e 773e cbc1 01bf
00000200: bae2 893d 621f dfbf 1fe1 4cbf a670 7cc0
00000210: 1f64 1fbf 480d 09bf df83 2dc0 9b0d b1bf
00000220: 59cf fb3e c068 003f 87cc a23f 566e 5a3d
00000230: d2dc 2d3e 0552 dfbe 4e5e 993e 2f78 8b3f
00000240: 9c7b 573f 48bf 7fbf 39ce 03be bf08 47c0
00000250: e32e 403c 654d 393f e433 0cbf 7f04 0fc0
00000260: 87b1 473e 221d 2ec0 556c 6cbf 7af4 6dc0
00000270: b41d 4c3e 47ba 163f 502e 883f e1c9 293e
00000280: 36f7 1cc0 50f4 17bf 25f2 6cbf 0827 75bd
00000290: 7da5 9b3e 65d7 8b3e 11e0 b53f 255b d0bd
000002a0: 99f8 6f3f 6c0e 083f 1bac 3c3f eb75 fb3e
000002b0: 4f56 21bf 60fb 99bf 8688 7e3f 0083 15bf
000002c0: 5307 c63f 4141 453f 118e 523e ff11 17bf
000002d0: 4fd4 6bbf cb7a 643f 04f0 ab3f 9524 673f
000002e0: 2208 0abf 0357 723f f986 67be 25e7 c1bf
000002f0: 3ba8 49bc 9068 72bd 8b89 123f 04f0 14c0
00000300: 6c38 64c0 4178 5dbe 21cd 183f 1239 0940
00000310: 5332 d2be cf91 b03e a0f3 233f 8e83 bf3f
00000320: fd14 0940 2d46 d13e 97a1 fd3e 032c 1ac0
00000330: 6782 58bf a069 b33e 00aa ea3e 3f2d 7a3f
00000340: 03ca 7dbf 955c debe edb1 7ebe b6f5 8b3f
00000350: 0580 edbe f51b 37bf 2468 4fc0 573d b5bd
00000360: 344e 733d 6d16 aa3e 3760 12bf 4f3a ab3f
00000370: ed34 f53f 81df 3040 efd0 f03e 7a18 3c3f
00000380: 6f85 c53f f518 c63f f126 4bbf a99e e4bf
00000390: 6501 67bf 4a40 da3f c382 57c0 f619 3d3d
000003a0: ab45 82be 79d7 36be 0da1 41c0 db19 2fc0
000003b0: 948f 09c0 cdbe 66c0 afa0 b13f 300c 90bf
000003c0: 9a3a 7a3f 1048 8b3f 9d3c 72bf 35ff 45bf
000003d0: 3a92 10bf ee35 8cbe 0121 58c0 a336 913f
000003e0: cb55 373f 653c 213f 9839 b53f 655a 1dc0
000003f0: 4d02 5abe 098d aa3f db94 c1be 0a71 cd3f

Ws.1 f4 [32, 32]
0.31704482 -3.2868004 -0.440065 -0.8062145 -0.24200156 0.00040016993 0.122203045 0.42287198
-0.5752276 -2.6927857 -0.6775422 -1.8882344 -0.61062586 0.28795478 0.3708475 -1.3500648
1.1663325 -4.367642 -5.494919 -2.2859988 -2.2092302 0.17803513 -4.7525363 -1.5032767
-3.234755 2.9112756 -0.6448303 -1.243321 0.508192 0.0012639358 0.28171295 -1.8193359
0.5142833 -0.6179242 -1.3966779 0.5318023 0.9221304 -0.9690493 0.5455517 0.6918978
-0.2902782 0.93542385 1.2233677 0.6322649 0.21787098 0.1589875 -0.6506625 -0.2519485
-0.48102263 0.4178486 0.7616512 -4.8589973 -0.62236625 -0.8308079 0.3773473 -0.2577025
-0.30706397 -0.64589214 0.25396317 0.3477832 -0.07966682 0.5014269 1.0394287 -1.413277
0.3922636 -1.0334976 -0.6991874 0.046170473 -0.9999346 1.0021046 -1.6575265 -2.33287
0.7004566 -0.72435665 1.0024177 -1.0459814 0.8988644 -0.39726242 1.8935286 -0.14004612
-0.13026115 -0.06293218 -0.73095787 -0.16996942 -0.90795636 -1.6041448 -0.43273455 -2.8971133
0.67600745 -2.2692904 -0.2365495 0.42682183 1.1949755 -1.2109692 -1.9042952 0.047969136
-0.59426695 0.8969543 -0.65196943 -0.2555308 -0.5873188 -1.5070473 -0.27798203 -0.42002285
0.41160744 0.5028647 -2.2408652 -2.4534323 0.63333386 1.1330638 0.08807112 -1.1198956
-0.10705767 0.18297033 -1.8489808 -1.5461476 0.025011137 -1.2390013 1.0864571 -1.0721605
0.49549085 -0.48096707 0.8116456 -0.6924392 0.58481216 -1.0269558 -0.8633054 0.36467722
0.96274245 -0.982149 -0.7319763 -0.72228235 -0.5247323 -0.67927647 -0.51636434 -0.038555834
-0.23125699 0.48232186 -0.051945545 1.2336671 0.2825887 0.46014172 -0.47648555 -0.5860161
-0.95951325 1.8441023 -0.74719983 0.28201836 0.24254408 -1.0855639 0.86287826 -0.16977295
0.075661786 -1.1450459 -1.3581643 0.030641006 1.3117306 0.61766034 -1.1852038 -0.34125
-2.5841918 -0.1447898 1.0517232 1.2555324 0.71990633 -0.49432912 2.049511 -0.99682146
0.092950806 -1.2548494 0.19896334 -0.5545446 -0.75764495 -0.37027833 -0.1915402 0.17397939
0.02416129 -0.011225392 1.3334699 -2.4976013 0.8032149 -1.5032095 1.0705254 0.2681304
-0.7763437 -0.49445444 -1.5114679 -2.0695148 1.9195212 -1.5909239 0.17255858 -0.46405977
-0.18128432 1.0830281 0.13043311 -0.90371615 -0.32288295 0.11854033 0.27908835 0.16707294
-1.3102943 0.8497126 -0.09808313 0.5797119 1.169088 0.6630418 0.8293476 0.52564627
0.28444815 0.6103276 -0.21872559 -1.3221818 0.4722441 -2.3330545 0.23180985 -0.8464982
0.52003485 -1.2563981 -0.7639124 -2.6227891 0.43650568 1.0973903 -0.90538234 0.075817496
-0.4544897 -1.9838877 0.82211894 -1.7284737 0.31171095 -0.7268018 -1.7355659 -2.2063673
0.63148606 -2.0937128 -0.6527926 -1.3231686 -1.0070858 0.43664753 0.4285115 -1.4836304
-0.4434947 -2.4768605 -0.2049288 -0.3501636 0.447737 0.49330875 -1.4234849 0.69333273
0.46773005 1.1043645 0.39339665 -0.82062435 -0.07114636 -0.83527917 -0.19402787 0.8333542
00000000: b353 a23e f05a 52c0 3350 e1be 1364 4ebf
00000010: 42cf 77be e6cd d139 9745 fa3d ad82 d83e
00000020: 1e42 13bf 9a56 2cc0 6873 2dbf aab1 f1bf
00000030: fa51 1cbf cf6e 933e b9df bd3e ecce acbf
00000040: 624a 953f b9c3 8bc0 60d6 afc0 ce4d 12c0
00000050: 0764 0dc0 d74e 363e c714 98c0 5f6b c0bf
00000060: 3a06 4fc0 5752 3a40 9913 25bf 2425 9fbf
00000070: df18 023f a6aa a53a ae3c 903e 00e0 e8bf
00000080: 12a8 033f 4830 1ebf 57c6 b2bf 3224 083f
00000090: bd10 6c3f 9d13 78bf 47a9 0b3f 3720 313f
000000a0: 589f 94be f077 6f3f 5097 9c3f 1ddc 213f
000000b0: 9219 5f3e 9fcd 223e d191 26bf 65ff 80be
000000c0: 9948 f6be 40f0 d53e 93fb 423f e87c 9bc0
000000d0: 6553 1fbf d4af 54bf aa33 c13e 95f1 83be
000000e0: 7d37 9dbe 3059 25bf 7607 823e a410 b23e
000000f0: 5c28 a3bd 835d 003f 000c 853f 43e6 b4bf
00000100: c6d6 c83e a649 84bf f2fd 32bf 401d 3d3d
00000110: b7fb 7fbf f744 803f d429 d4bf be4d 15c0
00000120: 2051 333f 706f 39bf 394f 803f b8e2 85bf
00000130: fa1b 663f fb65 cbbe 255f f23f 4068 0fbe
00000140: 2e63 05be 96e2 80bd 0e20 3bbf 770c 2ebe
00000150: d46f 68bf 9e54 cdbf 628f ddbe 4e6a 39c0
00000160: d30e 2d3f 0e3c 11c0 083a 72be 6488 da3e
00000170: f5f4 983f 0a01 9bbf f2bf f3bf 497b 443d
00000180: e121 18bf cc9e 653f 78e7 26bf efd4 82be
00000190: 865a 16bf ede6 c0bf a953 8ebe 3c0d d7be
000001a0: 36be d23e bebb 003f 566a 0fc0 0905 1dc0
000001b0: 2b22 223f 3c08 913f a25e b43d bd58 8fbf
000001c0: 0d41 dbbd 935c 3b3e 67ab ecbf 2ae8 c5bf
000001d0: 28e4 cc3c 9897 9ebf 0711 8b3f 8e3c 89bf
000001e0: fab0 fd3e 5141 f6be 02c8 4f3f b243 31bf
000001f0: 40b6 153f 4a73 83bf 9501 5dbf f9b6 ba3e
00000200: 4a76 763f 1e6e 7bbf cc62 3bbf 7fe7 38bf
00000210: db54 06bf 10e5 2dbf 7430 04bf b9ec 1dbd
00000220: a2ce 6cbe e4f2 f63e dac4 54bd cee8 9d3f
00000230: 77af 903e b297 eb3e eaf5 f3be 2705 16bf
00000240: a9a2 75bf 8b0b ec3f 7d48 3fbf b664 903e
00000250: 7a5d 783e c2f3 8abf 97e5 5c3f f6d8 2dbe
00000260: 91f4 9a3d dd90 92bf 54d8 adbf d902 fb3c
00000270: cae6 a73f fd1e 1e3f c2b4 97bf 52b8 aebe
00000280: 6663 25c0 c743 14be de9e 863f 49b5 a03f
00000290: c84b 383f b518 fdbe 302b 0340 b12f 7fbf
000002a0: fe5c be3d e89e a0bf 0cbd 4b3e a3f6 0dbf
000002b0: 05f5 41bf 1f95 bdbe 1d23 44be a727 323e
000002c0: e6ed c53c b5ea 37bc 24af aa3f b3d8 1fc0
000002d0: 7e9f 4d3f 2b69 c0bf fa06 893f 6348 893e
000002e0: 76be 46bf 2229 fdbe c877 c1bf ee72 04c0
000002f0: dfb2 f53f 65a3 cbbf 32b3 303e 3e99 edbe
00000300: 99a2 39be aaa0 8a3f 4290 053e f159 67bf
00000310: ea50 a5be 46c5 f23d abe4 8e3e 2b15 2b3e
00000320: b9b7 a7bf c486 593f cfdf c8bd 0068 143f
00000330: ada4 953f 1bbd 293f 2050 543f c190 063f
00000340: 30a3 913e 6e3e 1c3f 9af9 5fbe 413d a9bf
00000350: fbc9 f13e c450 15c0 905f 6d3e 1bb4 58bf
00000360: 0121 053f a7d1 a0bf c38f 43bf c7db 27c0
00000370: ac7d df3e 4977 8c3f 23c7 67bf 3446 9b3d
00000380: e0b2 e8be 08f0 fdbf 6376 523f a03e ddbf
00000390: 9498 9f3e af0f 3abf 0627 debf 1f35 0dc0
000003a0: 12a9 213f 64ff 05c0 6a1d 27bf 975d a9bf
000003b0: 30e8 80bf 4490 df3e dc65 db3e 9ae7 bdbf
000003c0: bd11 e3be e284 1ec0 dbd8 51be a548 b3be
000003d0: c93d e53e f792 fc3e c134 b6bf 417e 313f
000003e0: 507a ef3e d15b 8d3f 496b c93e 7014 52bf
000003f0: 2fb5 91bd dbd4 55bf 3eaf 46be b356 553f
