crowd_nav/GRL_output/rl_model_8.pth (torch, 143871 bytes, 33 tensors)

w_a f4 [32, 32]
1.1644976 0.34131244 1.2945801 -7.2663393 -0.540942 0.95431244 0.38626036 -1.3879817
1.3457732 -1.8473518 -0.5052107 -0.8851958 -1.7424841 -0.70222163 -0.8192409 -1.2398478
0.49177903 -1.8469348 -0.336319 0.66445476 0.93581295 -0.8391907 -0.3237423 -2.4381747
0.25280872 -0.8240934 -0.000540795 -0.6475499 -0.065879 0.3194488 0.57411355 1.8864857
0.2706011 0.41651016 -2.1146271 -0.08321075 -0.24235927 0.52863663 -0.09620263 0.87172365
0.7075821 0.4051511 0.59600925 0.34770066 -0.38906404 -0.45058873 -0.35482505 -0.18298072
-0.1309075 0.44516367 -0.92999566 -1.5424392 0.4786174 -0.15975825 -2.0471184 -1.262182
0.03852363 -0.13337968 -0.75454694 -0.523257 -0.8257239 0.12637673 0.198224 0.16894658
-1.1660602 -0.86134917 0.05089882 0.9869794 -1.1094819 -1.2892768 -0.053584855 -2.3098304
-1.2727835 -1.4495714 -0.13329376 -1.0043566 -0.08106663 0.110503905 -0.50654274 -0.65897626
0.5301107 0.29739693 -1.6481303 0.31866574 -0.5539839 0.15407395 0.24517931 -0.34809524
-1.0556836 0.92792857 -0.5821742 -0.52199244 -0.3613522 -0.16641049 0.32103357 -1.4863853
-0.6299569 0.19987832 -0.16269824 0.5735578 -0.7536096 1.8255334 1.3923908 -0.6836046
0.21237777 -1.3425738 -0.9319687 -0.47099197 0.44159013 0.1648627 0.8340697 -0.64928997
0.8339243 0.55044687 0.08352223 1.1076944 0.063910335 0.3246799 0.494875 1.2586818
0.109120205 -0.3165408 -0.5391678 0.3276477 -1.3987644 0.5965001 0.055106815 -0.6527259
0.030288382 -0.3348585 1.1882286 0.92672396 -1.2389184 -0.8922551 -0.05637341 -0.3527091
-0.8669986 1.1211833 0.09824675 -0.795964 -0.6658739 1.3742135 0.45330653 0.15818986
0.7787861 -0.26147097 -0.7836698 -0.0034918103 -1.4333646 -0.45363954 0.69632643 0.579134
-0.7133835 0.28821838 -1.6407679 -0.7093741 -0.30824623 -2.2765791 -0.733639 -0.70175475
1.400652 -0.36355174 -0.93704444 2.5654497 0.6104863 1.1691079 -1.418747 2.894634
0.28876355 1.5892824 1.4454495 2.813889 -3.4570305 -4.9651637 -1.391225 1.8117287
1.5080543 1.3874098 -1.663043 1.8575789 -1.1665443 1.3760778 1.0630894 -0.8473525
-1.188745 -0.2653076 0.19539624 3.257628 0.6727078 -1.2048935 0.9707181 -3.1489701
-0.21684743 0.7328557 0.16596767 0.52523834 -0.39572218 0.67092746 -0.44437018 1.0311377
0.27770355 -1.3997912 0.15535174 -0.10939209 -0.28059474 -0.4863345 -0.8371852 -0.86792237
1.2184075 -0.53123605 -1.9442792 -0.8587503 -2.1351595 -0.12073177 0.38778597 -1.5883906
-0.50040275 -0.54107845 -2.182284 -0.4858104 -0.09913536 -1.0144428 0.014273304 -3.748045
-0.08209037 -0.40828136 -0.5903905 -0.17205334 0.12823445 -0.60049385 -0.8244981 1.3231919
-0.413937 -1.4739957 -0.13062654 0.43727332 -0.08917772 0.47566292 -0.46643478 -0.9430855
-0.9561077 -0.66649467 0.1137801 -0.51610535 -0.8015818 0.45066345 0.76411796 -1.7047216
-1.5720924 0.7878277 -1.1535282 0.95930254 -0.50566906 -2.309841 1.6986846 1.7347866
00000000: 420e 953f 81c0 ae3e cdb4 a53f da85 e8c0
00000010: 2d7b 0abf d24d 743f ebc3 c53e 62a9 b1bf
00000020: 4c42 ac3f 0676 ecbf 7d55 01bf 319c 62bf
00000030: b809 dfbf ccc4 33bf c6b9 51bf 55b3 9ebf
00000040: 76ca fb3e 5c68 ecbf 0132 acbe b519 2a3f
00000050: 7091 6f3f 34d5 56bf 8dc1 a5be 0e0b 1cc0
00000060: 2570 813e c9f7 52bf 23c4 0dba d5c5 25bf
00000070: 92eb 86bd cb8e a33e 1bf9 123f 5d78 f13f
00000080: 3a8c 8a3e d240 d53e 0d56 07c0 666a aabd
00000090: 072d 78be bb54 073f e205 c5bd 4829 5f3f
000000a0: 1a24 353f f76f cf3e 1094 183f d205 b23e
000000b0: 6733 c7be 91b3 e6be a1ab b5be 4c5f 3bbe
000000c0: 9e0c 06be 7eec e33e 3214 6ebf a66e c5bf
000000d0: 570d f53e ab97 23be fd03 03c0 2e8f a1bf
000000e0: f4ca 1d3d af94 08be fd29 41bf 2cf4 05bf
000000f0: a462 53bf e768 013e 3bfb 4a3e 5500 2d3e
00000100: 7641 95bf 6181 5cbf 487b 503d afaa 7c3f
00000110: 8103 8ebf 0607 a5bf cb7b 5bbd 43d4 13c0
00000120: 92ea a2bf 8e8b b9bf 297e 08be c28e 80bf
00000130: 4306 a6bd df4f e23d c9ac 01bf abb2 28bf
00000140: 56b5 073f 6944 983e eff5 d2bf 2828 a33e
00000150: e4d1 0dbf 90c5 1d3e 4910 7b3e 8a39 b2be
00000160: a420 87bf ba8c 6d3f 5e09 15bf 4ca1 05bf
00000170: 2803 b9be 8367 2abe 835e a43e e041 bebf
00000180: db44 21bf e7ac 4c3e 5e9a 26be afd4 123f
00000190: 8fec 40bf 14ab e93f dd39 b23f b600 2fbf
000001a0: 8f79 593e 75d9 abbf 8095 6ebf dc25 f1be
000001b0: 1a18 e23e c5d1 283e 9885 553f de37 26bf
000001c0: 107c 553f 16ea 0c3f b40d ab3d eec8 8d3f
000001d0: 6ce3 823d 723c a63e 4260 fd3e 7c1c a13f
000001e0: 6a7a df3d a311 a2be e706 0abf 70c1 a73e
000001f0: b60a b3bf 3bb4 183f afb7 613d 0b19 27bf
00000200: 571f f83c 9372 abbe e017 983f c83d 6d3f
00000210: e194 9ebf d56a 64bf cee7 66bd 4a96 b4be
00000220: 9ff3 5dbf ef82 8f3f 9835 c93d 4cc4 4bbf
00000230: b676 2abf 3ae6 af3f cb17 e83e 86fc 213e
00000240: 875e 473f 86df 85be 969e 48bf dbd6 64bb
00000250: 7e78 b7bf 7143 e8be 7342 323f 2042 143f
00000260: 4da0 36bf 5c91 933e af04 d2bf 8b99 35bf
00000270: 73d2 9dbe 79b3 11c0 c4cf 3bbf 33a6 33bf
00000280: 9148 b33f 7423 babe 25e2 6fbf 5430 2440
00000290: d548 1c3f 54a5 953f 8099 b5bf af41 3940
000002a0: d1d8 933e 9b6d cb3f 7d04 b93f c216 3440
000002b0: fd3f 5dc0 9fe2 9ec0 a913 b2bf bae6 e73f
000002c0: ec07 c13f a596 b13f 98de d4bf 25c5 ed3f
000002d0: 5351 95bf 5123 b03f 5013 883f 18ec 58bf
000002e0: cc28 98bf 66d6 87be f415 483e fa7c 5040
000002f0: 9436 2c3f f339 9abf fb80 783f ba88 49c0
00000300: 410d 5ebe 6e9c 3b3f 6ef3 293e 0576 063f
00000310: 199c cabe e7c1 2b3f 7d84 e3be 52fc 833f
00000320: 292f 8e3e 5c2c b3bf 8714 1f3e f608 e0bd
00000330: 1daa 8fbe d600 f9be c551 56bf 2930 5ebf
00000340: c7f4 9b3f 16ff 07bf 24de f8bf 0fd7 5bbf
00000350: 74a6 08c0 3842 f7bd e28b c63e 6250 cbbf
00000360: 651a 00bf 1e84 0abf 8baa 0bc0 24bc f8be
00000370: 7b07 cbbd 43d9 81bf 93da 693c f8df 6fc0
00000380: ff1e a8bd 410a d1be d523 17bf c02e 30be
00000390: e44f 033e f7b9 19bf 4f12 53bf 5a5e a93f
000003a0: 8def d3be e4ab bcbf f7c2 05be 4ae2 df3e
000003b0: cfa2 b6bd 178a f33e 8ad0 eebe 0d6e 71bf
000003c0: 79c3 74bf 659f 2abf 8b05 e93d 7b1f 04bf
000003d0: 7734 4dbf 5cbd e63e 3c9d 433f 5134 dabf
000003e0: 533a c9bf 13af 493f d0a6 93bf da94 753f
000003f0: 8773 01bf 6fd4 13c0 7f6e d93f 7d0d de3f

w_r.0.weight f4 [64, 9]
0.7144645 0.069638535 1.0356121 -0.6709932 -0.58871275 0.03293073 -0.3400183 -0.23532507
-0.28532323 0.205575 -0.09505036 -1.0675555 -0.37644055 -0.1236928 -0.09710666 -0.09976945
-0.24669228 -0.15222736 0.034159895 0.004223107 -0.2328864 -0.22123155 -0.122618936 -0.31543738
-0.24346362 0.15027569 0.018021299 -0.7683212 0.48331195 -0.055046678 0.12489069 -0.17605267
-0.16776602 -0.3948471 -0.07344855 -0.24447829 0.09954082 -0.02517574 -0.31324822 -0.036661696
-0.3622319 -0.15083814 -0.007058485 -0.29712597 -0.24793409 0.70403045 0.41956168 -0.93354374
0.856836 -0.4948104 0.22626948 -0.23309182 -0.4582264 -0.69679266 -0.08168865 0.9080331
0.072865926 0.033919256 0.09255924 -0.20792806 0.12780242 -0.33091903 0.08983691 -0.7942572
-0.36262646 -0.0776586 -0.13978072 -0.31215158 0.013089895 -0.33437163 -0.0007708033 -0.038051393
-0.9538168 -0.0621104 0.47683078 -1.1545024 0.09345601 0.11653094 -0.2885525 -0.49612078
-0.44070017 0.67816293 0.11670994 0.7896151 -0.06649105 -0.7389595 0.17105433 -0.46600363
-0.9983152 -0.494128 -0.12100175 -0.011075319 0.025659373 -0.3696017 -0.37177503 -0.045767944
0.038503982 -0.43564853 -0.2146099 0.02857593 -0.0010615564 0.11848807 -0.42316106 -0.6102472
0.2905801 -0.08998499 -0.00042580985 -0.10502331 -0.14494845 -0.029048365 -0.21639757 -0.28705162
-0.07340324 -0.1905402 -0.33187622 0.15872249 0.21319675 -0.4737046 -0.2244019 -0.8978978
1.181912 -0.25301227 -0.12633765 -0.56868976 -0.35064003 -0.2061161 -0.7174366 0.4654132
-0.9475433 -1.2228292 -0.9134642 -0.22128408 -0.4774481 -0.89324576 -0.4876689 -0.49031463
-0.47074226 -0.053203538 0.047449987 -0.3446703 -0.26921508 -0.5243192 -0.4230717 -0.33930194
-0.16003379 0.18094376 0.0037853846 -0.013702487 -0.34972015 -0.0030560098 0.14643438 0.03878328
0.05163151 -0.96809095 0.28620523 -1.306382 1.4024961 -0.13515672 -0.03999996 -0.33882692
-0.4279815 -0.6393961 0.6553547 1.197073 0.035961024 0.03518142 -0.22767463 -0.30505353
-0.40093854 -0.4424228 0.05812079 0.68160003 -1.0895972 0.06229028 -0.0018631193 -0.65888894
0.2294291 -0.597108 -0.11692087 -0.3657243 0.15292773 -0.3982513 0.2950996 -0.42941925
0.040098727 -0.04311347 -0.44269684 -0.39445493 -0.23514338 1.1395063 0.6829913 0.9690007
0.51228285 -0.66533506 0.033413332 -0.47333705 -0.5839419 -0.25585616 0.93315834 0.7495611
1.4112711 0.39512703 -0.57943934 0.3147732 -0.5534118 -0.6794799 -0.58836526 -0.23053576
0.5337221 1.6360669 0.18339081 -0.47646296 0.041944824 -0.21208337 -0.5031953 -0.18355589
1.48712 0.49809575 0.15107717 0.39411092 -0.475848 -0.011994402 -0.533986 -0.14553949
-0.31711084 -0.6205969 0.2202775 -0.9520334 0.2814832 -0.6280461 -0.1441046 -0.55231225
-0.4729923 -0.5531617 1.0192553 0.24166809 1.0332547 0.8136337 -0.36124957 -0.04976964
-0.25771257 -0.48485833 -0.3774902 -0.43020752 -0.10143062 -0.916701 0.27516857 0.31400672
-0.023932934 -0.32064155 -0.088209376 -0.068056464 0.0724047 0.75650525 -0.23977523 -0.19684191
00000000: 25e7 363f a69e 8e3d f08e 843f 36c6 2bbf
00000010: e1b5 16bf 60e2 063d e116 aebe 0ef9 70be
00000020: e315 92be 4182 523e c3a9 c2bd a9a5 88bf
00000030: d1bc c0be a752 fdbd dbdf c6bd ed53 ccbd
00000040: e79c 7cbe 7de1 1bbe 3feb 0b3d fd61 8a3b
00000050: c679 6ebe 868a 62be a31f fbbd 0281 a1be
00000060: 874e 79be dfe1 193e 67a1 933c b3b0 44bf
00000070: aa74 f73e a078 61bd b1c6 ff3d 2747 34be
00000080: dbca 2bbe 6629 cabe 326c 96bd 8458 7abe
00000090: 0fdc cb3d 5a3d cebc 1262 a0be 932a 16bd
000000a0: 7676 b9be 5075 1abe dd4a e7bb e520 98be
000000b0: 6fe2 7dbe 573b 343f cad0 d63e b9fc 6ebf
000000c0: 9b59 5b3f ca57 fdbe 30b3 673e 9faf 6ebe
000000d0: a79c eabe 0161 32bf 614c a7bd db74 683f
000000e0: bb3a 953d ebee 0a3d b38f bd3d 18eb 54be
000000f0: a3de 023e 386e a9be 6afc b73d 7154 4bbf
00000100: 2daa b9be 790b 9fbd ad22 0fbe 55d2 9fbe
00000110: 0077 563c c232 abbe bc0f 4aba c7db 1bbd
00000120: 562d 74bf 7a67 7ebd 2a23 f43e bcc6 93bf
00000130: dd65 bf3d c6a7 ee3d 27bd 93be 8b03 febe
00000140: 74a3 e1be 169c 2d3f 9f05 ef3d 3724 4a3f
00000150: 762c 88bd 732c 3dbf de28 2f3e 0798 eebe
00000160: 9691 7fbf 58fe fcbe c4cf f7bd 4175 35bc
00000170: 9b33 d23c 6f3c bdbe 4c59 bebe 2b77 3bbd
00000180: 5ab6 1d3d 530d dfbe b3c2 5bbe 1218 ea3c
00000190: ec23 8bba e0a9 f23d 91a8 d8be 2939 1cbf
000001a0: eac6 943e 0d4a b8bd 3b3f dfb9 7616 d7bd
000001b0: 5e6d 14be d6f6 edbc 5397 5dbe 6ef8 92be
000001c0: 7054 96bd f81c 43be aeeb a9be 2688 223e
000001d0: 4050 5a3e 6989 f2be 9dc9 65be a1dc 65bf
000001e0: e448 973f d38a 81be a85e 01be a795 11bf
000001f0: 1787 b3be 1910 53be eda9 37bf a44a ee3e
00000200: 3392 72bf ab85 9cbf cad8 69bf 4b98 62be
00000210: 1474 f4be c1ab 64bf bdaf f9be 850a fbbe
00000220: 2105 f1be f4eb 59bd eb5a 423d a078 b0be
00000230: 8fd6 89be c839 06bf db9c d8be fcb8 adbe
00000240: e6df 23be 5249 393e 3714 783b 6580 60bc
00000250: 850e b3be 5647 48bb e5f2 153e 37db 1e3d
00000260: 907b 533d cfd4 77bf 7e89 923e 8637 a7bf
00000270: fe84 b33f 8666 0abe 00d7 23bd b97a adbe
00000280: 6420 dbbe 76af 23bf 53c5 273f b039 993f
00000290: de4b 133d 651a 103d 8a23 69be fa2f 9cbe
000002a0: d147 cdbe 3e85 e2be 1110 6e3d 577d 2e3f
000002b0: ec77 8bbf 1824 7f3d e933 f4ba f2ac 28bf
000002c0: 76ef 6a3e 12dc 18bf 3674 efbd 3740 bbbe
000002d0: 1699 1c3e 98e7 cbbe 4b17 973e d7dc dbbe
000002e0: 903e 243d c097 30bd 29a9 e2be fff5 c9be
000002f0: 6dc9 70be 58db 913f 85d8 2e3f 6e10 783f
00000300: f824 033f 6653 2abf 6bdc 083d 3c59 f2be
00000310: 377d 15bf 94ff 82be 77e3 6e3f 3ce3 3f3f
00000320: 88a4 b43f 174e ca3e 2356 14bf f429 a13e
00000330: 65ac 0dbf 65f2 2dbf 1b9f 16bf 9111 6cbe
00000340: 03a2 083f a46a d13f cdca 3b3e f4f2 f3be
00000350: 56ce 2b3d 622c 59be 68d1 00bf 13f6 3bbe
00000360: f359 be3f 6806 ff3e f9b3 1a3e e8c8 c93e
00000370: 59a2 f3be 2b84 44bc 4eb3 08bf 4e08 15be
00000380: 5a5c a2be 70df 1ebf 6d90 613e 76b8 73bf
00000390: 911e 903e a1c7 20bf 2890 13be 5664 0dbf
000003a0: 0c2c f2be 019c 0dbf f576 823f d777 773e
000003b0: b141 843f 4c4a 503f b4f5 b8be 40db 4bbd
000003c0: e7f2 83be 5a3f f8be 6546 c1be 2944 dcbe
000003d0: dbba cfbd ebac 6abf e5e2 8c3e 7dc5 a03e
000003e0: 000f c4bc 212b a4be 1ea7 b4bd 3061 8bbd
000003f0: ea48 943d 54aa 413f a387 75be ed90 49be

w_r.0.bias f4 [64]
-0.022142736 -0.06372227 -0.041387394 -0.40621603 -0.019051926 -0.29731885 -0.31068513 -0.15538934
-0.23357888 -0.49183932 -0.06265261 0.035626158 -0.2064166 -0.45358112 -0.5295539 -0.22128345
0.12041462 -0.6346947 0.07017834 -0.5599765 -0.41832218 -0.7546864 -0.95887417 -0.4414783
-0.20927534 -0.0921663 -0.6491655 0.2228011 -0.11785561 -0.30467898 -0.33047003 0.1253423
0.12293492 -0.68585145 0.0031847127 0.40976423 -0.5264949 -0.17651539 -0.26690385 -0.49314082
-0.5125997 -0.25858775 -0.31660238 -0.8197453 -0.0252089 -0.10275634 -0.18643972 -0.3307686
-0.6766675 -0.25048316 -0.1091286 -0.5593567 -0.09061035 -0.047954265 -0.14006214 -0.48983997
0.06367756 -0.39591128 -0.37956083 -0.24757503 -0.26630318 -0.4507961 -0.5861932 -0.31126177
00000000: af64 b5bc d280 82bd d485 29bd 8cfb cfbe
00000010: c912 9cbc 2d3a 98be 1f12 9fbe 621e 1fbe
00000020: 4d2f 6fbe 5dd2 fbbe 0350 80bd bcec 113d
00000030: e05e 53be c93b e8be d890 07bf 2198 62be
00000040: f19b f63d 5a7b 22bf a9b9 8f3d 9f5a 0fbf
00000050: 532e d6be 2133 41bf c778 75bf 7209 e2be
00000060: 464c 56be afc1 bcbd b62f 26bf f925 643e
00000070: 485e f1bd e2fe 9bbe 5e33 a9be bb59 003e
00000080: 4ec5 fb3d f693 2fbf 9db6 503b 9ecc d13e
00000090: 5fc8 06bf 73c0 34be 9fa7 88be f47c fcbe
000000a0: bc39 03bf 9d65 84be b519 a2be d4da 51bf
000000b0: e582 cebc ea71 d2bd 0eea 3ebe 805a a9be
000000c0: 153a 2dbf 543f 80be d17e dfbd 0032 0fbf
000000d0: eb91 b9bd b16b 44bd 736c 0fbe 4ecc fabe
000000e0: 6169 823d e2b4 cabe cc55 c2be 4f84 7dbe
000000f0: e458 88be bfce e6be c210 16bf b45d 9fbe

w_r.2.weight f4 [32, 64]
-0.47625923 -0.41854462 0.097356945 0.3518451 -0.037336234 0.07852978 -1.3738039 -0.06438712
-0.07354899 -0.14175089 -0.047445 -0.043883067 -0.088924065 -0.10314484 0.08681653 -0.0034618038
0.08037583 -0.08299405 -0.43418303 -0.15535392 -0.12474839 0.13958816 -0.52045745 -0.5463728
-1.3448157 -0.46650955 -0.55304515 0.008832144 -0.25570253 -0.018531904 -0.12563042 -0.17651497
-0.34362575 0.25061378 -1.7459581 -0.1967944 0.012739927 -0.3854803 -0.16434804 -0.36868033
0.041836333 -0.08998586 -0.06801155 0.099732324 -1.0378947 -0.15671583 -0.2562079 0.095226824
-0.3110882 0.34831607 -0.03425979 -0.8494705 -0.2477919 0.14138444 -0.057733424 -0.12149917
0.046174683 0.091106 -0.28970906 -1.3450551 0.40434062 -0.080620475 0.6662274 -0.06372983
-0.17555228 -0.17923264 -0.025923807 0.4945246 -0.040103864 -0.08306106 0.08999188 -0.2075033
-0.061008733 -0.81608135 0.00792565 -0.021937886 -0.10078965 0.03624195 0.23591456 -0.8690537
0.16753834 -0.115757965 0.6859129 -0.28960326 -0.12886643 -0.08189673 0.837424 -0.013263449
-0.20897123 -0.515611 -0.4671158 -0.043860186 -0.42957222 -0.0639885 -0.114691705 0.010987729
-0.02899929 -0.07411829 -0.1761944 0.07464765 -0.014495757 -0.49792022 -0.76815724 0.16579561
-0.11220615 -0.11516936 0.12171705 -0.7573699 -0.06976332 0.04299213 -0.122675456 0.023241296
-0.31312644 0.29236215 -0.12629764 -1.3996998 0.47116584 0.088858336 -0.10892792 -0.41552562
-0.024194764 0.0009199014 -0.119124636 -0.6037136 -0.13936274 -0.18107337 0.6816532 -0.0038824677
0.39755884 0.04188577 0.12239453 -0.09063078 -0.042788755 -0.083013095 -0.12973095 -0.09341073
0.14919773 -0.34140658 -0.023083014 -0.040562954 0.012740463 -0.07947014 -0.6368705 -0.41993794
0.120834224 0.07280822 -0.09392752 0.06151022 0.2200183 -0.31196794 -0.025638487 -0.034827963
-1.0550824 -0.9371536 -0.4953084 -0.016118223 -0.09602505 0.027009236 0.006212303 0.09394996
-0.13478042 0.13902245 -0.22018363 -0.3248558 -0.18595916 -1.2637694 -0.3338938 -1.1313677
-0.109713726 0.055423196 0.028665414 -0.06430233 -0.6240186 0.04029194 -0.14068303 0.12419239
-0.16310036 -0.3299156 -0.12979223 0.07589602 0.05837696 0.1776483 -0.009517633 0.16352293
-0.016514141 0.02063266 -0.48716295 -0.25095606 0.24356031 -0.09750368 0.10143197 -0.04355225
0.19301535 -0.07928112 -0.04472791 -0.18797068 0.09115076 0.50947696 -1.2021928 -1.2115386
-0.38964853 -0.26911914 -0.06587493 0.038238354 -0.071557224 -0.21586835 -0.64632577 -0.009033576
-0.15250288 -0.5861005 0.17390023 -1.1913704 0.07132721 0.24313958 2.1425107 -1.3830839
0.057373796 -0.014993474 -0.13665305 -1.3405117 0.8137595 -0.049401507 -0.49147907 0.11837201
-0.11588871 -0.026738826 -0.77716446 0.42799202 -0.041193265 -1.217073 0.8142794 -0.08280707
-0.5767043 -0.2937773 -0.034200404 -0.09685471 0.17699148 0.15477778 0.14178406 -0.0010030717
0.06334284 -0.030566942 -0.75321186 1.2428532 -5.3982086 0.16173182 0.14051576 -0.2976766
0.15823755 -0.06737086 -1.1334028 -0.08987331 0.0005821138 -0.030155186 -0.12449857 0.05809711
00000000: 40d8 f3be 7b4b d6be 1463 c73d 0a25 b43e
00000010: e1ed 18bd 39d4 a03d ced8 afbf 65dd 83bd
00000020: daa0 96bd 2527 11be b055 42bd bbbe 33bd
00000030: d21d b6bd 9a3d d3bd ddcc b13d 6edf 62bb
00000040: 159c a43d c9f8 a9bd 3d4d debe 1915 1fbe
00000050: 157c ffbd 33f0 0e3e b33c 05bf 16df 0bbf
00000060: ec22 acbf 57da eebe 5e94 0dbf b2b4 103c
00000070: 71eb 82be 38d0 97bc 43a5 00be 57c0 34be
00000080: b7ef afbe 7350 803e 8e7b dfbf 7984 49be
00000090: 20bb 503c ad5d c5be da4a 28be abc3 bcbe
000000a0: 935c 2b3d 824a b8bd a449 8bbd 7640 cc3d
000000b0: bcd9 84bf 1d7a 20be af2d 83be 4806 c33d
000000c0: f446 9fbe 7c56 b23e fe53 0cbd e676 59bf
000000d0: 29bd 7dbe 15c7 103e e279 6cbd 8fd4 f8bd
000000e0: aa21 3d3d c895 ba3d bf54 94be c42a acbf
000000f0: bc05 cf3e 591c a5bd e18d 2a3f c984 82bd
00000100: fac3 33be c388 37be 2a5e d4bc 5432 fd3e
00000110: f343 24bd eb1b aabd aa4d b83d bf7b 54be
00000120: 4be4 79bd b5ea 50bf 96da 013c 15b7 b3bc
00000130: ce6a cebd 7072 143d 9693 713e 4e7a 5ebf
00000140: 2c8f 2b3e 8312 edbd fd97 2f3f e146 94be
00000150: 90f5 03be 79b9 a7bd 6b61 563f f04e 59bc
00000160: 8efc 55be 15ff 03bf cd29 efbe bda6 33bd
00000170: e4f0 dbbe 670c 83bd 7ce3 eabd e005 343c
00000180: eb8f edbc 54cb 97bd 4e6c 34be dee0 983d
00000190: 9d7f 6dbc 66ef febe f4a5 44bf 53c6 293e
000001a0: 57cc e5bd eadd ebbd ca46 f93d fee2 41bf
000001b0: 12e0 8ebd 8418 303d 453d fbbd 8864 be3c
000001c0: 1c52 a0be 7eb0 953e 2b54 01be 5d29 b3bf
000001d0: a63c f13e 5cfb b53d 9a15 dfbd c6bf d4be
000001e0: 1934 c6bc 8a25 713a 9ef7 f3bd f98c 1abf
000001f0: 1bb5 0ebe 4c6b 39be d380 2e3f 0071 7ebb
00000200: d58c cb3e 6a90 2b3d fca9 fa3d a19c b9bd
00000210: 4343 2fbd c502 aabd 31d8 04be 204e bfbd
00000220: 4ac7 183e d8cc aebe 9718 bdbc 5725 26bd
00000230: 60bd 503c 3ec1 a2bd f209 23bf 1b02 d7be
00000240: ef77 f73d 7a1c 953d 125d c0bd 24f2 7b3d
00000250: 7a4c 613e 43ba 9fbe ce07 d2bc c4a7 0ebd
00000260: f10c 87bf 4ce9 6fbf 1099 fdbe 5d0a 84bc
00000270: c8a8 c4bd 7942 dd3c 9390 cb3b d668 c03d
00000280: e103 0abe e75b 0e3e d177 61be 8053 a6be
00000290: 146c 3ebe 32c3 a1bf 21f4 aabe a8d0 90bf
000002a0: 97b1 e0bd 6f03 633d bbd3 ea3c f1b0 83bd
000002b0: afbf 1fbf 2909 253d 360f 10be 9458 fe3d
000002c0: c803 27be b3ea a8be 41e8 04be 5f6f 9b3d
000002d0: ae1c 6f3d 70e9 353e d9ef 1bbc 8e72 273e
000002e0: aa48 87bc d305 a93c 6c6d f9be 507d 80be
000002f0: e067 793e 02b0 c7bd 91bb cf3d d863 32bd
00000300: d1a5 453e 245e a2bd 9d34 37bd 637b 40be
00000310: 40ad ba3d 156d 023f 74e1 99bf b213 9bbf
00000320: 0380 c7be fcc9 89be 6fe9 86bd d29f 1c3d
00000330: 988c 92bd 980c 5dbe 9b75 25bf 9001 14bc
00000340: b729 1cbe af0a 16bf e712 323e d37e 98bf
00000350: 0014 923d 95f9 783e e51e 0940 e508 b1bf
00000360: c900 6b3d 30a7 75bc c7ee 0bbe e395 abbf
00000370: 8b52 503f 3c59 4abd 25a3 fbbe 066d f23d
00000380: 0f57 edbd 620b dbbc 40f4 46bf c521 db3e
00000390: 45ba 28bd 0cc9 9bbf 9d74 503f c196 a9bd
000003a0: e5a2 13bf fa69 96be b915 0cbd c35b c6bd
000003b0: 413d 353e 117e 1e3e d72f 113e 8079 83ba
000003c0: e4b9 813d 8667 fabc 7ed2 40bf d015 9f3f
000003d0: 20be acc0 079d 253e 5de3 0f3e 1169 98be
000003e0: 0609 223e bcf9 89bd 5813 91bf 7f0f b8bd
000003f0: ff98 183a 0208 f7bc 1bf9 febd 3cf7 6d3d

w_r.2.bias f4 [32]
0.1640684 -0.32370394 0.30726406 -0.02653198 -0.16092871 -0.15566489 -0.03733311 -0.16465083
0.15685272 0.123851895 0.013180403 -0.34327218 -1.0901368 -0.27173677 -0.7080487 -0.5443646
-0.17995028 -0.16328822 0.8488892 0.6377439 0.29292586 -0.080294505 -0.060114615 -0.03892966
-0.19003083 0.32416087 -0.29452467 -0.12749399 0.23327413 0.014858437 0.9763673 -0.36208552
00000000: 8c01 283e 86bc a5be b751 9d3e 9859 d9bc
00000010: 7fca 24be 9e66 1fbe 9aea 18bd 3a9a 28be
00000020: 009e 203e 10a6 fd3d 9ef2 573c 5fc1 afbe
00000030: 9a89 8bbf 1521 8bbe ae42 35bf 7a5b 0bbf
00000040: e344 38be 0735 27be cd50 593f 2f43 233f
00000050: 61fa 953e 7271 a4bd be3a 76bd b574 1fbd
00000060: 7197 42be 6af8 a53e f0cb 96be c98d 02be
00000070: 6adf 6e3e cd70 733c 35f3 793f 4663 b9be

w_h.0.weight f4 [64, 5]
0.1313642 0.008688651 -1.1271365 -1.8298566 -0.8129815 0.22279353 -0.059712797 0.24865475
1.3938665 -0.5925111 -0.21842837 -0.67481065 -0.60479385 -1.0499178 -0.35948205 -0.21951348
0.7486024 -0.7528654 -0.58216816 -0.29340407 -0.052558355 -0.40693474 -1.3134046 1.0923947
-1.1818264 -0.39268142 -0.20040259 -1.6434582 0.52451277 -1.1752602 -0.40288827 0.03716962
-1.2942119 -0.21158615 -0.039806046 -0.4974409 -0.106556 -1.1202053 0.26463917 -0.53280276
-0.017979734 -0.009186001 -0.0984413 -0.10989516 -0.16270998 -0.019755067 -0.043715496 0.03310548
-0.0030136541 -0.16314296 0.3386727 -0.32014507 0.5468864 -0.7118569 -0.17007257 -0.16042009
-0.21749586 -1.7830409 -0.3147254 -1.1207705 0.2125269 0.7684977 0.22935976 0.781103
-0.9970185 -0.044386245 -0.25477335 -0.9244373 -1.2929022 -0.64608353 0.42983824 0.053118665
1.1677077 0.13238834 -0.57919014 -0.3416533 0.2125566 -1.4490006 -0.26300427 -1.1072493
-0.51608086 0.37979463 0.66852474 0.9294598 -0.6275421 -0.23156084 -0.38088363 -0.9340917
-1.0824666 -0.113417424 0.3071117 0.45352373 -0.83726454 0.40075228 -0.34320518 -0.5924903
-0.20229025 -0.19729158 -1.8564161 -0.74271446 -0.3842226 -0.10959028 -0.7534062 1.606594
-1.0821302 0.27264553 -0.17192158 1.4687476 -0.41463852 -1.1806633 0.5440085 0.611088
0.6019716 0.47918156 -1.2281309 -0.3597871 -0.53341186 0.82816327 -0.7050766 -0.08093428
0.4071977 0.30697218 0.9838638 -0.6645095 -0.4802814 0.073470324 0.15133035 -0.27028078
1.0760316 -0.5843507 -0.11144354 0.08895331 -0.11000834 1.3505565 -1.0575516 -0.3184262
-0.032951906 -1.0308821 -1.6359035 -1.1501764 -0.024275335 -0.41139513 1.5955765 -0.15676655
-0.88640106 -0.3969951 -0.3841796 -0.9000966 -0.5059111 -0.24790753 -0.03315336 -0.0130732935
-0.8175403 -0.5532708 -0.33552238 0.14257617 -0.17639703 1.282008 -0.97613996 -0.0340604
0.03697732 -0.004484294 0.16843165 -0.049844053 -0.113885075 0.74880904 0.072613396 1.1375433
0.3034329 -0.73428214 -0.013485012 0.15144162 1.2869977 -0.6473295 -0.33734202 -0.49454036
-0.40406016 -1.3025407 -0.89092517 -0.34486684 -0.20341316 -0.3777358 -1.0814178 -0.14186794
-0.11736939 -0.671611 0.055288933 -0.8448444 0.5846296 -1.3106326 0.8334201 0.13866536
0.61945397 1.0564109 -0.36233214 -0.06774947 0.01351302 -0.37800595 0.08916455 -0.28753072
-0.21990101 -0.6794778 -0.3238882 -1.6718026 -0.82772744 -0.109592035 0.33876413 1.0601441
1.3570715 -0.8163662 -0.03228936 -0.0058142724 -0.1760158 -0.19463935 -0.6430229 0.11455656
0.12875079 0.8448805 0.9736812 -0.37858814 0.46587202 0.0393745 0.9119689 -0.9480071
-0.9688284 0.008857266 0.054485768 -0.19487342 0.010823921 -0.65777737 0.076881394 0.46603778
1.2744313 0.5303895 -0.68777186 -0.2884218 -0.060273405 0.91836864 0.9880993 -0.5754556
-0.36163118 0.19137266 -0.6749251 0.9490064 -0.3785432 0.16889651 -0.060877264 1.3709651
1.0707438 -0.7510433 0.32251042 0.34354588 1.7094326 -0.2967135 -1.5483121 0.32175425
00000000: 5684 063e d85a 0e3c 0246 90bf be38 eabf
00000010: 8e1f 50bf fd23 643e 6895 74bd 5a9f 7e3e
00000020: 386a b23f cfae 17bf b0ab 5fbe 64c0 2cbf
00000030: c5d3 1abf b563 86bf 080e b8be 24c8 60be
00000040: 68a4 3f3f c9bb 40bf f908 15bf 0f39 96be
00000050: 6e47 57bd c059 d0be a41d a8bf 97d3 8b3f
00000060: 1646 97bf 8a0d c9be 5636 4dbe d75c d2bf
00000070: 7846 063f ed6e 96bf 5f47 cebe 2c3f 183d
00000080: bca8 a5bf 0aaa 58be aa0b 23bd 93b0 febe
00000090: 083a dabd e362 8fbf c97e 873e c365 08bf
000000a0: 3c4a 93bc e180 16bc 989b c9bd b710 e1bd
000000b0: 729d 26be 61d5 a1bc 050f 33bd 9d99 073d
000000c0: ba80 45bb f30e 27be 8266 ad3e 0eea a3be
000000d0: bf00 0c3f 413c 36bf 8127 2ebe 2a45 24be
000000e0: 3cb7 5ebe af3a e4bf b023 a1be 6875 8fbf
000000f0: a7a0 593e 44bc 443f 49dd 6a3e 5ef6 473f
00000100: 9b3c 7fbf 5ace 35bd a771 82be eca7 6cbf
00000110: d27d a5bf bb65 25bf c213 dc3e f592 593d
00000120: 7277 953f cf90 073e ce45 14bf 2eed aebe
00000130: 70a8 593e da78 b9bf 7fa8 86be 58ba 8dbf
00000140: e01d 04bf 7174 c23e 7024 2b3f 14f1 6d3f
00000150: 99a6 20bf 491e 6dbe 2e03 c3be a220 6fbf
00000160: 448e 8abf 6547 e8bd bf3d 9d3e 4334 e83e
00000170: f856 56bf 672f cd3e 97b8 afbe 72ad 17bf
00000180: 2d25 4fbe ce06 4abe 0b9f edbf 8922 3ebf
00000190: d3b8 c4be de70 e0bd 3bdf 40bf dfa4 cd3f
000001a0: 3e83 8abf 3298 8b3e 360c 30be ecff bb3f
000001b0: 804b d4be fa1f 97bf 2444 0b3f 4370 1c3f
000001c0: d01a 1a3f 4957 f53e 6533 9dbf 0436 b8be
000001d0: ae8d 08bf 8202 543f e67f 34bf dfc0 a5bd
000001e0: 387c d03e 752b 9d3e 7fde 7b3f 4b1d 2abf
000001f0: 72e7 f5be 9c77 963d 58f6 1a3e 3e62 8abe
00000200: 67bb 893f 0298 15bf 833c e4bd 272d b63d
00000210: 0d4c e1bd 09df ac3f da5d 87bf c208 a3be
00000220: 94f8 06bd f2f3 83bf 4965 d1bf fb38 93bf
00000230: 11dd c6bc 62a2 d2be da3b cc3f 6987 20be
00000240: 2eeb 62bf f142 cbbe 30b3 c4be bb6c 66bf
00000250: 6483 01bf 79db 7dbe d1cb 07bd 5e31 56bc
00000260: 524a 51bf 28a3 0dbf 97c9 abbe 7dff 113e
00000270: 6ca1 34be d718 a43f 4fe4 79bf eb82 0bbd
00000280: 8875 173d fcf0 92bb 5979 2c3e 4729 4cbd
00000290: 943c e9bd f3b1 3f3f 55b6 943d 059b 913f
000002a0: 8f5b 9b3e eaf9 3bbf 3df0 5cbc 8313 1b3e
000002b0: 57bc a43f 63b7 25bf 18b8 acbe 6534 fdbe
000002c0: f9e0 cebe a7b9 a6bf ac13 64bf 6392 b0be
000002d0: 8a4b 50be 9666 c1be e66b 8abf d445 11be
000002e0: 5d5f f0bd b3ee 2bbf a676 623d b947 58bf
000002f0: 49aa 153f cfc2 a7bf 055b 553f 4bfe 0d3e
00000300: 8994 1e3f 7938 873f 9983 b9be 3cc0 8abd
00000310: b765 5d3c ff89 c1be e79b b63d 3a37 93be
00000320: bb2d 61be 42f2 2dbf add4 a5be a1fd d5bf
00000330: f2e5 53bf ca71 e0bd 7e72 ad3e cdb2 873f
00000340: 85b4 ad3f 60fd 50bf d941 04bd a785 bebb
00000350: 7c3d 34be 8a4f 47be 269d 24bf a19c ea3d
00000360: 3fd7 033e 174a 583f 2c43 793f 4ed6 c1be
00000370: c786 ee3e 2847 213d cb76 693f 98b0 72bf
00000380: 2305 78bf 111e 113c 782c 5f3d e68c 47be
00000390: d156 313c 1964 28bf fe73 9d3d 819c ee3e
000003a0: 9120 a33f 9bc7 073f d111 30bf 06ac 93be
000003b0: 3fe1 76bd 351a 6b3f 13f4 7c3f 0f51 13bf
000003c0: b927 b9be 32f7 433e e4c7 2cbf 15f2 723f
000003d0: 6ad0 c1be 35f3 2c3e 705a 79bd c97b af3f
000003e0: 220e 893f 6044 40bf 1620 a53e 3fe5 af3e
000003f0: b0ce da3f d5ea 97be 172f c6bf f9bc a43e

w_h.0.bias f4 [64]
-0.42245835 -0.6121326 -0.7231176 -0.72867846 -1.2273064 -1.1105009 -0.27643898 -0.33886698
-0.20840144 -0.20376918 0.01849922 -0.76730114 -1.3291018 -0.023775414 -0.23629545 -0.9665215
-1.005235 -0.7242756 -0.7187522 -1.260761 -1.3450545 -0.74309087 -1.4267919 -0.9111585
-0.7476603 -0.22115198 -0.6731155 -0.993742 -1.1680753 -0.011890264 -0.10698023 -0.18927523
-0.3004832 -1.3562083 -0.64401853 -0.880327 -0.79059947 -1.1931385 -1.0764774 -0.03349939
-1.1508813 -0.7148884 -0.28118098 0.013039954 -0.5989145 -0.29497838 -0.8971997 -0.6774275
-0.44210508 -0.8369828 -1.3632649 -0.93797445 -0.42787784 -1.0922011 -1.0589066 -0.42787015
-0.9101184 -0.03579699 -1.0765632 -0.14274251 -0.4802844 -0.69864863 -1.4941392 -0.18980016
00000000: 764c d8be b9b4 1cbf 3c1e 39bf ac8a 3abf
00000010: 6018 9dbf e524 8ebf 6989 8dbe f97f adbe
00000020: 3067 55be dea8 50be ad8b 973c d96d 44bf
00000030: 0220 aabf a8c4 c2bc 6ff7 71be f46d 77bf
00000040: 8aab 80bf 206a 39bf 2500 38bf 9e60 a1bf
00000050: bf2a acbf 343b 3ebf 1ea1 b6bf af41 69bf
00000060: aa66 3fbf aa75 62be 4c51 2cbf e065 7ebf
00000070: 7e83 95bf 62cf 42bc 7318 dbbd 5ed1 41be
00000080: efd8 99be 3c98 adbf 66de 24bf 1c5d 61bf
00000090: ba64 4abf c3b8 98bf 03ca 89bf a836 09bd
000000a0: 1450 93bf ed02 37bf f4f6 8fbe 88a5 553c
000000b0: 7652 19bf 6807 97be e1ae 65bf e36b 2dbf
000000c0: 995b e2be 8144 56bf 777f aebf 181f 70bf
000000d0: ce12 dbbe 3fcd 8bbf 408a 87bf cc11 dbbe
000000e0: 85fd 68bf dd9f 12bd d3cc 89bf 182b 12be
000000f0: d6e7 f5be a3da 32bf f43f bfbf f95a 42be

w_h.2.weight f4 [32, 64]
0.082268596 -0.121338025 -1.7222375 -0.32737997 0.13724731 0.2994515 0.53887725 0.4368775
-0.07162058 -0.12133389 -0.46182004 -0.4738217 -1.6511163 -1.3688203 0.21630448 2.1187282
-1.2734452 0.22156833 -0.12766455 0.09001594 0.09442102 1.7112429 -0.079602785 -2.498585
-0.31503436 0.08162773 0.46591437 1.7506863 0.5623883 -0.91072565 0.08882573 -1.6428628
-0.71485543 -0.09688532 -2.6020765 0.4673527 -0.23896368 -3.5259159 0.39491183 0.69035804
0.1078696 0.026822573 -0.20804924 0.10699998 0.38253164 0.23211583 -0.15723531 0.7921605
1.0704321 -2.2723293 0.5310144 -0.41164255 -0.37724584 0.14696623 -2.8995805 -0.57013077
-0.21306197 1.3507262 -0.0868278 -1.6038421 -1.4063736 -0.19845283 0.43918264 0.73935205
-0.5388312 -0.014113747 -0.73476297 -0.14932624 -0.60744077 -3.867614 0.40486473 0.510707
0.018414838 0.07344503 0.32190087 -0.9068063 0.58631504 -0.29755038 -1.008692 0.2744989
-0.4198325 0.8592276 0.15814398 0.26294047 -0.74467427 -0.76344556 0.25498295 -0.9013784
0.112133265 0.17455238 -0.19496478 0.51472455 -0.58395374 -0.2602014 -0.33460504 0.47199994
0.084939644 -3.656779 0.27083832 -1.0515883 -0.80402106 0.17310111 -1.8228629 -1.8571637
-0.13789557 0.091631584 -0.048723344 -0.51556385 1.0454208 -0.10698826 0.7617398 -0.009389956
-0.39539692 -0.85374093 -0.118844435 -0.017695088 -0.100051135 -0.1457687 -0.7999158 0.24339792
-0.35753933 0.24735433 -0.3961529 0.2100188 -0.42545423 1.133849 -0.611676 -1.3287078
-0.59752524 -0.12629516 0.045827772 0.47838923 0.6182467 0.3677255 -1.4674451 -0.98862714
-0.026054753 0.05204962 -0.1002062 -1.3202567 -2.1095014 -0.13166906 0.543951 -1.8379043
-0.6406791 -0.49310628 -0.19518253 -0.44773176 -0.6788402 -0.8342872 -1.0630095 0.043963674
0.6909729 0.021814488 0.51310194 1.318571 -0.4745209 0.44756174 -1.0793668 0.5529243
0.057385903 -1.0957712 -0.3994579 0.23437819 -0.12451208 1.8173995 -0.26547697 -0.074387334
-0.7950449 0.46325648 0.1893048 0.41804075 0.6272555 -0.060305238 -0.020087888 0.32790253
0.7892991 0.37250462 -0.44451928 -1.1446596 0.021911647 -0.66795665 0.059464753 0.48456556
0.09869858 -0.7515078 -0.3227704 0.7085906 -0.07261852 1.8686306 2.2084408 0.88194126
-0.11140918 0.08858896 0.044171635 -0.033695698 0.013900509 -0.0818944 0.07532774 -0.13006115
-0.06810668 0.038964212 -0.12283686 -0.075317696 -0.07306666 -0.025975935 -0.108023636 -0.15807353
-0.005485413 -0.021448806 -0.11926732 -0.0835349 -0.023910232 0.018676275 0.018545166 -0.15441416
-0.06136669 -0.25631237 -0.1868251 -0.12835896 0.07381872 -0.15285717 -0.11843184 0.02309966
-0.008087548 0.049783316 -0.2094425 -0.17215556 -0.10359441 -0.10991471 -0.119464554 -0.12697037
-0.12255721 -0.04606741 -0.07190844 -0.17449717 -0.083962224 -0.10743587 -0.22975151 -0.09929358
0.08213168 -0.123065844 -0.04306873 0.014929466 0.082854845 0.03959137 0.0028216166 -0.20478742
0.04180967 -0.0715155 -0.042290557 -0.21303606 -0.16240482 -0.2249474 -0.13799962 0.045975123
00000000: 707c a83d 1280 f8bd 4772 dcbf 599e a7be
00000010: 8f8a 0c3e b551 993e dcf3 093f 68ae df3e
00000020: d0ad 92bd e77d f8bd ad73 ecbe c298 f2be
00000030: c757 d3bf 8135 afbf ec7e 5d3e 3e99 0740
00000040: 4100 a3bf cfe2 623e 7fba 02be 475a b83d
00000050: cf5f c13d 020a db3f c906 a3bd d1e8 1fc0
00000060: 2f4c a1be 702c a73d 548c ee3e 7d16 e03f
00000070: aef8 0f3f 5125 69bf 44ea b53d 5449 d2bf
00000080: c400 37bf d06b c6bd 6c88 26c0 da48 ef3e
00000090: e5b2 74be 9ba8 61c0 e231 ca3e 4ebb 303f
000000a0: bdea dc3d 03bb db3c dc0a 55be ce22 db3d
000000b0: 30db c33e c6af 6d3e 4b02 21be 08cb 4a3f
000000c0: eb03 893f d86d 11c0 8ff0 073f d0c2 d2be
000000d0: 5e26 c1be 517e 163e ba92 39c0 17f4 11bf
000000e0: eb2c 5abe 99e4 ac3f c6d2 b1bd b34a cdbf
000000f0: 0d04 b4bf 3837 4bbe 8cdc e03e 2d46 3d3f
00000100: d7f0 09bf 583d 67bc 6d19 3cbf fae8 18be
00000110: 3d81 1bbf fd86 77c0 6e4a cf3e b2bd 023f
00000120: b7da 963c 596a 963d 31d0 a43e 7524 68bf
00000130: be18 163f 8658 98be d21c 81bf 1f8b 8c3e
00000140: 49f4 d6be 57f6 5b3f 7ff0 213e 22a0 863e
00000150: f9a2 3ebf 2b71 43bf 208d 823e bcc0 66bf
00000160: 20a6 e53d dcbd 323e d9a4 47be fdc4 033f
00000170: fe7d 15bf 1e39 85be 5a51 abbe faa9 f13e
00000180: d6f4 ad3d ab08 6ac0 52ab 8a3e 729a 86bf
00000190: 53d4 4dbf 6b41 313e 9253 e9bf 8ab7 edbf
000001a0: 7f34 0dbe 57a9 bb3d 2192 47bd fefb 03bf
000001b0: 59d0 853f a91c dbbd 6101 433f 54d8 19bc
000001c0: 7771 cabe c48e 5abf b664 f3bd 4af5 90bc
000001d0: 9ce7 ccbd 6444 15be 48c7 4cbf 4e3d 793e
000001e0: 650f b7be 744a 7d3e 8ed4 cabe 2b0f 573e
000001f0: 23d5 d9be f721 913f cc96 1cbf 1913 aabf
00000200: 6af7 18bf 8553 01be e7b5 3b3d 6fef f43e
00000210: 6a45 1e3f 8446 bc3e 3ed5 bbbf ab16 7dbf
00000220: c770 d5bc fb31 553d e838 cdbd 2cfe a8bf
00000230: 1202 07c0 41d4 06be 5f40 0b3f 7340 ebbf
00000240: 8c03 24bf 6d78 fcbe eedd 47be 193d e5be
00000250: 79c8 2dbf d993 55bf b210 88bf 4113 343d
00000260: 9ae3 303f 4cb4 b23c a65a 033f efc6 a83f
00000270: 67f4 f2be d026 e53e b128 8abf 728c 0d3f
00000280: 7b0d 6b3d 3b42 8cbf bf85 ccbe d600 703e
00000290: 3000 ffbd 8ca0 e83f 99ec 87be 6358 98bd
000002a0: 1088 4bbf f42f ed3e 1ed9 413e 7009 d63e
000002b0: d193 203f a002 77bd 5b8f a4bc d7e2 a73e
000002c0: 810f 4a3f edb8 be3e 0898 e3be 3584 92bf
000002d0: 0e80 b33c 35ff 2abf 5091 733d fa18 f83e
000002e0: 7b22 ca3d d162 40bf 2942 a5be 3266 353f
000002f0: 05b9 94bd 4a2f ef3f 1857 0d40 e7c6 613f
00000300: 7f2a e4bd 216e b53d 51ed 343d 8004 0abd
00000310: f6be 633c 40b8 a7bd 6e45 9a3d c02e 05be
00000320: 847b 8bbd f098 1f3d e491 fbbd 2a40 9abd
00000330: f9a3 95bd 7ccb d4bc 7f3b ddbd 07de 21be
00000340: fbbe b3bb 68b5 afbc 6d42 f4bd 5814 abbd
00000350: 64df c3bc fdfe 983c 08ec 973c bf1e 1ebe
00000360: a35b 7bbd 603b 83be 144f 3fbe 8870 03be
00000370: 452e 973d 9786 1cbe 648c f2bd 803b bd3c
00000380: a381 04bc 97e9 4b3d 1878 56be 8c49 30be
00000390: 4e29 d4bd f71a e1bd d5a9 f4bd 8504 02be
000003a0: 46ff fabd 2eb1 3cbd bb44 93bd 63af 32be
000003b0: 63f4 abbd 5607 dcbd fb43 6bbe 6f5a cbbd
000003c0: a734 a83d f209 fcbd d668 30bd b89a 743c
000003d0: cdaf a93d 8f2a 223d dfea 383b cbb3 51be
000003e0: 9e40 2b3d b876 92bd dd38 2dbd 2026 5abe
000003f0: 734d 26be 9c58 66be c64f 0dbe 6950 3c3d

w_h.2.bias f4 [32]
-0.24765313 0.50954956 -0.3684928 -0.109127946 0.2820045 0.4029045 0.46310988 -0.12322829
-0.008348813 -0.19351132 -0.25785092 0.18188153 0.29057407 0.28036556 0.39942008 -0.24670292
-0.4464241 -0.01613462 0.014849769 -0.08615658 -0.14097135 -0.05841792 -0.16719785 -0.06386715
0.0042178715 -0.22626695 0.45232585 -0.29817596 -0.1637292 -0.19676718 -0.044311043 -0.15109116
00000000: c898 7dbe d771 023f 17ab bcbe 797e dfbd
00000010: e562 903e 8049 ce3e bd1c ed3e 1d5f fcbd
00000020: 76c9 08bc d527 46be 0905 84be 273f 3a3e
00000030: 20c6 943e 138c 8f3e ca80 cc3e b19f 7cbe
00000040: b391 e4be c02c 84bc 724c 733c dc72 b0bd
00000050: cb5a 10be a147 6fbd ea35 2bbe c8cc 82bd
00000060: 1236 8a3b 86b2 67be 4197 e73e 85aa 98be
00000070: a1a8 27be 567d 49be 7f7f 35bd a4b7 1abe

Ws.0 f4 [32, 32]
-2.3977208 -1.4941385 0.8072974 1.7585264 2.1836643 0.0011582656 0.14378858 3.5258708
-9.554479 0.6651999 -2.2060447 0.8879726 0.033082344 0.5350809 0.7039557 0.38645464
-3.5992508 -0.44473743 0.64337856 0.43415394 1.168996 -0.7920427 0.9341597 0.52532375
-0.89450085 0.28942075 0.03656215 0.47291452 0.30914694 -1.2775913 1.5424199 1.2588935
-2.700466 -1.5306284 -0.10784557 0.09621463 -2.3343158 0.2946049 1.0537277 0.02061715
-0.09529256 -1.0497657 -1.9991262 1.5872985 0.62761265 0.61363006 0.19952682 -1.9297504
-1.2260523 0.18626751 0.15398969 1.4045407 -4.456617 -1.1319591 0.7258043 -0.08812398
0.6829708 0.76995254 0.70865357 -0.294735 -0.6883029 -1.4276195 0.64727837 1.2866588
-2.429408 -0.8968639 -1.2180705 1.1630151 -0.1009967 1.2621794 -2.4586666 0.0032434813
-2.5805383 0.57214206 1.5122261 1.4170101 -2.584472 -0.06597349 0.41582248 -0.14570756
1.3742864 0.65309465 -0.20275295 0.85211927 0.5521562 -1.0863541 -0.8043989 -1.168924
0.7451568 -1.0461763 -1.4525721 -0.17874782 -0.76896757 0.28728047 -0.51523113 0.64128643
-2.9964693 0.37740916 -0.38756523 -2.323074 0.06603561 -0.11458943 -0.6741847 0.7228258
-0.22159915 0.80479836 2.164733 -3.450704 -0.4245591 -2.393391 -0.51943135 -1.1475145
-0.37664497 -0.10452464 -0.7319046 0.25569025 -0.3579542 0.57350934 -1.868096 -6.042448
-0.45681953 0.11519425 1.0365242 -0.7674761 -0.40074235 -0.44396308 -0.08365341 -0.61602557
-0.8698932 -2.594673 -0.7305637 -3.5386481 0.6269846 -0.3358394 -1.3557695 -1.157047
-0.21337421 0.6445495 0.679863 0.20741697 0.25868517 0.25224847 0.8296503 0.5544957
0.79587346 -0.9528309 0.56368214 -2.3068407 -1.243768 -0.4024486 -1.6856818 -4.0733757
-0.3789702 -3.1523795 -0.7866403 -2.3744774 0.8578837 0.7311889 0.85680443 -1.1357479
-2.3006294 -0.84835416 -1.1846743 0.8384883 0.528654 -0.92758256 0.8683854 -0.05074156
0.08304516 1.5686444 0.614421 -4.556721 -1.9022778 -3.1047928 1.7253457 -0.35470602
1.2419083 1.3348233 -0.119842365 -2.2482831 -0.3787527 2.1049213 -1.47962 1.7178326
-1.5728071 0.37443027 -0.8273828 -3.465825 1.4370102 -0.10383752 -0.24065615 -1.1603096
-1.9560424 1.6618186 0.18295601 1.5969367 0.28306633 0.31643042 -0.3758474 0.8457942
2.9477003 0.13050774 -0.27214453 -1.9841187 -2.0800967 0.45806044 0.045436606 0.34112477
-2.7517245 -0.06715825 -0.58290213 1.3752149 0.7606204 -0.6653769 -5.379694 0.27130142
0.34341407 0.46840572 -1.1794002 1.7428278 1.535127 1.9833939 0.4981653 0.9902841
1.1581812 1.4947135 -0.6215585 -2.7178392 -0.8718574 1.5860307 -3.0556397 0.07832474
-0.564008 0.019137233 -0.09043284 -4.130367 -2.849267 -2.6649091 0.9871608 -1.6837777
0.40792978 0.89427245 -0.7180356 -0.78145146 -3.5086093 0.06259837 -3.0825646 1.1400213
-0.5017502 0.7615969 1.4671725 -2.70638 0.054233346 1.0370156 0.25862417 0.96553063
00000000: 4274 19c0 ee3f bfbf 0bab 4e3f 6517 e13f
00000010: 28c1 0b40 f2d0 973a 503d 133e dea7 6140
00000020: 25df 18c1 8a4a 2a3f d62f 0dc0 2c52 633f
00000030: 5a81 073d 10fb 083f 7136 343f 62dd c53e
00000040: 205a 66c0 a0b4 e3be 75b4 243f 6d49 de3e
00000050: a9a1 953f 4fc3 4abf 1725 6f3f 9e7b 063f
00000060: 02fe 64bf f52e 943e 31c2 153d da21 f23e
00000070: 8248 9e3e 1d88 a3bf 046e c53f 6c23 a13f
00000080: 6fd4 2cc0 a2eb c3bf 23de dcbd 2d0c c53d
00000090: 6e65 15c0 74d6 963e 8de0 863f 4ce5 a83c
000000a0: bf28 c3bd b95e 86bf 5ee3 ffbf 992c cb3f
000000b0: 39ab 203f dc16 1d3f c250 4c3e 1002 f7bf
000000c0: 48ef 9cbf e9bc 3e3e 79af 1d3e fdc7 b33f
000000d0: 9b9c 8ec0 09e4 90bf 50ce 393f 587a b4bd
000000e0: 2dd7 2e3f 9c1b 453f 526a 353f 82e7 96be
000000f0: 9e34 30bf 3cbc b6bf 09b4 253f 3cb1 a43f
00000100: 6c7b 1bc0 df98 65bf bce9 9bbf aedd 943f
00000110: 5cd7 cebd 188f a13f cb5a 1dc0 9690 543b
00000120: 8a27 25c0 e777 123f a090 c13f 9660 b53f
00000130: fd67 25c0 1c1d 87bd afe6 d43e 5d34 15be
00000140: 9ee8 af3f 3631 273f 789e 4fbe 7d24 5a3f
00000150: 1c5a 0d3f a70d 8bbf 16ed 4dbf 4d9f 95bf
00000160: 99c2 3e3f 1be9 85bf e2ed b9bf ab09 37be
00000170: 0fdb 44bf 6d16 933e 30e6 03bf 592b 243f
00000180: 27c6 3fc0 c63b c13e f36e c6be 3fad 14c0
00000190: ae3d 873d ddad eabd 5e97 2cbf 1d0b 393f
000001a0: e3ea 62be 4407 4e3f fc8a 0a40 56d8 5cc0
000001b0: cf5f d9be 512d 19c0 74f9 04bf c1e1 92bf
000001c0: 9cd7 c0be 0411 d6bd 1a5e 3bbf d5e9 823e
000001d0: c645 b7be 82d1 123f c51d efbf bc5b c1c0
000001e0: 40e4 e9be f7ea eb3d d3ac 843f 5079 44bf
000001f0: 1a2e cdbe 214f e3be 7b52 abbd dab3 1dbf
00000200: 52b1 5ebf 1f0f 26c0 3906 3bbf 3679 62c0
00000210: 1082 203f 24f3 abbe db89 adbf 1e1a 94bf
00000220: c57e 5abe 3201 253f 800b 2e3f 1d65 543e
00000230: 6272 843e b626 813e f663 543f 6ef3 0d3f
00000240: 5dbe 4b3f baec 73bf 794d 103f 47a3 13c0
00000250: ca33 9fbf be0d cebe 6cc4 d7bf 1859 82c0
00000260: 6208 c2be 96c0 49c0 4261 49bf 70f7 17c0
00000270: 449e 5b3f 322f 3b3f 8957 5b3f 3060 91bf
00000280: 833d 13c0 bd2d 59bf 68a3 97bf 2ba7 563f
00000290: de55 073f 0d76 6dbf 814e 5e3f 62d6 4fbd
000002a0: 9513 aa3d 57c9 c83f b24a 1d3f a9d0 91c0
000002b0: d77d f3bf edb4 46c0 21d8 dc3f 079c b5be
000002c0: daf6 9e3f 7ddb aa3f ea6f f5bd dfe3 0fc0
000002d0: e0eb c1be 08b7 0640 3064 bdbf f0e1 db3f
000002e0: be51 c9bf 53b5 bf3e 5ccf 53bf 14d0 5dc0
000002f0: f3ef b73f c4a8 d4bd 916e 76be 0685 94bf
00000300: 995f fabf 79b6 d43f d258 3b3e 6c68 cc3f
00000310: 12ee 903e 2b03 a23e 126f c0be f885 583f
00000320: 1fa7 3c40 d2a3 053e 8756 8bbe 9af7 fdbf
00000330: 4e20 05c0 e686 ea3e bc1b 3a3d e8a7 ae3e
00000340: 411c 30c0 448a 89bd 1339 15bf 0b07 b03f
00000350: 05b8 423f 2456 2abf 7426 acc0 05e8 8a3e
00000360: f8d3 af3e e0d2 ef3e 96f6 96bf fb14 df3f
00000370: 0b7f c43f dadf fd3f 860f ff3e 4283 7d3f
00000380: 483f 943f c652 bf3f 751e 1fbf 14f1 2dc0
00000390: 0c32 5fbf 0e03 cb3f 9a8f 43c0 b968 a03d
000003a0: d462 10bf b0c5 9c3c da34 b9bd f72b 84c0
000003b0: 645a 36c0 df8d 2ac0 92b6 7c3f 0786 d7bf
000003c0: 2cdc d03e 0aef 643f 2ed1 37bf 340d 48bf
000003d0: 0e8d 60c0 9333 803d bd48 45c0 38ec 913f
000003e0: b372 00bf 04f8 423f 4fcc bb3f 5435 2dc0
000003f0: c923 5e3d edbc 843f 636a 843e 042d 773f

Ws.1 f4 [32, 32]
0.018887034 -3.6317248 -0.46596164 -0.9938639 -2.7974849 -0.7517006 0.16313615 0.70577323
-1.5387125 -2.6927857 -0.68101734 -1.3306408 -1.965193 0.24727112 0.086715326 -1.8077211
0.9572227 -4.7047815 -4.918224 -1.0109828 -2.5401714 0.20192209 -0.035374884 -2.5517416
-2.8638744 2.8054414 0.07401376 -2.311323 0.99897206 -0.0016985458 0.281077 -1.3020016
1.8897263 -0.3841652 -1.437254 0.37411112 1.1877847 -1.3970631 0.71466273 -0.02065583
-0.24522625 0.9307818 1.1026436 1.126564 0.10999339 0.27708393 -1.3184646 -0.020221943
-0.75448793 -1.5121673 0.97985667 -4.18984 -1.2342519 -0.9100119 0.8035417 0.41242558
0.37009102 -0.8327681 -0.40356925 0.66828257 -0.15995309 0.48888955 1.0335021 -0.49905306
-0.15883346 -1.741062 -0.7380175 -0.11276878 -0.90889287 0.63376665 -1.5395718 -2.267313
0.56997156 -0.865092 0.79633445 -0.98503256 0.59887266 -0.29062575 1.8213015 0.03515798
-0.48535565 1.0132512 -0.8141523 -0.9536555 -1.1229433 -1.797123 -0.0059191072 -0.934271
0.88207096 -2.3795073 -0.35493386 0.7084575 1.0604314 -1.2371997 -1.908931 -0.11784629
-1.8556881 0.60552734 -0.66065484 -1.8477261 -1.1553957 -0.74854904 -0.09396621 -1.1943268
0.17950341 0.42947656 -2.2211096 -2.456798 0.85930747 0.73500293 0.839311 -2.0585053
-0.24812679 0.55620676 -0.9008559 -1.2288597 -0.56355166 -1.3161304 -0.12150202 -1.0496978
1.3091116 -0.48105493 0.10665133 -1.1852169 0.6120355 -1.0269558 -0.86264235 0.42977268
0.69136065 -1.7146769 -0.7525166 -0.8323815 -0.37009725 -0.27402058 -0.41163164 -0.55194527
-0.27540004 0.3429957 -0.19638714 1.5080649 0.43414876 0.6810952 -0.89867073 -0.9499508
-1.6429232 0.6396255 -0.72329235 0.34597602 -0.12120376 -1.1421446 0.89763194 -0.6084289
0.2797721 -1.2699988 -1.051434 -0.2883875 1.4815935 0.5433487 -1.1799809 0.062938765
-2.3211973 -0.16703534 0.97507215 1.3456916 0.20991452 -0.4839099 1.9393896 -1.5244349
0.04079612 -1.371549 0.048105437 -0.759748 -0.97574353 -1.0275334 -0.33441693 -0.1424734
-0.2308524 -2.0852187 0.75995225 -3.9949043 0.9405597 -1.5991647 0.9127665 -1.247514
-0.97661716 -0.72303104 -1.5222206 -1.8628458 1.7623631 -1.5873069 0.18632495 -0.3998472
-0.27142325 0.7202096 0.12982297 -0.53615296 -0.16933437 0.5677369 0.099694096 0.2034797
-1.0046874 0.817242 -0.23371914 -0.44690955 0.888897 -0.58416694 0.41886815 -0.3429121
0.02295694 0.23203953 0.032581646 -1.1228527 0.91785395 -2.3372166 0.057912342 -1.7044107
-1.0255986 -1.2640404 -1.8950756 -1.8298976 0.11434672 1.0216831 -0.8930061 -0.5566973
-0.3489 -1.8011532 0.7809673 -1.5034094 0.20240349 -0.7170706 -1.7945385 -2.7013526
0.6005184 -2.139421 -0.7397001 -0.4517701 -0.5609778 0.31958184 0.40551457 -1.0845728
-0.78754073 -1.9831057 -0.46981162 -0.12035378 -0.32651797 0.4093987 -1.9990466 1.0075293
0.07528953 0.86966413 0.19784863 -0.84592104 -0.15646479 -0.9084982 -0.18055885 0.77692246
00000000: fbb8 9a3c 2e6e 68c0 8692 eebe dd6d 7ebf
00000010: fe09 33c0 736f 40bf 2a0d 273e 8ead 343f
00000020: 88f4 c4bf 9a56 2cc0 2757 2ebf 7052 aabf
00000030: 728b fbbf a434 7d3e ce97 b13d 6863 e7bf
00000040: 8c0c 753f 928d 96c0 1762 9dc0 e267 81bf
00000050: 2b92 22c0 aac4 4e3e 41e5 10bd bc4f 23c0
00000060: b849 37c0 5a8c 3340 8794 973d b7ec 13c0
00000070: a2bc 7f3f bda1 deba 53e9 8f3e fda7 a6bf
00000080: 8de2 f13f 4db1 c4be f0f7 b7bf 7e8b bf3e
00000090: 5409 983f f7d2 b2bf 23f4 363f 6a36 a9bc
000000a0: 971c 7bbe b747 6e3f 6d23 8d3f 4033 903f
000000b0: 3744 e13d f2dd 8d3e 73c3 a8bf 7da8 a5bc
000000c0: 1f26 41bf b38e c1bf e3d7 7a3f 2b13 86c0
000000d0: f7fb 9dbf 8af6 68bf e9b4 4d3f 7229 d33e
000000e0: 927c bd3e 4a30 55bf a1a0 cebe 9114 2b3f
000000f0: beca 23be bb4f fa3e cc49 843f e283 ffbe
00000100: 3da5 22be 1fdb debf b7ee 3cbf 51f3 e6bd
00000110: 34ad 68bf 883e 223f b010 c5bf a81b 11c0
00000120: a8e9 113f ab76 5dbf 93dc 4b3f 182b 7cbf
00000130: b84f 193f e6cc 94be 6820 e93f d001 103d
00000140: 8980 f8be 37b2 813f 496c 50bf c422 74bf
00000150: 9bbc 8fbf 2008 e6bf 12f5 c1bb 622c 6fbf
00000160: 67cf 613f d949 18c0 e4b9 b5be 795d 353f
00000170: 37bc 873f 8f5c 9ebf da57 f4bf 6559 f1bd
00000180: 3087 edbf d703 1b3f ad20 29bf 4a82 ecbf
00000190: 02e4 93bf e9a0 3fbf 5b71 c0bd b3df 98bf
000001a0: becf 373e 5ae4 db3e a926 0ec0 2e3c 1dc0
000001b0: 93fb 5b3f 2729 3c3f 16dd 563f 8dbe 03c0
000001c0: f314 7ebe 9163 0e3f 7e9e 66bf 464b 9dbf
000001d0: ec44 10bf f676 a8bf 0dd6 f8bd 7f5c 86bf
000001e0: f890 a73f d54c f6be 036c da3d 30b5 97bf
000001f0: 5cae 1c3f 4a73 83bf 21d6 5cbf 2a0b dc3e
00000200: 03fd 303f 887a dbbf eea4 40bf f416 55bf
00000210: 637d bdbe 6d4c 8cbe 62c1 d2be 494c 0dbf
00000220: 3c01 8dbe 229d af3e b619 49be 4508 c13f
00000230: bf48 de3e 415c 2e3f 490f 66bf fa2f 73bf
00000240: 4f4b d2bf 7fbe 233f b029 39bf c523 b13e
00000250: ad39 f8bd cb31 92bf 35cb 653f ffc1 1bbf
00000260: 4a3e 8f3e 528f a2bf 6495 86bf 87a7 93be
00000270: dba4 bd3f e718 0b3f 9d09 97bf 0ae6 803d
00000280: 7f8e 14c0 500b 2bbe 549e 793f 9f3f ac3f
00000290: d5f3 563e 0ac3 f7be eb3d f83f af20 c3bf
000002a0: d519 273d eb8e afbf 350a 453d d87e 42bf
000002b0: 54ca 79bf 3786 83bf b238 abbe 8ce4 11be
000002c0: 9264 6cbe 3974 05c0 3b8c 423f 83ac 7fc0
000002d0: 85c8 703f 6eb1 ccbf 11ab 693f 8aae 9fbf
000002e0: 9503 7abf 9018 39bf 20d8 c2bf bb71 eebf
000002f0: 1d95 e13f df2c cbbf f8cb 3e3e c6b8 ccbe
00000300: fdf7 8abe a85f 383f 50f0 043e 5241 09bf
00000310: fd65 2dbe 3557 113f 6b2c cc3d fc5c 503e
00000320: 9999 80bf c636 513f 1254 6fbe 54d1 e4be
00000330: c18e 633f f78b 15bf e375 d63e 2d92 afbe
00000340: 3110 bc3c c59b 6d3e 5574 053d a3b9 8fbf
00000350: 7af8 6a3f f594 15c0 7e35 6d3d 212a dabf
00000360: d146 83bf 13cc a1bf d691 f2bf 163a eabf
00000370: 9d2e ea3d 83c6 823f 0c9c 64bf b783 0ebf
00000380: 05a3 b2be 308c e6bf 79ed 473f b86f c0bf
00000390: dc42 4f3e f091 37bf 70b3 e5bf f6e2 2cc0
000003a0: 93bb 193f 46ec 08c0 fc5c 3dbf 694e e7be
000003b0: 3e9c 0fbf 3ba0 a33e 9b9f cf3e 48d3 8abf
000003c0: 459c 49bf 68d6 fdbf 268b f0be 0b7c f6bd
000003d0: 5d2d a7be b59c d13e c2e0 ffbf b8f6 803f
000003e0: 6631 9a3d 4fa2 5e3f d598 4a3e 488e 58bf
000003f0: 4e38 20be 5793 68bf 6be4 38be 64e4 463f
