crowd_nav/GRL_output/rl_model_7.pth (torch, 143871 bytes, 33 tensors)

w_a f4 [32, 32]
0	0x3f983fe0	1.1894493
1	0x3f1d6c71	0.61493593
2	0x3f98c01f	1.1933631
3	0xc0bc891e	-5.891738
4	0xbf56aa84	-0.83853936
5	0x3f519045	0.8186076
6	0x3dae00da	0.08496256
7	0xbfd61e28	-1.6727953
8	0x3f9a1934	1.2038941
9	0xc0132cbf	-2.299606
10	0xbf04995e	-0.5179652
11	0xbf432a91	-0.76236826
12	0xbf9f99c9	-1.2468807
13	0xbf55ed3f	-0.83565134
14	0xbf54cd22	-0.8312551
15	0xbfc72046	-1.5556724
16	0x3e89f555	0.26944986
17	0xbfec685c	-1.8469348
18	0xbe8a3154	-0.2699076
19	0x3ee76b1e	0.4519891
20	0x3f5a666c	0.85312533
21	0xbf694717	-0.911241
22	0xbeba43cc	-0.3637985
23	0xc01ad4a1	-2.4192278
24	0xbd610351	-0.054934803
25	0xbdc19793	-0.094527386
26	0xbeb19408	-0.3468325
27	0xbf1d941e	-0.61554134
28	0x3df779fd	0.12083814
29	0x3e119409	0.14216627
30	0x3f19c776	0.6006998
31	0x3ffe4090	1.9863453
32	0x3e95b048	0.29236054
33	0x3f01a742	0.5064584
34	0xc00910ea	-2.1416574
35	0xbee367d6	-0.44415158
36	0xbd8f2a04	-0.06990436
37	0x3f758a95	0.95914584
38	0xbd82ba60	-0.063832045
39	0x3f4bd6b5	0.7962449
40	0x3f2eb52a	0.68245184
41	0x3f8fc873	1.1233047
42	0x3f0ccda8	0.55001307
43	0x3e763341	0.2404299
44	0xbd793890	-0.060844958
45	0xbf02122c	-0.5080898
46	0xbec6abdf	-0.38803002
47	0xbe47cd1b	-0.19511835
48	0xbd26565e	-0.04060971
49	0x3ee3ec7e	0.44516367
50	0xbf793bf7	-0.97357124
51	0xbf955f8b	-1.1669782
52	0x3f0f585b	0.55994195
53	0xbe0c1300	-0.13679123
54	0xc0200ea7	-2.5008943
55	0xbf989d63	-1.1923031
56	0x3dbfef58	0.09371823
57	0xbe1ad3cf	-0.15119861
58	0xbf45544b	-0.77081746
59	0xbf154343	-0.5830576
60	0xbf9c877f	-1.222885
61	0x3ec84293	0.39113292
62	0x3e30db10	0.17271066
63	0x3dfca522	0.12336184
64	0xbf65f3aa	-0.89824927
65	0xbf6924f6	-0.9107202
66	0xbe54c0b0	-0.2077663
67	0x3f10c76e	0.56554306
68	0xbfa5806a	-1.2929814
69	0xbf9127f0	-1.1340313
70	0xbe16e2b7	-0.14734922
71	0xbffc30e6	-1.9702423
72	0xbfc70ddb	-1.5551103
73	0xbf58b9dc	-0.846586
74	0x3bccb388	0.0062469877
75	0xbf9d2870	-1.2277966
76	0xbd474952	-0.048653908
77	0x3d939f62	0.07208134
78	0xbec63664	-0.38713372
79	0xbf31b6bc	-0.69419456
80	0x3eeacd3b	0.45859703
81	0x3e984469	0.29739693
82	0xbfcd8c74	-1.6058488
83	0x3f14ad2c	0.5807674
84	0xbf22b98d	-0.6356438
85	0x3ecdabc1	0.401701
86	0x3f28e326	0.659716
87	0xbf8c0455	-1.0938822
88	0xbf896bf5	-1.0736071
89	0x3f770f28	0.965075
90	0xbf156baf	-0.5836744
91	0xbf135c18	-0.575624
92	0xbe3cd2c7	-0.1843978
93	0xbd8c7324	-0.06857899
94	0x3f2db281	0.678505
95	0xbf873d2d	-1.0565544
96	0xbe9d1365	-0.3067886
97	0x3ef40b76	0.47664994
98	0xba720720	-0.0009232629
99	0x3ebd8dfb	0.37022385
100	0xbf505ac8	-0.8138852
101	0x3fa344b5	1.2755343
102	0x3fd68ec7	1.6762322
103	0xbf06f6f9	-0.527206
104	0x3e30d5c8	0.17269051
105	0xbfabd975	-1.3425738
106	0xbf5edac1	-0.8705254
107	0xbf088baa	-0.5333811
108	0x3e95b052	0.29236084
109	0xbc0154ec	-0.007893782
110	0x3f57e7d6	0.8433813
111	0xbebc434f	-0.36770102
112	0x3f6fac2c	0.9362209
113	0x3f0cea16	0.55044687
114	0xbd7b005b	-0.061279636
115	0x3f8d532f	1.1041011
116	0x3c958815	0.018253366
117	0x3e8576bd	0.26067153
118	0x3f112969	0.5670381
119	0x3fc28a8c	1.5198531
120	0x3e0fee58	0.14055765
121	0xbf313aaa	-0.6923014
122	0xbedfe0f3	-0.4372631
123	0xbd204b26	-0.039134167
124	0xbfb369ed	-1.4016701
125	0x3f18c0a9	0.59668976
126	0xbe85ce94	-0.2613417
127	0xbfa75a67	-1.3074464
128	0xbce8235c	-0.028337173
129	0xbe21d426	-0.15803584
130	0x3f3826a9	0.7193399
131	0x3f8f2f42	1.1186297
132	0xbf9513aa	-1.1646626
133	0xbea69586	-0.32535952
134	0x3dfefd6b	0.124506794
135	0xbd70ee05	-0.058820743
136	0xbf68bc0b	-0.9091193
137	0x3f1031da	0.5632607
138	0x3f05b0c6	0.5222286
139	0xbf242ef2	-0.6413413
140	0xbfae198f	-1.360155
141	0x3fd420db	1.6572527
142	0x3f1396eb	0.5765216
143	0x3e2f275d	0.1710486
144	0x3f728b11	0.9474345
145	0xbe85df86	-0.26147097
146	0xbf0d47f2	-0.55187905
147	0x3e6596a4	0.22420746
148	0xbfb7d699	-1.4362365
149	0xbe684af6	-0.22684845
150	0x3f22a920	0.63539314
151	0x3fbc44c8	1.470849
152	0xbf6cd3de	-0.92510784
153	0xbd981f8a	-0.074278906
154	0xbfc02bfd	-1.5013424
155	0xbf4fc5e2	-0.8116132
156	0xbe8c9f2a	-0.27465183
157	0xc0184485	-2.379182
158	0xbf71f653	-0.94516486
159	0x3e393fb0	0.18090701
160	0x3fb478b8	1.409934
161	0xbee0affa	-0.4388426
162	0xbfa8f037	-1.3198308
163	0x3ff9bf0f	1.9511431
164	0x3f27edd3	0.65597266
165	0x3f6f0504	0.9336703
166	0xbf95d321	-1.1705056
167	0x40094cb1	2.1453059
168	0x3f1a1a85	0.60196716
169	0x3fbd3189	1.4780742
170	0x3ffe99ad	1.9890648
171	0x4015a5ea	2.3382516
172	0xc040d24d	-3.0128357
173	0xc08d16fe	-4.4090567
174	0xbfc9afbe	-1.5756757
175	0x3fa5ba0c	1.2947402
176	0x3fc3c899	1.5295593
177	0x3fb196a5	1.3874098
178	0xbfa4a5c3	-1.2863086
179	0x3fb149c6	1.3850639
180	0xbed67fbf	-0.41894338
181	0x3fa77382	1.3082125
182	0x3f2d39e7	0.67666477
183	0xbebd9434	-0.37027133
184	0xbfb6a778	-1.4269857
185	0xbe018088	-0.12646687
186	0x3ef6abf8	0.48178077
187	0x40576998	3.36582
188	0x3f079c91	0.52973276
189	0xbf41470c	-0.75499034
190	0x3fc046bc	1.5021586
191	0xc04d25fd	-3.2054436
192	0xbea77b0f	-0.32711074
193	0x3e85366f	0.26018092
194	0x3e881ea6	0.26585883
195	0x3e9c11eb	0.3048242
196	0xbec52cfd	-0.38510886
197	0x3f6cd17f	0.92507166
198	0xbf0d8a01	-0.552887
199	0x3f8b26e8	1.0871248
200	0x3de86cf7	0.113489084
201	0xbfc1db4b	-1.5145048
202	0x3e0f8b61	0.14018013
203	0x3ba5f453	0.005064526
204	0xbee89f1f	-0.454339
205	0xbe95df01	-0.292717
206	0xbf476830	-0.7789335
207	0xbf2ef182	-0.6833726
208	0x3f663f5f	0.89940447
209	0xbf07ff16	-0.53123605
210	0xbfe15f98	-1.7607298
211	0xbf2269cf	-0.634427
212	0xc00e9fd8	-2.228506
213	0xbe27a705	-0.16372307
214	0x3ef7bb09	0.48384884
215	0xbfb78482	-1.4337313
216	0xbe99b965	-0.30024257
217	0xbf14b7e7	-0.5809311
218	0xc014f08c	-2.3271818
219	0xbdfbea55	-0.12300555
220	0x3e11725e	0.14203784
221	0xbf9a9455	-1.2076517
222	0x3e6cab10	0.2311213
223	0xc0690d34	-3.6414309
224	0xbc1e9c3f	-0.009680807
225	0xbefd19e1	-0.49433807
226	0xbf14be83	-0.581032
227	0xbc80359e	-0.015650567
228	0x3e0b85f8	0.13625324
229	0xbedd8588	-0.4326594
230	0xbf3d296f	-0.7389135
231	0x3fadae54	1.3568826
232	0xbe8c6db4	-0.27427447
233	0xbfa96a04	-1.3235478
234	0xbdd2dd8d	-0.10296164
235	0x3eceefaf	0.4041724
236	0xbe1d8047	-0.15380965
237	0x3ee03a94	0.43794692
238	0xbe975d39	-0.2956331
239	0xbf424c44	-0.7589762
240	0xbea6a20d	-0.3254551
241	0xbf2a9f65	-0.66649467
242	0x3dac3ebb	0.084104024
243	0xbf193178	-0.5984111
244	0xbf3af2b3	-0.7302658
245	0x3e539568	0.20662463
246	0x3f5440df	0.82911485
247	0xbfd8ae23	-1.6928142
248	0xbfdab5ab	-1.7086691
249	0x3f05522f	0.5207853
250	0xbf8b0b90	-1.0862904
251	0x3f7a1b91	0.97698313
252	0xbf17136e	-0.5901402
253	0xc010bcf8	-2.2615337
254	0x3fc23bbc	1.517448
255	0x3fd65a7c	1.6746364

w_r.0.weight f4 [64, 9]
0	0x3f3f9e08	0.7485051
1	0x3dc080cc	0.09399566
2	0x3f56e5cf	0.8394441
3	0xbf0374a3	-0.5134985
4	0xbf0e5aa1	-0.5560704
5	0x3d06e260	0.03293073
6	0xbe9d764b	-0.30754313
7	0xbe4fadc6	-0.20281133
8	0xbe8172d5	-0.25282922
9	0x3eb5f08e	0.3553509
10	0x3cdb6f66	0.026786517
11	0xbf5b6f9b	-0.8571717
12	0xbeec0c67	-0.46103212
13	0xbe10c89a	-0.14139023
14	0xbdc6dfdb	-0.09710666
15	0xbdf14eee	-0.11782633
16	0xbe878185	-0.26466003
17	0xbe2e52ff	-0.17023848
18	0x3d0beb3f	0.034159895
19	0x3b8a61fd	0.004223107
20	0xbe6e79c6	-0.2328864
21	0xbe628a86	-0.22123155
22	0xbdfb1fa3	-0.122618936
23	0xbea18102	-0.31543738
24	0xbe794e87	-0.24346362
25	0x3e19e1df	0.15027569
26	0x3c93a167	0.018021299
27	0xbf405599	-0.7513061
28	0x3e9ca14e	0.30591816
29	0x3dbd3273	0.09238138
30	0xbf036eaf	-0.51340765
31	0xbd9b8d3e	-0.07595299
32	0xbe2bcadb	-0.16776602
33	0xbe97234c	-0.29519117
34	0x3cd79333	0.026315307
35	0xbe143e59	-0.14476909
36	0x3dcbdc0f	0.09954082
37	0xbcce3d5a	-0.02517574
38	0xbea06212	-0.31324822
39	0xbd162a93	-0.036661696
40	0xbeb97676	-0.3622319
41	0xbe1a7550	-0.15083814
42	0xbbe74add	-0.007058485
43	0xbe9820e5	-0.29712597
44	0xbe7de26f	-0.24793409
45	0x3f2fd013	0.6867687
46	0x3e568359	0.20948543
47	0xbfa43d0e	-1.2831132
48	0x3f4dfd1f	0.8046436
49	0xbed888f9	-0.42292002
50	0x3e67b330	0.22626948
51	0xbe259ca4	-0.16173035
52	0xbec60140	-0.3867283
53	0xbf201817	-0.6253676
54	0xbdee0b23	-0.11623218
55	0x3f64031d	0.8906725
56	0x3d550501	0.052006725
57	0xbc524ff3	-0.012836444
58	0x3dadb00a	0.084808424
59	0xbe54eb18	-0.20792806
60	0x3df5dc6f	0.12004935
61	0xbead665f	-0.33867165
62	0x3da81c00	0.082084656
63	0xbf3fdfea	-0.7495104
64	0xbeb019c6	-0.34394664
65	0xbb763165	-0.0037566063
66	0xbcac45bf	-0.021029351
67	0xbe97f204	-0.2967683
68	0x3c567700	0.013089895
69	0xbea361ea	-0.3191064
70	0x3c6de693	0.014520305
71	0xbcba9167	-0.022774411
72	0xbf80e75d	-1.0070606
73	0xbea80f63	-0.3282424
74	0x3f545edb	0.8295724
75	0xbf636af8	-0.88835096
76	0x3dccf128	0.100069344
77	0x3deea7c6	0.11653094
78	0xbe90a9bc	-0.28254497
79	0xbefadc77	-0.48996326
80	0xbede8636	-0.4346177
81	0x3f2d9c16	0.67816293
82	0x3def059f	0.11670994
83	0x3f4a2437	0.7896151
84	0xbd882c76	-0.06649105
85	0xbf3d2c73	-0.7389595
86	0x3e2f28de	0.17105433
87	0xbeee9807	-0.46600363
88	0xbf7f9196	-0.9983152
89	0xbefcfe58	-0.494128
90	0xbdf7cfc4	-0.12100175
91	0xbc357541	-0.011075319
92	0x3cd2339b	0.025659373
93	0xbebd3c6f	-0.3696017
94	0xbebe594c	-0.37177503
95	0xbd3b772b	-0.045767944
96	0x3d1db65a	0.038503982
97	0xbedf0d53	-0.43564853
98	0xbe5bc2b3	-0.2146099
99	0x3cea1812	0.02857593
100	0xba8b23ec	-0.0010615564
101	0x3df2a9e0	0.11848807
102	0xbed8a891	-0.42316106
103	0xbf1c3929	-0.6102472
104	0x3e94c6ea	0.2905801
105	0xbdb84a0d	-0.08998499
106	0xb9df3f3b	-0.00042580985
107	0xbdd71676	-0.10502331
108	0xbe146d5e	-0.14494845
109	0xbcedf6d6	-0.029048365
110	0xbe5d9753	-0.21639757
111	0xbe92f86e	-0.28705162
112	0xbd965470	-0.07340324
113	0xbe431cf8	-0.1905402
114	0xbea9ebae	-0.33187622
115	0x3e228826	0.15872249
116	0x3e5a5040	0.21319675
117	0xbef28969	-0.4737046
118	0xbe65c99d	-0.2244019
119	0xbf65dca1	-0.8978978
120	0x3f9748e4	1.181912
121	0xbe818ad3	-0.25301227
122	0xbe015ea8	-0.12633765
123	0xbf1195a7	-0.56868976
124	0xbeb38717	-0.35064003
125	0xbe531019	-0.2061161
126	0xbf391c25	-0.7230857
127	0x3edcb350	0.43105555
128	0xbf521bb3	-0.82073516
129	0xbfa809de	-1.3128011
130	0xbf589c29	-0.8461328
131	0xbe62984b	-0.22128408
132	0xbed00dea	-0.40635616
133	0xbf52c03f	-0.82324594
134	0xbed595b0	-0.41715765
135	0xbefb0a85	-0.49031463
136	0xbef10521	-0.47074226
137	0xbd59ebf4	-0.053203538
138	0x3d425aeb	0.047449987
139	0xbeb078a0	-0.3446703
140	0xbe89d68f	-0.26921508
141	0xbf0639c8	-0.5243192
142	0xbed89cdb	-0.4230717
143	0xbeadb8fc	-0.33930194
144	0xbe3c6d77	-0.18401133
145	0x3e5dbf28	0.21654952
146	0x3a31f13f	0.00067879626
147	0xbca4b382	-0.020105127
148	0xbea9c9e0	-0.3316183
149	0xbb484756	-0.0030560098
150	0x3e287c9f	0.16453789
151	0x3d6900b1	0.056885425
152	0x3d8ed120	0.06973481
153	0xbf703787	-0.9383473
154	0x3e9a2d39	0.30112627
155	0xbfad3b7c	-1.3533778
156	0x3fb4c5b8	1.4122839
157	0xbe09af29	-0.13445725
158	0xbd23d700	-0.03999996
159	0xbead33c7	-0.33828565
160	0xbedad4cb	-0.42740473
161	0xbf238a83	-0.6388323
162	0x3f2f2c5d	0.6842707
163	0x3f8dc45f	1.1075553
164	0x3d0c97f1	0.03432459
165	0x3c92ebf1	0.017934771
166	0xbe703be2	-0.23460343
167	0xbe9c2ffa	-0.30505353
168	0xbed0d4ee	-0.40787452
169	0xbee61204	-0.4493562
170	0x3d51a8c2	0.05118633
171	0x3f2d0eae	0.67600524
172	0xbf8689f0	-1.0510845
173	0x3db2cd27	0.08730536
174	0x3d2aead1	0.041727845
175	0xbf26af56	-0.6511129
176	0x3e6aef76	0.2294291
177	0xbf16dc6f	-0.58930105
178	0xbddf7b9c	-0.109122485
179	0xbeb741cc	-0.35792387
180	0x3e1c9916	0.15292773
181	0xbecbe798	-0.3982513
182	0x3e97174b	0.2950996
183	0xbedbdcd7	-0.42941925
184	0x3d243e90	0.040098727
185	0xbd3097c0	-0.04311347
186	0xbee2a929	-0.44269684
187	0xbec9f5ff	-0.39445493
188	0xbe70c96d	-0.23514338
189	0x3f97f38d	1.1871201
190	0x3f14a1e7	0.58059543
191	0x3f180c95	0.593942
192	0x3f071560	0.5276699
193	0xbf195c11	-0.5990611
194	0x3d08dc6b	0.033413332
195	0xbed06ab0	-0.40706396
196	0xbf048642	-0.5176736
197	0xbe422155	-0.18958028
198	0x3f7e9773	0.99449843
199	0x3f0bb07e	0.5456618
200	0x3f991750	1.196024
201	0x3cc84f5c	0.024451904
202	0xbf0c3dc4	-0.54781747
203	0x3ea129f4	0.3147732
204	0xbf05a1eb	-0.5220019
205	0xbf25e47f	-0.6480178
206	0xbf0e9358	-0.5569358
207	0xbe801122	-0.2501307
208	0x3ecdd04e	0.40197986
209	0x3fcfcf9f	1.6235236
210	0x3e73bdf4	0.2380293
211	0xbeed682d	-0.46368542
212	0x3d2bce56	0.041944824
213	0xbe4c6394	-0.19959861
214	0xbefb34f1	-0.4906383
215	0xbe2f2396	-0.17103419
216	0x3fbd5524	1.4791608
217	0x3ed3844a	0.41311866
218	0x3e82ac99	0.25522307
219	0x3ea7cbb6	0.32772607
220	0xbef868a6	-0.4851734
221	0xbc44842b	-0.011994402
222	0xbf0b1c52	-0.5434009
223	0xbe1ea5c7	-0.15492927
224	0xbea72bf3	-0.32650718
225	0xbf1edf70	-0.6205969
226	0x3e61906d	0.2202775
227	0xbf73b876	-0.9520334
228	0x3e901e91	0.2814832
229	0xbf20c7a1	-0.6280461
230	0xbe139028	-0.1441046
231	0xbf0d6456	-0.55231225
232	0xbef22c0c	-0.4729923
233	0xbf0d9c01	-0.5531617
234	0x3f89cf0f	1.0766314
235	0x3e50fd16	0.20409045
236	0x3f0ec1e1	0.55764586
237	0x3f2fd4ca	0.68684065
238	0xbea42827	-0.32061884
239	0xbd4bdb40	-0.04976964
240	0xbe5e4e4a	-0.21709552
241	0xbee373b0	-0.444242
242	0xbeac7acb	-0.33687434
243	0xbef25c63	-0.4733611
244	0xbd833e8e	-0.06408416
245	0xbf98d0fe	-1.1938779
246	0x3f05e4b7	0.52302116
247	0x3e964d95	0.29356065
248	0xbcc40f00	-0.023932934
249	0xbeaecbef	-0.34139964
250	0xbddf00df	-0.10888838
251	0xbdb5ce54	-0.088772446
252	0x3e580a77	0.21097742
253	0x3f33e6f1	0.70274264
254	0xbea10195	-0.3144652
255	0xbe96c0ea	-0.29444057

w_r.0.bias f4 [64]
0	0x3c29eea2	0.010371836
1	0xbda74d37	-0.081690244
2	0xbd2985d4	-0.041387394
3	0xbe9ce6ee	-0.30644935
4	0xbc9c12c9	-0.019051926
5	0xbe673eb1	-0.22582509
6	0xbea30a40	-0.31843758
7	0xbe0f764d	-0.14009972
8	0xbe68e171	-0.22742249
9	0xbefbd25d	-0.49183932
10	0xbd805003	-0.06265261
11	0x3d11ecbc	0.035626158
12	0xbe535ee0	-0.2064166
13	0xbee83bc9	-0.45358112
14	0xbeeb4b44	-0.4595586
15	0xbe629821	-0.22128345
16	0x3e0dd780	0.13851738
17	0xbf22553d	-0.63411313
18	0x3d818699	0.063245006
19	0xbf0d5b64	-0.55217576
20	0xbed62e53	-0.41832218
21	0xbf303c30	-0.6884184
22	0xbf6d6adf	-0.927412
23	0xbedb9b33	-0.42891845
24	0xbe5fe9aa	-0.2186648
25	0xbdbcc1af	-0.0921663
26	0xbf1bc919	-0.60853726
27	0x3e4ef96c	0.20212334
28	0xbdc4b90a	-0.09605606
29	0xbe996c09	-0.29965237
30	0xbe9f863f	-0.3115711
31	0x3e0059bb	0.1253423
32	0x3df65e4d	0.12029705
33	0xbf2abc83	-0.66693896
34	0x3a856b53	0.001017908
35	0x3ecf5d37	0.40500805
36	0xbf053d37	-0.5204653
37	0xbe34c073	-0.17651539
38	0xbe28f95e	-0.16501376
39	0xbf03f527	-0.5154595
40	0xbf0339bc	-0.5125997
41	0xbe7f8d20	-0.24956179
42	0xbea219b5	-0.31660238
43	0xbf51dad4	-0.8197453
44	0xbcce82e5	-0.0252089
45	0xbdd271ea	-0.10275634
46	0xbe3eea0e	-0.18643972
47	0xbea95a80	-0.3307686
48	0xbf31cb5c	-0.69450927
49	0xbe803f54	-0.25048316
50	0xbdcd02ee	-0.100103244
51	0xbf0f3200	-0.5593567
52	0xbdb62bca	-0.08895071
53	0xbd446bb1	-0.047954265
54	0xbe0f6c73	-0.14006214
55	0xbec7289c	-0.3889817
56	0x3d6c46b3	0.05768461
57	0xbecab4e2	-0.39591128
58	0xbec255cc	-0.37956083
59	0xbe80b7bb	-0.25140175
60	0xbe7a6c72	-0.24455431
61	0xbee6cebf	-0.4507961
62	0xbf0b8ed2	-0.545148
63	0xbe9f5db4	-0.31126177

w_r.2.weight f4 [32, 64]
0	0xbee527f9	-0.4475706
1	0xbdeae780	-0.11469936
2	0x3dc76314	0.097356945
3	0x3eb4250a	0.3518451
4	0xbd18ede1	-0.037336234
5	0x3da0d439	0.07852978
6	0xbfb0009f	-1.375019
7	0xbcbd38bf	-0.023098348
8	0x3c458f87	0.012058145
9	0xbe112725	-0.14175089
10	0xbd4255b0	-0.047445
11	0xbd33bebb	-0.043883067
12	0xbdb61dd2	-0.088924065
13	0xbdd33d9a	-0.10314484
14	0x3db1ccdd	0.08681653
15	0xbb62df6e	-0.0034618038
16	0x3e385cc8	0.18004143
17	0xbda9f8c9	-0.08299405
18	0xbede4d3d	-0.43418303
19	0xbe7f0bf6	-0.24906906
20	0xbdff7c15	-0.12474839
21	0x3e0ef033	0.13958816
22	0xbf053cb3	-0.52045745
23	0xbf0bdf16	-0.5463728
24	0xbfac22ec	-1.3448157
25	0xbeeeda57	-0.46650955
26	0xbf0d945e	-0.55304515
27	0x3a1b2a57	0.000591909
28	0xbe82eb71	-0.25570253
29	0xbc9730f3	-0.018455958
30	0x3d9b38c0	0.075791836
31	0xbe34c057	-0.17651497
32	0xbeb85f82	-0.36010367
33	0x3e805073	0.25061378
34	0xbf486018	-0.7827163
35	0xbe6f728d	-0.23383541
36	0x3c50bb20	0.012739927
37	0xbec55dad	-0.3854803
38	0xbe284ada	-0.16434804
39	0xbebcc3ab	-0.36868033
40	0x3d2b5c93	0.041836333
41	0xbdec37be	-0.115340695
42	0xbd8b49a4	-0.06801155
43	0x3dcc4076	0.099732324
44	0xbf84d9bc	-1.0378947
45	0xbe207a1d	-0.15671583
46	0xbe832daf	-0.2562079
47	0x3dc30648	0.095226824
48	0xbe9f46f4	-0.3110882
49	0x3eb2567c	0.34831607
50	0xbc82f23a	-0.015984643
51	0xbf5976e6	-0.8494705
52	0xbe8f3170	-0.27967405
53	0x3e10c715	0.14138444
54	0xbd6c79e2	-0.057733424
55	0xbdf8d48f	-0.12149917
56	0xbeb41fca	-0.35180503
57	0x3dba95c8	0.091106
58	0xbe9454bf	-0.28970906
59	0xbfaf6e25	-1.3705488
60	0x3f0e6ebc	0.5563772
61	0xbda51c59	-0.080620475
62	0x3f2a8de1	0.6662274
63	0xbd8284c9	-0.06372983
64	0x3e7e2959	0.2482046
65	0x3ccaa9ee	0.024739232
66	0xbcd45e2a	-0.025923807
67	0x3eec01a2	0.46094996
68	0xbd2443f3	-0.040103864
69	0x3e056e76	0.13030419
70	0x3dda4bba	0.10658975
71	0xbdf2e714	-0.11860481
72	0xbe2b966c	-0.167566
73	0xbf50eab5	-0.81608135
74	0x3c01da96	0.00792565
75	0xbcb3b715	-0.021937886
76	0xbdce6ace	-0.10078965
77	0x3d147270	0.03624195
78	0xbda34f3c	-0.07974097
79	0xbf5e7a4e	-0.8690537
80	0x3e3bd4cc	0.18342894
81	0xbe9d024a	-0.3066581
82	0x3f113255	0.56717426
83	0xbe9446e1	-0.28960326
84	0xbe03f590	-0.12886643
85	0xbe6be66d	-0.23037119
86	0x3f1fb4ac	0.6238506
87	0x3d80e146	0.062929675
88	0xbeb7921f	-0.3585367
89	0xbf03ff15	-0.515611
90	0xbe7e8fdc	-0.24859565
91	0xbda96ca8	-0.08272678
92	0xbe361dc3	-0.1778479
93	0xbd830c67	-0.0639885
94	0xbdbdce36	-0.09267847
95	0x3c3405e0	0.010987729
96	0xbd899e3c	-0.06719634
97	0xbd97cb54	-0.07411829
98	0xbe3f1c1a	-0.18663064
99	0x3dacb329	0.084326096
100	0xbc9a29de	-0.018818792
101	0xbefeef66	-0.49792022
102	0xbf26b628	-0.651217
103	0x3e2a8bc5	0.1665488
104	0xbde5cc57	-0.11220615
105	0xbde79e5e	-0.11309503
106	0x3df946ca	0.12171705
107	0xbf41e2fe	-0.7573699
108	0xbd8ee012	-0.06976332
109	0x3d301884	0.04299213
110	0xbdfb3d45	-0.122675456
111	0x3cbe6488	0.023241296
112	0xbea841ed	-0.32862797
113	0x3e95b07e	0.29236215
114	0xbe172c54	-0.14763004
115	0xbfb3295d	-1.3996998
116	0x3ed4a077	0.41528675
117	0x3db5fb5c	0.088858336
118	0xbddf159a	-0.10892792
119	0x3f1bb670	0.6082525
120	0xbce14e37	-0.027503116
121	0x3a71258a	0.0009199014
122	0xbdf3f79e	-0.119124636
123	0xbf1729d2	-0.5904819
124	0xbe93591d	-0.28778926
125	0xbe396b4c	-0.18107337
126	0x3efd4f3f	0.49474522
127	0xbb7e7100	-0.0038824677
128	0x3eca8f95	0.3956267
129	0x3e16ec8e	0.14738676
130	0x3dfaa9fc	0.12239453
131	0x3d99dc3d	0.0751271
132	0xbd2f4343	-0.042788755
133	0xbea4024f	-0.3203301
134	0xbe12c29a	-0.14332047
135	0xbe18cf85	-0.14922912
136	0x3cb8e0a9	0.022568064
137	0xbeaeccd8	-0.34140658
138	0xbcbd1897	-0.023083014
139	0xbd262557	-0.040562954
140	0x3c50bd60	0.012740463
141	0xbda2c13e	-0.07947014
142	0xbf1fe0e7	-0.6245255
143	0xbed7021b	-0.41993794
144	0x3dce83ec	0.10083756
145	0x3eadd0b5	0.33948293
146	0xbdc05d12	-0.09392752
147	0x3c6dd889	0.014516958
148	0x3e614c7a	0.2200183
149	0xbe9fba43	-0.31196794
150	0xbcd207ce	-0.025638487
151	0xbe4adf33	-0.19811706
152	0xbf896747	-1.0734643
153	0xbf6fe94c	-0.9371536
154	0xbf615e8d	-0.880349
155	0x3d0ac50e	0.033879332
156	0xbdc4a8c8	-0.09602505
157	0x3cdccbfb	0.026952734
158	0x3d3f6e84	0.046736255
159	0x3dc068d6	0.09394996
160	0xbe08aa96	-0.13346323
161	0x3e0b1f1b	0.13586085
162	0xbe50d894	-0.20395118
163	0xbec53231	-0.38514856
164	0x3e0c94d4	0.13728648
165	0xbfa1c332	-1.2637694
166	0xbeaaf421	-0.3338938
167	0xbf90d0a8	-1.1313677
168	0xbde0b197	-0.109713726
169	0x3c281739	0.010259443
170	0x3cead3bb	0.028665414
171	0xbd83b0f1	-0.06430233
172	0xbf1fbfaf	-0.6240186
173	0x3d250929	0.04029194
174	0xbe100f36	-0.14068303
175	0x3dfe5894	0.12419239
176	0xbe2703c8	-0.16310036
177	0xbea8eab3	-0.3299156
178	0xbde06fa3	-0.10958793
179	0x3d9b6f5f	0.07589602
180	0x3da8a9ac	0.08235487
181	0x3e35e970	0.1776483
182	0xbc1befd9	-0.009517633
183	0x3e27728e	0.16352293
184	0x3dbaf9fe	0.091297135
185	0x3ca905d3	0.02063266
186	0xbef96d6c	-0.48716295
187	0x3e2e3a66	0.17014465
188	0x3e4f6600	0.20253754
189	0xbdc7b002	-0.09750368
190	0x3d485d9c	0.048917398
191	0xbd3263d8	-0.04355225
192	0x3e88894d	0.26667252
193	0xbdf9d3b9	-0.12198586
194	0xbd37349d	-0.04472791
195	0xbe407b63	-0.18797068
196	0x3dbaad40	0.09115076
197	0x3e06412c	0.13110799
198	0xbf9d1112	-1.2270834
199	0xbf9b13b2	-1.2115386
200	0xbec78003	-0.38964853
201	0xbe89c9fc	-0.26911914
202	0xbd86e96f	-0.06587493
203	0x3d1c9fd2	0.038238354
204	0xbd928c98	-0.071557224
205	0xbe5d0c98	-0.21586835
206	0xbf25759b	-0.64632577
207	0xbc140190	-0.009033576
208	0xbe33715f	-0.17523716
209	0xbf160aaf	-0.5861005
210	0x3ef0f5b3	0.47062454
211	0xbf963292	-1.1734183
212	0x3d921400	0.07132721
213	0x3e15d124	0.14630562
214	0x3ff3cb30	1.9046383
215	0xbf911278	-1.1333761
216	0xbe1ba7f1	-0.15200783
217	0xbc75a730	-0.014993474
218	0xbe93bec4	-0.2885648
219	0xbfabe151	-1.3428136
220	0x3f7eeb24	0.99577546
221	0xbd4a593c	-0.049401507
222	0xbefba325	-0.49147907
223	0x3df26d06	0.11837201
224	0xbdf32fc4	-0.11874345
225	0xbcdb0b62	-0.026738826
226	0xbf30d21b	-0.69070596
227	0x3eb2b18f	0.3490109
228	0xbd28ba45	-0.041193265
229	0xbf9bc90c	-1.217073
230	0x3f95a3a2	1.1690562
231	0xbe2c4410	-0.16822839
232	0xbf13a2e5	-0.5767043
233	0xbf63faa7	-0.8905434
234	0xbd0c15b9	-0.034200404
235	0xbdc65bc3	-0.09685471
236	0x3e353d41	0.17699148
237	0x3e1e7e11	0.15477778
238	0x3e112fd7	0.14178406
239	0xba837980	-0.0010030717
240	0x3d2c7d90	0.042111933
241	0xbcfa6786	-0.030566942
242	0xbf40d27e	-0.75321186
243	0x3f9f15d0	1.2428532
244	0xc0be3a31	-5.9446034
245	0x3e259d07	0.16173182
246	0x3e0fe35d	0.14051576
247	0xbe986911	-0.2976766
248	0x3ecf547f	0.40494153
249	0xbd89f9bc	-0.06737086
250	0xbf911358	-1.1334028
251	0x3a549881	0.0008109883
252	0xbc7c455a	-0.015397394
253	0xbcf70802	-0.030155186
254	0xbdfef91b	-0.12449857
255	0x3d6df73c	0.05809711

w_r.2.bias f4 [32]
0	0x3e1aa076	0.15100273
1	0xbe997c78	-0.29977775
2	0x3eab3010	0.33435106
3	0x3cc62d38	0.024191484
4	0xbe24ca7f	-0.16092871
5	0xbe1f669e	-0.15566489
6	0xbd18ea9a	-0.03733311
7	0xbdaf31cf	-0.08554422
8	0x3e264685	0.16237839
9	0x3e154e29	0.14580597
10	0x3d44959d	0.047994245
11	0xbe9947fe	-0.29937738
12	0xbf8b899a	-1.0901368
13	0xbe8b2115	-0.27173677
14	0xbf0b5f70	-0.544425
15	0xbeeaadb2	-0.45835644
16	0xbe3844e3	-0.17995028
17	0xbe273507	-0.16328822
18	0x3f4f4d3a	0.80977213
19	0x3f1d472d	0.6143673
20	0x3e476cfa	0.19475165
21	0xbd89b132	-0.067232504
22	0xbd763abe	-0.060114615
23	0x3d224e4b	0.039625447
24	0xbe429771	-0.19003083
25	0x3ea9ed98	0.33189082
26	0xbe597c1d	-0.21238752
27	0xbe028dc9	-0.12749399
28	0x3e8147b7	0.25250027
29	0xbd16ae90	-0.03678757
30	0x3f632248	0.88724184
31	0xbe944972	-0.28962284

w_h.0.weight f4 [64, 5]
0	0x3e082a40	0.13297367
1	0x3db718b0	0.08940256
2	0xbf8c64d8	-1.0968275
3	0xbfd21114	-1.6411462
4	0xbf4d66fa	-0.80235255
5	0x3e631963	0.22177653
6	0xbc71dabb	-0.014761622
7	0x3e37fc92	0.17967442
8	0x3fb33b94	1.4002557
9	0xbf19c01b	-0.60058755
10	0xbe549336	-0.20759282
11	0xbf2c3bd1	-0.6727877
12	0xbef7b567	-0.48380587
13	0xbf7ae631	-0.98007494
14	0xbe8cb820	-0.27484226
15	0xbe632b1b	-0.22184412
16	0x3f25b876	0.6473459
17	0xbf350a28	-0.7071862
18	0xbf28fe56	-0.66013086
19	0xbe5fbc87	-0.21849261
20	0xbd27fcb1	-0.04101247
21	0xbec42362	-0.38308245
22	0xbf9e22ed	-1.2354409
23	0x3f8be5e2	1.092953
24	0xbf9402de	-1.1563375
25	0xbec5f74f	-0.38665244
26	0xbe3ead22	-0.18620732
27	0xbfcf5da4	-1.6200452
28	0x3ef7fb41	0.4843388
29	0xbf941961	-1.1570245
30	0xbede3759	-0.43401602
31	0x3c9445f5	0.018099764
32	0xbfa89e96	-1.3173397
33	0xbe2a85f8	-0.16652668
34	0xbd89f991	-0.06737054
35	0xbf0036ef	-0.5008382
36	0xbe00e4fa	-0.12587348
37	0xbf88d84f	-1.0691012
38	0x3e86ef65	0.2635452
39	0xbf0c3cef	-0.5478048
40	0xbc934a3c	-0.017979734
41	0xbc1680e1	-0.009186001
42	0xbdc99b98	-0.0984413
43	0xbde110b7	-0.10989516
44	0xbe269d72	-0.16270998
45	0xbca1d561	-0.019755067
46	0xbd330f05	-0.043715496
47	0x3d07999d	0.03310548
48	0xbb4580ba	-0.0030136541
49	0xbe270ef3	-0.16314296
50	0x3ead23b7	0.3381631
51	0xbeb029dc	-0.34406936
52	0x3ef7050a	0.48246032
53	0xbf2a4804	-0.6651614
54	0xbe4dc33f	-0.20094012
55	0xbe3f4bd4	-0.1868127
56	0xbe7e555d	-0.24837251
57	0xbfd9ef60	-1.7026176
58	0xbe946cbd	-0.2898921
59	0xbf8b347f	-1.0875396
60	0x3e445b11	0.19175364
61	0x3f30ef8e	0.6911553
62	0x3e98d0d5	0.29846826
63	0x3f32c780	0.6983566
64	0xbf78dc1a	-0.9721085
65	0xbd7b772c	-0.061392948
66	0xbe9a0ffa	-0.30090314
67	0xbf6b511a	-0.91920626
68	0xbf9c8f1f	-1.2231177
69	0xbf2c5ff3	-0.67333907
70	0x3efb77f0	0.49114943
71	0x3d637afb	0.055537205
72	0x3f95d332	1.1705077
73	0x3df86a18	0.12129611
74	0xbf243bc5	-0.641537
75	0xbeb3b20d	-0.3509678
76	0x3e5cd200	0.21564484
77	0xbfb82cfb	-1.4388727
78	0xbe7d2ed3	-0.24724893
79	0xbf8cd55d	-1.1002613
80	0xbf010875	-0.5040353
81	0x3eb78d33	0.35849914
82	0x3f359d8e	0.70943534
83	0x3f531ea7	0.82468647
84	0xbf10e11f	-0.5659351
85	0xbe93a041	-0.28833202
86	0xbed108ea	-0.40827113
87	0xbf64ff8a	-0.8945242
88	0xbf859136	-1.043494
89	0xbd9d84f8	-0.076913774
90	0x3e94d2ec	0.2906717
91	0x3ecde03b	0.40210137
92	0xbf580cc5	-0.84394485
93	0x3e983cf8	0.29734015
94	0xbeab6f0b	-0.33483157
95	0xbf04691d	-0.5172289
96	0xbe52114a	-0.20514408
97	0x3cea6d43	0.028616553
98	0xbfeee4bf	-1.8663558
99	0xbf359491	-0.7092982
100	0xbebc3bd4	-0.36764395
101	0xbdb3461f	-0.08753609
102	0xbf218710	-0.63096714
103	0x3fcc286f	1.5949839
104	0xbf832013	-1.0244163
105	0x3ea8f445	0.32998863
106	0xbe7041d6	-0.23462614
107	0x3fb7ae03	1.4349979
108	0xbee40217	-0.44532844
109	0xbf9b8fe8	-1.2153292
110	0x3f0b333b	0.54375046
111	0x3f100ad9	0.5626655
112	0x3f09e295	0.5386136
113	0x3ee6d3fc	0.45083606
114	0xbf900e08	-1.1254282
115	0xbeb648a5	-0.35602298
116	0xbf04862a	-0.5176722
117	0x3f5b0de3	0.85568064
118	0xbf038bda	-0.5138527
119	0xbdaa14f8	-0.08304781
120	0x3ecbe826	0.39825553
121	0x3e985f0e	0.2976002
122	0x3f73da54	0.9525502
123	0xbf2c5ac5	-0.67326003
124	0xbeebe706	-0.46074694
125	0x3da0d8c7	0.07853847
126	0x3e27e243	0.16394906
127	0xbe780949	-0.24222292
128	0x3f837fc5	1.0273367
129	0xbf1218cb	-0.5706908
130	0xbe0db09b	-0.13836901
131	0x3ddf594d	0.10905705
132	0xbd9a41c2	-0.075320736
133	0x3fb0912b	1.3794302
134	0xbf8948f5	-1.072539
135	0xbea4102f	-0.32043597
136	0xbd48d658	-0.04903254
137	0xbf7e2230	-0.99270916
138	0xbfce915a	-1.6138108
139	0xbf9102a3	-1.132893
140	0xbbc8bb34	-0.006125832
141	0xbeab64ef	-0.33475444
142	0x3fc70f9b	1.5551637
143	0x3d24fc2e	0.04027956
144	0xbf52e0b0	-0.82374096
145	0xbec58ee5	-0.38585582
146	0xbec77be8	-0.3896172
147	0xbf4b46a1	-0.79404646
148	0xbed109f9	-0.4082792
149	0xbe806134	-0.2507416
150	0xbcd6988e	-0.02619579
151	0xbd3eceab	-0.046583813
152	0xbf47d18d	-0.78054124
153	0xbef05784	-0.4694177
154	0xbebbf876	-0.36712998
155	0x3e0dec97	0.13859783
156	0xbe3f6d30	-0.18693995
157	0x3f9abab6	1.208823
158	0xbf729a6f	-0.94766897
159	0xbcd60ce6	-0.026129197
160	0x3d177584	0.036977306
161	0xbb92f100	-0.004484296
162	0x3e2c7959	0.16843165
163	0xbd4c2947	-0.049844053
164	0xbde93c94	-0.113885075
165	0x3f404052	0.75098145
166	0x3d452004	0.048126236
167	0x3f8980a2	1.0742381
168	0x3ea18319	0.31545332
169	0xbf326a53	-0.6969349
170	0xbce18370	-0.027528495
171	0x3dc23566	0.09482841
172	0x3f98e824	1.1945844
173	0xbf26d3d4	-0.65166974
174	0xbe9ed5e1	-0.31022552
175	0xbf04f8ff	-0.5194244
176	0xbec202d6	-0.3789279
177	0xbf98f4c0	-1.1949692
178	0xbf4be822	-0.7965108
179	0xbeafb239	-0.3431566
180	0xbe7b8f4c	-0.24566382
181	0xbebffe0c	-0.3749851
182	0xbf8e991c	-1.1140475
183	0xbe1b3594	-0.15157157
184	0xbd5acf68	-0.053420454
185	0xbf2dbac2	-0.67863095
186	0x3d3a1744	0.045432344
187	0xbf32d987	-0.6986317
188	0x3f0861d5	0.5327428
189	0xbfa9b505	-1.3258368
190	0x3f477435	0.7791169
191	0x3e0ee1d8	0.1395334
192	0x3ebeed27	0.37290308
193	0x3f8c2276	1.0948017
194	0xbeb71c70	-0.35763884
195	0xbda30840	-0.07960558
196	0x3c8ce170	0.01719734
197	0xbee83a8e	-0.45357174
198	0x3e0701fa	0.13184348
199	0xbe99abb2	-0.30013806
200	0xbe68c209	-0.22730269
201	0xbf2ca6e2	-0.6744214
202	0xbec3f648	-0.38273835
203	0xbfbb5c27	-1.4637498
204	0xbf458c48	-0.7716718
205	0xbdee0c2f	-0.116234176
206	0x3ea32f78	0.31872153
207	0x3f8e302c	1.1108451
208	0x3fab12a8	1.3365068
209	0xbf5c896a	-0.8614718
210	0xbd0441d9	-0.03228936
211	0xbbbe85a7	-0.0058142724
212	0xbe343d7c	-0.1760158
213	0xbe474f8a	-0.19463935
214	0xbf249d26	-0.6430229
215	0x3de7d1d2	0.11319317
216	0x3e083d26	0.13304576
217	0x3f59b40c	0.85040355
218	0x3f730943	0.9493601
219	0xbeb0dead	-0.34544888
220	0x3eeb4a21	0.45954993
221	0x3bb6cd54	0.0055786762
222	0x3f533551	0.8250323
223	0xbf93be29	-1.1542407
224	0xbf788d66	-0.97090757
225	0x3c111e11	0.008857266
226	0x3d5f2c78	0.054485768
227	0xbe478ce6	-0.19487342
228	0x3c3156d1	0.010823921
229	0xbf286419	-0.65777737
230	0x3d0923e4	0.033481494
231	0x3ed72005	0.42016616
232	0x3fa74149	1.3066798
233	0x3ed94406	0.4243471
234	0xbf2c8a5c	-0.6739862
235	0xbe958af8	-0.29207587
236	0xbd98c88a	-0.07460125
237	0x3f5f41de	0.8720988
238	0x3f7220f7	0.9458155
239	0xbf134c9e	-0.57538784
240	0xbeb587cf	-0.35455176
241	0x3e55aae4	0.20865971
242	0xbf27bf96	-0.6552671
243	0x3f755470	0.95831966
244	0xbec7052c	-0.38871133
245	0x3e500ccd	0.20317383
246	0xbd475f9f	-0.048675176
247	0x3fa7b819	1.3103057
248	0x3f875bfc	1.0574946
249	0xbf3bd09b	-0.7336518
250	0x3ead82f8	0.33888984
251	0x3ea8a82f	0.32940814
252	0x3fcbdc5b	1.5926622
253	0xbe9e2d4c	-0.30893934
254	0xbfc0565f	-1.5026358
255	0x3ea8fb65	0.330043

w_h.0.bias f4 [64]
0	0xbed2da4f	-0.4118218
1	0xbf1ec674	-0.62021565
2	0xbf23745a	-0.63849413
3	0xbf275b9d	-0.65374166
4	0xbf99d676	-1.2018573
5	0xbf8bcfc4	-1.092278
6	0xbe9ba83d	-0.30401793
7	0xbeb5300a	-0.35388213
8	0xbe556730	-0.20840144
9	0xbe50a8de	-0.20376918
10	0xbc4b0975	-0.012392391
11	0xbf3bea3f	-0.73404306
12	0xbfa6f04a	-1.304208
13	0xbd51214b	-0.05105714
14	0xbe98ecbd	-0.29868117
15	0xbf75a5eb	-0.95956296
16	0xbf719047	-0.94360775
17	0xbf3010ad	-0.68775445
18	0xbf35dc2b	-0.71039075
19	0xbf9d18ad	-1.2273155
20	0xbfa4c6e9	-1.2873203
21	0xbf471cf5	-0.7777856
22	0xbfa97ad7	-1.3240613
23	0xbf69ce7f	-0.91330713
24	0xbf3a6610	-0.72811985
25	0xbe547645	-0.20748241
26	0xbf3027e5	-0.68810874
27	0xbf79fa13	-0.9764721
28	0xbf8d7d2a	-1.1053822
29	0xbc714ad2	-0.014727311
30	0xbe0df396	-0.13862452
31	0xbe39b421	-0.1813512
32	0xbe99d8ef	-0.3004832
33	0xbfa8cf9d	-1.3188359
34	0xbf1dec25	-0.6168845
35	0xbf60ef75	-0.8786538
36	0xbf3a06b8	-0.726665
37	0xbf9aaba0	-1.2083626
38	0xbf893029	-1.0717822
39	0xbd3ce0b6	-0.04611274
40	0xbf8c1cba	-1.0946267
41	0xbf42908d	-0.76001817
42	0xbe8ff6f4	-0.28118098
43	0x3d3d2e3e	0.046186678
44	0xbf19dc3d	-0.6010168
45	0xbe970768	-0.29497838
46	0xbf62280d	-0.8834236
47	0xbf2d6941	-0.6773873
48	0xbee79079	-0.4522741
49	0xbf51cfca	-0.81957686
50	0xbfa8a67f	-1.317581
51	0xbf77a470	-0.96735287
52	0xbedb12ce	-0.42787784
53	0xbf910eb4	-1.1332612
54	0xbf70da97	-0.9408354
55	0xbef3b5dd	-0.47599688
56	0xbf67e043	-0.9057657
57	0xbd70c765	-0.058783907
58	0xbf882915	-1.0637537
59	0xbd932b9d	-0.07186053
60	0xbef5e7d6	-0.4802844
61	0xbf28ad5f	-0.65889543
62	0xbfb02710	-1.3761921
63	0xbe4deca0	-0.20109797

w_h.2.weight f4 [32, 64]
0	0xbccfe1fd	-0.025376314
1	0x3be2a336	0.006916429
2	0xbffaaf51	-1.9584752
3	0xbec89a07	-0.39180014
4	0x3d2f1aa6	0.042750023
5	0x3ee5a4d1	0.44852307
6	0x3ef6bf78	0.48192954
7	0x3ef8a6b2	0.48564678
8	0xbd92add0	-0.07162058
9	0xbdf87de7	-0.12133389
10	0xbe456589	-0.19277014
11	0xbee58e72	-0.4483524
12	0xbfc5ea88	-1.5462198
13	0xbfc27ca7	-1.5194291
14	0x3e55896d	0.20853205
15	0x4010c5f8	2.262083
16	0xbfc8bfc5	-1.5683523
17	0x3ea54244	0.3227712
18	0xbdbff766	-0.093733594
19	0x3ecb7423	0.39737043
20	0x3e3516f0	0.17684531
21	0x3fdd93ad	1.7310692
22	0x3df173e4	0.117896825
23	0xc017f4fb	-2.3743274
24	0xbfa66208	-1.2998667
25	0x3e24cdb6	0.16094097
26	0x3f00184f	0.5003709
27	0x4004a8fc	2.072814
28	0x3f0ff8ae	0.5623883
29	0xbf703be3	-0.9384138
30	0x3e04945a	0.12947217
31	0xbfcf8ee8	-1.6215487
32	0xbf3700c4	-0.71485543
33	0xbe24affb	-0.16082756
34	0xc024005f	-2.5625226
35	0x3eeb28a3	0.4592944
36	0xbed9c8c4	-0.42535985
37	0xc06e1e89	-3.7206137
38	0x3e9d41bd	0.30714217
39	0x3f4f9e23	0.8110067
40	0xbf6f00be	-0.9336051
41	0xbd61be8b	-0.055113357
42	0xbe550adc	-0.20804924
43	0x3e23cf9d	0.15997167
44	0x3e952d54	0.29136145
45	0x3e6dafc6	0.23211583
46	0xbf864b8d	-1.0491806
47	0x3f47c756	0.7803854
48	0x3f8862ee	1.0655191
49	0xc01f1d65	-2.486169
50	0x3f07f021	0.5310078
51	0xbebd89e2	-0.3701926
52	0xbec1265e	-0.37724584
53	0xbdc647aa	-0.096816376
54	0xc0231d27	-2.5486543
55	0x3e7c9f37	0.2467011
56	0xbe5a2ceb	-0.21306197
57	0x3fa5ec51	1.2962743
58	0x3ecb3006	0.39685076
59	0xbf90e14a	-1.1318753
60	0xbfb4040d	-1.4063736
61	0xbf40a3f0	-0.7525015
62	0x3ee56a12	0.44807488
63	0x3f3fb576	0.7488626
64	0xbeff1853	-0.49823245
65	0xbf8d0c7e	-1.1019437
66	0xbf484e7b	-0.7824475
67	0xbdccb165	-0.09994773
68	0x3dd630ed	0.104585506
69	0xc0776283	-3.8653877
70	0x3f1aa36b	0.60405606
71	0x3ec40028	0.3828137
72	0x3c96dab7	0.018414838
73	0x3d966a59	0.07344503
74	0x3eb7bd42	0.3588658
75	0x3eb998eb	0.3624948
76	0x3f05d604	0.52279687
77	0xbeab7a65	-0.33491817
78	0xbf6a9a87	-0.9164204
79	0x3f4e1434	0.8049958
80	0xbe37d0a6	-0.17950687
81	0x3f2d5f88	0.67723894
82	0x3e2514f6	0.16121277
83	0x3e0df93b	0.13864605
84	0xbf414f77	-0.7551188
85	0xbf3126d2	-0.6919986
86	0x3e971cc5	0.29514137
87	0xbf83df5b	-1.0302538
88	0x3e4e0559	0.20119227
89	0x3e313a38	0.17307365
90	0xbf909546	-1.1295555
91	0x3ecd0273	0.4004093
92	0xbf3d2e52	-0.73898804
93	0xbe879cb8	-0.26486754
94	0xbed87a88	-0.42280984
95	0x3f0053af	0.5012769
96	0x3dadf4d6	0.084939644
97	0xc0806094	-4.0117893
98	0x3e75c3a8	0.24000418
99	0xbf8de20a	-1.1084607
100	0xbf27ec75	-0.6559518
101	0xbd7e4d7c	-0.062085614
102	0xbfe8de83	-1.8192905
103	0xbfccf1d4	-1.60113
104	0xbe520c59	-0.20512523
105	0xbe2982b9	-0.16553773
106	0xbd479221	-0.048723344
107	0xbedcb58b	-0.43107256
108	0x3f564da2	0.8371221
109	0xbddb1ca9	-0.10698826
110	0x3f30b878	0.69031477
111	0xbe65f9d0	-0.22458577
112	0xbe97c5ac	-0.29643
113	0xbf21c706	-0.6319431
114	0x3df384dc	0.11890575
115	0xbd874839	-0.06605572
116	0xbdcce79c	-0.100051135
117	0xbe3e1097	-0.18561016
118	0xbf78fe77	-0.9726328
119	0x3e78620c	0.24256152
120	0xbecad7a0	-0.39617634
121	0xbc29d295	-0.010365148
122	0xbedf6619	-0.43632582
123	0x3ea0a4a8	0.31375623
124	0xbed9d523	-0.42545423
125	0x3f93ef24	1.1557355
126	0xbf043520	-0.5164356
127	0xbfb59d71	-1.4188672
128	0xbf62aae8	-0.8854203
129	0xbdb5f2ca	-0.08884199
130	0x3eb0515c	0.34437072
131	0x3f1e681f	0.61877626
132	0x3f382a41	0.71939474
133	0xbf1e9f6b	-0.61962
134	0xbfb21137	-1.3911504
135	0xbf82c536	-1.0216434
136	0xbcd570c7	-0.026054753
137	0x3d5531fb	0.05204962
138	0xbd9c8b20	-0.076437235
139	0xbfbced28	-1.4759874
140	0xbfeb7a08	-1.8396616
141	0x3e0fb21e	0.1403279
142	0x3f1811aa	0.59401953
143	0xbf16ea2a	-0.58951056
144	0xbf0f7365	-0.56035453
145	0xbe94b9d8	-0.29048038
146	0xbe0f6e21	-0.14006855
147	0xbf3cec16	-0.7379774
148	0xbf0290a4	-0.51001954
149	0xbf8a2fa4	-1.0795789
150	0xbf049a29	-0.5179773
151	0xbc5985f0	-0.013276562
152	0x3f340d0d	0.70332414
153	0x3d7f4de1	0.06233013
154	0x3e218ffe	0.15777585
155	0x3f959b49	1.1688014
156	0xbecb26f5	-0.3967816
157	0x3ec69c26	0.38791007
158	0xbf26095d	-0.6485804
159	0x3f0e688c	0.55628276
160	0x3d6b0d7b	0.057385903
161	0xbfa1e021	-1.2646524
162	0xbe914558	-0.28373218
163	0x3f3474ff	0.7049102
164	0xbe7598dd	-0.23984094
165	0x3fe672aa	1.8003743
166	0xbebc65a9	-0.3679631
167	0x3d801696	0.06254308
168	0xbf3d183a	-0.7386509
169	0x3eca56ac	0.3951925
170	0x3e41d91e	0.1893048
171	0x3ebb0b5b	0.365321
172	0x3f2db53e	0.6785468
173	0xbd7702a0	-0.060305238
174	0xbc92f791	-0.017940314
175	0x3ea1efd8	0.316283
176	0x3f67524b	0.90359944
177	0x3ed7aa8f	0.42122313
178	0xbf39fb10	-0.72648716
179	0xbfc7072a	-1.5549061
180	0x3cb3800e	0.021911647
181	0xbf781934	-0.96913457
182	0x3d6c6451	0.057712857
183	0x3f0cac97	0.5495085
184	0x3ef8ca3d	0.48591796
185	0xbd4a03f6	-0.049320184
186	0xbf7a93ac	-0.9788158
187	0x3f11b67c	0.56919074
188	0xbd94b905	-0.07261852
189	0x3fc51d23	1.5399517
190	0x3fbbeae4	1.4681058
191	0x3f49abcd	0.7877777
192	0xbde42a7f	-0.11140918
193	0x3db56e21	0.08858896
194	0x3d34ed51	0.044171635
195	0xbd0a0480	-0.033695698
196	0x3c63bef6	0.013900509
197	0xbda7b840	-0.0818944
198	0x3d9a456e	0.07532774
199	0xbe052ec0	-0.13006115
200	0xbd8b7b84	-0.06810668
201	0x3d1f98f0	0.038964212
202	0xbdfb91e4	-0.12283686
203	0xbd9a402a	-0.075317696
204	0xbd95a3f9	-0.07306666
205	0xbcd4cb7c	-0.025975935
206	0xbddd3b7f	-0.108023636
207	0xbe21de07	-0.15807353
208	0xbbb3befb	-0.005485413
209	0xbcafb568	-0.021448806
210	0xbdf4426d	-0.11926732
211	0xbdab1458	-0.0835349
212	0xbcc3df64	-0.023910232
213	0x3c98fefd	0.018676275
214	0x3c97ec08	0.018545166
215	0xbe1e1ebf	-0.15441416
216	0xbd7b5ba3	-0.06136669
217	0xbe833b60	-0.25631237
218	0xbe3f4f14	-0.1868251
219	0xbe037088	-0.12835896
220	0x3d972e45	0.07381872
221	0xbe1c8697	-0.15285717
222	0xbdf28c64	-0.11843184
223	0x3cbd3b80	0.02309966
224	0xbc0481a3	-0.008087548
225	0x3d4be997	0.049783316
226	0xbe567818	-0.2094425
227	0xbe30498c	-0.17215556
228	0xbdd4294e	-0.10359441
229	0xbde11af7	-0.10991471
230	0xbdf4a9d5	-0.119464554
231	0xbe020485	-0.12697037
232	0xbdfaff46	-0.12255721
233	0xbd3cb12e	-0.04606741
234	0xbd9344bb	-0.07190844
235	0xbe32af63	-0.17449717
236	0xbdabf463	-0.083962224
237	0xbddc0756	-0.10743587
238	0xbe6b43fb	-0.22975151
239	0xbdcb5a6f	-0.09929358
240	0x3da834a7	0.08213168
241	0xbdfc09f2	-0.123065844
242	0xbd3068d6	-0.04306873
243	0x3c749ab8	0.014929466
244	0x3da9afcd	0.082854845
245	0x3d222a8f	0.03959137
246	0x3b38eadf	0.0028216166
247	0xbe51b3cb	-0.20478742
248	0x3d2b409e	0.04180967
249	0xbd9276b8	-0.0715155
250	0xbd2d38dd	-0.042290557
251	0xbe5a2620	-0.21303606
252	0xbe264d73	-0.16240482
253	0xbe66589c	-0.2249474
254	0xbe0d4fc6	-0.13799962
255	0x3d3c5069	0.045975123

w_h.2.bias f4 [32]
0	0xbead7eaf	-0.33885714
1	0x3f0a16e3	0.5394117
2	0xbeb5c7c0	-0.3550396
3	0xbddf7e79	-0.109127946
4	0x3e93a601	0.28837588
5	0x3ebd5b89	0.36983898
6	0x3ec46168	0.38355565
7	0xbdfc5f1d	-0.12322829
8	0xbd2daa2d	-0.04239862
9	0xbe4627d5	-0.19351132
10	0xbe46c013	-0.19409208
11	0x3e0d3379	0.13789167
12	0x3e7cc2c4	0.24683672
13	0x3e973b40	0.29537392
14	0x3eb1e622	0.3474589
15	0xbe7fb96f	-0.24973081
16	0xbeaa6db1	-0.33286813
17	0xbc842cc0	-0.01613462
18	0xbb61121f	-0.0034343076
19	0xbdb072dc	-0.08615658
20	0xbe12998d	-0.14316387
21	0xbd67d66f	-0.056600984
22	0xbe376cce	-0.179126
23	0xbd82ccc8	-0.06386715
24	0x3cef13c4	0.02918423
25	0xbd85dce6	-0.06536274
26	0x3ef87ce4	0.48532784
27	0xbe477397	-0.19477688
28	0xbe28f23c	-0.16498655
29	0xbe497d56	-0.19676718
30	0xbd45692e	-0.04819601
31	0xbe1ab7a4	-0.15109116

Ws.0 f4 [32, 32]
0	0xc0181c3d	-2.3767235
1	0xbffabab6	-1.958823
2	0x3f541459	0.8284355
3	0x3fc6e1ca	1.5537655
4	0x400cc218	2.1993465
5	0x3e0fb275	0.1403292
6	0x3da0bc45	0.078484096
7	0x406737b0	3.612774
8	0xc10ed018	-8.925804
9	0x3f02e163	0.5112516
10	0xc011826c	-2.2735853
11	0x3f9c3047	1.2202233
12	0x3c51115c	0.012760486
13	0x3f221ae7	0.633223
14	0x3f494fc8	0.7863736
15	0x3e8f9748	0.28045106
16	0xc03f555d	-2.9895852
17	0xbf153e9c	-0.5829866
18	0x3f23f1fa	0.640411
19	0x3e8f19b1	0.27949288
20	0x3fa11a3e	1.2586133
21	0xbf3eb27e	-0.7449111
22	0x3f84c764	1.0373349
23	0x3efda566	0.49540251
24	0xbf64a20c	-0.89309764
25	0x3e760d15	0.24028428
26	0x3e934bff	0.28768918
27	0x3f06ef6b	0.5270907
28	0x3e9fdd2a	0.31223422
29	0xbf867a41	-1.0506059
30	0x3fbd9a50	1.4812717
31	0x3fc8244c	1.5636077
32	0xc036bb8d	-2.8551972
33	0xbff6c97f	-1.9280242
34	0xbdf65477	-0.12027829
35	0x3eaf7029	0.3426526
36	0xc0049256	-2.0714316
37	0x3eb108db	0.3457707
38	0x3f774d00	0.9660187
39	0x3d07d511	0.03316218
40	0xbe5131c3	-0.20429139
41	0xbfa5b4f1	-1.2945844
42	0xbff567f5	-1.917235
43	0x3f945f9f	1.1591681
44	0x3f55983b	0.8343541
45	0x3ed8a66f	0.4231448
46	0x3d4fbf5e	0.05071961
47	0xbfe3c340	-1.779396
48	0xbfb9339a	-1.4468873
49	0x3e3e7a99	0.18601455
50	0x3ee1deb5	0.44115224
51	0x3fcc8283	1.5977329
52	0xc0808f8c	-4.017523
53	0xbf9a3448	-1.2047205
54	0x3f9b775f	1.2145804
55	0xbaaa2933	-0.0012982249
56	0x3d98205a	0.074280456
57	0x3f513675	0.8172372
58	0x3f407a4e	0.7518662
59	0xbe692e78	-0.22771633
60	0xbf778692	-0.96689713
61	0xbfeea2ef	-1.8643473
62	0x3f3c975b	0.7366845
63	0x3fa4c5a1	1.2872812
64	0xc00e0d09	-2.2195456
65	0xbf95ed1b	-1.1712984
66	0xbfa1562e	-1.2604425
67	0x3f5ed74a	0.87047255
68	0x3dd28d63	0.102808736
69	0x3fa7ce3a	1.310981
70	0xc00b559f	-2.177101
71	0xbe77142a	-0.24128786
72	0xc059359e	-3.3938975
73	0x3f191e37	0.5981173
74	0x3fc2b683	1.5211948
75	0x3eea5914	0.45771086
76	0xc01c08f3	-2.4380462
77	0x3de0b091	0.10971177
78	0x3ea7f502	0.32804114
79	0xbee6541c	-0.44986045
80	0x3fcb98f4	1.5906053
81	0x3f2e03f5	0.6797479
82	0xbf3cbf6d	-0.7372959
83	0x3f8d92d1	1.106043
84	0x3e9cb94a	0.30610114
85	0xbf8a20f9	-1.0791312
86	0xbf35a77c	-0.70958686
87	0xbf7f548f	-0.997384
88	0x3ec27495	0.3797957
89	0xbf4f0c2a	-0.80877936
90	0xbfb4d1f0	-1.4126568
91	0x3e21d072	0.15802172
92	0xbf6a5a55	-0.91544086
93	0x3eee0ca1	0.4649401
94	0xbedc6168	-0.43043065
95	0x3f04b8f3	0.5184471
96	0xc040902e	-3.0088
97	0xbac866ba	-0.0015289404
98	0xbf0c9e6b	-0.54929227
99	0xc04592f8	-3.0870953
100	0xbd1adf2a	-0.037810482
101	0x3e159942	0.14609244
102	0xbfaa3281	-1.3296663
103	0x3f45b2fb	0.7722623
104	0xbed7a49c	-0.42117774
105	0x3f3b4787	0.7315602
106	0x4013f49c	2.3118048
107	0xc04b785a	-3.1792207
108	0x3dc0c9c1	0.094134815
109	0xbfbf36e3	-1.4938625
110	0xbe96a2f2	-0.29421192
111	0xbf807adc	-1.0037494
112	0xbd061b40	-0.03274083
113	0xbed107de	-0.40826315
114	0x3d769af6	0.060206376
115	0x3f09c9ca	0.5382353
116	0xbd28bb8f	-0.041194495
117	0x3f124311	0.57133585
118	0xc03b1b72	-2.9235501
119	0xc0d038f4	-6.5069523
120	0xbedcf83c	-0.43158138
121	0xbea0de09	-0.314194
122	0x3f71c278	0.9443736
123	0xbf2edf9b	-0.68309945
124	0xbf3eaaa6	-0.7447914
125	0xbf25eaaa	-0.64811194
126	0xbe70c70e	-0.23513433
127	0xbf4e2d53	-0.8053791
128	0xbf575181	-0.8410874
129	0xc01a4279	-2.4103072
130	0xbf5e13ed	-0.86749154
131	0xc04b7a04	-3.1793222
132	0xbcaa404d	-0.020782614
133	0xbed28d03	-0.41123208
134	0xbfb228ee	-1.3918741
135	0xbf91cc4a	-1.1390469
136	0x3e9fbeff	0.31200406
137	0x3edd60b0	0.4323783
138	0x3f60ed0a	0.8786169
139	0x3c8e7f4b	0.017394682
140	0x3e80c0e9	0.2514718
141	0xbbee36c3	-0.0072697117
142	0x3ef09932	0.4699188
143	0x3ef429e4	0.4768821
144	0x3f082f45	0.5319713
145	0xbf8633e2	-1.0484583
146	0x3f2252e2	0.6340772
147	0xc01576aa	-2.3353677
148	0xbf7cef48	-0.98802614
149	0x3e8082b2	0.25099713
150	0xbf89c3f8	-1.076293
151	0xc06a8def	-3.664913
152	0xbe05c131	-0.13061978
153	0xc0418ed7	-3.0243433
154	0xbf8bf062	-1.0932734
155	0xc0125b0b	-2.2868068
156	0x3f75819d	0.959009
157	0x3f0e1315	0.55497867
158	0x3f3e6329	0.74370056
159	0xbf3a2a06	-0.7272037
160	0xc01755fa	-2.3646226
161	0xbf972dd8	-1.1810865
162	0xbf92bccf	-1.146387
163	0x3f1e35c7	0.6180081
164	0x3f369f8a	0.7133719
165	0xbeb47eba	-0.35252935
166	0x3f8067bd	1.0031658
167	0xbebb87f5	-0.36627164
168	0x3edda7f1	0.43292192
169	0x3fbb13d1	1.4615422
170	0x3e13826d	0.14405222
171	0xc06c791f	-3.6948926
172	0xbfa59736	-1.2936771
173	0xc03da36f	-2.9631002
174	0x3fa942bc	1.3223491
175	0xbd894716	-0.06703012
176	0x3f73d4e8	0.95246744
177	0x3f999ad7	1.2000378
178	0xbe20586f	-0.15658735
179	0xc019183e	-2.3921046
180	0xbf965e63	-1.1747555
181	0x400177e2	2.022942
182	0xbf9f014b	-1.242227
183	0x3ff850ca	1.9399655
184	0xbec66d82	-0.38755423
185	0x3e2121ca	0.15735546
186	0xbec27d8c	-0.3798641
187	0xc02e4e05	-2.723512
188	0x3fa592fa	1.2935479
189	0xbc43d35e	-0.011952249
190	0xbde644f1	-0.11243618
191	0xbf9ef811	-1.2419454
192	0xc006ad36	-2.104322
193	0x3fef43a1	1.8692514
194	0x3eb41989	0.35175732
195	0x3fe9922b	1.8247732
196	0x3eb09f14	0.34496367
197	0x3e5f91b6	0.21832928
198	0x3d2159b8	0.039392203
199	0x3f846029	1.0341846
200	0x40693f46	3.644487
201	0x3e8a22e2	0.26979738
202	0x3e021794	0.12704307
203	0xc006c671	-2.105862
204	0xbfc890d5	-1.5669199
205	0x3ed35b2a	0.4128049
206	0x3e17551f	0.14778565
207	0x3e8b6fda	0.27233773
208	0xc015b705	-2.3392956
209	0x3db2e33b	0.08734747
210	0xbed6f731	-0.41985467
211	0x3f91afd0	1.1381779
212	0x3f25c610	0.64755344
213	0xbf19f3a0	-0.6013737
214	0xc0b4d530	-5.651024
215	0x3ebb2133	0.36548766
216	0x3dc18985	0.09450058
217	0x3ec738e4	0.38910592
218	0xbf100355	-0.56255084
219	0x3ff42c33	1.9075989
220	0x3fb35281	1.4009553
221	0x40075156	2.1143394
222	0x3e84364e	0.2582268
223	0x3f769c98	0.96332693
224	0x3fceb6d9	1.6149551
225	0x3fd6fb49	1.6795436
226	0xbf32eaea	-0.698897
227	0xc05277a7	-3.288553
228	0xbf81b2ff	-1.013275
229	0x3fc58b8d	1.5433213
230	0xc047da81	-3.1227114
231	0xbc8c51f6	-0.017128926
232	0xbf1023c8	-0.563046
233	0xbd28d0b4	-0.04121466
234	0xbf8da183	-1.1064914
235	0xc0836a70	-4.106743
236	0xc08a08c6	-4.313571
237	0xc0318407	-2.7736833
238	0x3f9e41d0	1.2363834
239	0xbf9cba81	-1.2244416
240	0x3f282a18	0.6568923
241	0x3f793aa1	0.97355086
242	0xbf9a9b9e	-1.2078741
243	0xbf49f5e4	-0.78890824
244	0xc0040ad5	-2.0631611
245	0x3d624f22	0.05525125
246	0xc06b9899	-3.6811888
247	0x3f896e7b	1.0736841
248	0xbdbbb022	-0.09164454
249	0x3f2fc410	0.6865854
250	0x3fc21935	1.5163943
251	0xc0621076	-3.5322547
252	0x3d5b2c19	0.05350885
253	0x3f8d95f2	1.1061385
254	0x3e6a42dc	0.22877067
255	0x3f933abe	1.1502302
