crowd_nav/GRL_output/rl_model_3.pth (torch, 143871 bytes, 33 tensors)

w_a f4 [32, 32]
00000000: fd1e 2d3f 6039 da3e 05c3 1f3f e2f8 d1bf
00000010: 03a1 3cbf dba5 c03e 27bb d53e 2ac9 d7bf
00000020: ef92 613f d923 a6bf ae26 5bbe 30ec 99be
00000030: 1ac4 ebbf d450 9fbf b0d9 5dbf 3dc9 d5bf
00000040: 7342 be3e 0aab eebf 9e99 ddbd 26ac d63c
00000050: c12f 2ebe 38e4 94bf c2c6 d13e 3364 9fbf
00000060: 92bc 1cbf 0ac8 943f ffaa 473d 570c 6d3e
00000070: dbfe 973d 7446 8abe 1bc5 0d3f 50e1 e33f
00000080: ef52 af3d adb4 023f 7851 b4bf c2f5 babf
00000090: fcd8 cd3e 8cf1 273f 306a c9bd bd1b 4d3f
000000a0: d29b 663e 09e2 123f c0cc 52be a2e2 ce3e
000000b0: 05c6 333e de24 8bbf 851e 35be 53c0 02bd
000000c0: b5b2 46be 8853 be3e 1394 9dbf c9d6 10bc
000000d0: 7fa2 873f c2b8 91bf 6b53 01c0 7388 d8bf
000000e0: 0731 863e c6c6 c33e 8587 39bf a907 1fbf
000000f0: 2577 7bbf 5989 953f 050e 733f 14d1 6bbe
00000100: dce8 80bf d209 c5be 898d 28bf ee90 453e
00000110: 071a c4bf 0a54 8e3d aecf 70bf 61ad ddbf
00000120: a245 eabf 1426 8d3e fd5f 463f 2a00 b1bf
00000130: 581d 82bf 1830 04bc e2fc b3bf 62fd 9ebf
00000140: b542 f13d d505 383e 0f5e c2bf 7be4 573f
00000150: 44de 02be 989b 123f cdbf 123f 7c06 9ebf
00000160: 1eee b7bf e578 a03f 1f07 2cbf 4913 7f3d
00000170: 618a 8cbf fee3 b6bd 048f bc3f 2960 36bf
00000180: 6191 5ebf 23b3 973f b212 c03b 6cad c13c
00000190: 54f2 64bf d5fa f13d 255a 123f 12f5 0cbf
000001a0: 44e5 dabc 7674 95bd ba41 5fbd b03a 78bf
000001b0: 568f 87be 1547 48bf 0e5e 303f 31ca cbbe
000001c0: 1458 d4bc a17a 0e3f e116 32bf 2f6b 773f
000001d0: a2ef 59bf 4dc2 95be f6ed a4be a534 4f3f
000001e0: 80f0 eebc ffa1 1f3f bb70 c2bf e519 03bc
000001f0: 44ae b8be c694 153f 8193 37bf 4cc4 083e
00000200: eff0 c53e 5e88 62bf ce6e 17be d20b 18be
00000210: 0ea9 91bf cf35 5c3e 93a0 4a3f 4d3f e8be
00000220: 46c3 e8bf f219 023f ec05 7e3f e2ae 9ebd
00000230: 0c6f 17c0 1a16 1740 9649 2a3f 4aaa 673e
00000240: 438f af3e 1366 9ebe 405c 74bf d261 8c3e
00000250: 3e6b 8cbe 0135 453e 7ba8 893e 17cf 943f
00000260: 7d81 f3bf 44bc d83f 7e71 86bf 44ae c3be
00000270: 9167 663f a105 25bf 6e76 76bf c2d9 d8be
00000280: 801f b63e 6cc2 af3f 5db3 bfbf fe1e 57bf
00000290: c4c0 263f 6318 073f e058 c9bf 1d8e de3e
000002a0: 5185 b23e 746f 4b40 6572 3a3f 30a4 ce3f
000002b0: dcbb c8bf 0fea f0bc 08b7 10bf 93ee 803e
000002c0: 993b c13f 815a a83f ab8b 87bf b6d8 be3f
000002d0: 8278 50bf 6568 da3e fbbf b83f 9762 7f3f
000002e0: 986c 73bf 97ea 87bd 04eb ab3f 7a74 0640
000002f0: 899d 983f 24bd 1940 d733 d43f 8b45 61bf
00000300: 9472 9c3e 8bd8 7dbe 04f4 ef3e 13bd a53e
00000310: 02ea 57be 6a05 113f c14c 3ebf 9fc8 1e3f
00000320: 43de b53d ca97 85bf 754a 143f 72e8 24be
00000330: 6af3 3ebf 0bcc 28bf 0025 cdbe b854 f4bd
00000340: edc4 44bd c71f 13bf 64de 8dbf fa52 c0be
00000350: 1ad1 06c0 fde9 f0bd 3cd5 863d e6e0 08bf
00000360: bd38 323f 9485 0fc0 7b56 9ebf c621 9dbe
00000370: e7ea 3dbe 8f81 8dbf a371 d7be 8a40 36c0
00000380: 3783 323f 2087 6f3c ade3 8bbe cb05 20bd
00000390: c0ee 093d a75d b9be df1d 29bf 8b50 a63f
000003a0: f947 82be 3164 033f 3862 5abf b345 0b3f
000003b0: 42c9 17bf e44b 193f da85 9a3e 70c5 95be
000003c0: d260 8abd 8fb7 20bf 9cda 23bc c275 7abf
000003d0: 0f9d c0be 4033 423f 380d 863f 053c eebf
000003e0: 19b9 cebf 0d6f 7bbf 6099 b2bf e532 c13f
000003f0: 8a32 88bf 808b 88bf b3c4 a03f ed12 b93f
0.6762541 0.426219 0.6240695 -1.6404078 -0.73683184 0.37626538 0.41744348 -1.6858265
0.8811483 -1.297969 -0.21401474 -0.3006301 -1.841922 -1.2446542 -0.8666029 -1.6702038
0.37160072 -1.8645947 -0.10820316 0.026205134 -0.17010404 -1.1632147 0.40971953 -1.2452453
-0.61225235 1.1623547 0.04874706 0.23149239 0.07421657 -0.27006876 0.55378884 1.7803135
0.0856074 0.5105694 -1.4087362 -1.4606249 0.40204608 0.65602946 -0.09834707 0.8012045
0.22520378 0.5737615 -0.20585918 0.40407282 0.17556007 -1.0870626 -0.17687424 -0.031921696
-0.19404109 0.37173104 -1.2310814 -0.008840271 1.0596465 -1.1384509 -2.0207164 -1.6916641
0.2620928 0.3823759 -0.7247241 -0.62121063 -0.98228675 1.168254 0.9494327 -0.23028976
-1.0071063 -0.38484055 -0.65840966 0.19293568 -1.5320443 0.06949623 -0.94066894 -1.7318536
-1.83025 0.27568114 0.77490216 -1.3828175 -1.0165205 -0.008068107 -1.4061549 -1.2421076
0.117803015 0.17970975 -1.5184954 0.8433301 -0.127801 0.5726867 0.57323915 -1.2345729
-1.4369543 1.2536894 -0.67198366 0.06227425 -1.097973 -0.08930205 1.4731145 -0.7124048
-0.8694058 1.1851543 0.0058616037 0.023642264 -0.89432263 0.118154205 0.571688 -0.5506145
-0.02672065 -0.07297604 -0.05450604 -0.9696455 -0.26476544 -0.7823346 0.68893516 -0.39802697
-0.025920905 0.55655867 -0.6956616 0.96647924 -0.85131276 -0.29249802 -0.322128 0.80939704
-0.029167414 0.6235656 -1.5190653 -0.008001779 -0.36070454 0.58430135 -0.7170945 0.13356131
0.3866038 -0.8848933 -0.14788362 -0.14848259 -1.1379716 0.21504901 0.79151267 -0.45360795
-1.8184593 0.5082084 0.99227786 -0.077482 -2.3661528 2.360724 0.66518533 0.22623554
0.34288988 -0.3093725 -0.9545326 0.2741838 -0.2742557 0.192585 0.26886353 1.1625699
-1.9023892 1.6932454 -1.0503385 -0.38218892 0.9000178 -0.64461714 -0.9627446 -0.42353636
0.35570908 1.3731208 -1.4976612 -0.84031665 0.65137887 0.52771586 -1.5730247 0.434678
0.34867337 3.1786776 0.728308 1.6143856 -1.568233 -0.029408483 -0.56529284 0.25182018
1.5096313 1.315262 -1.0589498 1.4909885 -0.8143388 0.42657772 1.4433588 0.9975981
-0.95087576 -0.06636541 1.3431096 2.1008592 1.1923076 2.4021692 1.657832 -0.8799674
0.30556166 -0.24789636 0.46865857 0.32370815 -0.2108536 0.56648886 -0.7433587 0.62024873
0.08880284 -1.0436947 0.5792611 -0.16104296 -0.7459017 -0.65936345 -0.4006729 -0.11930221
-0.048039366 -0.57470363 -1.1083493 -0.37563306 -2.1065125 -0.1176338 0.0658364 -0.5346817
0.69617826 -2.242528 -1.2370142 -0.3068983 -0.1854664 -1.1055163 -0.42078885 -2.8476892
0.6973147 0.014619619 -0.2732214 -0.039068025 0.033674955 -0.36204264 -0.66061205 1.299333
-0.25445536 0.51324755 -0.8530612 0.5440323 -0.5929147 0.59881425 0.30180246 -0.29252195
-0.06756748 -0.6278009 -0.010000851 -0.97835934 -0.37619826 0.7585945 1.0472784 -1.8612067
-1.6150237 -0.98216325 -1.3953056 1.5093657 -1.0640423 -1.0667572 1.2560028 1.4458901

w_r.0.weight f4 [64, 9]
00000000: 67aa c93e 3d2a 263d e510 073f a39c 41bf
00000010: 2841 d8be 60e2 063d a1fa 3ebe b193 9ebd
00000020: 3178 04be 7c46 263e 6742 70be 988b 8fbe
00000030: bb25 63bf a8c4 0ebe dbdf c6bd 83e2 f6bd
00000040: 904d 88be 977f 30be 7237 863d 8305 123d
00000050: 06e7 86be bb28 80be 01ed c0bd 0281 a1be
00000060: 4810 59be bb4c 393e 6110 493d 725c 00bf
00000070: f3f0 293e 0c7f e43e 0c20 e8be 7926 7b3d
00000080: dbca 2bbe 617d 22be faec 263e 5ec1 05bc
00000090: da61 db3d c131 91bc 6491 9fbe f85b 26bd
000000a0: 8001 b3be 5075 1abe 0b2c f63a 12d2 91be
000000b0: 5d6a 72be f80a 933e 41dc 693c 8deb 8fbf
000000c0: 5df0 263f 4ccc 8abe 30b3 673e 3d35 1fbc
000000d0: 1e64 70be 035d f2be 45d4 62be 523a cb3e
000000e0: 6aff 033d 8553 79bc c777 ba3d 18eb 54be
000000f0: cc54 013e 4031 aabe 33e9 b43d ba5c 32bf
00000100: 971f 89be 2a72 debe 2211 febb 3948 63be
00000110: 0077 563c e0d7 7abe b4e8 b53d 4bbb 523d
00000120: 829a 47bf a3df 00bf dda7 6e3e 281c 84bc
00000130: 876f 103e c6a7 ee3d 7b18 79be 5a89 e6be
00000140: 514d cabe d863 3f3f ecc4 323d 66d0 5c3f
00000150: a0ed d1bc f0ae 30bf de28 2f3e 2846 cabe
00000160: 0441 6fbf 9daf dabe c4cf f7bd 4175 35bc
00000170: 9b33 d23c 6f3c bdbe 4c59 bebe 2b77 3bbd
00000180: 5ab6 1d3d 530d dfbe b3c2 5bbe 1218 ea3c
00000190: ec23 8bba e0a9 f23d 91a8 d8be 2939 1cbf
000001a0: eac6 943e 0d4a b8bd 3b3f dfb9 7616 d7bd
000001b0: 5e6d 14be d6f6 edbc 5397 5dbe 6ef8 92be
000001c0: 7054 96bd f81c 43be aeeb a9be 2688 223e
000001d0: 4050 5a3e 597c 09bf 6b35 85be 02b6 82bf
000001e0: 3712 993f e17f 0fbe a85e 01be a8c1 edbe
000001f0: 63f1 77be 1c5e cbbd af62 a8be 353f 35bc
00000200: d1f9 74bf b91d 4cbf c15e 07bf 4b98 62be
00000210: 329b babd 7fe9 01bf d12c d0bd 850a fbbe
00000220: 2105 f1be f4eb 59bd eb5a 423d a078 b0be
00000230: 8fd6 89be c839 06bf db9c d8be fcb8 adbe
00000240: e72b 91be ae9a b53e 995c c13a aa2b 88bd
00000250: 5eee 85be 5647 48bb 0535 703e cff7 013e
00000260: c21f 0f3e 36ad 57bf 0f59 af3e 20e5 37bf
00000270: b547 8f3f 427b 46bd 00d7 23bd d633 81be
00000280: 07d4 aebe 898b 0dbf 0e20 2e3f b7df 523f
00000290: 5302 2b3c cde4 d3bc c24e 85be fa2f 9cbe
000002a0: 3509 debe 3a45 f3be 4b15 d03c f703 2e3f
000002b0: c783 58bf 6d64 e63d 2dcf 743c 03ba 0bbf
000002c0: 76ef 6a3e e1a0 f7be 0c6f 69bb 1a31 81be
000002d0: 1699 1c3e 98e7 cbbe 4b17 973e d7dc dbbe
000002e0: 903e 243d c097 30bd 29a9 e2be fff5 c9be
000002f0: 6dc9 70be 1baf e73e d235 d63e 3573 403f
00000300: cfec 8f3f 7fdb f8be 6bdc 083d d105 98be
00000310: 124d d0be 91f0 a1bd 86aa b43e 92a2 b53e
00000320: 7006 8d3f f659 61bf 33b0 71be f429 a13e
00000330: 2c44 64be 82f8 b0be d024 83be c37a 1cbe
00000340: 251d 5d3e 6785 963f 085f c43e 8ab7 9cbe
00000350: 56ce 2b3d 2615 2dbd 989e aabe 40c8 5fbc
00000360: 9961 a53f eb0f e13e 689b 763e 5cf4 fe3c
00000370: 983e cebe 2b84 44bc 0441 ecbe 6940 95bd
00000380: 6a5c 7abe 70df 1ebf 6d90 613e 76b8 73bf
00000390: 911e 903e a1c7 20bf 2890 13be 5664 0dbf
000003a0: 0c2c f2be 019c 0dbf 9857 553f 2aa4 7e3e
000003b0: bc5d 8e3e df10 453f 7596 81be 40db 4bbd
000003c0: dc5d 19be dcf6 c0be 3600 8abe 0805 57be
000003d0: 7725 2fbe 8206 ffbe db8c 973f 16bc 913e
000003e0: 000f c4bc 2f8e b3be 67d8 f1bd ecbd c8bd
000003f0: 889d b63e a1bf b73e 9908 8dbf 20ca edbe
0.3938782 0.040567625 0.52760154 -0.75629634 -0.4223721 0.03293073 -0.18650295 -0.07743014
-0.12936474 0.16237825 -0.2346283 -0.2803619 -0.8872945 -0.13942206 -0.09710666 -0.120549224
-0.26621675 -0.17236172 0.06553544 0.035649788 -0.26348132 -0.25031075 -0.09420205 -0.31543738
-0.21197617 0.18095677 0.049087886 -0.5014106 0.16595821 0.4462818 -0.4533695 0.061315987
-0.16776602 -0.15868141 0.16301337 -0.008163778 0.10712023 -0.01772392 -0.31165612 -0.040615052
-0.34962082 -0.15083814 0.0018781436 -0.28480583 -0.23673387 0.28719306 0.014273704 -1.1243759
0.65210515 -0.2710899 0.22626948 -0.009717283 -0.23475692 -0.47336587 -0.22151287 0.39692932
0.032226004 -0.0152176665 0.09104877 -0.20792806 0.12630004 -0.332407 0.08833542 -0.6967274
-0.26781914 -0.43446475 -0.0077535072 -0.2219552 0.013089895 -0.24496412 0.08882275 0.051448148
-0.77970135 -0.5034124 0.23306222 -0.016126707 0.14105044 0.11653094 -0.24325745 -0.45026666
-0.39512113 0.74761724 0.04364483 0.8625549 -0.025626004 -0.69016933 0.17105433 -0.3950665
-0.9345858 -0.42712107 -0.12100175 -0.011075319 0.025659373 -0.3696017 -0.37177503 -0.045767944
0.038503982 -0.43564853 -0.2146099 0.02857593 -0.0010615564 0.11848807 -0.42316106 -0.6102472
0.2905801 -0.08998499 -0.00042580985 -0.10502331 -0.14494845 -0.029048365 -0.21639757 -0.28705162
-0.07340324 -0.1905402 -0.33187622 0.15872249 0.21319675 -0.53705364 -0.26017317 -1.0211794
1.1958684 -0.14013626 -0.12633765 -0.4643681 -0.24213175 -0.09930059 -0.3288779 -0.011062433
-0.9569369 -0.79732853 -0.5287896 -0.22128408 -0.091116324 -0.5074691 -0.10164798 -0.49031463
-0.47074226 -0.053203538 0.047449987 -0.3446703 -0.26921508 -0.5243192 -0.4230717 -0.33930194
-0.28353807 0.35469574 0.0014752328 -0.06648953 -0.26158422 -0.0030560098 0.23457725 0.12692188
0.13976958 -0.84248674 0.34247634 -0.7183399 1.1193758 -0.04845739 -0.03999996 -0.2523486
-0.3414614 -0.5529104 0.6801766 0.8237261 0.010437566 -0.025865937 -0.2603665 -0.30505353
-0.433664 -0.47513753 0.025400778 0.679748 -0.84576076 0.112496234 0.014941973 -0.54580706
0.2294291 -0.48364928 -0.0035619168 -0.25232774 0.15292773 -0.3982513 0.2950996 -0.42941925
0.040098727 -0.04311347 -0.44269684 -0.39445493 -0.23514338 0.45250782 0.41837937 0.7517579
1.1244143 -0.48604962 0.033413332 -0.29691938 -0.406838 -0.079072125 0.3528635 0.35475594
1.101759 -0.88027894 -0.23602371 0.3147732 -0.2229163 -0.34564596 -0.25614023 -0.15281205
0.21593149 1.1759461 0.38353753 -0.3060878 0.041944824 -0.042256497 -0.33324122 -0.013658583
1.292041 0.43957457 0.2408272 0.031122379 -0.4028213 -0.011994402 -0.46143353 -0.07287676
-0.24449316 -0.6205969 0.2202775 -0.9520334 0.2814832 -0.6280461 -0.1441046 -0.55231225
-0.4729923 -0.5531617 0.8333678 0.24867311 0.2780589 0.7697887 -0.25310102 -0.04976964
-0.14977211 -0.3768834 -0.26953286 -0.20998013 -0.17104135 -0.49809653 1.1839861 0.2846381
-0.023932934 -0.35069415 -0.118088536 -0.0980185 0.35667062 0.3588839 -1.1018249 -0.46443272

w_r.0.bias f4 [64]
00000000: 4f03 0b3e d580 aabd 8c69 2fbc c0d2 2dbe
00000010: 1d96 dcbb c441 97bd 15d5 9fbe 87bf 86bd
00000020: fc39 40be 3731 dbbe 0350 80bd bcec 113d
00000030: e05e 53be 4bad b0be 6c3e 13be 2198 62be
00000040: a08f 553e 0755 0cbf 1072 193d f3a9 e4be
00000050: 532e d6be 98dc 13bf 4802 20bf cc04 8bbe
00000060: 80e3 0bbe afc1 bcbd 428a 0abf d98d 453e
00000070: 2e07 c8bc 5d69 4ebe 179d 0dbe bb59 003e
00000080: 89cb cc3d 0f1e 04bf 1bac 143c 786f ca3e
00000090: cc30 c1be d5a1 b83c 5b95 33bd fb71 d6be
000000a0: cb25 abbe 5834 34be 7bd6 93be a8c9 09bf
000000b0: e582 cebc ea71 d2bd bf43 31be 805a a9be
000000c0: b974 36bf 543f 80be cc8c bbbd 72ad 9fbe
000000d0: 69fa d3bd b16b 44bd 736c 0fbe 3d05 adbe
000000e0: a91b f63d e2b4 cabe cc55 c2be 2136 2ebe
000000f0: 3056 9bbe 350c d8be 0b9a a5be b45d 9fbe
0.13575481 -0.08325354 -0.010706317 -0.16974926 -0.006731762 -0.07385591 -0.31217256 -0.065795
-0.1877212 -0.42810985 -0.06265261 0.035626158 -0.2064166 -0.34507212 -0.14379281 -0.22128345
0.2085557 -0.5481724 0.037462294 -0.4466091 -0.41832218 -0.57758474 -0.6250348 -0.27152097
-0.13661003 -0.0921663 -0.54117215 0.19292392 -0.024417486 -0.2015738 -0.13829456 0.1253423
0.09999759 -0.51608366 0.009074236 0.3953817 -0.37732542 0.022538105 -0.04384361 -0.41883835
-0.3342727 -0.17598093 -0.28874573 -0.5382333 -0.0252089 -0.10275634 -0.17311 -0.3307686
-0.71271855 -0.25048316 -0.09157714 -0.31187016 -0.10350496 -0.047954265 -0.14006214 -0.3379306
0.120169945 -0.39591128 -0.37956083 -0.17012836 -0.30339193 -0.42196813 -0.32344088 -0.31126177

w_r.2.weight f4 [32, 64]
00000000: 0fd5 0ebf 6670 a03e 1463 c73d 6ac4 773c
00000010: e1ed 18bd 7894 71be 6716 0bbf 576a 54bd
00000020: bdfc fabd 2527 11be b055 42bd bbbe 33bd
00000030: d21d b6bd 4dfa cfbd 45f7 64be 6edf 62bb
00000040: 448a 963e c9f8 a9bd 3d4d debe 6fa4 93be
00000050: 157c ffbd 33f0 0e3e b33c 05bf 4880 67bf
00000060: ec22 acbf 57da eebe 5e94 0dbf a789 593d
00000070: 71eb 82be 1f39 98bd 5b2b 7f3e 57c0 34be
00000080: 918a e0bd e0ee a3be 3808 30bf 6e27 efbe
00000090: 54bd 803d ad5d c5be da4a 28be abc3 bcbe
000000a0: 5c11 aabd 69d1 0fbe a449 8bbd 7640 cc3d
000000b0: bcd9 84bf 1d7a 20be af2d 83be 4806 c33d
000000c0: f446 9fbe 7c56 b23e 8693 6c3d e676 59bf
000000d0: 97a8 52be 15c7 103e e279 6cbd 8fd4 f8bd
000000e0: c475 c3bd c895 ba3d bf54 94be fb65 85bf
000000f0: d04a d0bd 591c a5bd e18d 2a3f c984 82bd
00000100: 2759 b63c 4b5d 8e3e 2a5e d4bc 8f11 8f3d
00000110: f343 24bd 7e8b 333e b466 273d fc7e 44bd
00000120: 9f50 7b3d b5ea 50bf 96da 013c 15b7 b3bc
00000130: ce6a cebd 6e7b 17bd 408a b7bd 4e7a 5ebf
00000140: f5b8 f03d d6a8 b8be b719 9d3e e146 94be
00000150: 90f5 03be d11b 143d c7e5 35bc e1f2 b93d
00000160: be01 ef3d 15ff 03bf 4fad 42be f2e9 cdbd
00000170: 4f48 00be cdc7 0cbd 09bc a53c e005 343c
00000180: b065 56be 54cb 97bd cc17 9f3d 57c3 193e
00000190: f84f 883e 2d20 09bf e595 a8bf 3bd4 533d
000001a0: 90e1 8abd 5761 c4bd f3d9 fa3d fee2 41bf
000001b0: 12e0 8ebd 8418 303d 453d fbbd 8864 be3c
000001c0: 1c2a 37bb 7eb0 953e 867e 5cbe 958f 8abe
000001d0: 22a7 953e 5cfb b53d 9a15 dfbd 4cf1 9f3e
000001e0: f920 cebd 8a25 713a 9ef7 f3bd cb17 18bf
000001f0: 94d4 eebd 4c6b 39be 95b1 0d3e 0071 7ebb
00000200: 37f2 63bd 6fe5 11bd fca9 fa3d 20b3 1fbe
00000210: 2760 76bd 8e43 f8bc 4466 42be dad3 85bd
00000220: b90a ccbe d8cc aebe 9718 bdbc 5725 26bd
00000230: 60bd 503c 9258 04be b4da 8abe 1b02 d7be
00000240: 6eee e4bd 4e63 fa3e 125d c0bd a049 afbc
00000250: 7a4c 613e 43ba 9fbe ce07 d2bc 33c4 39bd
00000260: a09c 82be 4ce9 6fbf 8815 50be 924c af3d
00000270: c8a8 c4bd c6b5 4cbc 7563 55be d668 c03d
00000280: 91d5 b8bd a82b d73e b4e0 16bd 6b3c 77be
00000290: f677 fd3d 166d a0bf 2968 03bf 69c1 51bf
000002a0: b461 93be 0f32 6c3d bbd3 ea3c a92e b23d
000002b0: afbf 1fbf 2909 253d 360f 10be 9458 fe3d
000002c0: a09c 7cbd b3ea a8be cdbb c03c 5f6f 9b3d
000002d0: 7300 1c3e 70e9 353e d9ef 1bbc 8e72 273e
000002e0: 0087 3abd d305 a93c 6c6d f9be febc 353d
000002f0: 8358 3a3d 02b0 c7bd ad9b c7be d863 32bd
00000300: eaaf 0d3e f5d8 cebd 8a2f 24bd 2119 24be
00000310: 28bd b83d dee7 463e a9f8 99bf e7fd a6bf
00000320: 6a81 d6bd fcc9 89be 6fe9 86bd d29f 1c3d
00000330: 988c 92bd 980c 5dbe 8b64 21bf 9001 14bc
00000340: b149 7fbe 9c80 1abf 7978 dd3e 1ad9 02bc
00000350: 0014 923d 6252 24bf a433 7ebf f56b 24bf
00000360: 9f79 89be 30a7 75bc e93c 843d 48d4 47be
00000370: b18c 1ebe 17a6 73be a185 80bf 066d f23d
00000380: f393 cc3c f326 873e 67f3 ebbd ee9c 613d
00000390: 684b 563c 0cc9 9bbf b3b9 3b3f 3730 563e
000003a0: 30d7 c6be c13b 37be b915 0cbd 0474 aebd
000003b0: 413d 353e 117e 1e3e d72f 113e 8079 83ba
000003c0: 3490 46be 8667 fabc 6a50 13be a637 3abe
000003d0: 36b5 b9be 079d 253e 5de3 0f3e 4fd0 80be
000003e0: 7180 233e bcf9 89bd 5813 91bf 0955 7abc
000003f0: ed93 9fbe 0208 f7bc 1bf9 febd 3cf7 6d3d
-0.5579385 0.31335753 0.097356945 0.015122512 -0.037336234 -0.23591793 -0.5433106 -0.051859226
-0.12255237 -0.14175089 -0.047445 -0.043883067 -0.088924065 -0.10155163 -0.22359951 -0.0034618038
0.29402363 -0.08299405 -0.43418303 -0.2883639 -0.12474839 0.13958816 -0.52045745 -0.90430117
-1.3448157 -0.46650955 -0.55304515 0.05310979 -0.25570253 -0.0743277 0.24918883 -0.17651497
-0.109639294 -0.32018185 -0.6876254 -0.4670977 0.062861115 -0.3854803 -0.16434804 -0.36868033
-0.08304092 -0.14044727 -0.06801155 0.099732324 -1.0378947 -0.15671583 -0.2562079 0.095226824
-0.3110882 0.34831607 0.057757877 -0.8494705 -0.20572124 0.14138444 -0.057733424 -0.12149917
-0.095439464 0.091106 -0.28970906 -1.0421747 -0.10170519 -0.080620475 0.6662274 -0.06372983
0.022259308 0.27805552 -0.025923807 0.06985771 -0.040103864 0.17533681 0.04086943 -0.047972664
0.061356183 -0.81608135 0.00792565 -0.021937886 -0.10078965 -0.036982946 -0.08961916 -0.8690537
0.11754028 -0.36066312 0.3068368 -0.28960326 -0.12886643 0.03615934 -0.0111021465 0.090795286
0.11670254 -0.515611 -0.19011424 -0.10054387 -0.12527584 -0.034370232 0.020231264 0.010987729
-0.20937228 -0.07411829 0.07768211 0.15015922 0.2662351 -0.5356472 -1.3170744 0.05171607
-0.06781304 -0.095888786 0.12248602 -0.7573699 -0.06976332 0.04299213 -0.122675456 0.023241296
-0.0027948683 0.29236215 -0.2153264 -0.2706267 0.29229075 0.088858336 -0.10892792 0.31238782
-0.10064883 0.0009199014 -0.119124636 -0.59411305 -0.1166164 -0.18107337 0.13837273 -0.0038824677
-0.055650916 -0.035619196 0.12239453 -0.15595675 -0.06015029 -0.03030565 -0.18984324 -0.06534548
-0.3985193 -0.34140658 -0.023083014 -0.040562954 0.012740463 -0.12924412 -0.27119982 -0.41993794
-0.11178289 0.48903888 -0.09392752 -0.021397412 0.2200183 -0.31196794 -0.025638487 -0.045353126
-0.2551012 -0.9371536 -0.20320714 0.085595265 -0.09602505 -0.01249451 -0.20838721 0.09394996
-0.090251096 0.42025495 -0.036835387 -0.24144141 0.12376396 -1.253329 -0.5133081 -0.81935745
-0.2878548 0.057664927 0.028665414 0.08700306 -0.6240186 0.04029194 -0.14068303 0.12419239
-0.061672807 -0.3299156 0.02352705 0.07589602 0.15234546 0.1776483 -0.009517633 0.16352293
-0.045538902 0.02063266 -0.48716295 0.04436969 0.045494568 -0.09750368 -0.3898596 -0.04355225
0.13836637 -0.10099975 -0.0400844 -0.16025211 0.09020454 0.19424388 -1.202901 -1.3046235
-0.104739025 -0.26911914 -0.06587493 0.038238354 -0.071557224 -0.21586835 -0.6304404 -0.009033576
-0.24930455 -0.6035249 0.43255976 -0.007986331 0.07132721 -0.64188206 -0.9929755 -0.6422723
-0.26850602 -0.014993474 0.0645693 -0.19514573 -0.15483357 -0.23793827 -1.004078 0.11837201
0.024972891 0.26396903 -0.11521035 0.0550813 0.013079502 -1.217073 0.7333023 0.2091683
-0.3883605 -0.17893888 -0.034200404 -0.08518222 0.17699148 0.15477778 0.14178406 -0.0010030717
-0.19390947 -0.030566942 -0.14386144 -0.1818529 -0.36271065 0.16173182 0.14051576 -0.25158927
0.15966965 -0.06737086 -1.1334028 -0.015279063 -0.31167546 -0.030155186 -0.12449857 0.05809711

w_r.2.bias f4 [32]
00000000: ef9f 1b3d 5d5a 0ebe cbb5 9d3e bc67 873e
00000010: 7fca 24be 9e66 1fbe 9aea 18bd ebd7 1f3d
00000020: e238 0d3e 4d8c 083e d725 b13b 45f5 eebc
00000030: f981 15bf d43d 51be cf1c dfbd ea22 15be
00000040: 4f5d 1dbe 85ec 1bbe 5b94 1b3f a454 b63e
00000050: 400c 1c3d 32b1 89bd be3a 76bd eaad 753e
00000060: aa54 32be 9576 a53e 5a3d aabd c98d 02be
00000070: fe9d 033e cf46 6cbd 310e d23e ad1e 673d
0.03799432 -0.13901658 0.3080276 0.2644633 -0.16092871 -0.15566489 -0.03733311 0.039024275
0.1379123 0.1333477 0.005406122 -0.029169688 -0.5840145 -0.20433742 -0.10894167 -0.145641
-0.15367626 -0.15226944 0.6077325 0.3561145 0.03809762 -0.067232504 -0.060114615 0.23992124
-0.1741511 0.32317033 -0.08312483 -0.12749399 0.12853238 -0.057684716 0.41026452 0.05642574

w_h.0.weight f4 [64, 5]
00000000: baae bb3d 390d ae3c d343 4fbf bcff b1bf
00000010: c2b5 11bf 1b62 8c3e 38f1 213e 3ea4 933c
00000020: d47a c03f 3264 24bf 8a09 2dbe 1c4d efbe
00000030: 6545 7dbe af16 0abf eb5a 8abd 3c2e 2ebe
00000040: c92a cf3e c7dc dbbe f7db 81bf 69c8 90bd
00000050: 2a34 43bd 2101 8bbe e1b7 59bf c17c 7b3f
00000060: 4356 4cbf 57a1 a4be 96bf 80ba 30a5 89bf
00000070: f130 193f a585 39bf 932b 0fbf 50dc 263d
00000080: e77d 9ebf 711f c4bd 8b2d 58be 94aa d6be
00000090: 32ea 5abd 93f7 80bf cea9 853d 2a11 0bbf
000000a0: 3c4a 93bc e180 16bc 989b c9bd b710 e1bd
000000b0: 729d 26be 61d5 a1bc 050f 33bd 9d99 073d
000000c0: ba80 45bb f30e 27be 655c 963e f878 b9be
000000d0: 636c 843e 7dd5 dfbe 02db 86be 89be 52be
000000e0: 9f42 85be fa44 c5bf 20cd 7bbe 60f0 86bf
000000f0: ba0d 263e 8e83 ea3e 364b de3d 50e2 bc3e
00000100: fda7 13bf 4204 0abe dace 7dbe a23f 5ebf
00000110: 35c2 67bf e668 1fbf cb06 063f 71f7 f23c
00000120: afec 943f 6d12 4f3d ecbe 1cbf 87f5 99be
00000130: c1b9 e93d f567 6dbf 33b0 d4be 3e2b 59bf
00000140: 65e9 e5be 71ba 883e 868e 5d3f 1ee4 ae3e
00000150: 4786 c3be b891 97be 5319 e2be 13c8 65bf
00000160: 2576 79bf c5b5 89bd 00c9 b73e 59a8 623e
00000170: a18b 14bf a0d9 adbd 22b7 aebb 61f4 c9be
00000180: ac17 1fbe 24fa d23e fbc7 afbf 072f fcbe
00000190: 1047 acbe cbde 273c ea5c c5bd f944 9c3f
000001a0: 48ef 40bf 5c09 f13e 6718 60be 43c9 8d3f
000001b0: 9ebb adbe f550 a4bf cf53 ad3e d3ee b93e
000001c0: 40ca bb3d cb32 b83e 2d22 3ebf 3d46 84be
000001d0: d7b7 dabe ca70 663f c13f 09bd ce63 b33d
000001e0: 4f58 b83e 9488 2d3e 0aff 4e3f 0230 57bf
000001f0: 2542 9abe 0503 ac3d f76c 223e 1980 babe
00000200: 0409 603f 9feb 06bf 5f36 94bd 9ada 2c3e
00000210: d4bb b5bd ac26 973f 6c63 80bf 9e59 58be
00000220: 5ed8 8abe be40 d2be 5b53 b4bf 5f7a 5dbf
00000230: 2704 2fbc 12c7 a1be e152 a33f ea8d a13e
00000240: 3033 36bf 2c34 eebe f9d9 d9be 638b 06bf
00000250: 9c00 923b 0ae4 89be d6e8 89bd 7b96 f8bc
00000260: ed5b 7bbf 2113 cdbe f0be a9be 1170 5b3e
00000270: 5245 43be bb8b 863f 362c 64bf 7909 823c
00000280: d374 173d aaf2 92bb 5979 2c3e 4829 4cbd
00000290: 943c e9bd fb4a 1b3f 9035 9d3d 4c7f 1d3f
000002a0: 41f2 3a3e 9f05 10bf 42b2 39bd 60be 103c
000002b0: a0a1 483f 3ad4 08bf 3c25 bebd e519 26bf
000002c0: a046 bfbe 8461 70bf f174 03bf fe29 f7be
000002d0: 04d5 86be d59e 92be fee9 6fbf a924 873d
000002e0: 2517 ab3d 4fa4 05bf cb1c 32bb acbf 85be
000002f0: 4c86 6c3e ac78 8dbf b7a2 1e3f 5d82 123e
00000300: ab8f afbe f84e 673f e323 25be 4c48 85be
00000310: 22d6 b83d 2cac 84bf 0ee7 243f 9b33 eabe
00000320: 3b57 28be 1d1d 04bf 11b3 ebbe 0255 2ebf
00000330: c6f2 fdbe d579 debd 1ae2 8d3e c94e 943f
00000340: 52ac 913f 441d 57bf d941 04bd a785 bebb
00000350: 7c3d 34be 8a4f 47be 269d 24bf 751a 2b3e
00000360: 708c 3e3e 6cee 873f b143 923f f1cd 9fbe
00000370: e88e d13e 70f8 493d 417f 383f 3369 81bf
00000380: 9626 78bf 111e 113c 782c 5f3d e68c 47be
00000390: d156 313c 1964 28bf c44b ed3d a49a 833e
000003a0: 8ddc 9c3f 0449 51be 56dc efbe 8b8c 58be
000003b0: f56b 04bd cfe5 323f d6fc 323f 92a5 92be
000003c0: 125a adbe 4ba9 663e 63b6 f9be 4e07 823f
000003d0: 0584 ecbe d07b 5a3e 89ea 08bc f8dd 7f3f
000003e0: 2ea7 633f 6252 20bf cd95 c63e c324 843e
000003f0: 3934 8f3f 2c8d 46be 2492 a1bf 5fe6 cf3e
0.09164186 0.02124654 -0.80962867 -1.3906169 -0.56917965 0.274186 0.15814674 0.018022653
1.5037484 -0.64215386 -0.1689817 -0.46738517 -0.24733503 -0.5394086 -0.067556225 -0.17009825
0.4046233 -0.42941877 -1.0145253 -0.07069475 -0.04765717 -0.271493 -0.850462 0.98237234
-0.79819125 -0.32154343 -0.0009822722 -1.0753536 0.59840304 -0.7246955 -0.55925864 0.04073745
-1.2382172 -0.095763095 -0.21111123 -0.41927016 -0.053446002 -1.0075554 0.06526528 -0.54323065
-0.017979734 -0.009186001 -0.0984413 -0.10989516 -0.16270998 -0.019755067 -0.043715496 0.03310548
-0.0030136541 -0.16314296 0.29367366 -0.36225104 0.25863943 -0.43717566 -0.26338965 -0.20580496
-0.2602739 -1.5411675 -0.24589968 -1.0542107 0.16216174 0.45803493 0.10854189 0.36891413
-0.57678205 -0.13478187 -0.24785939 -0.86815846 -0.9053071 -0.6226944 0.52354115 0.029659005
1.163473 0.05055468 -0.61228824 -0.30070135 0.11412383 -0.9273675 -0.4154068 -0.8483161
-0.44904628 0.26704744 0.865456 0.34158415 -0.38188383 -0.29603362 -0.44159946 -0.89758414
-0.974459 -0.06724123 0.35895538 0.22134532 -0.58025557 -0.08488774 -0.0053318897 -0.3944426
-0.15536374 0.41206467 -1.3732904 -0.4925463 -0.33647966 0.010245989 -0.096368626 1.2208549
-0.75365114 0.47077453 -0.21884309 1.1077045 -0.33932203 -1.2837206 0.33853003 0.3631502
0.091694355 0.35976252 -0.742709 -0.25834838 -0.42718384 0.9001585 -0.033508066 0.087592706
0.36004874 0.16946632 0.8085791 -0.8405763 -0.3012859 0.083990134 0.1586188 -0.36425856
0.87513757 -0.5270328 -0.07236933 0.16880265 -0.08873716 1.1808677 -1.0030341 -0.21127936
-0.271182 -0.4106502 -1.4087938 -0.8651485 -0.010682142 -0.3159719 1.2759668 0.31553584
-0.71171856 -0.4652418 -0.42549112 -0.5255644 0.004455639 -0.26931792 -0.06733863 -0.030345192
-0.9818714 -0.40053657 -0.33153486 0.21429469 -0.19069412 1.0511392 -0.8912996 0.015873658
0.036976647 -0.004484494 0.16843165 -0.049844056 -0.113885075 0.60661286 0.07676232 0.61522365
0.18256475 -0.5625858 -0.045336016 0.008834451 0.7837162 -0.5344883 -0.09284446 -0.6488326
-0.3735857 -0.938988 -0.51350313 -0.48274225 -0.26334393 -0.28636804 -0.9371642 0.06598789
0.08354024 -0.5220384 -0.0027177806 -0.26122797 0.23098105 -1.1052451 0.61967033 0.14307542
-0.34289297 0.9035487 -0.16126971 -0.2603172 0.090252176 -1.0365043 0.6441506 -0.45742497
-0.16439526 -0.51606923 -0.46035054 -0.6809846 -0.49599284 -0.10863081 0.27711564 1.1586543
1.1380713 -0.8402903 -0.03228936 -0.0058142724 -0.1760158 -0.19463935 -0.6430229 0.16709311
0.1860826 1.0619636 1.1426908 -0.31211808 0.4092934 0.049309194 0.72069174 -1.0110229
-0.9693388 0.008857266 0.054485768 -0.19487342 0.010823921 -0.65777737 0.11586717 0.2570392
1.2254807 -0.2043801 -0.4684779 -0.21147363 -0.03232952 0.6988191 0.6991705 -0.28641945
-0.3385778 0.22525518 -0.48771963 1.0158479 -0.46194473 0.21336293 -0.008356699 0.9994807
0.8892697 -0.62625706 0.38786164 0.25809297 1.1187812 -0.1938979 -1.2622724 0.40605447

w_h.0.bias f4 [64]
00000000: f7bf 36be 2c71 29bf 8baf dcbe fe84 01bf
00000010: c5f5 57bf d3e8 28bf 114a e5be d2d2 b2be
00000020: 3067 55be dea8 50be 7f5f 99bd b662 33bf
00000030: 7c95 68bf d6ee adb9 ffed 89be f122 35bf
00000040: 506e 42bf 419f 2dbf 6eed c2be 1d57 81bf
00000050: 911a 82bf aca4 58bf f5ed 70bf bf1a 3ebf
00000060: 7490 11bf 95b8 27be e358 1ebf 4064 35bf
00000070: 494c 7ebf f661 08bd ba22 d3bd eaaf 0ebe
00000080: efd8 99be 289d 97bf 6880 ccbe 075b 82bf
00000090: 8ff1 16bf 59d9 7cbf 3b16 60bf 9e6a 50be
000000a0: e29a 51bf 4e25 3dbf f4f6 8fbe c9de a23d
000000b0: 3978 19bf 6807 97be 0180 2dbf 24d3 c6be
000000c0: e989 06bf 254e 36bf 26de 89bf 5d72 7cbf
000000d0: ce12 dbbe 3631 80bf 1840 1ebf 4bde 1abf
000000e0: 2792 43bf 4cea 31be 7ec2 5ebf f461 313d
000000f0: d6e7 f5be c287 05bf e25a 6cbf 68d6 6dbe
-0.17846666 -0.6618831 -0.4310268 -0.50593555 -0.8435939 -0.6598026 -0.4478307 -0.34926468
-0.20840144 -0.20376918 -0.074889176 -0.70072496 -0.90853095 -0.00033175078 -0.2693939 -0.7075644
-0.75949574 -0.6782113 -0.3807177 -1.010471 -1.0164357 -0.8462627 -0.94113094 -0.7425956
-0.5686104 -0.16379006 -0.6185438 -0.70856094 -0.9933515 -0.033296548 -0.10309358 -0.13934293
-0.3004832 -1.1844835 -0.39941716 -1.0184029 -0.5896234 -0.98769146 -0.8753392 -0.20353171
-0.8187696 -0.7388505 -0.28118098 0.07952649 -0.5994907 -0.29497838 -0.67773443 -0.38832963
-0.52554184 -0.7121299 -1.0770919 -0.98612005 -0.42787784 -1.0015018 -0.6181655 -0.6049544
-0.76394886 -0.17374533 -0.8701552 0.043306306 -0.4802844 -0.52160275 -0.92326176 -0.2322632

w_h.2.weight f4 [32, 64]
00000000: 42c9 92be 5740 c83e 04d8 173f e011 1c3f
00000010: a943 39be d060 c03e f0ca 3f3e 8016 3d3f
00000020: d0ad 92bd e77d f8bd 7a6c d23d 97b6 47bc
00000030: 0e0c 75bf 9bf2 0ec0 eacf afbe 3794 2040
00000040: c086 09c0 6394 3d3f 785d 9c3e 400a 8d3f
00000050: f4eb 393e 4102 2fbe 3388 ddbb 342f 263f
00000060: d626 2d3c 5664 5f3e ef7c 003f 456a 403f
00000070: f7fb fbbd bfca 9abf 4b5c 103d a066 8cbf
00000080: c400 37bf 5b25 333d 897e 9abe d1f1 79be
00000090: 98be fcbc 4a45 87c0 3ced e53e 6496 873f
000000a0: cf08 99bf 92db 0abf dc0a 55be 03e1 64be
000000b0: 5313 8bbf c6af 6d3e bceb 02c0 5ffe 943f
000000c0: 7d4c 753f b06d b5be d556 a73e 5ea2 fa3e
000000d0: 5e26 c1be f3cb 9bbf 82a4 f9bf 1594 893e
000000e0: eb2c 5abe 315f d03f 18f8 9ebe fd1b ecbe
000000f0: 0d04 b4bf d4a2 87bf b3c0 a5be eff7 1c3f
00000100: 3b80 d2be e033 55bf 5e59 a13e 9e5b 393e
00000110: 7281 cdbe 8edb 323f d9f7 2b3f 68a7 693e
00000120: b7da 963c 596a 963d f229 bcbe 2d79 bf3f
00000130: a80d e23e 48b5 213d bfd6 aebe 7b35 da3f
00000140: fd7d 833e 641c 093e 9957 c33d fd68 853e
00000150: 60c5 3cbf b27e 77bf 2f28 553e b10e a2bf
00000160: 6592 a23e c0a7 033d b0ab d53d 0b12 493e
00000170: ccd0 293f a977 f7be ee12 92be 8727 b13e
00000180: d6f4 ad3d 8e21 46c0 0e9c af3e bede 0bc0
00000190: 2ea9 c43c 16ea 82bf 9dcf b0bf 90ab f5bf
000001a0: 627e 1e3e 7045 77be 2192 47bd 0d6a d7be
000001b0: fd91 8e3e a91c dbbd 7947 1abd 06e6 3bbf
000001c0: 8a05 e1be 2a46 843f c681 8b3e 06d4 3abe
000001d0: 9ce7 ccbd 735a a6be 44ca 1dbf b393 343e
000001e0: 401c 3f3e e4ba 01bc c2d0 e7be 0773 b23e
000001f0: 23d5 d9be 15fe c03f 5e3e cabe 59db f4be
00000200: 2bf2 3fbd 758e 6b3e 8dd8 bb3e 751c cc3e
00000210: 9a46 153f c8cd 2dbf ba3c 9abe 3469 c5be
00000220: c770 d5bc fb31 553d 4ecd c1bd 21a2 3cbf
00000230: 5bde e0be d3c3 a0bd 9b0d 183f f3ed cb3e
00000240: 94ba 253c e3b7 41bf 0ac8 bcbe b2e2 d3be
00000250: 72e2 a3bd a8ca 9bbf 1fd9 7bbc cfa1 17bd
00000260: a193 293f a522 cebe c445 0dbe 6b6b 293f
00000270: 50b5 98bd 46cc 2a3e 8c76 26bd 6a08 013e
00000280: 7b0d 6b3d fa30 a0bf 5006 043d 2d63 5abf
00000290: a42b 073f 00e0 89be fcb7 bebe 2f95 97be
000002a0: 1991 03bf a64c 0d3e 1ed9 413e 6219 b53d
000002b0: de9c 2e3e a002 77bd 7ddb ed3e 3e5d 42bd
000002c0: 9e69 1b3f 636a b73e 0a24 a7bf 9002 a8bf
000002d0: 0e80 b33c 9485 42bf dfd4 05bd 0127 2b3f
000002e0: a22a 3c3d f3c5 763d cc19 acbe f80a 803e
000002f0: 05b9 94bd f084 8c3f 4b5c 4a3f 34b1 b93e
00000300: 7f2a e4bd 216e b53d 51ed 343d 8004 0abd
00000310: f6be 633c 40b8 a7bd 6e45 9a3d c02e 05be
00000320: 847b 8bbd f098 1f3d e491 fbbd 2a40 9abd
00000330: f9a3 95bd 7ccb d4bc 7f3b ddbd 07de 21be
00000340: fbbe b3bb 68b5 afbc 6d42 f4bd 5814 abbd
00000350: 64df c3bc fdfe 983c 08ec 973c bf1e 1ebe
00000360: a35b 7bbd 603b 83be 144f 3fbe 8870 03be
00000370: 452e 973d 9786 1cbe 648c f2bd 803b bd3c
00000380: a381 04bc 97e9 4b3d 1878 56be 8c49 30be
00000390: 4e29 d4bd f71a e1bd d5a9 f4bd 8504 02be
000003a0: 46ff fabd 2eb1 3cbd bb44 93bd 63af 32be
000003b0: 63f4 abbd 5607 dcbd fb43 6bbe 6f5a cbbd
000003c0: a734 a83d f209 fcbd d668 30bd b89a 743c
000003d0: cdaf a93d 8f2a 223d dfea 383b cbb3 51be
000003e0: 9e40 2b3d b876 92bd dd38 2dbd 2026 5abe
000003f0: 734d 26be 9c58 66be c64f 0dbe 6950 3c3d
-0.28669173 0.39111587 0.5931399 0.60964775 -0.18092217 0.37573862 0.18729758 0.7386246
-0.07162058 -0.12133389 0.102745965 -0.012189529 -0.9572152 -2.2335575 -0.34338313 2.5090463
-2.1488495 0.74054545 0.3054006 1.1018753 0.18156415 -0.17090704 -0.006760621 0.64915776
0.010568341 0.21815619 0.50190634 0.75162154 -0.12303918 -1.2093123 0.035244267 -1.0968819
-0.71485543 0.043736797 -0.30174664 -0.24408652 -0.030852601 -4.227208 0.44907558 1.059277
-1.1955813 -0.5424129 -0.20804924 -0.2235146 -1.0865272 0.23211583 -2.045638 1.1640128
0.95819837 -0.35435247 0.32683435 0.48952 -0.37724584 -1.2171615 -1.9503329 0.2687079
-0.21306197 1.627905 -0.31048656 -0.46115103 -1.4063736 -1.0596566 -0.3237358 0.61315817
-0.41113457 -0.8328228 0.31513494 0.18101355 -0.4013782 0.69866264 0.6717506 0.22817767
0.018414838 0.07344503 -0.36750752 1.4958855 0.44151044 0.039479524 -0.34148213 1.7047571
0.2568206 0.13389736 0.09538192 0.26056662 -0.7373867 -0.96677697 0.2081611 -1.2660733
0.31752315 0.0321424 0.104331374 0.19635789 0.66334224 -0.4833348 -0.28530067 0.3460047
0.084939644 -3.095798 0.34298748 -2.18547 0.024006452 -1.0227687 -1.3813359 -1.9192982
0.15477899 -0.24147582 -0.048723344 -0.42073098 0.27845755 -0.10698826 -0.037665818 -0.7339786
-0.43949538 1.0333912 0.27247447 -0.18244943 -0.100051135 -0.32490882 -0.6163676 0.17634468
0.1866312 -0.007918093 -0.45276457 0.34853384 -0.42545423 1.507754 -0.39500707 -0.478236
-0.04686181 0.23003562 0.36688653 0.3986546 0.58310854 -0.6789212 -0.30124456 -0.38556826
-0.026054753 0.05204962 -0.09462987 -0.7368489 -0.43919644 -0.078498505 0.5939576 0.39829978
0.0101152845 -0.75671214 -0.36871368 -0.41383892 -0.080021754 -1.2171221 -0.01537159 -0.037019547
0.6624089 -0.40260807 -0.13796145 0.6617953 -0.074564576 0.16679487 -0.0406404 0.12600866
0.057385903 -1.2514946 0.032232583 -0.8530758 0.52800965 -0.2692871 -0.37249744 -0.29606006
-0.51393276 0.1379877 0.1893048 0.08842732 0.17052028 -0.060305238 0.4645652 -0.047452204
0.60708034 0.35823354 -1.3057873 -1.3125782 0.021911647 -0.75985074 -0.032673713 0.6685639
0.045939095 0.060247373 -0.3361343 0.25008368 -0.07261852 1.0978069 0.7904708 0.36268008
-0.11140918 0.08858896 0.044171635 -0.033695698 0.013900509 -0.0818944 0.07532774 -0.13006115
-0.06810668 0.038964212 -0.12283686 -0.075317696 -0.07306666 -0.025975935 -0.108023636 -0.15807353
-0.005485413 -0.021448806 -0.11926732 -0.0835349 -0.023910232 0.018676275 0.018545166 -0.15441416
-0.06136669 -0.25631237 -0.1868251 -0.12835896 0.07381872 -0.15285717 -0.11843184 0.02309966
-0.008087548 0.049783316 -0.2094425 -0.17215556 -0.10359441 -0.10991471 -0.119464554 -0.12697037
-0.12255721 -0.04606741 -0.07190844 -0.17449717 -0.083962224 -0.10743587 -0.22975151 -0.09929358
0.08213168 -0.123065844 -0.04306873 0.014929466 0.082854845 0.03959137 0.0028216166 -0.20478742
0.04180967 -0.0715155 -0.042290557 -0.21303606 -0.16240482 -0.2249474 -0.13799962 0.045975123

w_h.2.bias f4 [32]
00000000: 6e97 43bf a2a3 133f 2c05 4ebe 797e dfbd
00000010: 9ece b63e 70ab 42be f8d3 6a3e 1d5f fcbd
00000020: f976 abbd d2a9 3dbe 1edb 11be c381 203e
00000030: 4978 a23e e307 f03d 3b9e 4f3e 0f64 92be
00000040: 1e80 d6be b73f 15bd 8dbf a9bd dc72 b0bd
00000050: d4f8 e5bc 16ce 90be 3279 8b3c c8cc 82bd
00000060: f1dd c43d fcc3 34be b606 263e 241b aebe
00000070: 09eb 52be 567d 49be 397a 93bc a4b7 1abe
-0.7640294 0.5767156 -0.2011916 -0.109127946 0.3570451 -0.1901071 0.22932422 -0.12322829
-0.083723016 -0.18521813 -0.14243743 0.156745 0.31732395 0.11720254 0.20275204 -0.28591964
-0.4189462 -0.036437716 -0.082884885 -0.08615658 -0.028072752 -0.2828223 0.017025564 -0.06386715
0.096126445 -0.17652887 0.16213498 -0.34005082 -0.20597471 -0.19676718 -0.018002616 -0.15109116

Ws.0 f4 [32, 32]
00000000: 667f 1cc0 7a7a 40be 350e 163f fb1e 193f
00000010: 2457 2340 06c7 ce3e ed26 8d3e c269 6840
00000020: bf40 73c0 76b9 0fbf a2a3 1cc0 14fb 1d3f
00000030: efac 193f e7db 733e b72d b43e aae8 09bf
00000040: f426 063d b593 05bd 5bf8 1b3f 071a c43f
00000050: 4f1f 113f 6112 1ebf 14f5 5a3f 1d9e 123f
00000060: 0243 f6be 4389 733e d943 283f a039 623f
00000070: 864a a13e 1592 333e 7046 833d c19b de3f
00000080: b274 5fc0 52e6 b3bf 72f9 5b3d 34d7 af3f
00000090: 796f 2ac0 f838 c83e d14f 533f c70a 08be
000000a0: ef7f b3be c253 f1bf d945 4c3d 7b22 853f
000000b0: ebba 123e f85d 00be a2c6 7d3d fdff edbf
000000c0: 3a60 84bf e224 693f 4ced 833d 3220 dc3f
000000d0: 004b febf 1a4d ccbf 70a4 f63f bb4e 0dbe
000000e0: 89ec ca3e 7fdf 873f f83b 9e3f 5b05 0a3f
000000f0: 3ec2 17bf 7bbc 0dc0 b6bd 643f 51de 803f
00000100: 1377 eabf 1571 d0bf fd2f acbf ec35 d23d
00000110: 4d0e 283e 20cb b63f efa3 68bf c544 f8be
00000120: fb36 4bc0 dc0e 293f 99bc 983f ee48 053e
00000130: 15b6 c4be a449 7c3d 3486 233e 4f72 43bf
00000140: 0446 a23f 2b3f 8b3e 18d2 6fbf a030 9e3f
00000150: 5f29 0f3f fbdf 0fbf 3b63 67bf 4ef5 f3bf
00000160: fed0 933f e73b 8fbe 8d13 97bf 90fb 36bd
00000170: ace5 06bf a79e 3f3f 2192 20bf d509 cc3e
00000180: 0bb6 30c0 217c 83bf 6c6a 95be 9185 32c0
00000190: 93d6 b2be 6fd6 513f e478 25bf ee2b 753f
000001a0: 9acd d0bd 159b 0a3f d4ee 633f 0025 02c0
000001b0: 4ec1 bebe c2bf a1be 58fb 7cbf 43e1 88bf
000001c0: 4e53 57be a6fe 0cbe 5d7a a13f bb6a ca3f
000001d0: de30 663f d136 783f 3bc6 1fc0 32e0 6cc0
000001e0: 57db e83e 000b 5abe e632 713f 5cdd 85bf
000001f0: 5fa0 90bf 5b33 aabf 5f7d 0a3f 3d11 80be
00000200: 8196 83be 8c72 90bf d874 38bf 457a 85c0
00000210: 54f2 f7be af99 9cbe cd49 21c0 508d cfbf
00000220: 250a 893d 5d40 143f a3d3 c43f 7da0 4c3e
00000230: 4a19 863e ef53 b7be 11d4 eb3e 3258 8a3f
00000240: 94e4 7f3f 3ac9 4dbf dbdb 5abe 52a4 48c0
00000250: 58e1 5d3f 97bd 443f 4842 813d d666 22c0
00000260: 3a06 c03e a7c5 39c0 b1c2 59bf 7ff4 5ac0
00000270: edc0 ab3d fbdb ce3e b193 8b3f 0014 14be
00000280: 608f 22c0 80fe 91bf 220f 54bf 3756 793e
00000290: 8047 a83e 5196 683c bec8 783f 5cb8 ca3d
000002a0: 33e9 3e3e eea4 de3e 524b 1d3f 4a16 413f
000002b0: d54d 943c aaca edbe 78fd 433f 4812 0f3f
000002c0: a73d be3f 516d 063f 87ec 273e 185d 473e
000002d0: 5df7 a33d 1ae6 633f 8f07 693f d51e d7bc
000002e0: d715 63bf 1202 9a3f 01aa 493f 9bcc 3ac0
000002f0: 2b3e a2be fd42 ac3e 435d 043f 8537 1ec0
00000300: 3302 78c0 00d8 0bc0 7abb 113f ca62 0440
00000310: d5be bbbe ff17 be3e d5ac 1b3f cc34 a43f
00000320: d10f ed3f 62a8 0b3f 4acc 0a3f a383 0ec0
00000330: 0de7 2dbf 62d1 6c3f 6dc5 4c3f 0885 103f
00000340: fc61 32bf 43f5 9ebe f007 a4be d086 9e3f
00000350: 4cf3 693e 2d17 4ebf 360e 47c0 d7da e5be
00000360: 2ad5 01be 72bc a43e 542b 87bf 72ee 9b3f
00000370: cdd2 0940 c5f7 2f40 ca22 023f 2ad1 753f
00000380: 4087 b83f f561 b93f 47c3 5fbf 0e9d a1bf
00000390: d09e 90bf 9d5e df3f 1c99 3ec0 9ab9 8d3d
000003a0: bb6c d2bd ab0f 0cbf 1709 fcbf 5de7 1cc0
000003b0: 2d2c 9abf 323f 37c0 4ef3 bc3f 0840 6ebf
000003c0: c2d2 623f b722 773f f1fe 1dbf 01a4 14bf
000003d0: dbea 4ebf ad4c 9ebe 32d9 56c0 679b 8a3f
000003e0: 4668 283f f3fa 163f fe26 bf3f f5a6 18c0
000003f0: aafe 85be f9a0 a53f 29f7 b0be 3692 ed3f
-2.4452758 -0.18796721 0.5861543 0.598129 2.5521936 0.40386218 0.2756876 3.631455
-3.8008268 -0.56142366 -2.4474874 0.6171124 0.600295 0.23814355 0.35191128 -0.5387064
0.032751992 -0.032611568 0.60925835 1.5320443 0.566884 -0.61746794 0.8553021 0.5727251
-0.48097998 0.2378283 0.6572853 0.8836918 0.3150217 0.17536195 0.06409919 1.7391282
-3.4914975 -1.4054663 0.053704686 1.373755 -2.6630538 0.39105964 0.82543665 -0.13285361
-0.35058543 -1.8853686 0.0498713 1.0401148 0.14329116 -0.12535846 0.06195701 -1.8593746
-1.0341866 0.91071904 0.06441745 1.7197325 -1.9866638 -1.596103 1.9268932 -0.13799565
0.39633587 1.061508 1.2362051 0.5391442 -0.59280765 -2.214629 0.89351976 1.0067846
-1.8317589 -1.628451 -1.3452145 0.10264191 0.16411705 1.4280739 -0.9087514 -0.48489967
-3.1752307 0.660383 1.1932555 0.13016102 -0.38420168 0.061593667 0.15969163 -0.76346296
1.2677617 0.2719663 -0.9367995 1.2358589 0.559225 -0.5620114 -0.9038579 -1.9059236
1.1548154 -0.2797539 -1.1802841 -0.044673502 -0.526942 0.7485146 -0.62722975 0.3985125
-2.761111 -1.0272256 -0.29182756 -2.7894022 -0.34929332 0.81967825 -0.6463759 0.95770156
-0.101954654 0.54142886 0.890363 -2.0335083 -0.37256855 -0.31591612 -0.9882102 -1.0693744
-0.21027872 -0.13769016 1.2615467 1.5813822 0.89918315 0.96958643 -2.496474 -3.7011838
0.45479843 -0.21293259 0.9421829 -1.0458179 -1.1298941 -1.3296922 0.5409755 -0.25013152
-0.25700763 -1.1284957 -0.7205329 -4.1711755 -0.4842707 -0.30586 -2.5201294 -1.6215
0.06691388 0.5791071 1.5377086 0.19983096 0.2619117 -0.35806224 0.4606023 1.0808165
0.9995816 -0.8038517 -0.2137293 -3.1350293 0.8667197 0.7685179 0.0631147 -2.5375266
0.3750475 -2.9026887 -0.850627 -3.4211729 0.08386407 0.40402207 1.0904447 -0.14460754
-2.540001 -1.1405792 -0.8283559 0.24349295 0.3286705 0.0141959945 0.9718131 0.09898445
0.18643646 0.43485206 0.61443055 0.75424635 0.01810352 -0.46443683 0.7655864 0.5588727
1.4862565 0.52510554 0.16398822 0.19469106 0.08006165 0.8902298 0.9102716 -0.026259819
-0.887052 1.2031882 0.7877503 -2.9187381 -0.31688055 0.33644858 0.51704806 -2.4721386
-3.8751342 -2.1850586 0.5692669 2.0685296 -0.3666903 0.37127683 0.60810596 1.2828612
1.8520452 0.54553807 0.5421797 -2.2267845 -0.6793068 0.9250699 0.7998875 0.5645299
-0.6968076 -0.31046495 -0.32037306 1.2384892 0.22846717 -0.80504113 -3.1102424 -0.44893524
-0.12678972 0.32175022 -1.0560098 1.2182143 2.1534913 2.7494977 0.50834334 0.96022284
1.4416275 1.4483019 -0.87407345 -1.2626054 -1.1298466 1.7450749 -2.978095 0.06920166
-0.10274645 -0.5471141 -1.9690274 -2.4516213 -1.2044731 -2.8632321 1.4761751 -0.93066454
0.8860284 0.96537346 -0.61717135 -0.5806275 -0.8082711 -0.30917874 -3.3570065 1.0828675
0.6578411 0.5897667 1.4933774 -2.3851902 -0.26170856 1.293975 -0.34563568 1.8560245

Ws.1 f4 [32, 32]
00000000: 7336 6d3e 5007 47c0 3350 e1be c886 a73e
00000010: 798b 6fbf 970b 513d fc88 423e d1b2 f53e
00000020: 923f 23bf 9a56 2cc0 6873 2dbf 28d7 17c0
00000030: b9e1 2dbf 9367 c23e b690 0f3f 2ed5 abbf
00000040: f5be 833f 6c19 7fc0 5382 b9c0 d465 1dc0
00000050: 8b56 68bf d74e 363e 6268 87c0 463d e4bf
00000060: 1077 5ec0 3e48 3a40 01ae 81bf 4a6f 9dbf
00000070: 8cf6 733e a6aa a53a ae3c 903e 0cb0 e0bf
00000080: 789f 243f 717e 02bf 57c6 b2bf cbea 373f
00000090: 7a14 653f bf52 6cbf cdad 223f 3585 6a3f
000000a0: 0a0d a8be 0cc9 703f 5097 9c3f 42ab 213f
000000b0: 5bd8 a43e 9046 9fbd 23f7 84be 3d7b 9c3c
000000c0: 9b8e 01bf 9b04 663d 238d 5d3f 80a3 37c0
000000d0: 03ad 3bbf d4af 54bf 548e d43e ea3d 14bf
000000e0: 3ebc bfbd c307 1bbf ba30 9b3d d2db e63e
000000f0: 70c4 fbbd 835d 003f 6d84 8a3f 76df 92bf
00000100: f6f8 1f3f e556 72bf f2fd 32bf e809 ae3d
00000110: 7c1e 99bf b768 8c3f ba5f c8bf 854d 0fc0
00000120: 0431 293f 3c6a 31bf 394f 803f ae82 a7bf
00000130: fc36 6d3f 8aba 84be 5a1a f83f 09ad cebc
00000140: 5e37 f7bc 097b 91be 697d 3dbf 5f31 063e
00000150: 6b95 67bf 9e54 cdbf 9cbd debe 17e4 29c0
00000160: 6313 2d3f 8dca 12c0 160c 7cbe b220 db3e
00000170: 0708 9c3f 0a01 9bbf 4864 eebf 1d75 823d
00000180: 8510 3abe d9fd 813f 78e7 26bf 27d2 34bf
00000190: 69b2 0bbf af0c a4bf 7b14 7dbe 33d3 26bf
000001a0: 8e5a 2c3e bebb 003f 566a 0fc0 cf9d c7bf
000001b0: 212a 713f aa3c ba3f 2aa6 693e 89a1 c2be
000001c0: 8cdf 83be d52d f7be 7833 d3bf 98ed 02c0
000001d0: d22f 5f3e 9897 9ebf 9c9d 803f c6d4 c2bd
000001e0: 33e2 983e 2923 eabe 3743 923f 0359 44bf
000001f0: 72d4 473f 4a73 83bf 63ff 52bf 3003 10bd
00000200: d385 7e3f ea75 40bf cc62 3bbf 758a 3dbf
00000210: dbd1 0ebf d410 1fbf 3318 dcbe 5269 2bbe
00000220: 071b b8be 887f 033f dac4 54bd 9835 983f
00000230: 3bb8 803e 3637 c73e e4e6 b0be 283d f2be
00000240: 7872 58bf 71bc ce3f 485f 5abf aa7e 2e3e
00000250: 6ae7 c83e c2f3 8abf 65a0 5d3f 63f6 15be
00000260: 93f1 0b3e 875a 92bf 9cd4 b8bf 3e4f b8bb
00000270: 76d1 a73f fd1e 1e3f 0bff 91bf 79bc 78be
00000280: 4adc 1cc0 d737 58be de9e 863f 38c7 9f3f
00000290: 155c 4d3f 6223 edbe d9fb 0840 7693 92bf
000002a0: f58d 063e 26e5 9cbf 0cbd 4b3e b973 6bbe
000002b0: b93a 30bf 5860 97be 58f1 3fbe 7432 923d
000002c0: 7b55 91be 9705 3b3e 369c ae3f 5843 d9bf
000002d0: 7ec4 763f 2b69 c0bf 4bf4 883f 05c3 da3d
000002e0: c4a6 3dbf b6b4 0bbf 5d7a 7cbf b520 06c0
000002f0: 8d0f f93f 65a3 cbbf e06c 5f3e 4f01 ffbe
00000300: 3529 e8be 75f8 963f 4290 053e 1d4c 32bf
00000310: c0df 0ebf f7f0 583e 4809 be3e eda0 893e
00000320: 9dfb 91bf f6fe 5e3f cfdf c8bd d0af 643f
00000330: 070d a63f a7a4 413f e961 3d3f bd78 873e
00000340: 3e93 f83d 9b31 483f b65c 11bf 8f19 02bc
00000350: a4d7 823e c450 15c0 48e8 973c 01b9 b9be
00000360: e31f 673f 8a55 9dbf fd43 03bf 1822 31c0
00000370: 4253 d73e 4977 8c3f b2d3 5dbf b3e3 a73d
00000380: c4f3 9fbe 1807 efbf 6376 523f fb88 e1bf
00000390: cd06 e23e 94bc 5dbf 9108 d3bf 38e0 fabf
000003a0: db87 0f3f a4f9 04c0 6a1d 27bf cb16 a8bf
000003b0: fb19 85bf 2876 b33e 50c7 e33e d218 c9bf
000003c0: 4a6f 8dbe a61e 16c0 e824 11be 1955 dabe
000003d0: d8ab fc3e f792 fc3e a873 a6bf f754 483f
000003e0: 6bc6 163f 65ce 8d3f 5fe5 b63e 5955 61bf
000003f0: 1390 8bbd dbd4 55bf 4154 16be 0341 693f
0.23165302 -3.1098213 -0.440065 0.32720017 -0.93572193 0.051036444 0.18997568 0.4798799
-0.63768876 -2.6927857 -0.6775422 -2.372507 -0.6792255 0.37969646 0.56080186 -1.3424432
1.029265 -3.9859266 -5.7971587 -2.45934 -0.90757054 0.17803513 -4.231492 -1.7831199
-3.476017 2.9106593 -1.0131227 -1.2299588 0.23824519 0.0012639358 0.28171295 -1.7553725
0.6430583 -0.50974184 -1.3966779 0.7184264 0.8948437 -0.9231376 0.6354645 0.9160951
-0.32822448 0.94056773 1.2233677 0.63151944 0.32196316 -0.077771306 -0.259698 0.019101733
-0.50608224 0.056156736 0.8654348 -2.8693542 -0.7331087 -0.8308079 0.41514838 -0.57906973
-0.09362076 -0.6055872 0.07577653 0.45089585 -0.12293327 0.5014269 1.0821663 -1.1474445
0.6248926 -0.9466384 -0.6991874 0.08497983 -1.1962428 1.0969456 -1.5654213 -2.2391064
0.66090417 -0.69302726 1.0024177 -1.3086755 0.92662024 -0.25923568 1.9383042 -0.025228994
-0.030177768 -0.2841418 -0.74019486 0.13104771 -0.9046237 -1.6041448 -0.43504035 -2.6545465
0.67607707 -2.2936127 -0.24613985 0.42798382 1.218995 -1.2109692 -1.8624353 0.06369994
-0.18170364 1.0155593 -0.65196943 -0.7063317 -0.5456911 -1.2816371 -0.24714844 -0.65166014
0.16831419 0.5028647 -2.2408652 -1.5595034 0.9420491 1.4549763 0.22817293 -0.38013867
-0.2575649 -0.48277155 -1.6500082 -2.0457516 0.21795586 -1.2390013 1.0048099 -0.095132396
0.29860076 -0.4572995 1.1426762 -0.7669832 0.7805854 -1.0269558 -0.8242094 -0.03515929
0.9942295 -0.7517992 -0.7319763 -0.74039394 -0.55788964 -0.6213505 -0.42987213 -0.16739395
-0.3595812 0.5136647 -0.051945545 1.1891356 0.25140557 0.3890931 -0.34551156 -0.47312284
-0.84549665 1.6151258 -0.8530164 0.17040506 0.39239055 -1.0855639 0.8657287 -0.1464477
0.13666372 -1.1433877 -1.4439883 -0.005624681 1.3110797 0.61766034 -1.1405958 -0.24290647
-2.4509454 -0.21115051 1.0517232 1.2482672 0.8021863 -0.46316057 2.1403716 -1.1451252
0.1314009 -1.225743 0.19896334 -0.22993363 -0.68839604 -0.29565692 -0.18744409 0.071385294
-0.2838553 0.18263851 1.3641422 -1.6973677 0.96393573 -1.5032095 1.0699552 0.10681728
-0.7408259 -0.5457262 -0.9862421 -2.0957463 1.9457871 -1.5909239 0.21818876 -0.49805686
-0.45343938 1.1794573 0.13043311 -0.6964739 -0.55810165 0.21185671 0.37116456 0.2688059
-1.1404911 0.8710779 -0.09808313 0.8933077 1.2972726 0.75641865 0.73977524 0.26459303
0.12137459 0.7820069 -0.5678209 -0.007940664 0.25555146 -2.3330545 0.018543378 -0.3627396
0.9028303 -1.229173 -0.51275617 -2.767706 0.42055708 1.0973903 -0.86651146 0.08197727
-0.31240666 -1.867404 0.82211894 -1.7619928 0.44145814 -0.8661587 -1.6486989 -1.9599676
0.56066674 -2.0777369 -0.6527926 -1.3131956 -1.0398554 0.35051084 0.44488 -1.57107
-0.2762397 -2.3456206 -0.14174235 -0.4264305 0.49349856 0.49330875 -1.3004045 0.78254646
0.5889651 1.1078612 0.3572187 -0.88020855 -0.06814589 -0.83527917 -0.14680578 0.91114825
