crowd_nav/GRL_output/rl_model_9.pth (torch, 143871 bytes, 33 tensors)

w_a f4 [32, 32]
00000000: 012d 963f a353 913e c0bd 9d3f 7c80 eec0
00000010: 03ea 0f3c 3685 653f a4d4 c13e fe7c 4abf
00000020: b5cd c53f c0fe b1bf 757c 2bbf 9939 81bf
00000030: 4b25 84bf 797d 35bf 3017 63bf 368a 8cbf
00000040: 6df5 5a3e 5c68 ecbf b0ac b6be 50f4 4f3f
00000050: ee4a 6c3f fdd6 4cbf 595b fbbc f5ba 28c0
00000060: f204 6a3e ed4d e8be 2e55 cbbd c78f 1bbf
00000070: 24a7 b03d 7fc0 94bd eb5a 073f 29e3 0d40
00000080: dd2b 773e 7041 d53e 4a0f 0fc0 8114 e7be
00000090: 13c9 7bbe 81d7 df3e 1b35 e7bd f401 573f
000000a0: 9523 3f3f c167 883e f3cd 1e3f 7fbf f73e
000000b0: ff86 d5be ee72 c5be b859 fabe bd4b 27be
000000c0: 2a0e 8fbe 7eec e33e a059 6dbf 567d e7bf
000000d0: f552 e33e 6129 18be 28d4 e6bf 5389 b3bf
000000e0: ce86 f3bc 26f5 3bbe 347a 47bf 1712 02bf
000000f0: 94a1 04bf cc62 933d a54e 923e 02b2 423e
00000100: 5eb3 73bf 6943 54bf 3858 e23e 46e3 933f
00000110: 3c3e 8cbf d4a2 9abf 6501 12be 1d55 11c0
00000120: e8c6 a5bf 4bd5 08c0 03a6 22be 169d 6fbf
00000130: 28ee 82be 8e3f 0d3e 75b7 10bf bee1 28bf
00000140: e83b 0b3f 6944 983e fadb e6bf dc46 28be
00000150: 803b a4be b88b 613d a68c c73c 77c4 ed3e
00000160: 7b31 5cbf bf79 643f eda4 f0be 4a9a 1cbe
00000170: b3a0 1dbf fcce 9fbe c492 0d3e ccb4 0bc0
00000180: 208b 6dbf 1cd7 273e b8fb 4cbe e527 263f
00000190: 64dc 3fbf 31a6 0f40 1630 c03f fb82 bfbe
000001a0: d73b 563e 75d9 abbf f80b 25bf a9fc 93be
000001b0: 97c0 373f 9ac0 cd3d 65f1 653f ff40 4cbf
000001c0: ed74 2c3f 16ea 0c3f 5d33 453e 3bbc 8f3f
000001d0: 7573 ce3d 17d4 7e3e ca16 063f f37d a03f
000001e0: b923 f43c 5693 8fbe 9dd2 13bf c5f7 333e
000001f0: 9b6b b5bf 4ef5 173f d37c c13c 6ade 17bf
00000200: d398 86be 884c 08bf 575b 953f c1c8 813e
00000210: c00c 99bf 2b75 a4bf fd21 bebe 026b 07bf
00000220: a8c1 48bf 7d16 843f 4ce3 3b3d 1933 0fbf
00000230: 030e 66bf a42b 6b3f 3616 693e be1b c0bd
00000240: c24d 503f 86df 85be 7b4a 84bf ac26 b4be
00000250: 7fbd a7bf 1300 6bbf e11b 3a3f 64f1 f0be
00000260: 1acf 0cbf 9eb8 a93e 3ca1 d2bf 4c12 6ebf
00000270: 786d f7be f953 24c0 64cc f3be 9f60 42bf
00000280: cc29 b83f 8b79 bc3e b906 42bf e67d 6640
00000290: e618 283f c0fd b23f 917b cabf 7101 5940
000002a0: 9bcb ff3d 2b77 243f 4d04 a53f e00f 2840
000002b0: 6524 7ac0 713e a0c0 7212 b9bf afda 0a40
000002c0: fcf7 c63f a596 b13f 1219 f2bf 3a47 1040
000002d0: 29f7 50bf 4ea9 a73f 634d c63f a857 c7bf
000002e0: 94aa 29bf 0fa2 b1be 445c 1f3e 222d 3c40
000002f0: f877 273e 2c5a 89bf 4875 393f 72b1 43c0
00000300: ae35 f1bc c9f7 5b3f dcae 863d 590a 03be
00000310: 3281 9ebe 8a0e 933c c0d6 10bf 858a 423f
00000320: 456e 9d3e 4d70 84bf 7a54 133e 8708 02be
00000330: 3af0 a5be 126f 97be 7be0 43bf 9db2 7bbf
00000340: 328a ca3f 16ff 07bf fee6 dbbf 9b70 67bf
00000350: 6a02 07c0 d633 9cbe b4d0 703e 45ef f0bf
00000360: 5398 13bf 6582 34be a04d fdbf 9321 3cbf
00000370: ff8d a2be 5918 76bf dda2 b63d 3c2b 7cc0
00000380: 0020 40be 2018 b0be 052e 09bf f4ce 0c3e
00000390: 1bcb 1c3e 9037 5ebf 20d7 6abf 14f0 aa3f
000003a0: 81d6 d1be e709 fabf 35f7 26be d2c6 e13e
000003b0: e2b5 173e 1e63 f83e f257 eebe d232 71bf
000003c0: 1853 bdbf 659f 2abf a5f9 0e3e 13ea e5be
000003d0: 3449 45bf 32d6 2f3f b0d0 1e3f 0350 cfbf
000003e0: fdfe d1bf 0cec f33e 0d1c 82bf c060 6e3f
000003f0: e665 d2be 487a 16c0 0f6c cd3f 116d d23f
1.1732484 0.28384122 1.2323532 -7.453184 0.00878382 0.8965639 0.37857544 -0.7909697
1.5453402 -1.3905869 -0.6698678 -1.0095702 -1.0323881 -0.7089458 -0.88707256 -1.0979679
0.21382685 -1.8469348 -0.35678625 0.81232166 0.92301834 -0.80015546 -0.030683206 -2.636411
0.22853449 -0.45371953 -0.09928356 -0.6076626 0.086256295 -0.07263278 0.52873105 2.2169898
0.24137826 0.41651487 -2.2353082 -0.4513283 -0.24588422 0.43719104 -0.11289426 0.83987355
0.7466367 0.26641658 0.62033004 0.48388287 -0.41704556 -0.38564247 -0.48896575 -0.16337486
-0.27940494 0.44516367 -0.9271488 -1.8085124 0.4439923 -0.14859535 -1.8033495 -1.4026283
-0.029727366 -0.18355235 -0.7792084 -0.5080885 -0.5180905 0.071965784 0.28575626 0.19013217
-0.9519557 -0.8291536 0.4420793 1.1553733 -1.0956492 -1.2080941 -0.14258344 -2.27082
-1.2951326 -2.1380184 -0.15883641 -0.9359907 -0.25572324 0.13793775 -0.56529933 -0.65969455
0.54388285 0.29739693 -1.8035882 -0.1643328 -0.32076645 0.055064887 0.024359059 0.46438953
-0.86013 0.8924827 -0.47000828 -0.15293232 -0.6157333 -0.31212604 0.13825518 -2.18291
-0.9279041 0.16390651 -0.20017898 0.64904624 -0.74945664 2.2445185 1.5014675 -0.37404618
0.20921265 -1.3425738 -0.6447139 -0.28903702 0.71778244 0.100465015 0.89821464 -0.79786676
0.67365915 0.55044687 0.19257875 1.1229318 0.100806154 0.24885593 0.52378523 1.2538437
0.02980219 -0.28042096 -0.57743245 0.17574985 -1.4173464 0.5935868 0.023619091 -0.5932375
-0.2628847 -0.5324178 1.16685 0.25348476 -1.1957016 -1.2848257 -0.37135306 -0.52897656
-0.78420496 1.0319363 0.045871064 -0.55937344 -0.8986513 0.91863465 0.22762379 -0.093802914
0.8136865 -0.26147097 -1.033523 -0.35185754 -1.3104705 -0.9179699 0.7269879 -0.47059166
-0.5500351 0.33148664 -1.6455455 -0.9299667 -0.48325706 -2.5676253 -0.47616875 -0.7592868
1.4387755 0.3681148 -0.7579151 3.6014342 0.6566299 1.3983688 -1.581896 3.390713
0.124900065 0.64244336 1.2891937 2.625969 -3.9084713 -5.0076222 -1.4458754 2.1695974
1.5544429 1.3874098 -1.8913901 2.2543473 -0.81627136 1.3098543 1.5492367 -1.5573626
-0.66275907 -0.34693953 0.1556254 2.9402547 0.16354358 -1.0730643 0.7244458 -3.0577054
-0.029444542 0.85924965 0.065763205 -0.12796916 -0.30957943 0.017951269 -0.5657768 0.75992614
0.3074819 -1.0346771 0.14387694 -0.12698565 -0.3240984 -0.29576927 -0.76514405 -0.9831942
1.5823424 -0.53123605 -1.7179868 -0.904062 -2.1095223 -0.30508298 0.23517114 -1.8823019
-0.57654303 -0.17627867 -1.9789314 -0.7348873 -0.3174896 -0.961309 0.089177825 -3.9401388
-0.18762207 -0.34393406 -0.53585845 0.13750821 0.15311854 -0.8680353 -0.91734505 1.3354516
-0.40983966 -1.9534272 -0.1630524 0.44097 0.14815477 0.4851312 -0.46551472 -0.9421817
-1.4790983 -0.66649467 0.1396242 -0.44905147 -0.77064824 0.6868621 0.6203718 -1.6196293
-1.6405941 0.47641027 -1.016481 0.9311638 -0.41093367 -2.3512135 1.6048602 1.6439534

w_r.0.weight f4 [64, 9]
00000000: 58c4 483f a96a 823d cbe5 893f 8b4b f8be
00000010: 06ee 26bf 60e2 063d 4833 cbbe 7170 96be
00000020: fba1 afbe 4d3d 473e 8dce 81bc fa0e 8dbf
00000030: 53de f2be 84f4 09be dbdf c6bd def5 e1bd
00000040: 42c6 83be 55c2 26be 3feb 0b3d fd61 8a3b
00000050: c679 6ebe 868a 62be a31f fbbd 0281 a1be
00000060: 874e 79be dfe1 193e 67a1 933c cb09 49bf
00000070: 888a 063f 29c2 d2bd a8e9 19be 669b 92be
00000080: dbca 2bbe f9a9 01bf 8a32 3dbe fc3f b6be
00000090: 0fdc cb3d 5a3d cebc 1262 a0be 932a 16bd
000000a0: 7676 b9be 5075 1abe dd4a e7bb e520 98be
000000b0: 6fe2 7dbe 7d5a 593f f937 0d3f 868e 65bf
000000c0: 572a 4d3f 9a7a 03bf 30b3 673e de47 80be
000000d0: 19b7 f3be 23e3 36bf fc4c 8fbd 7b9a 673f
000000e0: c7b7 b63c 3c12 723d f75c d33d 18eb 54be
000000f0: 5ac5 0d3e 04fb a3be c8c9 cd3d 2ac2 4fbf
00000100: e3cf cabe 4e10 e5bd a533 96bd c020 bbbe
00000110: 0077 563c 107f c6be 8393 5dbd 0d23 bbbd
00000120: 14e2 81bf 2f71 053c 7da4 3e3f 4856 30bf
00000130: fd83 9e3c c6a7 ee3d 5119 b9be adc2 11bf
00000140: a489 03bf 169c 2d3f 9f05 ef3d 3724 4a3f
00000150: 762c 88bd 732c 3dbf de28 2f3e 0798 eebe
00000160: 9691 7fbf 58fe fcbe c4cf f7bd 4175 35bc
00000170: 9b33 d23c 6f3c bdbe 4c59 bebe 2b77 3bbd
00000180: 5ab6 1d3d 530d dfbe b3c2 5bbe 1218 ea3c
00000190: ec23 8bba e0a9 f23d 91a8 d8be 2939 1cbf
000001a0: eac6 943e 0d4a b8bd 3b3f dfb9 7616 d7bd
000001b0: 5e6d 14be d6f6 edbc 5397 5dbe 6ef8 92be
000001c0: 7054 96bd f81c 43be aeeb a9be 2688 223e
000001d0: 4050 5a3e 6989 f2be 9dc9 65be a1dc 65bf
000001e0: e448 973f d38a 81be a85e 01be a795 11bf
000001f0: 1787 b3be 1910 53be eda9 37bf a44a ee3e
00000200: 3392 72bf ab85 9cbf cad8 69bf 4b98 62be
00000210: 1474 f4be c1ab 64bf bdaf f9be 850a fbbe
00000220: 2105 f1be f4eb 59bd eb5a 423d a078 b0be
00000230: 8fd6 89be c839 06bf db9c d8be fcb8 adbe
00000240: bbc1 37be b64b 013e c72e 4c3c 41e9 213b
00000250: 4148 bfbe 5647 48bb b1fa fa3d c41d 743c
00000260: 474f e33c 8323 6fbf c3ec dd3e a6c2 84bf
00000270: cb59 d13f 6bf4 23be 00d7 23bd db00 babe
00000280: 7fb6 e7be def6 29bf 4617 1a3f b641 a03f
00000290: 2a03 e63c ad3b 563c 769a 55be fa2f 9cbe
000002a0: f181 c3be f7bf d8be 751e 9e3d d9f7 f93e
000002b0: 4a72 90bf fbce 8c3d ae60 0b3d dec1 2fbf
000002c0: 76ef 6a3e 1bf8 1fbf 4d22 14be c375 c9be
000002d0: 1699 1c3e 98e7 cbbe 4b17 973e d7dc dbbe
000002e0: 903e 243d c097 30bd 29a9 e2be fff5 c9be
000002f0: 6dc9 70be f372 9f3f 20c3 393f ca29 693f
00000300: 877d 073f a3cf 2ebf 6bdc 083d b674 fbbe
00000310: 9b06 1abf 6517 8cbe b809 683f 65d1 473f
00000320: 92e0 c33f 1bcb 163f de03 17bf f429 a13e
00000330: a4c5 0fbf 8430 30bf 80ca 18bf f8b8 52be
00000340: cbe0 043f 0199 e43f d886 b33d 99c9 f6be
00000350: 56ce 2b3d e26f 5ebe 8328 02bf 7546 41be
00000360: 3c72 bf3f 312b fd3e 3231 693e e68d b63e
00000370: 687c f0be 2b84 44bc 2e13 07bf 7c95 0ebe
00000380: 4b20 9fbe 70df 1ebf 6d90 613e 76b8 73bf
00000390: 911e 903e a1c7 20bf 2890 13be 5664 0dbf
000003a0: 0c2c f2be 019c 0dbf dd8f 833f 0fe7 983e
000003b0: 9e6e a43f 4142 433f de11 bdbe 40db 4bbd
000003c0: 9946 88be 3485 fcbe 0c93 c5be f107 c3be
000003d0: 145e 88bd 3f3f 8dbf bb65 823e 7ea5 973e
000003e0: 000f c4bc c037 adbe 6fed d8bd eb9d afbd
000003f0: d0c5 a33d 8196 493f 13c4 49be 4602 51be
0.78424597 0.06368 1.0773252 -0.48495135 -0.65206945 0.03293073 -0.39687562 -0.2938266
-0.3430327 0.19456978 -0.015845561 -1.1020195 -0.47435245 -0.13472182 -0.09710666 -0.110332236
-0.25737196 -0.1628507 0.034159895 0.004223107 -0.2328864 -0.22123155 -0.122618936 -0.31543738
-0.24346362 0.15027569 0.018021299 -0.7853057 0.5255513 -0.10290939 -0.15030539 -0.28634185
-0.16776602 -0.5064998 -0.1847631 -0.3559569 0.09954082 -0.02517574 -0.31324822 -0.036661696
-0.3622319 -0.15083814 -0.007058485 -0.29712597 -0.24793409 0.849037 0.5516353 -0.896706
0.8014273 -0.5135895 0.22626948 -0.2505483 -0.4760063 -0.71440333 -0.069971055 0.90470093
0.022304429 0.05909942 0.10320466 -0.20792806 0.13844815 -0.32027447 0.10048252 -0.81155646
-0.3961173 -0.111847505 -0.07334069 -0.36548424 0.013089895 -0.38768816 -0.054095756 -0.09137545
-1.0147119 0.008144661 0.7446974 -0.68881655 0.019350046 0.11653094 -0.36152127 -0.56937677
-0.513819 0.67816293 0.11670994 0.7896151 -0.06649105 -0.7389595 0.17105433 -0.46600363
-0.9983152 -0.494128 -0.12100175 -0.011075319 0.025659373 -0.3696017 -0.37177503 -0.045767944
0.038503982 -0.43564853 -0.2146099 0.02857593 -0.0010615564 0.11848807 -0.42316106 -0.6102472
0.2905801 -0.08998499 -0.00042580985 -0.10502331 -0.14494845 -0.029048365 -0.21639757 -0.28705162
-0.07340324 -0.1905402 -0.33187622 0.15872249 0.21319675 -0.4737046 -0.2244019 -0.8978978
1.181912 -0.25301227 -0.12633765 -0.56868976 -0.35064003 -0.2061161 -0.7174366 0.4654132
-0.9475433 -1.2228292 -0.9134642 -0.22128408 -0.4774481 -0.89324576 -0.4876689 -0.49031463
-0.47074226 -0.053203538 0.047449987 -0.3446703 -0.26921508 -0.5243192 -0.4230717 -0.33930194
-0.17944996 0.12626538 0.012462324 0.002470568 -0.37359813 -0.0030560098 0.12254847 0.014899675
0.027747763 -0.9341356 0.43344697 -1.0371902 1.6355528 -0.16011207 -0.03999996 -0.36328778
-0.4525642 -0.66392314 0.6019176 1.2520053 0.02807768 0.013075751 -0.20859703 -0.30505353
-0.38185075 -0.42333958 0.07720653 0.48821905 -1.1284878 0.06875416 0.034027748 -0.6865519
0.2294291 -0.62487954 -0.1446621 -0.39347658 0.15292773 -0.3982513 0.2950996 -0.42941925
0.040098727 -0.04311347 -0.44269684 -0.39445493 -0.23514338 1.2456955 0.7256336 0.9107939
0.52925915 -0.6828558 0.033413332 -0.4911248 -0.6016633 -0.273616 0.9063983 0.78053886
1.5302908 0.58903664 -0.58990276 0.3147732 -0.5616095 -0.6882403 -0.5968399 -0.20578372
0.51905507 1.7859193 0.08765954 -0.48200682 0.041944824 -0.21722367 -0.50843066 -0.18874533
1.4956737 0.49447015 0.22772673 0.35655135 -0.46969914 -0.011994402 -0.5276364 -0.13924211
-0.31079325 -0.6205969 0.2202775 -0.9520334 0.2814832 -0.6280461 -0.1441046 -0.55231225
-0.4729923 -0.5531617 1.0278279 0.29863784 1.2846258 0.7627297 -0.36927694 -0.04976964
-0.26616362 -0.49320376 -0.3858875 -0.38091996 -0.06658569 -1.1034926 0.2546824 0.29618448
-0.023932934 -0.33831596 -0.10592162 -0.08575042 0.07996714 0.78745276 -0.19703703 -0.20411023

w_r.0.bias f4 [64]
00000000: d428 a5bd 9e5f 98bd d485 29bd ee7c 04bf
00000010: c912 9cbc ef54 a1be f59e 99be 0db9 55be
00000020: b918 9dbe 5dd2 fbbe 0350 80bd bcec 113d
00000030: e05e 53be c93b e8be d890 07bf 2198 62be
00000040: a7b1 c53d 8ec6 28bf 18cf b63d c274 16bf
00000050: 532e d6be 85bc 45bf e6b6 77bf 7bb7 e4be
00000060: 80d9 4fbe afc1 bcbd 8952 28bf 7a02 523e
00000070: 30a1 abbd e2fe 9bbe 8f67 b6be bb59 003e
00000080: dcc4 033e f693 2fbf 1780 103b 438f d43e
00000090: 538e 03bf 73c0 34be 9fa7 88be ecf3 f3be
000000a0: bc39 03bf d476 a0be b519 a2be d4da 51bf
000000b0: e582 cebc ea71 d2bd 0eea 3ebe 805a a9be
000000c0: 4b66 27bf 543f 80be 75ac 01be 0032 0fbf
000000d0: 02fe b6bd b16b 44bd 736c 0fbe 209e 08bf
000000e0: 6738 913d e2b4 cabe cc55 c2be e176 93be
000000f0: bdd8 98be bfce e6be 98b3 1bbf b45d 9fbe
-0.08064428 -0.074401125 -0.041387394 -0.5175313 -0.019051926 -0.31510112 -0.30004087 -0.20871373
-0.30682924 -0.49183932 -0.06265261 0.035626158 -0.2064166 -0.45358112 -0.5295539 -0.22128345
0.09653025 -0.6592797 0.08926219 -0.5877191 -0.41832218 -0.7724078 -0.96763456 -0.44671234
-0.20297813 -0.0921663 -0.6575094 0.20508757 -0.083803535 -0.30467898 -0.35625884 0.1253423
0.12868065 -0.68585145 0.0022049004 0.4151555 -0.51389045 -0.17651539 -0.26690385 -0.47647035
-0.5125997 -0.3134066 -0.31660238 -0.8197453 -0.0252089 -0.10275634 -0.18643972 -0.3307686
-0.6539046 -0.25048316 -0.12663443 -0.5593567 -0.08935167 -0.047954265 -0.14006214 -0.5336628
0.07090836 -0.39591128 -0.37956083 -0.28801635 -0.29852858 -0.4507961 -0.60820913 -0.31126177

w_r.2.weight f4 [32, 64]
00000000: 40d8 f3be 1e7c a4be 1463 c73d 0a25 b43e
00000010: e1ed 18bd 39d4 a03d 0ee7 aebf d9d0 febe
00000020: 329b 96bd 2527 11be b055 42bd bbbe 33bd
00000030: d21d b6bd 9a3d d3bd ddcc b13d 6edf 62bb
00000040: 5daa 5d3c c9f8 a9bd 3d4d debe e891 45be
00000050: 157c ffbd 33f0 0e3e b33c 05bf 16df 0bbf
00000060: ec22 acbf 57da eebe 5e94 0dbf 4dcd 113d
00000070: 71eb 82be 38d0 97bc 43a5 00be 57c0 34be
00000080: 81ea 0ebf 7350 803e 9c50 e0bf 1bd6 54be
00000090: 20bb 503c ad5d c5be da4a 28be abc3 bcbe
000000a0: 935c 2b3d fc2f 9ebe a449 8bbd 7640 cc3d
000000b0: bcd9 84bf 1d7a 20be af2d 83be 4806 c33d
000000c0: f446 9fbe 7c56 b23e c244 64bd e676 59bf
000000d0: a552 9ebe 15c7 103e e279 6cbd 8fd4 f8bd
000000e0: 278b 033e c895 ba3d bf54 94be c42a acbf
000000f0: fab7 b03e 591c a5bd e18d 2a3f c984 82bd
00000100: 25e5 2ebf f6ac 18be 2a5e d4bc bd43 213f
00000110: f343 24bd e5b0 5fbe 14ad f23d 648c 78be
00000120: 1a63 38be b5ea 50bf 96da 013c 15b7 b3bc
00000130: ce6a cebd 7072 143d 9693 713e 4e7a 5ebf
00000140: a6cd 403e f8dd 073e a47d 353f e146 94be
00000150: 90f5 03be 76a8 873d 7f4e e83e 7321 4fbd
00000160: decb 38bd 15ff 03bf e4e7 b53d a88b 41bd
00000170: 580b 19bf 670c 83bd 7713 ffbd e005 343c
00000180: 9a7b 40bd 54cb 97bd cc46 20be 7b2c c43d
00000190: cd79 043d 66ef febe f4a5 44bf 529c 333e
000001a0: 57cc e5bd 531e 0cbe ca46 f93d fee2 41bf
000001b0: 12e0 8ebd 8418 303d 453d fbbd 8864 be3c
000001c0: aad5 91be 7eb0 953e 65ca dcbd 5d29 b3bf
000001d0: e936 ee3e 5cfb b53d 9a15 dfbd 8031 b6be
000001e0: 53a8 57bd 8a25 713a 9ef7 f3bd 623a 77bf
000001f0: 5e23 aabe 4c6b 39be a7d5 8c3f 0071 7ebb
00000200: 7545 103f d2e5 e93c fca9 fa3d a19c b9bd
00000210: 4343 2fbd c502 aabd 701a 98be 7e27 b4bd
00000220: 6ca4 253e d8cc aebe 9718 bdbc 5725 26bd
00000230: 60bd 503c 3ec1 a2bd f209 23bf 1b02 d7be
00000240: 947c 183e b541 43bf 2614 f7bd b2be 09bd
00000250: 7a4c 613e 43ba 9fbe ce07 d2bc bce1 d53c
00000260: d418 87bf 4ce9 6fbf 017f a43d dfa7 e3bc
00000270: c8a8 c4bd 7942 dd3c 3004 0b3e d668 c03d
00000280: 487a 08be e75b 0e3e e6de 90be 5de2 98be
00000290: 41f0 16be 32c3 a1bf 21f4 aabe a8d0 90bf
000002a0: 97b1 e0bd d19f 4ebd bbd3 ea3c f1b0 83bd
000002b0: afbf 1fbf 2909 253d 360f 10be 9458 fe3d
000002c0: c803 27be b3ea a8be 521f 2fbe 5f6f 9b3d
000002d0: 7cf6 d93d 70e9 353e d9ef 1bbc 8e72 273e
000002e0: 8668 97bd d305 a93c 6c6d f9be dfd8 583e
000002f0: 59bf dc3e 02b0 c7bd 74cb e63d d863 32bd
00000300: dc15 433e 95d7 11be 9d34 37bd 637b 40be
00000310: 40ad ba3d 2d60 973e f564 9dbf b213 9bbf
00000320: 0380 c7be fcc9 89be 6fe9 86bd d29f 1c3d
00000330: 988c 92bd 980c 5dbe 9b75 25bf 9001 14bc
00000340: c95b 8abe af0a 16bf b496 213e b514 99bf
00000350: 0014 923d 86ef 963e e680 1940 3edb 84bf
00000360: b74d e03d 30a7 75bc 047d d1bc e395 abbf
00000370: 5a83 353f 3c59 4abd 25a3 fbbe 066d f23d
00000380: 865f 1fbd 620b dbbc 738b 57bf 26cd d53e
00000390: 8f44 c5bd 0cc9 9bbf 9d74 503f 99ae e9be
000003a0: e5a2 13bf e2a3 96be b915 0cbd c35b c6bd
000003b0: 413d 353e 117e 1e3e d72f 113e 8079 83ba
000003c0: 7652 ac3e 8667 fabc 7ed2 40bf d015 9f3f
000003d0: ab4b c0c0 079d 253e 5de3 0f3e 1169 98be
000003e0: a7d0 113e bcf9 89bd 5813 91bf 6771 a1be
000003f0: 110e 55be 0208 f7bc 1bf9 febd 3cf7 6d3d
-0.47625923 -0.32125944 0.097356945 0.3518451 -0.037336234 0.07852978 -1.3664262 -0.49768713
-0.0735382 -0.14175089 -0.047445 -0.043883067 -0.088924065 -0.10314484 0.08681653 -0.0034618038
0.013529387 -0.08299405 -0.43418303 -0.1929394 -0.12474839 0.13958816 -0.52045745 -0.5463728
-1.3448157 -0.46650955 -0.55304515 0.03559618 -0.25570253 -0.018531904 -0.12563042 -0.17651497
-0.55826575 0.25061378 -1.75246 -0.207848 0.012739927 -0.3854803 -0.16434804 -0.36868033
0.041836333 -0.30895984 -0.06801155 0.099732324 -1.0378947 -0.15671583 -0.2562079 0.095226824
-0.3110882 0.34831607 -0.055729635 -0.8494705 -0.30922428 0.14138444 -0.057733424 -0.12149917
0.12846051 0.091106 -0.28970906 -1.3450551 0.34515363 -0.080620475 0.6662274 -0.06372983
-0.68318397 -0.1490973 -0.025923807 0.62993985 -0.040103864 -0.21844824 0.11849418 -0.24272305
-0.18006554 -0.81608135 0.00792565 -0.021937886 -0.10078965 0.03624195 0.23591456 -0.8690537
0.18828449 0.13268268 0.7089484 -0.28960326 -0.12886643 0.06623928 0.45372388 -0.05056901
-0.045116298 -0.515611 0.0888212 -0.047252327 -0.59782934 -0.0639885 -0.124548845 0.010987729
-0.046992876 -0.07411829 -0.15652007 0.095787965 0.03234272 -0.49792022 -0.76815724 0.175401
-0.11220615 -0.13683443 0.12171705 -0.7573699 -0.06976332 0.04299213 -0.122675456 0.023241296
-0.28483325 0.29236215 -0.10780791 -1.3996998 0.46526268 0.088858336 -0.10892792 -0.3558464
-0.05265076 0.0009199014 -0.119124636 -0.9657346 -0.33230108 -0.18107337 1.1002702 -0.0038824677
0.56355983 0.02855197 0.12239453 -0.09063078 -0.042788755 -0.083013095 -0.2970767 -0.08796595
0.16176003 -0.34140658 -0.023083014 -0.040562954 0.012740463 -0.07947014 -0.6368705 -0.41993794
0.14891273 -0.76272136 -0.1206439 -0.033629127 0.2200183 -0.31196794 -0.025638487 0.026108615
-1.0554452 -0.9371536 0.080320366 -0.027790008 -0.09602505 0.027009236 0.13575816 0.09394996
-0.13327897 0.13902245 -0.28295058 -0.298602 -0.14740087 -1.2637694 -0.3338938 -1.1313677
-0.109713726 -0.05044538 0.028665414 -0.06430233 -0.6240186 0.04029194 -0.14068303 0.12419239
-0.16310036 -0.3299156 -0.17101792 0.07589602 0.10642716 0.1776483 -0.009517633 0.16352293
-0.07392983 0.02063266 -0.48716295 0.2117648 0.43114737 -0.09750368 0.11269274 -0.04355225
0.19051307 -0.14242394 -0.04472791 -0.18797068 0.09115076 0.29565564 -1.2296435 -1.2115386
-0.38964853 -0.26911914 -0.06587493 0.038238354 -0.071557224 -0.21586835 -0.64632577 -0.009033576
-0.27023152 -0.5861005 0.15780145 -1.1959444 0.07132721 0.29479617 2.3984923 -1.0379407
0.10952323 -0.014993474 -0.025572307 -1.3405117 0.7090355 -0.049401507 -0.49147907 0.11837201
-0.038909458 -0.026738826 -0.8419716 0.41758078 -0.09632217 -1.217073 0.8142794 -0.4564102
-0.5767043 -0.29421908 -0.034200404 -0.09685471 0.17699148 0.15477778 0.14178406 -0.0010030717
0.33656663 -0.030566942 -0.75321186 1.2428532 -6.009237 0.16173182 0.14051576 -0.2976766
0.14239751 -0.06737086 -1.1334028 -0.31531832 -0.20806147 -0.030155186 -0.12449857 0.05809711

w_r.2.bias f4 [32]
00000000: 3c4b 6c3e 2939 a5be d8e6 8d3e 23ce a6bd
00000010: 7fca 24be 9e66 1fbe 9aea 18bd 08ad 2fbe
00000020: 37e9 d63d 47ba e73d 4717 96bd adc0 a6be
00000030: 9a89 8bbf 65bf 8dbe e4cd 65bf 26de 24bf
00000040: e344 38be 0735 27be 2ff1 673f 24d0 203f
00000050: 621d bf3e 7271 a4bd be3a 76bd 324a 33bd
00000060: 2006 61be 7b2a 873e f0cb 96be c98d 02be
00000070: 2056 343e dcaa 4c3d 39c9 883f 2bf2 ccbe
0.23075575 -0.32270172 0.27715182 -0.08144786 -0.16092871 -0.15566489 -0.03733311 -0.1715585
0.10493701 0.113148265 -0.073286586 -0.32568875 -1.0901368 -0.27685085 -0.8976729 -0.6440147
-0.17995028 -0.16328822 0.9060239 0.628176 0.37327105 -0.080294505 -0.060114615 -0.04377193
-0.21974993 0.26399598 -0.29452467 -0.12749399 0.17610979 0.04996763 1.0686408 -0.4002851

w_h.0.weight f4 [64, 5]
00000000: fac6 0e3e f185 003d 99eb 96bf 5bb9 f0bf
00000010: 54ac 5bbf 0b0e 743e 766a b2bd 9e23 8c3e
00000020: 58b9 ad3f a718 18bf 6a66 4bbe 13c3 2ebf
00000030: 4373 06bf 9e03 9cbf 2e58 c1be 6774 75be
00000040: e0b7 493f a6bc 52bf ce07 f0be d804 b5be
00000050: 6f74 7ebd 2249 cbbe c778 abbf c83b 893f
00000060: d977 97bf 7593 bebe fc3a 4bbe 2a05 dcbf
00000070: e7e7 213f 4301 a0bf 2989 cbbe b66d 0f3d
00000080: f093 b6bf 3d89 89be 15ad c7bc a0b2 f1be
00000090: d6b6 d0bd b282 9abf 284d 923e b829 0abf
000000a0: 3c4a 93bc e180 16bc 989b c9bd b710 e1bd
000000b0: 729d 26be 61d5 a1bc 050f 33bd 9d99 073d
000000c0: ba80 45bb f30e 27be e95e b73e 37c5 a6be
000000d0: 4528 243f 8e67 40bf fdd3 30be b9e0 14be
000000e0: 02eb 64be 506d efbf 9a4a b9be e56e 94bf
000000f0: 400f 423e 17f7 463f 7f99 833e 15d1 693f
00000100: 1286 81bf 75d7 19bd 53bd 84be 5855 70bf
00000110: b8ed b5bf 6c75 20bf 5d50 c93e 1a8c 513d
00000120: f589 943f f62d 3b3e e585 0fbf 6e2f a7be
00000130: 6aab 613e fa6e b7bf ef3d 71be 82d7 89bf
00000140: 0925 0bbf 34fc c43e 83ac 103f eba0 883f
00000150: 66a7 29bf bcd8 71be d82f 86be 62bf 71bf
00000160: 39ad 95bf 16d8 07be 4784 a63e fe3e f03e
00000170: eb30 46bf 0ab1 0d3f 1674 cabe 1486 1fbf
00000180: 5bbc 56be 0bac aabe 4920 f9bf 8dde 4abf
00000190: d6b8 bebe 4c32 1cbe f87b 58bf 6b6d d33f
000001a0: d631 92bf cae9 423e 6255 49be a21c c03f
000001b0: 245f e6be c2a1 98bf c94c 173f 649d 223f
000001c0: bc9e 423f 6f80 163f 43ed a8bf 7ae8 b8be
000001d0: 5945 0bbf 9fa5 333f 0e71 6cbf fb03 55bd
000001e0: 2584 ef3e b4e1 ae3e bb31 8a3f 6f69 26bf
000001f0: b7a7 0cbf 7615 903d 02fa 1d3e 18a3 8cbe
00000200: 679e 903f a3fe 13bf bd23 eabd f1e8 9a3d
00000210: b87c b8bd 6259 b13f 2a6b 8ebf f4de 97be
00000220: a7b5 b93d 68a6 94bf 8b9d b9bf 6d4a 9abf
00000230: 7f39 85bc a4fe f1be 4f6a ce3f 3ef3 7fbe
00000240: 3d5d 6cbf b6f6 d6be 9b68 d4be 61ea 86bf
00000250: 56b4 23bf eece 83be d3f9 a73b c72e 453b
00000260: 5c54 67bf d820 05bf cf33 bfbe 012f d53d
00000270: cd25 25be 7c7b a13f 210c 73bf 8b4e 22bd
00000280: 8875 173d fcf0 92bb 5979 2c3e 4729 4cbd
00000290: 943c e9bd 6a21 3e3f 8054 053d d069 9e3f
000002a0: b6fc b23e d5b6 34bf e9a4 f4bc 82da 2f3e
000002b0: 6577 ad3f 9e3c 28bf fa2b b9be 641a febe
000002c0: 4106 c4be 36b7 adbf f9c4 78bf d4b6 a6be
000002d0: fd29 43be a242 d1be 4de8 91bf 93fb 553e
000002e0: b61c adbe f78e 29bf ddb8 0d3d 2d16 76bf
000002f0: 36cb fc3e 1ed8 9ebf 09df 533f a814 003e
00000300: bd26 5e3f 6410 803f 2bc0 a7be 314d 2c3b
00000310: f8c8 ff3b 98a8 8fbe ef25 b8bc 8925 e2be
00000320: d458 61be 9d43 28bf 60af b6be 13f2 e1bf
00000330: b016 5cbf 50b9 bcbd 40fd a83e 0a24 803f
00000340: 6b26 b43f 2382 48bf d941 04bd a785 bebb
00000350: 7c3d 34be 8a4f 47be 269d 24bf fc69 d23d
00000360: 00e9 f83d 7213 5d3f baef 803f cf82 cbbe
00000370: 041d 033f b296 1a3d 60ef 873f 4b86 73bf
00000380: f7bf 8abf 111e 113c 782c 5f3d e68c 47be
00000390: d156 313c 1964 28bf c82a a33c 70b0 ed3e
000003a0: f527 993f 5d44 343f 5ffa 31bf 9388 94be
000003b0: f21b a7bd 4435 743f 9fc5 803f dfaf 1dbf
000003c0: 7026 adbe 713e 4c3e a415 3ebf 71ce 703f
000003d0: 1644 afbe 241b 353e 6aaf 91bd 2470 ba3f
000003e0: 75a0 853f 51a5 41bf 8eda 913e e896 ae3e
000003f0: 97f0 e83f 35d1 5fbe dbfb c9bf 371e 963e
0.13943091 0.031377736 -1.1790649 -1.8806566 -0.85809827 0.23833482 -0.08711712 0.27370924
1.3572187 -0.59412616 -0.19863287 -0.6826641 -0.52519625 -1.2188604 -0.37762588 -0.23970185
0.78796196 -0.82319105 -0.46880955 -0.35355258 -0.06212276 -0.39704233 -1.3396233 1.0721369
-1.183345 -0.37221876 -0.1984672 -1.7189076 0.6324448 -1.2500385 -0.39753082 0.035016738
-1.4263897 -0.26862517 -0.024374524 -0.47206593 -0.10191123 -1.2071135 0.2857449 -0.5396991
-0.017979734 -0.009186001 -0.0984413 -0.10989516 -0.16270998 -0.019755067 -0.043715496 0.03310548
-0.0030136541 -0.16314296 0.35814598 -0.32572338 0.64123946 -0.7515801 -0.17268367 -0.1453885
-0.22355273 -1.8705235 -0.3618973 -1.1596342 0.1895113 0.7772078 0.25703046 0.9133466
-1.011904 -0.03755899 -0.25925693 -0.93880224 -1.4213171 -0.6267917 0.39319125 0.051159002
1.1604601 0.18279251 -0.5606368 -0.32653373 0.22038046 -1.4330742 -0.23558782 -1.0768893
-0.54353386 0.38473666 0.5651323 1.0674108 -0.66271055 -0.23617834 -0.26208377 -0.9443265
-1.1693488 -0.13266024 0.32522795 0.4692306 -0.7741839 0.55348265 -0.39541692 -0.6231396
-0.2097029 -0.33334383 -1.9462978 -0.79245836 -0.37250394 -0.15253562 -0.8456416 1.6517767
-1.1421459 0.19034496 -0.19661477 1.5008738 -0.44994462 -1.1924365 0.5910154 0.6352141
0.7602346 0.58789724 -1.3197407 -0.36114866 -0.5440269 0.7017459 -0.9236001 -0.05200575
0.46780506 0.34156573 1.0796427 -0.6500463 -0.5494341 0.07035343 0.15427402 -0.2746818
1.129834 -0.5781042 -0.11432598 0.07563961 -0.09008163 1.3855402 -1.1126454 -0.29662287
0.090678506 -1.1613283 -1.4501203 -1.2053963 -0.016262768 -0.47264588 1.6126193 -0.24995133
-0.9232977 -0.419851 -0.41486058 -1.0540277 -0.63947046 -0.25743812 0.005126217 0.0030087696
-0.903631 -0.5200324 -0.37344214 0.10409356 -0.16127701 1.261581 -0.9494038 -0.039625686
0.03697732 -0.004484294 0.16843165 -0.049844053 -0.113885075 0.74269736 0.03255129 1.2376041
0.34958428 -0.7059148 -0.029863792 0.17173198 1.3552061 -0.65717494 -0.36166364 -0.4962951
-0.3828602 -1.3571537 -0.97175556 -0.32561362 -0.19058986 -0.4087115 -1.1399018 0.20896749
-0.33810967 -0.6623377 0.034600127 -0.9612759 0.49373788 -1.2409704 0.827622 0.1250788
0.8677786 1.0005002 -0.327638 0.0026291127 0.0078059398 -0.28058314 -0.022479026 -0.44169262
-0.22006541 -0.6572817 -0.35680676 -1.7652 -0.8597212 -0.09215033 0.33005714 1.0010998
1.4074224 -0.7832357 -0.03228936 -0.0058142724 -0.1760158 -0.19463935 -0.6430229 0.10274121
0.12153816 0.86357796 1.0073159 -0.39748237 0.5121615 0.03774137 1.0619926 -0.9512679
-1.0839833 0.008857266 0.054485768 -0.19487342 0.010823921 -0.65777737 0.01991786 0.46423674
1.1965319 0.70416814 -0.6952266 -0.29010448 -0.08159627 0.95393777 1.0060309 -0.61596483
-0.33818388 0.19945695 -0.7425177 0.94065005 -0.34231633 0.17686135 -0.07113536 1.4565473
1.0439593 -0.7564288 0.28487056 0.34099507 1.8198422 -0.2185715 -1.5779985 0.29319927

w_h.0.bias f4 [64]
00000000: 5773 efbe 911d 1dbf a1c2 3dbf 7ef3 49bf
00000010: 5e49 9dbf c7b7 97bf ffa1 85be f809 b1be
00000020: 3067 55be dea8 50be a718 823c c562 4ebf
00000030: d007 acbf 8ca3 92bb 70f6 5ebe 03a7 6fbf
00000040: a22c 85bf 4256 3ebf 8b5f 45bf d8c2 a7bf
00000050: 09db b3bf 7640 41bf a85b c2bf 80d4 61bf
00000060: 521e 51bf c714 5cbe 0f6e 3abf 7544 86bf
00000070: 8a3e 9abf ad88 afbc 3b6d 14be 2184 47be
00000080: efd8 99be 5cf4 a9bf e419 2bbf f26b 5cbf
00000090: 8c7a 81bf 32cd 8fbf be58 85bf 7c71 40be
000000a0: e067 97bf 0587 2ebf f4f6 8fbe 1039 c0bb
000000b0: add6 36bf 6807 97be 3596 67bf b7ca 37bf
000000c0: 48cd cfbe 66a6 57bf 444c b2bf 2d33 69bf
000000d0: ce12 dbbe d6a6 89bf b044 8fbf 4e70 d3be
000000e0: 0bf3 79bf 5e58 d9bc 7e7b 93bf 22e6 19be
000000f0: d6e7 f5be d0d6 44bf 16db cabf 9dd6 56be
-0.46767685 -0.6137324 -0.74125105 -0.78887165 -1.2288015 -1.1852959 -0.26100156 -0.34577918
-0.20840144 -0.20376918 0.015880896 -0.8061946 -1.3439884 -0.0044750627 -0.21773696 -0.93614215
-1.0404246 -0.7435037 -0.7709891 -1.3106337 -1.4051219 -0.75488985 -1.5184221 -0.88214874
-0.8168689 -0.21492301 -0.72824186 -1.0489641 -1.2050335 -0.021427477 -0.14494793 -0.19483997
-0.3004832 -1.3277698 -0.6683638 -0.8610221 -1.0115523 -1.1234496 -1.0417707 -0.18793291
-1.1828575 -0.68174773 -0.28118098 -0.0058661774 -0.7142132 -0.29497838 -0.9046357 -0.71793693
-0.40586305 -0.8423828 -1.3929524 -0.91093713 -0.42787784 -1.0754039 -1.1192837 -0.4129662
-0.9763648 -0.026531395 -1.1522062 -0.15029195 -0.4802844 -0.7689028 -1.584811 -0.20980306

w_h.2.weight f4 [32, 64]
00000000: fff1 093e ce5a 19be 750f bbbf e058 c2be
00000010: 6cff 903d 74fd 5e3e e7de 113f 1c60 d13e
00000020: d0ad 92bd e77d f8bd f314 32bf e03a f4be
00000030: 1f5b ecbf fa9f 95bf a2ec 473e 3fcf 0740
00000040: 40ed 9ebf 0de3 3b3e 3a13 7cbe d92c ba3e
00000050: 0089 8f3d 020a db3f a6c8 6bbe 93f5 12c0
00000060: 4ca2 82bd bb72 973d 306b 003f f23e eb3f
00000070: aef8 0f3f 2a32 50bf 5b85 253d 4250 8dbf
00000080: c400 37bf b3a3 d53d 0d28 29c0 1fce 293f
00000090: dd97 d0be e155 54c0 9431 103f d24e 003f
000000a0: 7962 0d3f 3f15 ec3d dc0a 55be e850 6f3a
000000b0: 4aa8 9b3e c6af 6d3e 91b8 a53d 2eb7 413f
000000c0: 8efb 8d3f 30d2 1fc0 8ff0 073f 13af eebe
000000d0: 5e26 c1be 639b e33e 17e1 59c0 3447 9ebf
000000e0: eb2c 5abe 004e af3f b8b4 4e3e 8902 dfbf
000000f0: 0d04 b4bf 4815 f2be 9b82 783d 3619 453f
00000100: 20b4 89be 7b2b 103f 0c0d 3ebf 23c3 54be
00000110: debb c3bf eae3 76c0 d1b1 833e 0610 c03e
00000120: b7da 963c 596a 963d 2a5a e33e 0172 c0bf
00000130: c366 203f 0e83 10bf 4f42 48bf 46fc 41bf
00000140: 1caa b5be 12f0 7a3f 73f6 cf3d 984a a93e
00000150: 6c0c 3fbf cc88 20bf 6d40 ca3e bfea 54bf
00000160: 2bf7 653c 3834 643e 60da 3abe 5fad be3e
00000170: 1e30 29be 8200 36bd bac1 1cbf bec5 fa3e
00000180: d6f4 ad3d 760b 8bc0 210d ac3d c4e9 46bf
00000190: 75ea 50bf bbdb c53e 7563 efbf 4cf5 d3bf
000001a0: 0ed0 ac3d 2fd5 413e 2192 47bd e682 06bf
000001b0: 8f01 aa3f a91c dbbd 7414 5c3f 8229 ebbd
000001c0: 87f2 ebbe 9178 debf 5763 5fbe 4a7c 58be
000001d0: 9ce7 ccbd f861 54be b267 47bf ed82 4b3e
000001e0: 3817 91be 7a80 4f3e 87b4 0fbe 1794 983e
000001f0: 23d5 d9be 5b60 623f 5493 efbe 365e c3bf
00000200: 553b 0ebf e8c4 29be f8cd 98be 4e07 093f
00000210: 7c81 a13e d419 123f 7716 c8bf f235 74bf
00000220: c770 d5bc fb31 553d 3cb1 32be ba4c 7cbf
00000230: 915d 1fc0 d459 8cbe 3c5d e33e 9043 b3bf
00000240: f901 d5be 7267 02bf 489f b8bd 9e1f dcbe
00000250: 658c 51be 87c0 12bf c685 bbbf 4137 623d
00000260: 574a 313f a778 6d3d 23d8 043f aac4 8a3e
00000270: 72bf f8be 0107 1f3f cfa1 aabf 6fdd 1a3f
00000280: 7b0d 6b3d 7449 61bf f9d0 c7be cda9 1a3e
00000290: a9e4 363e c653 cc3f 5735 eabd 7399 bdbd
000002a0: 4e15 ecbf 3720 f23e 1ed9 413e 8f2e e83e
000002b0: e640 253f a002 77bd 97aa a4bd e943 3c3e
000002c0: b0fb 2b3f ada6 d13e ade6 d0be 66ac 87bf
000002d0: 0e80 b33c dcd4 20bf 5329 05be abf2 dc3e
000002e0: 98b6 71be 701b 91bf 08ad e4be b648 2d3f
000002f0: 05b9 94bd dd31 1040 3ae9 2540 c308 5d3f
00000300: 7f2a e4bd 216e b53d 51ed 343d 8004 0abd
00000310: f6be 633c 40b8 a7bd 6e45 9a3d c02e 05be
00000320: 847b 8bbd f098 1f3d e491 fbbd 2a40 9abd
00000330: f9a3 95bd 7ccb d4bc 7f3b ddbd 07de 21be
00000340: fbbe b3bb 68b5 afbc 6d42 f4bd 5814 abbd
00000350: 64df c3bc fdfe 983c 08ec 973c bf1e 1ebe
00000360: a35b 7bbd 603b 83be 144f 3fbe 8870 03be
00000370: 452e 973d 9786 1cbe 648c f2bd 803b bd3c
00000380: a381 04bc 97e9 4b3d 1878 56be 8c49 30be
00000390: 4e29 d4bd f71a e1bd d5a9 f4bd 8504 02be
000003a0: 46ff fabd 2eb1 3cbd bb44 93bd 63af 32be
000003b0: 63f4 abbd 5607 dcbd fb43 6bbe 6f5a cbbd
000003c0: a734 a83d f209 fcbd d668 30bd b89a 743c
000003d0: cdaf a93d 8f2a 223d dfea 383b cbb3 51be
000003e0: 9e40 2b3d b876 92bd dd38 2dbd 2026 5abe
000003f0: 734d 26be 9c58 66be c64f 0dbe 6950 3c3d
0.1347122 -0.14976045 -1.4614092 -0.3795843 0.07079968 0.21776372 0.56980747 0.40893638
-0.07162058 -0.12133389 -0.69563216 -0.47701168 -1.8465308 -1.1689446 0.19523862 2.1220243
-1.2416153 0.18348332 -0.2461671 0.3636234 0.070085526 1.7112429 -0.2302576 -2.2962387
-0.06378612 0.0739493 0.50163555 1.8378584 0.5623883 -0.81326544 0.04041038 -1.1040118
-0.71485543 0.10431614 -2.6430695 0.6633014 -0.40740862 -3.3177416 0.5632565 0.5012027
0.5522838 0.1152749 -0.20804924 0.00091291824 0.30401832 0.23211583 0.08091844 0.75670135
1.1092393 -2.4972038 0.5310144 -0.46617946 -0.37724584 0.44454488 -3.4043634 -1.236548
-0.21306197 1.3695679 0.20186126 -1.7422649 -1.4063736 -0.4728186 0.06067143 0.76991594
-0.26895237 0.56316346 -0.7423866 -0.20777564 -1.5291708 -3.8576608 0.257216 0.37512225
0.018414838 0.07344503 0.44404727 -1.5034791 0.626568 -0.56449974 -0.7822618 -0.75775564
-0.35481346 0.9802257 0.10154428 0.33064723 -0.7462833 -0.62708735 0.39502278 -0.83170694
0.01403598 0.22285545 -0.18247366 0.37241647 -0.16522262 -0.044434078 -0.61233103 0.4897899
0.084939644 -4.345149 0.08400942 -0.7770045 -0.81607753 0.38644204 -1.8702227 -1.6559234
0.08438121 0.1892898 -0.048723344 -0.52543485 1.3281726 -0.10698826 0.8596871 -0.11482526
-0.4608347 -1.7380544 -0.21815239 -0.21141163 -0.100051135 -0.20740497 -0.778926 0.19874163
-0.28338027 0.20263854 -0.1403371 0.29800484 -0.42545423 0.88428277 -0.4679209 -1.5263126
-0.55559283 -0.1657902 -0.29844642 0.5352677 0.315441 0.5707066 -1.5631856 -0.95394814
-0.026054753 0.05204962 -0.17450422 -0.98554575 -2.4900858 -0.27412283 0.4440707 -1.4004993
-0.41603068 -0.50939095 -0.090147555 -0.42992872 -0.20463713 -0.57325023 -1.46502 0.055228475
0.6925406 0.05797639 0.518923 0.27103168 -0.4858356 0.6212006 -1.333063 0.6049413
0.057385903 -0.88002706 -0.3902662 0.15103836 0.17860664 1.5963066 -0.11435955 -0.09257784
-1.8444002 0.47290203 0.1893048 0.4534802 0.6455215 -0.060305238 -0.0804035 0.1838528
0.6718092 0.40947476 -0.40800992 -1.0599487 0.021911647 -0.628248 -0.13004045 0.4315389
-0.2360481 -1.1336498 -0.44663262 0.67689073 -0.07261852 2.2530434 2.59236 0.86341494
-0.11140918 0.08858896 0.044171635 -0.033695698 0.013900509 -0.0818944 0.07532774 -0.13006115
-0.06810668 0.038964212 -0.12283686 -0.075317696 -0.07306666 -0.025975935 -0.108023636 -0.15807353
-0.005485413 -0.021448806 -0.11926732 -0.0835349 -0.023910232 0.018676275 0.018545166 -0.15441416
-0.06136669 -0.25631237 -0.1868251 -0.12835896 0.07381872 -0.15285717 -0.11843184 0.02309966
-0.008087548 0.049783316 -0.2094425 -0.17215556 -0.10359441 -0.10991471 -0.119464554 -0.12697037
-0.12255721 -0.04606741 -0.07190844 -0.17449717 -0.083962224 -0.10743587 -0.22975151 -0.09929358
0.08213168 -0.123065844 -0.04306873 0.014929466 0.082854845 0.03959137 0.0028216166 -0.20478742
0.04180967 -0.0715155 -0.042290557 -0.21303606 -0.16240482 -0.2249474 -0.13799962 0.045975123

w_h.2.bias f4 [32]
00000000: 4b1c 22be 4d90 cf3e 3d55 c4be 797e dfbd
00000010: a620 833e 4a8d e23e c38f 053f fdbc fbbd
00000020: a35f 9d3c d527 46be d833 84be ebde 813e
00000030: abc4 a83e bd96 793e b542 db3e 5ccb 52be
00000040: 24c4 c6be c02c 84bc 17b0 68ba dc72 b0bd
00000050: af11 0bbe 6921 02bd fa41 22be c8cc 82bd
00000060: 2233 dcbc c510 98be 62c8 fe3e 73ba d0be
00000070: 15f3 33be 567d 49be 6995 2dbd a4b7 1abe
-0.15831105 0.4053978 -0.38346282 -0.109127946 0.25610846 0.4424842 0.5217249 -0.12291906
0.019210642 -0.19351132 -0.25820804 0.25365385 0.32962546 0.24373908 0.4282433 -0.20585388
-0.38821518 -0.01613462 -0.0008876337 -0.08615658 -0.13580965 -0.031770144 -0.1584548 -0.06386715
-0.02687985 -0.29700294 0.49762255 -0.4076725 -0.17573197 -0.19676718 -0.042378817 -0.15109116

Ws.0 f4 [32, 32]
00000000: 813e 1ac0 bf6c f8bf 20f9 583f 8b9d f23f
00000010: 0857 0840 89ec c1bd 0cfb 453e 9d1b 5c40
00000020: ead2 03c1 67da 243f 3feb 20c0 d309 453f
00000030: 8da8 d5bc 8dd8 0f3f 8b1c 453f 4e1a 353f
00000040: dba8 5ec0 4925 61bf 2412 193f 2a9e 4c3e
00000050: 8ecf 8d3f 16a2 83bf be0a 763f a5fa 003f
00000060: a729 5bbf f6b8 8d3e f83b a0bd 78f2 d63e
00000070: 6a87 6bbd 4a96 7ebf a28d df3f 8874 a83f
00000080: 7e44 2fc0 178b a2bf 5f52 eabd 9010 663e
00000090: 5763 0cc0 1158 643e a2ca 273f 26d7 c3bc
000000a0: cc5c 8cbd d4cd 52bf 26ac 0ec0 e1bb d53f
000000b0: b3a7 753e bd5e 563f aea2 d23e 07d9 0ec0
000000c0: 24fd 9dbf c2aa 573e 0683 ec3e 7517 b83f
000000d0: d34a 82c0 55b1 87bf 4b25 433f 6868 f7be
000000e0: 2d93 4a3f 4933 1f3f 9ae7 343f bb35 663e
000000f0: ce47 fcbe c5d3 aebf 6db4 503f 5907 a13f
00000100: a99b 2bc0 8314 78bf e706 a4bf 0672 b83f
00000110: 9a65 033c 4cb8 923f f669 0fc0 d4a3 ab3e
00000120: 87d3 eebf 7ac8 283f d428 b53f 6fbb ce3f
00000130: abf4 3ac0 9905 25be de0d 863e 8608 67bd
00000140: 6244 893f c531 fd3e dae8 eebd 36fc 1c3f
00000150: 4d7d e23e 9ff1 2fbf c496 bbbf 359a c4bf
00000160: 0b81 6d3f 3030 85bf 386a afbf 2319 97bf
00000170: f13d 30bf 58c3 993e f2db 6cbf bbfd 283f
00000180: 8ed3 3fc0 05e9 e03e 0b6d d9be 2f94 fdbf
00000190: a0af b13c 049c 123d 060e 6e3d 9d75 883f
000001a0: 416e a1be 93bf 553f e743 d13f 3ff4 88c0
000001b0: 8475 50bf 8b2c ebbf 6517 74bf 9154 aebf
000001c0: a068 69bf ec86 c3bc add0 26bf 20d4 333b
000001d0: 7f19 48bf fd93 4f3f 3941 c5bf 3f3a afc0
000001e0: 2828 a83d ff5f 813e 77c4 523f dee0 c1be
000001f0: 96dd 21bf 9fea c5be c127 72be 0be4 07bf
00000200: 7eed 23bf eb95 2fc0 e939 37bf 2ac1 93c0
00000210: 2d87 1f3f ddfc f7bd bab8 85bf d88c 95bf
00000220: 46be 01c0 a1b7 0b3f faa3 223f 9939 f1bd
00000230: 3d1b 4a3e 729b a43d 0f38 6a3f 2072 3d3f
00000240: 7501 953f 92aa a2bf bfb1 163f eb66 06c0
00000250: 09ad 05bf 066f b7be 1d3f 26c0 817e 8dc0
00000260: 5225 0bbf fd32 41c0 6192 10bf 1656 53c0
00000270: 2798 6e3f 6b38 b83e 647f 183f c8fd cabf
00000280: 6f40 13c0 0269 c2bf af91 9ebf 5a24 693e
00000290: db40 193f 813d 95bf 5993 c63e ee77 3d3e
000002a0: 2259 f9be 2de2 0440 38b8 533f 7c06 7fc0
000002b0: b178 1dc0 426d 6fc0 ff9c d03f b86b edbe
000002c0: f5e6 383f a74c 753f e540 8cbe 333c 04c0
000002d0: c96c c73d 6064 0b40 f9dd 7abe a2eb 993f
000002e0: 0b97 e3bf 1e90 313f 7946 09bf c38a 5ec0
000002f0: 6be5 8d3f 0970 873e 4fdd 003f 9066 82bf
00000300: 018d 08c0 6148 e43f 1337 9b3e 6496 bc3f
00000310: 75cd 143e f81c 803e edf7 0abf 65a1 263f
00000320: f476 0c40 aa7d 42be f2c9 dcbe 5263 f1bf
00000330: 08e8 e9bf 1336 043e 529b aabe c107 d43e
00000340: 0120 3bc0 36a1 3fbe 273c 03bf 1a6b a23f
00000350: e691 ad3f 54ee 99bf d963 a3c0 63f6 16bf
00000360: b283 e33e f0ca 2f3f 9836 bbbf 1bd9 e53f
00000370: 1706 d03f 8238 0240 e964 033f b020 3b3f
00000380: 3a8b 963f 1fa8 ba3f 6052 15bf fa48 26c0
00000390: 9928 a6bf 58c6 c93f f70a 4ac0 1a58 af3d
000003a0: d9ac 1abf b192 bcbd 901f 2e3f ec23 a1c0
000003b0: 76dc d7bf e118 75c0 cd48 843f b76a bdbf
000003c0: 513b e93e 300a 5d3f 05e8 d3be f473 4fbf
000003d0: 6324 8ac0 bee7 a03d 33c2 62c0 e92a b03f
000003e0: 2592 31bf bd6c 413f d359 b13f 46c2 0cc0
000003f0: e05e 0b3e 692a 693f 88e5 963e 62a2 583f
-2.410065 -1.9408187 0.84755135 1.8954328 2.130312 -0.094689436 0.19334048 3.4391854
-8.238993 0.64395756 -2.5143583 0.76968116 -0.026081348 0.56189805 0.7699668 0.7074326
-3.4790561 -0.8794752 0.59793305 0.1998221 1.1078966 -1.028384 0.9611014 0.50382453
-0.8561043 0.27680176 -0.07823938 0.41981864 -0.057502188 -0.9944807 1.7465098 1.3160563
-2.7385554 -1.2698697 -0.11441492 0.22467256 -2.1935632 0.2229922 0.6554357 -0.023906302
-0.06853637 -0.8234532 -2.229257 1.6697961 0.23989753 0.8373831 0.4113974 -2.2319963
-1.2342877 0.21061233 0.46193713 1.4382159 -4.071634 -1.0600992 0.7622878 -0.48321843
0.7913082 0.6218763 0.70665896 0.22481434 -0.49273533 -1.3658377 0.8152531 1.2580367
-2.6813757 -0.969063 -1.2814606 1.4409797 0.008019829 1.1462493 -2.2408423 0.33523428
-1.8658303 0.659309 1.4153085 1.615095 -2.9211833 -0.16115417 0.26182455 -0.056404613
1.0723994 0.49452034 -0.11665507 0.61322343 0.44236222 -0.6872806 -1.4655385 -1.535956
0.9277503 -1.0405331 -1.370429 -1.1804546 -0.68844515 0.30031848 -0.9252311 0.6601216
-2.9972873 0.4392778 -0.42466006 -1.9810847 0.02169019 0.03579332 0.058118843 1.0660893
-0.3152943 0.83495444 1.6348847 -4.279815 -0.81429315 -1.8372968 -0.953482 -1.3619558
-0.9117527 -0.023868047 -0.65162164 0.0027439669 -0.78163904 0.8108519 -1.5410529 -5.47586
0.08210784 0.25268552 0.8233103 -0.37866873 -0.6322874 -0.38655564 -0.23647977 -0.5308234
-0.6403426 -2.7435253 -0.7157274 -4.6173296 0.62315637 -0.12108777 -1.0446999 -1.1683607
-2.0272384 0.5457707 0.6353146 -0.11778564 0.19736953 0.08037461 0.9149179 0.74002266
1.164107 -1.2708304 0.5886497 -2.1000316 -0.52217156 -0.35826892 -2.5976021 -4.4216924
-0.5435382 -3.018737 -0.56473356 -3.3021293 0.93200916 0.35980543 0.5956938 -1.5858698
-2.3008077 -1.5188296 -1.2388209 0.22767773 0.59864587 -1.1659395 0.38784292 0.18502781
-0.48700815 2.0763047 0.8270297 -3.9847708 -2.4604914 -3.7410436 1.6297911 -0.46371245
0.7222741 0.9582009 -0.2739326 -2.0661743 0.09737546 2.1780014 -0.24498738 1.2025034
-1.778047 0.6936053 -0.5362316 -3.4772193 1.1085638 0.26452664 0.5033769 -1.018755
-2.1336062 1.7834588 0.30315456 1.4733396 0.145315 0.250221 -0.54284555 0.6509002
2.1947603 -0.1899325 -0.43122822 -1.8858435 -1.8273935 0.12911253 -0.33321625 0.41412166
-2.9238284 -0.18713841 -0.5126366 1.2688935 1.356015 -1.2025857 -5.1059384 -0.58969706
0.44436413 0.68669033 -1.4626036 1.795688 1.6251858 2.034699 0.5132585 0.7309675
1.1761239 1.4582556 -0.5832882 -2.5982041 -1.298114 1.5763655 -3.1569192 0.08561726
-0.60419995 -0.09207667 0.6801691 -5.035635 -1.6864154 -3.8296435 1.0334717 -1.4798192
0.45553067 0.8634367 -0.41387954 -0.81036305 -4.3169417 0.07856701 -3.543103 1.3763095
-0.69363624 0.75556546 1.3855537 -2.1993575 0.1361041 0.9108034 0.29471993 0.84622777

Ws.1 f4 [32, 32]
00000000: d697 c23e 2e6e 68c0 45b3 efbe 782e cbbf
00000010: 7031 03c0 9be7 5abf 3816 4e3e 18b2 213f
00000020: 0ce2 a5bf 9a56 2cc0 2757 2ebf d6db 02c0
00000030: 151f 0ac0 862e 1d3e 035a 5a3f 8528 f8bf
00000040: 8c0c 753f 5b4b 9fc0 81a2 aac0 9591 4abf
00000050: 9185 2cc0 aac4 4e3e a5f0 033f 949c 27c0
00000060: f691 21c0 5a8c 3340 0fc8 a63e 9b86 1ac0
00000070: 4ef9 963f bda1 deba 3955 8d3e e5fd 9ebf
00000080: 45d6 e73f 4db1 c4be f0f7 b7bf c053 d13e
00000090: f7c8 723f 1ea8 c4bf 7813 3f3f adde 853e
000000a0: d0b2 87be b747 6e3f 7832 893f 575c 503f
000000b0: c5a1 373e 9d21 6b3e af1c bebf f8ce de3b
000000c0: 0453 50bf 63a4 edbf a870 953f 606a 7cc0
000000d0: 0f85 90bf 8af6 68bf 7441 363f 7523 0e3f
000000e0: 7311 983e 4a30 55bf 3605 2bbf ee74 353f
000000f0: 7ced 34be bb4f fa3e 725b 7a3f 81a5 e1be
00000100: 069f 35be 1fdb debf cb72 41bf 0cd9 4fbe
00000110: b357 7ebf 160f 203f 3669 d3bf cc23 1dc0
00000120: 3e47 073f ab76 5dbf d9e2 433f 8fb1 54bf
00000130: c77a ea3e 02ac 96be d0a4 e33f c017 f43b
00000140: feee 09bf b836 7a3f 391e 72bf 6b31 40bf
00000150: d4ba 89bf 2008 e6bf 6764 ff3d fc76 a7be
00000160: 2a2c 863f d949 18c0 c4d3 b5be e5f0 423f
00000170: fa63 843f 8f5c 9ebf 40ef febf e0d3 28be
00000180: 13ef 17c0 d703 1b3f 9d6d 29bf b2ab d8bf
00000190: 4cf4 f0be 15bf 4abf 009d 633e 7a80 9ebf
000001a0: f777 7e3d 5ae4 db3e e2a3 0fc0 05e2 2dc0
000001b0: a449 7d3e 4637 433f 6dd6 333f 9e99 e3bf
000001c0: b313 7ebe 9756 4a3f 685a c43e 27fe 71bf
000001d0: a392 eabe f676 a8bf e08b 71bd a786 b9bf
000001e0: 6db9 803f d54c f6be b37d c1bd 8af2 cdbf
000001f0: eb24 1f3f 4a73 83bf 0006 6ebf 2871 023f
00000200: ea02 3e3f 887a dbbf 0b08 45bf ba36 59bf
00000210: cad2 02be 0298 70be 7927 44be 469c 2ebf
00000220: eadf 4cbe 229d af3e 6e02 66be 969a a33f
00000230: edc2 e23e 7e8b f13e 400a 5abf 50b1 68bf
00000240: c6c4 e4bf e226 1a3f eaba 39bf 8ee9 c73e
00000250: 9320 c93d cb31 92bf fab7 683f 888f 9abe
00000260: f853 823e 528f a2bf b78e 8fbf c6fb ecbd
00000270: 5702 b93f e718 0b3f da7d 9cbf 376e f4bc
00000280: 5d3e 1ac0 500b 2bbe 363a 773f c3c0 ac3f
00000290: 82bc 953e 2bfc e6be 38e7 dd3f de55 cabf
000002a0: 2738 213d eb8e afbf 4120 973c 7288 2bbf
000002b0: 78e2 6fbf 935a 96bf 0063 a7be a18a 503d
000002c0: cf38 87be 95a5 e3bf 6a07 103f 4da7 74c0
000002d0: f14b 7f3f 6eb1 ccbf 6032 783f 2305 81bf
000002e0: 451f 67bf 9018 39bf 28d9 a2bf 6ae2 edbf
000002f0: aeb5 e23f df2c cbbf b67f be3d 3907 bdbe
00000300: 7720 b3be a85f 383f ce1b 003e 7d9d e8be
00000310: b6fa bdbe c820 a53e d276 e1ba 28f7 3d3d
00000320: 705b 5cbf c636 513f 1818 7cbe f8cc 89bf
00000330: d308 613f 96e8 95be 387d d3bd 3ad5 51be
00000340: 89fb f3bd 5f62 853e 873e 63bf 09f0 8abf
00000350: 699a 1b3f f594 15c0 2765 14bf 670f c6bf
00000360: cb18 38bf 13cc a1bf c50f d0bf cf4a bbbf
00000370: decb 86bc 83c6 823f c8a1 7cbf 6e01 68bf
00000380: db90 2dbe 308c e6bf 65d7 433f 753d bdbf
00000390: 6e8f bd3d 95ca 46bf 0e8b 04c0 c968 06c0
000003a0: e95c 1c3f 46ec 08c0 09ed 40bf 57b9 03bf
000003b0: 0cb6 28bf cf70 cd3e 7b89 ce3e e4e0 99bf
000003c0: 34b3 67bf 47aa f1bf e2d3 0cbf cfff a5bd
000003d0: bf47 c6be b59c d13e 10ee ffbf 2420 853f
000003e0: f72d a3bd 4fa2 5e3f becb 543d 5d38 26bf
000003f0: faee 0dbe 5793 68bf a59e 8abe faac 2c3f
0.38006467 -3.6317248 -0.4681646 -1.5873556 -2.0498924 -0.8550965 0.20125663 0.63162374
-1.2959609 -2.6927857 -0.68101734 -2.0446677 -2.158147 0.15349779 0.85293597 -1.9387366
0.9572227 -4.9779487 -5.332337 -0.7912839 -2.6956522 0.20192209 0.5153907 -2.6189318
-2.5245337 2.8054414 0.32574508 -2.4144657 1.1794832 -0.0016985458 0.27604082 -1.2421232
1.8112265 -0.3841652 -1.437254 0.4088421 0.948379 -1.5363805 0.7463908 0.2614645
-0.2650361 0.9307818 1.0718527 0.813909 0.17932804 0.22962041 -1.4852504 0.006799575
-0.8137667 -1.8565792 1.1675005 -3.9439926 -1.1290606 -0.9100119 0.71193624 0.55522853
0.29700813 -0.8327681 -0.66804826 0.70881546 -0.17668718 0.48888955 0.97795784 -0.44071582
-0.17736444 -1.741062 -0.75565785 -0.2029764 -0.9935257 0.6252302 -1.6516483 -2.4553099
0.5284308 -0.865092 0.7651802 -0.8308343 0.45796797 -0.29428107 1.7784672 0.0074491203
-0.538803 0.97739744 -0.94577366 -0.75075406 -1.076014 -1.797123 0.12470322 -0.32707965
1.0482228 -2.3795073 -0.35513127 0.76148826 1.034301 -1.2371997 -1.9916763 -0.16487074
-2.373967 0.60552734 -0.6618288 -1.6927397 -0.47061384 -0.7919782 0.2222786 -1.2382958
0.062126126 0.42947656 -2.2443776 -2.7169201 0.24735123 0.76256216 0.7024906 -1.7781255
-0.24812202 0.79038376 0.38350224 -0.9452843 -0.45815 -1.3161304 -0.058971286 -1.4494218
1.0056587 -0.48105493 -0.09447803 -1.6089642 0.6216571 -1.0269558 -0.92977905 0.5095391
0.74223197 -1.7146769 -0.769654 -0.8484913 -0.12775722 -0.23495486 -0.19155683 -0.68207204
-0.20007291 0.3429957 -0.22461864 1.2781551 0.44289342 0.47176737 -0.8517189 -0.9089556
-1.787255 0.6021558 -0.72550833 0.39045376 0.09820666 -1.1421446 0.90905726 -0.3018763
0.25454688 -1.2699988 -1.1215428 -0.115714595 1.4453839 0.5433487 -1.2225907 -0.02983771
-2.4100564 -0.16703534 0.965732 1.3496326 0.29245383 -0.45114264 1.7336187 -1.5807455
0.03936019 -1.371549 0.018447997 -0.67005074 -0.9370494 -1.1746391 -0.32692719 0.050913457
-0.2641053 -1.7784907 0.5626131 -3.8227112 0.9972525 -1.5991647 0.96951866 -1.0079693
-0.9028209 -0.72303104 -1.2722521 -1.8584721 1.7711694 -1.5873069 0.09301703 -0.36919573
-0.34985706 0.7202096 0.12510607 -0.45432654 -0.3710534 0.32251573 -0.0017201549 0.046378285
-0.8607702 0.817242 -0.24618566 -1.0765676 0.8790409 -0.2927901 -0.10326618 -0.20491496
-0.11913211 0.26051614 -0.88767284 -1.0854503 0.60782486 -2.3372166 -0.57966846 -1.547345
-0.7191283 -1.2640404 -1.6254812 -1.4632205 -0.016454633 1.0216831 -0.9868436 -0.9062718
-0.16949789 -1.8011532 0.7650054 -1.478438 0.09255873 -0.77652866 -2.0709872 -2.1001456
0.6107927 -2.139421 -0.75361687 -0.5145468 -0.6590278 0.4012513 0.40339264 -1.2021756
-0.9050782 -1.888009 -0.5501081 -0.08105432 -0.38726613 0.4093987 -1.9994526 1.0400434
-0.079677515 0.86966413 0.051952116 -0.64929754 -0.13860694 -0.9084982 -0.2707416 0.6745144
