crowd_nav/GRL_output/rl_model_5.pth (torch, 143871 bytes, 33 tensors)

w_a f4 [32, 32]
000000 8d fc 62 3f d3 a0 a0 3e 5d 0b 77 3f 8f 40 6a c0
       0.8866661 0.313727 0.96501714 -3.6601903
000010 89 b5 8c bf fd ad 61 3f 8f 90 82 3e e2 35 ec bf
       -1.09929 0.8815611 0.25500914 -1.8453944
000020 e8 27 6d 3f da c7 b7 bf fb d9 1e be ae 09 9c be
       0.9263902 -1.4357865 -0.1551284 -0.30476135
000030 fe c2 bc bf 1c 8d 36 bf 3a 25 5c bf ad 45 eb bf
       -1.4747007 -0.71309066 -0.85994303 -1.8380638
000040 0f 48 5b 3e 5c 68 ec bf 27 50 3d be 9b fc b1 3e
       0.21414207 -1.8469348 -0.18487607 0.34763035
000050 c5 24 54 3d f0 f5 5c bf 42 43 fc 3d c8 1b 07 c0
       0.05179288 -0.8631277 0.12317516 -2.1110706
000060 8a 53 ce be 00 b7 23 3e c5 f5 81 be fa e3 e6 bd
       -0.4029811 0.15987778 -0.2538282 -0.11273952
000070 8f d5 62 3d f7 f1 22 be ba 8e 05 3f f8 68 22 40
       0.055379447 -0.15912615 0.5217091 2.5376568
000080 cb e9 7a 3e d3 d6 33 3f 22 f8 da bf 57 1b bd bf
       0.24503247 0.7024967 -1.7106974 -1.4773968
000090 4b a5 43 3e 82 98 20 3f 95 29 d7 bd 6f fd 43 3f
       0.19106023 0.6273271 -0.10505978 0.76558584
0000a0 86 51 22 3f a2 1c c9 3e d7 46 6b 3e ff 10 9b 3e
       0.63405645 0.39279658 0.22976242 0.30286404
0000b0 e0 d5 51 be 06 79 1f bf 08 07 35 be d3 15 0c bd
       -0.20491743 -0.6229404 -0.17678463 -0.0342005
0000c0 ea 97 77 be 7e ec e3 3e c3 95 8a bf 00 f4 46 be
       -0.24179044 0.44516367 -1.0826954 -0.19429016
0000d0 7a e1 59 3f ff 9e ae be 61 85 0a c0 9e ad aa bf
       0.85109675 -0.3410568 -2.1643908 -1.3334234
0000e0 a6 be 98 3e a6 6b 8e bd c9 f1 37 bf 86 a4 14 bf
       0.29832953 -0.06954126 -0.7185331 -0.5806354
0000f0 3b fc ec bf 60 fa 27 3f 47 d7 e1 3d 97 1b 17 bd
       -1.8514475 0.65616417 0.11027389 -0.036891546
000100 30 d7 66 bf e7 1f 6d bf 58 38 5b be ac 10 ee 3e
       -0.901721 -0.92626804 -0.21408212 0.46497095
000110 a3 94 c2 bf 93 42 3c bf 9b 6c d3 be f5 4e fe bf
       -1.520161 -0.73539084 -0.41293797 -1.9867846
000120 49 82 ee bf c4 92 2b 3e d0 97 7b 3e fc e1 b1 bf
       -1.863351 0.16755205 0.2456963 -1.389709
000130 86 68 3f be ba ac 9c 3d 63 3c 58 bf b8 b3 61 bf
       -0.18692216 0.076501325 -0.8446714 -0.88164854
000140 e0 0f a8 3e 69 44 98 3e 0a a4 d2 bf bd 0d 5d 3f
       0.32824612 0.29739693 -1.6456311 0.8634909
000150 33 35 35 bf 82 90 37 3f 7b 67 12 3f d9 67 bc bf
       -0.707843 0.71704876 0.5718915 -1.4719192
000160 cf 49 a4 bf 1a 4f be 3f 8b 98 09 bf 48 4d 8b 3d
       -1.2835025 1.486789 -0.5374839 0.068018496
000170 ac 27 2b bf 1b b4 62 be 4b 27 b6 3f d5 a7 1b bf
       -0.6685741 -0.22139017 1.4230741 -0.60802966
000180 fa 05 9d be be 3b 57 3f 34 96 2d 3e cf ea 8f be
       -0.30668622 0.84075534 0.16951829 -0.28108832
000190 c9 3e e7 be 92 b5 68 3f 5c 82 4a 3e b1 09 db be
       -0.4516509 0.90902054 0.1977629 -0.4278083
0001a0 ce 99 8e 3d 6b cc ab bf d3 a5 b0 be f2 25 28 bf
       0.0696293 -1.3421758 -0.34501514 -0.656829
0001b0 a7 8c c9 3e e2 d3 14 bf 6d 59 3b 3f 74 38 bb bd
       0.39365122 -0.5813581 0.7318333 -0.09141627
0001c0 3d 42 d4 3e 16 ea 0c 3f c8 b8 f1 be cc bb 5a 3f
       0.41456786 0.55044687 -0.4721129 0.85442805
0001d0 29 76 2e bf 88 3e 38 be ec f3 3b 3e fe 9f 82 3f
       -0.6814905 -0.17992604 0.18354768 1.0205076
0001e0 c3 af ae 3d ed d3 ed 3f 42 71 7c bf dd 78 7d 3c
       0.08529618 1.85803 -0.9861032 0.015470711
0001f0 76 b4 8b bf af c0 18 3f c3 6c 67 bf fa 54 0d c0
       -1.0914447 0.5966901 -0.9040033 -2.2083116
000200 30 19 23 be 4f 46 4e be f1 3d a4 bd 12 2e cf be
       -0.15927577 -0.20144008 -0.08019627 -0.40464836
000210 f2 37 8f bf ce 19 3b bf 95 7e 29 3e db b1 cd bd
       -1.1188948 -0.7308625 0.16552193 -0.10043689
000220 77 50 61 bf 67 88 e2 3e a2 96 76 3f e4 40 ab be
       -0.88013405 0.44244692 0.963236 -0.33447945
000230 de e1 01 c0 95 57 1d 40 66 34 cc 3e 97 1b 91 3e
       -2.0294108 2.4584706 0.39883727 0.28341362
000240 37 49 71 3f 86 df 85 be 1d 5e 17 bf f0 37 12 3f
       0.9425234 -0.26147097 -0.5912798 0.57116604
000250 6e 8b 66 bf a9 16 12 3c e7 cd 03 3f c9 8b b9 3f
       -0.900565 0.008916535 0.5148606 1.4495784
000260 ef bf a8 bf 7e ef 5e 3e b2 a1 92 bf c1 2c 30 bf
       -1.3183573 0.21771047 -1.1455595 -0.6881829
000270 d9 ec e6 3d 76 60 ba bf 73 a3 6e bf 9f b5 a4 3e
       0.11275644 -1.4560688 -0.93218154 0.32169816
000280 bb f2 db 3e 6c 8f 0a 3f 64 25 e1 bf 5e 64 90 be
       0.42958626 0.54125094 -1.7589536 -0.28201574
000290 7f 6c 68 3f 9f 71 a8 3f 2a d8 7f be a5 03 91 3f
       0.9079055 1.3159674 -0.24984804 1.1329237
0002a0 8f d1 7f bd 52 91 53 40 0b f0 7a 3f 83 92 b8 3f
       -0.06245571 3.3057446 0.98022527 1.4419712
0002b0 36 6c f0 bf 29 4a 42 c0 c9 db 8a bf ce 1b bf 3e
       -1.8783023 -3.0357764 -1.0848323 0.373259
0002c0 dd 7a b2 3f a5 96 b1 3f 80 4b 74 bf 27 07 83 3f
       1.3943745 1.3874098 -0.95427704 1.0236558
0002d0 e7 a7 85 bf 75 fe 9b 3f 21 d7 24 3e 6d 1f ed 3e
       -1.0441865 1.2187029 0.1609769 0.46313038
0002e0 9d 95 a1 bf 48 1f 5b 3d 2f 9a 3e 3f ce f8 37 40
       -1.2623783 0.05349663 0.74454015 2.8745608
0002f0 1c 7f a2 3f f6 77 80 3f fb 61 dd 3f fa b4 a5 bf
       1.2695041 1.0036609 1.7295526 -1.2945855
000300 f7 c0 66 3e ea f8 5b bd f7 fc c0 3e e8 40 7d 3f
       0.22534548 -0.05370418 0.37692997 0.98927164
000310 e1 be bc be 31 c1 a4 3e fb 94 66 bf dc 6f 95 3f
       -0.3686438 0.32178643 -0.90071076 1.1674762
000320 8e 28 5a 3e 5a 3d 73 bf be 8e c9 3e a9 c4 99 3d
       0.21304533 -0.9501549 0.39366716 0.07508213
000330 b9 76 f0 be 00 76 c9 bd 4b 02 14 bf cd 0f f2 be
       -0.46965578 -0.0983696 -0.57816 -0.4727768
000340 7b 55 02 3f 16 ff 07 bf fc 73 c0 bf 8d 52 15 bf
       0.5091168 -0.53123605 -1.5035396 -0.5832909
000350 5e 0b 14 c0 2c f7 45 bd e0 35 c4 3e d8 bd 72 bf
       -2.3131938 -0.048331425 0.38322353 -0.9482093
000360 31 ca ab 3d fc a7 51 bf 33 25 de bf 04 62 4f bf
       0.08388174 -0.8189695 -1.7355102 -0.81008935
000370 ee 2e b0 3e ac 54 69 bf 1d f8 29 3e 63 9e 34 c0
       0.34410805 -0.91144824 0.16598554 -2.8221672
000380 96 da 52 3e d1 d4 5d be ce ce 9e be c4 80 ab 3d
       0.20591196 -0.21663214 -0.31017154 0.083741695
000390 d4 ad 57 3d 0c 1f 6b 3e aa 1f 5f bf b6 fe b5 3f
       0.05265601 0.22961062 -0.8715769 1.4218357
0003a0 30 8e 53 be fc 62 75 bf 12 c3 fc be 27 16 eb 3e
       -0.20659709 -0.95854163 -0.49367577 0.45915338
0003b0 cd f3 92 be d6 1f d9 3e 16 b3 86 3d 3b f5 ea be
       -0.2870163 0.424071 0.06577127 -0.4589022
0003c0 83 24 57 bf 65 9f 2a bf 95 ce 13 bc 3c 4f 3b bf
       -0.8404009 -0.66649467 -0.009021421 -0.7316778
0003d0 ab 4b 0d bf 9a f6 ce 3e 01 8a 72 3f 59 be ed bf
       -0.55193585 0.40422517 0.9474183 -1.8573714
0003e0 13 dd e9 bf c0 f5 99 bf 80 07 a1 bf a0 50 98 3f
       -1.8270591 -1.2028122 -1.2580414 1.1899605
0003f0 17 3e 88 bf c4 cc e4 bf 01 6f c6 3f 49 5c c8 3f
       -1.0643948 -1.787499 1.5502626 1.5653163

w_r.0.weight f4 [64, 9]
000000 fb 9f e6 3e fd a0 24 be dd dc f6 3e 66 e1 51 bf
       0.4504393 -0.16077037 0.4821538 -0.81984556
000010 14 5d 0a bf 60 e2 06 3d d4 a7 95 be ee f9 3f be
       -0.54048276 0.03293073 -0.29229605 -0.18747684
000020 3c 3c 73 be 11 a3 7a 3e 5a 26 56 bd 32 2e 27 bf
       -0.23753446 0.24476267 -0.05228267 -0.65304863
000030 2e 47 8d bf 70 6d 18 be db df c6 bd 54 25 01 be
       -1.1037347 -0.14885497 -0.09710666 -0.12611896
000040 7b a5 8b be 3d b5 36 be 3f eb 0b 3d fd 61 8a 3b
       -0.2727469 -0.17842574 0.034159895 0.004223107
000050 c6 79 6e be 86 8a 62 be a3 1f fb bd 02 81 a1 be
       -0.2328864 -0.22123155 -0.122618936 -0.31543738
000060 87 4e 79 be df e1 19 3e 67 a1 93 3c aa 93 10 bf
       -0.24346362 0.15027569 0.018021299 -0.5647532
000070 64 ed 26 3e 9a fc 79 3e d8 a2 0b bf e2 fe fd 3c
       0.16301495 0.24412766 -0.54545355 0.031005327
000080 db ca 2b be dc fa 40 be da 4c 08 3e a9 ac 1b bd
       -0.16776602 -0.18845695 0.13310567 -0.03800646
000090 0f dc cb 3d 5a 3d ce bc 12 62 a0 be 93 2a 16 bd
       0.09954082 -0.02517574 -0.31324822 -0.036661696
0000a0 76 76 b9 be 50 75 1a be dd 4a e7 bb e5 20 98 be
       -0.3622319 -0.15083814 -0.007058485 -0.29712597
0000b0 6f e2 7d be 9e 7f 00 3f 46 ef f2 3d 30 0a 90 bf
       -0.24793409 0.5019473 0.11862044 -1.1253109
0000c0 53 45 67 3f ed 84 b8 be 30 b3 67 3e 35 5f cb bd
       0.90340155 -0.36038914 0.22626948 -0.09930269
0000d0 d6 06 a6 be e3 1b 10 bf 52 a9 f7 bd a4 86 2a 3f
       -0.3242709 -0.5629255 -0.12092842 0.66611695
0000e0 41 41 ff bb 7a 34 43 bd a0 48 87 3d 18 eb 54 be
       -0.0077897613 -0.047657467 0.06605649 -0.20792806
0000f0 01 71 cf 3d 49 00 b7 be 6c b1 81 3d c7 60 3c bf
       0.10128976 -0.35742405 0.06332669 -0.7358517
000100 d1 bc 60 be 9e ef c9 be cd 79 44 3b 4b cd 7f be
       -0.21947028 -0.39440626 0.0029979825 -0.24980657
000110 00 77 56 3c 2c 87 8b be 64 ad 7a 3d c2 79 c3 3c
       0.013089895 -0.27251565 0.061200514 0.02386177
000120 4e 66 7f bf f9 6f 11 bf 96 a1 c8 3e 14 29 4e be
       -0.9976548 -0.5681148 0.3918578 -0.20132858
000130 76 89 aa 3d c6 a7 ee 3d 0c cc 99 be 4d ef 01 bf
       0.08327 0.11653094 -0.30038488 -0.5075577
000140 64 98 e7 be 16 9c 2d 3f 9f 05 ef 3d 37 24 4a 3f
       -0.45233452 0.67816293 0.11670994 0.7896151
000150 76 2c 88 bd 73 2c 3d bf de 28 2f 3e 07 98 ee be
       -0.06649105 -0.7389595 0.17105433 -0.46600363
000160 96 91 7f bf 58 fe fc be c4 cf f7 bd 41 75 35 bc
       -0.9983152 -0.494128 -0.12100175 -0.011075319
000170 9b 33 d2 3c 6f 3c bd be 4c 59 be be 2b 77 3b bd
       0.025659373 -0.3696017 -0.37177503 -0.045767944
000180 5a b6 1d 3d 53 0d df be b3 c2 5b be 12 18 ea 3c
       0.038503982 -0.43564853 -0.2146099 0.02857593
000190 ec 23 8b ba e0 a9 f2 3d 91 a8 d8 be 29 39 1c bf
       -0.0010615564 0.11848807 -0.42316106 -0.6102472
0001a0 ea c6 94 3e 0d 4a b8 bd 3b 3f df b9 76 16 d7 bd
       0.2905801 -0.08998499 -0.00042580985 -0.10502331
0001b0 5e 6d 14 be d6 f6 ed bc 53 97 5d be 6e f8 92 be
       -0.14494845 -0.029048365 -0.21639757 -0.28705162
0001c0 70 54 96 bd f8 1c 43 be ae eb a9 be 26 88 22 3e
       -0.07340324 -0.1905402 -0.33187622 0.15872249
0001d0 40 50 5a 3e a7 57 f2 be 91 91 68 be ca 55 67 bf
       0.21319675 -0.47332498 -0.22711779 -0.9036528
0001e0 77 05 98 3f 03 74 7a be a8 5e 01 be d3 7d 11 bf
       1.1876668 -0.24458317 -0.12633765 -0.5683262
0001f0 e8 44 b1 be 11 37 50 be 0c 45 11 bf e6 8a ac 3e
       -0.34622884 -0.20333506 -0.5674598 0.3369972
000200 8a e3 7e bf 48 2f 65 bf 4d 70 3b bf 4b 98 62 be
       -0.9956595 -0.8952527 -0.7321823 -0.22128408
000210 f8 58 96 be 71 d1 35 bf 46 cc 9b be 85 0a fb be
       -0.29364753 -0.7102271 -0.30429286 -0.49031463
000220 21 05 f1 be f4 eb 59 bd eb 5a 42 3d a0 78 b0 be
       -0.47074226 -0.053203538 0.047449987 -0.3446703
000230 8f d6 89 be c8 39 06 bf db 9c d8 be fc b8 ad be
       -0.26921508 -0.5243192 -0.4230717 -0.33930194
000240 11 aa 89 be 27 62 a2 3e a8 16 c1 bc 21 40 4c bc
       -0.26887563 0.3171551 -0.023570374 -0.012466461
000250 29 6c 8f be 56 47 48 bb 37 3a 5d 3e 67 fa dd 3d
       -0.28012207 -0.0030560098 0.21604238 0.10838776
000260 61 4c f8 3d be 28 83 bf 75 79 d8 3e f4 10 7c bf
       0.12123943 -1.0246809 0.42280164 -0.9846337
000270 b1 ac 64 3f db 05 b3 bd 00 d7 23 bd 9c 1b 95 be
       0.89326006 -0.08741351 -0.03999996 -0.29122627
000280 9b bc c2 be 02 7f 17 bf 49 13 33 3f b8 a4 76 3f
       -0.3803452 -0.59178174 0.699513 0.9634509
000290 55 63 92 3d fd 16 8a 3c 3b 9f 85 be fa 2f 9c be
       0.07147852 0.016856665 -0.26098046 -0.30505353
0002a0 6e 58 de be f8 94 f3 be ef 1c cb 3c f0 36 1d 3f
       -0.43426841 -0.47574592 0.02479407 0.6141195
0002b0 da 47 78 bf fe 1e be 3d cd 07 91 3c 7f 10 1a bf
       -0.96984637 0.09283255 0.017703915 -0.6018142
0002c0 76 ef 6a 3e 1b 34 0a bf 4e 92 74 bd 96 f2 9d be
       0.2294291 -0.53985757 -0.05970984 -0.3084914
0002d0 16 99 1c 3e 98 e7 cb be 4b 17 97 3e d7 dc db be
       0.15292773 -0.3982513 0.2950996 -0.42941925
0002e0 90 3e 24 3d c0 97 30 bd 29 a9 e2 be ff f5 c9 be
       0.040098727 -0.04311347 -0.44269684 -0.39445493
0002f0 6d c9 70 be 0a 1f 62 3f 4b 28 08 3f 21 91 2d 3f
       -0.23514338 0.8832861 0.5318648 0.67799574
000300 d4 76 1d 3f 12 3e 18 bf 6b dc 08 3d 40 a4 ce be
       0.6150944 -0.5946971 0.033413332 -0.40359688
000310 dc 95 03 bf 48 77 3e be d2 82 0e 3f da 01 cf 3e
       -0.5140054 -0.1860019 0.55668366 0.404311
000320 71 f2 9e 3f ce 1a a4 bf ca b6 d8 be f4 29 a1 3e
       1.2417737 -1.282068 -0.42326957 0.3147732
000330 08 2a cc be ba 42 06 bf a7 f7 dd be 88 d5 b9 bc
       -0.39875817 -0.52445567 -0.43353006 -0.022684827
000340 ef 98 c3 3e b4 fd ad 3f df 19 2e 3f 0a 6c d0 be
       0.38202617 1.3593049 0.68008226 -0.40707427
000350 56 ce 2b 3d 00 bf 12 be f5 58 de be 10 e8 ea bd
       0.041944824 -0.14330673 -0.43427244 -0.11470044
000360 1b 02 be 3f 8f 12 d7 3e cf d2 d7 3d f8 56 c8 bb
       1.4844393 0.42006347 0.105382554 -0.006113883
000370 82 bf e4 be 2b 84 44 bc eb 4f 01 bf 3a d8 ee bd
       -0.4467736 -0.011994402 -0.5051257 -0.11662336
000380 e5 90 93 be 70 df 1e bf 6d 90 61 3e 76 b8 73 bf
       -0.28821483 -0.6205969 0.2202775 -0.9520334
000390 91 1e 90 3e a1 c7 20 bf 28 90 13 be 56 64 0d bf
       0.2814832 -0.6280461 -0.1441046 -0.55231225
0003a0 0c 2c f2 be 01 9c 0d bf b1 d7 56 3f 28 84 87 3e
       -0.4729923 -0.5531617 0.8392287 0.26468015
0003b0 7f c7 1d 3f eb ee 62 3f e3 28 8d be 40 db 4b bd
       0.6163253 0.8864581 -0.27570257 -0.04976964
0003c0 ea 63 30 be e1 7c cc be 45 85 95 be 74 5f 91 be
       -0.17225614 -0.39939025 -0.2920324 -0.28393137
0003d0 c5 98 23 be 82 85 a7 bf ab b8 79 3f bd a6 85 3e
       -0.15976246 -1.3087618 0.97547406 0.26103774
0003e0 00 0f c4 bc db 8b bf be b1 f3 10 be 78 c2 f8 bd
       -0.023932934 -0.3741139 -0.14155461 -0.12146467
0003f0 3a 4c 76 3e c1 f6 1a 3f 16 6a 49 bf 11 4d 18 bf
       0.24052516 0.60532767 -0.786775 -0.59492594

w_r.0.bias f4 [64]
000000 be 95 d2 3c e0 dd b7 bd d4 85 29 bd e0 72 4c be
       0.025706168 -0.08977866 -0.041387394 -0.19965696
000010 c9 12 9c bc 9f 4a 27 be 11 a4 ac be 3a 51 bf bd
       -0.019051926 -0.1633706 -0.33718923 -0.093416646
000020 34 e4 7a be 5d d2 fb be 03 50 80 bd bc ec 11 3d
       -0.24501115 -0.49183932 -0.06265261 0.035626158
000030 e0 5e 53 be 9a f9 e5 be 35 6d b1 be 21 98 62 be
       -0.2064166 -0.44916993 -0.3465363 -0.22128345
000040 21 95 42 3e ba 49 16 bf ea f4 16 3d b4 b4 00 bf
       0.190022 -0.5870625 0.036854662 -0.5027573
000050 53 2e d6 be 93 4b 2f bf 22 c9 4d bf 40 bf be be
       -0.41832218 -0.6847469 -0.8038503 -0.37255287
000060 13 b0 38 be af c1 bc bd 5f 4d 10 bf 71 86 2d 3e
       -0.18035917 -0.0921663 -0.5636806 0.16945817
000070 55 b9 d8 bc 09 6c 99 be fb 07 6e be bb 59 00 3e
       -0.02645556 -0.29965237 -0.23245232 0.1253423
000080 81 48 ef 3d 1e 10 1e bf a5 25 a6 bb 87 ed cc 3e
       0.11683751 -0.6174334 -0.0050704055 0.4002497
000090 87 04 f2 be 73 c0 34 be 7a 40 03 be f2 40 ea be
       -0.4726908 -0.17651539 -0.12817565 -0.45752674
0000a0 bc 39 03 bf 9f 07 5f be b5 19 a2 be 10 31 22 bf
       -0.5125997 -0.21780251 -0.31660238 -0.63356113
0000b0 e5 82 ce bc ea 71 d2 bd 0e ea 3e be 80 5a a9 be
       -0.0252089 -0.10275634 -0.18643972 -0.3307686
0000c0 76 9c 37 bf 54 3f 80 be 2c 33 bc bd 25 48 ce be
       -0.71723115 -0.25048316 -0.09189448 -0.40289417
0000d0 35 93 d4 bd b1 6b 44 bd 73 6c 0f be dd fd ba be
       -0.1037964 -0.047954265 -0.14006214 -0.36521807
0000e0 6e 27 93 3d e2 b4 ca be cc 55 c2 be 0c f4 74 be
       0.07185255 -0.39591128 -0.37956083 -0.23921221
0000f0 42 5b 9d be bf ce e6 be 85 91 f2 be b4 5d 9f be
       -0.30733687 -0.4507961 -0.47376648 -0.31126177

w_r.2.weight f4 [32, 64]
000000 8e c9 f5 be eb b5 71 3e 14 63 c7 3d 2a 96 18 3e
       -0.48005337 0.23604552 0.097356945 0.14901033
000010 e1 ed 18 bd 39 d4 a0 3d ba bd b1 bf bb 90 91 be
       -0.037336234 0.07852978 -1.3886025 -0.28430733
000020 8d 1b 20 3d 25 27 11 be b0 55 42 bd bb be 33 bd
       0.039088774 -0.14175089 -0.047445 -0.043883067
000030 d2 1d b6 bd 9a 3d d3 bd dd cc b1 3d 6e df 62 bb
       -0.088924065 -0.10314484 0.08681653 -0.0034618038
000040 39 6b 82 3e c9 f8 a9 bd 3d 4d de be 18 a1 1e be
       0.2547243 -0.08299405 -0.43418303 -0.1549114
000050 15 7c ff bd 33 f0 0e 3e b3 3c 05 bf 16 dd 0b bf
       -0.12474839 0.13958816 -0.52045745 -0.54634225
000060 ec 22 ac bf 57 da ee be 5e 94 0d bf 0d 7f 0d 3d
       -1.3448157 -0.46650955 -0.55304515 0.034544993
000070 71 eb 82 be f3 30 97 bc a3 dc c0 3d 57 c0 34 be
       -0.25570253 -0.018455958 0.09417083 -0.17651497
000080 03 3c be bd 21 fc 0e bd 48 f0 5a bf 8f 50 a9 be
       -0.0928879 -0.034908418 -0.8552289 -0.33069274
000090 20 bb 50 3c ad 5d c5 be da 4a 28 be ab c3 bc be
       0.012739927 -0.3854803 -0.16434804 -0.36868033
0000a0 93 5c 2b 3d c5 b4 31 be a4 49 8b bd 76 40 cc 3d
       0.041836333 -0.17354114 -0.06801155 0.099732324
0000b0 bc d9 84 bf 1d 7a 20 be af 2d 83 be 48 06 c3 3d
       -1.0378947 -0.15671583 -0.2562079 0.095226824
0000c0 f4 46 9f be 7c 56 b2 3e cb 67 21 3d e6 76 59 bf
       -0.3110882 0.34831607 0.039405625 -0.8494705
0000d0 ed 36 93 be 15 c7 10 3e e2 79 6c bd 8f d4 f8 bd
       -0.28752843 0.14138444 -0.057733424 -0.12149917
0000e0 fe d6 26 be c8 95 ba 3d bf 54 94 be 89 01 b5 bf
       -0.1629295 0.091106 -0.28970906 -1.4141093
0000f0 64 60 45 3d 59 1c a5 bd e1 8d 2a 3f c9 84 82 bd
       0.04818763 -0.080620475 0.6662274 -0.06372983
000100 2a ef 6d 3e 7b c5 03 3e 2a 5e d4 bc ec 23 95 3b
       0.23235765 0.12868302 -0.025923807 0.0045514014
000110 f3 43 24 bd ba 25 dc 3c 3f 25 11 3e ab 33 10 bd
       -0.040103864 0.026873458 0.14174365 -0.035205524
000120 c3 1d 01 be b5 ea 50 bf 96 da 01 3c 15 b7 b3 bc
       -0.1260901 -0.81608135 0.00792565 -0.021937886
000130 ce 6a ce bd 70 72 14 3d 73 00 77 be 4e 7a 5e bf
       -0.10078965 0.03624195 -0.24121265 -0.8690537
000140 8c 8b 2c 3e fb 4d e3 be 2c f7 da 3e e1 46 94 be
       0.16850108 -0.44395432 0.42766702 -0.28960326
000150 90 f5 03 be 5d 65 5f be 17 bc 42 3f 18 1f 45 3d
       -0.12886643 -0.21816011 0.7606825 0.048125356
000160 64 4e be be 15 ff 03 bf 85 8b 85 3d 68 c5 81 bd
       -0.37169182 -0.515611 0.06520752 -0.063364804
000170 f1 24 28 3d 67 0c 83 bd 8a d7 4b 3e e0 05 34 3c
       0.041050855 -0.0639885 0.1990644 0.010987729
000180 a7 be 2b be 54 cb 97 bd 89 44 b8 bd 86 85 da 3d
       -0.16771947 -0.07411829 -0.08997447 0.10669999
000190 07 84 92 3e 66 ef fe be 35 71 b1 bf a1 11 3f 3d
       0.28616354 -0.49792022 -1.3862673 0.04664767
0001a0 57 cc e5 bd 29 32 0f 3b ca 46 f9 3d fe e2 41 bf
       -0.11220615 0.0021849966 0.12171705 -0.7573699
0001b0 12 e0 8e bd 84 18 30 3d 45 3d fb bd 88 64 be 3c
       -0.06976332 0.04299213 -0.122675456 0.023241296
0001c0 aa a2 c8 be 7e b0 95 3e 71 f1 1b be 05 b5 d0 bf
       -0.39186603 0.29236215 -0.15228821 -1.6305243
0001d0 0b 7b a2 3e 5c fb b5 3d 9a 15 df bd 7d a1 98 3e
       0.317345 0.088858336 -0.10892792 0.29810706
0001e0 eb e3 20 bd 8a 25 71 3a 9e f7 f3 bd a2 7b fc be
       -0.03927986 0.0009199014 -0.119124636 -0.49313074
0001f0 1b bf e7 be 4c 6b 39 be f7 ad 0d 3e 00 71 7e bb
       -0.4526299 -0.18107337 0.13835894 -0.0038824677
000200 c7 f3 79 3d b3 6d 11 3e fc a9 fa 3d 56 f5 61 be
       0.0610235 0.14202003 0.12239453 -0.22066244
000210 43 43 2f bd 43 89 c7 bd 30 29 09 be b4 11 fd bd
       -0.042788755 -0.097429775 -0.13394618 -0.12356892
000220 73 7f 01 be d8 cc ae be 97 18 bd bc 57 25 26 bd
       -0.12646274 -0.34140658 -0.023083014 -0.040562954
000230 60 bd 50 3c 7c a7 b1 bd eb 90 c5 be 1b 02 d7 be
       0.012740463 -0.08674523 -0.38587126 -0.41993794
000240 0c 65 de 3b 82 fe 8d 3e 12 5d c0 bd 73 24 62 3d
       0.006786948 0.27733237 -0.09392752 0.055210542
000250 7a 4c 61 3e 43 ba 9f be ce 07 d2 bc a3 ac 03 be
       0.2200183 -0.31196794 -0.025638487 -0.12858824
000260 e8 37 27 3d 4c e9 6f bf d1 29 c8 bf 3d 02 83 3d
       0.0408248 -0.9371536 -1.5637761 0.06396911
000270 c8 a8 c4 bd fb cb dc 3c 64 06 f7 3d d6 68 c0 3d
       -0.09602505 0.026952734 0.12061766 0.09394996
000280 f6 4b 13 be 6f 87 fb bd aa e3 64 be 0f a8 ae be
       -0.14384446 -0.12281691 -0.22352472 -0.34112594
000290 d1 ed d7 3d 32 c3 a1 bf 8d 17 ac be 76 8b 7e bf
       0.10543407 -1.2637694 -0.33611718 -0.9943155
0002a0 97 b1 e0 bd b2 87 a5 3c bb d3 ea 3c 65 c0 42 3e
       -0.109713726 0.020206306 0.028665414 0.19018705
0002b0 af bf 1f bf 29 09 25 3d 36 0f 10 be 94 58 fe 3d
       -0.6240186 0.04029194 -0.14068303 0.12419239
0002c0 a0 9c 7c bd b3 ea a8 be 8a 48 c5 bc 5f 6f 9b 3d
       -0.061672807 -0.3299156 -0.02408244 0.07589602
0002d0 e3 66 d6 3d 70 e9 35 3e d9 ef 1b bc 8e 72 27 3e
       0.10468843 0.1776483 -0.009517633 0.16352293
0002e0 9e 9f 09 bd d3 05 a9 3c 6c 6d f9 be 0f c8 ae 3d
       -0.03359949 0.02063266 -0.48716295 0.08534252
0002f0 9f 36 00 3d 02 b0 c7 bd 54 b5 e6 bd d8 63 32 bd
       0.03130209 -0.09750368 -0.11265054 -0.04355225
000300 70 49 9c 3e 82 b1 38 be 9d 34 37 bd 29 43 42 be
       0.30524778 -0.18036464 -0.04472791 -0.18970932
000310 40 ad ba 3d 24 02 99 3e 5a e3 94 bf b2 13 9b bf
       0.09115076 0.29884446 -1.1631882 -1.2115386
000320 03 80 c7 be fc c9 89 be 6f e9 86 bd d2 9f 1c 3d
       -0.38964853 -0.26911914 -0.06587493 0.038238354
000330 98 8c 92 bd 98 0c 5d be 8b 64 21 bf 90 01 14 bc
       -0.071557224 -0.21586835 -0.6304404 -0.009033576
000340 a3 03 60 be 03 d3 15 bf ef bf 49 3f 61 98 ba be
       -0.21876387 -0.58525103 0.7880849 -0.3644438
000350 00 14 92 3d 0e a2 c9 3d 89 0a 5d 3f f4 2b 92 bf
       0.07132721 0.098453626 0.863442 -1.1419663
000360 cd 1c 81 be 30 a7 75 bc 8a 7a fc bd 6b b5 2d bf
       -0.25217286 -0.014993474 -0.1232806 -0.67854947
000370 1a 39 17 3f 3c 59 4a bd 25 a3 fb be 06 6d f2 3d
       0.59071505 -0.049401507 -0.49147907 0.11837201
000380 36 ca 54 bd 62 0b db bc 3e b8 18 bf 32 08 35 3e
       -0.051950656 -0.026738826 -0.5965613 0.17678908
000390 68 4b 56 3c 0c c9 9b bf 20 fe 4f 3f 2f 09 e9 3b
       0.013079502 -1.217073 0.8124714 0.0071116905
0003a0 e5 a2 13 bf 9b 93 11 3e b9 15 0c bd 1c 0f cb bd
       -0.5767043 0.14216463 -0.034200404 -0.09914991
0003b0 41 3d 35 3e 11 7e 1e 3e d7 2f 11 3e 80 79 83 ba
       0.17699148 0.15477778 0.14178406 -0.0010030717
0003c0 1d e7 bb bf 86 67 fa bc 21 d4 88 be 66 fa 09 3e
       -1.4679905 -0.030566942 -0.26724342 0.13474426
0003d0 a5 2a 23 c0 07 9d 25 3e 5d e3 0f 3e 4f d0 80 be
       -2.5494778 0.16173182 0.14051576 -0.25158927
0003e0 90 38 09 3f bc f9 89 bd 58 13 91 bf 64 bf bf bd
       0.5360193 -0.06737086 -1.1334028 -0.09362677
0003f0 55 df b0 bc 02 08 f7 bc 1b f9 fe bd 3c f7 6d 3d
       -0.021590868 -0.030155186 -0.12449857 0.05809711

w_r.2.bias f4 [32]
000000 8d 65 bd 3c cb 79 3f be 3d 25 b0 3e 03 ec fc 3d
       0.023119712 -0.18698804 0.3440341 0.12349703
000010 7f ca 24 be 9e 66 1f be 9a ea 18 bd 4f fe 9a 3b
       -0.16092871 -0.15566489 -0.03733311 0.004730023
000020 d8 39 4d 3e a9 f6 f0 3d 2b 01 fc 3c df 0c 77 be
       0.20041597 0.11765797 0.030762276 -0.24126004
000030 63 b2 78 bf aa 5c 7a be 0c 45 9e be de ad a6 be
       -0.97147197 -0.24449411 -0.30912054 -0.32554525
000040 4f 5d 1d be 07 35 27 be 78 59 35 3f cd 70 03 3f
       -0.15367626 -0.16328822 0.70839643 0.51343995
000050 46 e6 bc 3c 32 b1 89 bd be 3a 76 bd 29 d0 6a 3e
       0.023059022 -0.067232504 -0.060114615 0.2293097
000060 aa 54 32 be a8 05 c3 3e 73 2b 42 be c9 8d 02 be
       -0.1741511 0.38090253 -0.18961887 -0.12749399
000070 75 58 4e 3e ae 40 d2 bd 5f 2e 26 3f 9d cf 06 be
       0.20150931 -0.10266243 0.64914507 -0.13165136

w_h.0.weight f4 [64, 5]
000000 26 dd da 3d be fc 33 3d cd b2 80 bf 9f 87 c3 bf
       0.10686712 0.043942206 -1.0054566 -1.5275763
000010 ab 8d 39 bf 4e 1a 67 3e ca fc 95 3d fa 3d b6 3b
       -0.72481793 0.22568628 0.07323606 0.0055615874
000020 1a c8 ac 3f 70 d9 1e bf 47 ec 1a be 29 66 0e bf
       1.3498566 -0.62050533 -0.15129195 -0.55624634
000030 50 24 85 be ce 50 4a bf 6a a0 20 be fd a8 4f be
       -0.26004267 -0.7902955 -0.15686193 -0.20279308
000040 8f 05 09 3f e0 ba 19 bf ff ae 4e bf 90 98 18 be
       0.53524107 -0.60050774 -0.8073577 -0.14901948
000050 19 42 6a bd 6c 2d b6 be 96 eb 8d bf eb 5d 82 3f
       -0.057191942 -0.3558153 -1.108752 1.0184911
000060 49 42 80 bf 1f cf d0 be 42 69 17 be 9d 13 ac bf
       -1.0020229 -0.4078302 -0.14786246 -1.3443485
000070 63 d2 ff 3e 0a 90 87 bf 37 0c fc be 69 20 11 3d
       0.499652 -1.0590832 -0.4922807 0.0354313
000080 67 8c a1 bf 45 e6 1e be 8f e1 1a be 0b d3 fe be
       -1.2620972 -0.15517528 -0.15125106 -0.49770388
000090 cc 4c e1 bd 20 11 7e bf d8 4f 6e 3e b0 2e 0c bf
       -0.11000976 -0.9924488 0.23272645 -0.5475874
0000a0 3c 4a 93 bc e1 80 16 bc 98 9b c9 bd b7 10 e1 bd
       -0.017979734 -0.009186001 -0.0984413 -0.10989516
0000b0 72 9d 26 be 61 d5 a1 bc 05 0f 33 bd 9d 99 07 3d
       -0.16270998 -0.019755067 -0.043715496 0.03310548
0000c0 ba 80 45 bb f3 0e 27 be 57 29 a3 3e 2f 0a be be
       -0.0030136541 -0.16314296 0.31867477 -0.37117144
0000d0 ba a5 bb 3e 48 84 0c bf b4 86 82 be f3 a1 46 be
       0.36649877 -0.54889345 -0.25493395 -0.19397716
0000e0 bf 82 84 be 65 1b ca bf 6b c8 8f be d3 b5 83 bf
       -0.25881 -1.578961 -0.28082594 -1.0289863
0000f0 a1 85 14 3e 19 a4 09 3f 2e e0 9c 3e e0 e9 df 3e
       0.145041 0.5376602 0.30639786 0.4373312
000100 bc ca 43 bf 2b 4e a9 bd b3 b5 75 be cb 42 62 bf
       -0.76481223 -0.082668625 -0.23995094 -0.8838317
000110 11 5e 70 bf 12 c6 31 bf 7d ee 07 3f c8 bd 98 3d
       -0.93893534 -0.69442856 0.5309828 0.07458073
000120 e0 df 8a 3f 00 47 af 3d 7e 52 35 bf a1 84 ad be
       1.0849571 0.08558464 -0.70829 -0.3389025
000130 2f 01 02 3e 8b d3 9f bf a8 0a b0 be 3f bb 76 bf
       0.12695764 -1.2486433 -0.3438313 -0.96379465
000140 f3 81 0b bf 79 ea a8 3e 44 09 37 3f 9c a9 15 3f
       -0.5449516 0.32991388 0.71498513 0.5846193
000150 7e 03 f5 be d0 1f b2 be 92 59 c6 be e7 58 6e bf
       -0.47854227 -0.34789896 -0.38740212 -0.93104404
000160 1b d0 65 bf 6e 17 b8 bd be e1 80 3e 0d a4 99 3e
       -0.8977067 -0.08988844 0.25172228 0.30007973
000170 e3 a5 41 bf 44 08 3f 3e b8 fb 2f be ca 27 ef be
       -0.7564375 0.18655497 -0.17185867 -0.46710044
000180 40 64 19 be 30 fc 63 3e 25 c5 cc bf 44 4e 18 bf
       -0.14979649 0.2226417 -1.5997664 -0.59494424
000190 7c ed bf be 50 f8 56 bc b9 70 c2 be 68 2d b7 3f
       -0.37485874 -0.013120726 -0.37976626 1.4310732
0001a0 4c 31 5f bf bc c7 de 3e ce a0 81 be 19 58 a9 3f
       -0.87184596 0.4351176 -0.25317997 1.323001
0001b0 ee a0 b5 be 48 6e a2 bf 34 65 e2 3e 38 c7 f6 3e
       -0.35474342 -1.2689905 0.44217837 0.48198867
0001c0 c4 7f bd 3e 21 57 02 3f 51 d0 77 bf 5b 41 98 be
       0.3701154 0.509142 -0.9680224 -0.29737362
0001d0 67 69 e9 be 7b 2f 77 3f cb 8d 65 be c5 0e 3b bd
       -0.45588228 0.96556824 -0.22417371 -0.045668382
0001e0 9b 99 a1 3e 92 63 81 3e 26 49 4f 3f ec ec 39 bf
       0.31562504 0.2527128 0.8097099 -0.7262714
0001f0 27 09 bc be b7 15 d4 3d 75 dc 20 3e a6 bd a4 be
       -0.36725733 0.10355704 0.15709098 -0.3217594
000200 15 65 6b 3f bc e6 11 bf 88 78 17 be 1a 84 0c 3e
       0.91951114 -0.569927 -0.14792073 0.13722268
000210 c3 4b 16 bd ee 59 af 3f c4 ff 8b bf ef f0 60 be
       -0.036693346 1.3699319 -1.0937428 -0.21966909
000220 cb f8 f2 bd 81 9c 3b bf a9 b1 bb bf b8 00 76 bf
       -0.1186386 -0.7328568 -1.4663593 -0.96094847
000230 e2 86 60 bc 61 2e a6 be 32 e3 b4 3f d3 75 4b 3e
       -0.013704034 -0.3245726 1.4131835 0.19869165
000240 45 a1 42 bf ef 75 db be 99 51 cf be 0e 9d 31 bf
       -0.7602733 -0.42863414 -0.40491942 -0.6938027
000250 9e 46 51 be cc cb 8a be 5a 0e 63 bd e5 d5 49 ba
       -0.20437095 -0.2710861 -0.05543361 -0.0007699414
000260 89 c4 55 bf 88 75 9e be 9f b7 a3 be 50 d0 1d 3e
       -0.83503014 -0.30949044 -0.3197603 0.15411496
000270 34 c4 35 be 9c 14 81 3f 7a 04 59 bf 88 4e a0 3c
       -0.17750627 1.0084414 -0.84772456 0.019568697
000280 6e 75 17 3d 3a f1 92 bb 59 79 2c 3e 47 29 4c bd
       0.036977224 -0.004484323 0.16843165 -0.049844053
000290 94 3c e9 bd 80 a5 3c 3f 3c 93 b1 3d 5e d7 58 3f
       -0.113885075 0.7369003 0.08670661 0.84703624
0002a0 1a de ad 3e fe 7d 2c bf 16 59 16 bd a6 9f 4c 3c
       0.33958513 -0.6737975 -0.036706053 0.012489235
0002b0 25 bf 85 3f ab 6e 29 bf 2a 86 61 be c0 66 14 bf
       1.0448958 -0.6618449 -0.22023836 -0.57969284
0002c0 35 6b ac be 96 60 8c bf 0d 90 06 bf dd f2 bd be
       -0.33675542 -1.0966976 -0.52563554 -0.37099352
0002d0 d0 a7 68 be ed f3 b1 be 79 b5 89 bf 4c 0a bf bd
       -0.22720265 -0.34756413 -1.0758506 -0.09328136
0002e0 5a 06 a3 bb 87 9a 20 bf 40 af 13 bd e1 a9 0a bf
       -0.0049751224 -0.6273579 -0.036055803 -0.54165465
0002f0 c9 91 f2 3e a3 98 a2 bf 8b f9 39 3f 43 a2 19 3e
       0.4737685 -1.2702831 0.726464 0.15003304
000300 3b dc bc bc 09 2e 8e 3f 0c 8b 9a be cd b6 42 be
       -0.023054233 1.1107799 -0.3018421 -0.19015045
000310 e0 e5 e7 3c dd 73 3e bf e0 e7 b1 3e 55 36 b6 be
       0.028307855 -0.74395543 0.3474722 -0.35588327
000320 ae 30 3c be 46 39 1e bf 5d d7 0f be 23 07 8e bf
       -0.18377945 -0.6180614 -0.14046998 -1.1095928
000330 2b bc 3c bf 64 b4 0e be 3c 22 93 3e 7d 41 94 3f
       -0.7372462 -0.13936001 0.28737056 1.1582485
000340 c8 44 a8 3f 7c 60 69 bf d9 41 04 bd a7 85 be bb
       1.314599 -0.9116285 -0.03228936 -0.0058142724
000350 7c 3d 34 be 8a 4f 47 be 26 9d 24 bf 54 59 13 3e
       -0.1760158 -0.19463935 -0.6430229 0.14389545
000360 b4 93 1f 3e ed fa 6d 3f 7d 68 7d 3f 0c ce a1 be
       0.15583688 0.9296101 0.9898756 -0.31602514
000370 1d be e6 3e 20 a4 3b 3c 64 00 46 3f 58 da 84 bf
       0.4506692 0.011452705 0.77344346 -1.0379133
000380 2e 3c 7f bf 11 1e 11 3c 78 2c 5f 3d e6 8c 47 be
       -0.997012 0.008857266 0.054485768 -0.19487342
000390 d1 56 31 3c 19 64 28 bf 52 49 5d 3d 9e 9d aa 3e
       0.010823921 -0.65777737 0.054025 0.33323377
0003a0 c4 52 b1 3f 77 62 4b 3d fb 23 1b bf 21 2b 8c be
       1.3853383 0.04965445 -0.60601777 -0.27376655
0003b0 08 fb 2f bd f7 4f 4c 3f f3 23 4b 3f ba e4 f2 be
       -0.04296401 0.79809517 0.7935173 -0.4744013
0003c0 4d 0f b9 be 6d dd 44 3e 98 3d 14 bf 12 a0 81 3f
       -0.36144486 0.19225092 -0.57906485 1.0126975
0003d0 31 51 e8 be d8 38 55 3e 9f 04 05 bd f1 05 98 3f
       -0.45374444 0.20822465 -0.03247511 1.1876813
0003e0 02 e3 7d 3f 08 5a 33 bf 55 11 bb 3e 82 c4 9d 3e
       0.9917451 -0.7005925 0.3653666 0.30813986
0003f0 9f 49 bb 3f 34 10 9c be d7 aa b7 bf 78 b8 c8 3e
       1.4631842 -0.30481112 -1.4349011 0.39203238

w_h.0.bias f4 [64]
000000 14 1d ab be 2e e2 23 bf 67 3a 05 bf 9d 92 15 bf
       -0.33420622 -0.64017 -0.5204224 -0.5842684
000010 e1 14 86 bf d4 8c 7e bf 3b 9d c6 be 91 13 b5 be
       -1.0475122 -0.99433637 -0.38791832 -0.3536649
000020 30 67 55 be de a8 50 be 85 0e 88 bd 5e ea 2c bf
       -0.20840144 -0.20376918 -0.066433944 -0.67545116
000030 77 63 8c bf 96 ba 93 bd 21 1e bb be 31 b3 52 bf
       -1.0967854 -0.07213323 -0.36546424 -0.82304674
000040 52 30 5b bf 38 68 33 bf 7c 1f 0c bf ca 75 8e bf
       -0.85620606 -0.700809 -0.5473554 -1.1129696
000050 83 3d 91 bf d8 dc 54 bf 88 53 95 bf 05 3d 60 bf
       -1.1346897 -0.8314948 -1.1666117 -0.8759311
000060 b9 74 22 bf 35 ac 53 be db 93 35 bf 29 f0 4d bf
       -0.63459355 -0.2067116 -0.70928735 -0.8044458
000070 15 5d 85 bf f8 ab 0f bd de d0 ba bd f3 e0 0a be
       -1.0419031 -0.03507611 -0.091218695 -0.13562374
000080 ef d8 99 be 61 da a5 bf c9 de 06 bf 78 13 68 bf
       -0.3004832 -1.2957269 -0.52683693 -0.90654707
000090 b9 9e 2d bf 72 90 93 bf 09 0b 82 bf 0d b0 d0 bd
       -0.67820317 -1.1528456 -1.0159618 -0.10189829
0000a0 3a b8 87 bf b6 6a 4f bf f4 f6 8f be 6d db 9a 3d
       -1.0603096 -0.810222 -0.28118098 0.075613834
0000b0 ae 8c 20 bf 68 07 97 be c1 be 50 bf 42 8d 13 bf
       -0.6271466 -0.29497838 -0.8154107 -0.5763742
0000c0 54 6f 04 bf 3f 58 49 bf 07 fa 9f bf a8 35 82 bf
       -0.51732373 -0.7865028 -1.2498177 -1.0172625
0000d0 ce 12 db be a3 7e 92 bf d1 e4 44 bf 83 4b 11 bf
       -0.42787784 -1.1444896 -0.76911646 -0.56755847
0000e0 79 ce 61 bf 13 4c c3 bd 16 c9 71 bf fb 6e 45 3c
       -0.8820568 -0.095359944 -0.9444746 0.012050386
0000f0 d6 e7 f5 be b1 29 1e bf f5 3a 93 bf 69 82 6d be
       -0.4802844 -0.61782366 -1.1502367 -0.23194279

w_h.2.weight f4 [32, 64]
000000 ac aa 4c bd cf 4e b3 3e c2 6c cd bf f5 b8 0a be
       -0.049967453 0.35021064 -1.6048815 -0.13547118
000010 3a c2 48 be 37 f7 f7 3e 94 16 c2 3e 18 0d 1d 3f
       -0.19605342 0.48430797 0.3790785 0.61348104
000020 d0 ad 92 bd e7 7d f8 bd 3f 58 f8 bc 6d cd f8 be
       -0.07162058 -0.12133389 -0.030315517 -0.48594227
000030 dc 6d 96 bf 05 74 f0 bf c2 ca b1 be d0 ae 17 40
       -1.1752276 -1.8785406 -0.34725004 2.3700447
000040 c4 c4 f5 bf 39 81 8b 3e a6 66 f0 3c 09 a3 86 3f
       -1.9200673 0.27247027 0.029345822 1.0518504
000050 7e e1 69 3e ce d4 34 3f 68 c1 31 bf 7f 43 e1 be
       0.22839925 0.70637214 -0.6943574 -0.43996808
000060 d7 f3 87 bf 52 1a 91 3e ec ea f8 3e 4d 1c ac 3f
       -1.0621289 0.28340393 0.4861673 1.3446137
000070 79 6c fe 3e 82 9c 7a bf 3a 2c 37 3e 16 11 02 c0
       0.49692133 -0.9789506 0.17887965 -2.0322928
000080 c4 00 37 bf 29 77 e4 3d 55 65 c6 bf a6 12 9b 3d
       -0.71485543 0.111555405 -1.5499674 0.07571916
000090 76 08 13 bf 88 20 75 c0 6f 58 bb 3e ed 89 7c 3f
       -0.57434785 -3.8301105 0.36590907 0.9864796
0000a0 9a 9c ce bf cf 09 a5 be dc 0a 55 be da a0 7e bd
       -1.6141541 -0.32234046 -0.20804924 -0.06216512
0000b0 ee 20 8a 3e c6 af 6d 3e 17 a2 04 c0 eb 43 af 3f
       0.26978248 0.23211583 -2.0723932 1.3692602
0000c0 4d a5 80 3f 2d ef de bf 4f f7 0e 3f f9 90 9c bd
       1.0050446 -1.7416741 0.5584611 -0.07644839
0000d0 5e 26 c1 be e9 d0 2c bf c1 7d 2d c0 c5 3e fd 3e
       -0.37724584 -0.6750627 -2.7108004 0.49461952
0000e0 eb 2c 5a be e9 47 b7 3f fd c6 58 3f 2d 1e 8b bf
       -0.21306197 1.431882 0.8467863 -1.0868584
0000f0 0d 04 b4 bf fe 9f bf bf fd 3e 17 3f 9b 67 37 3f
       -1.4063736 -1.4970701 0.5908049 0.71642464
000100 ef 96 9a be e8 1b 1f bf 77 9f 13 be 45 0b 3c 3d
       -0.30193278 -0.62151957 -0.144163 0.045909185
000110 ce 8e 86 3e 82 ab 4c c0 70 d1 d5 3e 4f b1 2a 3f
       0.26280826 -3.197968 0.4176135 0.666768
000120 b7 da 96 3c 59 6a 96 3d a5 c8 2e be e9 b4 86 3f
       0.018414838 0.07344503 -0.17068727 1.0523959
000130 19 71 c5 3e 0f b2 d1 3d 31 50 e1 be c1 d6 e7 3f
       0.3856285 0.1023904 -0.44006494 1.8112413
000140 4a ad 88 bb 23 c6 0c 3f 56 53 46 3e dc 91 ad 3e
       -0.0041710483 0.5498983 0.19367728 0.33900344
000150 31 80 34 bf c7 bc 3d bf ef 52 3e 3e b9 96 b6 bf
       -0.70508105 -0.74116176 0.18586324 -1.4264747
000160 08 5c ac 3e 6a b5 f4 3d 32 64 00 3f 7f e0 1a 3f
       0.33663964 0.119486645 0.50152886 0.60498804
000170 64 76 e0 bd 3a bd 0c bf 9c 02 f6 be 3d 33 f6 3e
       -0.10960081 -0.54976237 -0.48048866 0.48085967
000180 d6 f4 ad 3d 18 98 8a c0 03 bd f1 3e c4 b4 9f bf
       0.084939644 -4.331066 0.47214517 -1.247704
000190 50 c2 01 be 90 2d 28 bf 17 b8 b8 bf bc 2e aa bf
       -0.1267178 -0.6569452 -1.443118 -1.3295512
0001a0 46 22 4a 3e d4 0e 0f bf 21 92 47 bd b7 75 04 bf
       0.19739637 -0.55882 -0.048723344 -0.5174212
0001b0 62 78 30 3e a9 1c db bd cd da ce 3e 3d bb b1 be
       0.17233422 -0.10698826 0.40401307 -0.34713164
0001c0 4d 72 3c bd 5e c6 08 3e e7 e0 cd 3e d7 09 56 be
       -0.046007443 0.13356921 0.4021065 -0.20902191
0001d0 9c e7 cc bd a8 8f 67 be 7c c7 08 bf 36 46 ad 3e
       -0.100051135 -0.22613394 -0.5342939 0.3384263
0001e0 95 b9 c0 be cd b0 8d be 5f 7b 01 bf d5 97 76 3e
       -0.37641588 -0.2767395 -0.50578874 0.24081357
0001f0 23 d5 d9 be 03 fb 9d 3f 0a 53 ec be 08 e2 6a bf
       -0.42545423 1.2342228 -0.46157104 -0.91751146
000200 30 a7 fc be 05 45 d0 3e 14 fd 89 3e 95 f5 28 3f
       -0.49346304 0.40677658 0.26950896 0.6599973
000210 a3 56 0e 3f 83 ad a7 bf 7b c7 26 bf 0c 70 49 bf
       0.5560095 -1.3099827 -0.65148133 -0.78686595
000220 c7 70 d5 bc fb 31 55 3d a7 b2 0e 3d 2f 16 ae bf
       -0.026054753 0.05204962 0.034838345 -1.360052
000230 44 a1 80 bf da b5 a1 3e 6a 00 38 3f a1 d2 07 be
       -1.0049214 0.31584054 0.7187563 -0.13263942
000240 0b 65 d8 be de 44 3b bf ac 27 c0 3b 16 ac 03 bf
       -0.4226459 -0.7315196 0.0058641043 -0.5143446
000250 12 9f ea bd 8e c1 b7 bf cf d1 10 bf 5a 78 03 3d
       -0.114561215 -1.4355943 -0.5657014 0.032097198
000260 0d 7c 1e 3f bb 26 97 be 70 b2 1b be 60 57 13 3f
       0.61908036 -0.29521737 -0.15204787 0.575552
000270 03 5b 5e be 99 44 67 3e da 14 fc be 31 9e 06 3f
       -0.21714406 0.22584762 -0.49234658 0.5258513
000280 7b 0d 6b 3d bd ac bf bf 6f 38 e4 bd 5d b3 09 3f
       0.057385903 -1.497459 -0.11143576 0.5378931
000290 b6 9d fe 3e 0d 40 c8 3f 23 3e f5 be a6 71 de bc
       0.497297 1.5644547 -0.4789897 -0.027153801
0002a0 1f 63 73 bf 8d 5c 86 3e 1e d9 41 3e 3e 61 5a 3e
       -0.9507312 0.26242486 0.1893048 0.21326157
0002b0 25 2b e7 3e a0 02 77 bd e0 6b 81 3e 1a fe 10 3e
       0.45150104 -0.060305238 0.25277615 0.14159432
0002c0 bf 63 64 3f 60 a7 0d 3f 53 4f 9c bf 66 ef d0 bf
       0.892147 0.5533352 -1.2211708 -1.6323059
0002d0 0e 80 b3 3c a2 cc 88 bf e4 1a e8 bc e3 bf 2d 3f
       0.021911647 -1.0687449 -0.028333135 0.6787092
0002e0 6c 44 e0 3e 1f e6 99 bd 77 6b a2 bf cd 4d d0 3e
       0.43802202 -0.07514595 -1.2689046 0.40684357
0002f0 05 b9 94 bd 7f 6a a7 3f 15 86 13 3f 6d 14 02 3f
       -0.07261852 1.3079375 0.5762647 0.5081242
000300 7f 2a e4 bd 21 6e b5 3d 51 ed 34 3d 80 04 0a bd
       -0.11140918 0.08858896 0.044171635 -0.033695698
000310 f6 be 63 3c 40 b8 a7 bd 6e 45 9a 3d c0 2e 05 be
       0.013900509 -0.0818944 0.07532774 -0.13006115
000320 84 7b 8b bd f0 98 1f 3d e4 91 fb bd 2a 40 9a bd
       -0.06810668 0.038964212 -0.12283686 -0.075317696
000330 f9 a3 95 bd 7c cb d4 bc 7f 3b dd bd 07 de 21 be
       -0.07306666 -0.025975935 -0.108023636 -0.15807353
000340 fb be b3 bb 68 b5 af bc 6d 42 f4 bd 58 14 ab bd
       -0.005485413 -0.021448806 -0.11926732 -0.0835349
000350 64 df c3 bc fd fe 98 3c 08 ec 97 3c bf 1e 1e be
       -0.023910232 0.018676275 0.018545166 -0.15441416
000360 a3 5b 7b bd 60 3b 83 be 14 4f 3f be 88 70 03 be
       -0.06136669 -0.25631237 -0.1868251 -0.12835896
000370 45 2e 97 3d 97 86 1c be 64 8c f2 bd 80 3b bd 3c
       0.07381872 -0.15285717 -0.11843184 0.02309966
000380 a3 81 04 bc 97 e9 4b 3d 18 78 56 be 8c 49 30 be
       -0.008087548 0.049783316 -0.2094425 -0.17215556
000390 4e 29 d4 bd f7 1a e1 bd d5 a9 f4 bd 85 04 02 be
       -0.10359441 -0.10991471 -0.119464554 -0.12697037
0003a0 46 ff fa bd 2e b1 3c bd bb 44 93 bd 63 af 32 be
       -0.12255721 -0.04606741 -0.07190844 -0.17449717
0003b0 63 f4 ab bd 56 07 dc bd fb 43 6b be 6f 5a cb bd
       -0.083962224 -0.10743587 -0.22975151 -0.09929358
0003c0 a7 34 a8 3d f2 09 fc bd d6 68 30 bd b8 9a 74 3c
       0.08213168 -0.123065844 -0.04306873 0.014929466
0003d0 cd af a9 3d 8f 2a 22 3d df ea 38 3b cb b3 51 be
       0.082854845 0.03959137 0.0028216166 -0.20478742
0003e0 9e 40 2b 3d b8 76 92 bd dd 38 2d bd 20 26 5a be
       0.04180967 -0.0715155 -0.042290557 -0.21303606
0003f0 73 4d 26 be 9c 58 66 be c6 4f 0d be 69 50 3c 3d
       -0.16240482 -0.2249474 -0.13799962 0.045975123

w_h.2.bias f4 [32]
000000 1a e6 1c bf 70 13 14 3f 30 f1 89 be 79 7e df bd
       -0.6128861 0.5784216 -0.26941824 -0.109127946
000010 0e d6 b1 3e d7 4f 2b 3e 04 5f 97 3e 1d 5f fc bd
       0.34733623 0.16729675 0.2956468 -0.12322829
000020 46 39 8a bd d5 27 46 be 2f 95 0c be 38 9d c1 3d
       -0.06749205 -0.19351132 -0.13728784 0.09453815
000030 8a bb 9b 3e 98 18 65 3e dd 18 8a 3e 77 e9 61 be
       0.30416518 0.22372663 0.26972094 -0.22061716
000040 a1 27 95 be c0 2c 84 bc 87 d9 c6 bc dc 72 b0 bd
       -0.29131797 -0.01613462 -0.024273647 -0.08615658
000050 d3 b9 9e bd 8e 5f 01 be ed 6d a2 bd c8 cc 82 bd
       -0.07750287 -0.12634107 -0.07931123 -0.06386715
000060 cb 97 61 3d 2f b0 c5 bd 68 c2 c1 3e 1d e6 26 be
       0.0550764 -0.09652745 0.37843633 -0.16298719
000070 c4 36 84 be 56 7d 49 be 54 e7 ca bb a4 b7 1a be
       -0.25823033 -0.19676718 -0.0061921272 -0.15109116

Ws.0 f4 [32, 32]
000000 c7 0f 0e c0 b9 6b 53 bf fd 3c 03 3f ea ef 82 3f
       -2.219713 -0.82586247 0.51264936 1.0229466
000010 95 86 0a 40 e1 18 65 3e 37 73 49 3e 0c a9 72 40
       2.1644642 0.22372772 0.19672857 3.7915678
000020 36 83 d6 c0 9e 39 b2 3c 45 d3 bd bf 29 66 95 3f
       -6.703517 0.02175599 -1.4830099 1.1671802
000030 ad b5 e4 3e 71 c3 fe 3e 29 42 d1 3e 0c 7f 7e 3e
       0.44669858 0.49758485 0.4087079 0.24853152
000040 47 86 90 bf a0 4e 86 bf 33 eb 0d 3f b5 81 8d 3f
       -1.1290978 -1.0492744 0.5543701 1.1055208
000050 0f 89 a0 3f 2e e8 57 bf 29 72 a8 3f e0 50 bb 3e
       1.2541827 -0.84338653 1.3159839 0.3658514
000060 45 fd 9b be e3 b3 95 3d ff ec 8d 3e 8e 01 88 3e
       -0.30466667 0.07309701 0.27719876 0.26563686
000070 cc cc da 3e 8d 32 0d bf 69 01 71 3f ef 01 b5 3f
       0.42734373 -0.5515526 0.94142777 1.4141215
000080 dc 29 79 c0 5b aa 07 c0 4e cf 30 bd 9f 19 90 3f
       -3.89318 -2.1197727 -0.04316645 1.1257819
000090 ff 13 04 c0 52 8e 9c 3e 47 6b a0 3f 41 ce c2 bd
       -2.0637205 0.30577332 1.2532738 -0.09511996
0000a0 62 0f 17 be f1 86 cd bf c9 6a 1f bf 38 37 02 3f
       -0.14751962 -1.6056806 -0.62272316 0.5086551
0000b0 af f6 f6 3e cb 8b 3a 3e 42 25 d0 bd 21 55 da bf
       0.4823508 0.1821739 -0.10163356 -1.7057229
0000c0 dd 18 8e bf e1 f7 02 3f 72 0d 83 3e 03 d2 e3 3f
       -1.1101338 0.51159483 0.25596195 1.7798465
0000d0 c0 3e 54 c0 a9 3d c1 bf ca c4 d8 3f 10 ac 33 be
       -3.31633 -1.5096942 1.6935055 -0.17546105
0000e0 8b 76 7a 3e 5f 50 7a 3f e3 f2 71 3f b3 e0 21 3f
       0.24459283 0.97778887 0.9451124 0.6323349
0000f0 32 27 1f bf 30 1a 08 c0 91 f5 46 3f ae 1e 85 3f
       -0.6216918 -2.1265984 0.77718455 1.0399988
000100 95 e1 5b c0 86 b3 ac bf d3 ff a4 bf 8d 65 08 3f
       -3.4356434 -1.3492286 -1.2890571 0.53279954
000110 4b 40 a5 3e c9 70 b1 3f 5e 76 a1 bf f7 ce 23 bf
       0.32275614 1.3862544 -1.2614248 -0.6398768
000120 dc 7c ad c0 40 e9 5e 3f fe 26 af 3f 2a 29 88 be
       -5.4214916 0.8707466 1.3683774 -0.26593906
000130 d6 74 86 bf e2 c7 ec 3d 06 f6 92 bb e8 65 b5 be
       -1.0504405 0.11561562 -0.0044848947 -0.3542931
000140 af 73 9f 3f 9c ef 54 3f 74 35 d3 bf f8 2b a7 3f
       1.2457179 0.83178115 -1.6500688 1.3060293
000150 28 a2 58 3f b8 98 11 bf 09 79 6a bf d6 a9 d0 bf
       0.8462243 -0.56873655 -0.91590935 -1.630183
000160 74 ff 40 3f 5c 31 09 bf 48 0b 8a bf 3c da 03 bd
       0.7538979 -0.5359094 -1.0784693 -0.032190546
000170 6f b1 10 bf 3c 34 07 3f 4d 04 4f bf 77 62 fa 3e
       -0.5652074 0.5281408 -0.8086594 0.48903248
000180 15 10 4a c0 e0 b7 48 bf 18 8d 58 be 9d 90 45 c0
       -3.1572316 -0.7840557 -0.21147573 -3.0869515
000190 1c 79 99 3e 83 9a 61 3f e9 e4 ac bf c9 ab 9d 3f
       0.29975212 0.8812639 -1.3507358 1.231805
0001a0 9e 4f 50 3e 57 4c 4b 3f a2 57 d2 3f d9 1c 2b c0
       0.20342872 0.7941336 1.6432993 -2.6736357
0001b0 8a c7 b1 3e a2 90 a3 be 25 aa a1 bf c4 2b bc bf
       0.3472255 -0.31946284 -1.2630049 -1.4700856
0001c0 d5 8b f2 be 8a c1 17 bf 82 b9 de 3f 76 26 9b 3f
       -0.47372308 -0.5927969 1.7400362 1.2121112
0001d0 bf 37 cb 3d c6 c4 f9 3e 70 66 6b c0 7d f7 8d c0
       0.09922742 0.4878294 -3.6781273 -4.436461
0001e0 61 c4 a0 be 75 3c b0 bd 0b de 5a 3f c1 19 66 bf
       -0.31399825 -0.08605281 0.8549506 -0.8988305
0001f0 63 a3 ac bf 17 d3 7b bf a4 67 52 bf 9c a1 64 bf
       -1.3487362 -0.9836897 -0.82189393 -0.89309096
000200 aa 65 77 3e ad d7 06 c0 9a b6 63 bf 28 0c 88 c0
       0.24159876 -2.1069138 -0.889505 -4.251484
000210 ee 6c 76 bf 24 e2 b3 be d3 7d 02 c0 2d 34 83 bf
       -0.96259964 -0.3513347 -2.0389297 -1.0250298
000220 bf 0f 9a 3e 68 39 31 3f b2 9c 57 3f 54 82 43 be
       0.30090138 0.6922822 0.84223473 -0.19092685
000230 2d 23 08 3f 8c cc bd be 22 19 65 3e 59 51 4b 3f
       0.53178674 -0.3707012 0.22372869 0.79421
000240 e5 c2 26 3f 9b 21 72 bf b6 8a 24 3f 5c 19 32 c0
       0.65141135 -0.9458253 0.64274156 -2.7827978
000250 7f 1e 53 3b 08 fb 6a 3f b8 d7 ca be d9 90 ff bf
       0.0032214222 0.91789293 -0.39617705 -1.9966079
000260 05 c5 5f 3e ec 4a 36 c0 bd 0c 6b bf 34 76 74 c0
       0.218525 -2.8483229 -0.9181631 -3.8197145
000270 02 72 72 3e 09 b8 1d 3f 46 0c 75 3f 6e 1f fa bd
       0.23676303 0.6160894 0.9572185 -0.12213026
000280 c0 4f 19 c0 88 cd a0 bf 9b 33 96 bf 00 a5 40 be
       -2.3954926 -1.2562723 -1.1734499 -0.18812943
000290 b2 ac 86 bb d2 00 3e 3e c9 41 f5 3f 57 34 47 be
       -0.0041099424 0.18555 1.9160701 -0.1945356
0002a0 ad 90 1a 3f 3a 1e b6 3e 24 71 35 3e e1 83 8e bf
       0.6037701 0.35569936 0.17718941 -1.1133996
0002b0 b3 78 59 be 82 07 ce bf 2b e4 82 3f c7 02 c0 bd
       -0.2123745 -1.6096041 1.0225881 -0.0937553
0002c0 b3 ce 6a 3f 4e 83 40 3f 5a ac b7 3d 79 b8 35 bf
       0.9172165 0.75200355 0.0896842 -0.7098461
0002d0 a4 b7 b2 bf 2b 13 d3 3f 43 3a 56 bf 1d 83 80 3f
       -1.3962293 1.6490225 -0.8368265 1.0040013
0002e0 74 4e d7 3e 69 b8 2e 3f 50 61 55 bf c2 49 74 bf
       0.42052042 0.6825014 -0.8335161 -0.95425045
0002f0 89 9a 82 3e b4 a1 7f 3e d9 6c 45 3f bf 4e ea bf
       0.25508526 0.24964029 0.77119213 -1.8305281
000300 5f 19 5b c0 f7 41 4c 3c 1f 19 07 3f 2b 63 02 40
       -3.4234235 0.012466899 0.52772707 2.0373027
000310 b2 6f d2 3c 55 75 de 3e b9 a0 11 3f 0d 9d ad 3f
       0.025688026 0.43448892 0.5688587 1.3563553
000320 e3 22 4d 40 b5 43 c4 3e e9 c7 d2 3e d2 2f 16 c0
       3.2052543 0.38332906 0.41168144 -2.3466687
000330 2f a3 92 bf c2 59 89 3d 99 e1 bf 3e c1 9a 69 3f
       -1.145605 0.06706573 0.37476805 0.9125176
000340 c1 ea d5 bf ae b3 53 be bd 18 b6 be 83 8e 9d 3f
       -1.6712266 -0.20674011 -0.3556575 1.2309116
000350 8b 76 71 bd ed e4 11 bf 51 d1 43 c0 27 fe 35 3e
       -0.058950942 -0.5698994 -3.0596507 0.17772733
000360 a8 fc 92 3d 45 74 a4 3e d2 02 b6 be 84 a6 d1 3f
       0.071770966 0.32119957 -0.35549027 1.6378942
000370 78 87 00 40 0e 22 26 40 55 fc 21 3e 4a de 32 3f
       2.0082684 2.5958285 0.15818913 0.69870436
000380 27 d2 c6 3f 28 0b d1 3f 7b 7a 42 bf 86 2c 0b c0
       1.5532883 1.633153 -0.7596814 -2.1745925
000390 3b 98 3c bf aa 63 d8 3f 33 48 3d c0 39 89 f0 bc
       -0.73669785 1.6905415 -2.9575317 -0.029362308
0003a0 c9 0f ca be c3 12 f5 be e3 98 0e c0 d0 e9 52 c0
       -0.39465168 -0.47865877 -2.2280815 -3.2955208
0003b0 41 1a 84 c0 0d b8 7c c0 4e 01 a5 3f 71 fa b3 bf
       -4.128205 -3.9487336 1.2891023 -1.4060804
0003c0 58 9f 59 3f 59 00 81 3f a4 27 29 bf 67 0d 55 bf
       0.85008764 1.0078231 -0.6607611 -0.83223575
0003d0 ab 4f a1 bf 8a f2 f1 bd 6a 63 75 c0 30 41 92 3f
       -1.2602438 -0.11813839 -3.8341928 1.1426144
0003e0 cf 6d 49 3f 75 e2 14 3f b5 7b c4 3f 37 36 39 c0
       0.7868318 0.58158046 1.5350252 -2.893934
0003f0 d6 06 b4 3b 16 ac 97 3f 4a 39 03 bf 3a 05 a7 3f
       0.005493979 1.1849391 -0.5125929 1.304847
