crowd_nav/GRL_output/rl_model_2.pth (torch, 143871 bytes, 33 tensors)

w_a f4 [32, 32]
000000 6d e4 03 3f 3a 3e 2e 3f d7 0b 15 3f 7f e2 a9 bf
       0.51520425 0.680637 0.5822119 -1.3272246
000010 3e 29 1a be 8d 33 4c bd d8 b7 dc 3e a1 85 ad be
       -0.15054795 -0.04985385 0.43109012 -0.33891013
000020 2b 20 58 3f a1 9b 6f bf 4f 90 40 bf c7 88 0a bf
       0.84424084 -0.93596846 -0.752202 -0.54114956
000030 ae 8b 01 c0 9a 4a 8d bf 4d ee a4 be d5 5f 8d bf
       -2.0241504 -1.1038392 -0.3221306 -1.1044871
000040 ba a2 0b 3f 0a ab ee bf c2 13 93 bc 32 6f dc bd
       0.54545176 -1.8645947 -0.017953757 -0.10763396
000050 6f fe 90 bd 76 8e b5 bf c4 98 35 3f 39 34 78 bf
       -0.07079779 -1.4184101 0.70936227 -0.96954685
000060 e8 03 90 be 89 3d a4 3f 4f 69 3e 3d 6d 28 84 3d
       -0.2812798 1.2831279 0.04648715 0.06453023
000070 78 91 1e be fb 82 6b be b5 bb b0 3e 54 d7 ab 3f
       -0.1548518 -0.22999184 0.3451821 1.3425088
000080 c2 d5 05 be d9 89 fb 3e d2 2c 8c bf 3f a0 c8 bf
       -0.13069823 0.49128607 -1.0951178 -1.5673903
000090 28 2f 16 3f 52 6e 7a 3f 64 73 4c 3e 93 ae 4e 3f
       0.58665705 0.97824585 0.19965893 0.8073513
0000a0 ab e1 e8 3c 11 86 1f be c7 7c 04 be 0c 55 45 3e
       0.02842792 -0.15578486 -0.12938224 0.19270724
0000b0 4f d6 e9 3d af 12 99 bf 0b 1d a0 3d 39 e8 08 bf
       0.11417829 -1.1958827 0.078180395 -0.53479344
0000c0 b5 4e 89 be 88 53 be 3e 8a a9 99 bf f2 ec b3 bd
       -0.2681786 0.37173104 -1.2004864 -0.08785428
0000d0 9b 8b 95 3f 3d 97 bc bf d4 46 e7 bf a7 8c d8 bf
       1.1683229 -1.4733654 -1.806849 -1.6917924
0000e0 fe 4c 50 3e 5b be 56 3f 7f 00 4b bf 72 2e 43 bf
       0.2034187 0.8388421 -0.7929763 -0.76242745
0000f0 77 1f 07 bf 71 93 9e 3f 75 03 8b 3f e7 88 56 be
       -0.52782387 1.2388746 1.086043 -0.20950662
000100 45 2b 32 bf 0d 89 de be 5a b1 82 bf 20 f1 05 3f
       -0.69597274 -0.43463936 -1.0210373 0.5232105
000110 3c 08 b2 bf 60 28 29 3e 34 2d 7d bf c9 d7 bf bf
       -1.3908763 0.16519308 -0.988971 -1.4987727
000120 37 3b 01 c0 08 ab 0c 3d be 57 35 3f 4d 1d bd bf
       -2.0192392 0.034342796 0.7083701 -1.4774567
000130 70 e2 9e bf f4 03 20 3e 6f be b5 bf 6e 0d 80 bf
       -1.2412853 0.15626508 -1.4198741 -1.0004098
000140 b0 5f 28 be d5 05 38 3e d0 ee bf bf 18 e9 3f 3f
       -0.16442752 0.17970975 -1.4994755 0.7496505
000150 be 3f 8c be 79 8e 21 3f 26 e3 23 3f d9 f7 be bf
       -0.2739238 0.6310802 0.64018476 -1.4919387
000160 7d cc d9 bf 5f 7b 99 3f ad b2 7c bf ae 3e b6 3e
       -1.701553 1.1990775 -0.9871014 0.35594696
000170 47 e3 48 bf ff ef ff bd fc 18 f0 3f 90 1f 60 bf
       -0.784718 -0.124969475 1.8757625 -0.8754816
000180 7d 08 6f bf a5 06 d5 3f 24 2d d1 3e 55 20 d6 3d
       -0.9337233 1.6642653 0.40854752 0.104553856
000190 8f a5 6f bf 7a 37 7d bd 3d 10 5d 3f 71 a4 2e bf
       -0.93612 -0.061820485 0.863529 -0.6821967
0001a0 03 8c 15 be c8 e3 5a bf 5a 78 4b bc 1c c5 a1 bf
       -0.14604191 -0.85503817 -0.012418831 -1.2638278
0001b0 37 a1 05 be 4e 27 79 bf dc f8 41 3f 9d 50 55 bf
       -0.1304978 -0.973256 0.75770354 -0.8332613
0001c0 25 87 b4 be a1 7a 0e 3f e6 9c 2f bf 32 af 58 3f
       -0.35259357 0.55655867 -0.68598783 0.84642327
0001d0 ce a1 60 bf 68 0e 89 be 73 81 37 bf 18 c7 0a 3f
       -0.87746894 -0.26768804 -0.716819 0.5421004
0001e0 12 fa 3d 3e 21 24 80 3e eb 9a b4 bf b3 7b 07 3f
       0.18552426 0.25027564 -1.4109777 0.52923125
0001f0 db c0 2f bf 9d 76 ff 3e 4a 83 d8 be 4d 25 f5 3e
       -0.6865365 0.49895182 -0.42287666 0.4788002
000200 31 b1 80 3f 4d 96 86 be bd a0 cd be e1 62 fb 3d
       1.0054075 -0.26286545 -0.40161696 0.12274719
000210 e9 32 78 bf 65 38 8c 3e 15 4a 21 3f 5b 33 fd be
       -0.9695268 0.27386776 0.63003665 -0.49453244
000220 30 85 d7 bf 44 a6 0d 3f 97 18 8f 3f 33 26 0a 3e
       -1.6837521 0.55331826 1.1179379 0.13491134
000230 80 4d 06 c0 01 6d 26 40 2d 4d 4a 3f 24 5e 26 3f
       -2.0984802 2.600403 0.7902401 0.649874
000240 26 cf b6 3d 13 66 9e be 06 f3 79 bf 6f 3f ab 3e
       0.08926229 -0.3093725 -0.9763645 0.33446833
000250 9e 50 74 bc d5 95 49 3e bd 7c 36 3e 18 37 4b 3f
       -0.014911799 0.19686063 0.17821021 0.7938094
000260 ae 19 d9 bf 04 c6 b6 3f 94 2b 57 bf 64 37 64 3d
       -1.6960962 1.427918 -0.8405087 0.055716887
000270 fa 9c 48 3f b7 8a 91 be e7 0e 46 bf e3 cc 67 be
       0.7836453 -0.28426144 -0.7736649 -0.22636752
000280 36 35 63 3e f3 db 06 40 d1 04 7c bf a2 59 98 bf
       0.22188267 2.1071746 -0.9844485 -1.1902354
000290 40 9e d1 3e 3b d6 c1 be 40 44 4a bf 48 e1 5f 3e
       0.40941048 -0.37858757 -0.7901039 0.21863282
0002a0 a9 0c d8 3d ba 9e e5 3f 73 38 f9 3f fe 4f 02 40
       0.1054929 1.7939065 1.9470352 2.0361323
0002b0 ef 43 ca bf 7b 4e 45 be f1 8a fe be bc 8d 8c bd
       -1.5801982 -0.19268219 -0.4971538 -0.06862971
0002c0 96 db 0b 40 81 5a a8 3f 6b 64 0e bf cb 50 83 3f
       2.1852775 1.315262 -0.55621976 1.0259031
0002d0 f0 8b 2f bf c9 42 49 3b 44 2a d9 3f 9d 94 b7 3f
       -0.685729 0.0030709973 1.6966023 1.4342228
0002e0 a0 15 06 bf db 93 7f 3f fa a1 7e 3f 21 29 e2 3f
       -0.5237675 0.99834985 0.99465907 1.7668802
0002f0 0e 72 81 3f 3d 6e ed 3f c5 d5 18 40 b7 57 5b bf
       1.0112932 1.8549267 2.3880475 -0.8568072
000300 d4 26 72 be 1d 50 80 be 37 62 96 3e 28 55 f2 bc
       -0.23647624 -0.25061122 0.29371807 -0.029581621
000310 b3 1a c6 bd 8b ca 2b 3f db 5d 1c bf 6a 89 0e 3f
       -0.09673061 0.6710593 -0.6108071 0.5567843
000320 e5 fc c7 be 1f 19 37 bf b6 2e 32 3f ff 75 8e be
       -0.3906013 -0.71522707 0.69602525 -0.278244
000330 c2 f4 1e bf a2 39 38 bf 49 83 40 be f3 29 b5 be
       -0.6209222 -0.7196294 -0.18800081 -0.35383567
000340 ab 41 db be c7 1f 13 bf a3 ca a7 bf 50 71 88 be
       -0.42823538 -0.57470363 -1.3108715 -0.2664895
000350 c6 37 1b c0 c0 9c f7 3c 72 71 27 3e 30 ab ce bd
       -2.4252791 0.030226111 0.1635187 -0.10091245
000360 ef 28 45 3f ec 90 1e c0 99 a0 a8 bf 9f 22 27 be
       0.77015585 -2.4775953 -1.317401 -0.163218
000370 4c c4 1a bf 27 38 06 bf 2c 0d 04 bf 87 4a 00 c0
       -0.60455775 -0.5242943 -0.515826 -2.0045488
000380 22 a8 82 3f 32 75 2e 3e 74 17 a9 be c4 bb 2e be
       1.020756 0.17036894 -0.33025706 -0.17063814
000390 27 46 25 3e 4f c4 3e bf 05 0d 27 bf 25 fa 94 3f
       0.16140042 -0.74518293 -0.6525424 1.1638838
0003a0 17 ee 73 be bd f4 e2 3e 75 5d 9c bf d6 f5 fd 3e
       -0.23821293 0.44327345 -1.2216021 0.4960162
0003b0 30 5b 2a bf be c3 2f 3f b0 2a 98 3e 9e 0e b6 be
       -0.6654539 0.68658054 0.29720068 -0.35558027
0003c0 cf ee 0f be 8f b7 20 bf 83 b1 92 bc 7c e7 70 bf
       -0.14055942 -0.6278009 -0.01790691 -0.9410322
0003d0 7e c7 dd be 6e 8a 5a 3f 65 d1 65 3f 92 3c 01 c0
       -0.43316263 0.85367477 0.89772636 -2.019322
0003e0 93 6d c7 bf 95 fe 8b bf 77 ff da bf e9 c8 d1 3f
       -1.5580314 -1.0937067 -1.7109212 1.6389438
0003f0 be 97 93 bf de b5 31 bf 00 74 7a 3f 7f 8e a8 3f
       -1.1530683 -0.6941813 0.9783325 1.3168486

w_r.0.weight f4 [64, 9]
000000 a7 f8 9d 3e 8f 30 f6 bd 9e 1d 2b 3f a4 e9 02 bf
       0.3085377 -0.120209806 0.6684207 -0.5113776
000010 e3 f6 c4 be 60 e2 06 3d 21 e2 18 be 05 4a 24 bd
       -0.3846961 0.03293073 -0.14930011 -0.040109653
000020 ac 9f bc bd 21 07 4d be f5 00 85 be ea a8 dc be
       -0.092101425 -0.2002225 -0.25977293 -0.4309762
000030 6b 00 57 bf 88 4a a6 bd db df c6 bd 6b af 82 bd
       -0.8398501 -0.081196845 -0.09710666 -0.063811146
000040 42 21 56 be 58 68 ec bd 72 37 86 3d 83 05 12 3d
       -0.20911124 -0.115433395 0.06553544 0.035649788
000050 06 e7 86 be bb 28 80 be 01 ed c0 bd 02 81 a1 be
       -0.26348132 -0.25031075 -0.09420205 -0.31543738
000060 48 10 59 be bb 4c 39 3e 61 10 49 3d f3 f8 81 be
       -0.21197617 0.18095677 0.049087886 -0.25385246
000070 37 7a a9 bd 0f 60 43 3f 49 23 37 bf aa ff 3d 3d
       -0.08275264 0.7631845 -0.71538216 0.0463864
000080 db ca 2b be 3a 51 33 be 50 7a 16 3e fa ef c7 bc
       -0.16776602 -0.17511454 0.14695096 -0.024406422
000090 da 61 db 3d c1 31 91 bc 64 91 9f be f8 5b 26 bd
       0.10712023 -0.01772392 -0.31165612 -0.040615052
0000a0 80 01 b3 be 50 75 1a be 0b 2c f6 3a 12 d2 91 be
       -0.34962082 -0.15083814 0.0018781436 -0.28480583
0000b0 5d 6a 72 be 95 af e2 3e 95 82 bc 3b f1 95 86 bf
       -0.23673387 0.44274583 0.0057528713 -1.0514508
0000c0 17 4e ba 3e 82 15 81 be 30 b3 67 3e 7a 0e 16 3c
       0.36387703 -0.25211722 0.22626948 0.009158725
0000d0 bd 09 5d be 55 b1 e8 be 6e 20 60 be 95 8b a1 3e
       -0.21585746 -0.45447794 -0.21887371 0.31551805
0000e0 bc 5c 99 3c f2 bf 49 be e2 1e c3 3d 18 eb 54 be
       0.018720977 -0.19702128 0.09527375 -0.20792806
0000f0 71 a9 05 3e 4e 07 a8 be af 91 bd 3d 63 ba 5e bf
       0.13052918 -0.32818073 0.092563026 -0.87003154
000100 fb 22 cb be cc b5 ef be 3f c2 d1 bd 55 de 81 be
       -0.39675125 -0.46818388 -0.102421276 -0.25364938
000110 00 77 56 3c e2 b6 8d be ce 98 69 3d aa e6 a0 3c
       0.013089895 -0.2767859 0.05703049 0.01964124
000120 88 20 3f bf 27 51 e6 be d8 1b b5 3c a1 0d 9e 3d
       -0.74659014 -0.4498379 0.022108003 0.07717443
000130 92 fb 37 3e c6 a7 ee 3d 1d b7 51 be 59 d3 d2 be
       0.1796706 0.11653094 -0.20480008 -0.4117687
000140 93 99 b6 be e6 5c 63 3f e1 2e d9 3c 4e 71 80 3f
       -0.35664043 0.88813627 0.026511611 1.0034578
000150 92 49 51 bd 1f 63 03 bf de 28 2f 3e 08 15 5a be
       -0.051095553 -0.5132312 0.17105433 -0.21297085
000160 2e fa 40 bf f6 9b 7b be c4 cf f7 bd 41 75 35 bc
       -0.75381744 -0.24571213 -0.12100175 -0.011075319
000170 9b 33 d2 3c 6f 3c bd be 4c 59 be be 2b 77 3b bd
       0.025659373 -0.3696017 -0.37177503 -0.045767944
000180 5a b6 1d 3d 53 0d df be b3 c2 5b be 12 18 ea 3c
       0.038503982 -0.43564853 -0.2146099 0.02857593
000190 ec 23 8b ba e0 a9 f2 3d 91 a8 d8 be 29 39 1c bf
       -0.0010615564 0.11848807 -0.42316106 -0.6102472
0001a0 ea c6 94 3e 0d 4a b8 bd 3b 3f df b9 76 16 d7 bd
       0.2905801 -0.08998499 -0.00042580985 -0.10502331
0001b0 5e 6d 14 be d6 f6 ed bc 53 97 5d be 6e f8 92 be
       -0.14494845 -0.029048365 -0.21639757 -0.28705162
0001c0 70 54 96 bd f8 1c 43 be ae eb a9 be 26 88 22 3e
       -0.07340324 -0.1905402 -0.33187622 0.15872249
0001d0 40 50 5a 3e bb 59 c5 be b1 c8 9c be 39 f3 9f bf
       0.21319675 -0.3854502 -0.30621865 -1.2496101
0001e0 fa d2 5c 3f 6e 55 b0 bd a8 5e 01 be 4d 90 d2 be
       0.86259425 -0.086100444 -0.12633765 -0.41125718
0001f0 13 52 41 be c1 b2 3c bd df cc b6 bd 30 ca 80 be
       -0.18878965 -0.04606891 -0.08925795 -0.25154257
000200 81 49 53 bf f8 99 3e bf 90 76 03 bf 4b 98 62 be
       -0.82534033 -0.7445369 -0.51352787 -0.22128408
000210 1e 09 9c bd 88 23 fc be 5f 83 b1 bd 85 0a fb be
       -0.076189265 -0.49245858 -0.08667635 -0.49031463
000220 21 05 f1 be f4 eb 59 bd eb 5a 42 3d a0 78 b0 be
       -0.47074226 -0.053203538 0.047449987 -0.3446703
000230 8f d6 89 be c8 39 06 bf db 9c d8 be fc b8 ad be
       -0.26921508 -0.5243192 -0.4230717 -0.33930194
000240 a7 68 81 be 92 f1 b2 3e c2 0c 9d bc ed 2d 2b be
       -0.25275156 0.3494993 -0.019171122 -0.16716738
000250 9c e7 84 be 56 47 48 bb 9e 42 72 3e 35 05 04 3e
       -0.25957954 -0.0030560098 0.23658225 0.12892611
000260 2b 2d 11 3e a0 3a 0b bf 88 c0 94 3e 9f 5e 3a bf
       0.14177386 -0.5438633 0.2905314 -0.7280063
000270 2b f6 a4 3f d8 d4 74 bb 00 d7 23 bd ca b1 54 be
       1.2887625 -0.003735831 -0.03999996 -0.20770946
000280 51 f6 97 be 6d 1d 02 bf 10 aa 1a 3f b6 73 3a 3f
       -0.29680112 -0.5082615 0.60415745 0.7283281
000290 98 fe 03 bd 15 f6 57 bd 09 34 7c be fa 2f 9c be
       -0.03222522 -0.052724916 -0.24629225 -0.30505353
0002a0 d5 d3 d6 be 1a 10 ec be cd b2 21 3d 7e 81 11 3f
       -0.4195849 -0.46106035 0.03947716 0.56838214
0002b0 93 fb 49 bf 99 86 22 3d f6 dd 13 bd 52 14 02 bf
       -0.78899497 0.039679144 -0.03610035 -0.50812256
0002c0 76 ef 6a 3e 25 4b e4 be 2d 00 0c 3d 0a ba 5b be
       0.2294291 -0.4458858 0.034179855 -0.21457687
0002d0 4e 72 39 3e 59 c5 d9 be ab 82 a4 3e 79 dc e3 be
       0.1811001 -0.42533377 0.32130942 -0.44504145
0002e0 86 46 6e 3d c0 97 30 bd fc 74 d5 be de 01 be be
       0.058172725 -0.04311347 -0.41690814 -0.371108
0002f0 5f bb 57 be 99 3d bb 3e e0 5f c7 3e bc 7a 10 3f
       -0.2106757 0.36570433 0.38940334 0.5643728
000300 c3 7f 80 3f 9a 4a e7 be 6b dc 08 3d a5 de 86 be
       1.003899 -0.45174104 0.033413332 -0.2634174
000310 26 0c bf be 58 3a 3a bd d6 2b 6f 3e 8e 6e 46 3e
       -0.37313956 -0.045465797 0.23356566 0.19378111
000320 35 70 85 3f b6 c4 7c bf 4e 61 dc bd f4 29 a1 3e
       1.0424868 -0.9873766 -0.10760747 0.3147732
000330 27 52 c0 bd 43 fd 5d be 2b 42 02 be 13 a7 23 be
       -0.09390669 -0.21678643 -0.12720554 -0.15981703
000340 02 1b 38 3e d7 11 85 3f 45 c6 43 3e 1f be 8e be
       0.17979053 1.0396069 0.19118603 -0.27879426
000350 56 ce 2b 3d 83 4a 76 bc 02 ac 9c be c1 68 5e 3c
       0.041944824 -0.015032413 -0.30599982 0.01357478
000360 b4 c8 8d 3f 2d 0e ee 3e 69 6d 9e 3d 7a fd a6 3d
       1.1076875 0.4649519 0.07735712 0.081538156
000370 3c a3 b2 be 2b 84 44 bc c8 9f d0 be cf 0a 9b bc
       -0.34890163 -0.011994402 -0.40746903 -0.018926052
000380 1a 1c 43 be 35 fb 26 bf 02 b6 80 3e 2c c3 7b bf
       -0.19053689 -0.6522706 0.2513886 -0.98344684
000390 91 1e 90 3e d5 f0 18 bf 28 90 13 be 5d 48 05 bf
       0.2814832 -0.5974248 -0.1441046 -0.5206354
0003a0 a0 16 e2 be f8 88 05 bf f2 4f 38 3f 13 e2 20 3e
       -0.44157887 -0.5216212 0.71996987 0.1571124
0003b0 3c 0c 4d 3e d8 96 33 3f 97 ff 67 be 40 db 4b bd
       0.20024198 0.70152044 -0.22656094 -0.04976964
0003c0 71 d6 fc bd 08 76 b3 be 15 07 79 be b9 2c 1f be
       -0.12345589 -0.35050988 -0.24319108 -0.15544404
0003d0 81 ec 55 be ea 64 2e bf eb e5 81 3f 39 fe 9b 3e
       -0.20891 -0.6812273 1.014829 0.30467394
0003e0 00 0f c4 bc 97 61 a9 be 46 13 c9 bd d2 02 a0 bd
       -0.023932934 -0.33082268 -0.09818129 -0.07813038
0003f0 05 3a 72 3d aa da d9 3d 7b 68 b0 bf 8e 24 e3 be
       0.059137363 0.1063741 -1.3781885 -0.44363827

w_r.0.bias f4 [64]
000000 e9 3a 31 3e 43 33 d6 bc 8c 69 2f bc 5a 45 3e be
       0.17307629 -0.02614749 -0.010706317 -0.18581143
000010 1d 96 dc bb c6 18 61 bd 14 ab 9d be b7 db c7 bd
       -0.006731762 -0.054955266 -0.30794585 -0.09758704
000020 c2 cd 18 be e4 44 7d be 03 50 80 bd bc ec 11 3d
       -0.1492224 -0.24733311 -0.06265261 0.035626158
000030 e0 5e 53 be 37 5d 95 be 76 df 03 be 21 98 62 be
       -0.2064166 -0.2917268 -0.12878212 -0.22128345
000040 08 9d 57 3e 5c e6 00 bf c4 19 53 3d b7 56 d1 be
       0.21055996 -0.503515 0.051538244 -0.4088647
000050 32 3a ca be c9 3b 0b bf 6e 0a fe be 6f 24 7a be
       -0.39497524 -0.543881 -0.49617332 -0.24427961
000060 89 49 a9 bd d8 d7 78 bd 31 ca 03 bf b0 f0 59 3e
       -0.08265979 -0.06075272 -0.51480395 0.21283221
000070 14 cf ee 3c 7b f9 34 be ed 7d cb bd bb 59 00 3e
       0.029151477 -0.17673294 -0.09936128 0.1253423
000080 97 fd cb 3d 0b 78 e5 be c9 d5 01 3d b5 b5 b7 3e
       0.09960478 -0.44818148 0.031698022 0.3588082
000090 d2 d8 ae be b7 ee 4f 3d 19 ee 6d 3d 70 59 d9 be
       -0.34149796 0.050764766 0.058088396 -0.42451048
0000a0 99 cc a0 be fc c9 1c be 7b d6 93 be e4 29 00 bf
       -0.31406096 -0.15311426 -0.28874573 -0.5006392
0000b0 1e 31 f4 3d ea 71 d2 bd bf 43 31 be 80 5a a9 be
       0.11923431 -0.10275634 -0.17311 -0.3307686
0000c0 a6 38 31 bf 2b 63 6f be 0b be 71 bd 3f 62 9a be
       -0.69227064 -0.23377673 -0.05901913 -0.3015308
0000d0 35 a6 fb bd b1 6b 44 bd 73 6c 0f be 3d 05 ad be
       -0.12287561 -0.047954265 -0.14006214 -0.3379306
0000e0 13 80 fc 3d e2 b4 ca be 1e fc b3 be 49 a7 11 be
       0.12329116 -0.39591128 -0.35153288 -0.1422397
0000f0 f0 96 8c be 35 0c d8 be 6f cb 8c be b4 5d 9f be
       -0.27458906 -0.42196813 -0.27498958 -0.31126177

w_r.2.weight f4 [32, 64]
000000 67 bf 5b bd f9 10 14 3c 14 63 c7 3d c6 e2 27 bd
       -0.053649332 0.00903725 0.097356945 -0.040987752
000010 e1 ed 18 bd 53 2d ad be 5e df 53 bf b6 f9 a6 3d
       -0.037336234 -0.33823642 -0.82762706 0.08153097
000020 a6 82 b9 be 25 27 11 be b0 55 42 bd bb be 33 bd
       -0.3623249 -0.14175089 -0.047445 -0.043883067
000030 d2 1d b6 bd 03 91 4e be d5 e5 32 bd 6e df 62 bb
       -0.088924065 -0.20172505 -0.043676216 -0.0034618038
000040 e8 9f 73 3e ba 14 9c bd 3d 4d de be b8 0f 0c be
       0.23791468 -0.07621141 -0.43418303 -0.13677871
000050 15 7c ff bd 33 f0 0e 3e 87 fe 02 bf 6c 48 09 bf
       -0.12474839 0.13958816 -0.5116963 -0.5362613
000060 ec 22 ac bf 57 da ee be 5e 94 0d bf 6d c0 3d 3e
       -1.3448157 -0.46650955 -0.55304515 0.18530436
000070 ec 1a 16 bd 68 2e 00 3e a3 42 90 3d 57 c0 34 be
       -0.03664677 0.12517703 0.0704396 -0.17651497
000080 1d a7 46 be d5 ce b4 bd bc 33 ff be 50 a2 77 bf
       -0.19399686 -0.088285126 -0.49844158 -0.96732044
000090 1f 41 60 3e ad 5d c5 be da 4a 28 be ab c3 bc be
       0.21899842 -0.3854803 -0.16434804 -0.36868033
0000a0 bc f2 a4 bd a3 6f 19 bd a4 49 8b bd 5b d6 0e 3e
       -0.080541104 -0.03745998 -0.06801155 0.13948958
0000b0 80 37 87 bf 1d 7a 20 be af 2d 83 be 48 06 c3 3d
       -1.0563812 -0.15671583 -0.2562079 0.095226824
0000c0 f4 46 9f be 7c 56 b2 3e 82 95 a3 3d e6 76 59 bf
       -0.3110882 0.34831607 0.07987501 -0.8494705
0000d0 85 27 9f bd 15 c7 10 3e e2 79 6c bd 8f d4 f8 bd
       -0.077712096 0.14138444 -0.057733424 -0.12149917
0000e0 9e dd 89 bc c8 95 ba 3d bf 54 94 be 6d 5a 0f bf
       -0.016829308 0.091106 -0.28970906 -0.55997354
0000f0 57 82 2a 3d 59 1c a5 bd 96 a1 3a 3f c9 84 82 bd
       0.041628208 -0.080620475 0.7290281 -0.06372983
000100 a0 0e c8 3e ee a0 dd 3d 2a 5e d4 bc c0 24 0f 3c
       0.39073658 0.108217105 -0.025923807 0.008736789
000110 f3 43 24 bd 51 96 3a 3e bd 95 03 3e 87 e4 80 bd
       -0.040103864 0.18221404 0.1285009 -0.06293588
000120 62 70 7a 3e 2c 62 51 bf 96 da 01 3c 15 b7 b3 bc
       0.24456933 -0.81790423 0.00792565 -0.021937886
000130 ce 6a ce bd a9 f4 f8 be 61 4b 1e bf 4e 7a 5e bf
       -0.10078965 -0.4862416 -0.6183377 -0.8690537
000140 4f b2 c5 3d 9a fe a4 be 0f f1 90 3e e1 46 94 be
       0.0965315 -0.32225496 0.28308913 -0.28960326
000150 90 f5 03 be 66 5c cb bd 76 4b fb 3d 47 0f f8 3c
       -0.12886643 -0.09929733 0.122702524 0.030280722
000160 dc 12 eb 3e d1 3d 08 bf ad 41 e8 be 54 d6 0f be
       0.45912826 -0.53219324 -0.45362607 -0.14046603
000170 36 5f 0a be 86 c2 42 3d fe 1c d3 bc e0 05 34 3c
       -0.13512883 0.047548793 -0.02577066 0.010987729
000180 c8 1f 33 be eb 89 49 bd ae 0e 0c 3e c2 3e e1 3d
       -0.17492592 -0.049203794 0.13677475 0.10998298
000190 aa 92 76 3d ef 4c 0c bf d6 d2 22 3e 48 96 90 3d
       0.060198463 -0.5480489 0.1590074 0.07059914
0001a0 01 97 06 be 16 9c 96 bb f3 d9 fa 3d fe e2 41 bf
       -0.13143541 -0.0045962436 0.12248602 -0.7573699
0001b0 5a e0 58 bd 84 18 30 3d 45 3d fb bd 88 64 be 3c
       -0.052948333 0.04299213 -0.122675456 0.023241296
0001c0 e0 3a c6 3d 7e b0 95 3e 55 60 3a be 95 8f 8a be
       0.09679198 0.29236215 -0.1820081 -0.2706267
0001d0 95 01 5d 3e 5c fb b5 3d 9a 15 df bd 4c f1 9f 3e
       0.21582635 0.088858336 -0.10892792 0.31238782
0001e0 ce b9 94 bd 8a 25 71 3a 9e f7 f3 bd e9 49 b2 be
       -0.07262002 0.0009199014 -0.119124636 -0.34822014
0001f0 86 e2 18 3e 4c 6b 39 be a8 11 7a 3c 00 71 7e bb
       0.14930162 -0.18107337 0.015262999 -0.0038824677
000200 95 fa 0b bd 76 3d f0 b9 fc a9 fa 3d eb 68 b8 3d
       -0.03417452 -0.0004582216 0.12239453 0.090043865
000210 27 60 76 bd 50 82 e7 bc ee 8d 92 be 55 04 3a 3b
       -0.06015029 -0.02826038 -0.2862391 0.002838393
000220 6f 95 26 bf 6a f2 90 be 97 18 bd bc 57 25 26 bd
       -0.6507177 -0.28309947 -0.023083014 -0.040562954
000230 60 bd 50 3c 4b 71 0d be fc 04 25 be 1b 02 d7 be
       0.012740463 -0.13812749 -0.16115183 -0.41993794
000240 27 aa 41 be dd 13 af bc 12 5d c0 bd 4c ce af bd
       -0.18912564 -0.021371776 -0.09392752 -0.0858427
000250 8d d8 65 3e 43 ba 9f be 7a 45 d9 3d 57 1e 8a be
       0.22445889 -0.31196794 0.10608955 -0.26976272
000260 b7 34 58 be 4c e9 6f bf 40 a6 8e be d6 ed 25 3e
       -0.21113859 -0.9371536 -0.27861214 0.16204008
000270 ce 38 23 be 36 c8 fd 3d 7a 13 7c be d6 68 c0 3d
       -0.15939638 0.12391703 -0.24616805 0.09394996
000280 11 c2 d2 bd e3 fd 0d 3e de 85 78 3d 2a 03 14 be
       -0.102909215 0.13866381 0.06067454 -0.14454332
000290 51 9b 71 be 00 86 91 bf 29 68 03 bf 94 e8 42 bf
       -0.23594405 -1.1369019 -0.5133081 -0.76136136
0002a0 ab fa ca bd 9d b8 a9 bd bb d3 ea 3c f9 44 f5 bd
       -0.09911092 -0.08287165 0.028665414 -0.11976046
0002b0 ce c3 28 bf 29 09 25 3d 36 0f 10 be 94 58 fe 3d
       -0.65923774 0.04029194 -0.14068303 0.12419239
0002c0 a0 9c 7c bd b3 ea a8 be 21 12 c2 3d 5f 6f 9b 3d
       -0.061672807 -0.3299156 0.09476114 0.07589602
0002d0 9c 36 03 3e 70 e9 35 3e d9 ef 1b bc 8e 72 27 3e
       0.128138 0.1776483 -0.009517633 0.16352293
0002e0 df 0d 82 3e d3 05 a9 3c 4b 14 fa be 65 a6 1c 3e
       0.25401208 0.02063266 -0.48843607 0.1529785
0002f0 1a 33 ee 3d 02 b0 c7 bd 76 01 01 bd d8 63 32 bd
       0.116308406 -0.09750368 -0.031495534 -0.04355225
000300 8b 05 80 bc 92 ff 0f 3d 8a 2f 24 bd 52 95 d7 bd
       -0.015627643 0.03515584 -0.0400844 -0.105265275
000310 28 bd b8 3d d6 4f 42 3e cd d0 85 bd 51 4e 15 bf
       0.09020454 0.18975767 -0.06533966 -0.58322626
000320 fb 30 0a be 25 65 a0 be 6f e9 86 bd d2 9f 1c 3d
       -0.13495247 -0.31327167 -0.06587493 0.038238354
000330 98 8c 92 bd 8d ea 08 be 19 8f 33 be 90 01 14 bc
       -0.071557224 -0.13370724 -0.17535056 -0.009033576
000340 c0 df 7e be 9c 80 1a bf a7 aa af 3d b2 54 a0 3d
       -0.24890041 -0.6035249 0.08577471 0.07828654
000350 b3 e0 9c 3d 9c ef 39 bf 19 f4 77 bf 6a 85 c9 be
       0.076600455 -0.7263124 -0.9685684 -0.393596
000360 1e 6e 91 be 30 a7 75 bc 4a 0d f3 bb 4d 9a 33 be
       -0.28404325 -0.014993474 -0.0074173557 -0.1753933
000370 ec 32 49 be e5 c6 43 bd 52 00 e6 be 06 6d f2 3d
       -0.19648331 -0.047797102 -0.4492212 0.11837201
000380 a6 7d 98 3d 00 86 e1 3e 67 f3 eb bd f4 0d f8 3b
       0.074458405 0.44047546 -0.11521035 0.0075700227
000390 68 4b 56 3c 0c c9 9b bf c9 72 a2 3e 1c 44 21 3e
       0.013079502 -1.217073 0.317282 0.15748638
0003a0 84 5d 43 be e2 75 7d be b9 15 0c bd ee af aa be
       -0.19078642 -0.24752 -0.034200404 -0.3333735
0003b0 0d 17 b2 3d 11 7e 1e 3e d7 2f 11 3e 80 79 83 ba
       0.08695803 0.15477778 0.14178406 -0.0010030717
0003c0 c9 52 22 be 86 67 fa bc f3 c1 dd bd 4e 99 68 be
       -0.15851893 -0.030566942 -0.108280085 -0.22714731
0003d0 06 d8 ba be 07 9d 25 3e 5d e3 0f 3e 4f d0 80 be
       -0.36492938 0.16173182 0.14051576 -0.25158927
0003e0 72 17 2a be bc f9 89 bd 4a 6b 91 bf b1 12 81 3c
       -0.16610506 -0.06737086 -1.1360867 0.015755983
0003f0 41 64 07 be 02 08 f7 bc 1b f9 fe bd 3c f7 6d 3d
       -0.13221838 -0.030155186 -0.12449857 0.05809711

w_r.2.bias f4 [32]
000000 61 ef 7a bd c8 a5 c5 bc 4e 7f 95 3e 7a 01 99 3e
       -0.061263446 -0.024126902 0.29198688 0.2988394
000010 7f ca 24 be 9e 66 1f be 9a ea 18 bd 44 91 db 3c
       -0.16092871 -0.15566489 -0.03733311 0.026802666
000020 8f a3 31 3e 41 29 c6 3d b7 f7 ca bc d0 eb 67 3a
       0.17347549 0.09675837 -0.024776323 0.00088470895
000030 f4 89 01 bf 18 e6 31 be 93 d3 ef bb 0f 63 ef bd
       -0.50601125 -0.1737293 -0.007318923 -0.11688816
000040 4f 5d 1d be 85 ec 1b be 9a 9a 13 3f e1 65 a0 3e
       -0.15367626 -0.15226944 0.5765778 0.31327727
000050 86 a6 23 3e 32 b1 89 bd be 3a 76 bd 9c 53 95 3e
       0.15981492 -0.067232504 -0.060114615 0.2916535
000060 aa 54 32 be b2 19 c5 3e bd 26 12 3d 3d 06 d8 bd
       -0.1741511 0.38496166 0.035681475 -0.10548065
000070 d2 1b e9 3d 8c 17 45 3d 9c e1 aa 3e 58 83 24 3e
       0.113822594 0.04811816 0.3337525 0.16065729

w_h.0.weight f4 [64, 5]
000000 a4 1d 19 3d bb 82 6a bd 47 ba 41 bf c7 6a 9e bf
       0.037381783 -0.05725358 -0.7567486 -1.2376336
000010 43 27 03 bf db 54 69 3e 1d 25 27 3e 5a d5 e2 bd
       -0.51231784 0.22786276 0.16322751 -0.1107585
000020 9c 5d c3 3f cc 13 1c bf 58 8e 03 be 1e be ea be
       1.5262942 -0.6096771 -0.12847269 -0.45848173
000030 7a b1 2e be b2 7d d1 be 07 8c 63 3c ff 70 0c be
       -0.1705989 -0.4091621 0.013888366 -0.1371498
000040 08 ec ad 3e b1 42 b4 be 34 ef 84 bf 36 d1 77 bc
       0.3396914 -0.35207132 -1.0385499 -0.015125563
000050 75 ca 6e bd 66 57 5d be c9 43 48 bf 64 fd 64 3f
       -0.058298547 -0.21615371 -0.7822843 0.89449143
000060 b2 96 2f bf b1 5e b4 be f8 97 10 3c 6f 5b 7a bf
       -0.6858932 -0.35228494 0.008825295 -0.97795767
000070 f5 02 0d 3f eb ed 34 bf b7 66 0e bf 9e ba c5 3c
       0.5508264 -0.70675534 -0.5562548 0.024136838
000080 33 e7 96 bf a3 c3 e0 bd c8 62 48 be 0c 2a bd be
       -1.1789306 -0.10974815 -0.19568932 -0.36946142
000090 82 bc 16 bd b2 3d 70 bf 0b 7d 70 3e fa 34 f6 be
       -0.03680087 -0.9384414 0.234852 -0.48087293
0000a0 3c 4a 93 bc e1 80 16 bc 98 9b c9 bd b7 10 e1 bd
       -0.017979734 -0.009186001 -0.0984413 -0.10989516
0000b0 72 9d 26 be 61 d5 a1 bc 05 0f 33 bd 9d 99 07 3d
       -0.16270998 -0.019755067 -0.043715496 0.03310548
0000c0 ba 80 45 bb f3 0e 27 be 2c 70 90 3e 1e f9 ae be
       -0.0030136541 -0.16314296 0.2821058 -0.34174436
0000d0 22 fb 49 3e 10 11 cb be 51 d3 77 be a4 02 31 be
       0.19724706 -0.39661455 -0.24201705 -0.17286164
0000e0 f8 b0 62 be 61 48 b9 bf 7f 86 0c be 45 ac 7f bf
       -0.2213782 -1.4475213 -0.13723181 -0.9987224
0000f0 88 10 46 3e 03 22 c7 3e 0e 30 f6 bd b8 65 21 3f
       0.19342244 0.38893136 -0.120208845 0.63045835
000100 d4 dc e5 be 79 b2 02 be dc b7 8d be b8 4b 42 bf
       -0.4489504 -0.12763394 -0.27679336 -0.7589679
000110 44 84 54 bf d6 84 0f bf ef 82 fa 3e 3d 1b 45 3c
       -0.8301432 -0.56062067 0.4892802 0.01203042
000120 a8 17 90 3f 95 2a 5f 3d 64 32 11 bf 08 75 19 be
       1.1257219 0.05448397 -0.56717515 -0.1498605
000130 aa f9 41 be c9 d5 f2 be d6 41 04 bf d3 87 f4 be
       -0.18942896 -0.4742873 -0.5166296 -0.47759876
000140 c1 96 d1 be 48 53 7e 3e 4f 60 50 3f 05 b6 6c 3e
       -0.4093533 0.24836457 0.81396955 0.2311631
000150 27 15 97 be 39 35 83 be 95 0a ca be 80 3d 57 bf
       -0.29508325 -0.25626543 -0.39461198 -0.84078217
000160 e9 72 6e bf da 91 cf bc 4c 72 82 3e c7 77 81 3e
       -0.9314409 -0.025338102 0.25477827 0.25286695
000170 02 bf 18 bf 90 19 9a bd 6f 88 0e bd d8 08 b8 be
       -0.59666455 -0.07524407 -0.034798082 -0.35944247
000180 81 df 1d be 50 7e cc 3e a1 bf a5 bf 32 a9 cc be
       -0.15417291 0.3994012 -1.2949106 -0.39972836
000190 67 05 a6 be d5 b2 9d 3c a1 12 42 3b b6 f7 8e 3f
       -0.32425997 0.019250313 0.0029613154 1.1169345
0001a0 53 60 2c bf d6 b7 da 3e 0d a0 37 be 69 3d 81 3f
       -0.6733448 0.4271838 -0.17932148 1.0096866
0001b0 ce b8 a1 be 37 7c 9f bf ec 35 97 3e a2 1c a6 3e
       -0.31586307 -1.2459782 0.29533327 0.3244372
0001c0 dd 59 14 be f0 1c 99 3d 9b f5 20 bf bc 73 8d be
       -0.14487405 0.074762225 -0.62874764 -0.2762736
0001d0 87 69 cd be 46 e8 54 3f d1 57 6e 3d 7b 07 1d 3e
       -0.40119573 0.8316692 0.058189217 0.15334885
0001e0 de 77 b2 3e 2d 22 23 3e 8a 1d 43 3f 63 8c 57 bf
       0.34857076 0.15931006 0.7621695 -0.8419859
0001f0 ad 10 94 be 00 8d 9b 3d d4 92 39 3e d1 85 80 be
       -0.28918973 0.07595253 0.18122417 -0.25102094
000200 08 b6 79 3f 6e 05 06 bf 95 4d 03 3c ef 05 0c 3e
       0.9754338 -0.52352035 0.0080141025 0.13674138
000210 03 f1 83 be 81 89 84 3f 80 16 66 bf 4f e3 24 be
       -0.25769815 1.0354463 -0.8987808 -0.16102336
000220 f7 f1 9b be b0 ec 90 be 79 3e a5 bf 44 f0 53 bf
       -0.30458042 -0.28305578 -1.290969 -0.8278849
000230 0a 66 7f bb b4 e1 8e be f6 8e 98 3f 31 01 a6 3e
       -0.0038970732 -0.27906573 1.1918628 0.32422784
000240 ea 59 29 bf 89 ce e6 be 14 d9 d0 be 69 28 bf be
       -0.6615282 -0.4507945 -0.40790617 -0.37335518
000250 61 42 12 3e c6 e5 8e be cb ea 62 bd dd 35 50 bd
       0.14283134 -0.27909678 -0.055399697 -0.050832618
000260 32 58 69 bf e1 31 e5 be 8e c4 9e be f1 92 75 3e
       -0.911502 -0.44764617 -0.31009334 0.23981835
000270 6c 64 53 be b8 a0 85 3f 4d bc 4c bf 0f 0d 50 3d
       -0.20643777 1.0439672 -0.79974824 0.050793704
000280 d3 74 17 3d aa f2 92 bb 59 79 2c 3e 48 29 4c bd
       0.036976647 -0.004484494 0.16843165 -0.049844056
000290 94 3c e9 bd 57 00 02 3f cf 31 ba 3d c5 a9 0c 3f
       -0.113885075 0.5078177 0.090915315 0.5494655
0002a0 73 f0 51 3e 48 85 ec be 53 92 5d bd b4 90 24 bc
       0.2050188 -0.46195436 -0.054094624 -0.010044266
0002b0 c7 b7 27 3f ad 65 ed be a6 cc b0 bd 50 2b 21 bf
       0.65514797 -0.46366635 -0.086327836 -0.62956715
0002c0 f0 ad b8 be e3 59 39 bf dd 98 b2 be be 40 d9 be
       -0.36070204 -0.7240278 -0.3488225 -0.42432207
0002d0 3d 83 91 be 81 54 8e be 14 8d 66 bf ea 34 50 3e
       -0.2842044 -0.27798846 -0.9005902 0.20332685
0002e0 aa 55 7f 3d da f7 d9 be 62 03 9b bd a9 10 65 be
       0.062337555 -0.42571908 -0.075690046 -0.22369637
0002f0 49 eb 04 bd b7 96 63 bf 4b e0 04 3f ff b4 10 3e
       -0.032450948 -0.8890185 0.51904744 0.14131545
000300 d2 02 f8 be 63 0a 3f 3f c1 cd c5 bd 8b 5c a1 be
       -0.48439652 0.74625224 -0.09658385 -0.31515917
000310 59 18 bc 3d b8 c5 83 bf b5 3c 51 3f 1f 18 e7 be
       0.091843314 -1.0294714 0.81733257 -0.4513559
000320 14 ee 5a be 59 4b d4 be fd ec 07 bf b4 2a fb be
       -0.21379882 -0.41463736 -0.5309599 -0.49056017
000330 3a 72 c9 be 58 f9 b7 bd 4e c4 93 3e 92 be 8a 3f
       -0.3934496 -0.089831054 0.28860706 1.0839407
000340 1d 11 82 3f 87 6a 43 bf d9 41 04 bd a7 85 be bb
       1.0161473 -0.7633442 -0.03228936 -0.0058142724
000350 7c 3d 34 be 8a 4f 47 be 26 9d 24 bf 08 20 1f 3e
       -0.1760158 -0.19463935 -0.6430229 0.15539563
000360 75 57 36 3e 6f 0c 91 3f 75 76 94 3f 74 72 93 be
       0.178068 1.133192 1.159865 -0.28798258
000370 bf 99 ac 3e 11 5a 7f 3d e8 91 33 3f 60 fb 4f bf
       0.3371105 0.062341753 0.7014451 -0.8124294
000380 09 a3 77 bf 11 1e 11 3c 78 2c 5f 3d e6 8c 47 be
       -0.96733147 0.008857266 0.054485768 -0.19487342
000390 d1 56 31 3c 19 64 28 bf dd 9b 41 3e 15 aa 6c 3e
       0.010823921 -0.65777737 0.18907113 0.23111756
0003a0 b7 74 a2 3f 90 9a cc be 38 1b d4 be 44 3d cc bd
       1.2691869 -0.39961672 -0.41427016 -0.09972623
0003b0 ca 1e c4 3c fb a1 14 3f a1 2a 42 3f 60 74 5a be
       0.023940463 0.5805966 0.75846297 -0.21333456
0003c0 5f 34 a5 be d4 40 5b 3e 84 02 e0 be 46 d3 74 3f
       -0.32266518 0.21411449 -0.4375192 0.9563488
0003d0 0e 0b db be f4 bb 60 3e 32 7d 25 bc 43 64 66 3f
       -0.42781872 0.21946698 -0.01010065 0.8999674
0003e0 f5 ed 45 3f 0c 15 10 bf 06 49 b7 3e ed 24 6d 3e
       0.7731622 -0.56282115 0.357979 0.23158617
0003f0 da fc 64 3f 14 e3 7d be cc af 92 bf 79 68 c7 3e
       0.8944832 -0.24793655 -1.1459899 0.38946894

w_h.0.bias f4 [64]
000000 f7 0c f9 bd 6b 21 21 bf b7 f7 b2 be a8 92 e6 be
       -0.12160676 -0.62941617 -0.34954616 -0.45033765
000010 7a 31 3b bf 2e 51 24 bf e5 62 dd be 9e e7 92 be
       -0.7312237 -0.6418637 -0.43239513 -0.28692335
000020 30 67 55 be de a8 50 be 85 26 5b bd 1e 2c 25 bf
       -0.20840144 -0.20376918 -0.053503532 -0.6452044
000030 48 d1 47 bf ef e8 7c 3d 9c a6 65 be fb 19 ac be
       -0.7805371 0.06174558 -0.22426838 -0.33613572
000040 89 34 2c bf b0 de 22 bf f9 09 d2 be 94 eb 6a bf
       -0.6726766 -0.63621044 -0.41023234 -0.91765714
000050 78 a3 6f bf bd f8 4e bf ca bb 53 bf a1 45 2d bf
       -0.9360881 -0.80848294 -0.8270842 -0.6768437
000060 f8 7a 0e bf 20 26 24 be e6 9f 03 bf 1f d9 2b bf
       -0.55656385 -0.16030169 -0.5141586 -0.67128175
000070 35 6f 71 bf 80 65 30 bd c9 4f a7 bd dd de d5 bd
       -0.94310313 -0.043065548 -0.08169515 -0.104428984
000080 ef d8 99 be b0 b8 8a bf 3a 3a c9 be 83 c0 75 bf
       -0.3004832 -1.0837612 -0.39302236 -0.95996875
000090 d9 65 1c bf d6 6a 45 bf 3e 86 4f bf 37 3b 4a be
       -0.6109291 -0.77116144 -0.8106421 -0.19749151
0000a0 8e 55 37 bf 0b 6e 29 bf f4 f6 8f be 79 4e d4 3d
       -0.7161492 -0.6618354 -0.28118098 0.1036653
0000b0 a9 f4 18 bf 68 07 97 be 99 9a 1f bf 6f 62 a1 be
       -0.5974832 -0.29497838 -0.6234527 -0.3152041
0000c0 45 9d fb be d1 0e 26 bf 92 f2 75 bf 06 3a 65 bf
       -0.49143425 -0.6486636 -0.9607326 -0.8954166
0000d0 ce 12 db be b9 b1 6c bf 9d cd 00 bf f4 c7 16 bf
       -0.42787784 -0.92458683 -0.5031374 -0.58898854
0000e0 d7 72 25 bf 66 cc 04 be 68 b1 5e bf 4d ba 89 3d
       -0.64628357 -0.12968597 -0.8698945 0.06724987
0000f0 d6 e7 f5 be fd f5 01 bf 0f eb 47 bf 29 c2 71 be
       -0.4802844 -0.50765973 -0.78093046 -0.23609222

w_h.2.weight f4 [32, 64]
000000 aa b1 4a be 01 de a2 3e 80 af a3 3f 66 a6 9d 3e
       -0.19794336 0.3181 1.2787933 0.30791014
000010 f1 d4 1a 3e 20 a8 09 3e c2 e0 7e bd 3a 76 24 3f
       0.15120293 0.13443041 -0.062226065 0.642429
000020 d0 ad 92 bd e7 7d f8 bd 78 64 17 bb f5 af 0d 3e
       -0.07162058 -0.12133389 -0.0023100656 0.13836654
000030 a9 73 65 bf a9 63 00 c0 ef ac 05 be 75 66 2b 3f
       -0.8962961 -2.0060828 -0.1305425 0.6695321
000040 76 ba d0 bf c1 3d 02 3f 1b a6 03 3f fe 9e 84 3e
       -1.6306903 0.5087548 0.5142533 0.2590255
000050 c6 41 f9 3e f1 d6 79 bf bf ee 3f 3e bf e5 4d 3f
       0.48682994 -0.975936 0.18743418 0.8042869
000060 74 01 a4 3d 92 d0 08 3e 7b b2 28 3f 2f 89 3c 3e
       0.0800809 0.13360813 0.6589734 0.18411706
000070 c1 72 25 bd 7e 79 9c bf 6f c7 95 be 02 0f 23 bf
       -0.04039264 -1.2224576 -0.29253718 -0.63694775
000080 c4 00 37 bf 73 6e 42 bf 57 f7 62 be 72 55 0c c0
       -0.71485543 -0.7594978 -0.22164665 -2.1927152
000090 58 1c 81 3e d2 40 0e c0 74 3d 43 3f be ab 74 3f
       0.25216937 -2.2227063 0.76265645 0.9557456
0000a0 86 90 c8 be 74 71 52 bf dc 0a 55 be 64 1a bf be
       -0.39172763 -0.82204366 -0.20804924 -0.37324822
0000b0 0e 8b 9c bf c6 af 6d 3e 42 77 f9 bf 12 92 af 3d
       -1.2229936 0.23211583 -1.948952 0.085727826
0000c0 c9 de 55 3f c9 eb 51 3e 93 94 ac 3e 90 58 39 3e
       0.8354307 0.20500101 0.33707103 0.1810019
0000d0 5e 26 c1 be a5 82 82 bf 90 a4 99 be 01 cd dc 3d
       -0.37724584 -1.019612 -0.30008364 0.10781289
0000e0 ab 50 ca bd 1a f6 a6 3f 3c b0 2f bf 47 fe 2f bf
       -0.098786674 1.3043854 -0.6862829 -0.6874737
0000f0 0d 04 b4 bf 26 03 82 bf 87 a8 2d 3e 7d b3 12 3f
       -1.4063736 -1.0157211 0.1695882 0.5730513
000100 70 e7 ee be 0d 81 9a bf a9 2b ec 3e 13 82 fd 3d
       -0.46660948 -1.2070633 0.4612706 0.12378325
000110 37 19 29 bf 92 2c 80 3f ba 8f 3e 3f 53 7c 04 be
       -0.660541 1.0013602 0.7443806 -0.12938051
000120 b7 da 96 3c 59 6a 96 3d f1 c3 fc be b8 ce b0 3f
       0.018414838 0.07344503 -0.4936824 1.3813086
000130 a8 c6 ea 3e 14 a5 e6 3d 76 43 85 be a0 fc 4d 3f
       0.45854688 0.11261955 -0.2602803 0.804636
000140 04 5a 9c 3e 84 b6 4e 3e 73 c1 c4 3c 5b ac d4 3d
       0.30537426 0.20186812 0.024018025 0.10384437
000150 56 99 34 bf 6a 07 82 bf 52 26 84 3e 08 7e 9c bf
       -0.7054647 -1.0158513 0.25810486 -1.2225962
000160 a2 12 8d 3e f1 4d c1 3d 94 11 aa 3d b4 82 4d 3e
       0.27553278 0.09438694 0.08304134 0.2006939
000170 e3 4d 84 3f 7b 82 8f be bb df 6e be ed e2 58 3e
       1.0336269 -0.28029236 -0.23327534 0.21180315
000180 d6 f4 ad 3d 86 28 c4 bf 8e da c2 3e 19 fc 15 c0
       0.084939644 -1.5324867 0.3805737 -2.3435118
000190 4c b4 8c be 2b 2e c4 bf 94 0e 65 bf 06 09 14 c0
       -0.27481306 -1.5326589 -0.8947537 -2.3130507
0001a0 c7 dc c0 be 8f 40 b8 bc 21 92 47 bd 80 4b ed be
       -0.3766844 -0.022491721 -0.048723344 -0.46346664
0001b0 c3 64 8b 3e a9 1c db bd df 03 45 be 2d dc 00 bf
       0.27225313 -0.10698826 -0.19239758 -0.5033596
0001c0 88 31 62 be c0 f7 96 3e 88 d0 18 be 50 39 35 bd
       -0.22089207 0.29485893 -0.14923298 -0.04424411
0001d0 9c e7 cc bd 25 e0 91 be d0 8d 23 bf 50 12 95 3d
       -0.100051135 -0.2849132 -0.63888264 0.072788835
0001e0 ec db 04 3f ea 67 84 3d e7 30 47 bf e9 ad a4 3e
       0.51898074 0.064651325 -0.77808994 0.32163933
0001f0 23 d5 d9 be ee 91 b3 3f 62 91 4e be c1 88 5f be
       -0.42545423 1.4028909 -0.20172647 -0.21829511
000200 a3 59 9a 3c 48 48 7a 3e 5c e8 1b 3e 4e 60 9e 3e
       0.01884157 0.24441636 0.15225357 0.3093285
000210 97 30 c0 3e 95 41 df be fe 90 33 be 80 46 fd be
       0.3753707 -0.43604723 -0.17535779 -0.4946785
000220 c7 70 d5 bc fb 31 55 3d a2 80 86 3d 26 52 0c bf
       -0.026054753 0.05204962 0.065675035 -0.5481285
000230 b5 2d d2 be 12 71 16 be 4f f1 08 3f 99 6f 28 3e
       -0.41050497 -0.1469157 0.5349321 0.16448821
000240 6b c7 fa 3d 32 3f ff be 24 64 b0 be 64 29 b7 be
       0.12245067 -0.49852902 -0.344514 -0.35773766
000250 85 0a f8 3e cd 3a 4f bf 42 f1 06 3e 27 b0 2a be
       0.48445526 -0.809491 0.1317797 -0.1666876
000260 d2 51 0d 3f 15 08 9b be e6 dd 30 bf af 8a 53 3f
       0.5520297 -0.30279604 -0.6908859 0.8263349
000270 a3 3a 7d be 77 22 f7 bc 31 4c 21 3d 64 e7 f9 bd
       -0.247294 -0.030167801 0.039379302 -0.122023374
000280 7b 0d 6b 3d 96 fe 2e bf e5 a5 1a bd 65 05 8c be
       0.057385903 -0.6835722 -0.037755866 -0.27347866
000290 b5 c4 22 3f 6c 6b df be 0d e5 5a bf 06 92 2f be
       0.635814 -0.43636644 -0.85505754 -0.17145547
0002a0 c7 c8 a1 be 21 6c 21 3e 1e d9 41 3e 28 0f 7f 3d
       -0.31598493 0.15763904 0.1893048 0.062270314
0002b0 e5 f6 b1 3e a0 02 77 bd e9 95 07 3f 94 52 03 3e
       0.34758678 -0.060305238 0.5296312 0.1282447
0002c0 62 d4 8f 3e f0 88 c2 3e 9a c8 91 bf 3f d8 72 bf
       0.28091723 0.379951 -1.1389344 -0.94861215
0002d0 0e 80 b3 3c 8a 3b 1c bf 19 72 e3 3e 6c 4a 2e 3f
       0.021911647 -0.6102835 0.44422987 0.6808231
0002e0 eb 90 de 3e a3 a5 34 3e 32 9c 23 bf 5a 87 b5 3d
       0.4346994 0.1764131 -0.6391021 0.08863707
0002f0 05 b9 94 bd 48 96 17 3f 2d 7c 26 3f 8c 8f c7 3e
       -0.07261852 0.59213686 0.6503323 0.38976705
000300 7f 2a e4 bd 21 6e b5 3d 51 ed 34 3d 80 04 0a bd
       -0.11140918 0.08858896 0.044171635 -0.033695698
000310 f6 be 63 3c 40 b8 a7 bd 6e 45 9a 3d c0 2e 05 be
       0.013900509 -0.0818944 0.07532774 -0.13006115
000320 84 7b 8b bd f0 98 1f 3d e4 91 fb bd 2a 40 9a bd
       -0.06810668 0.038964212 -0.12283686 -0.075317696
000330 f9 a3 95 bd 7c cb d4 bc 7f 3b dd bd 07 de 21 be
       -0.07306666 -0.025975935 -0.108023636 -0.15807353
000340 fb be b3 bb 68 b5 af bc 6d 42 f4 bd 58 14 ab bd
       -0.005485413 -0.021448806 -0.11926732 -0.0835349
000350 64 df c3 bc fd fe 98 3c 08 ec 97 3c bf 1e 1e be
       -0.023910232 0.018676275 0.018545166 -0.15441416
000360 a3 5b 7b bd 60 3b 83 be 14 4f 3f be 88 70 03 be
       -0.06136669 -0.25631237 -0.1868251 -0.12835896
000370 45 2e 97 3d 97 86 1c be 64 8c f2 bd 80 3b bd 3c
       0.07381872 -0.15285717 -0.11843184 0.02309966
000380 a3 81 04 bc 97 e9 4b 3d 18 78 56 be 8c 49 30 be
       -0.008087548 0.049783316 -0.2094425 -0.17215556
000390 4e 29 d4 bd f7 1a e1 bd d5 a9 f4 bd 85 04 02 be
       -0.10359441 -0.10991471 -0.119464554 -0.12697037
0003a0 46 ff fa bd 2e b1 3c bd bb 44 93 bd 63 af 32 be
       -0.12255721 -0.04606741 -0.07190844 -0.17449717
0003b0 63 f4 ab bd 56 07 dc bd fb 43 6b be 6f 5a cb bd
       -0.083962224 -0.10743587 -0.22975151 -0.09929358
0003c0 a7 34 a8 3d f2 09 fc bd d6 68 30 bd b8 9a 74 3c
       0.08213168 -0.123065844 -0.04306873 0.014929466
0003d0 cd af a9 3d 8f 2a 22 3d df ea 38 3b cb b3 51 be
       0.082854845 0.03959137 0.0028216166 -0.20478742
0003e0 9e 40 2b 3d b8 76 92 bd dd 38 2d bd 20 26 5a be
       0.04180967 -0.0715155 -0.042290557 -0.21303606
0003f0 73 4d 26 be 9c 58 66 be c6 4f 0d be 69 50 3c 3d
       -0.16240482 -0.2249474 -0.13799962 0.045975123

w_h.2.bias f4 [32]
000000 25 43 20 bf 53 d9 10 3f a6 4c fd bd 79 7e df bd
       -0.62602454 0.5658161 -0.12368135 -0.109127946
000010 f1 af a5 3e f1 f4 6a be 46 f7 64 3e 1d 5f fc bd
       0.32360795 -0.22945 0.22359952 -0.12322829
000020 10 60 54 ba d2 a9 3d be 6f 6a 1e be 21 8b 9c 3d
       -0.00081014726 -0.18521813 -0.15470289 0.07643724
000030 35 b2 a5 3e 97 b1 d6 3d 57 c6 54 3e cc 51 bf be
       0.32362524 0.10483091 0.20778786 -0.37367094
000040 d4 d8 c3 be b7 3f 15 bd 37 d2 c6 bd dc 72 b0 bd
       -0.38251364 -0.036437716 -0.09708064 -0.08615658
000050 c8 14 e4 3b 5f ce b2 be c1 15 0a 3d c8 cc 82 bd
       0.006960485 -0.34923074 0.033712152 -0.06386715
000060 67 1a 03 3e 49 52 be bc 7b 7a aa 3d 97 73 e3 be
       0.1280304 -0.023232596 0.083241425 -0.44424126
000070 e9 2a 9c bd 56 7d 49 be b8 fc 5e bd a4 b7 1a be
       -0.07625372 -0.19676718 -0.05444023 -0.15109116

Ws.0 f4 [32, 32]
000000 2b c2 0e c0 e0 b6 9b be dc 35 32 3f cd a4 ce 3e
       -2.230601 -0.3041296 0.6961343 0.40360108
000010 a9 ef 12 40 c8 27 c0 3e 6b cc 4b be 27 6b 69 40
       2.2958777 0.3753035 -0.19902198 3.647165
000020 98 d9 a6 bf ff f5 60 bd 9e 60 d6 bf b9 9a 98 3e
       -1.3035154 -0.0549221 -1.6748235 0.29805544
000030 04 7f 48 3e 71 0d 40 be b3 21 65 3e 22 65 1f be
       0.19579703 -0.18755127 0.22376136 -0.15565923
000040 65 8c 27 3e 6b 08 5f bd 1f 90 cb 3e ed e7 03 40
       0.1636215 -0.054451387 0.39758393 2.0610306
000050 20 56 8e 3e ed b6 c7 be d1 59 25 3f 53 ef 21 3f
       0.27800083 -0.3900675 0.64590174 0.63255805
000060 7d 7d 18 bf 5d dc ce 3d 55 75 79 3f 9b 2f 4d 3f
       -0.5956648 0.10100625 0.9744466 0.80150765
000070 94 0b 88 3e 17 48 2a 3f 46 53 02 3f 90 37 fc 3f
       0.26571333 0.6651625 0.50908315 1.9704456
000080 7f dc f7 bf e2 3f 5d bf ca 41 ba 3d ec fb a7 3f
       -1.9364165 -0.864256 0.090945795 1.3123755
000090 05 28 2e c0 a9 b7 f8 3e 22 b3 43 3f 00 92 81 bd
       -2.7211926 0.48577622 0.7644521 -0.063266754
0000a0 f8 c5 d5 be 1d f0 b9 bf 58 7f 02 be 60 b2 87 3f
       -0.417526 -1.4526402 -0.1274389 1.0601311
0000b0 62 f0 8d 3d 8e 10 ea bd e9 03 29 3e 13 61 eb bf
       0.06930615 -0.11428939 0.16505398 -1.8389
0000c0 ec c8 a0 bf 4f 08 7a 3f bd 99 f4 ba f6 db de 3f
       -1.2561316 0.9766893 -0.001866154 1.7410877
0000d0 49 50 13 c0 4e 9c c2 bf 11 48 e6 3f 1d f3 80 be
       -2.3017752 -1.520395 1.7990743 -0.2518548
0000e0 1b 18 e5 3e 74 77 84 3f 6d a6 a6 3f b6 9f b4 3e
       0.44744954 1.0348954 1.3019539 0.352781
0000f0 e1 48 1b bf ca cb 17 c0 d4 47 6b 3f 4a 72 48 3f
       -0.6065808 -2.3718133 0.91906476 0.7829939
000100 bd 55 bb bf 7d fa 16 c0 4c 68 af bf c3 b4 b5 3d
       -1.463554 -2.3590386 -1.3703704 0.08872368
000110 3a ff ad 3e 2b bb c4 3f 4e 44 72 bf 56 fd 8f be
       0.33983785 1.5369619 -0.94635475 -0.28122967
000120 4c b6 4c c0 70 c4 47 3f 94 d4 96 3f dc 4d 88 3e
       -3.1986265 0.78034115 1.1783624 0.26621902
000130 93 22 15 bf 13 91 11 3e ec c1 1c 3e 88 b6 0f bf
       -0.5825588 0.14215498 0.1530835 -0.56137896
000140 09 55 9c 3f 9a 07 6c 3e f3 7a fd be 15 cb 94 3f
       1.2213451 0.23049775 -0.49507865 1.1624476
000150 14 4c e0 3e 13 53 f3 be 97 68 b3 bf f3 47 00 c0
       0.43808043 -0.47524318 -1.4016293 -2.0043914
000160 37 37 b9 3f 1e e5 9e be ec c3 5a bf 42 2c be bd
       1.4469975 -0.31034178 -0.85455203 -0.09285785
000170 8d 1d d0 be 4d 55 6d 3f 8c 77 94 be da dd 2a 3f
       -0.40647545 0.92708284 -0.28997457 0.6674477
000180 d5 c0 31 c0 a4 5c ba be 6c 5a 1f be c9 e0 38 c0
       -2.7773945 -0.36398804 -0.15561837 -2.8887198
000190 53 7a a0 be ed 28 2f 3f 0b 22 5d be 31 e5 7c 3f
       -0.31343326 0.6842182 -0.21595018 0.9878722
0001a0 ac cd a9 3e 48 d7 39 3f f1 5f 75 3f 53 c0 ad bf
       0.33164728 0.7259412 0.9584952 -1.3574318
0001b0 19 15 34 bf 9d 58 8f bf 9b 53 ae be 04 23 21 bf
       -0.7034469 -1.1198918 -0.3404816 -0.62944055
0001c0 ea bc 96 be 09 ee a5 be f5 53 71 3f f6 b4 c7 3f
       -0.29441005 -0.3240817 0.94268733 1.56021
0001d0 6c 92 32 3f 17 4a 80 3f 29 b1 bb bf cc 10 8d c0
       0.6975467 1.002261 -1.466344 -4.4083004
0001e0 62 de 36 3f 5c 9f 73 be 1f 1c 86 3f 47 aa ac bf
       0.7143308 -0.2379126 1.0477332 -1.3489465
0001f0 ae 33 a4 bf 13 11 bd bf 79 7d 02 3f e7 5b 42 be
       -1.2828271 -1.4770836 0.50972706 -0.1898037
000200 33 e8 f4 3e 90 a5 0b bf 9e 55 5f bf a4 c6 8c c0
       0.47833404 -0.54549503 -0.87240016 -4.399248
000210 7c 8b fa be 5c 3d 13 3c 1b 64 28 c0 48 dc eb bf
       -0.48934543 0.008986797 -2.63111 -1.84266
000220 a3 dd df be 4a dc 1a 3f a6 ec c5 3f 0b 4d 0a 3e
       -0.43723783 0.60492384 1.5462844 0.13505952
000230 36 f0 07 3f 94 cb a3 3d 13 12 33 3f d4 34 5e 3f
       0.5310091 0.07997814 0.69949454 0.8679936
000240 ce f0 a6 3f 82 eb 33 bf 87 3e ee be 35 bf 3a c0
       1.3042238 -0.7028123 -0.4653208 -2.9179204
000250 f0 ec 6f 3f dd be 28 3f d2 8b da 3e 17 0f 66 bf
       0.9372091 0.65916234 0.426848 -0.89866775
000260 4c ce e5 3e de 77 2d c0 51 5d 88 bf 90 2e 40 c0
       0.44883955 -2.710441 -1.0653478 -3.002842
000270 ef 12 91 3b 8f aa 05 3f fe 8e 8d 3f 52 7d 93 be
       0.004427306 0.52213377 1.1059263 -0.2880655
000280 b0 8e 20 c0 98 16 60 bf 64 bb 23 bf 41 38 d5 3e
       -2.508709 -0.87534475 -0.6395781 0.4164448
000290 5b fc f3 bb e0 7f b1 3e c9 66 8b 3f bd d0 2c 3f
       -0.0074458546 0.34667873 1.0890743 0.6750601
0002a0 25 1a 67 3f 71 79 06 3f fb 05 51 3e 68 d7 65 3e
       0.9027427 0.52529055 0.20412438 0.22445452
0002b0 63 91 7a 3f 02 55 3d 3f f8 a6 4d 3f 59 ed fd 3e
       0.9787809 0.73957837 0.803329 0.49595144
0002c0 03 37 24 3f 3f 61 49 3f a3 52 54 3c aa 86 14 3f
       0.6414644 0.7866401 0.012959155 0.5801798
0002d0 95 a9 ea be bb df 2b 3f 43 1b 8e be 37 21 52 bf
       -0.45832506 0.6713826 -0.27755174 -0.8208193
0002e0 93 13 92 bf 8d e0 92 3f 0a 25 b1 3f c3 d2 3e c0
       -1.1412224 1.1474777 1.3839428 -2.9816139
0002f0 ed 90 0e be 78 4b 04 3e bd a0 66 3f 88 b8 26 c0
       -0.13922472 0.12919414 0.9008902 -2.605013
000300 ca 0b 10 c0 d4 51 26 c0 7a 20 08 3f 93 6a 0f 40
       -2.2507195 -2.5987444 0.53174555 2.2408798
000310 c2 b2 ae be a5 67 0b 3f 9d da 34 3f a0 97 ae 3f
       -0.34120756 0.54455024 0.7064608 1.3640022
000320 35 5e fb 3f d0 5b 52 3f cc 12 16 3e b3 e5 11 c0
       1.9638125 0.82171345 0.14655608 -2.2796447
000330 c9 29 c8 be 78 6b 6b 3f 53 d4 54 3f 6e 48 07 3f
       -0.3909438 0.9196086 0.8313648 0.52844894
000340 1c ea 70 bf 9a e0 8f bd fa f7 ba be 37 73 b9 3f
       -0.9410722 -0.07025261 -0.36517316 1.4488286
000350 10 6e 7e 3e fa aa 6a bf f8 e0 26 c0 d8 d5 95 bf
       0.24846673 -0.9166714 -2.607481 -1.1705885
000360 8b 7b 93 be ce d6 45 3e a5 c2 84 bf fe 24 af 3f
       -0.28805193 0.19320223 -1.0371901 1.3683164
000370 20 e9 09 40 3c 49 25 40 9c 7a e8 3e 48 3d 88 3f
       2.1548538 2.5825949 0.45406044 1.0643702
000380 a1 a7 89 3f 33 f0 86 3f df 82 64 bf 81 8d 48 bf
       1.0754281 1.0542053 -0.89262193 -0.7834092
000390 91 f8 97 bf 50 69 e1 3f fc 76 1f c0 3d 49 09 3e
       -1.1872731 1.7610264 -2.4916372 0.13406844
0003a0 b2 67 77 bd bb 27 25 bf 86 cf ef bf 75 e6 06 c0
       -0.060401626 -0.6451375 -1.8735206 -2.107816
0003b0 2a 6f aa bf 4d b9 22 c0 55 2b ba 3f 8e 7c 6c bf
       -1.3315175 -2.5425599 1.4544474 -0.92377555
0003c0 cb ad 45 3f 80 f0 7f 3f f7 33 6c be c0 ff 4b bf
       0.7721831 0.9997635 -0.23066698 -0.7968712
0003d0 84 89 20 bf 93 d6 94 be 13 13 12 c0 20 08 80 3f
       -0.6270983 -0.29069957 -2.2824142 1.000248
0003e0 fb ad d9 3e 2f 8c 1d 3f 52 3f b6 3f 9d ef 02 c0
       0.4251555 0.6154203 1.4238074 -2.0458748
0003f0 1e b8 bc be 08 c2 72 3f 61 01 cc be 59 ef f8 3f
       -0.3685922 0.9482732 -0.39844802 1.9448043
