crowd_nav/GRL_output/rl_model_0.pth (torch, 143871 bytes, 33 tensors)

w_a f4 [32, 32]
0.3126214 0.23664142 1.1597022 -2.112843 -0.000970457 -2.2065668 1.3696432 0.65251046
1.3563826 0.40474877 -0.9535476 -0.9528914 -1.4960992 -2.0613317 0.25768626 -0.72129613
0.8579258 -1.8648587 0.37701386 0.18661018 0.9679229 -0.86426044 1.9652808 -1.1922497
-1.2245747 0.8255223 -0.02413008 -3.5725088 -0.8782195 -0.43949118 -0.716919 1.3016288
-0.5104528 0.6020677 -0.8970415 -1.1510972 0.8075558 0.7194777 0.159318 0.5215147
-0.07069476 -0.114183985 -0.4601198 -0.2434259 0.15712753 -1.7039523 -0.24884108 -0.67018783
0.044300467 0.30613622 -1.0963255 -0.2555511 1.0993528 -1.8794774 -1.8953682 -1.7884638
0.20584765 1.1469865 -1.0473717 -0.46890867 0.15540706 1.4700425 1.333538 -0.20357697
-0.71517956 -0.72137946 -1.4011819 0.7139044 -1.2483208 1.004426 -0.6852931 -1.1614252
-1.8262348 -0.023739064 0.98154384 -0.869504 -1.0847417 0.2715527 -1.3241632 -0.44094917
-0.1745491 0.17924665 -1.2439295 0.87193763 -0.096033014 0.35347474 0.9004392 -1.8433776
-1.9093808 1.2109612 -1.2206761 1.2487562 -0.17159632 -0.066956624 2.0411592 -0.63418406
0.36279395 1.92458 0.14196452 0.3544215 -1.212605 0.43189472 1.2955256 -0.8048189
0.16687258 -0.79352176 0.2851822 -0.9389138 -0.3107511 -0.6053815 0.8060828 -0.880684
-0.30602482 0.5443122 -0.46566325 0.9031047 -0.76121485 -0.23899356 -1.1319596 0.7331841
0.37395668 0.40476084 -1.3924453 1.1438568 -1.0015899 0.21349725 -0.67717385 0.32810527
0.23676795 0.22114024 -0.6653644 -0.22800899 -0.84234565 0.19044639 0.60569954 -1.2355455
-1.7056264 1.0035913 0.38080564 -0.25631863 -1.51338 1.9965962 0.8152361 1.2919415
-0.17022471 -0.3113317 -1.0764549 -0.11101234 0.20362227 0.23162684 0.107873246 0.59261465
-1.1669458 1.448832 -0.71323824 -0.5703876 -0.0071582496 -0.46434668 -0.33969867 -0.3176773
-1.5264359 2.0539389 -1.5680815 -0.5485368 0.7093613 -0.4247114 -0.15102172 0.12504223
-0.5653715 1.4725397 1.2369529 1.5868863 -1.3504682 0.67452973 -0.5640497 -0.27851856
2.0247433 1.3152764 -0.5453232 0.60430014 -0.66502017 -0.71956885 1.8502542 0.68108356
-0.68330574 0.7993619 0.7003666 0.14681637 0.62226725 1.0780678 2.0885003 -0.4883876
-1.0425617 -0.8244752 -0.23216212 -0.39141324 0.053544804 0.52844906 -0.2631369 0.50171214
-0.24379526 -0.46204612 1.2895651 -0.5546651 -0.7522016 -0.53535074 0.0069417013 -0.57207763
-0.90472895 -0.58002603 -0.96856755 -0.31795096 -2.3042662 0.23191427 0.29609624 -0.037372723
0.6213248 -2.665743 -1.4188622 0.3695739 -0.4734118 0.12558962 -0.111681 -2.0407717
0.8037414 0.55056995 -0.59498805 -0.2932761 0.19771396 -0.10757694 -0.35971224 1.1422482
-0.30710852 1.0316647 -1.4767625 0.16325617 -0.5654441 0.61675465 -0.01780596 -0.4805239
-0.02535768 -0.7009728 -0.030555055 -0.78090405 -0.12981394 1.0572938 0.34507206 -1.9001245
-1.3527113 -1.2868397 -1.5499905 1.9958584 -1.5456257 -0.625713 0.68790203 1.5588915
00000000: ea0f a03e 2152 723e 1f71 943f d238 07c0
00000010: 4466 7eba 6438 0dc0 7850 af3f ed0a 273f
00000020: f29d ad3f 3b3b cf3e b21b 74bf b1f0 73bf
00000030: 2e80 bfbf dcec 03c0 74ef 833e dda6 38bf
00000040: 06a1 5b3f b1b3 eebf f607 c13e bd16 3f3e
00000050: ccc9 773f 2c40 5dbf 528e fb3f a39b 98bf
00000060: ddbe 9cbf 6e55 533f 72ac c5bc fca3 64c0
00000070: fed2 60bf fd04 e1be 0188 37bf c69b a63f
00000080: 09ad 02bf 1c21 1a3f 83a4 65bf 2757 93bf
00000090: fabb 4e3f b12f 383f 4224 233e fd81 053f
000000a0: 6ac8 90bd 4bd9 e9bd d394 ebbe a444 79be
000000b0: 0ae6 203e 1c1b dabf 32d0 7ebe 6e91 2bbf
000000c0: 6874 353d e3bd 9c3e 6554 8cbf 98d7 82be
000000d0: 98b7 8c3f b792 f0bf 6d9b f2bf 62ec e4bf
000000e0: bac9 523e 74d0 923f 4710 86bf cc14 f0be
000000f0: 0723 1f3e 5a2a bc3f 60b1 aa3f 7b76 50be
00000100: 0216 37bf 53ac 38bf ee59 b3bf 70c2 363f
00000110: fac8 9fbf 0891 803f 5e6f 2fbf 95a9 94bf
00000120: 10c2 e9bf 6d78 c2bc 7546 7b3f d097 5ebf
00000130: d1d8 8abf f508 8b3e 2e7e a9bf 17c4 e1be
00000140: 00bd 32be 6f8c 373e 1539 9fbf 4e37 5f3f
00000150: f5ac c4bd a4fa b43e 2f83 663f ccf3 ebbf
00000160: 9766 f4bf c700 9b3f 1d3f 9cbf 3ed7 9f3f
00000170: f2b6 2fbe 8e20 89bd 5aa2 0240 e359 22bf
00000180: 21c0 b93e a358 f63f 265f 113e bc76 b53e
00000190: a436 9bbf 4e21 dd3e c8d3 a53f 9d08 4ebf
000001a0: a5e0 2a3e 3e24 4bbf 6703 923e a85c 70bf
000001b0: c51a 9fbe 48fa 1abf 715b 4e3f 8274 61bf
000001c0: 49af 9cbe 0b58 0b3f 6a6b eebe df31 673f
000001d0: fade 42bf baba 74be 0de4 90bf f4b1 3b3f
000001e0: 4077 bf3e d03c cf3e a63b b2bf e669 923f
000001f0: 1934 80bf 069f 5a3e 445b 2dbf 6afd a73e
00000200: 4c73 723e 9672 623e 5255 2abf 307b 69be
00000210: f7a3 57bf 6104 433e 200f 1b3f 5b26 9ebf
00000220: f751 dabf ae75 803f f5f8 c23e 323c 83be
00000230: 70b6 c1bf 7790 ff3f 50b3 503f 575e a53f
00000240: 634f 2ebe de66 9fbe 46c9 89bf 705a e3bd
00000250: 5b82 503e 962f 6d3e a6ec dc3d 98b5 173f
00000260: 7b5e 95bf 5473 b93f c896 36bf ec04 12bf
00000270: c08f eabb d9be edbe fcec adbe 99a6 a2be
00000280: 4062 c3bf bc73 0340 e5b6 c8bf e86c 0cbf
00000290: b498 353f c673 d9be 70a5 1abe 120b 003e
000002a0: 30bc 10bf 2e7c bc3f 7954 9e3f 171f cb3f
000002b0: 24dc acbf fbad 2c3f 9065 10bf fc99 8ebe
000002c0: 6595 0140 fa5a a83f 4d9a 0bbf 6ab3 1a3f
000002d0: c33e 2abf aa35 38bf 21d5 ec3f 7e5b 2e3f
000002e0: 20ed 2ebf fba2 4c3f 3a4b 333f 0857 163e
000002f0: e84c 1f3f 20fe 893f fda9 0540 f10d fabe
00000300: a972 85bf cf10 53bf e8bb 6dbe 5167 c8be
00000310: cc51 5b3d 7048 073f e1b9 86be 3570 003f
00000320: 77a5 79be 4f91 ecbe 7810 a53f 88fe 0dbf
00000330: 4990 40bf bf0c 09bf 3677 e33b ae73 12bf
00000340: 519c 67bf 967c 14bf 0bf4 77bf 78ca a2be
00000350: 1979 13c0 ef7a 6d3e ed99 973e 2414 19bd
00000360: 240f 1f3f 899b 2ac0 479d b5bf ca38 bd3e
00000370: 0863 f2be 919a 003e 02b9 e4bd 019c 02c0
00000380: ffc1 4d3f 27f2 0c3f 2351 18bf 4928 96be
00000390: 8775 4a3e 4c51 dcbd 342c b8be 3035 923f
000003a0: 543d 9dbe 970d 843f 8e06 bdbf a02c 273e
000003b0: f2c0 10bf a2e3 1d3f cedd 91bc 3b07 f6be
000003c0: e9ba cfbc f472 33bf 984e fabc 54e9 47bf
000003d0: f2ed 04be 6755 873f 49ad b03e 4837 f3bf
000003e0: a525 adbf 2ab7 a4bf 1766 c6bf 4a78 ff3f
000003f0: 10d7 c5bf ba2e 20bf 591a 303f c289 c73f

w_r.0.weight f4 [64, 9]
0.49375317 -0.17532766 0.4297016 -0.62896854 -0.3546774 0.03293073 -0.11922986 -0.010051849
-0.062038783 -0.571657 -0.2893592 -1.2435564 -0.53396696 -0.12761101 -0.09710666 -0.1104288
-0.2556737 -0.16202384 0.06553544 0.035649788 -0.26348132 -0.25031075 -0.09420205 -0.31543738
-0.21197617 0.18095677 0.049087886 -0.5308026 -0.14045301 0.99464005 -0.7526152 0.17931813
-0.16776602 -0.04232183 0.27978212 0.10840382 0.10712023 -0.01772392 -0.31165612 -0.040615052
-0.34962082 -0.15083814 0.0018781436 -0.28480583 -0.23673387 0.3135415 0.11583668 -0.78663266
-0.19053616 -0.0895729 0.22626948 0.1717874 -0.053248335 -0.29186183 -0.25649184 0.13427989
0.4965895 -0.7180658 0.13834119 -0.20792806 0.17358778 -0.28511706 0.13562115 -0.8890909
-0.19951189 -1.4899758 -0.35666695 -0.16758981 0.013089895 -0.19084042 0.14300445 0.10559948
-0.36476153 -0.47863516 -0.32937092 -0.065807484 0.13813968 0.11653094 -0.24704692 -0.45383567
-0.39879417 0.5320728 -0.36913693 0.6839308 0.02975534 -0.51522917 0.17105433 -0.22274396
-0.7615663 -0.25442722 -0.12100175 -0.011075319 0.025659373 -0.3696017 -0.37177503 -0.045767944
0.038503982 -0.43564853 -0.2146099 0.02857593 -0.0010615564 0.11848807 -0.42316106 -0.6102472
0.2905801 -0.08998499 -0.00042580985 -0.10502331 -0.14494845 -0.029048365 -0.21639757 -0.28705162
-0.07340324 -0.1905402 -0.33187622 0.15872249 0.21319675 -0.117097035 -0.26559114 -1.4484771
0.21106735 -0.0067854733 -0.12633765 -0.33303618 -0.11030158 0.032289807 -0.34163335 -0.38026863
-0.32664403 -0.92636466 -0.45118085 -0.22128408 -0.015167076 -0.43110532 -0.025485199 -0.3659623
-0.28057674 0.31371108 -0.3442963 -0.113615565 -0.26921508 -0.2936966 -0.19234599 -0.10862658
-0.092243634 0.1947707 -0.008125865 -0.4416194 -0.34165972 -0.0030560098 0.15449853 0.046843365
0.05969087 -0.3713516 0.0008836331 -0.78614384 0.92311245 0.13676555 -0.03999996 -0.07034162
-0.1586467 -0.3704855 0.008405995 0.46185073 -0.97100645 0.036283102 -0.16300164 -0.30505353
-0.3362718 -0.37774637 0.1227918 0.6271149 -0.52407616 -0.690203 0.12530863 -0.41259792
0.2294291 -0.35036704 0.12970375 -0.11905041 0.3950582 -0.525763 1.0867995 -0.5225587
0.20586336 -0.04311347 -0.2706228 -0.22425489 -0.06407367 0.1069361 -0.005955279 0.36537862
0.8262524 -0.25037152 0.033413332 -0.06397739 -0.17321974 0.15422215 0.074420795 0.13626915
0.81896156 -0.5920114 0.011500981 0.3147732 0.025192903 -0.09768427 -0.008103276 -0.14685859
0.16213796 1.1180718 0.28983408 -0.28883064 0.041944824 -0.025144616 -0.3160978 0.0034716139
0.64222836 0.33693886 0.63765955 0.254893 -0.27873886 -0.011994402 -0.33738515 0.051176198
-0.12044518 -0.65498286 0.15404919 -0.96048707 -0.0047275727 -0.3701141 -0.1441046 -0.2932039
-0.21417603 -0.29420874 0.7223857 -0.14395152 0.49055248 0.52397746 -0.14970972 -0.04976964
-0.047378533 -0.27424607 -0.16701487 -0.5569539 -0.26245117 -1.1723121 0.71109 0.32456183
-0.023932934 -0.3109407 -0.078299895 -0.058250267 -0.3466025 -0.19208665 -1.5769703 -0.4127605
00000000: 37cd fc3e 1889 33be d901 dc3e 1504 21bf
00000010: 4798 b5be 60e2 063d c92e f4bd 83b0 24bc
00000020: 611c 7ebd 1d58 12bf e426 94be db2c 9fbf
00000030: 0fb2 08bf 76ac 02be dbdf c6bd 7f28 e2bd
00000040: aae7 82be 94e9 25be 7237 863d 8305 123d
00000050: 06e7 86be bb28 80be 01ed c0bd 0281 a1be
00000060: 4810 59be bb4c 393e 6110 493d aee2 07bf
00000070: ead2 0fbe bba0 7e3f 64ab 40bf 2c9f 373e
00000080: dbca 2bbe a859 2dbd 9a3f 8f3e d202 de3d
00000090: da61 db3d c131 91bc 6491 9fbe f85b 26bd
000000a0: 8001 b3be 5075 1abe 0b2c f63a 12d2 91be
000000b0: 5d6a 72be 8388 a03e c83b ed3d c260 49bf
000000c0: e91b 43be ff71 b7bd 30b3 673e 09e9 2f3e
000000d0: ed1a 5abd ea6e 95be e652 83be ab80 093e
000000e0: fb40 fe3e 29d3 37bf 50a9 0d3e 18eb 54be
000000f0: ffc0 313e ddfa 91be 45e0 0a3e 769b 63bf
00000100: d84c 4cbe 87b7 bebf 0d9d b6be aa9c 2bbe
00000110: 0077 563c ac6b 43be c26f 123e 8a44 d83d
00000120: 06c2 babe ab0f f5be 4ea3 a8be 13c6 86bd
00000130: 7d74 0d3e c6a7 ee3d def9 7cbe 265d e8be
00000140: c02e ccbe ec35 083f 84ff bcbe 1716 2f3f
00000150: 79c1 f33c 0fe6 03bf de28 2f3e fe16 64be
00000160: 02f6 42bf 4944 82be c4cf f7bd 4175 35bc
00000170: 9b33 d23c 6f3c bdbe 4c59 bebe 2b77 3bbd
00000180: 5ab6 1d3d 530d dfbe b3c2 5bbe 1218 ea3c
00000190: ec23 8bba e0a9 f23d 91a8 d8be 2939 1cbf
000001a0: eac6 943e 0d4a b8bd 3b3f dfb9 7616 d7bd
000001b0: 5e6d 14be d6f6 edbc 5397 5dbe 6ef8 92be
000001c0: 7054 96bd f81c 43be aeeb a9be 2688 223e
000001d0: 4050 5a3e 92d0 efbd 90fb 87be b367 b9bf
000001e0: 0a22 583e ad58 debb a85e 01be b883 aabe
000001f0: cbe5 e1bd 5142 043d 91ea aebe 92b2 c2be
00000200: e33d a7be 3c26 6dbf 2d01 e7be 4b98 62be
00000210: 547f 78bc d6b9 dcbe 56c6 d0bc 695f bbbe
00000220: c1a7 8fbe bd9e a03e 9b47 b0be 47af e8bd
00000230: 8fd6 89be 675f 96be 59f6 44be 9d77 debd
00000240: 3bea bcbd f871 473e 5922 05bc f01b e2be
00000250: 06ee aebe 5647 48bb dd34 1e3e d4de 3f3d
00000260: 6a7e 743d cc21 bebe 9da3 673a b940 49bf
00000270: 1951 6c3f 450c 0c3e 00d7 23bd 440f 90bd
00000280: 4874 22be 47b0 bdbe 4cb9 093c b377 ec3e
00000290: e193 78bf 979d 143d e7e9 26be fa2f 9cbe
000002a0: d12b acbe f967 c1be 447a fb3d 9a8a 203f
000002b0: db29 06bf 25b1 30bf e850 003e 0940 d3be
000002c0: 76ef 6a3e 4f63 b3be 0fd1 043e b4d0 f3bd
000002d0: 1245 ca3e 6798 06bf 3f1c 8b3f 68c6 05bf
000002e0: d8cd 523e c097 30bd 128f 8abe 13a3 65be
000002f0: 0e39 83bd 5001 db3d 8024 c3bb e812 bb3e
00000300: 4785 533f b230 80be 6bdc 083d 9406 83bd
00000310: 8460 31be 69ec 1d3e ee69 983d 248a 0b3e
00000320: 77a7 513f 0f8e 17bf 9c6e 3c3c f429 a13e
00000330: 5961 ce3c b10e c8bd 9ac3 04bc 1962 16be
00000340: 7e07 263e fa1c 8f3f 2265 943e 9ce1 93be
00000350: 56ce 2b3d 15fc cdbc 92d7 a1be 0484 633b
00000360: 1469 243f 4083 ac3e a83d 233f 5681 823e
00000370: dcb6 8ebe 2b84 44bc bfbd acbe 229e 513d
00000380: f6ab f6bd f5ac 27bf 12bf 1d3e 7be2 75bf
00000390: c1e9 9abb 987f bdbe 2890 13be d21e 96be
000003a0: f650 5bbe 87a2 96be 45ee 383f 0768 13be
000003b0: b229 fb3e 6323 063f 814d 19be 40db 4bbd
000003c0: fe0f 42bd fb69 8cbe f205 2bbe 8894 0ebf
000003d0: 0060 86be 530e 96bf ff09 363f f82c a63e
000003e0: 000f c4bc 9f33 9fbe b25b a0bd d597 6ebd
000003f0: e275 b1be 5db2 44be 2ada c9bf 5855 d3be

w_r.0.bias f4 [64]
0.20313369 -0.0727147 -0.010706317 -0.052984416 -0.006731762 0.10765337 -0.26488215 -0.011615146
-0.19129935 -0.2550828 -0.06265261 0.035626158 -0.2064166 -0.21324123 -0.06743581 0.009446139
0.12847908 -0.36535242 0.13484666 -0.31334344 -0.2481227 -0.34396726 -0.37706473 -0.25437763
-0.012557894 0.16665272 -0.4385464 0.23271218 0.11030512 -0.21048804 -0.0359594 0.1253423
0.076120205 -0.37755325 0.05719685 0.2522781 -0.21624881 0.16348943 0.2274571 -0.39507517
-0.16209653 -0.10162927 -0.28874573 -0.4315291 0.17070931 -0.10275634 -0.17311 -0.3307686
-0.59449786 -0.040183906 0.020109426 -0.12391315 -0.09941958 -0.020316014 -0.14006214 -0.2253149
0.16947477 -0.39591128 -0.036551617 -0.051437423 -0.1551065 -0.42196813 -0.17765512 -0.31126177
00000000: 4702 503e 72eb 94bd 8c69 2fbc 3006 59bd
00000010: 1d96 dcbb 5f79 dc3d a29e 87be 744d 3ebc
00000020: fae3 43be 369a 82be 0350 80bd bcec 113d
00000030: e05e 53be e95b 5abe c91b 8abd fbc3 1a3c
00000040: 0590 033e 790f bbbe 3e15 0a3e 8d6e a0be
00000050: e113 7ebe 7a1c b0be a10e c1be c93d 82be
00000060: a0bf 4dbc 03a7 2a3e 2789 e0be 1a4c 6e3e
00000070: a7e7 e13d 2d8a 57be 2a4a 13bd bb59 003e
00000080: e9e4 9b3d a94e c1be 3f47 6a3d 982a 813e
00000090: 5470 5dbe c669 273e 84ea 683e 4b47 cabe
000000a0: a2fc 25be 0223 d0bd 7bd6 93be 62f1 dcbe
000000b0: 6cce 2e3e ea71 d2bd bf43 31be 805a a9be
000000c0: 0331 18bf e197 24bd 86bc a43c 2dc6 fdbd
000000d0: 7e9c cbbd c56d a6bc 736c 0fbe f3b8 66be
000000e0: cb8a 2d3e e2b4 cabe 26b7 15bd 0cb0 52bd
000000f0: 3dd4 1ebe 350c d8be 39eb 35be b45d 9fbe

w_r.2.weight f4 [32, 64]
0.10415116 -0.34934774 0.097356945 0.17243196 -0.037336234 -0.05573033 0.13749857 0.27747154
-0.20221263 -0.06521997 -0.047445 -0.043883067 -0.088924065 -0.1423862 0.077989236 -0.11961213
0.024768164 -0.119637676 -0.2691901 -0.051479954 -0.12583569 0.094692 -0.013771838 -0.48794985
-1.19206 -0.4547972 -1.0287448 0.10176742 0.2146779 -0.12113919 -0.22521167 -0.17651497
-0.23989713 -0.33079618 0.035559967 0.0541337 -0.33393475 0.04555585 -0.11608 -0.3685854
0.016947031 0.114485055 -0.06801155 -0.730996 -0.10973307 -0.15671583 -0.2562079 0.095226824
0.12596276 0.5953236 -0.1009175 -0.4039148 -0.0068329084 0.14636774 -0.057733424 -0.12149917
-0.02261332 0.091106 0.22531903 0.097252995 0.15978816 -0.080620475 0.0095910905 -0.06372983
0.049018145 -0.11188151 -0.025923807 -0.04145244 -0.040103864 -0.11076946 0.054796323 -0.005249398
0.1507493 -0.4932729 0.00792565 -0.021937886 -0.10078965 -0.32047197 -0.20674439 0.12390805
0.032947972 -0.10673533 0.083057694 -0.021009235 -0.27248177 -0.11552274 0.0022676995 0.25925413
0.11252381 -0.11978973 -0.60510564 -0.04526091 0.018351743 -0.5853828 0.011539403 0.010987729
-0.11956871 -0.042283658 0.30520353 0.07015771 0.1741158 -0.43231812 0.072185196 0.08246619
-0.030473191 0.030106574 0.12248602 -0.6774563 -0.06415519 0.04299213 -0.122675456 0.023241296
-0.3140921 -0.042552244 -0.040907633 -0.25240076 0.013439865 0.088858336 -0.10892792 0.18267208
-0.00016120057 0.0009199014 0.056969177 0.07456502 -0.06279166 -0.18107337 0.01697616 -0.0038824677
0.09218244 -0.34968024 0.12239453 0.108571194 -0.06015029 -0.22944717 -0.039828286 0.13383566
-0.1346225 0.17367189 -0.023083014 -0.040562954 0.012740463 0.3382792 0.061592393 -0.19945875
-0.28031445 0.08593539 -0.09717019 -0.25522795 0.18633677 0.22926302 -0.07441977 -0.46092778
0.4579912 -0.24195941 0.10408757 0.0836832 0.02010408 0.13815886 -0.17166956 0.09394996
-0.1501952 0.0655377 0.34150267 -0.17851856 -0.5162371 -2.140772 -0.13132496 -0.6600016
-0.048414648 -0.10039781 0.028665414 0.00020388061 -0.22984162 0.04029194 -0.14068303 0.12419239
-0.061672807 -0.035619456 0.21502566 0.034435954 0.05971547 0.1776483 -0.009517633 0.16352293
0.11157604 0.02063266 0.02369193 0.117167905 -0.026122333 -0.09750368 -0.21449529 -0.04355225
-0.30964082 -0.032819282 -0.0400844 -0.17196004 0.09020454 0.24325423 -0.026793232 -0.551185
0.29666165 0.24612856 -0.06587493 0.038238354 -0.071557224 -0.13762212 0.16057056 -0.05441264
0.01917513 -0.37595364 -0.23023698 -0.11138872 -0.44164765 -0.11428385 0.28720707 -0.1522703
-0.4768972 -0.04423762 0.019641008 -0.09086375 -0.24492195 0.47239113 -0.06445591 0.11837201
0.02236366 -0.25057697 0.11455454 -0.09742109 -0.30564055 -0.6595586 -0.051834177 0.0320108
-0.00026582554 0.03068664 -0.034200404 -0.008764737 0.230288 0.15477778 0.14178406 -0.0010030717
0.2883426 0.073991515 -0.021978976 -0.34609714 -0.25145563 0.17554994 0.14051576 0.16536619
0.22566038 -0.06737086 -0.09722058 0.18398623 -0.19989222 -0.030155186 -0.7391057 0.05809711
00000000: 344d d53d b5dd b2be 1463 c73d 0192 303e
00000010: e1ed 18bd 7d45 64bd 6dcc 0c3e c010 8e3e
00000020: d410 4fbe 0c92 85bd b055 42bd bbbe 33bd
00000030: d21d b6bd b0cd 11be d2b8 9f3d 34f7 f4bd
00000040: 9be6 ca3c 9904 f5bd 49d3 89be a5dc 52bd
00000050: 12db 00be e1ed c13d 46a3 61bc 90d4 f9be
00000060: 6c95 98bf 2edb e8be e9ad 83bf 706b d03d
00000070: 86d4 5b3e d317 f8bd e39d 66be 57c0 34be
00000080: 98a7 75be 1e5e a9be 54a7 113d 4cbb 5d3d
00000090: 7ff9 aabe c598 3a3d 5abb edbd 3ab7 bcbe
000000a0: 80d4 8a3c 2477 ea3d a449 8bbd 8e22 3bbf
000000b0: bbbb e0bd 1d7a 20be af2d 83be 4806 c33d
000000c0: 62fc 003e 2167 183f d6ad cebd eccd cebe
000000d0: 97e6 dfbb 6de1 153e e279 6cbd 8fd4 f8bd
000000e0: 923f b9bc c895 ba3d 08ba 663e 942c c73d
000000f0: 829f 233e 591c a5bd f323 1d3c c984 82bd
00000100: 40c7 483d 2222 e5bd 2a5e d4bc 09ca 29bd
00000110: f343 24bd 19db e2bd 1c72 603d 2403 acbb
00000120: 065e 1a3e 448e fcbe 96da 013c 15b7 b3bc
00000130: ce6a cebd e714 a4be cdb4 53be 81c3 fd3d
00000140: 74f4 063d 0d98 dabd 271a aa3d 8f1b acbc
00000150: bb82 8bbe 3097 ecbd af9d 143b f5bc 843e
00000160: e272 e63d 5154 f5bd 34e8 1abf 8163 39bd
00000170: 6556 963c a6db 15bf c40f 3d3c e005 343c
00000180: 71e0 f4bd a131 2dbd a343 9c3e d8ae 8f3d
00000190: 6a4b 323e cd58 ddbe d5d5 933d 09e4 a83d
000001a0: eaa2 f9bc 10a2 f63c f3d9 fa3d c76d 2dbf
000001b0: cc63 83bd 8418 303d 453d fbbd 8864 be3c
000001c0: aed0 a0be 434b 2ebd c38e 27bd ac3a 81be
000001d0: e132 5c3c 5cfb b53d 9a15 dfbd 640e 3b3e
000001e0: f307 29b9 8a25 713a 8358 693d 8cb5 983d
000001f0: ea98 80bd 4c6b 39be 9711 8b3c 0071 7ebb
00000200: 26ca bc3d 4a09 b3be fca9 fa3d 935a de3d
00000210: 2760 76bd 33f4 6abe fc22 23bd 370c 093e
00000220: 7bda 09be 0bd7 313e 9718 bdbc 5725 26bd
00000230: 60bd 503c ee32 ad3e 4e48 7c3d ea3e 4cbe
00000240: 6085 8fbe e5fe af3d 2a01 c7bd 3dad 82be
00000250: 11cf 3e3e edc3 6a3e 6469 98bd bafe ebbe
00000260: d37d ea3e 35c4 77be dd2b d53d 1962 ab3d
00000270: 50b1 a43c 8479 0d3e 25ca 2fbe d668 c03d
00000280: c5cc 19be a138 863d 70d9 ae3e 92cd 36be
00000290: 1d28 04bf 6902 09c0 0d7a 06be ddf5 28bf
000002a0: 704e 46bd 5e9d cdbd bbd3 ea3c c9c8 5539
000002b0: 9a5b 6bbe 2909 253d 360f 10be 9458 fe3d
000002c0: a09c 7cbd b5e5 11bd b02f 5c3e b70c 0d3d
000002d0: 3598 743d 70e9 353e d9ef 1bbc 8e72 273e
000002e0: fb81 e43d d305 a93c 9415 c23c baf5 ef3d
000002f0: 81fe d5bc 02b0 c7bd a7a4 5bbe d863 32bd
00000300: 3e89 9ebe 836d 06bd 8a2f 24bd 4b16 30be
00000310: 28bd b83d a317 793e 7b7d dbbc 761a 0dbf
00000320: 09e4 973e 2009 7c3e 6fe9 86bd d29f 1c3d
00000330: 988c 92bd d0ec 0cbe 9c6c 243e cadf 5ebd
00000340: 2a15 9d3c ff7c c0be 3ec3 6bbe c51f e4bd
00000350: a41f e2be a70d eabd ce0c 933e bfec 1bbe
00000360: df2b f4be 8232 35bd 2ee6 a03c c616 babd
00000370: d2cc 7abe 40dd f13e 7601 84bd 066d f23d
00000380: ff33 b73c a04b 80be 929b ea3d b584 c7bd
00000390: eb7c 9cbe d5d8 28bf 1350 54bd c21d 033d
000003a0: 805e 8bb9 8c62 fb3c b915 0cbd f999 0fbc
000003b0: 9ed0 6b3e 117e 1e3e d72f 113e 8079 83ba
000003c0: a4a1 933e dd88 973d 410d b4bc a533 b1be
000003d0: cbbe 80be 5dc3 333e 5de3 0f3e c155 293e
000003e0: 8413 673e bcf9 89bd 951b c7bd e366 3c3e
000003f0: 8cb0 4cbe 0208 f7bc 0836 3dbf 3cf7 6d3d

w_r.2.bias f4 [32]
-0.1496425 0.1997402 0.23973976 0.36308357 -0.09710413 -0.15566489 0.026540434 0.095472336
0.36729637 -0.118633255 -0.14196964 0.025098832 -0.25624156 0.027535487 -0.038440276 -0.10451488
-0.15367626 -0.120035864 0.5150816 0.17689098 0.2788341 -0.038556628 -0.009465841 0.26284757
-0.1470652 0.45689163 0.099192046 -0.07277286 0.06680652 -0.092229605 0.20474838 0.23502578
00000000: e23b 19be b288 4c3e 577e 753e 17e6 b93e
00000010: 88de c6bd 9e66 1fbe 536b d93c 0087 c33d
00000020: 450e bc3e fef5 f2bd 7d60 11be 119c cd3c
00000030: 1832 83be 1a92 e13c 8d73 1dbd e60b d6bd
00000040: 4f5d 1dbe 5dd5 f5bd 63dc 033f e922 353e
00000050: 58c3 8e3e 8eed 1dbd 9d16 1bbc f593 863e
00000060: 4398 16be b3ed e93e 3325 cb3d f009 95bd
00000070: dbd1 883d e0e2 bcbd 8fa9 513e 99aa 703e

w_h.0.weight f4 [64, 5]
0.071721226 -0.11605707 -0.73439616 -0.8077836 -0.60963184 0.22905001 0.114403255 -0.008033183
1.0170312 -0.45823205 -0.095399916 -0.46056232 -0.14244059 -0.26292107 0.05293742 -0.095970884
0.26812428 -0.29413742 -0.91611004 0.049023863 -0.03923677 -0.07312859 -0.43235087 0.84458655
-0.45954755 -0.14828476 -0.017784085 -0.62567675 0.26546395 -0.42078012 -0.49996236 -0.009095073
-0.83920366 -0.312401 -0.17557976 -0.28408226 -0.059934124 -0.8750229 0.067338295 -0.2678196
-0.017979734 -0.009186001 -0.0984413 -0.10989516 -0.16270998 -0.019755067 -0.043715496 0.03310548
-0.0030136541 -0.16314296 0.344218 -0.35256806 0.08430464 -0.37822077 -0.18072945 -0.2779252
-0.018163187 -0.7166573 -0.03122424 -0.70785403 0.09737027 0.39092526 -0.049028624 0.48153806
-0.29885423 -0.1429151 -0.20174305 -0.58872485 -0.6767608 -0.47756672 0.2746036 -0.0030161007
0.78963107 0.063391395 -0.41168422 -0.2765137 -0.22372931 -0.25180984 -0.4851166 -0.112627156
-0.3445039 0.19291763 0.78772616 -0.037182227 -0.17943373 -0.24196352 -0.3364688 -0.46963274
-0.8920453 0.12844628 0.17307219 0.2531086 -0.57877606 0.30678722 0.05889679 -0.25079113
-0.098617874 0.48133537 -0.79908717 -0.24255489 -0.31424668 0.11901885 0.36747354 0.6145073
-0.4111226 0.28087685 -0.0275987 0.62378716 -0.13119262 -0.8641434 0.30227646 0.29207298
-0.22476403 0.017054636 -0.42405662 -0.31712627 -0.30482608 0.46911523 0.34250933 0.26574472
0.21957234 0.1523463 0.778964 -0.7407172 -0.20084472 0.10548952 0.18963628 -0.18780984
0.88618046 -0.4604003 -0.111421555 0.18364441 -0.32673892 0.4493315 -0.49227896 -0.3444636
-0.3033013 -0.41013023 -0.87306327 -0.6770661 0.033021864 -0.2086042 0.7710635 0.20778343
-0.35744518 -0.39203793 -0.3485224 -0.19817463 0.34554818 -0.2882432 -0.04665566 0.07975895
-0.642801 -0.30698133 -0.16380303 0.16639565 -0.2089357 0.69443965 -0.73536533 0.073580794
0.037554085 -0.0044840267 0.1685365 -0.049909756 -0.113848515 0.33425683 0.07154046 0.65249467
0.13528039 -0.05428275 -0.073631935 -0.081239745 0.44540748 -0.2702856 0.0702069 -0.47995603
-0.2801749 -0.19571657 -0.2737177 -0.26460287 -0.31432492 -0.2787221 -0.6813828 0.4963653
0.13291882 -0.23193234 -0.20280856 0.03634776 0.05417222 -0.62776107 0.35714614 0.13537721
-0.3461974 0.468354 -0.0073049585 -0.15570374 0.08661888 -0.7329343 0.70693547 -0.45929986
-0.12792805 -0.20363252 -0.5177595 -0.4785209 -0.2067165 -0.08712988 0.3159193 0.8961304
0.78540766 -0.6047174 -0.03228936 -0.0058142724 -0.1760158 -0.19463935 -0.6430229 0.19584669
0.21113603 0.9476894 0.77699023 -0.21015903 0.19702296 0.100014165 0.5102241 -0.6309423
-0.7559404 0.008857266 0.054485768 -0.19487342 0.010823921 -0.65777737 0.15077299 0.17905872
0.92287916 -0.263296 -0.2205892 -0.021707153 0.0027420016 0.5279601 0.65336084 0.009708276
-0.24296965 0.1686235 -0.3962531 0.7579088 -0.13508095 0.1610544 0.09874985 0.42849085
0.6136596 -0.29258427 0.24155481 0.23305649 0.3782966 -0.11532153 -0.7743219 0.2636018
00000000: 94e2 923d 54af edbd 6301 3cbf e8ca 4ebf
00000010: d510 1cbf 168c 6a3e 414c ea3d 9d9d 03bc
00000020: 142e 823f 649d eabe 0861 c3bd d3ce ebbe
00000030: f2db 11be 979d 86be e8d4 583d 628c c4bd
00000040: 9647 893e 2e99 96be 3086 6abf 3fcd 483d
00000050: bcb6 20bd 71c4 95bd 185d ddbe d336 583f
00000060: d149 ebbe f6d7 17be eeaf 91bc 5a2c 20bf
00000070: e4ea 873e 7e70 d7be 11fb ffbe 8003 15bc
00000080: 0dd6 56bf 06f3 9fbe 2ecb 33be 3b73 91be
00000090: 7c7d 75bd 8001 60bf a9e8 893d a71f 89be
000000a0: 3c4a 93bc e180 16bc 989b c9bd b710 e1bd
000000b0: 729d 26be 61d5 a1bc 050f 33bd 9d99 073d
000000c0: ba80 45bb f30e 27be 573d b03e cd83 b4be
000000d0: e9a7 ac3d 27a6 c1be 2411 39be 364c 8ebe
000000e0: f7ca 94bc da76 37bf fac9 ffbc ec35 35bf
000000f0: 106a c73d 5b27 c83e 3dd2 48bd 288c f63e
00000100: 6c03 99be 5658 12be bb95 4ebe acb6 16bf
00000110: 3240 2dbf a083 f4be d898 8c3e c6a9 45bb
00000120: 4325 4a3f 59d3 813d 46c8 d2be 3493 8dbe
00000130: 4c19 65be 38ed 80be 3461 f8be 11a9 e6bd
00000140: d162 b0be 338c 453e 6ca8 493f 644c 18bd
00000150: 7abd 37be 49c5 77be a345 acbe b473 f0be
00000160: 155d 64bf 6c87 033e d639 313e 7397 813e
00000170: ab2a 14bf 3713 9d3e c33d 713d b267 80be
00000180: 2bf8 c9bd 9771 f63e fa90 4cbf 4f60 78be
00000190: f1e4 a0be 28c0 f33d 7e25 bc3e 5a50 1d3f
000001a0: a97e d2be 17cf 8f3e ab16 e2bc 84b0 1f3f
000001b0: 5c57 06be 8038 5dbf fbc3 9a3e 978a 953e
000001c0: 8b28 66be 2ab6 8b3c f31d d9be 605e a2be
000001d0: 2a12 9cbe df2f f03e 625d af3e b10f 883e
000001e0: 92d7 603e ab00 1c3e 2f6a 473f a49f 3dbf
000001f0: 3daa 4dbe e40a d83d 0330 423e 3951 40be
00000200: b9dc 623f 97b9 ebbe fc30 e4bd 480d 3c3e
00000210: 534a a7be c70e e63e fd0b fcbe 885d b0be
00000220: 4f4a 9bbe 97fc d1be 1381 5fbf 3454 2dbf
00000230: ef41 073d 579c 55be 6b64 453f 2ec5 543e
00000240: 0e03 b7be 32b9 c8be 8771 b2be 4aee 4abe
00000250: b1eb b03e 9d94 93be 011a 3fbd a958 a33d
00000260: 9b8e 24bf a82c 9dbe fbbb 27be 9f63 2a3e
00000270: 3df3 55be ccc6 313f e740 3cbf 87b1 963d
00000280: 50d2 193d beee 92bb d594 2c3e 2c6e 4cbd
00000290: 6929 e9bd b623 ab3e ce83 923d e409 273f
000002a0: f186 0a3e 9757 5ebd 57cc 96bd 0661 a6bd
000002b0: 730c e43e e062 8abe a3c8 8f3d ccbc f5be
000002c0: 1673 8fbe ed69 48be ba24 8cbe 077a 87be
000002d0: 32ef a0be aab4 8ebe 1a6f 2ebf 9823 fe3e
000002e0: df1b 083e ac7f 6dbe 0cad 4fbe 64e1 143d
000002f0: b1e3 5d3d f3b4 20bf dcdb b63e 53a0 0a3e
00000300: c940 b1be 18cc ef3e 6f5e efbb cd70 1fbe
00000310: 3d65 b13d 95a1 3bbf b9f9 343f 5a29 ebbe
00000320: 92ff 02be 0b85 50be e38b 04bf b100 f5be
00000330: 7dad 53be 2771 b2bd 2dc0 a13e cd68 653f
00000340: 7a10 493f c2ce 1abf d941 04bd a785 bebb
00000350: 7c3d 34be 8a4f 47be 269d 24bf 098c 483e
00000360: 0b34 583e c69b 723f d5e8 463f ee33 57be
00000370: 63c0 493e 3ad4 cc3d 0c9e 023f 6f85 21bf
00000380: 4f85 41bf 111e 113c 782c 5f3d e68c 47be
00000390: d156 313c 1964 28bf 3c64 1a3e 2b5b 373e
000003a0: cf41 6c3f bcce 86be 23e2 61be 33d3 b1bc
000003b0: 27b3 333b 6528 073f a842 273f 760f 1f3c
000003c0: 09cd 78be a4ab 2c3e b0e1 cabe 5006 423f
000003d0: a952 0abe 72eb 243e 5d3d ca3d 2763 db3e
000003e0: cc18 1d3f 9bcd 95be 255a 773e 5ca6 6e3e
000003f0: 18b0 c13e b22d ecbd f639 46bf d1f6 863e

w_h.0.bias f4 [64]
-0.21893086 -0.47791904 -0.31049523 -0.38618013 -0.50492275 -0.3555342 -0.4122667 -0.07392764
-0.20840144 -0.20376918 0.007798969 -0.35440335 -0.6303452 0.14481798 -0.06876878 0.028863363
-0.5570144 -0.48240083 -0.316502 -0.76050156 -0.6738795 -0.42648864 -0.6223721 -0.56444865
-0.46821114 -0.09718075 -0.10674665 -0.5203711 -0.63896877 -0.052201062 0.064556904 -0.081649624
-0.30036187 -0.67589974 -0.2366093 -0.80025613 -0.54031587 -0.51508975 -0.7213381 -0.20554107
-0.52957153 -0.5031653 -0.28118098 0.18148586 -0.3860698 -0.29497838 -0.42976058 -0.09214482
-0.19880752 -0.3783002 -0.5888055 -0.7574744 -0.42787784 -0.69790494 -0.13597812 -0.5121867
-0.30335286 -0.13043249 -0.61070377 0.17682728 -0.4385904 -0.0043847547 -0.5937331 -0.19972622
00000000: 692f 60be ceb1 f4be 3bf9 9ebe 67b9 c5be
00000010: 9e42 01bf 9408 b6be 9f14 d3be 6067 97bd
00000020: 3067 55be dea8 50be 7e8e ff3b 5b74 b5be
00000030: 4e5e 21bf 2a4b 143e a5d6 8cbd dc72 ec3c
00000040: 7f98 0ebf 3efd f6be 8d0c a2be 3bb0 42bf
00000050: 5e83 2cbf b85c dabe c753 1fbf b57f 10bf
00000060: 5fb9 efbe b306 c7bd fd9d dabd 0a37 05bf
00000070: 7593 23bf c8d0 55bd 6936 843d eb37 a7bd
00000080: 08c9 99be c407 2dbf b549 72be 96dd 4cbf
00000090: 2452 0abf ecdc 03bf 9da9 38bf 5c79 52be
000000a0: 0092 07bf 71cf 00bf f4f6 8fbe 6ed7 393e
000000b0: f1aa c5be 6807 97be 9409 dcbe 6cb6 bcbd
000000c0: 3394 4bbe 90b0 c1be f5bb 16bf d8e9 41bf
000000d0: ce12 dbbe e6a9 32bf d93d 0bbe ab1e 03bf
000000e0: 1151 9bbe 1890 05be 1557 1cbf 3612 353e
000000f0: ec8e e0be fdad 8fbb e4fe 17bf 0885 4cbe

w_h.2.weight f4 [32, 64]
-0.37599817 0.49525875 0.034138154 0.085199304 0.7580494 -0.20799723 0.04345817 0.09658745
-0.07162058 -0.12133389 -0.020565731 -0.52052826 -0.3505823 -1.8692392 -0.035359748 -0.8088936
-0.48511595 -1.0828552 0.40931144 0.2590255 -0.39228332 -0.5723522 0.09306943 0.34517086
-0.2848724 0.23021266 0.17134042 0.1841261 -0.13070117 -0.58904594 -0.1348183 -0.76976174
-0.71485543 0.32435843 -0.22164665 -1.7020288 0.16759643 -1.5690278 0.6984286 0.5401787
-0.39960527 -1.0081966 -0.20804924 -0.32504103 -0.6447703 0.23211583 -0.78688806 -0.5854979
0.31849954 0.2546286 0.29176843 0.03196958 -0.37724584 -0.2293149 0.24939589 -0.08498757
-0.098786674 -0.055412274 -0.49618065 -0.96252286 -1.4054921 -1.0267333 0.5486431 0.53939533
-0.6368018 -0.9998172 -0.12190129 0.21709819 -0.3376496 0.0012830349 0.19848476 0.23417524
0.018414838 0.07344503 -0.51518077 0.03772147 0.519444 0.31398243 -0.13970701 0.48474497
-0.0087050395 -0.08057094 0.09089881 0.27256754 -0.03946641 -0.6775308 0.17977677 -0.66938287
0.21156016 0.0011796048 0.06822006 -0.32689217 0.38645825 -0.5653484 0.16416337 0.33460543
0.084939644 -0.5212226 0.2690885 -1.1185421 -0.6377221 -0.88082993 -0.7298589 -1.3518082
-0.13830943 -0.22098342 -0.048723344 -0.44933957 0.060602877 -0.10698826 -0.16111076 -0.3841303
0.15060203 -0.7318974 0.39499837 0.23048696 -0.100051135 -0.36529443 -0.64092034 -0.1897153
0.18772148 0.02956355 -0.859254 0.35198092 -0.4223373 0.30767787 -0.09287281 -0.57007253
0.15168414 0.27810597 0.09284258 0.21263364 -0.2850487 -0.018058257 -0.61070824 -0.4562963
-0.026054753 0.05204962 0.07831235 0.11518257 -0.0876544 -0.16314895 0.075500846 -0.1036305
-0.33137557 -0.56361943 -0.31737393 -0.6043736 0.085113406 -0.342667 -0.14621595 -0.24600366
0.50063545 -0.11794289 -0.030693008 0.4857016 -0.28204143 -0.055555463 0.18742408 -0.013163446
0.057385687 -0.67338896 -0.20634007 -0.075067885 0.23126644 -0.25356063 -0.5168132 -0.29266152
0.08992722 0.29505044 0.1893048 0.24757074 0.37732413 -0.060305238 0.19104512 0.22498041
-0.24989974 0.065630555 -0.041238412 0.12075673 0.021911647 -0.2991467 -0.11175667 0.46482238
-0.06336559 0.23435599 0.19329517 0.32224408 -0.07261852 -0.03397511 0.16020389 -0.020296201
-0.11140918 0.08858896 0.044171635 -0.003769802 0.013900509 -0.027274968 0.08425232 -0.13817717
-0.06810668 0.038964212 -0.12283686 -0.020694155 -0.05642715 -0.008497519 -0.108023636 -0.1663732
0.0067158993 -0.021448806 -0.082539946 -0.07048654 -0.03950366 0.018676275 0.018546956 -0.10700127
-0.03525633 -0.22665662 -0.18461412 -0.127316 0.07381872 -0.16660099 -0.036521558 0.02309966
-0.008087548 0.049783316 -0.12872152 -0.07595994 -0.07381776 -0.10991471 -0.119464554 -0.10258378
-0.12255721 -0.033898 -0.07190844 -0.17898266 -0.083962224 -0.10743587 -0.11414471 -0.13182458
0.0879973 -0.123065844 -0.045453582 0.014929466 0.082854845 0.07719491 0.0028216166 -0.16025282
0.09255335 -0.0489061 -0.042290557 -0.13502505 -0.16240482 -0.2249474 -0.07404844 0.03723112
00000000: d582 c0be 8e92 fd3e 73d4 0b3d f97c ae3d
00000010: 870f 423f 3afd 54be 3201 323d a4cf c53d
00000020: d0ad 92bd e77d f8bd 7779 a8bc 5741 05bf
00000030: 867f b3be 3b43 efbf 62d5 10bd a713 4fbf
00000040: 1e61 f8be 009b 8abf 4591 d13e fe9e 843e
00000050: 5cd9 c8be ac85 12bf 2f9b be3d 3cba b03e
00000060: ccda 91be debc 6b3e dd73 2f3e 8d8b 3c3e
00000070: 87d6 05be b7cb 16bf cf0d 0abe 1b0f 45bf
00000080: c400 37bf 4f12 a63e 57f7 62be 14dc d9bf
00000090: 669e 2b3e e7d5 c8bf 37cc 323f 2749 0a3f
000000a0: 1099 ccbe 960c 81bf dc0a 55be c76b a6be
000000b0: ab0f 25bf c6af 6d3e 7f71 49bf 31e3 15bf
000000c0: 5f12 a33e ae5e 823e ac62 953e 89f2 023d
000000d0: 5e26 c1be 86d1 6abe a361 7f3e f70d aebd
000000e0: ab50 cabd fbf7 62bd 640b febe e667 76bf
000000f0: 2ae7 b3bf ff6b 83bf e073 0c3f d015 0a3f
00000100: 7105 23bf 05f4 7fbf 62a7 f9bd fd4e 5e3e
00000110: 69e0 acbe 822b a83a 973f 4b3e a2cb 6f3e
00000120: b7da 963c 596a 963d e3e2 03bf d481 1a3d
00000130: 48fa 043f 4ec2 a03e 5b0f 0fbe 7e30 f83e
00000140: 959f 0ebc 6102 a5bd 2829 ba3d f98d 8b3e
00000150: 88a7 21bd a972 2dbf 6717 383e ad5c 2bbf
00000160: 3aa3 583e f89c 9a3a f5b6 8b3d 695e a7be
00000170: dbdd c53e acba 10bf 711a 283e 6751 ab3e
00000180: d6f4 ad3d d86e 05bf f8c5 893e 632c 8fbf
00000190: c141 23bf 127e 61bf 08d8 3abf 0d08 adbf
000001a0: fda0 0dbe 7a49 62be 2192 47bd d60f e6be
000001b0: b93a 783d a91c dbbd 38fa 24be baac c4be
000001c0: 6b37 1a3e a15d 3bbf 3a3d ca3e c604 6c3e
000001d0: 9ce7 ccbd df07 bbbe 5b13 24bf ba44 42be
000001e0: 0f3a 403e 422f f23c 12f8 5bbf d836 b43e
000001f0: 983c d8be f487 9d3e 1a34 bebd 46f0 11bf
00000200: 1653 1b3e e863 8e3e 4024 be3d a2bc 593e
00000210: e7f1 91be e9ee 93bc 6057 1cbf ab9f e9be
00000220: c770 d5bc fb31 553d 3a62 a03d d7e4 eb3d
00000230: 2684 b3bd 8510 27be 30a0 9a3d 3a3c d4bd
00000240: 0faa a9be 5d49 10bf d67e a2be 3ab8 1abf
00000250: f04f ae3d 0d72 afbe a2b9 15be 62e8 7bbe
00000260: a529 003f 0b8c f1bd e76f fbbc e1ad f83e
00000270: bc67 90be 208e 63bd 19ec 3f3e 7fab 57bc
00000280: 410d 6b3d 3863 2cbf d04a 53be 31bd 99bd
00000290: 1cd1 6c3e b3d2 81be df4d 04bf bbd7 95be
000002a0: c32b b83d da10 973e 1ed9 413e 2f83 7d3e
000002b0: a130 c13e a002 77bd 55a1 433e 4461 663e
000002c0: b8e5 7fbe 5069 863d 9ce9 28bd 4e4f f73d
000002d0: 0e80 b33c c229 99be aee0 e4bd 33fd ed3e
000002e0: d2c5 81bd 04fb 6f3e 2bef 453e 2dfd a43e
000002f0: 05b9 94bd 7c29 0bbd 7d0c 243e 3844 a6bc
00000300: 7f2a e4bd 216e b53d 51ed 343d c80e 77bb
00000310: f6be 633c c16f dfbc 7b8c ac3d 517e 0dbe
00000320: 847b 8bbd f098 1f3d e491 fbbd ca86 a9bc
00000330: 2820 67bd 2e39 0bbc 7f3b ddbd bc5d 2abe
00000340: 0c11 dc3b 68b5 afbc b40a a9bd 3f5b 90bd
00000350: 97ce 21bd fdfe 983c c9ef 973c 7b23 dbbd
00000360: f168 10bd ac18 68be 7c0b 3dbe 205f 02be
00000370: 452e 973d 7399 2abe a197 15bd 803b bd3c
00000380: a381 04bc 97e9 4b3d 93cf 03be e390 9bbd
00000390: c42d 97bd f71a e1bd d5a9 f4bd 7217 d2bd
000003a0: 46ff fabd a1d8 0abd bb44 93bd 3b47 37be
000003b0: 63f4 abbd 5607 dcbd b4c4 e9bd 06fd 06be
000003c0: ee37 b43d f209 fcbd 892d 3abd b89a 743c
000003d0: cdaf a93d 5d18 9e3d dfea 383b 5119 24be
000003e0: 9c8c bd3d c351 48bd dd38 2dbd 0244 0abe
000003f0: 734d 26be 9c58 66be b5a6 97bd a97f 183d

w_h.2.bias f4 [32]
-0.48366562 0.39477304 0.17402497 -0.09087869 0.2586828 -0.29168913 0.21225171 -0.09505717
0.0869129 -0.18521813 -0.054293483 0.012333878 0.2748455 -0.029648386 0.21667345 -0.2885679
-0.2724748 -0.0061468207 -0.12146991 -0.08615658 -0.06700512 -0.36333445 0.098388374 -0.06386715
0.09156721 0.03095057 0.07769727 -0.41676712 0.057863876 -0.1690669 -0.05530678 -0.15109116
00000000: 05a3 f7be b11f ca3e 9a33 323e 9b1e babd
00000010: 1272 843e 4758 95be 8358 593e 55ad c2bd
00000020: 64ff b13d d2a9 3dbe d862 5ebd 0914 4a3c
00000030: 8db8 8c3e 2ce1 f2bc a5df 5d3e 2cbf 93be
00000040: d181 8bbe 456b c9bb 37c5 f8bd dc72 b0bd
00000050: fb39 89bd f906 babe d87f c93d c8cc 82bd
00000060: 9787 bb3d 0d8c fd3c bf1f 9f3d 8062 d5be
00000070: ac02 6d3d e01f 2dbe 5d89 62bd a4b7 1abe

Ws.0 f4 [32, 32]
-1.0399343 0.533967 0.01654136 0.5345285 2.707633 -0.61370647 -0.78810084 3.4281073
0.15176645 0.4420222 -1.8766879 -1.0378226 1.5559335 0.117991276 0.32596192 0.58830094
0.0035764026 0.79544085 1.0222762 2.5468886 -0.39133483 -0.5759041 -0.098434374 0.47293422
-0.030891277 -0.18838736 0.93864 1.7039865 0.42876092 0.25833434 -0.06414228 1.3833497
-1.532947 -0.8358637 0.27763832 1.3566655 -2.6770072 0.5773982 0.41073242 -0.15406463
0.013211938 -1.2717466 0.14932889 0.9523673 -0.7383329 -0.32470474 0.28529274 -1.2905833
-0.9127074 1.0679324 -0.33781308 1.3625536 -2.5668857 -1.3175869 1.7912264 -0.2342568
0.4027443 1.1771016 1.5475588 0.32337445 -0.37562966 -2.6325262 0.8224379 0.3107423
-0.64053017 -2.551842 -1.1488882 -0.22163476 0.17716065 1.6789571 -0.91322714 -0.58078605
-2.4703338 0.8398598 1.6279427 0.8302456 -1.4895668 0.26844975 0.076100655 -0.08537293
1.8799261 0.44604734 -0.6957199 1.51168 0.21681954 -0.21845737 -1.7077302 -0.6665465
2.0436022 -0.61007184 -0.8200339 -0.6020511 0.15049677 1.6045632 0.12510575 0.37234935
-3.003371 -1.8255422 0.08526977 -2.9894624 -0.1666599 1.2691725 0.05363284 0.42152253
0.84009176 1.6780916 0.7995451 -0.7467976 -0.54080695 -0.6646972 0.1665962 -0.20746638
-0.5066501 -0.16732572 1.1995194 1.583161 0.11273866 1.0909019 -0.32156873 -1.7990379
0.9105878 -0.5209166 1.3247393 -1.0096416 -0.2491858 -1.5869739 0.58217305 -0.22963229
-0.20354334 0.55520093 -0.6211071 -3.8504426 -0.4964306 0.2477418 -2.5981328 -1.7950171
-0.4501401 0.6629576 1.7449642 0.27931866 0.47337562 -0.20192946 1.0399435 0.85097355
1.6892118 -0.90955395 -1.3871324 -3.0360305 0.48581773 0.6201389 0.7942235 0.08897796
0.27926767 -2.2603555 -0.861564 -2.9614532 0.17736425 0.98205507 1.001228 -0.6323106
-1.5230772 -1.2659043 -1.2589092 0.80011314 -0.43133044 -0.6804613 1.4149498 0.75165343
1.5846045 0.5591984 -0.022877377 0.92421377 -1.0326266 1.1279695 0.98206013 0.8736163
-0.022327865 -0.02210162 0.43505776 -0.14860319 0.9675191 0.256815 0.11951756 -1.9055469
-1.1166587 0.65028024 0.91534144 -3.5865798 0.52302754 0.25428826 1.2714046 -1.8981546
-1.3368624 -1.6080174 0.6044025 2.3935153 -0.64849836 0.9593529 0.8458025 1.3109227
1.9331808 0.025709555 -0.024752159 -2.9084725 -0.5914764 0.05817601 0.56295085 0.2576132
-1.1646342 0.31909215 -0.24535704 1.5505538 0.78895164 -0.55344564 -1.9359063 -0.5240267
-0.18127501 -0.37559614 -0.7823784 0.799206 2.2252016 2.5742133 0.2716231 0.5226305
1.6963136 0.5333939 -0.78394943 -0.025987312 -0.46712035 1.929672 -1.9312695 0.47158042
0.044184644 -0.85545033 -2.1975598 -2.2203546 -1.5581367 -2.4989152 1.8568728 -1.0245196
0.3420115 0.8417591 0.62450045 -0.74980295 -0.09696855 -0.06575921 -1.3575832 0.92027146
-0.5132808 0.78027505 1.4177824 -2.3435795 -0.63724935 0.92257667 -0.47769502 1.9486248
00000000: 911c 85bf 10b2 083f bf81 873c dcd6 083f
00000010: dc49 2d40 de1b 1dbf fac0 49bf 1c66 5b40
00000020: aa68 1b3e bc50 e23e 4f37 f0bf 5fd7 84bf
00000030: d428 c73f 69a5 f13d 7be4 a63e e49a 163f
00000040: 1462 6a3b 03a2 4b3f f2d9 823f 3900 2340
00000050: 0a5d c8be 736e 13bf f697 c9bd 6f24 f23e
00000060: b40f fdbc 9ee8 40be b64a 703f 3b1c da3f
00000070: 8d86 db3e 6644 843e 075d 83bd 9a11 b13f
00000080: 9b37 c4bf 2afb 55bf 9c26 8e3e 37a7 ad3f
00000090: 1654 2bc0 5ed0 133f 854b d23e 1ec3 1dbe
000000a0: e276 583c 98c8 a2bf ace9 183e 58ce 733f
000000b0: 6303 3dbf b33f a6be e411 923e d531 a5bf
000000c0: 31a7 69bf 02b2 883f d6f5 acbe 2868 ae3f
000000d0: db47 24c0 b0a6 a8bf e846 e53f 04e1 6fbe
000000e0: 8034 ce3e 44ab 963f 6816 c63f 5691 a53e
000000f0: 8852 c0be 4f7b 28c0 4a8b 523f 9d19 9f3e
00000100: c9f9 23bf 6151 23c0 c50e 93bf 39f4 62be
00000110: 9a69 353e 11e8 d63f 41c9 69bf 65ae 14bf
00000120: f319 1ec0 0d01 573f 6d60 d03f fa8a 543f
00000130: 20aa bebf 3f72 893e a9da 9b3d 01d8 aebd
00000140: 6ba1 f03f 5160 e43e b31a 32bf bb7e c13f
00000150: f105 5e3e 4ab3 5fbe e796 dabf cba2 2abf
00000160: 61ca 0240 ab2d 1cbf beed 51bf 0520 1abf
00000170: d31b 1a3e 5462 cd3f b91b 003e 93a4 be3e
00000180: 3b37 40c0 5eab e9bf eba1 ae3d 5a53 3fc0
00000190: e5a8 2abe 3f74 a23f 1cae 5b3d cdd1 d73e
000001a0: 4110 573f b5cb d63f fdae 4c3f 212e 3fbf
000001b0: 5372 0abf 9829 2abf 3298 2a3e 1172 54be
000001c0: d2b3 01bf 6f57 2bbe da89 993f 05a5 ca3f
000001d0: 87e3 e63d aca2 8b3f a8a4 a4be e046 e6bf
000001e0: 481c 693f ca5a 05bf 0f91 a93f f03b 81bf
000001f0: 902a 7fbe f621 cbbf 4b09 153f ba24 6bbe
00000200: aa6d 50be a621 0e3f e000 1fbf a76d 76c0
00000210: 272c febe 07b0 7d3e cf47 26c0 1fc3 e5bf
00000220: c378 e6be 97b7 293f fd5a df3f db02 8f3e
00000230: 4a5e f23e 99c6 4ebe de1c 853f 67d9 593f
00000240: 1838 d83f 87d8 68bf 8e8d b1bf 534e 42c0
00000250: 1abd f83e 6cc1 1e3f 3b52 4b3f 143a b63d
00000260: 2cfc 8e3e aaa9 10c0 758f 5cbf 7388 3dc0
00000270: f99e 353e f667 7b3f 3d28 803f 1cdf 21bf
00000280: 32f4 c2bf 2709 a2bf f023 a1bf 37d4 4c3f
00000290: 58d7 dcbe b632 2ebf 131d b53f 5c6c 403f
000002a0: 52d4 ca3f a027 0f3f 5669 bbbc 4699 6c3f
000002b0: 1c2d 84bf 4e61 903f 4b68 7b3f 51a5 5f3f
000002c0: ede8 b6bc 750e b5bc e4bf de3e 6f2b 18be
000002d0: 55af 773f 417d 833e 9fc5 f43d f6e8 f3bf
000002e0: acee 8ebf c478 263f d153 6a3f 868a 65c0
000002f0: 22e5 053f 1232 823e 63bd a23f bbf6 f2bf
00000300: 4f1e abbf 84d3 cdbf 1fba 1a3f 5b2f 1940
00000310: fd03 26bf 2798 753f 8386 583f 51cc a73f
00000320: 7872 f73f d89c d23c 0ac5 cabc 6a24 3ac0
00000330: ff6a 17bf f849 6e3d 8c1d 103f e1e5 833e
00000340: bc12 95bf 0c60 a33e e03e 7bbe 8c78 c63f
00000350: bcf8 493f 9dae 0dbf c7cb f7bf 9d26 06bf
00000360: 28a0 39be 234e c0be f349 48bf c498 4c3f
00000370: b469 0e40 e9bf 2440 2f12 8b3e 1dcb 053f
00000380: ce20 d93f 818c 083f e9b0 48bf 58e3 d4bc
00000390: 662a efbe 7eff f63f d733 f7bf fd72 f13e
000003a0: f5fa 343d cbfe 5abf d2a4 0cc0 4a1a 0ec0
000003b0: 0671 c7bf 3aee 1fc0 02ae ed3f 7523 83bf
000003c0: 221c af3e 867d 573f 43df 1f3f 16f3 3fbf
000003d0: 7297 c6bd c4ac 86bd 49c5 adbf e996 6b3f
000003e0: 5f66 03bf 1bc0 473f e579 b53f 35fd 15c0
000003f0: c622 23bf fc2d 6c3f 7194 f4be 8a6c f93f

Ws.1 f4 [32, 32]
0.27609107 -1.2664531 -1.085885 -0.29288688 -0.990179 0.044213336 0.52595776 0.46871352
-0.51055384 -2.253872 -0.6775422 -2.111827 0.05961824 0.12105153 0.22818366 -0.1570801
2.1852963 -1.8839337 -5.051039 -2.0855892 -1.961937 0.3908603 -1.8037037 -0.64813155
-1.6240443 2.9824777 -2.6639926 -1.1085019 0.7651125 0.0012639358 0.24253458 -1.4466777
1.1027073 -0.48331907 -1.2943615 0.63303196 0.93098634 -0.8224604 0.8642059 0.9173763
-0.24301587 1.1827319 1.2233677 -0.118050925 0.47561795 0.28359276 0.45464945 -0.110078126
-0.4851805 0.21727486 0.6047065 -2.1470213 -0.7976476 -0.30519256 0.6556253 -2.5467958
-0.09176376 -0.7314336 0.04756979 0.8125527 0.037838604 0.5014269 1.0837723 -0.8091159
1.6181724 -0.70634365 -0.5567122 -0.010955349 -1.2474126 1.1371636 -1.54274 -2.2888048
0.461519 -0.035309438 1.0024177 -0.80314904 1.0539105 -0.24109623 2.0660849 -0.47518143
0.29754665 -0.5607789 -0.5057848 0.5587336 -0.8662063 -1.4277465 -0.25691804 -3.3012085
0.9987535 -2.2505105 -0.030911054 0.2850694 1.2244564 -1.2109692 -1.6431885 -0.064402245
-0.51667315 1.0877917 -0.082545206 -1.4732221 -0.88599837 -1.9206046 0.10876531 -0.6522055
-0.019842668 0.88576925 -2.2408652 -1.508466 0.95063275 1.2396035 -0.06343765 -0.608826
-1.1408798 -0.8504578 -0.6451186 -2.2365694 0.91456836 -0.78649443 0.3927955 -0.5108508
0.41505992 -0.1489275 0.9490682 -1.4836935 0.73733723 -1.0269558 -0.7129549 -0.8908609
1.1811212 -0.5562214 -1.0546451 -0.89072603 -0.6748892 -0.35686317 -0.21428896 -0.22660895
-0.64475006 0.38326773 -0.051945545 1.8344023 -0.002396672 0.43081686 -0.7677327 0.08906385
-0.11937059 2.0831885 -0.85404927 0.30501217 0.2306689 -0.8035841 0.81419116 0.25761694
0.98298067 -0.95037043 -1.4037721 0.021360375 1.6933894 0.61766034 -1.0246948 -0.5866231
-1.68622 -0.6296102 1.2617173 1.3195226 0.6766368 -0.4298516 2.28793 -1.133559
0.040568557 -0.3696454 0.19896334 0.5477099 -0.5986594 0.43290833 0.23539272 0.22565086
-0.35258985 0.6327747 1.861296 -0.8025669 1.1764839 -1.5400839 1.1017523 -0.32811174
-0.8187203 -0.44208503 -0.48806578 -1.8802712 2.026883 -1.5909239 0.24535552 -0.42131355
-0.41052175 1.15248 -0.4514085 -0.29085532 -0.018921165 -0.20202094 0.44051626 0.23686375
-1.4945573 0.8736422 -0.09808313 0.5112349 0.4493138 0.44982827 0.73834306 0.41582623
-0.5794152 0.26018396 -0.4222767 0.3549741 -0.16309299 -0.92369485 -0.108137004 -1.4071885
0.43372667 -1.0560346 -0.77538997 -2.2416673 0.42778948 1.0973903 -0.68829817 -0.40715584
-0.52791923 -1.6909276 1.0174575 -1.7238909 0.96336156 -1.0349107 -1.2675918 -1.9608431
0.5104874 -1.9373064 -0.6527926 -1.2244453 -1.1682103 0.33187148 0.3921232 -1.1789027
0.018006785 -1.6086365 -0.22365667 -0.061317384 0.36669156 0.73485076 -1.3018055 0.87311584
0.9979628 1.157587 0.29880226 -0.7315882 0.034135524 -0.83527917 -0.10694354 1.0376542
00000000: cf5b 8d3e 231b a2bf 48fe 8abf 45f5 95be
00000010: 5f7c 7dbf 0b19 353d 2ba5 063f 38fb ef3e
00000020: a8b3 02bf 703f 10c0 6873 2dbf 2c28 07c0
00000030: 4132 743d dde9 f73d faa8 693e 9bd9 20be
00000040: e5db 0b40 bd24 f1bf 1da2 a1c0 4b7a 05c0
00000050: c020 fbbf d71e c83e c3df e6bf f3eb 25bf
00000060: afe0 cfbf eae0 3e40 db7e 2ac0 64e3 8dbf
00000070: 6ade 433f a6aa a53a fc5a 783e bc2c b9bf
00000080: 8325 8d3f 9975 f7be a3ad a5bf 620e 223f
00000090: 1f55 6e3f c48c 52bf 993c 5d3f 2cd9 6a3f
000000a0: 27d9 78be c263 973f 5097 9c3f afc4 f1bd
000000b0: 3284 f33e 1233 913e d0c7 e83e a470 e1bd
000000c0: 9469 f8be 4d7d 5e3e 0cce 1a3f cc68 09c0
000000d0: a232 4cbf 3342 9cbe 0fd7 273f b4fe 22c0
000000e0: a3ee bbbd 3b3f 3bbf 8ad8 423d 7403 503f
000000f0: a7fc 1a3d 835d 003f 0db9 8a3f 3822 4fbf
00000100: 4620 cf3f f0d2 34bf b184 0ebf 107e 33bc
00000110: 37ab 9fbf 948e 913f 8178 c5bf c77b 12c0
00000120: 384c ec3e a1a0 10bd 394f 803f 2d9b 4dbf
00000130: 8ae6 863f eee1 76be bc3a 0440 fb4a f3be
00000140: 0958 983e 358f 0fbf 1d7b 01bf 2a09 0f3f
00000150: b2bf 5dbf 66c0 b6bf c38a 83be 0047 53c0
00000160: 4fae 7f3f 5d08 10c0 2e39 fdbc 9ef4 913e
00000170: fdba 9c3f 0a01 9bbf 0054 d2bf 53e5 83bd
00000180: b144 04bf c23c 8b3f 760d a9bd 8b92 bcbf
00000190: cad0 62bf 5fd6 f5bf 59c0 de3d f1f6 26bf
000001a0: 178d a2bc c6c1 623f 566a 0fc0 6a15 c1bf
000001b0: ab5c 733f 54ab 9e3f 99eb 81bd 05dc 1bbf
000001c0: 5908 92bf 9ab7 59bf 7e26 25bf f423 0fc0
000001d0: 2721 6a3f b357 49bf 7e1c c93e 1ec7 02bf
000001e0: bc82 d43e 7380 18be 22f6 723f abe9 bdbf
000001f0: 22c2 3c3f 4a73 83bf 3684 36bf 760f 64bf
00000200: fb2e 973f 8764 0ebf 9cfe 86bf 9f06 64bf
00000210: 8ac5 2cbf c5b6 b6be 916e 5bbe 2d0c 68be
00000220: 570e 25bf ab3b c43e dac4 54bd b2cd ea3f
00000230: 7c11 1dbb 0794 dc3e 218a 44bf 1c67 b63d
00000240: 9178 f4bd f652 0540 f9a2 5abf 8e2a 9c3e
00000250: 7834 6c3e b0b7 4dbf d56e 503f 5ee6 833e
00000260: 9fa4 7b3f 7a4b 73bf ceae b3bf f4fb ae3c
00000270: fcc0 d83f fd1e 1e3f 3329 83bf ee2c 16bf
00000280: 0fd6 d7bf 222e 21bf f47f a13f 1ee6 a83f
00000290: 1238 2d3f 8215 dcbe 726d 1240 7618 91bf
000002a0: 372b 263d 2942 bdbe 0cbd 4b3e b736 0c3f
000002b0: be41 19bf 29a6 dd3e ca0a 713e 0511 673e
000002c0: a886 b4be 86fd 213f f33e ee3f 0675 4dbf
000002d0: 0697 963f 7821 c5bf 3806 8d3f 43fe a7be
000002e0: a797 51bf f858 e2be c2e3 f9be baac f0bf
000002f0: 73b8 0140 65a3 cbbf 7a3e 7b3e 69b6 d7be
00000300: e82f d2be 7784 933f 041f e7be fdea 94be
00000310: 8f00 9bbc 94de 4ebe 598b e13e 698c 723e
00000320: a74d bfbf 04a7 5f3f cfdf c8bd 4ae0 023f
00000330: 750c e63e e44f e63e 0d04 3d3f 2de7 d43e
00000340: 8e54 14bf d536 853e a734 d8be 2abf b53e
00000350: d901 27be 4477 6cbf ef76 ddbd c11e b4bf
00000360: 6c11 de3e 242c 87bf f57f 46bf 7a77 0fc0
00000370: 3907 db3e 4977 8c3f 4f34 30bf bb76 d0be
00000380: b725 07bf 5170 d8bf 0c3c 823f 75a8 dcbf
00000390: dd9e 763f f477 84bf 7340 a2bf e8fc fabf
000003a0: 4daf 023f a8f9 f7bf 6a1d 27bf a0ba 9cbf
000003b0: ea87 95bf 0feb a93e 5fc4 c83e 49e6 96bf
000003c0: f782 933c cde7 cdbf 4106 65be f027 7bbd
000003d0: ffbe bb3e 2e1f 3c3f 90a1 a6bf 8584 5f3f
000003e0: 7d7a 7f3f d02b 943f 9cfc 983e 5d49 3bbf
000003f0: b1d1 0b3d dbd4 55bf 3705 dbbd dad1 843f
