crowd_nav/GRL_output/rl_model_1.pth (torch, 143871 bytes, 33 tensors)

w_a f4 [32, 32]
0	0x3eb874d6	0.3602664
1	0x3f0e0107	0.5547032
2	0x3f022768	0.5084138
3	0xbfaa3721	-1.3298074
4	0xbe6f1bb8	-0.23350418
5	0xbfc061b7	-1.502982
6	0x3f964249	1.1738979
7	0x3f0dee4b	0.5544173
8	0x3fd83a66	1.6892822
9	0xbe98c881	-0.29840472
10	0xbf64ce32	-0.8937713
11	0xbf3bfeea	-0.73435843
12	0xc005b211	-2.0889933
13	0xbfad5b8b	-1.3543562
14	0x3d9d2cd7	0.07674568
15	0xbdff0454	-0.124519974
16	0x3f542533	0.8286926
17	0xbfeeab0a	-1.8645947
18	0x3df49245	0.11941961
19	0xbe2e5f2f	-0.17028497
20	0x3f1c4dc6	0.6105617
21	0xbfc1da29	-1.5144702
22	0x3f99b84f	1.2009372
23	0xbf4b174c	-0.79332423
24	0xbefe1daa	-0.49632007
25	0x3f681d72	0.9066993
26	0x3d631eff	0.055449482
27	0xbf90faf1	-1.1326581
28	0xbf47acd5	-0.77998096
29	0xbeb529bc	-0.35383403
30	0x3e9da81b	0.30792317
31	0x3fd87360	1.691021
32	0xbef3bf43	-0.4760686
33	0x3f13c6d1	0.57725245
34	0xbf519edd	-0.8188303
35	0xbfa0ece8	-1.2572298
36	0x3f41ccb7	0.75702995
37	0x3f5ce229	0.86282593
38	0x3e622b1b	0.22086756
39	0x3f3940bd	0.7236441
40	0xbe607edb	-0.21923392
41	0x3d72e5a1	0.059301022
42	0xbe09abf7	-0.13444506
43	0xbeb7bbf2	-0.35885578
44	0x3e0c01c1	0.13672544
45	0xbfd30af3	-1.6487716
46	0xbd731424	-0.05934538
47	0xbf36f94a	-0.71474135
48	0xbd4ff46d	-0.050770212
49	0x3e9d170f	0.30681655
50	0xbf9db9b5	-1.2322298
51	0xbe0e4a42	-0.13895515
52	0x3f989753	1.192118
53	0xbfd84815	-1.6896998
54	0xbfd2e1cd	-1.6475159
55	0xbff6813a	-1.9258187
56	0x3eba9d0a	0.36447936
57	0x3f7c3539	0.9851871
58	0xbf791405	-0.9729617
59	0xbf108a29	-0.56460816
60	0x3d283f39	0.04107592
61	0x3fab86fa	1.3400567
62	0x3f8a8b43	1.0823749
63	0xbe8e8097	-0.2783248
64	0xbf25c5eb	-0.64755124
65	0xbf2fe83c	-0.68713737
66	0xbf89b706	-1.0758979
67	0x3f2f798e	0.6854485
68	0xbf8f1738	-1.1178961
69	0x3f37efde	0.71850383
70	0xbf3483c6	-0.7051357
71	0xbfabd01a	-1.3422883
72	0xbffe3209	-1.985902
73	0xbd090120	-0.03344834
74	0x3f4e9d51	0.80708796
75	0xbf7d28b4	-0.98890233
76	0xbf9aa8cf	-1.2082766
77	0x3e88f52d	0.26749554
78	0xbf93b993	-1.1541008
79	0xbeccce87	-0.40001318
80	0xbea124b7	-0.31473324
81	0x3e3805d5	0.17970975
82	0xbfa2aa89	-1.2708293
83	0x3f43d72f	0.7650022
84	0xbdc810fc	-0.097688645
85	0x3f191f73	0.5981361
86	0x3f315844	0.6927531
87	0xbfd063b6	-1.6280429
88	0xc0008601	-2.008179
89	0x3fb4a0c3	1.411156
90	0xbf92e6cb	-1.1476682
91	0x3f62ccea	0.88593924
92	0xbf12bdb2	-0.573207
93	0xbdeb950b	-0.11503037
94	0x40006a5d	2.006492
95	0xbf4ee540	-0.8081856
96	0x3e6ff22a	0.23432222
97	0x3fd4c0ac	1.6621299
98	0x3ec13d26	0.37741965
99	0x3e881c44	0.26584065
100	0xbf85e586	-1.046067
101	0x3ef467e6	0.47735518
102	0x3f931287	1.1490029
103	0xbf3d03f7	-0.73834175
104	0xbd3cc164	-0.04608287
105	0xbf83e08d	-1.0302902
106	0x3f0262a4	0.50931764
107	0xbf93d609	-1.1549693
108	0xbedf4263	-0.43605337
109	0xbf2e78b3	-0.6815292
110	0x3f502943	0.8131296
111	0xbf4b8765	-0.7950347
112	0xbe34f4c8	-0.17671502
113	0x3f0b580b	0.5443122
114	0xbef24ba4	-0.47323334
115	0x3f66b161	0.9011441
116	0xbf354c36	-0.70819414
117	0xbea3e8ed	-0.32013646
118	0xbf6d9df9	-0.9281917
119	0x3f42ed91	0.7614375
120	0x3ef931ac	0.4867071
121	0x3e9759b3	0.29560623
122	0xbfc1a9e5	-1.5129973
123	0x3ebd95aa	0.37028247
124	0xbf607621	-0.8768025
125	0x3f0cb8ba	0.5496937
126	0xbef5676e	-0.47930473
127	0x3e81284f	0.25226066
128	0x3f4d6e94	0.80246854
129	0x3e3f0e40	0.1865778
130	0xbf406c77	-0.75165504
131	0xbd6cc7f6	-0.057807885
132	0xbf336daf	-0.7008924
133	0xbede94e0	-0.43472958
134	0x3f802702	1.0011904
135	0xbf8ba159	-1.0908614
136	0xc000130d	-2.0011628
137	0x3f3faa23	0.74868983
138	0x3f485dbf	0.78268045
139	0xbd8b4f79	-0.068022676
140	0xbfdfd3ed	-1.748655
141	0x400ded08	2.2175922
142	0x3f393920	0.7235279
143	0x3f904b32	1.1272948
144	0x3e679837	0.22616659
145	0xbe9f6883	-0.31134424
146	0xbf953f4d	-1.1659943
147	0x3dc99097	0.098420314
148	0x3e183b2b	0.14866321
149	0x3e251793	0.16122274
150	0xbd19eea3	-0.037581097
151	0x3f247532	0.64241326
152	0xbfdaf408	-1.7105722
153	0x3fd25fe9	1.643552
154	0xbed58a52	-0.41707093
155	0xbe817446	-0.25284022
156	0x3e2324bd	0.15931983
157	0xbea72b8a	-0.32650405
158	0xbf42b41f	-0.7605609
159	0xbe4a0576	-0.19728646
160	0xbfd48fc8	-1.6606379
161	0x3fee7ce5	1.8631865
162	0xbfced9de	-1.6160238
163	0xbf136f3f	-0.57591623
164	0x3f7810d3	0.9690067
165	0xbf47ea6c	-0.78092074
166	0xbee9c68b	-0.4565929
167	0x3f9018b4	1.1257539
168	0xbf6cbcd4	-0.9247563
169	0x3f90c614	1.1310449
170	0x3fd244bb	1.6427225
171	0x3f9e19b3	1.2351593
172	0xbfcbaf92	-1.5912955
173	0x3ec66ac3	0.38753328
174	0xbe8a4452	-0.2700525
175	0xbeed62c3	-0.46364412
176	0x40062d2e	2.0965075
177	0x3fa85a81	1.315262
178	0xbee27499	-0.44229582
179	0x3f4aaea2	0.7917272
180	0xbf31dab0	-0.69474316
181	0xbf462578	-0.7740092
182	0x3fcf9630	1.6217709
183	0x3f8eff24	1.1171613
184	0xbeaba53f	-0.3352451
185	0x3f7bff96	0.9843687
186	0x3f06f1d1	0.5271273
187	0x3e1eedee	0.1552045
188	0x3f9ad73e	1.2096937
189	0x3f7802a5	0.96879035
190	0x4019290d	2.3931305
191	0xbefbffe0	-0.49218655
192	0xbf920010	-1.1406269
193	0xbe93850f	-0.28812453
194	0x3e7c0eee	0.2461507
195	0xbe253b35	-0.16135867
196	0xbcc648f3	-0.024204707
197	0x3e90caf7	0.2827985
198	0xbeec8ad7	-0.46199676
199	0x3f05206c	0.52002597
200	0xbeb7687d	-0.35821906
201	0xbf1abfb7	-0.60448784
202	0x3f91ce38	1.1391058
203	0xbf47a4d8	-0.77985907
204	0xbefcb014	-0.49353087
205	0xbf44d4b9	-0.7688709
206	0xbc2d3dd6	-0.010573825
207	0xbf0f4d6b	-0.55977505
208	0xbf18a8f5	-0.5963281
209	0xbf147b63	-0.58000773
210	0xbf8bdf1a	-1.092746
211	0xbe885dc1	-0.2663403
212	0xc026ac4f	-2.604267
213	0x3e89dd10	0.2692647
214	0x3e5a8097	0.21338116
215	0xbd20b15f	-0.039231654
216	0x3f13e18a	0.5776602
217	0xc0184459	-2.3791716
218	0xbfbb5eab	-1.4638265
219	0x3e7f5f2f	0.24938653
220	0xbf00a53e	-0.5025214
221	0xbc6a2104	-0.014290098
222	0xbf1857b8	-0.5950885
223	0xbfef6784	-1.8703465
224	0x3f81b77f	1.0134124
225	0x3eae33ac	0.34023798
226	0xbf100392	-0.5625545
227	0xbe683649	-0.22676958
228	0x3e494626	0.19655666
229	0xbee62167	-0.4494736
230	0xbf028d4b	-0.50996846
231	0x3f862e9d	1.0482975
232	0xbe6cb5f5	-0.23116286
233	0x3f3c3630	0.73520184
234	0xbfa2f2be	-1.2730329
235	0x3ec06e87	0.37584326
236	0xbf3b1df8	-0.73092604
237	0x3f471f53	0.7778217
238	0x3e030dd9	0.12798251
239	0xbed37a48	-0.4130423
240	0xbdaf1137	-0.08548205
241	0xbf336ba7	-0.7008614
242	0xbd15626b	-0.03647081
243	0xbf624984	-0.88393426
244	0xbeaaf60c	-0.33390844
245	0x3f5c2ed6	0.86008966
246	0x3f1bef27	0.6091179
247	0xbfec608f	-1.8466967
248	0xbfc58c06	-1.5433357
249	0xbf82352f	-1.017248
250	0xbfd4b361	-1.6617242
251	0x3fecc20c	1.8496718
252	0xbfa1c080	-1.2636871
253	0xbf2d9403	-0.6780397
254	0x3f28ca94	0.6593411
255	0x3fa5aab2	1.2942717

w_r.0.weight f4 [64, 9]
0	0x3ecf7edc	0.40526474
1	0xbe1d859d	-0.15383
2	0x3f42509d	0.75904256
3	0xbf17a2d3	-0.59232825
4	0xbebad6c5	-0.3649198
5	0x3d06e260	0.03293073
6	0xbe0487ae	-0.12942383
7	0xbca5f531	-0.020258518
8	0xbd93f204	-0.07223895
9	0xbf0a7eb1	-0.54099566
10	0xbeaff509	-0.34366634
11	0xbf7f0596	-0.996179
12	0xbf551633	-0.83237
13	0xbdcd36bb	-0.10020205
14	0xbdc6dfdb	-0.09710666
15	0xbda9d637	-0.08292811
16	0xbe69ad42	-0.22819999
17	0xbe09c35c	-0.1345343
18	0x3d863772	0.06553544
19	0x3d120583	0.035649788
20	0xbe86e706	-0.26348132
21	0xbe8028bb	-0.25031075
22	0xbdc0ed01	-0.09420205
23	0xbea18102	-0.31543738
24	0xbe591048	-0.21197617
25	0x3e394cbb	0.18095677
26	0x3d491061	0.049087886
27	0xbf1df510	-0.6170206
28	0xbda5e979	-0.08101172
29	0x3fb64229	1.423894
30	0xbf324551	-0.6963702
31	0x3e11fa83	0.14255719
32	0xbe2bcadb	-0.16776602
33	0xbda1f83e	-0.079086766
34	0x3e78d8f1	0.24301507
35	0x3d92b7cc	0.07163963
36	0x3ddb61da	0.10712023
37	0xbc9131c1	-0.01772392
38	0xbe9f9164	-0.31165612
39	0xbd265bf8	-0.040615052
40	0xbeb30180	-0.34962082
41	0xbe1a7550	-0.15083814
42	0x3af62c0b	0.0018781436
43	0xbe91d212	-0.28480583
44	0xbe726a5d	-0.23673387
45	0x3ea0c55c	0.31400573
46	0x3dc41658	0.09574574
47	0xbf88d6e3	-1.0690578
48	0xbd9f2c52	-0.07772125
49	0xbe23950d	-0.15974827
50	0x3e67b330	0.22626948
51	0x3dd01ff5	0.10162345
52	0xbdfcc14b	-0.12341555
53	0xbeb95b44	-0.36202443
54	0xbe9ede09	-0.31028774
55	0x3e852fee	0.2601313
56	0x3ddfb3d6	0.10922973
57	0xbf01a545	-0.50642806
58	0x3dfaa455	0.12238375
59	0xbe54eb18	-0.20792806
60	0x3e216fce	0.15765306
61	0xbe9a2472	-0.3010593
62	0x3df51d37	0.11968463
63	0xbf968e1b	-1.1762117
64	0xbe85fffa	-0.26171857
65	0xbfb9f5f9	-1.452819
66	0xbecb3276	-0.39686936
67	0xbe511222	-0.20417073
68	0x3c567700	0.013089895
69	0xbe68e183	-0.22742276
70	0x3dd9f3d6	0.10642211
71	0x3d8d59b0	0.06901872
72	0xbf59dbab	-0.8510081
73	0xbeebec03	-0.460785
74	0xbc9773dd	-0.018487865
75	0xbd22dbac	-0.039760277
76	0x3e36cfa1	0.17852642
77	0x3deea7c6	0.11653094
78	0xbe5319be	-0.20615289
79	0xbed37dd1	-0.41306928
80	0xbeb7476f	-0.35796687
81	0x3f43360f	0.7625436
82	0xbe483638	-0.19551933
83	0x3f4fde1d	0.8119829
84	0xbe83b38d	-0.25722924
85	0xbf1b475d	-0.60655767
86	0x3e2f28de	0.17105433
87	0xbea0b85c	-0.31390655
88	0xbf5a4ef5	-0.8527673
89	0xbeb0f39e	-0.34560865
90	0xbdf7cfc4	-0.12100175
91	0xbc357541	-0.011075319
92	0x3cd2339b	0.025659373
93	0xbebd3c6f	-0.3696017
94	0xbebe594c	-0.37177503
95	0xbd3b772b	-0.045767944
96	0x3d1db65a	0.038503982
97	0xbedf0d53	-0.43564853
98	0xbe5bc2b3	-0.2146099
99	0x3cea1812	0.02857593
100	0xba8b23ec	-0.0010615564
101	0x3df2a9e0	0.11848807
102	0xbed8a891	-0.42316106
103	0xbf1c3929	-0.6102472
104	0x3e94c6ea	0.2905801
105	0xbdb84a0d	-0.08998499
106	0xb9df3f3b	-0.00042580985
107	0xbdd71676	-0.10502331
108	0xbe146d5e	-0.14494845
109	0xbcedf6d6	-0.029048365
110	0xbe5d9753	-0.21639757
111	0xbe92f86e	-0.28705162
112	0xbd965470	-0.07340324
113	0xbe431cf8	-0.1905402
114	0xbea9ebae	-0.33187622
115	0x3e228826	0.15872249
116	0x3e5a5040	0.21319675
117	0xbe80c434	-0.2514969
118	0xbe88a0c2	-0.26685148
119	0xbfc2b2bb	-1.5210794
120	0x3ed5c35f	0.4175062
121	0xbc1e709c	-0.009670403
122	0xbe015ea8	-0.12633765
123	0xbeabd778	-0.33562827
124	0xbde75ac1	-0.11296607
125	0x3cf2f747	0.029658927
126	0xbdce208a	-0.100648
127	0xbef2831d	-0.47365656
128	0xbf7a15c3	-0.97689456
129	0xbf7c831a	-0.98637545
130	0xbef04cdf	-0.46933648
131	0xbe62984b	-0.22128408
132	0xbd087609	-0.033315692
133	0xbee60458	-0.4492519
134	0xbd32bacc	-0.043635175
135	0xbed01c34	-0.40646517
136	0xbeba6b1f	-0.36409852
137	0x3e341fe3	0.17590289
138	0x3ef2f150	0.47449732
139	0xbe77227d	-0.2413425
140	0xbe89d68f	-0.26921508
141	0xbed71302	-0.4200669
142	0xbea35ae3	-0.3190528
143	0xbe70d0a0	-0.23517084
144	0xbe3ffc86	-0.18748674
145	0x3e8dab38	0.27669692
146	0x3c3df14d	0.011593175
147	0xbee651a2	-0.44984156
148	0xbe8ffaad	-0.28120938
149	0xbb484756	-0.0030560098
150	0x3e5c1c8a	0.21495262
151	0x3ddbbe85	0.10729698
152	0x3df60ee8	0.12014562
153	0xbed25d00	-0.41086578
154	0x3d49c3cc	0.049258992
155	0xbf5eb53e	-0.86995304
156	0x3f92dcc8	1.1473627
157	0x3daa1e32	0.083065405
158	0xbd23d700	-0.03999996
159	0xbdfde502	-0.123971954
160	0xbe5963b0	-0.21229434
161	0xbed926f5	-0.42412534
162	0x3ee394df	0.44449517
163	0x3f146e0a	0.57980406
164	0xbe42b248	-0.19013321
165	0xbd6b359d	-0.057424176
166	0xbe4f61d0	-0.20252156
167	0xbe9c2ffa	-0.30505353
168	0xbec0674a	-0.37578803
169	0xbed5a404	-0.41726696
170	0x3daa8a17	0.0832712
171	0x3f06b42b	0.52618665
172	0xbf295fe9	-0.6616197
173	0xbe7f073b	-0.24905102
174	0x3e0967a6	0.13418445
175	0xbeedec3b	-0.46469292
176	0x3e6aef76	0.2294291
177	0xbece0f1b	-0.402459
178	0x3d9ef07c	0.077607125
179	0xbe2f4166	-0.17114791
180	0x3ec47c65	0.38376155
181	0xbf17253d	-0.59041196
182	0x3f7b6d88	0.98214006
183	0xbed71a05	-0.4201204
184	0x3e475535	0.19466098
185	0xbd3097c0	-0.04311347
186	0xbe904976	-0.28181046
187	0xbe71190e	-0.23544714
188	0xbd9a244c	-0.07526454
189	0x3e784e7c	0.2424869
190	0x3e3fbdf4	0.18724805
191	0x3f15942a	0.58429205
192	0x3f837809	1.0271007
193	0xbea74399	-0.3266876
194	0x3d08dc6b	0.033413332
195	0xbe0f9f41	-0.14025594
196	0xbe7f7eaa	-0.24950662
197	0x3d9f9eac	0.07793936
198	0x3dde082c	0.108414024
199	0x3e4cb9e9	0.19992794
200	0x3f69f3f7	0.91387886
201	0xbee77622	-0.45207316
202	0xbc8dd011	-0.017311128
203	0x3ea129f4	0.3147732
204	0xbb6be441	-0.0035994204
205	0xbe0184a1	-0.1264825
206	0xbd172305	-0.03689863
207	0xbe59a465	-0.21254118
208	0x3d8e8867	0.069596104
209	0x3f9e9a23	1.2390789
210	0x3de31b21	0.11089159
211	0xbe810b73	-0.25204048
212	0x3d2bce56	0.041944824
213	0x3c3ffe13	0.011718291
214	0xbe8ef9ba	-0.279249
215	0x3d252c0a	0.040325202
216	0x3f65c526	0.8975395
217	0x3ec80af1	0.39070848
218	0x3eace0bf	0.33765218
219	0x3dffabd7	0.12483948
220	0xbea25002	-0.31701666
221	0xbc44842b	-0.011994402
222	0xbec055b4	-0.37565386
223	0x3c5372b4	0.012905765
224	0xbe22861f	-0.15871476
225	0xbf238a3d	-0.6388281
226	0x3e772806	0.24136361
227	0xbf973725	-1.1813704
228	0x3e5a60b5	0.21325953
229	0xbf018260	-0.5058956
230	0xbe139028	-0.1441046
231	0xbedba965	-0.42902675
232	0xbeb3319e	-0.34998792
233	0xbedc2bbd	-0.4300212
234	0x3f2e4fbe	0.68090427
235	0xbdad0d81	-0.08449841
236	0x3e78894d	0.24271126
237	0x3f3c8c24	0.7365134
238	0xbe1c5f7e	-0.15270802
239	0xbd4bdb40	-0.04976964
240	0xbd4dd2fd	-0.050250042
241	0xbe8de626	-0.27714652
242	0xbe2dfac4	-0.1699019
243	0xbf19a383	-0.60015124
244	0xbe87c536	-0.26517648
245	0xbf7e9503	-0.99446124
246	0x3f726f7f	0.9470138
247	0x3e9a7ef7	0.3017499
248	0xbcc40f00	-0.023932934
249	0xbeaae0d1	-0.33374646
250	0xbdcf1068	-0.10110551
251	0xbda600dd	-0.081056334
252	0x3d43c7e8	0.047798067
253	0xbe45252f	-0.19252466
254	0xbfd2bacc	-1.6463256
255	0xbf1de42a	-0.61676276

w_r.0.bias f4 [64]
0	0x3e458ef4	0.19292814
1	0xbd394a41	-0.04523683
2	0xbc2f698c	-0.010706317
3	0xbdb7cdbf	-0.0897479
4	0xbbdc961d	-0.006731762
5	0x3d198b98	0.037486643
6	0xbe8fc835	-0.28082433
7	0xbd4569a9	-0.04819647
8	0xbe1a2343	-0.15052514
9	0xbeb14c93	-0.34628734
10	0xbd805003	-0.06265261
11	0x3d11ecbc	0.035626158
12	0xbe535ee0	-0.2064166
13	0xbe5d1623	-0.21590476
14	0xbdaf47ac	-0.08558592
15	0xbdf026aa	-0.117261246
16	0x3e41774b	0.18893163
17	0xbed687b3	-0.41900405
18	0x3dc33bef	0.09532916
19	0xbebb1a77	-0.3654363
20	0xbe84c4cb	-0.2593139
21	0xbed72ace	-0.42024845
22	0xbecfcd5a	-0.40586358
23	0xbe5ec04e	-0.21753046
24	0xbd503112	-0.050828047
25	0x3cfca6f2	0.030841324
26	0xbee20552	-0.44144684
27	0x3e56f1cc	0.20990676
28	0x3db17b41	0.08666087
29	0xbe52838b	-0.20557992
30	0xbdba1d29	-0.09087593
31	0x3e0059bb	0.1253423
32	0x3dd6a913	0.10481467
33	0xbecb1cbb	-0.39670357
34	0x3d0104cc	0.031498715
35	0x3e99d884	0.30048
36	0xbe836777	-0.25664875
37	0x3e0418cc	0.12900084
38	0x3e39c796	0.18142542
39	0xbed81690	-0.42204714
40	0xbe8c937b	-0.2745627
41	0xbe143ff7	-0.14477526
42	0xbe93d67b	-0.28874573
43	0xbee4e9ba	-0.4470957
44	0x3e1b3f52	0.15160874
45	0xbdd271ea	-0.10275634
46	0xbe3143bf	-0.17311
47	0xbea95a80	-0.3307686
48	0xbf292838	-0.66076994
49	0xbe0e0efd	-0.13872905
50	0x3ba15ad8	0.0049241595
51	0xbe291638	-0.16512382
52	0xbdb86a15	-0.090046085
53	0xbd446bb1	-0.047954265
54	0xbe0f6c73	-0.14006214
55	0xbea4f945	-0.32221428
56	0x3e1afebf	0.1513624
57	0xbecab4e2	-0.39591128
58	0xbe5c4101	-0.21509172
59	0xbdc3b8d2	-0.09556736
60	0xbe331fb0	-0.17492557
61	0xbed80c35	-0.42196813
62	0xbe3fa193	-0.1871398
63	0xbe9f5db4	-0.31126177

w_r.2.weight f4 [32, 64]
0	0xbe6cbdfd	-0.2311935
1	0xbf1d7422	-0.6150533
2	0x3dc76314	0.097356945
3	0x3e7d892f	0.24759363
4	0xbd18ede1	-0.037336234
5	0xbe9fa27e	-0.3117866
6	0xbd46021a	-0.048341848
7	0x3e65fae9	0.22458996
8	0xbe1d89fa	-0.15384665
9	0xbe112725	-0.14175089
10	0xbd4255b0	-0.047445
11	0xbd33bebb	-0.043883067
12	0xbdb61dd2	-0.088924065
13	0xbe56cb1f	-0.20975922
14	0x3e99b5bb	0.30021462
15	0x3cd35c7f	0.025800942
16	0x3d2ead3c	0.042645678
17	0x3d0c484e	0.034248643
18	0xbede4d3d	-0.43418303
19	0xbe0d877b	-0.13821213
20	0xbd9aaefd	-0.075529076
21	0x3e0ef033	0.13958816
22	0xbed06049	-0.4069846
23	0xbedd22fa	-0.43190747
24	0xbfac22ec	-1.3448157
25	0xbeeeda57	-0.46650955
26	0xbf0fd35e	-0.56181896
27	0x3e51c9d5	0.20487149
28	0x3e2e728f	0.17035888
29	0xbdd790fd	-0.10525701
30	0xbe95bcf2	-0.29245716
31	0xbe34c057	-0.17651497
32	0xbe57b521	-0.21065189
33	0xbe1759e5	-0.14780386
34	0xbeecc244	-0.46241963
35	0xbd42e4ea	-0.04758159
36	0xbd9e50be	-0.07730244
37	0xbed1b2f1	-0.40956834
38	0xbe2e49c8	-0.17020333
39	0xbece6d38	-0.40317702
40	0xbe075733	-0.13216858
41	0x3ccb9deb	0.024855575
42	0xbd8b49a4	-0.06801155
43	0xbf37e90e	-0.7183999
44	0xbf592fec	-0.8483875
45	0xbe207a1d	-0.15671583
46	0xbe832daf	-0.2562079
47	0x3dc30648	0.095226824
48	0xbe9f46f4	-0.3110882
49	0x3e9cb9d1	0.30610517
50	0x3d028ef4	0.031874612
51	0xbf5976e6	-0.8494705
52	0xbdebb182	-0.11508466
53	0x3e10c715	0.14138444
54	0xbd6c79e2	-0.057733424
55	0xbdf8d48f	-0.12149917
56	0xbc476520	-0.012170106
57	0x3dba95c8	0.091106
58	0x3dd12726	0.10212545
59	0x3dd12590	0.102122426
60	0x3e5a82c7	0.2133895
61	0xbda51c59	-0.080620475
62	0xbc45a10c	-0.012062322
63	0xbd8284c9	-0.06372983
64	0x3e860a45	0.2617971
65	0x3e68e7ae	0.22744629
66	0xbcd45e2a	-0.025923807
67	0xbd4190ad	-0.047257114
68	0xbd2443f3	-0.040103864
69	0xbd24446a	-0.040104307
70	0x3e67f0d0	0.22650456
71	0xbe19c5e5	-0.15016897
72	0x3ef2e747	0.47442076
73	0xbf38333b	-0.7195317
74	0x3c01da96	0.00792565
75	0xbcb3b715	-0.021937886
76	0xbdce6ace	-0.10078965
77	0xbececcc4	-0.403906
78	0xbe8053c9	-0.25063923
79	0xbf19cd74	-0.6007912
80	0x3dc312a1	0.095250376
81	0xbe47e3ac	-0.19520444
82	0xbe39f61a	-0.18160287
83	0xbe3a000a	-0.18164077
84	0xbebccf14	-0.36876738
85	0xbe0d7cde	-0.13817164
86	0xbcab19b5	-0.020886282
87	0x3e59891b	0.21243708
88	0x3e908530	0.28226614
89	0xbe606f0f	-0.21917365
90	0xbeb94bd4	-0.36190665
91	0xbe0d77a7	-0.13815175
92	0x3d12b861	0.03582037
93	0xbe40e398	-0.1883682
94	0xbd8f9f06	-0.07012753
95	0x3c3405e0	0.010987729
96	0xbe130689	-0.14357962
97	0xbdcc9065	-0.099884786
98	0x3e29fb67	0.16599809
99	0x3d0d5a88	0.034510165
100	0x3e6a9835	0.22909625
101	0xbea5138d	-0.3224148
102	0x3db4a96b	0.088213764
103	0x3db0d4bd	0.086343266
104	0xbdd068f0	-0.10176265
105	0x3da20fb9	0.07913155
106	0x3dfad9f3	0.12248602
107	0xbf61fbf7	-0.8827509
108	0xbdd19dd3	-0.10235181
109	0x3d301884	0.04299213
110	0xbdfb3d45	-0.122675456
111	0x3cbe6488	0.023241296
112	0xbe0ea4dd	-0.13930078
113	0x3e56cc59	0.2097639
114	0xbd8600d3	-0.06543126
115	0xbea41fc8	-0.32055497
116	0x3cc57718	0.02410464
117	0x3db5fb5c	0.088858336
118	0xbddf159a	-0.10892792
119	0x3ea773f8	0.32705665
120	0x3dfd7c0f	0.12377178
121	0x3a71258a	0.0009199014
122	0xbe0575dc	-0.13033241
123	0xbbbdbbde	-0.005790218
124	0xbcce4d20	-0.02518326
125	0xbe396b4c	-0.18107337
126	0x3d5b34dd	0.05351721
127	0xbb7e7100	-0.0038824677
128	0xbe7a7aa7	-0.2446085
129	0xbea2195c	-0.31659973
130	0x3dfaa9fc	0.12239453
131	0x3ddfdd2f	0.10930859
132	0xbd766027	-0.06015029
133	0xbedff8ea	-0.43744594
134	0xbe62cd78	-0.22148693
135	0x3e43b191	0.19110705
136	0xbed789e5	-0.42097393
137	0xbe00b006	-0.12567148
138	0xbcbd1897	-0.023083014
139	0xbd262557	-0.040562954
140	0x3c50bd60	0.012740463
141	0xbdb4a8b3	-0.08821239
142	0x3dc26a48	0.09492928
143	0xbedbe97f	-0.4295158
144	0xbdd4ebea	-0.103965595
145	0x3d29f190	0.041490138
146	0xbdc05d12	-0.09392752
147	0xbe0859d7	-0.13315521
148	0xbc2f34fd	-0.010693786
149	0x3e1f4ec5	0.15557392
150	0x3db66906	0.089067504
151	0xbeefc7b1	-0.4683204
152	0x3e241991	0.16025378
153	0xbf5c2c09	-0.8600469
154	0x3e3d4b75	0.18485816
155	0xbc52fe8e	-0.012878073
156	0x3dcb276b	0.09919628
157	0x3e673e98	0.22582471
158	0xbe4f9129	-0.20270218
159	0x3dc068d6	0.09394996
160	0xbd9ed536	-0.077555105
161	0x3d96062b	0.07325395
162	0x3e989022	0.29797465
163	0xbe774ec8	-0.24151146
164	0xbeb6c30b	-0.3569568
165	0xbfaf2ace	-1.3684938
166	0xbe357e9f	-0.17724083
167	0xbf4c37ed	-0.79772836
168	0x3e79e560	0.24403906
169	0xbe16f518	-0.14741933
170	0x3cead3bb	0.028665414
171	0x3d8607b0	0.06544435
172	0xbed84350	-0.42238855
173	0x3d250929	0.04029194
174	0xbe100f36	-0.14068303
175	0x3dfe5894	0.12419239
176	0xbd7c9ca0	-0.061672807
177	0xbe3dcee8	-0.1853596
178	0x3dc03d37	0.09386676
179	0x3d7c2594	0.061559275
180	0x3db0fddf	0.08642172
181	0x3e35e970	0.1776483
182	0xbc1befd9	-0.009517633
183	0x3e27728e	0.16352293
184	0x3e188305	0.1489373
185	0x3ca905d3	0.02063266
186	0x3d642524	0.055699483
187	0x3debbb06	0.11510281
188	0x3e14de92	0.14538029
189	0xbdc7b002	-0.09750368
190	0xbe8f962f	-0.28044268
191	0xbd3263d8	-0.04355225
192	0xbd2511b6	-0.040300094
193	0x3e93e3a1	0.28884605
194	0xbd242f8a	-0.0400844
195	0xbd938fa4	-0.07205132
196	0x3db8bd28	0.09020454
197	0x3e720ff6	0.23638901
198	0x3d3e798a	0.046502627
199	0xbe960ec2	-0.29308134
200	0xbe024491	-0.12721469
201	0xbeb529c8	-0.3538344
202	0xbd86e96f	-0.06587493
203	0x3d1c9fd2	0.038238354
204	0xbd928c98	-0.071557224
205	0xbebba54a	-0.36649543
206	0xbdc2c5a5	-0.09510354
207	0xbc140190	-0.009033576
208	0xbda9fd86	-0.08300309
209	0xbf1a5e40	-0.60300064
210	0xbeb32e70	-0.34996367
211	0xbd9b403b	-0.0758061
212	0x3cab6adc	0.020924978
213	0xbe97e0fe	-0.29663843
214	0x3e37a04b	0.1793224
215	0xbe60e1db	-0.21961157
216	0xbeef19bf	-0.4669933
217	0xbd2a477e	-0.041572087
218	0xbaa73145	-0.0012755772
219	0xbead19e6	-0.3380882
220	0xbe8b4626	-0.27201957
221	0x3d7860dd	0.06063925
222	0xbe850cb0	-0.25986242
223	0x3df26d06	0.11837201
224	0x3d2860cb	0.041107934
225	0x3e3b52f2	0.1829336
226	0x3d678723	0.05652536
227	0xbd8222ea	-0.063543156
228	0xbd0ec8f4	-0.034859613
229	0xbf9bc90c	-1.217073
230	0x3df25da8	0.1183427
231	0xbe0a1a10	-0.13486505
232	0x3d7dff87	0.062011268
233	0xbdbe947f	-0.09305667
234	0xbd0c15b9	-0.034200404
235	0xbeccefa9	-0.40026596
236	0x3e7a15fc	0.24422449
237	0x3e1e7e11	0.15477778
238	0x3e112fd7	0.14178406
239	0xba837980	-0.0010030717
240	0x3ee7baa6	0.4525959
241	0xbc642b47	-0.013926334
242	0xbe0e801a	-0.13916054
243	0xbe2d6673	-0.16933613
244	0xbee31390	-0.44350863
245	0x3e259d07	0.16173182
246	0x3e0fe35d	0.14051576
247	0xbe80d04f	-0.25158927
248	0x3e67901d	0.22613569
249	0xbd89f9bc	-0.06737086
250	0xbf10b364	-0.5652373
251	0x3e55705d	0.20843644
252	0xbe367871	-0.17819382
253	0xbcf70802	-0.030155186
254	0xbe441dac	-0.19151944
255	0x3d6df73c	0.05809711

w_r.2.bias f4 [32]
0	0xbbfbce31	-0.007684492
1	0x3e32e7a7	0.17471181
2	0x3e719d8d	0.23595257
3	0x3e6c4000	0.23071289
4	0xbe24ca7f	-0.16092871
5	0xbe1f669e	-0.15566489
6	0xbd18ea9a	-0.03733311
7	0x3d9b398f	0.07579338
8	0x3eb9687d	0.3621253
9	0xbcde3080	-0.027122736
10	0xbde98047	-0.1140142
11	0x3c8d399f	0.01723939
12	0xbeecf8a8	-0.4628346
13	0xbb9b0b99	-0.004731607
14	0xbd71c046	-0.059021257
15	0xbde0c433	-0.10974922
16	0xbe1d5d4f	-0.15367626
17	0xbdf5d55d	-0.120035864
18	0x3f14222a	0.5786463
19	0x3ea8047c	0.3281592
20	0x3e69e638	0.22841728
21	0xbd89b132	-0.067232504
22	0xbd763abe	-0.060114615
23	0x3e925d27	0.28586695
24	0xbe3254aa	-0.1741511
25	0x3ebb8e5e	0.36632055
26	0x3e206fb6	0.15667614
27	0xbdd8063d	-0.10548065
28	0x3df92f3c	0.12167212
29	0xbc7705ac	-0.015077036
30	0x3e833fdc	0.25634658
31	0x3e6d2bec	0.23161286

w_h.0.weight f4 [64, 5]
0	0x3ca3130b	0.019906541
1	0xbdeb268b	-0.11481961
2	0xbf436cea	-0.76338065
3	0xbf8a59c5	-1.0808645
4	0xbf0ccb68	-0.54997873
5	0x3e5ab03f	0.21356295
6	0x3de386c4	0.11109689
7	0x3b24fd6c	0.0025175465
8	0x3f9a16ad	1.203817
9	0xbef6c273	-0.48195228
10	0xbddb908d	-0.1072093
11	0xbeeec562	-0.46634966
12	0xbdcbafe1	-0.099456556
13	0xbe382fba	-0.17986956
14	0x3b359d8a	0.0027712309
15	0xbdddc6d8	-0.10828942
16	0x3e934177	0.28760883
17	0xbe964f7d	-0.2935752
18	0xbf841081	-1.0317537
19	0x3cc35353	0.023843443
20	0x3ce27c18	0.027647063
21	0xbe1e5cc6	-0.15465078
22	0xbf27608d	-0.653817
23	0x3f574358	0.84087133
24	0xbf17f116	-0.5935224
25	0xbe74b3ca	-0.23896709
26	0x3c128ec1	0.008945168
27	0xbf65f340	-0.89824295
28	0x3e824b15	0.25447908
29	0xbefbb23e	-0.49159425
30	0xbefeac9e	-0.4974107
31	0x3b8ed92c	0.004359385
32	0xbf84365b	-1.0329088
33	0xbe92c2d9	-0.28664282
34	0xbe0912e1	-0.13386108
35	0xbea03ab9	-0.31294802
36	0xbcc97cbc	-0.02459561
37	0xbf70988b	-0.9398276
38	0x3dd5e1a6	0.1044343
39	0xbed86724	-0.4226619
40	0xbc934a3c	-0.017979734
41	0xbc1680e1	-0.009186001
42	0xbdc99b98	-0.0984413
43	0xbde110b7	-0.10989516
44	0xbe269d72	-0.16270998
45	0xbca1d561	-0.019755067
46	0xbd330f05	-0.043715496
47	0x3d07999d	0.03310548
48	0xbb4580ba	-0.0030136541
49	0xbe270ef3	-0.16314296
50	0x3e9b3e7a	0.30321103
51	0xbecd4efb	-0.4009932
52	0x3e1d3ecd	0.15355988
53	0xbeec0bae	-0.4610266
54	0xbe81b3aa	-0.25332385
55	0xbe5539bd	-0.20822807
56	0xbe272f0b	-0.16326539
57	0xbf868e98	-1.0512266
58	0x3db7ee0e	0.08980952
59	0xbf60e7b4	-0.8785355
60	0x3df875c3	0.12131836
61	0x3ec3ebc6	0.38265818
62	0xbd876478	-0.0661096
63	0x3f33abc1	0.7018395
64	0xbeb79ced	-0.35861912
65	0xbe06b924	-0.13156563
66	0xbe845b90	-0.25851107
67	0xbf21ab34	-0.6315186
68	0xbf40c55e	-0.7530116
69	0xbf0d986e	-0.55310714
70	0x3ea59760	0.32342052
71	0x3cec62b6	0.028855663
72	0x3f769ef1	0.96336275
73	0x3da0d154	0.07852426
74	0xbf064403	-0.5244753
75	0xbe5faa13	-0.21842222
76	0xbe2a606b	-0.16638343
77	0xbeab42c7	-0.33449385
78	0xbed0cc31	-0.40780786
79	0xbe80c84a	-0.25152808
80	0xbebf0c94	-0.37314284
81	0x3e54b6ef	0.20772909
82	0x3f5fd4b0	0.8743391
83	0x3d3a298c	0.04544978
84	0xbe8ba276	-0.27272385
85	0xbe9cf67a	-0.30656797
86	0xbeb5e3e4	-0.3552543
87	0xbf3099ab	-0.6898448
88	0xbf5d1f45	-0.8637584
89	0x3d3b5da9	0.04574362
90	0x3e5f8b75	0.21830542
91	0x3e4e4797	0.20144497
92	0xbf275430	-0.65362835
93	0x3e521d72	0.20519045
94	0x3cd5cdf2	0.026099179
95	0xbe990bd8	-0.2989185
96	0xbe0a0a36	-0.13480458
97	0x3ef23502	0.47306067
98	0xbf80fde4	-1.0077481
99	0xbe9e642d	-0.30935803
100	0xbe9c4ba1	-0.3052645
101	0x3d9947c2	0.0748439
102	0x3e89580d	0.2682499
103	0x3f6198ef	0.88123983
104	0xbf0f2b21	-0.55925184
105	0x3eb8ae9f	0.36070725
106	0xbdd629f7	-0.10457223
107	0x3f7c12b1	0.9846602
108	0xbeacb002	-0.33728033
109	0xbf926c63	-1.1439327
110	0x3e653fe2	0.2238765
111	0x3e93d16a	0.28870708
112	0xbe03ed8c	-0.12883586
113	0xb9e40b74	-0.00043496082
114	0xbf0ad143	-0.5422556
115	0xbe70f89f	-0.23532341
116	0xbec03ed3	-0.3754793
117	0x3f2059d9	0.62637097
118	0x3dd1c7df	0.102432005
119	0x3e4e9c64	0.20176846
120	0x3ea7909a	0.3272751
121	0x3e113f3e	0.14184281
122	0x3f3dcb85	0.7413867
123	0xbf3d64d8	-0.73982
124	0xbe86f350	-0.26357508
125	0x3d7839d6	0.06060203
126	0x3e61a1ad	0.2203433
127	0xbe88d60d	-0.26725808
128	0x3f7ffa8c	0.9999168
129	0xbf0900be	-0.5351676
130	0xbd92017a	-0.07129188
131	0x3e51f37b	0.20503037
132	0xbf07b50f	-0.5301065
133	0x3f2524bc	0.6450918
134	0xbf0bbf4b	-0.54588765
135	0xbe798cf2	-0.24370173
136	0xbeb0097f	-0.34382245
137	0xbf30012e	-0.687518
138	0xbf937e02	-1.152283
139	0xbf38df9a	-0.7221619
140	0x3cf97918	0.03045325
141	0xbe8090f7	-0.251106
142	0x3f88aec6	1.0678337
143	0x3e548367	0.20753251
144	0xbf02b3f0	-0.5105581
145	0xbef45bd0	-0.47726297
146	0xbed42d80	-0.41440964
147	0xbe817ab8	-0.2528894
148	0x3e922a73	0.2854801
149	0xbe9be350	-0.30446863
150	0xbe066492	-0.13124302
151	0xbd73efc5	-0.059554834
152	0xbf249a22	-0.6429769
153	0xbe8d457f	-0.27592084
154	0xbe99e776	-0.30059403
155	0x3e5cb671	0.21553971
156	0xbe2e7cf8	-0.1703986
157	0x3f72f992	0.94912064
158	0xbf25b129	-0.6472345
159	0x3d06e9e3	0.032937896
160	0x3d19ac3e	0.03751778
161	0xbb92f21d	-0.0044844286
162	0x3e2c9376	0.16853127
163	0xbd4c6b57	-0.049907055
164	0xbde92a2e	-0.11384998
165	0x3eead7fc	0.45867908
166	0x3d9149ca	0.07094152
167	0x3f09ee0e	0.5387887
168	0x3e8c4bcc	0.27401578
169	0xbe4297fc	-0.1900329
170	0xbb2847de	-0.0025677602
171	0xbde7c160	-0.1131618
172	0x3efaff3c	0.49022853
173	0xbea1f9c3	-0.31635866
174	0x3b1adafc	0.002362906
175	0xbf0ee975	-0.5582498
176	0xbeb2b9bc	-0.3490733
177	0xbe6b9e26	-0.23009548
178	0xbe9d02d6	-0.30666226
179	0xbeb11db1	-0.34592965
180	0xbea3c105	-0.319832
181	0xbe805da5	-0.25071445
182	0xbf50224d	-0.8130234
183	0x3eb96c90	0.3621564
184	0x3dcd1f48	0.10015732
185	0xbea4b139	-0.3216646
186	0xbda650e2	-0.08120896
187	0xbe76e595	-0.24111016
188	0xbe83638c	-0.25661886
189	0xbf336498	-0.7007537
190	0x3edf4ad0	0.43611765
191	0x3dff982d	0.12480197
192	0xbefafc1d	-0.49020472
193	0x3f1cde21	0.6127644
194	0x3ce93110	0.028465778
195	0xbe933302	-0.28749853
196	0x3dd7310e	0.10507403
197	0xbf4c0953	-0.7970173
198	0x3f2d1f85	0.6762622
199	0xbf0b08d8	-0.5431037
200	0xbe249654	-0.1607297
201	0xbeb595fc	-0.35465991
202	0xbf2106ae	-0.6290082
203	0xbee5eb90	-0.44906282
204	0xbec48925	-0.38385883
205	0xbd86da0a	-0.065845564
206	0x3ea4344c	0.3207115
207	0x3f6dd7f8	0.9290767
208	0x3f7ed6fa	0.9954678
209	0xbf2c4f83	-0.67308825
210	0xbd0441d9	-0.03228936
211	0xbbbe85a7	-0.0058142724
212	0xbe343d7c	-0.1760158
213	0xbe474f8a	-0.19463935
214	0xbf249d26	-0.6430229
215	0x3e2cfd97	0.16893612
216	0x3e28c880	0.16482735
217	0x3f7967ff	0.9742431
218	0x3f7b496a	0.98158896
219	0xbe8c1095	-0.273564
220	0x3e7dfe26	0.24803981
221	0x3dac2fbe	0.084075436
222	0x3f4cdfdc	0.8002908
223	0xbf36fdd2	-0.7148105
224	0xbf5382c7	-0.82621425
225	0x3c111e11	0.008857266
226	0x3d5f2c78	0.054485768
227	0xbe478ce6	-0.19487342
228	0x3c3156d1	0.010823921
229	0xbf286419	-0.65777737
230	0x3e3738fe	0.17892835
231	0x3e89618b	0.26832232
232	0x3f8e3df2	1.1112654
233	0xbe969fe4	-0.29418862
234	0xbeacd148	-0.3375342
235	0xbcfa1e8a	-0.03053214
236	0x3db171a5	0.08664254
237	0x3f12c79d	0.57335836
238	0x3f2c2014	0.6723645
239	0xbe19b3c0	-0.15009975
240	0xbe7e1ed1	-0.24816443
241	0x3e67e61d	0.22646375
242	0xbeeb7d3d	-0.45993987
243	0x3f50ae8f	0.81516355
244	0xbec14119	-0.37744978
245	0x3de27a51	0.11058486
246	0x3d63a32c	0.055575535
247	0x3f16d327	0.5891594
248	0x3f353486	0.7078327
249	0xbee2bbac	-0.44283807
250	0x3e928d7e	0.28623575
251	0x3e185d09	0.1487924
252	0x3ecf550d	0.40494576
253	0xbe5d081a	-0.21585122
254	0xbf6f1505	-0.9339145
255	0x3eb7798d	0.35834923

w_h.0.bias f4 [64]
0	0xbe2318b7	-0.15927397
1	0xbf006ae3	-0.50163096
2	0xbeb8a85d	-0.3606595
3	0xbed29e86	-0.4113657
4	0xbf238ea5	-0.63889533
5	0xbeda483d	-0.42633238
6	0xbebdb85e	-0.37054724
7	0xbe6a425e	-0.2287688
8	0xbe556730	-0.20840144
9	0xbe50a8de	-0.20376918
10	0xbd84b636	-0.064800665
11	0xbf066aef	-0.5250692
12	0xbf30ac25	-0.6901267
13	0x3d8ddba6	0.0692666
14	0xbe39ebf6	-0.18156418
15	0xbde16134	-0.11004868
16	0xbf267a9d	-0.65030843
17	0xbf10ab96	-0.5651182
18	0xbeb2d77c	-0.34930027
19	0xbf53ca05	-0.8273013
20	0xbf526f18	-0.82200766
21	0xbf34d062	-0.70630467
22	0xbf3d96bd	-0.74058133
23	0xbf20dff3	-0.6284172
24	0xbf07ebc5	-0.5309413
25	0xbe3010aa	-0.17193857
26	0xbe243585	-0.16036041
27	0xbf10c1ef	-0.5654592
28	0xbf4ac5e6	-0.7920822
29	0xbd8c225e	-0.068424925
30	0xbd93f434	-0.072243124
31	0xbdfa74b9	-0.12229294
32	0xbe99c9a2	-0.30036646
33	0xbf4fc6df	-0.8116283
34	0xbe9bdfdc	-0.3044423
35	0xbf61af1f	-0.8815784
36	0xbf12b52d	-0.573077
37	0xbf153529	-0.5828424
38	0xbf2f810d	-0.6855629
39	0xbe942575	-0.28934827
40	0xbf34e8db	-0.7066781
41	0xbf125022	-0.5715352
42	0xbe8ff6f4	-0.28118098
43	0x3df1d323	0.11807849
44	0xbee99eda	-0.45629007
45	0xbe970768	-0.29497838
46	0xbf0bf435	-0.54669505
47	0xbe810122	-0.25196177
48	0xbee1e3f9	-0.44119242
49	0xbf074dc1	-0.5285302
50	0xbf3f9632	-0.74838555
51	0xbf551688	-0.83237505
52	0xbedb12ce	-0.42787784
53	0xbf589ece	-0.84617317
54	0xbe9de72c	-0.30840433
55	0xbf0f53e2	-0.5598737
56	0xbee27e70	-0.4423709
57	0xbdfb2358	-0.12262601
58	0xbf3f7540	-0.74788284
59	0x3e232690	0.15932679
60	0xbef5e7d6	-0.4802844
61	0xbed012bb	-0.4063929
62	0xbf36bb7b	-0.7137982
63	0xbe2fb99a	-0.17160645

w_h.2.weight f4 [32, 64]
0	0xbec7125f	-0.38881204
1	0x3ebc6ce7	0.36801836
2	0xbe174b4c	-0.14774817
3	0x3d36f874	0.044670537
4	0x3f68f67e	0.9100112
5	0xbde931a8	-0.11386424
6	0xbde80bfe	-0.11330412
7	0x3e4a0821	0.19729663
8	0xbd92add0	-0.07162058
9	0xbdf87de7	-0.12133389
10	0xbe5f5dd1	-0.21813132
11	0xbc449267	-0.011997796
12	0xbe473da7	-0.19457112
13	0xc00fdb1f	-2.247749
14	0x3d587a36	0.052850924
15	0xbf537398	-0.8259826
16	0xbf3f85ec	-0.74813724
17	0xbf6a175b	-0.9144189
18	0x3f1c5956	0.61073816
19	0x3e849efe	0.2590255
20	0xbebb8eeb	-0.36632475
21	0xbf93eac1	-1.1556016
22	0x3eac8846	0.33697718
23	0x3f2b082e	0.66809356
24	0x3d11e614	0.03561981
25	0x3e41d45a	0.18928662
26	0x3eb2e305	0.34938827
27	0x3e3c892f	0.18411706
28	0xbd99c3c2	-0.07508041
29	0xbf4c48fb	-0.7979886
30	0xbe12ff79	-0.14355268
31	0xbf389455	-0.72101337
32	0xbf3700c4	-0.71485543
33	0xbd89bde2	-0.067256704
34	0xbe62f757	-0.22164665
35	0xc01f4469	-2.4885504
36	0x3eb7d577	0.35905048
37	0xbfe8c86e	-1.8186166
38	0x3f6db340	0.9285164
39	0x3f137191	0.57595164
40	0xbe95b215	-0.29237428
41	0xbf51b4a5	-0.81916267
42	0xbe550adc	-0.20804924
43	0xbf008c0f	-0.5021371
44	0xbf5e7853	-0.8690235
45	0x3e6dafc6	0.23211583
46	0xbfea9a4f	-1.8328341
47	0xbea881e6	-0.32911605
48	0x3f1925c1	0.5982323
49	0x3f182dba	0.59444773
50	0x3c5563bb	0.013024266
51	0xbd9d3285	-0.076756515
52	0xbec1265e	-0.37724584
53	0xbf049657	-0.517919
54	0x3e1a1e56	0.15050635
55	0x3e2f09e2	0.17093614
56	0xbdca50ab	-0.098786674
57	0xbeca8717	-0.3955619
58	0xbe8bcbca	-0.27303916
59	0xbf60beb5	-0.87790996
60	0xbfb4040d	-1.4063736
61	0xbf820326	-1.0157211
62	0x3e6d5155	0.23175557
63	0x3f0b596d	0.5443333
64	0xbf1364ca	-0.57575667
65	0xbfaad144	-1.3345113
66	0x3ec50cf1	0.38486436
67	0x3e92b88a	0.28656417
68	0xbec88230	-0.39161825
69	0x3f27ed6c	0.6559665
70	0x3ebef2eb	0.37294707
71	0x3d6159a0	0.055017114
72	0x3c96dab7	0.018414838
73	0x3d966a59	0.07344503
74	0xbf07569b	-0.52866524
75	0x3f499a8e	0.78751457
76	0x3f036987	0.51332897
77	0x3ede2b73	0.43392524
78	0xbdf243f8	-0.1182937
79	0x3f0b1d22	0.5434133
80	0x3e31e7d5	0.17373593
81	0x3d03a904	0.032143608
82	0x3c8bf9d1	0.017086895
83	0x3ea22c49	0.31674412
84	0xbe9633b3	-0.29336318
85	0xbf9212bf	-1.1411971
86	0x3e7ec175	0.24878486
87	0xbf8ca7d8	-1.0988722
88	0x3dcbbcb1	0.099480994
89	0x3d9e6461	0.077339895
90	0x3de17785	0.11009125
91	0x3d431e05	0.04763605
92	0x3f29c985	0.6632312
93	0xbf02dc29	-0.5111719
94	0x3d9a8c97	0.07546347
95	0x3ea2438a	0.31692153
96	0x3dadf4d6	0.084939644
97	0xbf19769b	-0.599466
98	0x3e72db4b	0.23716466
99	0xbfccfd8c	-1.6014876
100	0xbe5938c9	-0.21213068
101	0xbf66f986	-0.9022449
102	0xbf273bde	-0.65325725
103	0xc0319f0e	-2.775333
104	0xbed13589	-0.40861157
105	0xbccfe10a	-0.025375862
106	0xbd479221	-0.048723344
107	0xbefbc0f6	-0.49170655
108	0x3e797c6a	0.24363866
109	0xbddb1ca9	-0.10698826
110	0xbe208e63	-0.15679316
111	0xbefb3dc7	-0.4907057
112	0x3e06e423	0.13172965
113	0xbec0e04e	-0.3767113
114	0x3f02f0be	0.51148593
115	0x3d0c3485	0.034229774
116	0xbdcce79c	-0.100051135
117	0xbee0b846	-0.4389059
118	0xbf4b5587	-0.7942738
119	0xbe1f4669	-0.15554203
120	0x3e836d11	0.2566915
121	0x3ddbc3b2	0.10730685
122	0xbf4b85f4	-0.7950127
123	0x3eb3ef4c	0.35143507
124	0xbed9d523	-0.42545423
125	0x3f8acec9	1.0844356
126	0xba331cd0	-0.00068326015
127	0xbecddc2b	-0.40207037
128	0xbe6ff8e7	-0.23434792
129	0x3e4af18b	0.19818704
130	0x3d6c8377	0.057742562
131	0x3e71c936	0.23611912
132	0xbee41ac0	-0.4455166
133	0xbd485d03	-0.048916828
134	0xbf07d367	-0.5305695
135	0xbef08459	-0.46975973
136	0xbcd570c7	-0.026054753
137	0x3d5531fb	0.05204962
138	0x3da21d22	0.07915713
139	0xbe80856b	-0.2510179
140	0xbece5fb4	-0.4030739
141	0xbe35ff96	-0.1777328
142	0x3e17b996	0.14816889
143	0xbdd9dce7	-0.10637837
144	0xbe9e041d	-0.30862513
145	0xbf328954	-0.69740796
146	0xbf1cb54a	-0.61214125
147	0xbed0d723	-0.40789136
148	0xbca2ee59	-0.019889044
149	0xbef937cd	-0.48675385
150	0xbe4a1f16	-0.19738421
151	0xbe78b54d	-0.24287911
152	0x3ef29254	0.47377264
153	0xbd218976	-0.039437734
154	0xbead7c79	-0.33884028
155	0x3efcfe04	0.4941255
156	0xbf005a5c	-0.5013788
157	0xbcd47e54	-0.025939144
158	0xbd8e2891	-0.06941331
159	0xbe54fb75	-0.20799048
160	0x3d6b0da7	0.057386067
161	0xbf0013d7	-0.50030273
162	0xbd919a51	-0.07109512
163	0xbe83c723	-0.25737867
164	0x3e993b0e	0.29927868
165	0xbe2a29c8	-0.16617501
166	0xbf5e1962	-0.8675748
167	0xbd4d2abc	-0.050089583
168	0xbee04375	-0.43801466
169	0x3e97270e	0.29521984
170	0x3e41d91e	0.1893048
171	0x3e4599f0	0.19297004
172	0x3ea6838a	0.3252223
173	0xbd7702a0	-0.060305238
174	0x3e23c83a	0.15994349
175	0x3ec9fb08	0.39449334
176	0xbddeecd9	-0.10885019
177	0x3d4336ba	0.047659613
178	0x3af70706	0.0018846698
179	0x3d9cb931	0.0765251
180	0x3cb3800e	0.021911647
181	0xbe52dc4e	-0.20591852
182	0xbe125978	-0.14291942
183	0x3f097d70	0.5370703
184	0x3cc68b21	0.024236264
185	0x3e30f514	0.1728099
186	0x3beae6c9	0.007168625
187	0x3e5b9033	0.21441726
188	0xbd94b905	-0.07261852
189	0x3e3d0e31	0.18462445
190	0x3f230902	0.6368562
191	0x3e5cec5c	0.21574539
192	0xbde42a7f	-0.11140918
193	0x3db56e21	0.08858896
194	0x3d34ed51	0.044171635
195	0xbd0a0480	-0.033695698
196	0x3c63bef6	0.013900509
197	0xbda7b840	-0.0818944
198	0x3d9a456e	0.07532774
199	0xbe052ec0	-0.13006115
200	0xbd8b7b84	-0.06810668
201	0x3d1f98f0	0.038964212
202	0xbdfb91e4	-0.12283686
203	0xbd9a402a	-0.075317696
204	0xbd95a3f9	-0.07306666
205	0xbcd4cb7c	-0.025975935
206	0xbddd3b7f	-0.108023636
207	0xbe21de07	-0.15807353
208	0xbbb3befb	-0.005485413
209	0xbcafb568	-0.021448806
210	0xbdf4426d	-0.11926732
211	0xbdab1458	-0.0835349
212	0xbcc3df64	-0.023910232
213	0x3c98fefd	0.018676275
214	0x3c97ec08	0.018545166
215	0xbe1e1ebf	-0.15441416
216	0xbd7b5ba3	-0.06136669
217	0xbe833b60	-0.25631237
218	0xbe3f4f14	-0.1868251
219	0xbe037088	-0.12835896
220	0x3d972e45	0.07381872
221	0xbe1c8697	-0.15285717
222	0xbdf28c64	-0.11843184
223	0x3cbd3b80	0.02309966
224	0xbc0481a3	-0.008087548
225	0x3d4be997	0.049783316
226	0xbe567818	-0.2094425
227	0xbe30498c	-0.17215556
228	0xbdd4294e	-0.10359441
229	0xbde11af7	-0.10991471
230	0xbdf4a9d5	-0.119464554
231	0xbe020485	-0.12697037
232	0xbdfaff46	-0.12255721
233	0xbd3cb12e	-0.04606741
234	0xbd9344bb	-0.07190844
235	0xbe32af63	-0.17449717
236	0xbdabf463	-0.083962224
237	0xbddc0756	-0.10743587
238	0xbe6b43fb	-0.22975151
239	0xbdcb5a6f	-0.09929358
240	0x3da834a7	0.08213168
241	0xbdfc09f2	-0.123065844
242	0xbd3068d6	-0.04306873
243	0x3c749ab8	0.014929466
244	0x3da9afcd	0.082854845
245	0x3d222a8f	0.03959137
246	0x3b38eadf	0.0028216166
247	0xbe51b3cb	-0.20478742
248	0x3d2b409e	0.04180967
249	0xbd9276b8	-0.0715155
250	0xbd2d38dd	-0.042290557
251	0xbe5a2620	-0.21303606
252	0xbe264d73	-0.16240482
253	0xbe66589c	-0.2249474
254	0xbe0d4fc6	-0.13799962
255	0x3d3c5069	0.045975123

w_h.2.bias f4 [32]
0	0xbf3498f7	-0.70545906
1	0x3ef7796c	0.48334825
2	0x3e041d41	0.12901784
3	0xbddf7e79	-0.109127946
4	0x3e53cdcd	0.20683976
5	0xbe705e6b	-0.23473518
6	0x3e28b7f0	0.16476417
7	0xbdfc5f1d	-0.12322829
8	0x3cf130d0	0.02944222
9	0xbe3da9d2	-0.18521813
10	0xbe13564f	-0.14388393
11	0x3d37acc9	0.044842515
12	0x3ea9942e	0.33120865
13	0x3dcb7671	0.099347
14	0x3e3515aa	0.17684045
15	0xbe878eb2	-0.26476055
16	0xbe7ed8e1	-0.2488742
17	0xbd153fb7	-0.036437716
18	0xbd938aa2	-0.072041765
19	0xbdb072dc	-0.08615658
20	0xbdbce435	-0.092232145
21	0xbec6aeca	-0.38805228
22	0x3da342b8	0.0797171
23	0xbd82ccc8	-0.06386715
24	0x3dfb3037	0.122650556
25	0x3c54dcab	0.0129920645
26	0x3e065ab6	0.13120541
27	0xbef52be2	-0.47885042
28	0xbd0bbfd5	-0.034118492
29	0xbe2d1fe0	-0.1690669
30	0xbda8e48c	-0.08246717
31	0xbe1ab7a4	-0.15109116

Ws.0 f4 [32, 32]
0	0xc01b02df	-2.4220502
1	0x3f279a23	0.6546957
2	0x3ed36ed6	0.412955
3	0x3eb5e635	0.35527197
4	0x403bab1f	2.9323194
5	0xbe7daeba	-0.24773684
6	0xbe6c248f	-0.23060821
7	0x40668b75	3.6022618
8	0xbde4f375	-0.11179248
9	0x3d65e30d	0.056124736
10	0xbfd98776	-1.6994464
11	0xbeb6a5c4	-0.35673344
12	0x3f73252f	0.9497861
13	0x3ce996da	0.028514314
14	0x3eae5256	0.34047192
15	0x3edb1526	0.42789572
16	0x3ec5a935	0.38605657
17	0x3eede1a5	0.46461216
18	0x3f13b6b6	0.5770067
19	0x400f94f4	2.2434664
20	0xbf1acae0	-0.6046581
21	0xbe9295c0	-0.28629875
22	0x3f407827	0.7518334
23	0x3f3bbb74	0.73332906
24	0xbed0901f	-0.40734956
25	0xbe0cade9	-0.13738216
26	0x3f833363	1.0250057
27	0x3f99b25f	1.200756
28	0x3e906d71	0.28208497
29	0x3e0799c7	0.13242255
30	0x3ee98afa	0.45613843
31	0x3fd59615	1.6686426
32	0xbfb9ccc3	-1.4515613
33	0xbf5606fa	-0.83604395
34	0xbbad3c21	-0.005286709
35	0x3fc57cf7	1.5428761
36	0xc02f5774	-2.7397127
37	0x3ee8c367	0.4546158
38	0x3f2579b8	0.64638853
39	0xbc3848ea	-0.011247853
40	0xbd5afef0	-0.053465784
41	0xbfba2e65	-1.4545408
42	0x3e343259	0.17597331
43	0x3f9af46f	1.2105845
44	0xbf4327a5	-0.7623237
45	0xbee680e1	-0.45020202
46	0x3e42a95a	0.19009915
47	0xbfdc4028	-1.7207079
48	0xbfa8d524	-1.3190045
49	0x3f8420ec	1.0322547
50	0xbea026ec	-0.31279695
51	0x3fcbc21c	1.5918612
52	0xc022fd0b	-2.5466945
53	0xbfb8123c	-1.4380565
54	0x3fdb0c2d	1.7113091
55	0xbee068f5	-0.43830076
56	0x3f07a1d5	0.5298131
57	0x3f7a8719	0.9786239
58	0x3fbafcb4	1.4608369
59	0x3efda8d9	0.49542883
60	0xbf2f069d	-0.68369466
61	0xc017f00c	-2.3740263
62	0x3f56b6eb	0.8387286
63	0x3eff2bb2	0.49838024
64	0xbe88924c	-0.26674116
65	0xc029c0fe	-2.6524043
66	0xbfa72645	-1.3058554
67	0xbe1f8ffa	-0.15582266
68	0x3e5bdfab	0.21472041
69	0x3fdc88c3	1.7229236
70	0xbf87930e	-1.0591753
71	0xbe9697fc	-0.2941283
72	0xc028c373	-2.6369293
73	0x3f593712	0.84849656
74	0x3fb03be8	1.3768282
75	0x3f340234	0.7031586
76	0xbf82dee8	-1.0224276
77	0xbc91239e	-0.017717179
78	0x3dff8595	0.124766506
79	0x3dd31040	0.10305834
80	0x3fbbdd08	1.4676828
81	0x3f2ec545	0.6826976
82	0xbee75033	-0.45178375
83	0x3faf36d7	1.3688611
84	0x3e9ebf32	0.31005245
85	0xbf070ab6	-0.5275072
86	0xbfd12be4	-1.6341519
87	0xbf964439	-1.173957
88	0x3fe67399	1.8004028
89	0xbec25f67	-0.3796341
90	0xbf8d5ff9	-1.1044914
91	0xbef79b2e	-0.4836058
92	0xbd89a40c	-0.067207426
93	0x3fd23907	1.6423653
94	0x3c6ace87	0.0143314665
95	0x3f11901d	0.56860524
96	0xc0279d39	-2.618971
97	0xbf1fcb8f	-0.6241998
98	0xbd24abba	-0.040202834
99	0xc018c83b	-2.387221
100	0xbdb85a35	-0.090015806
101	0x3f83bfff	1.0292968
102	0xbd1a649a	-0.037693597
103	0x3f6d5547	0.9270825
104	0x3f8a96f7	1.0827321
105	0x3fe65192	1.7993643
106	0x3f3f3a06	0.7469791
107	0xbf917b7c	-1.136581
108	0xbf92f555	-1.1481119
109	0xbf63bb12	-0.8895732
110	0x3dc41fa0	0.095763445
111	0x3e8e4e79	0.27794245
112	0xbf263747	-0.64928097
113	0xbde473a8	-0.11154872
114	0x3f6948dd	0.91126806
115	0x3fe5523d	1.7915722
116	0x3f04a6c7	0.5181698
117	0x3f7ff1b9	0.99978215
118	0xbf91ea44	-1.1399617
119	0xc080c012	-4.023446
120	0x3f388b15	0.7208722
121	0xbf1bce3c	-0.60861564
122	0x3f7e969c	0.9944856
123	0xbf9fc3d4	-1.2481637
124	0xbf559f2c	-0.83446
125	0xbfdc903c	-1.7231517
126	0x3e851505	0.259926
127	0xbe4c6237	-0.19959341
128	0x3d7bb36e	0.061450414
129	0xbe15cf71	-0.14629914
130	0xbf6260f9	-0.8842922
131	0xc07a8852	-3.9145703
132	0xbee18dd3	-0.44053516
133	0x3edd1ecd	0.43187562
134	0xc01d8359	-2.4611418
135	0xc002b965	-2.0425656
136	0xbef841bb	-0.48487648
137	0x3f14c2ac	0.58109546
138	0x3fd275e5	1.6442229
139	0x3e8b9ece	0.27269596
140	0x3e139edb	0.14416067
141	0xbc8a7b68	-0.016904548
142	0x3f78927b	0.9709851
143	0x3f749c55	0.95551044
144	0x3fca42c7	1.5801629
145	0xbf374176	-0.7158426
146	0xbf6cf3aa	-0.925593
147	0xc044ac1a	-3.0730042
148	0x3f62fe38	0.8866916
149	0x3f26d159	0.6516319
150	0x3f0aebab	0.5426585
151	0xbd9d9fff	-0.076965325
152	0x3edf75ab	0.4364446
153	0xc02a54ec	-2.6614332
154	0xbf8d3d2a	-1.1034291
155	0xc02e4d15	-2.7234547
156	0xbda5b648	-0.08091408
157	0x3f4df292	0.8044826
158	0x3f687f43	0.90819186
159	0xbf0b1857	-0.54334015
160	0xc02d0b4e	-2.703815
161	0xbf9b7e10	-1.2147846
162	0xbf44825d	-0.7676142
163	0x3f06c3a5	0.5264228
164	0x3d5c2591	0.053746764
165	0xbe9356ca	-0.28777152
166	0x3fd49f7a	1.6611168
167	0x3f42ecbc	0.7614248
168	0x3fb94243	1.4473346
169	0x3e71825c	0.23584884
170	0x3e874d8b	0.26426348
171	0x3f37a5c6	0.71737325
172	0x3f3f68c5	0.7476924
173	0x3fa15682	1.2604525
174	0x3f4ff88d	0.81238633
175	0x3f12e01f	0.5737323
176	0x3dd7c8fa	0.1053638
177	0x3e27f8ac	0.16403455
178	0x3f26a12f	0.65089697
179	0x3d96058a	0.07325275
180	0x3f41af01	0.7565766
181	0x3edddcb4	0.43332446
182	0xbd1128c9	-0.035439286
183	0xbff59f29	-1.9189197
184	0xbfb407f9	-1.4064933
185	0x3f81a7e1	1.0129358
186	0x3fb2ddd8	1.3973951
187	0xc05b9969	-3.4312384
188	0x3e98433b	0.29738793
189	0x3e8b4dc5	0.2720777
190	0x3fc5c096	1.5449398
191	0xc0106e00	-2.2567139
192	0xbf9aee7f	-1.2104033
193	0xc00f1ded	-2.2362015
194	0x3ed2a041	0.4113789
195	0x40190416	2.3908744
196	0xbf371ecd	-0.71531373
197	0x3f55141b	0.83233804
198	0x3f329a81	0.69767004
199	0x3fa54203	1.291077
200	0x4005bd7e	2.0896907
201	0x3eff151c	0.49820793
202	0xbea228ad	-0.31671658
203	0xc0222505	-2.5335095
204	0xbe24fad7	-0.16111313
205	0x3d1ec4f2	0.03876204
206	0x3f5ee434	0.8706696
207	0x3d8b779e	0.068099245
208	0xbf946100	-1.1592102
209	0x3d9e4eb8	0.07729858
210	0xbe737b49	-0.23777498
211	0x3fcf496a	1.6194279
212	0x3f4e6cdb	0.8063485
213	0xbf566be3	-0.8375837
214	0xbfe85342	-1.8150408
215	0xbf3dac37	-0.74090904
216	0xbe6ca0d8	-0.23108232
217	0xbe4ad060	-0.19806051
218	0xbf8da839	-1.1066962
219	0x3f80af74	1.0053544
220	0x400648e0	2.098198
221	0x4022b531	2.542309
222	0x3e0b88ba	0.13626376
223	0x3f41d60e	0.75717247
224	0x3fcf5e3f	1.6200637
225	0x3f824f12	1.018038
226	0xbf61e444	-0.8823893
227	0xbeb0b240	-0.34510994
228	0xbf721cd0	-0.94575214
229	0x3feb8c51	1.8402196
230	0xc00da162	-2.212975
231	0x3e6ca3f7	0.23109423
232	0xbc5a20e0	-0.013313502
233	0xbf2ff3da	-0.6873146
234	0xc01069f3	-2.2564666
235	0xc001a6d0	-2.0258064
236	0xbfced66f	-1.615919
237	0xc028ed4a	-2.639483
238	0x3fc65413	1.5494407
239	0xbfa217a7	-1.2663468
240	0x3ecd3803	0.40081796
241	0x3f8358eb	1.0261511
242	0x3edb2cab	0.42807516
243	0xbf71f442	-0.9451333
244	0xbe72644b	-0.23671071
245	0xbe722f3c	-0.23650831
246	0xbfc1f07b	-1.5151514
247	0x3f85d370	1.0455151
248	0xbeadfe47	-0.3398306
249	0x3f2c0ecb	0.6721007
250	0x3fade9a8	1.3586931
251	0xc018aa21	-2.3853838
252	0xbec8ca6e	-0.39216942
253	0x3f6d00d0	0.92579365
254	0xbeed8351	-0.4638925
255	0x3ff9b43d	1.9508129
